lightning_logs/version_111/checkpoints/epoch=49-step=50.ckpt (torch, 121243 bytes, 30 tensors)

gru.weight_ih_l0 f4 [96, 15]
00000000: 6f14 f6bd f126 e83d b713 edbc 520d bb3d
00000010: 0c59 1abe eedf b8bd 17d7 01bd e9a3 e83d
00000020: aacc ff3d c565 6e3d a4c0 fc3d 23c7 21be
00000030: a914 f23d 17e0 80bc f28e 003e 2e0e acbd
00000040: 719a 2e3e 643f 013e 0466 94bc c09a 7abd
00000050: c099 d03d f51f 933c 64e8 e73d a547 4dbb
00000060: d8c0 cb3d 8ac4 9dbd c6a6 eb3d ad58 26be
00000070: 2bc8 20be 0e83 e9bd be7a 5cbe 50bd 21be
00000080: 0a1b 1fbe 4c56 cfba d71d 4cbe 6d43 9d3d
00000090: f69d 073e 5a7a 0abc d048 65bd 6b9a 20be
000000a0: 234a ffbd db02 3dbd 038f 5fbc 2acf 713c
000000b0: 7a36 65bc 91a2 72bd d4fb 583c a1da 583d
000000c0: ef66 3e3c c20f da3d 8fbe c23d aa93 10bd
000000d0: 86f1 58bd 8cf1 abbd 2c80 333c f476 42bd
000000e0: 564e b2bc c53e f83d 8d3a 573d 49e0 24be
000000f0: b1a3 253e 4f5a d5bd 6256 6c3d 70e1 3d3e
00000100: 157e adbd 352a 433e 3eb5 02be 98a2 05bd
00000110: d436 363e 41b3 083e 950d d1bd b301 b6bd
00000120: bff0 1ebe 04a5 f83c 0149 843d e3f9 aabc
00000130: 329c b23d c80e 94bd da9f c23c eaa3 bfbd
00000140: e0cf 1b3e 0332 093e 45c9 de3d 4180 283e
00000150: 830e 053e 6f62 ba3c 76a5 543c 22e1 10be
00000160: 1a95 193e 318c 01be 2aaf 153d 812b d4bd
00000170: 5585 f33d 70d7 02be 8912 a53d 2542 513d
00000180: 484d 0d3d 10b5 89bd 8e6a a03d cba5 03be
00000190: 95e5 343e 9352 3a3d 3506 fd3c d43e d33d
000001a0: 327a 8c3d 2e14 ab3d ad13 10be b127 47be
000001b0: daee 26be f82b 0abe 9f9f 4fbd 14aa dbbc
000001c0: 8b48 bd3d 2e91 2c3d ad61 08be 8cec 673d
000001d0: 616f 8f3d 0bb8 25bd 7787 2abe 3114 f2bd
000001e0: 7084 e5bd 40d9 403d 11db 183c 89bc 063e
000001f0: db95 653d aa26 8b3d 472b b13d 1355 39be
00000200: 6610 453d 4ab9 c43d c1bf 393e c8f7 02be
00000210: 949d febd e378 efbd a9aa 4bbe 3b96 283d
00000220: b5f3 36bd 7eda 33be 9c24 6ebd f310 b53d
00000230: 3a84 2e3e a1b8 8d3d b79a aa3d 1b0d 40be
00000240: 5f9b c63d 5810 8b3d 7a1d 1e3e 2295 5fbd
00000250: 0623 303d 91cb 3bbc 65fe dd3d 7d74 813a
00000260: 3ceb 543d 2ff5 62bd e1db fb3b 38a2 b8bd
00000270: 41ad d93d 8de4 4cbe 9a27 993d ab2c fd3d
00000280: 0902 dcbd a596 b0bd 7603 e53b 064e d53d
00000290: b04f c43c 1b39 99bc 0e0d e93d ea3b 8c3d
000002a0: 2c3c d23d a96e 6ebd 352f 9c3d d17a 10bc
000002b0: 84b3 da3d f900 a0bd 76a7 0d3e 7f1c 013e
000002c0: c575 a03d 71ab 95bd 18f8 85bd 0359 213e
000002d0: 0ddd 413e d333 d6bd 898a 55bd 9c50 273e
000002e0: 787e 0c3e b659 9fbd 0cee 033e b7b8 3a3d
000002f0: a0ae 3fbd 1613 a3bd da3d 053e 945e ad3d
00000300: f107 a03d 687b e03d 6469 1c3e 5280 0b3d
00000310: b8d4 7dbb c167 89bd 9da6 1a3e 89a5 ae3d
00000320: b0e8 3c3d d164 a4bb be39 e53d 936c f53d
00000330: d924 c3bd dbac ad3d 629d 4f3d 9d81 fc3d
00000340: 7136 263d 1864 82bd 144e 143c 3553 0e3e
00000350: c6fb e23d 33cf 1a3e b02a 2ebe a3e9 adbd
00000360: c11b c03d d876 19be 9a37 cf3a f9fd 17be
00000370: 6414 3cbe 4b8f ae3d f806 03be 573a 26be
00000380: 6eaa 86bd 8560 e6bd 13f2 973d 17b9 00be
00000390: 4b53 8ebd d0e8 0e3e 7924 c03d b59f 96bc
000003a0: 161f 9a3d 77a4 ba3c 8d47 233e 5fe2 ccbc
000003b0: 437f 1e3e 2d15 16bc 5f8e ed3d 1770 813d
000003c0: 3945 ba3c 761c 6f3d 9383 a9bd af32 f43c
000003d0: 7a2e d2bc 5692 bebd 8fb3 a93d 6763 cfbb
000003e0: 4515 173e 0c24 a13d 4b82 7b3d 23dc abbd
000003f0: af0d dabd 9992 a73d 4fb3 cabd 6b45 93bd
-0.12015616 0.113355525 -0.028940065 0.091334 -0.15073031 -0.09027086 -0.031699266 0.113593884
0.124902084 0.058202524 0.12341431 -0.15798621 0.11820347 -0.015731854 0.1255453 -0.08401142
0.17051102 0.12621838 -0.018115051 -0.061182737 0.101855755 0.017959574 0.11323622 -0.003132322
0.099488914 -0.077035025 0.11506419 -0.16244765 -0.15701358 -0.1140195 -0.21531197 -0.15794873
-0.15537658 -0.0015818565 -0.19933258 0.07678876 0.13243851 -0.008452022 -0.055977643 -0.15683906
-0.12465312 -0.0461453 -0.0136449365 0.014758864 -0.013990039 -0.059237067 0.013243634 0.052942876
0.011621221 0.10647537 0.095090024 -0.035297073 -0.05296471 -0.08395681 0.0109558515 -0.047476724
-0.02176587 0.12121347 0.052546073 -0.16101183 0.16175725 -0.104176156 0.05769957 0.18543029
-0.08471314 0.1905907 -0.12764451 -0.032625765 0.17794353 0.1334963 -0.10207669 -0.08887043
-0.15521525 0.030352123 0.06459237 -0.020871108 0.08721198 -0.07229382 0.023757864 -0.09357436
0.15216017 0.13397984 0.10878233 0.16455175 0.12993817 0.022752015 0.012978902 -0.14148381
0.14998284 -0.12651135 0.036544003 -0.1035986 0.118906654 -0.12777495 0.08060176 0.05108847
0.03449753 -0.06723988 0.07832824 -0.12856214 0.17665704 0.045488905 0.030886749 0.10314718
0.068592444 0.08353458 -0.14070006 -0.19448735 -0.16302052 -0.13493335 -0.050689336 -0.026814498
0.09242352 0.04213064 -0.1331851 0.056622073 0.07003666 -0.04045872 -0.16653238 -0.118202575
-0.11206901 0.047082186 0.009329573 0.13157858 0.056051116 0.06794484 0.086508326 -0.1809886
0.048111342 0.096056536 0.18139555 -0.12789834 -0.124323994 -0.11692979 -0.1988932 0.041158896
-0.04466601 -0.17563817 -0.058140382 0.088411234 0.17042628 0.06919981 0.08330291 -0.18755
0.096976034 0.06790227 0.15440932 -0.054585584 0.04300215 -0.011462108 0.108395375 0.0009876635
0.05198215 -0.055409607 0.0076861237 -0.09015316 0.10628749 -0.2000906 0.074782565 0.12362035
-0.10742576 -0.08622483 0.006988938 0.104152724 0.02396378 -0.018703988 0.11379443 0.06847365
0.10265383 -0.058211002 0.076261915 -0.008818344 0.10678771 -0.078126855 0.13833413 0.12608527
0.07834963 -0.073080905 -0.06541461 0.15756612 0.1893198 -0.104591034 -0.05213407 0.16339344
0.13720119 -0.07780783 0.12883776 0.045586314 -0.046797395 -0.07962625 0.13011876 0.08465305
0.07814015 0.10961038 0.15274578 0.034057923 -0.0038731527 -0.067092426 0.1510262 0.08527667
0.046120346 -0.005016901 0.11192654 0.119835995 -0.095285125 0.08480235 0.0506872 0.12329409
0.040579263 -0.063667476 0.009051818 0.13898928 0.11083178 0.15118103 -0.17008471 -0.08491828
0.09380294 -0.14986742 0.0015809417 -0.14842977 -0.18367153 0.08523425 -0.12795627 -0.16233192
-0.06575476 -0.112488784 0.07419219 -0.12570606 -0.069494806 0.13955998 0.093819566 -0.018386701
0.075254604 0.022783501 0.15945263 -0.025010286 0.15478234 -0.009160322 0.11599421 0.063202076
0.022738086 0.05837675 -0.08277049 0.029809324 -0.025656927 -0.09305255 0.08286201 -0.0063289884
0.14754207 0.078682035 0.061403554 -0.08391597 -0.10647141 0.08182258 -0.09897482 -0.07190975

gru.weight_hh_l0 f4 [96, 32]
00000000: 2b11 07be 0151 cf3d 5061 eabc 0c14 29be
00000010: 9474 e03d 2a69 2ebd 5b56 063d 31c7 e13c
00000020: 712e 0a3e 9a38 8e3d 636a b1bd acac 343b
00000030: 7cd0 5cbe cc87 a43d cba8 2c3e e89f 77bd
00000040: a405 39bd d941 90bd 1e1b 29bd 3328 e7bd
00000050: 04d5 c9bd e407 e1bc 4f39 e9bd cdbe 8fbd
00000060: 720d 9b3d 5544 01be 76fd b7bd 21cc 05be
00000070: 7f37 16bd dc8b 3e3e eec6 103d c541 c0bd
00000080: 3740 63bd 2209 403e b810 6f3b 8f7c e1bd
00000090: aa65 2b3d 4b39 e2bc 0720 2cbe 23c5 d8bd
000000a0: f548 4a3d 9b2f a23d 124e ef3c 8679 4cbe
000000b0: 49e5 4abd 782e 963d 324b 6f3d d417 5ebd
000000c0: 4876 773d 4683 13bd b3af a73c 8de7 2e3d
000000d0: d0a9 0bbe fc9c 86bd 50e9 55bd 065c ed3c
000000e0: ae2b 303e 461e 813d fb81 c63d 352b 053d
000000f0: 916b f6bd f804 cbbd 874a 47bd e6a9 1fbe
00000100: c368 63bd ce9b d6bd 1a5b 3b3e a859 0ebe
00000110: 7228 c8bd 6875 573d 398a ae3d cc80 c93d
00000120: cdfb e6bd f3cf c3bd f97c c6bd 49e8 923d
00000130: bbde d33d 40b2 073e d34f 8dbc 417c 59bd
00000140: 8e34 23bc 4916 f13d d7a5 c1bd b66a 8bbd
00000150: 4c9f 9d3d f1d5 ba3d a2ec 83bd fda1 db3c
00000160: 087e 373e 77a2 ec3d 59fb 183e aac2 033e
00000170: c9e2 28bd dcea e3bd b1ea e73c bb45 7bbc
00000180: d3ec d3bd 16ff cb3d 181a 973d f0ba 19be
00000190: 5831 f7bc 53af b73d fa14 18be 62b5 81bd
000001a0: 9c78 9d3d 0ca6 1f3d 59d9 d0bc 6251 1c3d
000001b0: 0fd3 c6bd 8b53 01be dbab b6bd d319 c9bd
000001c0: c0d3 d4bd 3c25 e4bd 8288 f03d 3120 cb3b
000001d0: aa57 bbbd 4c71 1b3d 865e 89bd 82a4 16be
000001e0: d14b 2a3c 7e9f dd3d faee 963d 12fc 6f3d
000001f0: 4b1f 4bbd 8267 333d bc53 f2bd 20fc fa3d
00000200: 1aee 9c3d ee1e 843d ab60 0abe 30de d83d
00000210: aa61 0dbe 64a1 393d 74ab 3a3b 0451 a73d
00000220: c47d 293e 668d c33b 3743 fcbd b983 4b3d
00000230: 98d5 d2bc df07 84bd 2a98 64bd f158 123e
00000240: 40c0 34be da65 b03d 013a f8bd add8 06bd
00000250: 214d 133d 6fe4 2ebd e5ed 45bd dd25 243e
00000260: 2b06 ff3d 4929 ee3c f574 2fbd 6737 7c3c
00000270: e370 1dbe 5f5a 8f3c 8930 9cbd c447 4abe
00000280: 3c05 16be a4ea e9bc 633d e9bd 365a 43bd
00000290: e9f2 bf3d f069 033e 66b1 b6ba b873 8dbd
000002a0: 3205 a23d 3bfb 833d e514 f03d 8e39 2f3d
000002b0: d250 063e 4983 9bbd 22ae ee3d bf70 2ebe
000002c0: ffd9 413e 60ce a03d 24ac 893d b1b2 173e
000002d0: 8e97 3fbe 9f12 86bd cce5 25be c330 b8bd
000002e0: 722d dfbd cf70 013e 9b09 3bbd 2d96 a7bc
000002f0: 8ae6 8abb 9217 1b3d d29f 45bd 8aa2 f9bd
00000300: 2aac bb3d 7f3b 00be c05b 0e3e 6864 b6bd
00000310: 5bd3 2fbe e17c 3dbe 6bf3 2d3d 5f40 103e
00000320: afbc 533d c0e9 99bd 8c9d 0b3e 1d2c 25be
00000330: d048 1439 c05a 01be 8128 693d be2d f9bc
00000340: c9a1 6bbd ed54 eabd c6b7 383e f136 02be
00000350: b59f 3ebb 57fa 093e 4379 be3d 4d81 a7bd
00000360: 7d70 c7bd c908 8d3b d370 46be 8b1c dfbc
00000370: 1235 083e c801 7dbd 0ff7 a93d 4051 a8bd
00000380: b5a6 463e 2d2f d3bd 4287 8bbd 3012 64bd
00000390: d844 ea3c bc59 943d ea40 b0bd 465b 2abe
000003a0: 8c0e 453d 77e3 323d 22d1 43be 5cf9 a4bc
000003b0: ca10 1bbd 5d3d 52be d0f4 89bd 6ec6 f2bd
000003c0: b904 47be 7106 58bc b392 9ebd 4f38 bfbd
000003d0: 1655 1c3e 476d d93b 15fd c83c 893a 1ebd
000003e0: 0d9d 3e3e 4105 ff3d ff05 d23c 7f45 dcbd
000003f0: 82b7 ed3d 913a c3bd cadc 58be 7149 e03c
-0.13190143 0.10122872 -0.028610855 -0.16511554 0.109597355 -0.04258076 0.0327972 0.027560802
0.13494278 0.0694439 -0.0866287 0.002756874 -0.21563905 0.08033714 0.16861264 -0.060455233
-0.045171395 -0.070438094 -0.041285627 -0.11286964 -0.09855083 -0.027469583 -0.11387884 -0.07018814
0.07570924 -0.12623723 -0.08983891 -0.1306615 -0.03667402 0.1860804 0.035345964 -0.093875445
-0.055481162 0.18753484 0.003647847 -0.11010086 0.041845 -0.02761521 -0.16809092 -0.10584476
0.049385983 0.07919236 0.029212032 -0.19968233 -0.04953507 0.07333082 0.05842132 -0.054221943
0.060415536 -0.036013864 0.020469522 0.042701293 -0.13638997 -0.06572911 -0.052224457 0.028974544
0.17204162 0.06304602 0.096927606 0.03251191 -0.120322354 -0.09913057 -0.04865506 -0.15592155
-0.05551983 -0.10478936 0.18296471 -0.13901389 -0.09773339 0.0526022 0.08522458 0.09839019
-0.11278496 -0.095611475 -0.096918054 0.07173211 0.10345217 0.1325159 -0.017249977 -0.053097013
-0.0099612605 0.11771829 -0.094554596 -0.06807463 0.07696399 0.09122837 -0.064416185 0.02681064
0.17919171 0.11554425 0.14939632 0.12867227 -0.041231904 -0.1112878 0.028310152 -0.015336449
-0.10347905 0.09960763 0.07378024 -0.15012717 -0.030174896 0.08968987 -0.14851752 -0.06333424
0.0768902 0.038976714 -0.025494264 0.03816355 -0.09708225 -0.12629525 -0.089194976 -0.09819379
-0.103919506 -0.111399144 0.11744787 0.006198906 -0.0914758 0.037949845 -0.06707482 -0.14711192
0.010394053 0.10821436 0.073698 0.058590002 -0.04959039 0.043799885 -0.11832377 0.1225512
0.07662602 0.06451212 -0.13513438 0.10589254 -0.13806787 0.04531993 0.0028483542 0.081697494
0.16551882 0.0059677837 -0.12317508 0.049686167 -0.025736615 -0.06446814 -0.055809177 0.14291741
-0.17651463 0.08613177 -0.12120438 -0.032921482 0.035962228 -0.04269832 -0.048322577 0.16030069
0.12452348 0.02907242 -0.04283615 0.015394068 -0.15375094 0.017499147 -0.07626445 -0.19753939
-0.14650434 -0.028554268 -0.11388662 -0.047693454 0.09372503 0.1283338 -0.0013938367 -0.06906837
0.07911147 0.06444403 0.11722735 0.042779498 0.13116768 -0.075934 0.11654307 -0.17035197
0.18930815 0.07851863 0.06722286 0.14814259 -0.18710157 -0.065465204 -0.16200942 -0.089936756
-0.1089734 0.1264069 -0.045663457 -0.020457352 -0.004238908 0.037864275 -0.04824812 -0.12189205
0.09163697 -0.12522696 0.13902187 -0.0890587 -0.1717047 -0.18504669 0.04246847 0.14087056
0.051693615 -0.075152874 0.13634318 -0.16130109 0.00014141505 -0.12632275 0.056923393 -0.03041732
-0.057527337 -0.114419796 0.18038854 -0.12716271 -0.0029086892 0.13474403 0.093004726 -0.08178959
-0.09738252 0.004304026 -0.19378977 -0.02723529 0.13301495 -0.061769277 0.08299076 -0.08218622
0.19399531 -0.103117324 -0.06812908 -0.055681407 0.02859728 0.07243678 -0.086061314 -0.1663638
0.048109576 0.04367396 -0.19122747 -0.020138435 -0.03785781 -0.2053122 -0.067361474 -0.11854254
-0.19435395 -0.0131851295 -0.077428244 -0.09336912 0.15266833 0.0066353413 0.024534741 -0.038630042
0.18614598 0.12452174 0.025637625 -0.10755443 0.11607267 -0.09532655 -0.21177974 0.02737877

gru.bias_ih_l0 f4 [96]
00000000: d8cd e83d 0230 8bbd 626f 183e ab78 013d
00000010: 1306 5f3d 6be3 d23d d913 42bd 65e8 bcbd
00000020: b031 5ebd 868e 1dbe 5e23 c43d d652 38bd
00000030: 2489 f13c 2243 503e 4228 3e3e 2b20 abbd
00000040: bb5d 61bd fbf3 773b 288d 2a3e a9bb 313e
00000050: c646 3cbd 9ce3 2f3d 2142 6a3d 0c24 093e
00000060: 5915 fb3d 1130 c23c ff9e dcbd f395 0b3e
00000070: 0692 d2bc 58f1 d2bc 9bd4 263d 7e6d 4cbd
00000080: acd7 013d 8e7a 423d db2d ac3d 5b69 55bc
00000090: b62e 36be 8f31 4fbe bb7a 38be 1c8f a83d
000000a0: 4469 37be ae1f 14be 0a33 663d 1687 053e
000000b0: c98f d13b da52 873d d9f5 11be e1b2 303d
000000c0: 1a36 343d 306a 16be f8d1 bdbd e3d5 d2bc
000000d0: 3476 123e 82c3 debd 86b4 01be 0626 5bbc
000000e0: 8911 b63d f8ab 34be d099 1bbe 0f57 09be
000000f0: 1663 2b3d 2b4a 7d3b 9356 d8bc fd98 f63d
00000100: 7011 0d3e 58be 0b3e 6ac9 abbc 7c9a 41be
00000110: ca13 f6bd 6aea c13c 3bd2 ff3c 1ae3 b2bd
00000120: c89d 7a3d b072 aebc e7ce 29bd d132 ddbd
00000130: e509 f9bc f5cf d7bd 0b80 29bd eea1 d03d
00000140: 1204 3ebe 825e 0c3e 67ac 403d cb36 1ebe
00000150: 0dad 483e 9828 ab3c 88cc 583c cc0e 1a3e
00000160: 463e c43d 7bbd 17be 107f 1f3e ec2b 013e
00000170: 6e3b 19bd d822 33bd 028c 09bc b936 553d
0.113673866 -0.06796266 0.14886239 0.03160922 0.054449152 0.10297283 -0.04738221 -0.09224013
-0.054246604 -0.153864 0.09577058 -0.045000874 0.029484339 0.20338109 0.18570045 -0.08355745
-0.05502103 0.0037834633 0.1665541 0.17356743 -0.045965932 0.042941675 0.05719197 0.13392657
0.12259931 0.02370456 -0.107725136 0.1363142 -0.025704395 -0.025749847 0.0407301 -0.049909107
0.03169982 0.04748016 0.08407184 -0.013025607 -0.17791256 -0.20233749 -0.18015568 0.08230421
-0.1791125 -0.1446521 0.05620102 0.13039812 0.0063953144 0.066075996 -0.1425394 0.043139342
0.043996908 -0.14688945 -0.09268564 -0.025736755 0.14302903 -0.10877134 -0.1266652 -0.013375765
0.08890063 -0.17643726 -0.15195394 -0.13412116 0.041842543 0.0038648944 -0.02640847 0.12040899
0.13776183 0.13646829 -0.020970065 -0.18906587 -0.12015493 0.023671348 0.031228175 -0.087347224
0.06118563 -0.021294922 -0.041457083 -0.10800708 -0.030400226 -0.105377115 -0.041381877 0.10187136
-0.1855624 0.13707927 0.047039416 -0.1545059 0.19597264 0.02089338 0.013232358 0.15044707
0.0958219 -0.14818375 0.15575814 0.12614411 -0.037410192 -0.0437344 -0.008395197 0.05205414

gru.bias_hh_l0 f4 [96]
00000000: 9039 273e f29d 76bc 94d5 383c 0a25 53bd
00000010: 5730 e53d e35f e33d 1140 123e 65ba fc3d
00000020: 0905 a43d de4d 1a3e fc4c 4e3e 3e14 913d
00000030: b6a4 393e bf0d 423e 6f96 6a3d 1b6f a0bd
00000040: d83a 87bb 9ea2 023e f971 a5bd 2b3c 053d
00000050: b94c 343e 4e61 bc3d 1d6a 1cbd 4d9f 51be
00000060: cb92 ad3d d5ee 7fbd 3ff0 d43d a38d 9a3d
00000070: cee9 4b3c 4273 fdbd 0f48 dd3d 3d42 0f3e
00000080: f78a d1bd 6137 103e 6a49 2dbd 425c a5bd
00000090: fcd2 ab3d c73b 8f3d 7a51 e1bd 7a7a b1bc
000000a0: 01fb 843d c0a8 033d b0f9 83bd e1ec 0d3e
000000b0: 77e5 ef3d 8365 d93c d757 52be ee7c b43d
000000c0: 7ec7 e9bc 79da d03c 0d9e 943d 6f81 06be
000000d0: 3625 4a3d 94ed bb3d b897 4dbd 0a24 593c
000000e0: 6321 d03d 850e 493d 359e d03c 0d77 99bc
000000f0: 678f d2bc ccb1 15be c7a7 4bbe 9f6e b4bd
00000100: bbb0 5a3e f190 9c3d 572e 3c3e 4d02 6abc
00000110: 87e3 92bd 27be c73d df24 a9bd ccb2 5abe
00000120: 27b8 873d cf73 c4bd 33d0 18be 629e ea3d
00000130: 958b c4bd 55da 2abd 95a4 fcbd fca2 193e
00000140: 11ec 50bd 8444 aa3d 9406 003e 0e01 26be
00000150: aab4 e0bc 7995 eebd a5ed 5d3e 1ce2 883d
00000160: b05b 0f3e 65d7 c03d d2c4 42bd 0c8a 5dbd
00000170: a9c7 0d3e ded4 e73d e1db d63d 0800 a93d
0.16330552 -0.015052306 0.01128139 -0.051548995 0.11190861 0.11102273 0.14282252 0.123402394
0.08008773 0.15068766 0.20146555 0.07083939 0.18129238 0.18950556 0.05727237 -0.07833692
-0.004126888 0.12757346 -0.08078379 0.032528084 0.17607392 0.09198247 -0.038187135 -0.20470925
0.08475264 -0.062483627 0.10397386 0.07546546 0.01244588 -0.12375499 0.1080476 0.13990112
-0.102315836 0.14083625 -0.04230634 -0.080742374 0.083898515 0.069938235 -0.110018685 -0.021664847
0.06493188 0.032143354 -0.064441085 0.13859893 0.11713689 0.026537662 -0.2054132 0.08812891
-0.028537508 0.0254948 0.07256708 -0.13135312 0.049351893 0.09176174 -0.05019352 0.013253221
0.10162618 0.049086113 0.025466064 -0.018733526 -0.025703145 -0.14618605 -0.1988822 -0.08810162
0.2135648 0.07644833 0.18377052 -0.014282775 -0.07172304 0.097530656 -0.08258986 -0.21357268
0.06626921 -0.09592401 -0.14923172 0.114559904 -0.09596936 -0.041712124 -0.12336079 0.1500358
-0.05100638 0.083138496 0.1250251 -0.1621134 -0.027429897 -0.116496034 0.21672685 0.06683752
0.1399982 0.09416083 -0.047550984 -0.05408673 0.13845696 0.11319898 0.10491157 0.08251959

output_layers.0.weight f4 [64, 32]
00000000: cb22 5a3d bb6f cabd cb02 48bc 24cf a1bd
00000010: 6331 2fbe 4c94 da3d 6efe 873d 9f96 7f3d
00000020: 8822 9cbd d0e2 053e c5df 0ebe 03fb 823d
00000030: be9b 1a3c 197f 0f3d 08d1 983d 71a1 a3bb
00000040: ca28 223d ddfe c4bd 236d bbbd 7971 b03a
00000050: e5d5 1dbe 4f50 c23d 6d19 cabd a1e8 46be
00000060: 65f0 bc3b f02f 94bd 90fc 733b 2cf0 9d3d
00000070: 4030 0d3e ec1a b53d 7321 38bd 1990 25be
00000080: a325 103e 4d25 5f3e e45b 2ebe e056 45be
00000090: cf76 e63d b51a a3bd d106 48be e24d 54be
000000a0: 1e58 fd3b d6df f93c 5dea 0fbe cdf9 243c
000000b0: 3d7b c73d 637f 59be 630d 393e 8f0a f0bc
000000c0: 22e7 f2bc 8c36 dfbd 6574 0dbc b820 9c3c
000000d0: 5da6 05bd 7337 d1bd e367 50bd 1c8f 3c3e
000000e0: 695a abbd a18c 503d db7d 48be 2b29 af3d
000000f0: 564c 863c e2d3 043d 9238 403d fcc8 c0bd
00000100: 9c4c 96bb 8cd9 bf3c 5c19 14bd 0c02 1abe
00000110: 8107 0d3e 12e6 413e 3f73 433d b302 27be
00000120: bee7 043e 7d45 e83d 2e55 033e 2748 ed3d
00000130: 95ff 1f3e 7c21 3e3d f273 513d a70a cc3d
00000140: 8a32 1abe da5d ca3d 8648 3a3e b9aa 553c
00000150: 2e2e 34be 8ec0 233d fbb3 c4bd 9161 a6bb
00000160: 6a70 3dbe c821 b83c b064 f33c be2b 953d
00000170: 0ce5 503e d59f c4bd 678d 81bd e421 da3d
00000180: 0323 183d 2292 52bd 5d65 d1bd 70f6 0c3e
00000190: 42ae 1abe 09fa 993d 97a5 b53c 58af 8dbd
000001a0: 4d37 29be e8df 0f3e 8ee5 f63d f5dc 32be
000001b0: 8335 d13c 45c7 9bbb 1ab6 3dbe 943e c1bc
000001c0: a91f 7b3d 34b1 333e 2b48 10bd 806b f53c
000001d0: 8179 1f3c e321 503d 6eb6 4fbd 6ceb 223e
000001e0: 3b36 08be 7b2b 51be 6533 0b3d a230 9e3d
000001f0: afdc 823d 0b7e abbd 1813 32bd 1871 1b3e
00000200: 4f41 4f3e c676 273e 42b9 d1bd 01f0 7fbc
00000210: dee2 7ebb 3c40 d9bd 60bc 32be dcf8 943d
00000220: 113b 8f3d bfe0 593d e9ab 09be e7dc 9bbd
00000230: 47c2 5cbe f486 983d c98c fcbd e0eb 903c
00000240: 5d26 dabd 32e2 f2bd 31ed 383e cf0e 5bbe
00000250: e677 7dbd bd1d 49be 6fd4 083e 1141 21bd
00000260: aae8 7b3c d629 d73d f098 d9bd d8d0 ae3d
00000270: 1d21 cd3d 2002 e43d 6371 313e f0e9 16be
00000280: 1073 5f3e e640 06be a524 08be 13a2 50be
00000290: 04d3 9d3d 5d35 d8bc 3882 533d f01e 093e
000002a0: 4d53 b43d 048f febd 214d 2f3d 1963 063e
000002b0: 7bd2 09be 1816 ef3d 3984 1ebd eeaf 87bc
000002c0: f4f4 4ebe f7bc 18be 9f5e de3d 89df 15be
000002d0: 29f8 123e bfa9 14be 7bf7 8fbd ea80 ecbd
000002e0: 42ee 6a3c b17f 423e d35a 2dbe f485 923d
000002f0: 5d40 93bd 6b76 603e 8288 563e dac1 e9bd
00000300: 9554 043e 091a 5c3c 5d2e d8bd 233b 153e
00000310: e20c 64bd 3824 6e3c b385 8f3a a899 063e
00000320: 5af0 80bd 8d32 d9bd 3309 773d 0893 3cbd
00000330: c292 b6bc 4a72 da3d c082 28be f51f 45bd
00000340: b6ef ab3d 194e d83d 3349 3bbe 6405 00be
00000350: 899c 28be 6e3b 2b3e f014 e63d 9877 1b3e
00000360: 6034 4cbd 70a1 f23d c2dc 5d3c 48fa abbd
00000370: 7b08 9cbd 6a22 733d 7d8f 6abd dc20 00be
00000380: cb37 fa3c 3586 c03d 8ae3 393c 44bd 60bd
00000390: 50a9 c93d a964 143e 1daa 92bc 507a 13be
000003a0: 7fb5 4ebd b0d5 21be b477 bf3d afc0 34be
000003b0: e577 c2bc 4576 d2bc c102 013e 8d1c 2b3c
000003c0: 107a 03be 53d7 37bd dfca f4bd 56c3 9b3d
000003d0: f847 3ebc 9237 83bd fa8a 21be ee98 d93d
000003e0: 0188 e13c 1c09 83bd 395d 90bd 8177 003e
000003f0: 48ca d5bc 6f36 0fbe 24c7 1cbe 7c35 083e
0.053255837 -0.09884592 -0.012207697 -0.07900837 -0.17108683 0.10672817 0.066403255 0.062399503
-0.07623774 0.13074803 -0.13952549 0.06395533 0.009436546 0.03503332 0.074617445 -0.0049936105
0.03958968 -0.09618924 -0.091516756 0.0013461552 -0.15413626 0.09487974 -0.09868131 -0.19424678
0.005765962 -0.07235706 0.0037229396 0.07711825 0.13787937 0.088430256 -0.044953775 -0.1616825
0.14076857 0.21791573 -0.17027241 -0.19271421 0.1125313 -0.07964078 -0.1953385 -0.20732835
0.0077314517 0.030502241 -0.14054246 0.010069323 0.09740303 -0.2124 0.18071513 -0.02930191
-0.029651228 -0.10899076 -0.008633708 0.01905857 -0.03262936 -0.10215654 -0.050880324 0.18413967
-0.08366854 0.050915364 -0.1957926 0.08552774 0.016393822 0.03242863 0.04692895 -0.09413335
-0.0045867693 0.023419164 -0.036156997 -0.15039843 0.13772394 0.18935421 0.04771733 -0.16309623
0.12979028 0.11341379 0.12825462 0.115860276 0.1562484 0.046418652 0.051135965 0.09962969
-0.15058342 0.09881182 0.18191728 0.013041192 -0.17595741 0.039978556 -0.09604641 -0.005077549
-0.18499914 0.022477046 0.029711097 0.07283734 0.20399874 -0.09600798 -0.063257985 0.106509954
0.037142765 -0.051408894 -0.10224412 0.13765883 -0.15105537 0.075183935 0.022173686 -0.0691821
-0.16525002 0.14050257 0.12055503 -0.17467101 0.025538212 -0.0047539794 -0.18526497 -0.02358941
0.06130949 0.17548066 -0.035225075 0.029958487 0.009733559 0.050813567 -0.050711088 0.15910119
-0.13301937 -0.20426743 0.03398456 0.0772412 0.06389748 -0.0837365 -0.04347524 0.1517986
0.20239757 0.16353902 -0.10240413 -0.015621186 -0.0038892548 -0.10607955 -0.17454672 0.07274029
0.06993688 0.05319285 -0.13444485 -0.07610493 -0.21558486 0.07447615 -0.1233154 0.017690599
-0.106518485 -0.118595496 0.18059231 -0.21392368 -0.061881922 -0.1964025 0.13362287 -0.039368693
0.015375296 0.105060264 -0.10624874 0.085359275 0.100160815 0.11133218 0.1732841 -0.14737678
0.21821237 -0.13110694 -0.13295229 -0.20374326 0.07706264 -0.026392633 0.05163786 0.13390708
0.08804951 -0.12429622 0.042798165 0.1312374 -0.13459198 0.11674136 -0.038700316 -0.016563382
-0.2021063 -0.14915834 0.10857891 -0.14636053 0.14352478 -0.14517878 -0.07029625 -0.11548026
0.014339032 0.18994023 -0.16929178 0.07154456 -0.07190011 0.21920173 0.20950511 -0.114139274
0.1292289 0.013433942 -0.10555718 0.1457334 -0.05567635 0.014535002 0.001094988 0.13144553
-0.062958434 -0.10605345 0.060311507 -0.046038657 -0.022286776 0.1066633 -0.16456127 -0.04812618
0.083953306 0.10561771 -0.18289642 -0.12502056 -0.16465963 0.1672189 0.11234462 0.1518234
-0.049854636 0.11847198 0.013541402 -0.08397347 -0.07618805 0.05935899 -0.057265747 -0.12512535
0.030544182 0.09400598 0.011345753 -0.054867998 0.09846747 0.14491524 -0.017903382 -0.14402127
-0.050466057 -0.15804172 0.093490034 -0.17651628 -0.02373881 -0.025691161 0.12598707 0.010443819
-0.12839532 -0.044883084 -0.11952757 0.07605617 -0.011613838 -0.064070836 -0.15775672 0.10624872
0.027530672 -0.06398222 -0.07049031 0.12545587 -0.026097432 -0.13985609 -0.15310341 0.13301653

output_layers.0.bias f4 [64]
00000000: 5ceb 2abe ab5d af3d 788c a0bd 8590 153e
00000010: 9f0b 143e cb40 98bd 2059 48bd 42ea 30be
00000020: 139a c6bd 5025 0f3e 87d3 823d 7375 f53c
00000030: b131 c03d 40fd 7a3d cdf6 b83d 59d1 9ebc
00000040: e0aa 463e 1e13 16be 564a f4bd 71d9 b9bd
00000050: 91f7 c6bd 8aa7 ea3d 5d45 2fbe ad63 9d3d
00000060: b317 9ebb 12e8 4d3e 5173 263e 0ed3 6a3d
00000070: 9351 c93c 2d09 52bc 4360 3a3d e59c 36bd
00000080: 8912 293e 04ee 9a3d b20f 243d 2609 b33d
00000090: 7ed6 e43d c993 4b3e 753e dabd 48a4 293e
000000a0: 4d09 bfbd 9942 26bd 20dd 0b3e 7a2b 93bc
000000b0: 676a c33d 9af3 1d3d 804f 1d3d 8406 313e
000000c0: e86f bdbd 7a27 2cbe 720b c33c f766 2f3c
000000d0: 2833 1b3e c1f7 183e 9a49 9f3d daa6 b2bd
000000e0: 9251 dabb 0a27 683d db24 063d 650c 743d
000000f0: 86c1 323d fc74 103e 6efd 173d 5a17 933c
-0.16691345 0.085627876 -0.07839292 0.14605911 0.14457558 -0.07434233 -0.04891312 -0.17276862
-0.09697356 0.13979077 0.06388002 0.02996323 0.09384478 0.061276674 0.090314485 -0.019386934
0.19401121 -0.1465573 -0.11928241 -0.09074677 -0.09715188 0.11457737 -0.17116304 0.07685027
-0.0048246025 0.20108059 0.16254927 0.057330184 0.02457503 -0.0128195705 0.04550196 -0.04458322
0.16510977 0.07564929 0.04005403 0.08741979 0.11173724 0.19880594 -0.10656444 0.16566575
-0.09327946 -0.040590856 0.13658571 -0.017965067 0.09541779 0.038562395 0.038405895 0.17287642
-0.0924986 -0.16811934 0.023809168 0.010705701 0.15156233 0.1493826 0.0777771 -0.08723231
-0.006662556 0.056677856 0.032749992 0.059582133 0.04364159 0.14107126 0.037106924 0.01795547

output_layers.3.weight f4 [32, 64]
00000000: 1690 56bc 5463 8a3d 41c2 37bd ba0c 07be
00000010: 9f98 c43d 842f f6bd c684 dabd 75ac c93d
00000020: d4b9 933d 74c9 b43d 95c8 eabd 429c a03d
00000030: 8ac2 6b3b 0b45 e33c d222 3bbd 7939 8b3d
00000040: ac55 8ebb 9e41 073c 3bf7 efbd 6ce2 b93c
00000050: 961b 863d 59b5 c6bd 7369 453d 0808 92bd
00000060: 6e7f 703d 4b9e f4bd f6c5 06be b84f 433d
00000070: a8fc dbbd a82d a93d 1d49 7e3c 3966 d3bc
00000080: 383b 9e3d 98d7 cdbd 0fce a7bd 38a7 823d
00000090: ead4 04bd c266 46bd 5655 d7bc 425a bebc
000000a0: 3346 703c 65a9 f23a 0e39 aebd 1baa eebd
000000b0: d34e 2f3d 7129 463d a7e0 85bd 0598 ccbd
000000c0: fe2b afbd 881e 823c e033 8eba 1200 35bd
000000d0: c301 d8bd b52f 9b3d bfd8 9b3c 2eb2 8ebd
000000e0: 25a4 0dbd 335f ebbd 4101 c03d b55e f4bd
000000f0: ee99 33bd 08a6 a9bd 59a0 97bb ecf4 953d
00000100: a8c7 42bd f7a9 a8bd 8c6f ebbd 20df 7ebd
00000110: 3b8e efbc 876b 20bd 91f2 4c3d f09c d53c
00000120: 90d5 5f3c 53ec 02bd 458f 283c 822d bbbd
00000130: 5962 3b3d f6f7 ab3d c7cd 2fbd ec74 383c
00000140: 5b68 c53d 1643 11bd 6a88 d93d 0500 ffbd
00000150: 0118 05be 5b2b febc a1c1 85bd 0c8f 9fbd
00000160: 4f90 e6bd 515a f53c 454e cabd c8b3 283b
00000170: 62b4 173d 069a 86bd e669 31bd bcd1 993d
00000180: 2a18 3dbd 856c 073d 9abc 2d3d 14a0 88bd
00000190: f706 11be 09d4 9cbd ed58 553d 9072 11be
000001a0: 85ba 06be 7332 1fbc 219b 01be 47f0 843d
000001b0: 1499 83bd 7803 9abd 5929 dfbd 96ab d2bc
000001c0: b5e0 423d 8cd4 a2bd 83c3 a53d 757b 86bc
000001d0: 6e43 34bd 4f2f 823d 7084 8b3c b2bc 65bd
000001e0: c7d8 b6bd f208 123b 1f1e f0bd 0fad 5ebd
000001f0: e80d 8b3d 821b dcbb 1a9f a93d 4c15 8a3d
00000200: 86ef fbbd 3e6e ae3d 1ca6 d4bd 83fa c43d
00000210: c55a 5ebd 418b e2bd 74a7 d8bd ce1d d2bd
00000220: c035 73bb c485 af3d fc00 d53c 68d6 ba3b
00000230: 81f0 83bc 098b 02be 3d8a 563d 8067 58bc
00000240: af51 18bd f5e6 36bc 7594 eb3c 0cd0 0c3d
00000250: 404e 9abd b123 05be 768c b33d 3ccb 31bd
00000260: 971a 0ebd 08e8 f6bd 51a2 eabd 1028 a5bd
00000270: 7b54 0ebe 32f9 5c3c 521e c9bd 9d14 09be
00000280: 3fff e8bc b866 083d fb54 56bd 51dc ebbd
00000290: 6ae8 87bd 2f80 0ebe 607e 30bc 94a5 97bd
000002a0: 84e8 96bd 65dd b7bb 4f51 f53b 9b83 90bd
000002b0: bdfe c13c 00e4 833c 93fe 3c3d b6ea 28bd
000002c0: cc84 b73d c260 973d c89c 86bd b760 dabc
000002d0: 9d09 b43d f986 80bd 2d89 b5bd 9233 29bd
000002e0: dfa1 81bd caf2 acbc 08b4 973d cbbf 8dbd
000002f0: 3355 bebd 0fba f9bd 1f17 3abd e453 e23d
00000300: 7cf0 543d a3c4 8cbd cf69 e83c 9e41 48bd
00000310: 5e9f ce3d 8ce9 943d e884 6bbc ad8f e0bd
00000320: 6c74 c1bd cd73 7a3d 0d8b abbd 85bf 383d
00000330: 9e49 c43d ad9b abbd 6112 603d 6094 9c3d
00000340: bf5f 1a3d 472f 5fbd 2fbd 87bd d500 b6bd
00000350: 8348 353c 3489 803b a901 96bb d1ae a33b
00000360: ece5 0a3e 497c 203e 18e4 8bbd 3d0a 1a3e
00000370: d731 0c3e 1aca b3bb 669f e43b b337 efbd
00000380: 2e88 6bbd 07e1 753d e4f6 2c3d dd35 a5bd
00000390: 5e1e 923d 1f91 f23d 54a2 86bc 4f99 1e3e
000003a0: a0e4 a83d a61e c43d 2905 103e 957b 283c
000003b0: 0a2c 893d 3e2d b43d bd37 2fbd 8db3 183e
000003c0: 18b8 f03d d0ca 77bc 50a8 0c3e a838 c03d
000003d0: c1f2 153e 5990 b73d e8ee 5a3c 5058 0fbd
000003e0: 7683 133e 0802 83bc 37a6 c33c a2c8 4c3d
000003f0: 6cde 00bd f1a8 3a3d 9335 303d 13bb bb3d
-0.013095876 0.067572266 -0.04486299 -0.13188449 0.09599423 -0.12020782 -0.10669856 0.09847347
0.07213178 0.08827487 -0.11464039 0.07842304 0.0035974109 0.027742883 -0.045687504 0.067980714
-0.004343709 0.00825539 -0.11717077 0.022690974 0.0654823 -0.09702558 0.048196267 -0.07130438
0.058715276 -0.119442545 -0.13161454 0.047683448 -0.1074155 0.08260661 0.015520361 -0.02580558
0.07726139 -0.10050887 -0.081935994 0.06379551 -0.032429613 -0.04843784 -0.026285809 -0.023236398
0.014665174 0.0018513618 -0.08506976 -0.11653539 0.042799782 0.048379365 -0.0653699 -0.09989933
-0.08553313 0.015883699 -0.00108492 -0.04418952 -0.10547211 0.07577459 0.019024251 -0.06967579
-0.03458037 -0.11492767 0.09375239 -0.119321264 -0.04384797 -0.08283621 -0.004627269 0.07322106
-0.04755369 -0.08235543 -0.11495885 -0.062224507 -0.029242625 -0.039165046 0.050036017 0.02607581
0.013661757 -0.031963658 0.010288064 -0.09139539 0.04574809 0.08396904 -0.042920854 0.011258345
0.09639045 -0.03546437 0.10621722 -0.124511756 -0.12997438 -0.031026533 -0.065310724 -0.07790956
-0.112579934 0.029950293 -0.0987821 0.0025741924 0.03703726 -0.065723464 -0.043313883 0.07510707
-0.046165623 0.033062477 0.042416193 -0.066711575 -0.14162813 -0.0765763 0.05208676 -0.14203858
-0.13157089 -0.009716618 -0.12656833 0.06491142 -0.06425682 -0.07520193 -0.10896558 -0.025716584
0.04757758 -0.07950696 0.080939315 -0.01641629 -0.04400962 0.0635668 0.017030925 -0.056088157
-0.08928066 0.0022283164 -0.11724495 -0.05436426 0.06789762 -0.0067171464 0.08282299 0.06742343
-0.12301545 0.08517121 -0.10383245 0.09618094 -0.054285783 -0.11061717 -0.10578814 -0.10259591
-0.0037110895 0.08570436 0.026001446 0.0057018287 -0.016105892 -0.1274835 0.052377928 -0.01320827
-0.037187275 -0.011163463 0.028757313 0.034378096 -0.07534456 -0.13001896 0.08767025 -0.04340671
-0.034693327 -0.12055975 -0.11456741 -0.08064282 -0.13899414 0.013487147 -0.09820236 -0.1338677
-0.028442023 0.033301085 -0.052327137 -0.115166314 -0.06636126 -0.13916086 -0.010772318 -0.074046284
-0.073685676 -0.005611109 0.0074864994 -0.07056352 0.023681039 0.01609993 0.04614122 -0.041239463
0.08960876 0.07391502 -0.065728724 -0.026657445 0.08790896 -0.06275744 -0.08864055 -0.041308947
-0.063297026 -0.021111865 0.07407385 -0.06921347 -0.09293594 -0.12193691 -0.045432206 0.11051157
0.051987156 -0.06873443 0.028370766 -0.048890702 0.10088991 0.07271108 -0.014374949 -0.10964904
-0.09446034 0.061145592 -0.08376131 0.045104522 0.09584354 -0.08379302 0.054705027 0.07645488
0.037688967 -0.054488447 -0.06627881 -0.088868774 0.011064651 0.003922606 -0.0045778346 0.004995205
0.1356427 0.15672411 -0.06830615 0.15042968 0.13690887 -0.005486739 0.0069770096 -0.11680546
-0.057502918 0.060029056 0.04222764 -0.08066914 0.07134698 0.11844086 -0.016434826 0.1548817
0.08246732 0.09576158 0.14064468 0.0102833705 0.06697853 0.08797692 -0.042777766 0.14912243
0.11753863 -0.015124038 0.13736081 0.09385806 0.14643385 0.08963079 0.013362624 -0.03499633
0.14405617 -0.01599218 0.023882968 0.049996026 -0.031462118 0.04557127 0.043019842 0.09166541

output_layers.3.bias f4 [32]
00000000: e2de 0bbe 425b 60bc 7c80 2fbd 5a51 3e3d
00000010: e4b9 5dbb ca9d ce3c ec30 343d f80f 22bd
00000020: 469b 25bc 95b2 6ebd cb1e 8fbd d348 87bd
00000030: 5ee4 383c a7b6 ca3d bea0 05bc 00be 89bd
00000040: 0824 64bb c4c7 853d eb72 62bd 90ea 6c3d
00000050: a257 18bc e3fa 0ebe 29d2 df3c 783e 1e3c
00000060: 6018 5cbd aeb5 bc3b f90e adbd 08a5 213e
00000070: 8049 f8bc d046 973d 7580 76bd 1d49 6fbc
-0.13659242 -0.013693633 -0.04284714 0.0464643 -0.0033832723 0.025221724 0.043991968 -0.03956601
-0.010107821 -0.058275778 -0.06988295 -0.06605687 0.011284916 0.098981194 -0.008156 -0.06725693
-0.0034811515 0.06532243 -0.055285376 0.057840884 -0.009298237 -0.13962893 0.027321892 0.009658448
-0.053734183 0.0057589626 -0.084501214 0.1578561 -0.030308485 0.07386553 -0.0601811 -0.014604834

output_layers.6.weight f4 [2, 32]
00000000: e956 1f3e 1ee9 2b3e c266 b5bd c569 213e
00000010: bc68 f6bd c517 bdbd ff64 373d 91e3 323e
00000020: f7b1 bfbd bcbd 45bd 6338 143e 92b0 2cbd
00000030: 19da e9bd 1e9c 0e3e 45a2 7cbc 06b5 28be
00000040: 630c 69bd 92c1 d9bc 526b bebc b0b4 cb3c
00000050: 898c 393e 3979 88bd c39a 0f3e 7405 89bc
00000060: a1c0 1a3d caf5 b43d 5919 e0bd 901d dbbd
00000070: 9a4e 8c3d 744b 9d3d d2ab 223d bcd3 f4bc
00000080: 32ad f93d 52f7 fd3d 76e8 19bb 797b 5bbe
00000090: b3e2 44be 7235 50bb 9357 0cbe 8290 e03d
000000a0: 04e0 c0ba c28d f2bd 5da0 bf3d da6f 733c
000000b0: d83f da3d b572 9d3d 08cb 1abe e905 003e
000000c0: b160 73bd c076 a1bd b77d 943d a7f8 61be
000000d0: 1c17 153d 189d e93c f6fe d53d 7b75 56be
000000e0: 4b33 99bd 6187 40be 9f5b 2fbe 6265 f6bd
000000f0: 1f4c ecbd 0123 28be a8da 18be b395 4abe
0.15560497 0.16788146 -0.0885749 0.15763004 -0.12031695 -0.09233049 0.04477405 0.17469622
-0.09360116 -0.048276648 0.14474635 -0.042160578 -0.11418552 0.13926741 -0.015419547 -0.16475305
-0.05689658 -0.02658156 -0.023244534 0.024866432 0.18120016 -0.066637464 0.1402388 -0.016726233
0.03778136 0.08835943 -0.10942335 -0.10698998 0.068509296 0.07680407 0.039714642 -0.029886119
0.121912375 0.12400688 -0.0023484505 -0.2143382 -0.19227104 -0.0031770137 -0.13705282 0.10965063
-0.0014715199 -0.118434444 0.09356759 0.01485821 0.106567085 0.07687894 -0.15116513 0.12502255
-0.059418384 -0.07883978 0.07250541 -0.2206751 0.036398992 0.028517291 0.104490206 -0.20943253
-0.074804865 -0.18801643 -0.17124794 -0.12031056 -0.115379564 -0.16419603 -0.1492716 -0.19783668

output_layers.6.bias f4 [2]
00000000: d984 a9bd c2c2 d03d
-0.08277292 0.10193397

exp_avg f4 [96, 15]
00000000: 7481 d4b9 96a5 d0b9 8855 60b9 009b 87b9
00000010: c298 dbba 73b2 3dba 71af 9439 c6bb 703a
00000020: 9847 6bba 687d 4738 fa56 6bba 0ae4 89b9
00000030: 0000 0000 cdd8 80b9 20c9 15b9 09b4 07bb
00000040: 373a 09bb 6b69 dcba f3ea efba 2f62 50bb
00000050: 289b c5ba be9f f139 3fdd e33a 6524 11bb
00000060: 9795 713a c20d e9ba 23f6 fbb9 0000 0000
00000070: ab5d 0eba e60c 86b9 727e 94ba 0bf6 96ba
00000080: 4e5d 85ba d0d2 8bba 5641 b1ba 6e8d 90ba
00000090: 6046 acb8 fd96 393a efd3 6bba 19df 50ba
000000a0: 52c9 69ba b183 42b9 0000 0000 a36d 99b9
000000b0: c6ab e6b6 97b8 83ba cfa4 85ba 7eb0 53ba
000000c0: ab6c 64ba 8fbe feba decd a5ba e23b a038
000000d0: 4982 883a f882 b2ba 17bd 5eb9 2af6 a6ba
000000e0: 5c42 b1b9 0000 0000 b018 f0b9 1a00 4bb9
000000f0: d9d4 10b9 a1d5 14b9 457e 78b8 12b6 95b8
00000100: 0328 35ba b253 02b9 3113 1239 8090 9239
00000110: fff5 cab9 c70b 1eb9 5de8 cfb9 de43 e5b8
00000120: 0000 0000 69ac 5db9 ce79 bbb8 1435 43b9
00000130: 3a2b 3bb9 08ff 32b9 af10 31b9 a94b c0b8
00000140: 6c6d d536 d87e 6238 dc5f 8e38 6cb7 a7b8
00000150: 42f7 3cb9 b341 aab8 675a 01b8 0000 0000
00000160: 6c7c 42b8 9ce6 bab7 992f bf38 76f0 f038
00000170: 592b 2639 6c5e 2b39 e5b9 6cb9 a70a 6539
00000180: 49ff a339 cb85 8739 561b 39b9 9beb 5f39
00000190: 7d99 23b9 3f64 49b7 0000 0000 742f c2b7
000001a0: bd46 0cb7 6a76 76ba 734d 7eba 34e1 51ba
000001b0: 0f02 5fba 82c4 b7ba e8c4 36ba 1738 9138
000001c0: 460a 203a d92e 59ba 23a7 0539 0900 3bba
000001d0: 8468 25b9 0000 0000 6b27 3bb9 6146 d1b8
000001e0: ed35 dab8 9fa2 d5b8 ee64 15b8 7426 45b8
000001f0: 7e95 04ba b6c8 23b9 ebb7 1139 1dbd 9e39
00000200: 3b74 e0b9 e7b4 aa38 2948 c9b9 e766 f3b8
00000210: 0000 0000 5b6f 5ab9 0776 9ab8 13d3 a4b9
00000220: 6ff9 cbb9 e9cd 85b9 4eaf b1b9 948e 96ba
00000230: 4f47 82ba dff0 cfb9 6b3f 5639 5af8 3eba
00000240: 201f 0f3a 32d0 36ba acfb 09b9 0000 0000
00000250: fe48 3cb9 6ebd c1b8 dc9a 4939 3b24 4239
00000260: 8df1 cc39 1726 b239 9c71 daba 6aea 51ba
00000270: cf25 dd39 1d3a 983a 49f0 a4ba 55ba 8b39
00000280: 03f7 98ba 551e e1b9 0000 0000 b1c7 00ba
00000290: b26d a7b9 07e1 49b9 ade3 55b9 e785 d8b8
000002a0: fef3 0db9 b0f6 47ba c264 8bb9 f60f 2b39
000002b0: 7772 da39 30d4 fab9 b63c e739 3ffc eab9
000002c0: a2dc 2ab9 0000 0000 8fb7 1bb9 ea40 13b8
000002d0: f82a 6339 2bcd 7539 a77d d139 80c2 c639
000002e0: 913a 93ba d660 1538 2222 1c3a 7501 4b3a
000002f0: e88c 3bba 6acb 7d3a 9ed7 35ba d9c1 27b9
00000300: 0000 0000 4e1b 8eb9 1e01 35b8 f4ba 20ba
00000310: 28e5 24ba 41be cbb9 c283 edb9 9ba0 ffba
00000320: b0ae 09ba 0fb2 ef39 2ba9 833a 5d8c c9ba
00000330: 0316 bd39 21c3 b1ba 0e79 c6b9 0000 0000
00000340: a86b feb9 1bad 8bb9 0b9e 9db9 4960 9bb9
00000350: 76f9 9eb9 d12d 9eb9 6a89 54b8 a5dc 61b9
00000360: 8545 ceb8 0080 e737 e9a4 11b8 07b1 a2b9
00000370: 3c3d 04b8 9478 3db8 0000 0000 939f 2eb8
00000380: bbe6 86b7 8ec8 07ba d8d1 05ba 78ea 02ba
00000390: 6413 01ba 9c80 45b9 0b46 18b8 d123 c738
000003a0: ce21 2239 5894 23b9 c018 18ba 7456 1db9
000003b0: 6e31 7ab8 0000 0000 2de2 b5b8 d516 5db8
000003c0: 5944 7bba 0fd1 85ba 3a3d 68ba eb87 76ba
000003d0: 2a7f aeba b095 1cba 7796 e7b8 228e 9a39
000003e0: 207c 2cba f6f8 6bba def9 31ba 4a10 acb7
000003f0: 0000 0000 c275 e1b8 2882 bb37 1621 ccba
-0.0004053224 -0.00039796223 -0.00021394168 -0.0002586469 -0.0016753899 -0.0007236369 0.00028359474 0.0009183254
-0.0008975207 4.756209e-05 -0.0008977499 -0.0002630058 0.0 -0.00024575592 -0.00014284672 -0.0020706675
-0.002093924 -0.0016816085 -0.0018304273 -0.0031796803 -0.0015076147 0.0004608612 0.0017384662 -0.0022146937
0.0009215711 -0.0017780589 -0.00048057837 0.0 -0.0005430828 -0.00025568082 -0.0011329188 -0.0011517418
-0.0010174902 -0.0010667685 -0.00135235 -0.0011028477 -8.2147075e-05 0.0007079689 -0.0008996119 -0.00079678145
-0.00089182437 -0.0001855034 0.0 -0.0002926412 -6.874531e-06 -0.0010049519 -0.0010196212 -0.00080753106
-0.00087137026 -0.0019435453 -0.0012649854 7.6405486e-05 0.0010414805 -0.0013619354 -0.00021242011 -0.0012738158
-0.00033809512 0.0 -0.0004579476 -0.00019359626 -0.00013812202 -0.00014193963 -5.9245405e-05 -7.138787e-05
-0.0006910564 -0.00012428945 0.00013930794 0.0002795495 -0.00038711724 -0.00015072442 -0.0003965524 -0.00010932212
0.0 -0.0002114043 -8.939543e-05 -0.00018616422 -0.00017849813 -0.0001707041 -0.0001688625 -9.169366e-05
6.360633e-06 5.400073e-05 6.788943e-05 -7.9973455e-05 -0.00018021188 -8.118469e-05 -3.084019e-05 0.0
-4.636908e-05 -2.2280314e-05 9.1164555e-05 0.00011488881 0.00015847142 0.00016343006 -0.00022575965 0.0002184311
0.00031279985 0.0002584889 -0.00017653158 0.00021354707 -0.0001560207 -1.2003874e-05 0.0 -2.31487e-05
-8.36112e-06 -0.00094018003 -0.0009700872 -0.0008006275 -0.00085070817 -0.0014020356 -0.00069720903 6.924586e-05
0.00061050465 -0.0008284874 0.00012746132 -0.0007133489 -0.00015774561 0.0 -0.00017848394 -9.979006e-05
-0.000104050945 -0.00010186922 -3.5618366e-05 -4.7004272e-05 -0.00050576765 -0.00015619662 0.00013896792 0.0003027701
-0.00042811208 8.1399274e-05 -0.0003839147 -0.0001160631 0.0 -0.00020831583 -7.3652765e-05 -0.0003143778
-0.0003890502 -0.00025521152 -0.00033890683 -0.0011486583 -0.0009939465 -0.0003966158 0.00020432255 -0.0007284932
0.0005459655 -0.00069737725 -0.00013159093 0.0 -0.00017956269 -9.238241e-05 0.00019226543 0.00018514779
0.00039089881 0.00033979185 -0.0016665938 -0.00080076477 0.00042180574 0.0011613999 -0.0012583818 0.00026650974
-0.0011670295 -0.00042937943 0.0 -0.0004912569 -0.00031934452 -0.00019252683 -0.00020398079 -0.00010324624
-0.00013537702 -0.0007628007 -0.00026587216 0.00016313777 0.00041665483 -0.00047841808 0.00044104987 -0.00044819896
-0.00016294656 0.0 -0.00014850333 -3.5107987e-05 0.00021664414 0.00023441452 0.00039957205 0.00037910417
-0.0011232664 3.5614554e-05 0.0005956014 0.00077440526 -0.00071544806 0.0009681495 -0.00069367315 -0.00015998575
0.0 -0.00027104694 -4.3154803e-05 -0.0006131374 -0.00062902505 -0.00038860927 -0.0004530233 -0.001950282
-0.0005252166 0.00045718296 0.0010044923 -0.0015376915 0.0003606529 -0.0013562181 -0.00037855696 0.0
-0.00048526865 -0.0002664112 -0.00030063125 -0.00029635642 -0.0003032197 -0.00030170244 -5.0672716e-05 -0.00021539869
-9.8357945e-05 2.759695e-05 -3.472428e-05 -0.00031030944 -3.152828e-05 -4.517341e-05 0.0 -4.1633448e-05
-1.6081487e-05 -0.0005179726 -0.00051048165 -0.0004994045 -0.0004923849 -0.00018835295 -3.6304857e-05 9.495731e-05
0.00015462117 -0.00015600154 -0.0005802028 -0.00015004893 -5.965068e-05 0.0 -8.672881e-05 -5.271177e-05
-0.0009585075 -0.0010209399 -0.0008859221 -0.00094044086 -0.0013313044 -0.0005973233 -0.000110429646 0.00029479066
-0.00065797754 -0.00090016366 -0.0006789247 -2.0511583e-05 0.0 -0.0001075077 2.2352746e-05 -0.0015573825

exp_avg_sq f4 [96, 15]
00000000: c15f a233 7909 a833 e2f9 9833 5148 9b33
00000010: ec84 1134 816d dd32 6a01 2232 6acc f932
00000020: ac1d 4333 fa59 9233 543a 5833 44f0 1432
00000030: 0000 0000 0074 8e32 9c76 2132 103c f834
00000040: f15d 0035 514b db34 2e8b e634 4808 f734
00000050: d5ef 0134 3f7b 1633 4745 fa33 05da 6434
00000060: 0879 a934 d839 2934 e216 2433 0000 0000
00000070: 4eeb 5333 79f7 b832 f3c3 5f34 5281 6234
00000080: 90a9 5234 ebd7 5234 6b6a 2434 cd35 1533
00000090: cd3a c931 dc9f dc32 4f35 2633 d55c 6434
000000a0: 2fdb 8133 54b8 c831 0000 0000 2be5 da32
000000b0: d95f 1a32 5ad1 7834 0c57 8134 9dac 6a34
000000c0: ca55 6f34 1e1a 8034 e9fc 6133 ca4e 1d32
000000d0: 566f 2033 6935 d533 270d 2e34 b7a5 d833
000000e0: a3aa 6b32 0000 0000 ca53 0e33 3c25 1f32
000000f0: c805 cc32 f036 cc32 7281 bd32 656b ba32
00000100: a361 ca32 71de cb30 ec24 7131 98b1 dd31
00000110: bb05 1332 7d06 d232 e741 1e32 d090 c230
00000120: 0000 0000 b763 6f31 069f 7c30 2117 af30
00000130: 8227 a730 088b 9c30 667e 9b30 9ed0 cc2f
00000140: 5b88 0e2f 3abb 422f c220 322f a301 a42f
00000150: ba47 b730 a38e 9c2f 49ed 832e 0000 0000
00000160: 14c1 052f 5974 0d2e e263 fc31 63fb fb31
00000170: 79e7 0b32 654e 0732 00c3 2931 43e0 da30
00000180: 5bef 4831 30ea 0f31 a86a 0131 cd3c 2632
00000190: 67b8 c430 f796 8b2f 0000 0000 440b ec2f
000001a0: 7729 062f cfd5 0234 65ab 0734 3dc8 e333
000001b0: c3d9 e733 0644 1634 7ed0 a632 5570 6e32
000001c0: d46d 9832 7861 5f33 5f27 b733 8363 4c33
000001d0: 3a0a 2632 0000 0000 59eb 9532 b623 cb31
000001e0: d40f 6032 87dd 6b32 df56 5c32 9724 6132
000001f0: 5809 8232 44f5 3d31 39ea df30 9ea2 5931
00000200: aee1 1132 796c 3f32 0293 0532 badc 6d30
00000210: 0000 0000 64fd 2b31 74f8 2e30 5e62 9433
00000220: 0e05 9b33 c87c 8f33 d062 9333 8f92 9b33
00000230: 6022 f932 abe4 ca31 5205 9d31 7785 c332
00000240: 3bdf 8633 c55a 0433 0b94 fa31 0000 0000
00000250: 6531 6a32 7a9d 7a31 241b 3b34 685a 4234
00000260: 66a3 3e34 3d35 4134 800c 2334 5be8 7733
00000270: eeac b532 7dd5 3833 44a8 9d33 da1a 0f34
00000280: 501b 9633 d4ee 3132 0000 0000 da85 c432
00000290: 974b 1632 b462 5f32 279e 6e32 b089 5832
000002a0: 5129 5b32 b847 e932 fc96 ae31 2482 1031
000002b0: fb73 9c31 88e4 2832 def3 a832 a7e9 2732
000002c0: d403 c730 0000 0000 056c 1d31 855d 2a30
000002d0: 1c69 b433 6e38 b133 292e be33 2fd5 b633
000002e0: f7d8 5733 bbd3 6531 09e3 4132 1b06 9432
000002f0: 8ac5 af32 8f64 d533 2974 ac32 51e7 0e31
00000300: 0000 0000 d778 b631 a75d ac30 c3ae 6834
00000310: 3580 7434 d5ca 6034 fafd 6634 fb6c 7134
00000320: 9b5e c032 c3d4 8e32 e96f 0033 6071 f633
00000330: 21b6 2634 4eae e833 04be 8932 0000 0000
00000340: 995e 0b33 453a 1632 81f6 8d31 6b89 8a31
00000350: d895 8f31 8693 8f31 dd5f 4230 6934 0a31
00000360: 91ea d12f ddcd 8e2f e38d 3930 77db a331
00000370: 87b2 0130 6e76 642f 0000 0000 fe88 7f2f
00000380: aa51 9d2e 5baf 1932 6dd3 1432 d34c 0e32
00000390: ed44 0932 9ff2 d230 44a4 fa2f 5b66 3130
000003a0: 84a2 a830 8466 a030 d883 5e32 98fa 8d30
000003b0: cc21 682f 0000 0000 f728 de2f c16b 0c2f
000003c0: 884f de33 f165 e933 4090 d033 9d80 d433
000003d0: ec21 a933 a241 7c32 f63f 3331 fcb9 2732
000003e0: 5574 ec32 f8c1 ef33 aed1 e832 75c2 9c31
000003f0: 0000 0000 b9d0 f531 b4ce 9a31 ad2f 3834
7.5611304e-08 7.824833e-08 7.123505e-08 7.230904e-08 1.3552534e-07 2.5777583e-08 9.429963e-09 2.9080372e-08
4.5428962e-08 6.8150214e-08 5.0344468e-08 8.669364e-09 0.0 1.6583726e-08 9.398402e-09 4.62373e-07
4.782042e-07 4.084673e-07 4.2942105e-07 4.601336e-07 1.2101312e-07 3.5036688e-08 1.1654134e-07 2.131347e-07
3.1566765e-07 1.5760395e-07 3.8205037e-08 0.0 4.9341274e-08 2.1532957e-08 2.083978e-07 2.1094937e-07
1.961946e-07 1.9636325e-07 1.5312405e-07 3.4740697e-08 5.856555e-09 2.5684066e-08 3.869837e-08 2.1267927e-07
6.0469e-08 5.8417218e-09 0.0 2.5482754e-08 8.985773e-09 2.3172962e-07 2.4091457e-07 2.1855745e-07
2.228982e-07 2.386086e-07 5.2616915e-08 9.156517e-09 3.7354162e-08 9.928301e-08 1.6209798e-07 1.0088427e-07
1.3717599e-08 0.0 3.3138157e-08 9.263484e-09 2.3751355e-08 2.3773708e-08 2.206136e-08 2.1702087e-08
2.3560295e-08 1.4833416e-09 3.5091103e-09 6.4521366e-09 8.557829e-09 2.4450168e-08 9.211795e-09 1.4156516e-09
0.0 3.4835759e-09 9.190305e-10 1.27395e-09 1.2162078e-09 1.1390009e-09 1.1313659e-09 3.7255615e-10
1.2963268e-10 1.7710713e-10 1.6200644e-10 2.983259e-10 1.3335388e-09 2.8477584e-10 5.9993406e-11 0.0
1.2164875e-10 3.2163026e-11 7.3455206e-09 7.333641e-09 8.143496e-09 7.875859e-09 2.4703581e-09 1.5925327e-09
2.9239888e-09 2.094236e-09 1.8832598e-09 9.676296e-09 1.4313287e-09 2.539122e-10 0.0 4.2936155e-10
1.220196e-10 1.2184977e-07 1.2635208e-07 1.0606934e-07 1.07963864e-07 1.3994585e-07 1.9419755e-08 1.3878965e-08
1.7745073e-08 5.200988e-08 8.528763e-08 4.7587957e-08 9.664797e-09 0.0 1.7452907e-08 5.9121374e-09
1.3042115e-08 1.372917e-08 1.2825438e-08 1.3105043e-08 1.513824e-08 2.7642537e-09 1.6291956e-09 3.1670093e-09
8.4914245e-09 1.1142327e-08 7.775045e-09 8.653377e-10 0.0 2.502781e-09 6.3653904e-10 6.90968e-08
7.2186694e-08 6.681654e-08 6.863195e-08 7.244409e-08 2.9003047e-08 5.9049703e-09 4.5699062e-09 2.276168e-08
6.2804666e-08 3.08162e-08 7.292788e-09 0.0 1.3631824e-08 3.6469303e-09 1.7425606e-07 1.8100548e-07
1.7754573e-07 1.7993894e-07 1.5185105e-07 5.7720495e-08 2.1149813e-08 4.3035005e-08 7.3414895e-08 1.3327681e-07
6.9898874e-08 1.0357059e-08 0.0 2.2878272e-08 8.748336e-09 1.3002751e-08 1.3889383e-08 1.2604161e-08
1.2756872e-08 2.7157384e-08 5.0812314e-09 2.1028734e-09 4.553383e-09 9.830849e-09 1.9668672e-08 9.773806e-09
1.4480244e-09 0.0 2.290791e-09 6.197854e-10 8.4010225e-08 8.252469e-08 8.855961e-08 8.513813e-08
5.0255917e-08 3.344424e-09 1.12857e-08 1.7232244e-08 2.0462512e-08 9.936877e-08 2.0076259e-08 2.0795208e-09
0.0 5.310635e-09 1.2541265e-09 2.1670262e-07 2.2770912e-07 2.0935416e-07 2.1512815e-07 2.2484521e-07
2.2394763e-08 1.6627729e-08 2.9904104e-08 1.14758905e-07 1.5526213e-07 1.0835048e-07 1.6035308e-08 0.0
3.2449496e-08 8.744398e-09 4.1316643e-09 4.031951e-09 4.178883e-09 4.1786192e-09 7.071302e-10 2.0111435e-09
3.8183548e-10 2.5975924e-10 6.750424e-10 4.7688746e-09 4.718363e-10 2.0778554e-10 0.0 2.3240784e-10
7.15404e-11 8.945643e-09 8.6628065e-09 8.282956e-09 7.9901215e-09 1.5348468e-09 4.5591453e-10 6.453768e-10
1.2269799e-09 1.1670669e-09 1.29520785e-08 1.0330323e-09 2.1112284e-10 0.0 4.0410672e-10 1.2771208e-10
1.0352147e-07 1.0868451e-07 9.711994e-08 9.895414e-08 7.875846e-08 1.4683254e-08 2.6084286e-09 9.762967e-09
2.7526918e-08 1.11645875e-07 2.7103706e-08 4.5623048e-09 0.0 7.1541675e-09 4.5054893e-09 1.715368e-07
