lightning_logs/version_61/checkpoints/epoch=49-step=200.ckpt (torch, 121435 bytes, 30 tensors)

gru.weight_ih_l0 f4 [96, 15]
0	0xbdfa53a2	-0.12222983
1	0x3e0c347e	0.13691899
2	0x3e39a036	0.18127522
3	0xbe037fb5	-0.12841685
4	0x3cc409db	0.02393048
5	0x3de603df	0.11231207
6	0xbd1bd810	-0.03804785
7	0xbe0d709c	-0.13812488
8	0x3ce6cda2	0.028174225
9	0xbe07462c	-0.13210362
10	0xbc890c90	-0.016729623
11	0xbd993d70	-0.074824214
12	0xbdaeccc1	-0.085351475
13	0xbe483531	-0.19551541
14	0xbdf8fc3c	-0.12157485
15	0x3de7bcac	0.11315283
16	0xbe67b918	-0.22629201
17	0x3cd976a9	0.02654584
18	0x3d9c9ed9	0.07647485
19	0x3d9f802f	0.07788121
20	0x3e5e5e84	0.21715742
21	0x3e326b17	0.17423664
22	0xbdfb0a30	-0.122578025
23	0xbd17d652	-0.037069626
24	0xbd7eb88b	-0.062187713
25	0xbd2e2882	-0.0425191
26	0xbda6d46f	-0.08145987
27	0xbb8ae949	-0.0042392355
28	0x3d7ce301	0.061739925
29	0x3ccc85de	0.024966177
30	0x3e0cabd3	0.1373742
31	0x3dc4c50b	0.096078955
32	0x3e310575	0.17287238
33	0xbda719ee	-0.081592426
34	0x3d0d64d6	0.034519993
35	0x3deca428	0.11554748
36	0x3e03077f	0.12795828
37	0x3d964345	0.073370494
38	0xbe4381c6	-0.19092473
39	0x3de894d1	0.113565095
40	0xbd57bb82	-0.052669056
41	0xbe3a0471	-0.18165757
42	0xbd87bc4c	-0.06627712
43	0x3c870d55	0.01648585
44	0xbdc3f730	-0.09568632
45	0x3de2ad3a	0.110681966
46	0xbdd39a11	-0.1033212
47	0xbe060556	-0.13087973
48	0xba9c9462	-0.0011946077
49	0xbdd8d214	-0.10586944
50	0xbc98b950	-0.018643051
51	0x3dbb545c	0.0914695
52	0x3de8e886	0.11372475
53	0x3e49692d	0.19669028
54	0xbe185a03	-0.14878087
55	0x3c50b8fe	0.012739418
56	0xbdf5f0ad	-0.12008796
57	0xbc251f8d	-0.010078323
58	0x3e172709	0.14760984
59	0x3e3b0da7	0.18266927
60	0xbafbe58b	-0.0019218189
61	0xbe1d850e	-0.15382788
62	0x3c2f05b7	0.010682515
63	0x3dab1d77	0.08355229
64	0xbe30708c	-0.17230433
65	0x3d8861a9	0.06659252
66	0xbe065b04	-0.13120657
67	0xbe12c448	-0.14332688
68	0xbdcc8ea9	-0.09988148
69	0x3e7dd454	0.24788028
70	0x3dc2f485	0.09519295
71	0xbe44fe30	-0.1923759
72	0xbe1252d8	-0.14289415
73	0x3b981991	0.0046417196
74	0x3deb88e3	0.115007184
75	0x3d2ca34f	0.04214793
76	0xbda0e5b8	-0.078563154
77	0x3ca2902d	0.019844139
78	0xbd926087	-0.071473174
79	0xbd8ffeee	-0.07031046
80	0x3c19bea1	0.009383828
81	0x3d3e45cc	0.046453282
82	0x3e34c837	0.17654501
83	0xbbf6fea7	-0.007537681
84	0x3c894dde	0.016760763
85	0x3e33decc	0.17565459
86	0xbda13333	-0.078710936
87	0x3d011dd1	0.031522576
88	0xbdc869f7	-0.09785836
89	0xbcb00613	-0.021487271
90	0x3ded0832	0.11573829
91	0xbc4d7ec6	-0.012542432
92	0xbdcc27d4	-0.09968534
93	0x3cdd3e90	0.027007371
94	0xbdbf6419	-0.09345264
95	0x3df22c71	0.11824883
96	0xbd5d3bf7	-0.054012265
97	0x3e42f44d	0.19038506
98	0xbe1a0529	-0.15041031
99	0x3db24d9c	0.08706209
100	0xbdcf08a1	-0.10109068
101	0xbc0ea311	-0.00870587
102	0x3e13a860	0.14419699
103	0xbe5fef6a	-0.21868673
104	0x3d9715ef	0.073772304
105	0xbd20c9c5	-0.039254922
106	0x3d877dd5	0.066157974
107	0xbe040659	-0.12893046
108	0xbe0f8f23	-0.14019446
109	0xbcf58fb7	-0.029975755
110	0x3e1dab3c	0.15397352
111	0xbde4042c	-0.11133608
112	0x3d840f6d	0.06448255
113	0xbd53e763	-0.05173434
114	0xbe07a49a	-0.13246384
115	0x3d3a5f67	0.04550114
116	0xbc81b0a1	-0.015831294
117	0xbd031f82	-0.03201247
118	0xbdab9b00	-0.08379173
119	0x3e29bea1	0.16576625
120	0xbc80f860	-0.015743434
121	0xbd835423	-0.06412532
122	0x3c33b028	0.010967292
123	0xbd02f720	-0.031973958
124	0xbc207151	-0.009792642
125	0x3e53549c	0.20637745
126	0xbd5794eb	-0.052632254
127	0x3e2ec909	0.17068876
128	0xbde0ffd1	-0.10986293
129	0x3e1c74cb	0.15278928
130	0x3db30e0e	0.08742915
131	0x3c4e9fc5	0.012611334
132	0x3dccd512	0.100015774
133	0xbd4574eb	-0.048207205
134	0xbce293ef	-0.02765843
135	0xbc557d9f	-0.013030439
136	0xbdfdefcf	-0.123992555
137	0xbdbb0fb1	-0.09133852
138	0x3de7b059	0.113129325
139	0x3ca392e0	0.019967496
140	0x3e3ca3c8	0.18421853
141	0x3d3405af	0.043950733
142	0xbe101174	-0.14069158
143	0x3df87ae6	0.12132816
144	0xbe6ae1f6	-0.2293776
145	0xbdf81512	-0.12113394
146	0x3da6f6f5	0.08152572
147	0x3dc7a95e	0.09749101
148	0xbe05ef8e	-0.13079664
149	0x3de65ac9	0.11247785
150	0xbe5e73b8	-0.2172383
151	0xbdfddaa9	-0.12395222
152	0xbdf7674e	-0.12080251
153	0xbb1fbae5	-0.0024372872
154	0x3df7beb5	0.12096921
155	0x3d45f48f	0.048328932
156	0x3deec1a1	0.116580255
157	0xbdd7fb59	-0.10545988
158	0x3db38dcf	0.08767282
159	0x3e7bc13d	0.24585433
160	0xbdf7d216	-0.121006176
161	0x3dc54959	0.096331306
162	0x3e25a67e	0.16176793
163	0xbe7b1079	-0.24518003
164	0x3e23de0c	0.16002673
165	0xbdc4eb87	-0.09615236
166	0xbd50bd4b	-0.050961774
167	0xbdcb4cec	-0.09926781
168	0xbc80cc13	-0.01572231
169	0xbe1db2f8	-0.15400302
170	0xbe2c443a	-0.16822901
171	0xbd5c801b	-0.05383311
172	0xbdc6e984	-0.09712508
173	0xbdb6ef57	-0.08932369
174	0x3db73fdb	0.08947726
175	0xbcdc5b71	-0.026899071
176	0xbddacb97	-0.10683363
177	0xbd0a569a	-0.033773996
178	0xbdb25fd9	-0.08709688
179	0xbe4753a9	-0.19465508
180	0x3d2fb5b0	0.04289788
181	0xbd241105	-0.040055294
182	0x3db28252	0.08716263
183	0xbe329c83	-0.17442517
184	0xbd525742	-0.051352747
185	0xbdbae4b0	-0.0912565
186	0xbe184f01	-0.14873888
187	0x3b5b4441	0.003345743
188	0xbd57643c	-0.052585825
189	0xbd0c7169	-0.034287844
190	0xbde02fab	-0.10946592
191	0x3dd7ac9b	0.10530969
192	0x3e2afff1	0.16699196
193	0xbdb4258e	-0.087962255
194	0xbe3337f5	-0.17501815
195	0x3df52af6	0.11971085
196	0xbd3e0cbe	-0.04639887
197	0xbe2de3c2	-0.16981414
198	0xbe4afb08	-0.19822323
199	0xbe156efb	-0.14593117
200	0x3c9a80d3	0.018860256
201	0x3affcc30	0.0019515809
202	0x3daff582	0.08591749
203	0xbde759af	-0.11296403
204	0xbdb11434	-0.086464316
205	0xbe2525b8	-0.1612767
206	0x3e3c437c	0.18385118
207	0x3df53f20	0.11974931
208	0xbdcc254d	-0.09968052
209	0x3db25cea	0.08709128
210	0x3d0b5bf5	0.034023244
211	0xbe1d87f5	-0.15383895
212	0xbdf0fd9b	-0.117671214
213	0x3df5c9d4	0.12001386
214	0xbdad589a	-0.08464165
215	0x3d213be3	0.039363753
216	0xbcdf9591	-0.027292999
217	0x3d26c4e3	0.04071511
218	0xbe4d67c6	-0.20059118
219	0x3e29422f	0.16529153
220	0xbd498fe5	-0.049209494
221	0xbd9f2f62	-0.077727094
222	0x3c3b1af8	0.011420004
223	0xbe05e46c	-0.13075417
224	0x3c8fde59	0.017562078
225	0xbe57f671	-0.21090104
226	0x3d540688	0.05176404
227	0xbe526684	-0.20546919
228	0xbdee68a1	-0.1164105
229	0xbdc23cf6	-0.094842836
230	0xbe0ed7cc	-0.13949507
231	0x3d9b1869	0.07573015
232	0xbdc68b4b	-0.09694537
233	0x3b6c5651	0.003606219
234	0x3dfd1bf7	0.123588495
235	0x3cf09858	0.029369518
236	0x3dc427af	0.095778815
237	0xbcddeb4d	-0.02708974
238	0xbe31bd11	-0.1735728
239	0x3d962211	0.073307164
240	0x3e13e2ee	0.14442036
241	0x3da1ec67	0.07906418
242	0xbde7e518	-0.11322993
243	0x3e136302	0.14393237
244	0x3d2fe019	0.042938326
245	0xbdfa993b	-0.12236258
246	0xbe157d50	-0.14598584
247	0xbcaee508	-0.021349445
248	0xbde098ae	-0.10966621
249	0x3cd392ba	0.0258268
250	0xbbdb5146	-0.006693038
251	0x3debea26	0.1151927
252	0xbde6391e	-0.11241363
253	0x3ce4f134	0.027947046
254	0xbd11fde1	-0.03564251
255	0xbcacee42	-0.021109704

gru.weight_hh_l0 f4 [96, 32]
0	0x3dd98228	0.106205285
1	0xbe140438	-0.14454734
2	0xbe1a30dd	-0.15057702
3	0xbd7f9830	-0.062400997
4	0xbdbe552d	-0.0929359
5	0x3e2292f0	0.15876365
6	0xbe669ebc	-0.2252149
7	0x3e419a51	0.18906523
8	0x3e589748	0.21151459
9	0x3c172f5a	0.009227598
10	0x3e2eef7d	0.17083545
11	0x3dd1177f	0.1020956
12	0xbc990ac5	-0.018681893
13	0x3e19d547	0.15022765
14	0xbd6ff8b6	-0.0585868
15	0xbc49c4a8	-0.012314953
16	0xbd59c968	-0.05317059
17	0x3dfa7447	0.122292094
18	0x3d8f24b5	0.06989423
19	0x3db0734a	0.0861574
20	0x3e26b489	0.16279806
21	0xbe484d97	-0.19560848
22	0xbe4518d8	-0.19247758
23	0x3e45fcc6	0.19334707
24	0xbd7b4a2d	-0.061350036
25	0xbd6ba19d	-0.057527173
26	0xbd03ce3f	-0.032179113
27	0x3b88087d	0.0041514025
28	0xbdd6d5ad	-0.10489974
29	0x3d708435	0.058719832
30	0x3e051d22	0.12999395
31	0x3d135585	0.03597023
32	0xbe3478bf	-0.17624186
33	0x3e6d14fa	0.23152533
34	0x3d75ec33	0.06003971
35	0x3e0113f2	0.12605265
36	0x3cd66377	0.026170475
37	0x3b650ba2	0.003494956
38	0xbe7d064b	-0.24709432
39	0xbddf465b	-0.10902091
40	0xbd8699af	-0.065722816
41	0x3dbf9ea7	0.093564324
42	0xbe740e6e	-0.2383363
43	0x3dbe62d9	0.092961974
44	0x3d30351f	0.04301941
45	0x3e02eccb	0.12785642
46	0xbd9d85e1	-0.07691551
47	0x3d89d706	0.067304656
48	0x3aaf121b	0.0013356836
49	0x3e605923	0.21909003
50	0x3d303f39	0.043029044
51	0xbb130344	-0.0022432366
52	0xbddd90d4	-0.108186394
53	0x3e1f3b01	0.15549852
54	0x3e018c7b	0.12651245
55	0x3e485a08	0.19565594
56	0x3df45f2a	0.119322136
57	0xbe1ec8a5	-0.15506227
58	0xbdd84991	-0.10560907
59	0xbd70ca7c	-0.058786854
60	0xbdfa0d41	-0.12209559
61	0x3e2208c9	0.15823664
62	0xbe0ef446	-0.1396037
63	0x3d434d9a	0.04768143
64	0x3e5ede4b	0.21764486
65	0x3de95e1b	0.11394902
66	0xbe1059c3	-0.14096741
67	0xbe0d6fec	-0.13812226
68	0x3e618927	0.22024976
69	0x3de543dd	0.111945845
70	0xbc8e2805	-0.017353067
71	0xbe2faa4b	-0.17154805
72	0x3dee9a1f	0.1165049
73	0x3e4518b2	0.19247702
74	0x3d987780	0.07444668
75	0xbdb53833	-0.0884861
76	0x3e256062	0.16150048
77	0x3d497451	0.049183194
78	0xbca835d4	-0.02053348
79	0xbe0492d3	-0.12946634
80	0xbddbcb5e	-0.107321486
81	0xbd768f8f	-0.060195502
82	0x3c64ec00	0.013972282
83	0x3d8f8033	0.07006874
84	0xb9af391c	-0.0003342115
85	0xbd9724c6	-0.07380061
86	0xbdd48032	-0.10376014
87	0xbe0e4f9d	-0.13897558
88	0x3bf35764	0.0074261893
89	0xbd9b50f2	-0.075837985
90	0xbd83974f	-0.06425344
91	0xbe659e3a	-0.2242364
92	0xbcbf04d1	-0.023317726
93	0xbd547f02	-0.051878937
94	0x3e2eaffc	0.1705932
95	0xbdddc14b	-0.10827883
96	0xbd8ea48a	-0.06964977
97	0xbd9dee7b	-0.07711502
98	0x3de9a8fe	0.11409186
99	0x3e02a0c6	0.12756643
100	0xbca61a4f	-0.020276217
101	0x3cf59402	0.029977802
102	0xbe6d02ef	-0.2314565
103	0xbe20d53c	-0.15706342
104	0x3e1508ff	0.14554213
105	0x3d0676bd	0.03282808
106	0x3d9828a2	0.07429625
107	0x3dc5b5c4	0.0965381
108	0xbd665bcb	-0.056239884
109	0x3dea6064	0.11444166
110	0xbdcc5e9b	-0.09978982
111	0xbdf9cfe8	-0.12197858
112	0x3ddc377a	0.10752769
113	0xbd6a461f	-0.05719578
114	0xbe0e4144	-0.13892084
115	0xbde058fd	-0.10954473
116	0x3de07b84	0.10961059
117	0xbde0cf99	-0.10977096
118	0x3d97386e	0.0738381
119	0x3e0730c7	0.13202201
120	0xbba7b450	-0.0051179305
121	0xbda41fa5	-0.08013848
122	0xbd538e98	-0.05164966
123	0xbdc15c6b	-0.094414555
124	0x3e167dec	0.14696473
125	0x3d283ff8	0.04107663
126	0x3e7fdd29	0.2498671
127	0xbdf9693d	-0.12178276
128	0x3d757624	0.05992712
129	0xbc3a1b26	-0.011359012
130	0x3cc90954	0.02454058
131	0x3e355418	0.1770786
132	0x3db0edda	0.086391166
133	0xbd91a818	-0.071121395
134	0x3e7bee89	0.24602713
135	0x3c17767d	0.009244558
136	0xbe29303f	-0.1652231
137	0xbdf045d2	-0.11732067
138	0x3e53cbff	0.20683287
139	0xbdf88965	-0.12135581
140	0xbc38e802	-0.011285784
141	0xbdc39290	-0.09549439
142	0xbdcc2475	-0.09967891
143	0xbd7ea879	-0.062172387
144	0xbdf964f1	-0.12177456
145	0x3d1a8c64	0.037731543
146	0x3c8a6206	0.016892444
147	0xbe327335	-0.1742676
148	0x3e080571	0.13283326
149	0x3d3b006e	0.045654707
150	0xbdd51c7b	-0.10405823
151	0x3dff3919	0.124620624
152	0x3dcf9b10	0.10136998
153	0x3d0562ed	0.032565046
154	0xbe0df294	-0.13862067
155	0xbe2f1d84	-0.17101103
156	0x3d68e342	0.056857355
157	0xbe210ff8	-0.15728748
158	0xbe208f7a	-0.15679732
159	0x3c1678e7	0.009184099
160	0x3bbc3d64	0.005744623
161	0x3d61ae14	0.055097654
162	0x3d992fd4	0.074798256
163	0x3dfe1ca4	0.124078065
164	0x3d300727	0.04297557
165	0x3cf95263	0.030434793
166	0xbce2a7f4	-0.027667977
167	0x3e229731	0.15877987
168	0x3d5bcdfa	0.05366323
169	0x3ddea114	0.10870567
170	0xbdc2c18c	-0.095095724
171	0x3d4491df	0.047990676
172	0xbdc9a2dd	-0.09845517
173	0xbe46cc9b	-0.19413988
174	0xbe0acb44	-0.13554102
175	0x3d61e664	0.05515136
176	0x3d481f5c	0.04885803
177	0x3d501bcc	0.05080776
178	0x3dcc1659	0.099652
179	0xbddcad6e	-0.107752666
180	0xbdb106e9	-0.08643896
181	0x3e149a5e	0.14512011
182	0x3db8a330	0.090155005
183	0xbddf1cad	-0.10894141
184	0x3c2f9832	0.0107174385
185	0xbd8ca9af	-0.06868302
186	0x3cc9b2e0	0.024621427
187	0xbd771055	-0.06031831
188	0xbe281e1f	-0.1641774
189	0xbe3edefb	-0.18639748
190	0xbdbf0abd	-0.0932822
191	0x3d834e0c	0.06411371
192	0x3ddd6515	0.108102955
193	0x3c156eca	0.009120652
194	0xbe31db42	-0.17368796
195	0x3e04596c	0.12924737
196	0x3db69e10	0.08916867
197	0xbd979c44	-0.07402852
198	0x3e316f2a	0.17327562
199	0x3d9a7c4e	0.075432405
200	0x3e664665	0.22487791
201	0xbe07a389	-0.13245977
202	0x3e826747	0.2546942
203	0x3e02456c	0.12721795
204	0x3e2a9e96	0.16662058
205	0xbe2a13f6	-0.16609177
206	0x3da1d3c0	0.07901716
207	0x3dd6eadd	0.10494015
208	0x3e5e0e43	0.21685128
209	0x3d5cee5b	0.05393825
210	0xbdbff847	-0.09373527
211	0xbdc6fd1d	-0.09716246
212	0xbd9812fa	-0.074254945
213	0xbe15a781	-0.14614679
214	0x3d0702e1	0.03296173
215	0xbdf1d578	-0.11808294
216	0xbe0b9c46	-0.13633832
217	0xbdc81e02	-0.097713485
218	0x3e5476c9	0.20748438
219	0x3e05780d	0.13034077
220	0x3df27425	0.11838559
221	0x3d673dad	0.056455303
222	0xbe5c6727	-0.21523724
223	0x3e1bc3f6	0.15211472
224	0x3bf36e23	0.007428901
225	0xbc47a499	-0.012185239
226	0xbe20b1eb	-0.1569287
227	0xbd35ab0f	-0.044352587
228	0xbd6c233b	-0.057650786
229	0xbdffd4ec	-0.124917835
230	0xbdcd78df	-0.1003282
231	0xbd8137aa	-0.06309445
232	0x3dd4f6d5	0.10398642
233	0x3dc5193a	0.09623952
234	0x3e55304d	0.20819207
235	0xbd4de8c4	-0.05027081
236	0xbdcc683c	-0.09980819
237	0xbd84ddc3	-0.0648761
238	0x3e0c2a14	0.13687927
239	0xbcd3aaf2	-0.025838349
240	0xbb234b2f	-0.002491664
241	0xbe363c4d	-0.1779644
242	0x3e46c8e2	0.19412568
243	0xbddcde14	-0.107845455
244	0x3da62913	0.08113303
245	0x3d78861f	0.060674783
246	0x3dc323a9	0.09528286
247	0x3df75e5c	0.120785445
248	0xbdaaeb9d	-0.08345721
249	0x3d721feb	0.05911247
250	0x3cf710aa	0.030159313
251	0x3d3b2116	0.04568585
252	0xbaaa9e0a	-0.001301707
253	0xbdedce0d	-0.11611567
254	0x3c45d3e6	0.012074446
255	0xbcff078f	-0.031131534

gru.bias_ih_l0 f4 [96]
0	0xbdef6cbb	-0.116906606
1	0xbd461679	-0.048361275
2	0x3dac1d69	0.08404047
3	0xbe2463b0	-0.16053653
4	0x3da58c79	0.08083434
5	0x3e115f6d	0.14196558
6	0xbd1ee673	-0.038793992
7	0x3cfe05e2	0.031008665
8	0xbdaa262a	-0.083080605
9	0xbda4178d	-0.080123045
10	0x3d01fbe3	0.03173436
11	0x3e0ae22d	0.13562842
12	0xbd872cd2	-0.06600346
13	0xbd162b41	-0.036662344
14	0xbe0ac0c9	-0.13550104
15	0x3e3f12f4	0.18659574
16	0x3cd4c3ac	0.02597221
17	0xbcb19d99	-0.021681594
18	0x3e09bc38	0.13450706
19	0x3e321823	0.1739202
20	0x3e4daf72	0.20086458
21	0xbdbd870b	-0.09254273
22	0x3cb2b60e	0.021815326
23	0xbd5fbb20	-0.054621816
24	0x3de781c6	0.11304049
25	0xbdf8196b	-0.12114223
26	0x3e451f26	0.19250163
27	0xbce22916	-0.027607482
28	0x3d52651c	0.051365957
29	0x3d330d7c	0.04371403
30	0x3d082172	0.03323502
31	0xbdb33b35	-0.08751527
32	0x3ce3c020	0.027801573
33	0x3dd88805	0.10572819
34	0xbda84518	-0.082163036
35	0xbdd3923e	-0.10330628
36	0x3c000dad	0.007815761
37	0xbcec75b7	-0.028864725
38	0xbe1be36f	-0.15223478
39	0x3d95dc61	0.073174246
40	0xbe3dd50b	-0.185383
41	0xbd0fbf8c	-0.035094783
42	0x3e02a861	0.12759544
43	0x3d482b47	0.048869397
44	0x3de24f31	0.11050261
45	0xbb31b4fa	-0.0027115927
46	0x3d739951	0.059472386
47	0x3d8889ab	0.06666883
48	0xbe2d805d	-0.16943498
49	0xbd94d589	-0.07267291
50	0x3c1f8d98	0.009738348
51	0xbd1ed910	-0.038781226
52	0xbd73e9b2	-0.05954904
53	0xbd7f04d8	-0.06226048
54	0xbd648cf8	-0.0557985
55	0xbdb36df8	-0.08761209
56	0xbe29f4fc	-0.1659736
57	0xbe41a3aa	-0.18910089
58	0x3d87e173	0.06634798
59	0xbe1f188d	-0.15536709
60	0xbe20ed94	-0.15715629
61	0x3da99934	0.08281174
62	0xbe526149	-0.20544924
63	0x3d82e41b	0.06391164
64	0x3e625e7a	0.22106352
65	0x3d964fdb	0.0733945
66	0xbdcbefef	-0.09957873
67	0x3e4fcb6e	0.20292446
68	0x3e3104e2	0.17287019
69	0x3d7aa57d	0.06119298
70	0xbb5b4c59	-0.0033462255
71	0x3c3cf822	0.011533769
72	0x3e43fc2a	0.19139162
73	0x3d974477	0.073861055
74	0x3e10fcdc	0.14158958
75	0x3e6de536	0.23231968
76	0x3e115aef	0.14194845
77	0x3e68e769	0.22744526
78	0xbdd8c31a	-0.10584088
79	0xba055174	-0.0005085685
80	0x3e168d54	0.1470235
81	0x3e1b9c90	0.15196443
82	0x3e303103	0.17206196
83	0x3b8c94cc	0.004290199
84	0x3d6c48ed	0.057686735
85	0xbd990c46	-0.07473044
86	0xbe5d8f08	-0.21636593
87	0x3dc30fa9	0.09524471
88	0xbe3ad8bd	-0.18246742
89	0x3cbe7b74	0.023252226
90	0xbdc298ce	-0.095018014
91	0xbd86d5e1	-0.06583763
92	0x3e298785	0.16555603
93	0xbe0e62d2	-0.13904884
94	0xbe209b81	-0.1568432
95	0x3e6f0eb3	0.23345451

gru.bias_hh_l0 f4 [96]
0	0x3dc11891	0.09428514
1	0x3cf56ed7	0.02996008
2	0x3ba64980	0.00507468
3	0x3d5911ce	0.052995495
4	0x3e0e8320	0.13917208
5	0xbdf298e9	-0.118455715
6	0xbd2c46cd	-0.04205971
7	0xbdab2156	-0.08355968
8	0xbcd97d5c	-0.026549034
9	0xbcc60199	-0.024170684
10	0x3e4a5630	0.1975944
11	0xbca2cec3	-0.019873982
12	0x3e6c662a	0.23085847
13	0xbdebb21c	-0.11508581
14	0x3e46549b	0.19368212
15	0xbd68366a	-0.05669252
16	0x3ce75be9	0.028242068
17	0xbd02993a	-0.03188441
18	0x3c9bd6d4	0.019023336
19	0xbdb8b613	-0.09019103
20	0x3ddb78b4	0.10716382
21	0x3e33c0c4	0.17554003
22	0x3e1ed3e1	0.15510513
23	0xbe1da331	-0.15394284
24	0xbdfaeb40	-0.122519016
25	0xbc484a1a	-0.012224698
26	0x3e06ea9e	0.13175437
27	0x3e33159d	0.17488714
28	0xbc3bfe39	-0.011474186
29	0x3e3961a7	0.18103658
30	0xbe1d0c0d	-0.15336628
31	0x3c28156f	0.010259016
32	0xbe5bc328	-0.21461165
33	0x3d56cc7e	0.052441113
34	0xbd236bb2	-0.039897628
35	0x3cd30997	0.025761409
36	0xbd8cd3db	-0.06876346
37	0x3d27d5e7	0.040975478
38	0xbe1675ab	-0.14693324
39	0xbe3716ab	-0.17879741
40	0xbe34e1f9	-0.17664327
41	0xbbc68847	-0.006058726
42	0xbe24c8b3	-0.16092186
43	0xbe3de9ac	-0.1854617
44	0x3d997ed0	0.07494891
45	0x3dfddb11	0.12395299
46	0x3daa2d54	0.08309427
47	0xbe1c772f	-0.1527984
48	0x3ddcbd53	0.10778298
49	0x3ddbce3c	0.107326955
50	0xbc6a1fe1	-0.014289827
51	0x3d8d3f0c	0.06896791
52	0xbd75742f	-0.059925254
53	0xbdef3e7e	-0.11681841
54	0x3d6237b3	0.0552289
55	0x3e13fa2b	0.144509
56	0x3e0939ed	0.13401003
57	0x3d9aa462	0.07550885
58	0xba51a9c5	-0.0007998015
59	0xbe7fcaf2	-0.24979761
60	0xbd2c94b7	-0.042134013
61	0x3e063fc1	0.13110258
62	0xbdf9083f	-0.12159776
63	0xbc81d28c	-0.015847467
64	0x3de1a2bb	0.110173665
65	0xbd23f89b	-0.04003201
66	0xbe6ace78	-0.22930324
67	0x3d9a51b7	0.07535117
68	0x3d0278fe	0.03185367
69	0xbdefceb5	-0.11709348
70	0x3dbda266	0.09259491
71	0x3daddc12	0.08489241
72	0x3ba4b587	0.0050265226
73	0x3dcc368b	0.09971341
74	0x3e091fc2	0.13391021
75	0x3e27e8f4	0.16397458
76	0xbe20314d	-0.15643807
77	0xbd2c5c7e	-0.042080395
78	0xbd968c15	-0.07350937
79	0xbd3ef487	-0.04661992
80	0xbd1af856	-0.037834488
81	0xbd9ce5a6	-0.076609895
82	0xbd4a58c9	-0.04940108
83	0x3e1567b9	0.14590348
84	0x3e13a9aa	0.1442019
85	0xbe07914e	-0.13239023
86	0xbe517f60	-0.20458746
87	0x3dbadc0f	0.09124004
88	0xbdb1e2f5	-0.08685867
89	0x3e299a94	0.16562873
90	0xbe2d9a50	-0.16953397
91	0xbdf0b189	-0.11752612
92	0xbc0cfd1e	-0.00860527
93	0x3da04ee8	0.0782755
94	0x3de82c0d	0.11336527
95	0xbd1d756e	-0.038442068

output_layers.0.weight f4 [64, 32]
0	0x3e484846	0.1955882
1	0x3de4e567	0.111765675
2	0x3c6e06e8	0.014528014
3	0xbded86d8	-0.11597985
4	0x3d4b5633	0.049642753
5	0x3dce2a48	0.10066658
6	0x3db036e7	0.08604222
7	0x3d37dfdf	0.044891234
8	0xbdde2412	-0.108467236
9	0xbd009097	-0.03138789
10	0x3e1347e6	0.14382896
11	0x3ddefdbd	0.108882405
12	0xbd6349ee	-0.055490427
13	0x3e169a8a	0.1470739
14	0xbe19022f	-0.14942239
15	0x3e03d08c	0.12872523
16	0x3de1b257	0.11020344
17	0x3deb6b0a	0.114950255
18	0xbcf808a1	-0.030277552
19	0xbdfb80e8	-0.12280446
20	0x3d8f19ce	0.06987344
21	0x3ddd912d	0.10818706
22	0x3d9fbf39	0.07800145
23	0x3c706362	0.014672132
24	0xbe4f68ad	-0.20254774
25	0xbe2321c3	-0.15930848
26	0xb9a1071c	-0.0003071361
27	0xbdd3a7b0	-0.10334718
28	0x3def01d2	0.11670269
29	0x3dd299c2	0.10283233
30	0xbcb512ee	-0.022103753
31	0xbdc4aeb3	-0.09603634
32	0xbd6337d8	-0.05547318
33	0xbd8cb4da	-0.06870432
34	0xbd95f9cd	-0.07323036
35	0x3cc162e8	0.023606732
36	0x3d87e43a	0.06635328
37	0x3c9e6d90	0.019339353
38	0x3e54db6a	0.20786825
39	0x3e79f264	0.24408871
40	0xbd9f8215	-0.07788483
41	0x3e34e912	0.17667034
42	0x3e4c737c	0.19965929
43	0x3e667e5f	0.22509144
44	0x3e1a796e	0.15085384
45	0x3e4a80f2	0.19775751
46	0x3d4fd5e0	0.050741076
47	0x3e12867a	0.14309111
48	0xbe479f12	-0.19494274
49	0xbdb002af	-0.08594262
50	0x3b3acb61	0.002850257
51	0x3d6adcb4	0.057339385
52	0x3d9ac70d	0.07557497
53	0xbd64d9b5	-0.055871684
54	0xbd81db3e	-0.06340645
55	0x3d215ac8	0.039393216
56	0xbd384f63	-0.044997584
57	0x3e41525d	0.18879075
58	0xbe3ab888	-0.18234456
59	0x3d8158bb	0.06315752
60	0x3e104ad0	0.14091039
61	0xbe697dfa	-0.22801962
62	0x3a93f110	0.0011287052
63	0xbc58ec2e	-0.013239903
64	0xbd96a89c	-0.073563784
65	0x3ddf0336	0.10889284
66	0x3d9998ca	0.07499845
67	0x3e3042d1	0.17212988
68	0xbd60f56f	-0.054921564
69	0xbdca1209	-0.09866721
70	0xbe847ade	-0.2587499
71	0xbdd14579	-0.10218329
72	0xbddaf023	-0.10690334
73	0x3e097b9e	0.13426062
74	0x3df2cae6	0.11855106
75	0xbd9e29e7	-0.07722836
76	0xbe415608	-0.18880475
77	0x3d83acfa	0.06429477
78	0xbdf45da8	-0.11931926
79	0x3e288ec2	0.16460708
80	0x3cbc98fd	0.02302217
81	0x3b385c01	0.002813101
82	0x3d5032c9	0.050829682
83	0x3dfe3efd	0.12414358
84	0x3e0fad38	0.14030921
85	0x3e1568d7	0.14590774
86	0x3bea7e24	0.0071561504
87	0xbdbcdfa2	-0.09222342
88	0xbd9a065d	-0.07520745
89	0x3df652fd	0.120275475
90	0xbd589f74	-0.05288644
91	0x3c1d8196	0.009613415
92	0x3def181a	0.11674519
93	0xbdda7aa6	-0.106679246
94	0x3e8891c2	0.26673704
95	0x3e266253	0.16248445
96	0xbe0f67cd	-0.1400444
97	0xbe005277	-0.12531458
98	0x3e0cb124	0.13739449
99	0xbe06d37b	-0.13166611
100	0x3d8407d7	0.06446808
101	0xbd9c418d	-0.0762969
102	0x3d2a14f4	0.04152389
103	0xbdb8e754	-0.09028497
104	0x3d10993b	0.035302382
105	0xbe16b2f9	-0.1471671
106	0x3d4a6b05	0.049418468
107	0xbc9f952d	-0.019480312
108	0xbc6504de	-0.013978211
109	0x3d84a29e	0.06476329
110	0x3df87c4e	0.12133084
111	0xbcd56466	-0.02604885
112	0x3d879f09	0.066221304
113	0xbdb73194	-0.08945003
114	0x3e1890f1	0.14899041
115	0xbd92d740	-0.07169962
116	0xbe34a861	-0.17642356
117	0xbe0e29ad	-0.13883086
118	0x3ddbf0fd	0.10739324
119	0x3d8ef844	0.06980947
120	0xbe16be3c	-0.14721006
121	0xbcba2ce9	-0.022726493
122	0x3dbe940e	0.09305583
123	0x3e19f49d	0.15034719
124	0xbdf289a7	-0.11842661
125	0x3dde1a83	0.108449005
126	0x3e0d0990	0.13773179
127	0xbdcd9565	-0.1003826
128	0xbdedde4d	-0.11614666
129	0xbdd81d79	-0.105524965
130	0x3cbcff7d	0.023071045
131	0xbe219721	-0.15780307
132	0xbdbccfaa	-0.09219296
133	0xbe045a10	-0.12924981
134	0xbe54adc1	-0.20769407
135	0xbc1ebf44	-0.009689156
136	0xbdba8865	-0.091080464
137	0x3dee9528	0.11649543
138	0x3dde8a83	0.10866263
139	0xbe5f0171	-0.21777894
140	0x3dc80edd	0.0976846
141	0x3bf81587	0.0075709256
142	0xbd794efe	-0.06086635
143	0xbbee99f2	-0.0072815353
144	0x3c7a2dff	0.015269755
145	0xbd5f7fd3	-0.054565262
146	0xbe0460e5	-0.12927587
147	0xb9f5c793	-0.00046878736
148	0xbd344e91	-0.04402024
149	0xbd8a23e7	-0.06745129
150	0xbd4b1ca5	-0.049587864
151	0x3d0342b3	0.03204603
152	0x3d83596e	0.06413542
153	0xbe0ad2fe	-0.1355705
154	0x3dca8f4a	0.098906115
155	0x3da91e83	0.08257773
156	0xbca0ec62	-0.019643966
157	0xbc9df2b0	-0.019280761
158	0x3cb5af6d	0.022178376
159	0x3db42bcc	0.08797416
160	0x3d4c745d	0.04991566
161	0xbde0594f	-0.10954534
162	0xbe481a4c	-0.19541281
163	0x3e2e1029	0.16998352
164	0x3deb330a	0.11484344
165	0x3cb64ca1	0.022253336
166	0xbd714990	-0.058908045
167	0xbca01a39	-0.019543754
168	0xbd5a47da	-0.05329118
169	0xbe021d9f	-0.12706612
170	0x3c7588a4	0.014986191
171	0x3db87477	0.09006589
172	0xbc43f2b4	-0.01195972
173	0x3e015a7b	0.12632172
174	0x3de8756c	0.113505214
175	0xbcb85578	-0.022501692
176	0x3e1df265	0.15424497
177	0x3e3a1752	0.18172958
178	0x3de26010	0.11053479
179	0x3e41a098	0.18908918
180	0xbd130d38	-0.03590128
181	0xbdc9083c	-0.09816024
182	0x3d67ebc5	0.05662133
183	0xbdfdfebb	-0.124021016
184	0xbe010a19	-0.12601508
185	0x3d8f3d54	0.06994119
186	0x3e0400f6	0.12890992
187	0x3debf76e	0.11521803
188	0x3e06fbc2	0.13181975
189	0xbd9cf01d	-0.076629855
190	0xbd018fa5	-0.03163113
191	0x3c5dae34	0.013530303
192	0x3e55f007	0.20892344
193	0x3e3a185b	0.18173353
194	0xbddd8d4a	-0.108179644
195	0x3de69eb0	0.11260736
196	0x3d87dfd1	0.066344865
197	0xbd511582	-0.051045902
198	0xbd3bf439	-0.045887206
199	0x3d26fc06	0.040767692
200	0x3dc246e5	0.09486178
201	0x3d9c1be1	0.07622505
202	0x3ddaf810	0.106918454
203	0x3ccbc9cf	0.024876503
204	0x3e24e92b	0.16104572
205	0xbdbd546f	-0.0924462
206	0x3d0806da	0.03320966
207	0xbcc2d7a2	-0.023784462
208	0xbe37d1ac	-0.17951077
209	0x3e1b5a74	0.15171224
210	0x3e0e7575	0.13911994
211	0x3cfe3142	0.031029347
212	0x3cef176c	0.029185973
213	0xbd4dc002	-0.05023194
214	0xbe24c6f3	-0.16091518
215	0xbd9da6e9	-0.07697851
216	0xbdfd401a	-0.12365742
217	0x3e396289	0.18103994
218	0x3d4e463a	0.050359942
219	0x3e3956cf	0.18099521
220	0xbdf93393	-0.1216804
221	0xbe2fb572	-0.1715906
222	0x3da73c57	0.08165806
223	0x3e593a27	0.2121359
224	0xbc097ee0	-0.008392066
225	0xbe3b51ff	-0.18292998
226	0xbd93202d	-0.071838714
227	0xbdfb1b0f	-0.122610204
228	0xbd26cbb9	-0.04072163
229	0xbe1ece84	-0.15508467
230	0xbd9cc24d	-0.076542474
231	0xbdf50529	-0.11963875
232	0xbbe3459b	-0.006935788
233	0x3cd2a9dc	0.02571576
234	0x3c15921d	0.009129074
235	0x3dc338f1	0.09532345
236	0x3d358c1e	0.04432308
237	0xbdeb695a	-0.114947036
238	0xbc0cd66b	-0.008596043
239	0xbd7dfcd2	-0.062008686
240	0xbe111532	-0.14168242
241	0x3dc8c9a5	0.09804086
242	0xbde42049	-0.111389704
243	0xbca94823	-0.02066428
244	0x3d906db6	0.07052176
245	0xbdd5a540	-0.104319096
246	0x3d03f3c5	0.0322149
247	0x3c8efd7f	0.01745486
248	0x3dba9959	0.0911128
249	0xbd9a8187	-0.07544237
250	0xbd6bcb10	-0.057566702
251	0xbd95023d	-0.072758175
252	0xbddafd66	-0.10692863
253	0x3e314207	0.17310344
254	0x3a5b427d	0.00083640945
255	0xbe03f40b	-0.12886064

output_layers.0.bias f4 [64]
0	0x3dec5749	0.11540086
1	0x3e731da6	0.23741779
2	0xbcd4596e	-0.02592155
3	0xbe35ba17	-0.17746769
4	0x3db8c53a	0.09021993
5	0x3e195d74	0.14977056
6	0x3e2f1078	0.17096126
7	0xbdae3119	-0.085054584
8	0x3c6cbd83	0.01444948
9	0x3e4e703d	0.20160003
10	0x3e4d1ff0	0.20031714
11	0x3daab1c3	0.083346866
12	0x3d99fffd	0.07519529
13	0xbd8eaf36	-0.069670126
14	0xbe04e8a4	-0.1297937
15	0xba87fe11	-0.00103754
16	0x3e0028e8	0.12515604
17	0xbda7c12d	-0.08191142
18	0x3d4e670f	0.050391253
19	0x3ccf9bc9	0.025342839
20	0xbde5cd3a	-0.112207845
21	0x3e2c12ab	0.16803996
22	0xbd4190dc	-0.04725729
23	0x3e0f8371	0.14014985
24	0x3dfb8538	0.12281269
25	0x3c9b4e97	0.018958373
26	0x3dcee481	0.101021774
27	0x3ddc4bed	0.10756669
28	0x3e701c15	0.23448212
29	0x3e264c86	0.16240129
30	0xbcb15168	-0.021645263
31	0x3cbd5f4c	0.02311673
32	0x3bb73fe8	0.005592335
33	0xbe11d4e7	-0.14241372
34	0xbc3133d6	-0.010815581
35	0xbbc48b63	-0.0059980615
36	0xbd9b2242	-0.075748935
37	0xbe321fbf	-0.17394923
38	0x3e0f5060	0.13995504
39	0x3da68660	0.08131099
40	0xbe093abc	-0.13401312
41	0x3ba22062	0.004947708
42	0x3e2eb92e	0.17062828
43	0xbdee53d7	-0.11637085
44	0xbe1644da	-0.14674702
45	0x3e6e557a	0.23274794
46	0xbcf5ef8a	-0.030021448
47	0x3cdbaefa	0.026816834
48	0xbe1e41e7	-0.15454827
49	0x3d80f5ee	0.06296907
50	0x3d3f2030	0.046661556
51	0x3d92be4a	0.07165201
52	0x3db9ed0f	0.090784185
53	0xbe41c6ab	-0.18923442
54	0x3e0d8197	0.13818966
55	0xbbef5682	-0.0073040137
56	0x3e2a7936	0.16647801
57	0xbe1d5c6d	-0.15367289
58	0x3e003924	0.12521797
59	0xbdc226df	-0.0948007
60	0x3dccbbef	0.09996783
61	0xbc1c3078	-0.00953304
62	0x3e1c6045	0.15271099
63	0xbd9d851e	-0.07691406

output_layers.3.weight f4 [32, 64]
0	0x3be30677	0.006928261
1	0xbd486658	-0.048925728
2	0xbe0ba24f	-0.13636135
3	0x3dd8baf0	0.105825305
4	0x3b5dcaa4	0.0033842707
5	0xbd817072	-0.06320275
6	0xbcf5a42f	-0.029985515
7	0xbe03707a	-0.12835875
8	0xbc869a56	-0.016431015
9	0xbda688d8	-0.081315696
10	0xbde6d8e1	-0.11271835
11	0xbd162476	-0.036655866
12	0xbe0a6dc1	-0.1351843
13	0xbd90b3c8	-0.070655406
14	0xbcea45f8	-0.028597817
15	0xbd200d21	-0.03907502
16	0xbe0dabda	-0.13835087
17	0xbde0f29f	-0.10983776
18	0x3d425619	0.04744539
19	0x3dd6d72b	0.10490259
20	0x3b10635b	0.0022031877
21	0xbd4c954c	-0.049947068
22	0xbc84846d	-0.016176427
23	0x3db8c1c6	0.09021334
24	0x3dba1169	0.09085352
25	0xbdbb967d	-0.09159563
26	0xbddd447d	-0.10804079
27	0xbdc1ab87	-0.09456544
28	0xbd2e6075	-0.042572457
29	0xbcb9c747	-0.02267803
30	0x3d85a55f	0.06525683
31	0xbdbe9ac6	-0.093068644
32	0xbd58a55e	-0.05289208
33	0xbd8654f1	-0.0655917
34	0x3cf61b7d	0.030042404
35	0xbd914f39	-0.07095189
36	0x3da4c589	0.08045489
37	0x3d9d454c	0.07679233
38	0xbbadd91a	-0.0053054215
39	0xbd2b0fa5	-0.041762967
40	0xbca9abc6	-0.02071179
41	0x3dc47c4f	0.095940225
42	0xbd015ece	-0.031584553
43	0xbdb8e9a6	-0.0902894
44	0xbd97f655	-0.07420031
45	0xbda4da01	-0.080493934
46	0xbdee09dd	-0.11622975
47	0xbcdb8411	-0.026796373
48	0xbd3b04ec	-0.04565899
49	0xbdb232a5	-0.08701066
50	0x3d964a6a	0.07338412
51	0xbd836f3e	-0.06417702
52	0xbd86996b	-0.06572231
53	0x3d30a643	0.04312731
54	0xbdca4300	-0.098760605
55	0xbda717cb	-0.08158835
56	0x3d6026df	0.05472457
57	0xbe0837e4	-0.1330257
58	0x3d8bee20	0.06832528
59	0x3dc450ad	0.095857
60	0x3dc2e54f	0.095163934
61	0xbc5c4d4c	-0.013446163
62	0xbe09e117	-0.13464771
63	0x3d1e3995	0.038629133
64	0xbcc8e96b	-0.024525365
65	0xbd661fba	-0.0561826
66	0x3d2d3521	0.042286996
67	0x3cd98758	0.026553795
68	0xbd89f221	-0.067356355
69	0xba0f8b49	-0.0005475772
70	0xbd4b6133	-0.049653243
71	0x3dac9b30	0.08428037
72	0xbdb20334	-0.08692017
73	0x3c1fe404	0.009758953
74	0xbd61d31d	-0.055132974
75	0xbe180004	-0.14843756
76	0xbc5fd113	-0.013660687
77	0x3d8af987	0.06785875
78	0xbbdbb7b2	-0.006705248
79	0xbd3c98a3	-0.046044003
80	0x3c314d65	0.010821675
81	0xbd4ab6a8	-0.0494906
82	0xbdcfccff	-0.10146522
83	0xbd26c8de	-0.040718906
84	0xbda05071	-0.07827843
85	0x3caa55c7	0.020792855
86	0xbde68942	-0.112566486
87	0xbdc9350e	-0.098245725
88	0xbd44b422	-0.04802335
89	0xbd17b092	-0.037033625
90	0xbe09388f	-0.13400482
91	0xbc450c6e	-0.012026889
92	0xbe055d15	-0.13023789
93	0x3c632f01	0.013866187
94	0xbdff2ea2	-0.124600664
95	0xbe0def9e	-0.13860938
96	0x3d3a0443	0.04541422
97	0x3d974743	0.07386639
98	0x3db61363	0.088904165
99	0x3d15aebb	0.03654359
100	0xbd8675ff	-0.06565475
101	0xbcb4b490	-0.022058755
102	0xbd1c1880	-0.038109303
103	0xbd9666ea	-0.07343848
104	0xbd0ad6dc	-0.033896312
105	0x3db400a1	0.087891825
106	0x3c216dbb	0.009852822
107	0xbdeae776	-0.11469929
108	0x3d584e0e	0.052808814
109	0xbdb7a793	-0.08967509
110	0xbd609483	-0.05482913
111	0xbe020c2d	-0.12699957
112	0x3d8df863	0.06932142
113	0x3d52d6a0	0.051474214
114	0x3c80c640	0.015719533
115	0x3d4faf82	0.050704487
116	0xbca531ad	-0.020165289
117	0xbdd69ea5	-0.10479478
118	0x3cd66220	0.026169837
119	0x3d4d6cc1	0.050152544
120	0x3cd0345b	0.02541559
121	0xbd915987	-0.07097154
122	0xbd54ce36	-0.05195447
123	0x3d67930f	0.05653673
124	0x3da05b30	0.07829893
125	0xbd24dee5	-0.04025163
126	0xbdcb6425	-0.099312104
127	0x3d476443	0.0486796
128	0xbc82d32a	-0.015969831
129	0x3dfc82e7	0.12329655
130	0x3e2d2536	0.16908726
131	0xbc7ca3e6	-0.015419936
132	0x39c74dc2	0.00038014172
133	0x3d960f2d	0.07327113
134	0x3e2efd0c	0.17088717
135	0xbd5aeb22	-0.053446896
136	0x3e0e53e1	0.13899185
137	0x3d239f68	0.039946944
138	0xbc568539	-0.013093286
139	0x3b2aa443	0.002603785
140	0x3e2c0694	0.16799384
141	0x3d405737	0.046958175
142	0xbd1c9f43	-0.03823782
143	0x3c883e76	0.016631346
144	0x3dd12261	0.102116354
145	0x3d1c7796	0.038199984
146	0x3d55b90d	0.05217843
147	0x3cb44a44	0.022008069
148	0xbcf33ec3	-0.029693013
149	0x3e459a4d	0.19297142
150	0xbcc7a84e	-0.024372246
151	0x3daabbf1	0.08336628
152	0x3cc82278	0.024430498
153	0x3d604719	0.054755304
154	0x3e103a2b	0.1408469
155	0x3e0622cf	0.13099216
156	0x3e0b3141	0.13593008
157	0x3e146d73	0.14494877
158	0x3d666329	0.05624691
159	0x3e24c3b0	0.16090274
160	0x3ddd9007	0.10818487
161	0x3e11d144	0.14239985
162	0x3cc638aa	0.024196941
163	0x3e05c062	0.1306167
164	0x3d0ea226	0.034822606
165	0x3dd712a4	0.10501602
166	0x3d6c1103	0.05763341
167	0xbd32491e	-0.04352676
168	0x3c7fc776	0.01561152
169	0xbd29d0ea	-0.041459
170	0x3dc51bd3	0.09624448
171	0x3e30aa3b	0.17252438
172	0xbcc26a54	-0.023732342
173	0x3db566cf	0.088575
174	0xbccc34a0	-0.024927437
175	0x3d1f77e5	0.0389327
176	0x3dc3841d	0.09546683
177	0x3dbbc651	0.09168685
178	0x3d73ebd0	0.05955106
179	0xbd0855b5	-0.03328486
180	0x3debfda5	0.11522988
181	0x3d11e818	0.035621732
182	0x3da89e5b	0.08233329
183	0xbd64cb26	-0.0558578
184	0x3b32e887	0.0027299242
185	0xbbf3328b	-0.0074217967
186	0x3e7263c6	0.23670873
187	0xbcf01ed9	-0.029311584
188	0x3e1d0dd8	0.15337312
189	0x3e21045f	0.15724324
190	0x3c80874c	0.015689515
191	0x3c919782	0.01777244
192	0xbc010486	-0.007874614
193	0xbd9ecacc	-0.07753524
194	0xbd8e0c11	-0.06935895
195	0x3c6b26c3	0.014352503
196	0xbd9d8456	-0.07691257
197	0xbdeaacd4	-0.114587456
198	0xbd2d23d7	-0.042270508
199	0x3dcf9a5a	0.10136862
200	0xbce5936e	-0.028024402
201	0x3d71a8b5	0.058998782
202	0xbde0189a	-0.109421924
203	0x3dbdab4f	0.0926119
204	0x3dc696aa	0.09696706
205	0xbd9efabe	-0.07762669
206	0x3d1614a1	0.036640767
207	0xba9cd769	-0.0011966053
208	0x3d838e7d	0.06423662
209	0xbc2ff1a5	-0.010738765
210	0xbcc02600	-0.02345562
211	0xbda10bf4	-0.07863608
212	0xbda1cd5c	-0.07900497
213	0xbe0f6dc2	-0.14006713
214	0x3e09eb68	0.13468707
215	0xbd9fc9a6	-0.07802133
216	0xbd2056d8	-0.03914532
217	0xbd8c4b19	-0.06850261
218	0xbc497561	-0.012296052
219	0x3dd2bb23	0.102896
220	0xbcfbd4b5	-0.030741075
221	0xbdc16360	-0.094427824
222	0x3d4c7d7a	0.04992435
223	0x3dbc9678	0.09208387
224	0x3e00c85a	0.12576428
225	0x39f22168	0.00046182727
226	0x3c907412	0.017633472
227	0xbcfa9926	-0.030590605
228	0xbdf73fc8	-0.12072712
229	0xbd5149a8	-0.051095635
230	0xbdb02c35	-0.08602182
231	0xbd429f52	-0.04751522
232	0xbdfa964d	-0.12235699
233	0xbb872ebc	-0.004125444
234	0x3d5953b8	0.053058356
235	0x3c043f8a	0.0080717895
236	0xbbe55771	-0.006998949
237	0x3d42a720	0.047522664
238	0xbd94ae82	-0.07259847
239	0xbde430b0	-0.11142099
240	0x3c8250d5	0.015907684
241	0xbd19ebad	-0.037578274
242	0xbd0a5f71	-0.033782426
243	0x3ddf3625	0.10898999
244	0x3dfebacb	0.12437972
245	0xbc855c75	-0.016279439
246	0xbd58573f	-0.05281758
247	0xbd9d107c	-0.0766916
248	0xbd6d07bb	-0.0578687
249	0x3d297111	0.041367594
250	0x3d1a6d4d	0.037701894
251	0x3895e000	7.146597e-05
252	0x3de3bdff	0.11120223
253	0x3d4b32fa	0.049609162
254	0xbd3d7f25	-0.046263833
255	0xbe0b0790	-0.13577104

output_layers.3.bias f4 [32]
0	0xbcf60d74	-0.030035712
1	0x3dbf7811	0.09349073
2	0x3da96bba	0.082725
3	0x3d0c0bb1	0.034190837
4	0xbdc762ca	-0.097356394
5	0x3d9510c4	0.072785884
6	0xbcdf8e0d	-0.027289415
7	0xbe12939e	-0.14314124
8	0xbd5b51b7	-0.053544726
9	0x3d3568fa	0.044289567
10	0x3e0f85eb	0.1401593
11	0xbe07ecb5	-0.1327389
12	0xbe1c270d	-0.15249272
13	0x3c88dad2	0.016705904
14	0x3e4b2d75	0.19841559
15	0x3e5f7eb8	0.21825683
16	0x3db9ffc6	0.09081988
17	0x3cc361e5	0.02385039
18	0x3def30e8	0.1167925
19	0xbe0ef895	-0.13962014
20	0xbd062259	-0.0327476
21	0x3e1b4f02	0.15166858
22	0x3d92a749	0.07160813
23	0x3d831323	0.064001344
24	0x3e0b8932	0.13626555
25	0x3d6de15a	0.05807624
26	0x3cd5dbff	0.026105879
27	0x3d0e722a	0.034776844
28	0x3db9d8bc	0.09074542
29	0x3e1715eb	0.14754455
30	0x3d057ef2	0.032591768
31	0xbc4c2f4b	-0.012462447

output_layers.6.weight f4 [2, 32]
0	0x3cf7973d	0.030223483
1	0xbd2d0dc9	-0.042249475
2	0xba988db8	-0.0011638915
3	0x3d3f69a7	0.046731617
4	0x3e040fbe	0.1289663
5	0xbb987864	-0.0046530236
6	0xbdbe6a69	-0.0929764
7	0xbe193da5	-0.14964922
8	0x3c6197a5	0.013769065
9	0xbcff3385	-0.031152496
10	0x3abe8722	0.0014536122
11	0xbe04889d	-0.12942739
12	0xbd890444	-0.06690267
13	0xbc7314ab	-0.014836471
14	0x3b0363e0	0.0020048544
15	0x38a6c315	7.951834e-05
16	0x3da7de88	0.08196741
17	0x3ca145fe	0.019686695
18	0x3a1f0b6c	0.00060670706
19	0xbe18fa0b	-0.14939134
20	0x3a5ebb77	0.00084965624
21	0x3b01bb0a	0.0019795322
22	0x3cf3ffd1	0.029785069
23	0xb99c1537	-0.00029770445
24	0x3d542216	0.05179032
25	0x3d27c65b	0.04096065
26	0xbde3a7a2	-0.11115958
27	0x3e14ab50	0.14518476
28	0x3af53516	0.0018707837
29	0x3a8abf04	0.0010585492
30	0x3e070c7a	0.13188353
31	0x3de4219a	0.111392215
32	0x3c9384d5	0.018007675
33	0x3985c31e	0.0002551311
34	0xbe6a55ac	-0.22884244
35	0x3d0e0933	0.03467674
36	0xbdfed515	-0.12442986
37	0xbe4bcd23	-0.19902472
38	0xbe13d18d	-0.14435406
39	0x3e11b104	0.14227682
40	0xbe62fd5e	-0.22166964
41	0xbe753ab7	-0.23948179
42	0xbe5ef0bd	-0.21771522
43	0x3d05ed3e	0.032696955
44	0x3da81d13	0.082086705
45	0x3ddc0f24	0.10745075
46	0xbe89b5ed	-0.2689661
47	0xbe166e40	-0.14690495
48	0xbd59f8ab	-0.053215664
49	0x3d9db92c	0.07701334
50	0xbe4b1ec1	-0.1983595
51	0x3b78e255	0.0037976701
52	0xbe8b3ba4	-0.2719394
53	0xbe45a652	-0.19301727
54	0xbe1ceff2	-0.15325907
55	0xbe51d011	-0.20489527
56	0xbe2f2663	-0.17104487
57	0xbe288fff	-0.1646118
58	0x3d340aa4	0.04395546
59	0x3d707f97	0.05871543
60	0xbe6fc0f3	-0.23413448
61	0xbe24710f	-0.16058753
62	0x3e211075	0.15728934
63	0x3db97dfb	0.09057232

output_layers.6.bias f4 [2]
0	0x3a5ea75c	0.00084935664
1	0x3d33e39d	0.04391824

exp_avg f4 [96, 15]
0	0x3b724945	0.0036969942
1	0x3b849c1a	0.004046929
2	0x3b6b98df	0.0035949273
3	0x3b83e6b3	0.004025304
4	0xbb86478f	-0.004097886
5	0xb9a9bc1c	-0.00032374344
6	0x3b42e653	0.0029739335
7	0x3b3f5059	0.0029192178
8	0x3b5c89ee	0.0033651548
9	0x3b34b5e9	0.0027574247
10	0xb907244f	-0.0001288813
11	0xba17e9c4	-0.00057950267
12	0x00000000	0.0
13	0xb7ab8cd1	-2.0450361e-05
14	0xb9e86b1b	-0.00044330288
15	0x3a8b2f59	0.0010618969
16	0x3a926f9a	0.0011172176
17	0x3a89fed3	0.0010528214
18	0x3a934013	0.0011234306
19	0xba63731d	-0.0008676516
20	0xb9b4d616	-0.00034491782
21	0x3996d6b4	0.00028770196
22	0x39dfc49a	0.00042680354
23	0x39f75d4e	0.0004718103
24	0x3aba0c77	0.0014194389
25	0x391ea018	0.00015127694
26	0x394a1371	0.00019271464
27	0x00000000	0.0
28	0x39528e00	0.0002008006
29	0x3912d8e0	0.00014004437
30	0x3a91f769	0.0011136356
31	0x3ab419d2	0.0013740605
32	0x3a7a1d44	0.0009541104
33	0x3aa0da28	0.0012272047
34	0xbb05a678	-0.0020393413
35	0xb8d04957	-9.9318735e-05
36	0x3adae483	0.0016700182
37	0x3ae2802b	0.0017280629
38	0x3ac81502	0.001526505
39	0x3ad12966	0.0015957772
40	0xba5b24c8	-0.0008359668
41	0xbb4eade9	-0.0031536764
42	0x00000000	0.0
43	0xba974b74	-0.0011542873
44	0xb9cd3668	-0.00039141183
45	0x3a8b327b	0.0010619903
46	0x3a95aa77	0.00114186
47	0x3a8949ba	0.0010474243
48	0x3a957b68	0.0011404576
49	0xbae0240a	-0.0017100584
50	0xb8399127	-4.424262e-05
51	0x39bc43f2	0.00035908777
52	0x39bbe8f6	0.0003584099
53	0x3a1d72f7	0.0006006206
54	0x3ae81528	0.00177065
55	0xb99030f3	-0.0002750229
56	0xb8bbfc20	-8.963817e-05
57	0x00000000	0.0
58	0xb84f3a7c	-4.9407114e-05
59	0xb8156ad2	-3.5623852e-05
60	0x3af50a43	0.0018695075
61	0x3b052bcd	0.0020320297
62	0x3af4ca67	0.0018676043
63	0x3b06037e	0.002044886
64	0xba89e7a7	-0.0010521308
65	0x39eb93bf	0.00044932772
66	0x3ad8556b	0.0016504949
67	0x3acc7412	0.0015598556
68	0x3a8ed925	0.0010898454
69	0x39f425c5	0.00046567447
70	0xb8ef41b8	-0.00011408649
71	0xba1de6fe	-0.0006023495
72	0x00000000	0.0
73	0xb951e6d5	-0.00020017785
74	0xb9a4b39a	-0.0003141433
75	0xb9f7ee06	-0.00047288853
76	0xb9edbcad	-0.00045344737
77	0xba03940a	-0.0005019313
78	0xb9fe32c9	-0.00048484493
79	0xb9e069b9	-0.0004280338
80	0xb92320db	-0.00015557131
81	0x3946a0a3	0.00018942593
82	0x3984a406	0.0002529921
83	0x3a29c658	0.0006476394
84	0x3a8f1651	0.0010916685
85	0x39535b41	0.00020156523
86	0xb99bb680	-0.00029699877
87	0x00000000	0.0
88	0x38635f89	5.420999e-05
89	0xb8c05bf2	-9.1723996e-05
90	0x3737bbe4	1.0951397e-05
91	0x38830f43	6.2494095e-05
92	0xb7e1b41a	-2.6905956e-05
93	0x37604365	1.3367132e-05
94	0xbaf55f83	-0.0018720481
95	0xbad91288	-0.0016561309
96	0xba494355	-0.0007677575
97	0xb9dc8805	-0.00042063012
98	0x39a419b7	0.00031299677
99	0x39b51adc	0.00034543022
100	0xb9e37bc5	-0.0004338903
101	0xb8a58043	-7.891704e-05
102	0x00000000	0.0
103	0xb97b0f08	-0.00023942825
104	0x3a27f577	0.00064071215
105	0x383c12c8	4.4840184e-05
106	0x39849422	0.0002528737
107	0xb782928a	-1.5565445e-05
108	0x39398cb9	0.00017695398
109	0xbae7edb5	-0.0017694744
110	0x380b3ef6	3.319882e-05
111	0x3a95746c	0.0011402494
112	0x3a7bb381	0.00096016383
113	0x3ab9b49d	0.0014168207
114	0x3ad754f8	0.0016428521
115	0xb9cee561	-0.00039462282
116	0xbac13a74	-0.0014742152
117	0x00000000	0.0
118	0xb996e05e	-0.00028777396
119	0xb916a614	-0.00014366984
120	0x3a9de076	0.0012045044
121	0x3aaed831	0.0013339577
122	0x3a904f68	0.0011009993
123	0x3aa2c881	0.0012419374
124	0xba8b398e	-0.0010622011
125	0xb950c4ef	-0.00019909789
126	0x39fa1cba	0.0004770512
127	0x3a024e57	0.000497078
128	0x3a891e27	0.0010461257
129	0x39a00551	0.0003052154
130	0xb96fdbde	-0.00022874723
131	0xb89b0bfc	-7.393208e-05
132	0x00000000	0.0
133	0x38a215be	7.728812e-05
134	0x37a4741c	1.9604391e-05
135	0x3a7404ca	0.0009308575
136	0x3a8617f8	0.0010230532
137	0x3a61d0a3	0.0008614158
138	0x3a7395b9	0.0009292025
139	0xbb18e368	-0.0023328904
140	0xba1cbb6c	-0.0005978856
141	0x393418c4	0.00017175364
142	0x395b217b	0.0002089794
143	0x3a2ff0ed	0.0006711621
144	0x3b11e3a4	0.0022260929
145	0xb945b94e	-0.00018856415
146	0xb9f26f7c	-0.000462409
147	0x00000000	0.0
148	0xb99e0e34	-0.0003014669
149	0xb9806d5f	-0.0002449555
150	0xba439730	-0.00074611884
151	0xba44d72c	-0.000750887
152	0xba4678a8	-0.000757108
153	0xba5314ee	-0.000805213
154	0x3a6e82bf	0.0009098462
155	0xb99d7cca	-0.0003003835
156	0xb987b60e	-0.00025884848
157	0xb94cb6ff	-0.00019523127
158	0xb98cb24c	-0.00026835722
159	0xba069bfa	-0.00051349367
160	0xb9f49ab8	-0.0004665458
161	0xba1484b1	-0.00056655245
162	0x00000000	0.0
163	0xb965bfcb	-0.0002191059
164	0xb916a3bd	-0.00014366112
165	0x3a61edd7	0.000861851
166	0x3a84cdcd	0.0010132134
167	0x3a41aa45	0.0007387738
168	0x3a6f3264	0.0009124635
169	0xbaf9825d	-0.0019036044
170	0xb99b3b6a	-0.0002960817
171	0x39f1a8da	0.00046092906
172	0x39cf9d7e	0.00039599458
173	0x3ac29241	0.0014844612
174	0x3ab042e8	0.0013447674
175	0xb94f9210	-0.00019795471
176	0xb8813c26	-6.162403e-05
177	0x00000000	0.0
178	0x37176faf	9.026305e-06
179	0xb7da24ca	-2.6004756e-05
180	0x39cd8759	0.0003920149
181	0x39cb5cf7	0.0003878844
182	0x39c24a48	0.00037057907
183	0x39cd668d	0.00039177053
184	0x3a8cc4e8	0.0010739835
185	0x39c7d003	0.0003811122
186	0x38b329e2	8.5431864e-05
187	0x378bb308	1.665346e-05
188	0x39d274f8	0.0004014147
189	0xb8ff11a8	-0.00012162636
190	0x39a1b62b	0.0003084404
191	0x393d2dcd	0.00018041507
192	0x00000000	0.0
193	0x39a6b8ba	0.0003179962
194	0x39063b6b	0.00012801371
195	0x3ab10574	0.0013505653
196	0x3ac091f1	0.0014691931
197	0x3aad617a	0.0013227903
198	0x3ac24548	0.0014821673
199	0xba12bf37	-0.0005597951
200	0xb975ebcf	-0.00023452866
201	0x3ab297d5	0.0013625572
202	0x3ac77b94	0.0015219324
203	0x3a99ce8c	0.0011734529
204	0x3a0ab2d9	0.00052909326
205	0xb9045679	-0.00012620715
206	0xb901f9d4	-0.00012395467
207	0x00000000	0.0
208	0x390c2cf2	0.00013368184
209	0xb88a05ce	-6.581434e-05
210	0x39df9e10	0.0004265164
211	0x39f47c1f	0.00046631784
212	0x39bbcf46	0.0003582185
213	0x39de9a11	0.00042457928
214	0x3a9e54b7	0.001207969
215	0xb91e4be4	-0.00015096326
216	0x390c7a2a	0.0001339695
217	0x398c88aa	0.00026804704
218	0x3a2e8d40	0.0006658621
219	0xba5c50cf	-0.00084043754
220	0x393fd2b9	0.0001829368
221	0x399b2211	0.00029589285
222	0x00000000	0.0
223	0x39bee953	0.00036413464
224	0x3874484b	5.824146e-05
225	0xb93417fb	-0.00017175071
226	0xb92776ba	-0.0001597059
227	0xb9353776	-0.00017282166
228	0xb93c42e3	-0.00017953994
229	0xb824ae74	-3.926312e-05
230	0xb9face57	-0.0004783745
231	0xb7a3eab5	-1.9540408e-05
232	0x39008b56	0.00012258938
233	0xb8420c17	-4.6264464e-05
234	0x389ca06e	7.468542e-05
235	0xb95d5d02	-0.0002111085
236	0xb977a234	-0.00023616181
237	0x00000000	0.0
238	0xb8bf0eac	-9.1103226e-05
239	0xb7d49ade	-2.5344485e-05
240	0xb98090db	-0.00024521988
241	0xb96a5fd4	-0.00022351678
242	0xb9810474	-0.00024608115
243	0xb97571fe	-0.00023407486
244	0xb9dbccc4	-0.00041923497
245	0xb8635327	-5.419846e-05
246	0x391181a7	0.00013876577
247	0x39332fde	0.00017088602
248	0x393b6ab9	0.00017873467
249	0x39fddb8e	0.000484195
250	0x38036ab0	3.1332194e-05
251	0xb88da8d9	-6.754854e-05
252	0x00000000	0.0
253	0x3819de3a	3.6685007e-05
254	0xb8c215b7	-9.2546856e-05
255	0xba0114fd	-0.0004924087
