lightning_logs/version_110/checkpoints/epoch=49-step=50.ckpt (torch, 121243 bytes, 30 tensors)

gru.weight_ih_l0 f4 [96, 15]
000000 af 87 29 3e 18 e5 e0 3c 39 33 53 bd 31 e0 92 bd
       0.16555665 0.02745299 -0.05156252 -0.07171667
000010 de b3 25 be 59 89 83 bd 87 2a a2 3d 86 b9 c0 3d
       -0.16181895 -0.06422681 0.07918268 0.09410386
000020 66 70 06 3d 07 01 01 3e 59 d1 02 3e df ec 03 3e
       0.032822035 0.12598048 0.12775172 0.12883328
000030 48 7f 02 bd 1a be b9 3b b2 05 f9 bc 9e 99 33 be
       -0.031859666 0.005668414 -0.030398224 -0.17539069
000040 11 2c 0a 3e e9 f1 86 bd db 80 57 bd 66 7c 20 bd
       0.13493372 -0.065891095 -0.05261312 -0.039181136
000050 47 0e 19 3e c5 68 1f 3d 6b 4e ea bd 5b ed 87 3d
       0.14946853 0.038918275 -0.11440738 0.06637069
000060 73 1e 67 bd 7a f7 24 be 14 e9 39 3d 0e cd 1c 3e
       -0.056425523 -0.1611003 0.045388296 0.15312597
000070 43 5b 95 bd a6 0c 80 bd 4f a6 e8 bd f8 a1 b1 bd
       -0.072927974 -0.062524125 -0.11359846 -0.08673471
000080 90 ad c1 3d 57 0f d6 3d d0 4a 9b 3d 39 c8 be 3d
       0.094569325 0.104521446 0.07582629 0.09315533
000090 a6 21 c9 bc 10 e0 3c bd ea 24 57 3d 81 2a f1 bd
       -0.024552178 -0.04611212 0.05252544 -0.11775685
0000a0 9c ba fe bd b6 55 4a be b1 87 2d be 0c 49 9a bc
       -0.12437937 -0.19759259 -0.16946293 -0.01883366
0000b0 42 00 82 bc 07 50 ce 3d 1a b5 07 3e 3b 8e 48 bd
       -0.015869264 0.10073858 0.13252679 -0.048963767
0000c0 ce 9d 4a 3e 48 b1 03 3e b8 35 03 be 6e 80 92 bc
       0.1978676 0.12860596 -0.12813461 -0.017883506
0000d0 48 ac c8 3d b8 e8 f5 bd 7a 3c 33 3e 28 66 66 bd
       0.09798485 -0.12007278 0.17503539 -0.056249768
0000e0 d6 dd 83 bc 69 e0 bd bd 14 31 ac bd 17 d6 a8 bd
       -0.01609699 -0.092713185 -0.084077984 -0.082439594
0000f0 ca bb 12 3d 3d 30 42 3d 39 9d 23 be 97 e7 00 3e
       0.03582362 0.047409285 -0.15977944 0.12588345
000100 08 ff 24 3d 70 f3 6e 3d 74 3d 30 be 7d 04 9c bd
       0.04028228 0.05833763 -0.17210943 -0.076180436
000110 60 cc 9c bd b4 84 34 bd 6a 03 11 be f6 42 14 be
       -0.07656169 -0.044071868 -0.14161459 -0.14478669
000120 c0 98 2c 3e d4 65 9b 3d 6d 9d 18 3e 3c 97 dc 3c
       0.16855145 0.075877815 0.14903803 0.026927583
000130 07 0a 9f 3c 85 cd a8 bc 08 10 df 3c 86 be 2b 3e
       0.019413961 -0.020605812 0.027229324 0.16771898
000140 46 a9 ed bd 11 f8 88 3c ed c9 0d be 56 59 26 3e
       -0.11604552 0.01671985 -0.1384656 0.16245016
000150 93 21 8d 3d 33 5c 96 3c ae 96 bd 3d 3b dd 01 be
       0.068911694 0.01835451 0.092572555 -0.12682049
000160 1f 03 14 be bc bb b1 3c b8 76 ed 3a af 9c 42 be
       -0.14454316 0.021695964 0.0018117046 -0.19005083
000170 0a ab 66 bc c5 13 00 bd 61 d7 c6 bd 21 48 a2 3d
       -0.014078865 -0.031268854 -0.09709049 0.07923914
000180 04 84 c2 bd ef 4d b2 bd 7e 21 e1 3b 52 97 52 bd
       -0.09497836 -0.08706271 0.0068704477 -0.05141384
000190 0d 97 1c bd 6f e3 eb 3d 18 5f 8f 3d 39 ca b0 3d
       -0.03822999 0.11517989 0.070005596 0.08632321
0001a0 0a ca a0 bc 98 4b 0f 3e b3 b6 a9 bc 5c c1 8a bd
       -0.01962759 0.1399368 -0.020717 -0.067751616
0001b0 41 7e 7b 3d 96 df 23 3e c0 70 52 3d c2 57 71 3d
       0.061399702 0.1600326 0.051377058 0.058921583
0001c0 00 51 cd 3d 78 70 76 3c 2d 01 cf bd b8 be b7 bd
       0.10025215 0.015041463 -0.10107646 -0.089719236
0001d0 d0 7a 79 3c 1a cc 26 3d 19 36 da bd 9f 30 fd 3d
       0.015227035 0.04072199 -0.106548496 0.12362789
0001e0 54 8b a0 3d 02 5a f3 bc 3f 02 f5 3d c7 6b 12 3e
       0.07839075 -0.029706005 0.11963319 0.14298926
0001f0 8e 4c e4 bd 56 53 14 3d 53 01 f0 3d 59 69 09 be
       -0.11147414 0.036212288 0.117190026 -0.13419093
000200 1f 5c 04 3d a9 cd 83 bd 46 21 23 3e f5 10 26 38
       0.032314416 -0.06435711 0.15930662 3.9593277e-05
000210 28 5e e1 bd 90 5e b4 3b a1 2d c6 bd f8 6a cc bd
       -0.11004287 0.005504437 -0.09676672 -0.0998134
000220 bc 24 9a bd 20 7a 03 3e 3c be 73 3d d0 13 b9 3d
       -0.07526538 0.12839556 0.059507594 0.09036982
000230 8f 8b ff 3d 7f 7a f2 bd b9 80 e5 3d 3e 03 da 3d
       0.124777906 -0.118397705 0.112061925 0.1064515
000240 7c 01 87 bd 83 58 a0 bd 53 7e 5e bd 76 fd 10 be
       -0.0659208 -0.07829382 -0.05431969 -0.14159188
000250 6a f7 25 3e 7c 7f 46 bd d9 a0 99 3d 7c 4f ce ba
       0.16207662 -0.048461422 0.075013824 -0.0015740241
000260 81 ab 86 3d c1 89 c2 bd 55 65 f1 3b fa fd b9 3d
       0.065756805 -0.09498931 0.007366816 0.09081645
000270 43 c1 de 3d 9a 0f 8c bd 95 25 ee 3d d7 ab 56 3d
       0.108767055 -0.06838913 0.11628262 0.052409973
000280 a8 db 88 3d e6 9c ea 3d da 4e 2b bc 78 5a 56 be
       0.06682521 0.11455707 -0.010455811 -0.20932949
000290 61 aa 96 bd 4c 96 fd 3d 87 80 d7 bd d0 11 cd bd
       -0.07356716 0.123821825 -0.105225615 -0.10013163
0002a0 5e 6e ba 3d fa be 7a 3d 49 ed 44 3d af 37 65 3e
       0.09103082 0.061217286 0.048077855 0.22384523
0002b0 73 77 2f 3e dd 0e 06 be 10 cd 55 39 39 07 dc bd
       0.1713541 -0.13091607 0.00020389655 -0.10743565
0002c0 cd a9 07 bc 6e f4 13 be 55 2d 9d 3c 2c c5 42 be
       -0.00828023 -0.14448711 0.019186655 -0.19020528
0002d0 01 b0 2b bd 93 88 40 3e cd 63 3b 3e 57 8e d1 3d
       -0.041915897 0.18802099 0.1829979 0.10232227
0002e0 62 61 9c 3c 7c 47 2d 3d 35 dd 0a be f1 f7 80 3b
       0.019089404 0.0423045 -0.13560946 0.003935807
0002f0 31 d3 c3 bb b6 e3 41 3e 0c 55 23 be 12 0b 77 bc
       -0.0059761037 0.18934521 -0.15950412 -0.015078323
000300 40 c5 26 3d 7f f4 34 bd 62 d4 9e bd a8 fa d5 3c
       0.040715456 -0.044178482 -0.077553526 0.026120499
000310 d4 85 0d be 9b 10 0b 3e 12 f3 e4 3d d4 98 b4 3c
       -0.13820583 0.13580553 0.111791745 0.02204553
000320 24 94 12 be 46 fe 83 bd 02 c1 ae bd 02 37 11 3d
       -0.14314324 -0.06444983 -0.08532907 0.03545285
000330 7a 76 fc bd 64 64 d7 3d 4a 5e bb bc e5 91 c6 3d
       -0.12327285 0.10517195 -0.022872109 0.09695796
000340 fc 71 1b 3e a4 7b a3 bc 53 79 5c ba 66 54 b0 bd
       0.151802 -0.019956417 -0.00084104127 -0.08609848
000350 b5 2d 49 3d bd c0 c7 3d ac 9c e8 3d fb 41 1a 3c
       0.049115855 0.09753559 0.11358008 0.009415145
000360 17 5c df bd 28 bb b0 3d 04 50 bb bd 1e eb 19 3c
       -0.109062366 0.08629447 -0.09146121 0.009394435
000370 3c cf 2a 3e ee 8c a3 3c 48 41 6a 3d 60 5a 99 3d
       0.16680616 0.019964661 0.057191163 0.07487941
000380 fc 6e d4 bd 69 64 e7 bd 02 cd 0a 3e 98 07 60 3d
       -0.10372731 -0.112984486 0.13554767 0.054694742
000390 cd 00 e1 3c b0 cd e6 bc a4 5c 3f bd f0 a9 a5 bd
       0.027466202 -0.028174251 -0.04671921 -0.08089054
0003a0 8e 4b a1 bd ff 64 f6 bd 97 eb f2 bc bf 94 81 3d
       -0.07875739 -0.12030982 -0.029653354 0.06327199
0003b0 51 98 34 3d 7e 27 b6 3d ad 87 48 bd df 39 a1 bd
       0.044090573 0.08894251 -0.048957516 -0.07872366
0003c0 3a cc ea bd 16 67 2d 3e 6a e9 40 3e ea c0 b8 bd
       -0.114647344 0.16933855 0.1883904 -0.090211704
0003d0 9f 9c 43 bd 3a fc 35 bc 3d 7f c3 bc 2a 9b de 3c
       -0.047756787 -0.011107499 -0.023864383 0.027173597
0003e0 86 59 05 3e 3c 30 0e be 09 a5 0c 3d e2 35 12 3e
       0.13022432 -0.13885587 0.034337077 0.14278367
0003f0 d2 2d a8 bd e1 b6 09 be ff 51 c3 3d 26 23 1f bd
       -0.082118645 -0.13448669 0.09537124 -0.03885188

gru.weight_hh_l0 f4 [96, 32]
000000 db af f9 bd cc 4b 09 3c 53 15 44 bd ac da e7 bc
       -0.12191745 0.008379888 -0.0478719 -0.028302513
000010 a5 00 29 3e 72 b9 16 be b2 f9 db bd 4b 17 bd bc
       0.16504152 -0.1471918 -0.10740985 -0.023082396
000020 6b 8a 0d be ce 31 d5 bd 84 19 74 bd 6c 08 8c bd
       -0.13822334 -0.1040989 -0.059594646 -0.06837544
000030 71 95 fb bd 0d 48 04 be a5 11 77 3b 74 30 5f bd
       -0.12284363 -0.1291811 0.0037699726 -0.054489568
000040 e8 39 24 3d b8 fc 91 bd 12 ba 37 bc 19 0c ea 3c
       0.040094286 -0.071282804 -0.011213796 0.028570222
000050 20 45 12 be bc 68 c6 3d 93 55 44 3d 32 8f 4c 3e
       -0.14284182 0.09687945 0.047933172 0.199765
000060 a7 1f fa bd 6b a9 4c be 54 c1 1b 3e 53 50 3c be
       -0.122130685 -0.19986503 0.15210468 -0.18390016
000070 c4 f0 99 3d 00 6d ae 3d 0c ca 8d bd 43 b3 a6 bd
       0.075166255 0.08516884 -0.06923303 -0.0813966
000080 b6 a7 f7 bd 33 43 40 be b2 bc 6b bd 87 1e b5 3d
       -0.12092535 -0.18775634 -0.057553 0.08843713
000090 8f 04 e0 bd 61 90 f4 bd 1c ba 29 be 78 b6 32 bd
       -0.109383695 -0.119416006 -0.16574901 -0.043631047
0000a0 f6 ef e5 bd c8 8a 0f be 00 2d 02 36 b7 e1 c3 bd
       -0.112274095 -0.14017785 1.9397703e-06 -0.09564536
0000b0 d9 f6 0c be 0f 1a 27 be 36 29 a3 bc e7 4a 01 be
       -0.1376604 -0.16318534 -0.019917112 -0.12626229
0000c0 20 de ce 3b 78 30 7a bd c1 e7 17 3e 93 39 d7 bd
       0.0063131005 -0.06108138 0.14834501 -0.10509028
0000d0 3f 87 16 be 18 2c 2a be d0 03 2c 3d 75 16 26 be
       -0.1470003 -0.16618383 0.041995823 -0.16219504
0000e0 75 7e ad bd 9c 82 11 3e bb 32 2f 3e 42 c6 89 3d
       -0.084713854 0.1420998 0.17109196 0.06727268
0000f0 85 e4 4d 3e e4 55 82 3c 90 f7 e2 3d 55 15 94 bd
       0.20106705 0.015910096 0.11082375 -0.07230631
000100 e7 12 05 be 2f 53 20 3e 46 82 22 bd a3 c3 85 3d
       -0.12995492 0.15656732 -0.03967502 0.06531455
000110 b1 dd 90 bd 7c ea 0c 3e ba 4d 2e 3d d1 a4 a0 bd
       -0.07073534 0.13761324 0.042554595 -0.07843936
000120 51 4e 8d 3d 1c 81 27 bc a1 bd 67 3d f5 02 e4 bd
       0.06899703 -0.010223653 0.05657733 -0.111333765
000130 d0 78 e8 bd 18 74 20 be 5f 96 0c 3e bc 5e 05 3e
       -0.11351168 -0.15669286 0.13729237 0.1302442
000140 33 62 9e bd b6 d6 d9 bc 5d 74 08 be 2b 1b ec bd
       -0.07733574 -0.02659164 -0.13325639 -0.115286194
000150 15 79 84 3d 47 01 a1 bd 5f a8 4a bd 96 f8 ad 3d
       0.06468407 -0.07861572 -0.049476977 0.0849468
000160 18 25 a4 bd 1a e0 af 3d 4a fb 70 bd 18 f5 0e be
       -0.080148876 0.08587666 -0.058833398 -0.13960683
000170 48 9b 64 3b fb 45 1a 3d 60 8b d4 bd c8 28 6e 3b
       0.0034882594 0.037664395 -0.10378146 0.0036340225
000180 d4 98 07 be b3 aa 40 bd 05 75 92 bd e9 da 8b bd
       -0.13241893 -0.04703779 -0.07151226 -0.06828863
000190 b3 20 90 bd 70 35 8a bd 75 05 8d ba fd 40 03 3e
       -0.07037487 -0.06748474 -0.0010759073 0.1281776
0001a0 70 05 02 be b5 f2 53 3e e1 0c 07 be c7 75 a7 bc
       -0.12697387 0.20698054 -0.13188507 -0.020441903
0001b0 ad d7 02 be e6 9a f6 3d de 33 40 3e 8a 2f 16 3e
       -0.12777586 0.12041263 0.18769786 0.14666572
0001c0 89 84 91 3c ba 45 ae 3d f8 bc 3a 3d 06 05 4e 3d
       0.017763393 0.08509393 0.04559037 0.05029776
0001d0 7f 3f 8c 3d d6 a4 ff bd 46 6a e2 3c a1 20 8f bd
       0.068480484 -0.12482612 0.027638566 -0.06988645
0001e0 85 9b af bd 94 98 41 bd f5 82 bb 3d 68 e4 8b 3d
       -0.08574585 -0.04726465 0.091558374 0.068306744
0001f0 87 40 e0 bd 6c 48 23 be 25 54 32 be 78 27 bf 3d
       -0.109498076 -0.15945596 -0.17414911 0.093337
000200 87 f8 aa bc ef b1 cf 3d b6 ad f9 3d f8 60 f4 3c
       -0.02087046 0.1014136 0.12191336 0.029831395
000210 48 11 26 bd 7e 4e 03 3e 50 12 6e 3d bf 09 9d bd
       -0.040543824 0.12822911 0.058122933 -0.076678745
000220 d1 6a bf bd 98 36 e0 bd 4f 97 28 bd e3 8b 02 3e
       -0.093465455 -0.10947913 -0.041159924 0.12748675
000230 53 d5 7d bd 31 f0 07 3e 7c e6 23 3c e9 2c 31 be
       -0.06197102 0.1327522 0.010003682 -0.17302288
000240 fa 27 97 bc 12 16 27 be 94 02 52 3b dc 5b 43 bb
       -0.01845168 -0.16317013 0.0032044994 -0.002980939
000250 95 fb 2f bd 8f 4e 6f 3d 49 41 ae bb 63 11 28 3d
       -0.042964537 0.05842453 -0.005317841 0.041032206
000260 33 16 99 bd f5 9a ba bd 4a 91 43 3e 40 bf 6d bd
       -0.07474937 -0.09111587 0.19098392 -0.05804372
000270 c0 b4 34 3e 2e 47 3e bd ed d3 9e bd 21 fc bc bd
       0.17647076 -0.0464546 -0.077552654 -0.09227777
000280 a1 00 d6 3d 13 11 22 3d 00 be 5c be 9d a5 d7 bc
       0.10449339 0.039567064 -0.21556854 -0.026324088
000290 d4 80 f1 bd 0c 29 a6 3d 47 06 48 3e be 2b 2a 3b
       -0.1179215 0.08113298 0.19533645 0.0025966014
0002a0 40 fe 36 be 36 ec 2f 3e 55 8a 8e 3d 9a 5d 7e bb
       -0.17870426 0.17179951 0.069599785 -0.0038813115
0002b0 25 3b 13 3e 47 89 c4 bd 80 1a 08 3e b8 0c 8a 3d
       0.1437803 -0.09596496 0.13291359 0.06740707
0002c0 96 e5 5c 3e 00 b5 f4 bd a9 7e 75 bd cf fc fa 3d
       0.21571955 -0.119485855 -0.059935246 0.12255251
0002d0 27 b9 50 3c f8 60 cb bc 4d f6 1c bd 34 63 24 bc
       0.012739456 -0.024826512 -0.03832083 -0.0100334175
0002e0 87 be 2f 3e bb 77 0e 3e 46 a6 1b 3e a8 13 65 3c
       0.17162524 0.13912861 0.15200147 0.013981737
0002f0 b8 d9 b6 3d 9a a9 1b bd ca e6 c3 bd d6 13 89 bd
       0.08928245 -0.03800354 -0.09565504 -0.066932365
000300 a0 d1 db 3d 5c d5 f2 3d 13 2e 4f bd df 4b 4d be
       0.10733342 0.11857101 -0.05058105 -0.20048474
000310 30 e9 f2 3d 02 23 5a be 84 ca 2d 3d 31 d4 57 3e
       0.11860883 -0.21302417 0.042429462 0.21077038
000320 91 5f bc 3d 11 39 28 3e 5c 90 9d bd 81 14 73 3c
       0.09197915 0.16428019 -0.0769355 0.0148364315
000330 51 c9 1b be 1b c0 35 bc 3e a0 02 bd 77 a2 f9 bd
       -0.15213515 -0.011093165 -0.0318911 -0.12189191
000340 5b e7 d1 3d f7 32 63 3d 87 e8 06 3e 9f 25 37 be
       0.10249206 0.055468526 0.1317464 -0.17885445
000350 8b 2c 01 3e 6d 06 49 3c f1 36 7d bd 0c fb 3f 3e
       0.12614648 0.012269598 -0.061819974 0.1874811
000360 e7 ba 0d be f5 13 0e 3d e2 ae 38 3e 80 b3 f2 bd
       -0.13840829 0.034687 0.18035462 -0.11850643
000370 bf ac c3 3d d7 e9 17 3e 49 8a 5a 3e 4d 2e 01 bd
       0.09554433 0.14835297 0.21341814 -0.031538296
000380 0e 61 91 bd 43 d4 2d be f5 35 be 3d 6d e1 a3 bd
       -0.0709859 -0.16975503 0.09287635 -0.08001981
000390 70 70 de bd e5 d4 3b be 3a a5 e8 3d 04 f6 3d 3d
       -0.108612895 -0.18342932 0.113596395 0.046377197
0003a0 bb c1 4d 3d 71 ec e8 bd 0c 56 b4 3d 53 c9 4a bc
       0.050233584 -0.113732226 0.08805475 -0.012377101
0003b0 84 07 f2 bd 60 3a 37 3d 52 18 65 3b 98 08 40 bd
       -0.1181784 0.044733405 0.0034957123 -0.046883196
0003c0 cf 49 89 bc bb 9d 93 3d 95 1a bc bc 71 0f 76 bd
       -0.016758827 0.07207819 -0.022961894 -0.06007332
0003d0 ed 5d 3f bd 85 de 97 bd 46 5d df bc ab 20 e6 bd
       -0.046720434 -0.07415489 -0.027266156 -0.112367
0003e0 ae 64 a7 3d ed 5f 35 bd c0 be 0f bd f1 07 f3 3c
       0.081735 -0.044280935 -0.035094023 0.029666873
0003f0 87 11 2f 3e 61 8f d0 3d 07 b7 23 be 83 17 64 3d
       0.1709653 0.10183597 -0.15987788 0.055686485

gru.bias_ih_l0 f4 [96]
000000 81 a9 38 3e 65 26 cd 3b 6f 23 7e 3d be 9f 02 3d
       0.1803341 0.0062606805 0.06204551 0.031890623
000010 8a 00 10 3e ab d5 40 3e 7f 98 25 bd 81 a9 47 be
       0.14062706 0.18831508 -0.040428635 -0.19498254
000020 f5 bd 00 3e f6 61 e0 3d 10 35 dd bd 4e 0c 17 3e
       0.12572463 0.109561846 -0.108011365 0.14750788
000030 ed 92 be bd 63 fc 3c bd 20 e6 de bc ba 92 41 3e
       -0.093053676 -0.046139132 -0.027209342 0.18903628
000040 30 79 83 3d 47 38 e3 bd 91 2a 1c bd df 92 fa bc
       0.06419599 -0.110947184 -0.038126532 -0.030587612
000050 72 5e 76 bd 47 71 38 3e 00 5f 3b 3e 85 01 e3 bd
       -0.060148664 0.18011962 0.18297958 -0.11084274
000060 81 0c 5b bd b9 c7 2e be ed 9d 4e 3b 88 fe 95 3d
       -0.05347872 -0.17068376 0.0031527237 0.073239386
000070 7e 27 ce bb c4 22 8a bd 5d 53 36 bd 37 63 e6 3d
       -0.006291329 -0.06744912 -0.044513095 0.112493925
000080 5a 32 78 bd 24 ff aa bc d8 da bc 3d 22 e5 1a be
       -0.060594894 -0.020873614 0.09221429 -0.1512647
000090 c8 b1 cc 3c 2f 76 5b 3d 3c 01 2b be 32 0d e7 bd
       0.024987116 0.053579506 -0.1669969 -0.11281814
0000a0 0e 31 e8 3d fb 5c e8 bd 64 c0 cc bd 9a 9d f5 bd
       0.113374814 -0.113458596 -0.09997633 -0.11992951
0000b0 dd 71 72 bd f9 7c b2 3d ed bf 91 3d 9d 86 53 3d
       -0.05919062 0.08715243 0.07116685 0.05164205
0000c0 ef f4 ce bd b3 4c 84 bd bb 7a 40 3d 15 78 00 be
       -0.10105311 -0.06459942 0.046992045 -0.12545808
0000d0 34 4d 81 3d 5b 5a 90 3d 7a a7 06 3e 6e b3 2f be
       0.063135535 0.07048484 0.13149825 -0.1715829
0000e0 cb 11 0d 3e 79 43 ce bc f3 61 8b ba 9b 7c 05 3d
       0.13776319 -0.025178658 -0.001063405 0.032589536
0000f0 9f a3 e4 3d 6b 17 69 3d ca 1d 47 bd 48 7d 63 3d
       0.11164021 0.0569071 -0.048612393 0.0555394
000100 be 48 3c 3e 2a 9c 69 bd 0d b0 4c be 17 3b 28 be
       0.18387124 -0.057033695 -0.19989033 -0.16428791
000110 73 c2 f5 3d 5d 25 07 3d ec a4 af 3d eb 7e 9c 3d
       0.11999979 0.032994617 0.08576378 0.07641395
000120 27 49 a5 bd e1 20 55 3e bb b2 4d be 0c e8 43 3e
       -0.08070593 0.20813324 -0.20087712 0.19131488
000130 39 1b 1a be cf 9b 93 bd 4d c8 8d bd b7 54 f6 3d
       -0.15049447 -0.072074525 -0.0692297 0.12027877
000140 67 c6 15 3e 08 e6 57 3e 37 fb bc bb ba 32 3f be
       0.14626466 0.21083844 -0.005767252 -0.18671694
000150 ea 61 86 bd fe b3 10 be 8e 71 2f be f5 ba f4 3d
       -0.065616444 -0.14131162 -0.17133161 0.11949722
000160 2d 00 c3 3d 53 fe 88 3b 0b cc ed 3d 05 60 ad bd
       0.09521518 0.0041807084 0.11611184 -0.0846558
000170 b9 b4 02 3d 10 bc a6 3d 68 2d d7 3d c9 71 25 bd
       0.03191063 0.08141339 0.105067074 -0.040391717

gru.bias_hh_l0 f4 [96]
000000 bb 74 c2 3d 70 7b c8 3c 08 71 01 3e 62 e2 a8 bc
       0.09494921 0.024472922 0.12640774 -0.02061576
000010 62 1d 19 3e 71 9d ab bd d0 d9 14 3d e3 d2 20 be
       0.14952615 -0.08379639 0.036340535 -0.15705447
000020 a6 93 0c 3e d2 fb 3b 3e f8 62 15 3e e3 1a 18 3e
       0.13728198 0.1835778 0.14588535 0.14854006
000030 56 bf a3 3d 79 99 c3 bd ef fc 37 3e 98 71 fa bc
       0.07995479 -0.09550757 0.1796758 -0.030571744
000040 e2 89 03 be 6a 96 49 3e 90 51 1c 3d a7 a7 b9 3c
       -0.12845567 0.19686285 0.03816372 0.02266295
000050 91 ca d4 bc 27 9c bf bd 48 10 35 3e ee 78 ba 3d
       -0.025975497 -0.093559556 0.17681992 0.09105097
000060 2a a0 ae bd 93 84 aa 3c a5 4d 56 bd 78 f5 b6 bd
       -0.085266426 0.02081517 -0.05232014 -0.08933538
000070 cd c8 22 3d 6f d7 3b bc ea d2 aa 3b 1a fb 37 3e
       0.03974228 -0.011464938 0.005213131 0.17966881
000080 e1 bf a9 bc b8 ed db 3d dc ca c9 3d 24 d2 04 3e
       -0.020721378 0.10738701 0.098531455 0.12970787
000090 89 42 04 be f9 f8 ee 3c 28 07 5f 3d 0e 30 d5 3c
       -0.12916006 0.029171454 0.054450184 0.02602389
0000a0 98 ab 01 3e df d9 07 be 3a 9d f0 3b f5 13 6a 3d
       0.12663114 -0.13266705 0.0073429616 0.05714794
0000b0 0d a7 00 3e 37 21 2b bd ed e6 db bd 5a 9d dd bd
       0.12563725 -0.041779723 -0.10737405 -0.10821028
0000c0 aa 84 12 3e 79 52 4b 3d 72 98 e9 bc e5 3c c3 bd
       0.1430842 0.0496392 -0.028515074 -0.09533099
0000d0 69 7c 09 be 57 3a ef bd 69 f8 18 3e 23 de e7 bd
       -0.13426365 -0.11681049 0.14938511 -0.11321666
0000e0 8a b0 96 3d ee e9 b2 3c da 36 8c bc 19 06 f1 3d
       0.07357891 0.021840062 -0.017115999 0.11768741
0000f0 9b 15 8e bd af a6 b1 3c ce d0 18 bd 09 f1 d6 bd
       -0.06937715 0.021685926 -0.037308507 -0.104951926
000100 32 9e b2 3d 36 99 9a 3d fe e2 6e 39 1b 1e 38 be
       0.087215796 0.07548754 0.0002278201 -0.17980234
000110 af cb 35 3d 9d 8a 32 3e 4e 58 b2 bd c8 e7 29 3e
       0.0443837 0.1743569 -0.08708249 0.16592324
000120 be b3 3b be e9 37 22 3e a2 79 72 bd ef a4 9b 3d
       -0.18330285 0.1584164 -0.05919803 0.07599818
000130 89 46 0c bd e2 b1 20 3e 41 0c 5b 3e bf 9d 0e 3e
       -0.034246955 0.15692857 0.21391393 0.13927363
000140 f6 cc 4f 3e a6 47 a6 3d 96 7e 89 3c 7f a5 e5 3c
       0.2029303 0.081191346 0.016783994 0.028033016
000150 00 14 9f bd 27 a4 e0 3d a2 42 96 3c 03 fb ba 3d
       -0.077674866 0.109688096 0.01834232 0.09129908
000160 2e 37 0a be 88 9b 1c bc d9 63 51 3e 69 59 8f bd
       -0.13497612 -0.009558566 0.20448245 -0.069994755
000170 bc 0f 57 bd 11 ba c6 bd fe 1c de bd b6 ee 6d bd
       -0.05250524 -0.09703458 -0.108453736 -0.05808898

output_layers.0.weight f4 [64, 32]
000000 de af a5 3d 39 09 e4 3c c9 b6 2b 3d 1d ff a7 3c
       0.08090185 0.027836429 0.041922364 0.02050739
000010 2d 02 41 3e f0 38 59 3d 6c d8 b0 3c cf b7 11 3e
       0.18848486 0.053032815 0.021587573 0.14230274
000020 3b de f7 3d 7e ae fb 3d c0 17 af 3d e6 e9 2f be
       0.12102934 0.12289141 0.08549452 -0.17179069
000030 d5 11 05 be eb 37 14 be 1f 1b 4f bc 4c a3 5a 3d
       -0.12995084 -0.14474456 -0.0126407435 0.05337839
000040 fa f9 05 be 22 22 99 3d 0b 24 90 bd 74 af b2 bd
       -0.1308364 0.074772134 -0.07038125 -0.08724871
000050 78 79 4b 3d ae c6 99 3d 3d 8a 7c bd e6 f9 6b 3c
       0.04967639 0.07508598 -0.06165527 0.014402842
000060 f1 23 b2 3d 21 56 e0 3d 81 a2 8e bd 87 3e 2a be
       0.086982615 0.10953928 -0.06964589 -0.16625415
000070 f9 7a 51 bd 7b a3 e5 bd 1a 1a 88 3c 95 d9 2d bd
       -0.051142666 -0.11212822 0.016614009 -0.04244383
000080 5b 03 1c be e5 d9 ca bd 78 0b 21 3d ce bb 05 3e
       -0.15235655 -0.09904841 0.039317578 0.13059923
000090 c3 e9 38 3d db 5e 1d be b0 61 28 be 5c a1 78 bc
       0.045144808 -0.15368216 -0.16443515 -0.01517519
0000a0 da a2 82 3d d8 fc 05 bd f5 36 36 be f9 b3 9f bc
       0.06378718 -0.032711834 -0.17794402 -0.019494997
0000b0 11 ce 1d 3d a8 02 09 3d 0d e0 33 3d e9 b2 bc 3d
       0.0385266 0.0334498 0.043914843 0.09213812
0000c0 be 0b f8 bd 92 c8 70 3d bb 88 29 be be 66 c0 3c
       -0.12111615 0.05878503 -0.16556065 0.023486491
0000d0 f1 05 e3 3d 76 c9 33 be 88 34 65 3d cb 13 10 be
       0.110851176 -0.1755732 0.0559583 -0.1407005
0000e0 ab f8 a6 bd 6a 7c ab 3c 52 6a 24 be 4f ed 02 3e
       -0.081528984 0.020933349 -0.16056183 0.12785839
0000f0 6e 98 98 3d a1 11 28 bd 73 28 2b be 5b 8d 08 bd
       0.07450949 -0.041032437 -0.16714649 -0.033337932
000100 c4 39 8e 3d d8 4d c8 3c d0 ba b1 bc eb 61 43 3d
       0.06944612 0.024451181 -0.021695524 0.047700804
000110 04 fa 1c 3e 43 aa cf 3d 4a f4 af bd b6 e0 d8 3d
       0.15329748 0.10139897 -0.08591516 0.10589735
000120 4e e3 ad bd 41 c2 22 bc 96 71 0a be fb c2 45 3d
       -0.084906206 -0.009934009 -0.13519892 0.04828165
000130 43 8b bd bd d5 ab 03 be 27 60 01 3e 3a ba 9f bd
       -0.09255078 -0.12858517 0.12634335 -0.07799192
000140 95 aa 52 bc cd ae 27 be 58 9a 35 bc e9 50 bc 3d
       -0.012858053 -0.16375275 -0.011084162 0.0919512
000150 6a a0 33 be 5d 76 7b bb 25 68 41 bd 14 66 b5 39
       -0.17541662 -0.003837011 -0.04721846 0.00034599064
000160 c4 7b 62 3d 04 2f 08 3d cb 69 cb bd 51 ed 31 be
       0.055293813 0.033247963 -0.09932288 -0.17375685
000170 73 20 74 bd ba 76 2e 3d 72 8d a3 3d e5 04 1c 3e
       -0.05960126 0.042593695 0.07985963 0.15236242
000180 41 79 f2 3d d1 92 fe 3d bf ae 21 be 52 2d eb bd
       0.118395336 0.12430347 -0.15789317 -0.114832535
000190 f8 a5 2d 3c a3 f0 e0 3c be 91 e3 3d 4e 09 2e 3e
       0.010598652 0.027458495 0.111117825 0.16995737
0001a0 41 7b e9 bd 8d 4d 48 3e 8c f3 a5 bc 6f e1 b6 bd
       -0.11400462 0.19560833 -0.020257734 -0.08929717
0001b0 7a 5e 46 be 0a e3 fd 3d 6a 88 b9 bd c6 e2 d8 3a
       -0.19371977 0.1239682 -0.09059222 0.0016547076
0001c0 51 0e ba 3c e3 9a 9a 3c 7b cb 14 3d 1d 4e 58 be
       0.022711905 0.018872684 0.036326867 -0.21123548
0001d0 b0 2c 15 3d c2 a3 e2 3d 8f e1 eb 3d 67 a1 08 be
       0.03641957 0.110663906 0.11517631 -0.1334282
0001e0 98 35 73 3d c6 12 42 bd 4b fa e8 3d 2e 5b 09 be
       0.059377283 -0.047381185 0.113758646 -0.13413689
0001f0 9d 52 47 3d 6b 6f 57 3e 94 de 0d bd 3f 17 c5 bd
       0.04866277 0.21038596 -0.034636095 -0.096235745
000200 5c 36 b0 3d 85 32 e1 bd 10 33 92 3d f7 16 7c bd
       0.08604118 -0.10995964 0.07138646 -0.06154534
000210 f5 ad f8 3d 43 93 a1 bd 4c 3f 1f be 3f 47 11 3d
       0.12142555 -0.07889416 -0.1555149 0.035468336
000220 37 4c c4 3d 0f 0f 09 3d ed 7c 0a 3e 90 f3 65 3d
       0.09584849 0.033461627 0.13524218 0.056140482
000230 fd 3f dc bd 91 df b1 bd ba 9b 94 3d c6 5e 98 bd
       -0.10754392 -0.0868522 0.07256265 -0.074399516
000240 95 48 d4 bd 55 7c ec bd b2 9f 88 bc 6a 1a 41 3c
       -0.103654064 -0.11547152 -0.016677711 0.011786083
000250 1a 48 cf bc 8c 31 8b 3d c2 64 99 bd 7c 45 0b 3e
       -0.025302935 0.0679656 -0.07489921 0.13600725
000260 ea 88 b6 3d e8 28 83 3d 80 41 12 bd bc 0a 24 3e
       0.08912833 0.064042866 -0.035706997 0.1601972
000270 80 71 35 3d 89 de a9 bc 23 1f 17 3c 0e 05 c5 bd
       0.044297695 -0.020735996 0.009223732 -0.09620105
000280 e4 d0 2d be d2 90 4c 3e 73 55 31 3d bc b2 14 be
       -0.16974217 0.1997712 0.04329438 -0.14521307
000290 b7 1c 31 3e e2 bd 2f 3e 91 5f 26 3e 7d 63 0d be
       0.1729611 0.17162278 0.16247393 -0.13807483
0002a0 1b 54 28 be cb 89 13 3e 99 c0 aa bd d9 5d 88 3d
       -0.16438334 0.14408033 -0.08337516 0.06658525
0002b0 cd af a3 bc e6 39 b1 3c 4b a0 22 3e a7 7f 0c be
       -0.01998129 0.021634053 0.1588146 -0.1372057
0002c0 21 52 b7 bd 60 f8 42 3d a3 ba 49 be 7e 11 00 be
       -0.08951212 0.04760015 -0.19700103 -0.12506673
0002d0 b5 87 11 3e 49 eb e5 3d 42 93 be bd 50 f9 43 3d
       0.14211924 0.11226518 -0.09305431 0.047845185
0002e0 40 cb 77 bd eb c7 02 3e 15 f7 19 3e b6 1c 1e be
       -0.06049657 0.12771575 0.1503566 -0.1544064
0002f0 31 ee 17 be db db 9d bd 2d d0 12 3e 9a ea 22 be
       -0.14836957 -0.0770795 0.14337225 -0.15909806
000300 0e 37 b3 3d 05 3c 28 3e 2c 51 df 3d 24 90 f8 bd
       0.08750735 0.16429146 0.10904154 -0.12136868
000310 e7 1e fb bc 7a b9 31 3d b0 7f 2b 3d 04 c8 99 3d
       -0.030654384 0.043389775 0.04186982 0.07508853
000320 58 db b1 3a 5a 3e 11 bd 09 59 de 3d 6c 07 9d 3d
       0.0013569398 -0.035459854 0.10856826 0.07667431
000330 29 2c 04 3e e5 15 7b 3d 78 16 8b 3c 09 8c 08 3e
       0.12907471 0.061300177 0.016978487 0.13334669
000340 f4 f1 03 3e 41 83 d7 3d 9a 27 02 3e 86 55 2b be
       0.12885267 0.105230816 0.1271042 -0.16731843
000350 17 34 c7 bd 79 fa 18 be 9f 45 4e be c5 be 58 3d
       -0.09726732 -0.14939298 -0.20143746 0.052916307
000360 33 24 81 3d 6e 06 a9 3d fb 98 3c 3d bb ad 82 3c
       0.063057326 0.082531795 0.04604433 0.015951982
000370 c1 fa 8f 3d 57 e9 b4 3c 0a 64 0f 3e a2 03 c5 3c
       0.070302494 0.022083921 0.14003006 0.024049584
000380 e3 68 b4 bd 96 2a 0c be 74 ca 5e 3d a6 b3 35 3d
       -0.08809068 -0.1368812 0.054392293 0.04436078
000390 91 a1 64 3e ae a6 06 3e b1 a7 0d be a6 ca ac 3d
       0.22327258 0.13149521 -0.138335 0.084370896
0003a0 f2 0c a4 3b e9 4b 60 3e fc e9 25 be 62 9b 34 3d
       0.005006426 0.21903957 -0.16202539 0.044093497
0003b0 c8 c5 27 3e 94 55 29 3e 33 14 2d 3e 80 6f be bd
       0.16384041 0.16536552 0.16902237 -0.09298611
0003c0 eb 12 cb 3d be eb 90 3d 44 09 64 bd 67 fe 1a be
       0.09915718 0.07076214 -0.0556729 -0.1513611
0003d0 ab 04 6e bd f5 a3 f6 3c e7 eb 51 be cb 33 d4 bc
       -0.05810992 0.030107478 -0.20500146 -0.025903603
0003e0 4c e3 63 3c da 94 22 3e f3 d9 b4 3d b5 7c 59 bc
       0.013909172 0.15877095 0.08830633 -0.013274361
0003f0 24 4f 31 be c3 69 44 3c ec b2 a1 3d 2f 0d e9 bd
       -0.17315346 0.011988106 0.07895455 -0.11379468

output_layers.0.bias f4 [64]
000000 ac 14 92 bd c9 43 22 bd 87 dc 69 bd 6d ec b4 3c
       -0.07132849 -0.039615426 -0.057095077 0.022085393
000010 98 aa 0f be 65 4a ae 3d 84 82 c3 3d 26 4c 0b 3e
       -0.1402992 0.085102834 0.09546378 0.13603267
000020 87 4a 26 3e 0b 9f 2d be 77 0e 18 3e 8a 8e 04 be
       0.16239367 -0.16955201 0.14849268 -0.12945
000030 95 ee 0f bd 92 62 3a be c2 98 09 bd e0 d4 e4 bd
       -0.03513964 -0.18201664 -0.033592947 -0.11173415
000040 d1 81 f8 3c 42 9e 52 3e 4a f9 f4 3d 48 cb 8f bd
       0.030335339 0.20568183 0.119616106 -0.07021195
000050 b2 20 bd bc d9 4d 76 3d 08 de ce bb 3a 00 3d bd
       -0.02308688 0.060132835 -0.0063130893 -0.046142794
000060 c5 c4 d5 bd c1 09 cc 3c 6e e3 4d 3e cc b9 3e 3e
       -0.104379214 0.024906995 0.20106289 0.18625563
000070 fd a1 18 3e 5a d7 88 3d 85 9b 11 3d d2 e6 e2 3d
       0.14905544 0.066817 0.035548706 0.11079182
000080 f9 c1 3c be 04 34 06 be c0 d5 51 bc fe de 93 3d
       -0.1843337 -0.1310578 -0.01280731 0.07220267
000090 40 b8 61 3d 06 83 59 bd 93 47 41 bd 9a 78 82 3d
       0.055107355 -0.05310347 -0.0471874 0.06370659
0000a0 bf c1 58 3e fd c6 d1 3c 8e 65 8d bd 2b 69 fa 3c
       0.21167658 0.02560758 -0.06904136 0.030567726
0000b0 7a fb 3c bd d7 c3 e1 bb 3c 0d 2a be b8 f9 46 3e
       -0.046138264 -0.006889801 -0.16606611 0.19431198
0000c0 6b 80 1d be 92 40 00 3e 7a bb e9 bd e0 18 3b 3d
       -0.15381019 0.12524632 -0.114127114 0.04567802
0000d0 c5 fe 05 3d 32 c8 18 3e ab 49 04 bd f1 5d f5 bd
       0.03271367 0.14920118 -0.032296818 -0.119808085
0000e0 94 6c 79 bd 74 2f d4 3a ef 85 97 3c 25 45 21 be
       -0.060894564 0.0016188459 0.018496482 -0.15749033
0000f0 6a 50 5f 3e 5f 6b c1 bd c6 84 29 be 17 6f e3 bd
       0.2180802 -0.094443075 -0.16554555 -0.11105173

output_layers.3.weight f4 [32, 64]
000000 01 76 5c bb 02 5e 17 3c 0d bf 11 3e 62 05 9b bc
       -0.0033639672 0.009238722 0.14233036 -0.018923465
000010 e7 88 ad 3d 06 d5 1b 3e 04 52 3e bd 65 6d 03 3e
       0.08473378 0.1521798 -0.046464935 0.128347
000020 7b ad d4 3d a4 c5 02 bd b7 cb 11 bd 42 66 7a bd
       0.10384651 -0.031926766 -0.03559467 -0.061132677
000030 5b aa 08 bd ea 72 e3 ba cf 14 af bd 50 91 89 bc
       -0.03336559 -0.0017352973 -0.08548891 -0.016792923
000040 2e 14 60 3c 8c 5f b4 3d 61 6c 7e 3d ac e8 3e bd
       0.013676686 0.088072866 0.062115077 -0.046608612
000050 6f 57 8f 3d d5 e6 a3 3d c2 c9 b4 3d 20 68 00 3e
       0.069990985 0.08003012 0.08827545 0.1253972
000060 32 33 24 3e 64 91 cc bc 93 2e db 3d e4 4c 61 b9
       0.16035154 -0.024971671 0.10702243 -0.00021486316
000070 30 c1 23 3e c6 65 44 bd 4c 66 ae bb f9 0f 99 bc
       0.15991664 -0.04794862 -0.0053222533 -0.018684374
000080 c6 58 ba 3d 0e 22 6e bd 19 e2 0c 3e 63 07 fa 3d
       0.090989634 -0.058137946 0.13758124 0.1220844
000090 66 f4 c0 3d 12 90 8e 3d ff 73 74 3d a3 42 38 3c
       0.09421615 0.06961073 0.059680935 0.011246356
0000a0 21 cb 42 3b 7d 9d 01 3e e2 05 56 bd 3e 0f aa 3d
       0.0029723125 0.12657733 -0.052251704 0.083036885
0000b0 d9 2d c2 3d 20 74 5c bd 60 57 d4 3d 48 e4 09 bd
       0.09481401 -0.053821683 0.10368228 -0.03366497
0000c0 c1 12 f7 bc 73 be 04 3e d5 61 e5 3d 52 af 8f bb
       -0.03016031 0.12963276 0.112003006 -0.0043849135
0000d0 4c 02 ef 3d 40 37 f7 3d 03 35 ce 3d 85 3e b9 bb
       0.1167036 0.12071085 0.10068705 -0.005653205
0000e0 c3 7c 24 bd b2 e4 53 bc b2 23 74 bd 79 91 16 3c
       -0.040158045 -0.012932943 -0.059604354 0.009189957
0000f0 25 07 b4 3d 4f 4e 22 3e 64 1c 90 bd 7b 23 1b 3e
       0.08790425 0.15850185 -0.07036665 0.15150253
000100 60 3a 1b 3e 7e ac cb 3d a6 bf 88 3c 75 34 17 3e
       0.15158987 0.0994501 0.016692948 0.14766105
000110 0b 41 d3 bd 21 e1 c5 3d 6c 8a 9f 3d 2f 01 82 bd
       -0.1031514 0.096620806 0.07790074 -0.06347882
000120 15 40 34 3d b8 ab b7 3c 18 43 0d 3e 57 2d 28 bc
       0.044006426 0.022420749 0.13795125 -0.010264716
000130 35 b5 4a 3d 01 78 0b bd c2 26 ec 3d bf bc 0b 3e
       0.04948922 -0.03404999 0.1153083 0.1364622
000140 5b 0e 66 bd 6d e5 35 3d 25 42 db 3d b5 bd f4 3d
       -0.056166034 0.04440825 0.107059754 0.11950246
000150 fc 01 cb bd a9 48 29 3e e4 52 1a 3e b3 68 1d 3e
       -0.09912488 0.16531624 0.15070683 0.15371971
000160 20 77 f1 3c 9a 07 0e 3e 78 b9 15 3e 40 1a 30 3e
       0.029475749 0.13870087 0.14621532 0.17197514
000170 f4 87 18 3e 66 af c8 3d ba 68 35 bd bf c1 b9 3d
       0.14895612 0.097990796 -0.04428933 0.09070157
000180 d0 cc 80 3d 9e cb 19 3e 7d a8 dc 3b 32 ca e9 3c
       0.06289065 0.1501908 0.0067339526 0.028538797
000190 95 77 c3 3d a8 07 a6 bc a8 1a 95 bd 13 33 af 3d
       0.09544293 -0.020267323 -0.07280475 0.085546635
0001a0 0b 2c a4 bb b6 c7 2d 3d 26 55 8e bd ef 42 eb bc
       -0.005010133 0.042426787 -0.069498345 -0.02871844
0001b0 48 6f 3a 3c ef bd 22 3c f9 f4 12 3e ef b4 0a 3e
       0.011379071 0.009932979 0.14351262 0.13545583
0001c0 1b 83 66 3d 15 38 f2 3d 02 c9 e6 3d 39 7a fa bc
       0.056277376 0.11827103 0.11268808 -0.030575858
0001d0 95 6e 01 3e 95 27 37 3d dc 9e 36 bd 8b 91 ba 3d
       0.1263984 0.044715483 -0.044585094 0.09109791
0001e0 c5 e1 e7 3d 1a 47 5c bd e5 58 d9 3b f9 45 29 3d
       0.11322359 -0.053778745 0.0066329115 0.041326497
0001f0 2d 52 13 3e 12 0b 29 bd 3a 87 aa bd 56 ad d9 bc
       0.14386816 -0.041270323 -0.08326574 -0.02657191
000200 9e f1 8f 3d 7d b3 56 bb 55 f2 63 3d cd 63 9f 3d
       0.07028507 -0.0032760792 0.055651028 0.07782707
000210 a6 31 a1 3d dd 2b 6b 3c a0 7f 08 bd 93 f0 ee bc
       0.07870798 0.01435372 -0.033324838 -0.02916745
000220 c6 d7 6c bb 98 46 24 3d c2 2f e7 bc 2c 9b 0c be
       -0.0036139353 0.040106386 -0.028221015 -0.13731068
000230 71 c8 01 bb 23 ef 02 bd 91 ad c5 bd 0a eb 22 3d
       -0.001980331 -0.03196634 -0.09652246 0.039774932
000240 cf 27 7c bd 84 9d d0 3b fc c8 87 bd c5 f5 07 be
       -0.061561402 0.0063664336 -0.066301316 -0.13277347
000250 d8 9a 01 3e 26 34 af 3d aa 26 87 bd b0 f1 9c 3d
       0.12656724 0.085548684 -0.065991715 0.07663286
000260 e5 53 bc bd bd b0 cf bd 32 0c 02 be 14 a7 1e 3d
       -0.09195689 -0.10141132 -0.12699965 0.038733557
000270 79 ac 5e 3b 5e ec 97 3d 85 38 a8 3d a5 3e a4 bc
       0.0033977313 0.0741813 0.08213905 -0.020049402
000280 79 ac ab bd c8 5a e5 bd 56 02 ab ba 4a b1 98 3d
       -0.08382506 -0.11198956 -0.0013046961 0.0745569
000290 d2 9d 41 3d aa 27 0a bd c6 e3 d5 bd 37 a5 8f bc
       0.04726965 -0.033729233 -0.10443835 -0.017534835
0002a0 5b 07 fc bd 92 7d cb bd b8 ec d3 3d 51 dd 29 bd
       -0.123060904 -0.0993606 0.10347885 -0.04147083
0002b0 3b d5 18 3d 4a 9b ab 3d 1c 9e bf bd 22 b0 17 bc
       0.037312727 0.083792284 -0.09356329 -0.009258302
0002c0 ab 52 d7 bd 27 43 8c 3d 8a b0 7d 39 a8 80 0e bd
       -0.105138145 0.06848746 0.00024193726 -0.034790665
0002d0 79 43 a5 bd 8e ce eb bd 27 1b 7a 3d 29 03 b5 3d
       -0.0806951 -0.115140066 0.06106105 0.088384934
0002e0 10 46 e2 3b 7d 87 b2 3d 85 e5 81 3d e8 d8 ba bc
       0.0069053248 0.087172486 0.063426055 -0.022808507
0002f0 08 b3 2e bb 82 7f 66 bd c7 6c 04 bd 8f 70 5f 3d
       -0.0026657004 -0.056273945 -0.0323303 0.054550704
000300 26 eb 1a 3e 44 20 bc 3c eb 6a 84 3d 16 c9 b8 3d
       0.15128765 0.022964604 0.064657055 0.09022729
000310 fd e0 a9 bd 54 ef 11 3e aa 5f 81 3c 1f e9 37 bd
       -0.08294866 0.14251453 0.015792686 -0.044900056
000320 73 d4 71 3c 82 97 f2 3d 7c 21 1c 3e 8d 64 bc bb
       0.0147601245 0.11845304 0.15247148 -0.0057492913
000330 e5 c6 1c bd ad 7b 3b bd 67 a9 73 bd 80 fa 4b 3d
       -0.038275618 -0.045772243 -0.059487727 0.049799442
000340 e7 e5 25 bd bf 37 85 3d 48 00 91 3d 50 cb f6 3a
       -0.040502455 0.06504773 0.07080132 0.0018828902
000350 a8 a6 0d bd ae 94 2f 3c d4 bb 88 3d 07 5b f9 3c
       -0.034582764 0.0107166 0.0667645 0.030438913
000360 e9 49 c9 3d e4 54 00 3e 40 a4 92 bc 64 0e c2 3d
       0.0982855 0.12532383 -0.017900586 0.09475401
000370 82 af aa 3d 2f 8a 1a 3d 6d 75 8b bc 48 9e d2 3c
       0.08334257 0.03772944 -0.017023766 0.02571024
000380 ad 50 89 3d c6 05 bd bd 65 39 aa bd 5d ac 25 bc
       0.06704841 -0.09229617 -0.083117284 -0.010111895
000390 59 05 15 3e 5e 5b e3 3d b8 16 b4 bc 48 29 b4 3b
       0.14552821 0.11101411 -0.02198349 0.005498085
0003a0 bd 79 28 3c 6c 0d 59 3c 3f c8 b3 3d 03 d8 a5 3d
       0.010282931 0.013247829 0.08778428 0.080978416
0003b0 83 00 9a bd a4 f1 7d 3d 97 55 91 3d 6c c9 1d 3e
       -0.07519629 0.061998025 0.07096403 0.15408868
0003c0 7e ee 9b bd 69 37 a3 3d 6a 45 ef 3c 42 60 06 3e
       -0.07613848 0.07969553 0.029207904 0.13122657
0003d0 b0 b3 ab 3b 86 9a 6a 3d 7c 51 5f 3d 1b 7a 8d bc
       0.0052399263 0.05727627 0.05452107 -0.017270138
0003e0 91 35 b9 3d 78 15 c3 3d c4 c0 86 b9 d5 88 af 3d
       0.0904342 0.09525579 -0.00025702093 0.085710205
0003f0 7c 73 df bc 21 98 f7 bc fe d6 bd 3c b1 37 8f 3d
       -0.027276747 -0.030223908 0.023173805 0.06993044

output_layers.3.bias f4 [32]
000000 b2 42 3b bb d9 13 b5 3c b2 5d 0c be 98 f0 7d 3c
       -0.002857369 0.02210419 -0.13707617 0.015499257
000010 7f 26 06 3e d4 21 64 3b 52 13 25 3c 2d da b3 3a
       0.13100623 0.0034810202 0.010075407 0.0013721638
000020 fd fe 0f 3d 5b 34 d1 3d 02 ab ca 3d ca a9 b2 3d
       0.035155285 0.10215064 0.098958984 0.08723791
000030 b8 9a 19 3c 73 cf da bd ab aa cc 3d 7f 46 1d bd
       0.009375267 -0.10684099 0.0999349 -0.03839731
000040 92 f5 a0 bd 4a 9a 94 bd d1 2e 3d 3d 4f 54 18 3e
       -0.07859339 -0.07255991 0.046187226 0.14875911
000050 3f 5e 05 3e 24 bf 00 3e 18 06 01 bc 94 dc 14 be
       0.13024233 0.12572914 -0.007874988 -0.14537269
000060 ed df 8e bd f8 1f 2a bd 21 3a 0a 3d 59 a6 b8 3c
       -0.06976304 -0.041534394 0.033746842 0.022540258
000070 9d a7 7c 3d d1 20 4e 3c bd d8 04 be f5 ca 7c 3d
       0.061683286 0.012581066 -0.12973304 0.061716992

output_layers.6.weight f4 [2, 32]
000000 ad 47 2e bd 68 a9 95 ba 52 4c c4 bd c3 7b 13 3e
       -0.042548824 -0.0011418285 -0.095848694 0.1440268
000010 d1 b3 b1 bd 6a 97 ef 3d 88 d2 fc bc 7c 0c 23 be
       -0.086768754 0.11698802 -0.030862108 -0.15922731
000020 81 e5 31 3e d1 43 1e be 4b 73 9f bd 53 5d b9 3a
       0.17372705 -0.15455557 -0.07785662 0.0014142193
000030 17 71 cd bc 02 27 36 3e d2 9a 8a bc ed e5 bc bd
       -0.02507834 0.17788318 -0.016919527 -0.09223542
000040 3d 26 92 bd 6f 8c ee bd e9 63 24 3b 36 a3 27 3e
       -0.071361996 -0.11647879 0.0025083965 0.16370854
000050 c7 94 10 3e 1f 01 b4 3d ba 27 02 3c d6 db c1 3d
       0.14119254 0.08789276 0.007944042 0.094657585
000060 98 6e 08 be 8f 8e d8 bd ca e7 83 bd c0 28 71 bd
       -0.13323438 -0.10574066 -0.06440695 -0.058876753
000070 40 ec 4a bd f9 2e 00 bd d7 30 3c 3d fb 6a c9 bd
       -0.04954171 -0.031294797 0.045945015 -0.09834858
000080 c9 88 3a be 61 99 dd bd fe ec 73 3c e7 9d 02 be
       -0.18216242 -0.1082027 0.014888046 -0.12755547
000090 71 b4 2e be a0 8b 20 3c c2 9a 47 be 9d 71 d2 3d
       -0.1706102 0.009798914 -0.19492629 0.10275576
0000a0 63 cf 30 bd 8d 3b 0c 3e 37 a1 29 be 2f 75 ea bd
       -0.04316653 0.13694592 -0.16565405 -0.11448132
0000b0 5d 87 92 3d 38 66 ee 3d f3 96 59 be c7 40 10 3e
       0.07154725 0.116405904 -0.21248989 0.1408721
0000c0 4f 16 b0 3d a6 39 8b 3d 64 ca d3 3d 13 8d 37 be
       0.08598005 0.06798105 0.10341337 -0.1792491
0000d0 0d 9b 2b be 88 8e 80 bd 7b 70 66 be d8 13 ae 3d
       -0.16758366 -0.06277186 -0.22503845 0.08499879
0000e0 df c3 3f bd fe c7 e4 bd 33 92 24 3d ab 04 48 be
       -0.046817657 -0.11170958 0.04017849 -0.1953303
0000f0 67 48 22 be 89 51 b4 bd f1 3d fe 3d 38 70 ea bd
       -0.15847932 -0.08804614 0.12414158 -0.11447185

output_layers.6.bias f4 [2]
000000 34 ce a4 3c fc 59 16 be
       0.020117857 -0.14682764

exp_avg f4 [96, 15]
000000 30 58 d9 b9 04 d1 e6 b9 64 d9 fb b9 4e ab 06 ba
       -0.0004145517 -0.00044024747 -0.0004803642 -0.0005137221
000010 1d dd c4 b7 e7 5e 36 b9 d7 bf 12 ba 35 7b 23 ba
       -2.3467985e-05 -0.00017392226 -0.00055980444 -0.0006236316
000020 72 c5 b2 39 f5 e2 1c ba cb e2 b6 39 77 84 43 3a
       0.00034097914 -0.0005984747 0.0003488272 0.00074583985
000030 00 00 00 00 03 d9 84 3a 8c a4 a2 3a 0e 8d bb 37
       0.0 0.0010135475 0.0012408658 2.235782e-05
000040 b2 e4 73 37 21 ba 96 37 05 e3 2b 37 d3 77 0e 37
       1.4537176e-05 1.7968066e-05 1.0245251e-05 8.491758e-06
000050 30 dc d6 b7 57 96 f3 b7 32 10 a8 b7 5d f7 c5 b8
       -2.561332e-05 -2.9037865e-05 -2.0034702e-05 -9.439767e-05
000060 a5 31 8a 36 1e a3 83 b8 c7 94 23 b8 00 00 00 00
       4.1185e-06 -6.27695e-05 -3.9000788e-05 0.0
000070 01 c7 37 b8 e8 88 e8 b7 10 60 80 bb 7b 30 81 bb
       -4.3815937e-05 -2.7720307e-05 -0.0039177015 -0.003942547
000080 af cd 7d bb c6 5e 7f bb 77 41 e4 ba ef f4 11 ba
       -0.0038727333 -0.0038966401 -0.001741453 -0.0005567809
000090 3c 9e 2f 39 18 59 27 3a d1 56 ac ba d2 6b 8f bb
       0.00016748247 0.00063838204 -0.0013148432 -0.004376867
0000a0 f3 b9 98 ba cd 09 69 b9 00 00 00 00 63 dd f9 b9
       -0.0011652097 -0.00022224263 0.0 -0.00047657927
0000b0 87 b4 5d b7 f5 55 4c ba 87 28 57 ba 7a 36 38 ba
       -1.3214659e-05 -0.0007794791 -0.0008207638 -0.00070271606
0000c0 dd 27 49 ba 7f 5e 25 ba 04 9b d4 b7 8f e4 09 39
       -0.00076734816 -0.00063083315 -2.5344554e-05 0.00013150483
0000d0 a5 22 4d 39 8a 86 99 ba ed 7f a0 b8 ee 6b 42 ba
       0.0001956323 -0.0011713069 -7.6532226e-05 -0.00074165955
0000e0 dc 31 0f b9 00 00 00 00 0e 24 27 b9 a4 ce b2 b8
       -0.00013656117 0.0 -0.00015939793 -8.526191e-05
0000f0 16 e4 f2 ba fe 6f f4 ba 58 57 eb ba 3c 64 ed ba
       -0.001853111 -0.0018649099 -0.0017955108 -0.0018111537
000100 c7 7b 8a ba 04 40 0c b9 f7 69 d1 38 77 df 74 39
       -0.0010565453 -0.00013375288 9.985634e-05 0.000233529
000110 9c d1 5e ba 50 df 15 bb 16 3e 4a ba d1 23 43 b9
       -0.0008499862 -0.00228687 -0.000771494 -0.00018609992
000120 00 00 00 00 22 d1 c5 b9 2a a8 81 b7 04 8f 5b 3a
       0.0 -0.00037730584 -1.5456306e-05 0.0008375498
000130 67 b0 5a 3a e9 18 5d 3a e5 6f 5f 3a ac ce 2a 39
       0.0008342326 0.0008434193 0.00085234485 0.00016289455
000140 7e 25 12 39 85 73 2e 39 e9 37 fc 38 ec a8 6c b8
       0.00013937612 0.00016636967 0.000120267105 -5.6424105e-05
000150 5b 03 06 3a 65 95 70 b7 11 da f2 37 00 00 00 00
       0.00051121943 -1.4339898e-05 2.8950193e-05 0.0
000160 97 0a 63 37 cf a1 83 38 f1 c8 7c ba 7e cd 82 ba
       1.353272e-05 6.276706e-05 -0.000964298 -0.0009979454
000170 fc 74 81 ba f6 57 87 ba 41 ba ec b9 15 27 57 ba
       -0.0009876783 -0.0010325897 -0.00045152198 -0.0008207423
000180 76 d6 cf b9 0a 7d 9f 38 eb eb cb b9 8a 0f 90 ba
       -0.00039641903 7.605001e-05 -0.0003889495 -0.0010990959
000190 5b e8 a7 b9 cf 67 25 b8 00 00 00 00 85 e0 71 b8
       -0.0003202584 -3.9435745e-05 0.0 -5.7667978e-05
0001a0 c7 99 d9 b7 07 c6 8c b9 76 b6 8c b9 45 ff 8f b9
       -2.5940024e-05 -0.00026850423 -0.00026838825 -0.00027465276
0001b0 d8 3a 90 b9 08 db d7 b8 04 fe d8 b7 fc 02 9c b7
       -0.00027509662 -0.00010292797 -2.5867492e-05 -1.8598039e-05
0001c0 70 e7 c2 b6 93 95 3f b6 16 57 b2 b9 91 6d a2 b7
       -5.8085934e-06 -2.8548282e-06 -0.0003401569 -1.9362926e-05
0001d0 0f 7e e1 38 00 00 00 00 26 00 ae 38 84 91 4e 39
       0.00010752316 0.0 8.296994e-05 0.000196999
0001e0 17 7b cb ba 25 ea d7 ba 79 d8 ca ba 43 91 db ba
       -0.0015524355 -0.0016472979 -0.0015475891 -0.0016751665
0001f0 63 5f 6c ba 5d f3 51 ba cb ee c1 b9 5f 67 cb 38
       -0.0009016899 -0.0008008981 -0.00036989743 9.699049e-05
000200 58 fc b3 ba 5b 3b bc b9 e4 8d 5f ba d4 7a dd 37
       -0.001373182 -0.00035902378 -0.0008527918 2.640245e-05
000210 00 00 00 00 8d c2 77 39 fd 03 53 3a f0 82 d4 ba
       0.0 0.00023628231 0.00080496055 -0.0016213339
000220 cf ea db ba c1 55 c9 ba 6c 2b d6 ba f8 3b 96 ba
       -0.0016778352 -0.001536064 -0.0016339845 -0.0011461964
000230 be 96 f6 b9 a5 0e 04 b8 11 cd a0 39 ba 0e da ba
       -0.00047033088 -3.148489e-05 0.00030670365 -0.0016636469
000240 c8 35 ba ba 65 87 8c ba a5 95 cd b8 00 00 00 00
       -0.0014206702 -0.0010721503 -9.803035e-05 0.0
000250 d4 5b 16 b9 07 68 1a 39 69 ed e6 ba 86 29 f1 ba
       -0.00014339323 0.00014725338 -0.0017618361 -0.0018399216
000260 8f e1 ec ba 1b 97 f8 ba b6 b3 4e ba 91 49 06 ba
       -0.0018072593 -0.0018965931 -0.00078850554 -0.00051226566
000270 65 4c f9 b9 0d e4 87 b9 02 79 19 ba 20 18 7b ba
       -0.000475499 -0.00025919118 -0.00058545184 -0.0009578485
000280 14 92 92 b9 a8 14 71 3a 00 00 00 00 31 bb 57 3a
       -0.00027956127 0.00091964984 0.0 0.0008229493
000290 f0 c4 d2 3a 15 bc 0d bb f0 3a 10 bb 60 55 0b bb
       0.001608042 -0.0021626998 -0.0022007786 -0.0021260604
0002a0 7d 3a 0e bb e1 5e 94 ba 90 cc 20 b9 82 6b 96 b7
       -0.0021702342 -0.001131978 -0.00015334995 -1.7931456e-05
0002b0 54 1a bc 38 d3 be 8c ba e9 57 cc ba 74 f9 4a ba
       8.9694426e-05 -0.0010738022 -0.0015590164 -0.000774286
0002c0 d6 58 95 37 00 00 00 00 2b 37 d8 b8 7b 23 19 39
       1.7803552e-05 0.0 -0.000103099585 0.00014604435
0002d0 a3 ee f9 b7 9f cb d6 b7 74 8a 58 b7 43 19 97 b7
       -2.9794237e-05 -2.5605606e-05 -1.2906839e-05 -1.8012366e-05
0002e0 1d ca 18 b8 ea 2b 4a 35 0a 72 07 b7 21 77 3f b7
       -3.6427857e-05 7.531477e-07 -8.073179e-06 -1.1412224e-05
0002f0 09 ea 14 b8 45 1c 6b b8 60 88 e4 b7 06 67 26 b8
       -3.5503912e-05 -5.6054694e-05 -2.7243223e-05 -3.9673432e-05
000300 00 00 00 00 4f 1c 5d 37 de 05 24 b8 26 e1 8c 3a
       0.0 1.3179218e-05 -3.910611e-05 0.0010748252
000310 cc 40 87 3a 4d 5e 8f 3a 1b 54 87 3a eb 11 76 39
       0.0010318994 0.0010938138 0.0010324748 0.00023467063
000320 d4 f4 5e b7 ea 8a 34 b9 83 6a 68 b9 fd ce 8b b9
       -1.3289235e-05 -0.00017217887 -0.00022164923 -0.00026666364
000330 17 53 1f 3b eb 9b 49 b8 b8 85 2a b8 00 00 00 00
       0.0024311 -4.8067344e-05 -4.0655694e-05 0.0
000340 33 21 ce 38 a2 0f 8e 38 d5 df 68 b9 56 d7 c2 b9
       9.829029e-05 6.7739995e-05 -0.00022208628 -0.00037163
000350 c3 8e ed b9 84 2b 14 ba 3a e8 31 3a f9 08 f5 b9
       -0.00045310528 -0.0005652236 0.00067866186 -0.00046736727
000360 b3 ab b0 ba 79 16 c0 ba 33 30 52 b9 91 69 15 39
       -0.0013478905 -0.0014655135 -0.00020045116 0.00014249074
000370 b6 3a c9 39 04 15 1d 3b 00 00 00 00 79 e1 1d 3b
       0.0003838145 0.0023968825 0.0 0.002409069
000380 83 95 73 3b 7a f0 ab ba 55 86 ae ba 26 93 a7 ba
       0.0037167973 -0.0013117932 -0.001331518 -0.0012784943
000390 27 84 ab ba 75 95 61 ba c8 7e f1 b8 57 32 76 38
       -0.0013085649 -0.00086053397 -0.0001151539 5.8697853e-05
0003a0 9d 5d 2c 39 9f d1 0c ba d6 65 ad ba 8a 26 f8 b9
       0.00016438072 -0.0005371812 -0.0013229202 -0.0004733096
0003b0 7f 47 21 b9 00 00 00 00 95 e6 8e b8 0f 40 61 36
       -0.00015380791 0.0 -6.814037e-05 3.35649e-06
0003c0 03 c9 79 ba 4f 0d 86 ba ad ac 76 ba f0 c6 88 ba
       -0.0009528549 -0.0010227355 -0.0009409886 -0.0010435265
0003d0 b1 d6 2b ba d4 85 1a ba 07 29 8b b9 a8 eb a8 38
       -0.0006555124 -0.0005894576 -0.00026542714 8.054759e-05
0003e0 3a d3 89 ba 9e e5 d3 b8 92 cd 22 ba 1f 23 67 b8
       -0.0010515221 -0.000101040336 -0.0006210442 -5.51074e-05
0003f0 00 00 00 00 99 dd 58 39 34 96 2f 3a 74 e7 7d ba
       0.0 0.00020681917 0.0006698102 -0.0009685673
