lightning_logs/version_116/checkpoints/epoch=49-step=250.ckpt (torch, 121307 bytes, 30 tensors)

gru.weight_ih_l0 f4 [96, 15]
0	0x3c3b730e	0.011441005
1	0xbe8cec8f	-0.2752423
2	0xbe8d0f0d	-0.27550545
3	0xbd8dcb91	-0.06923593
4	0xbe4d6b32	-0.20060423
5	0x3e72835a	0.23682919
6	0x3e7e56ea	0.24837843
7	0x3e620310	0.22071481
8	0xbe9630f8	-0.29334235
9	0xbd007e5f	-0.031370517
10	0x3d57e05c	0.0527042
11	0xbeb193f1	-0.34683183
12	0x3e130f0d	0.1436121
13	0xbe36e7cf	-0.17861865
14	0xbe87b3d7	-0.26504394
15	0x3db77628	0.089580834
16	0xbe17c9e2	-0.14823106
17	0x3c91bcf2	0.017790291
18	0x3d9373a2	0.071997896
19	0x3def4adf	0.116842024
20	0x3d2b7898	0.041863054
21	0xbd68026a	-0.056642927
22	0x3e2975fc	0.16548914
23	0xbdfc9246	-0.12332587
24	0xbe39725c	-0.18110031
25	0xbd47a431	-0.04874057
26	0x3ca2ad54	0.01985804
27	0x3cbbb146	0.022911679
28	0x3e437f4d	0.1909153
29	0x3c191ee7	0.009345747
30	0xbe16d962	-0.14731362
31	0x3e2c8492	0.16847447
32	0x3dc2fcd3	0.09520879
33	0xbd793a71	-0.06084675
34	0xbd1cff2a	-0.03832928
35	0xbc018f36	-0.007907679
36	0x3d69b90e	0.057061248
37	0x3df4cc50	0.11953032
38	0xbdf44921	-0.11928011
39	0xbe3ff6bb	-0.18746464
40	0x3e27456e	0.16335079
41	0x3d9f71f5	0.077854075
42	0x3e0e890d	0.13919468
43	0xbe694d5c	-0.22783417
44	0xbe7e9e1b	-0.24865
45	0x3e5205a0	0.20509958
46	0x3de8c93a	0.11366506
47	0xbcfe73f5	-0.031061152
48	0xbe039f95	-0.12853844
49	0x3d8cc320	0.06873155
50	0xbe1ad0ef	-0.15118764
51	0x3e06c2f7	0.1316031
52	0xbd78c413	-0.060733866
53	0xbd02e934	-0.03196068
54	0xbdcda309	-0.10040862
55	0x3e0674af	0.13130449
56	0xbe01203e	-0.12609956
57	0xbdd0b563	-0.10190847
58	0xbdf29ece	-0.11846696
59	0xbdf5ab73	-0.11995592
60	0xbe3f0af8	-0.18656528
61	0x3daba257	0.08380573
62	0xbe4b9bcd	-0.19883652
63	0x3e18a800	0.14907837
64	0xbd16bceb	-0.03680126
65	0xbe6da8ba	-0.23208895
66	0xbd30148a	-0.042988338
67	0xbdb439b8	-0.088000715
68	0x3e0b24d4	0.13588268
69	0xbd7ab847	-0.061210897
70	0x3df82215	0.12115876
71	0xbe4cd14f	-0.2000172
72	0xbdb67ecc	-0.08910903
73	0xbd55966b	-0.052145403
74	0x3da2a9a7	0.07942515
75	0xbdce121f	-0.1006205
76	0xbca568a0	-0.02019149
77	0xbe0dba38	-0.13840568
78	0x3e0c0888	0.1367513
79	0x3c7cf68b	0.01543964
80	0xbd643924	-0.055718556
81	0xbe3cf56e	-0.18452999
82	0xbe42fdd0	-0.19042134
83	0xbe33b5b9	-0.1754979
84	0x3a41dfea	0.00073957315
85	0x3cbc7288	0.023003832
86	0x3e05fb32	0.13084105
87	0xbc62da53	-0.013845998
88	0xbdc79172	-0.09744538
89	0xbcb7a0af	-0.022415487
90	0xbdc3a354	-0.09552637
91	0x3d9094a4	0.07059601
92	0xbe196ac2	-0.14982131
93	0xbe3925f4	-0.18080884
94	0x3e58661a	0.21132699
95	0x3d34449e	0.04401075
96	0x3d9fd9ff	0.07805251
97	0x3d2babd5	0.04191192
98	0x3d7fa325	0.062411446
99	0x3cff2282	0.031144384
100	0xbd51a849	-0.05118588
101	0x3d04c246	0.032411836
102	0xbe295fc9	-0.16540445
103	0xbe596007	-0.21228038
104	0xbe558337	-0.20850836
105	0xbdc7d7a4	-0.09757927
106	0xbc6c6b05	-0.014429812
107	0xbe01ac77	-0.12663446
108	0x3c688137	0.0141909635
109	0x3e45cad1	0.1931565
110	0xbd430e2b	-0.047620934
111	0xbd4e17e6	-0.05031576
112	0xbe1aca78	-0.15116298
113	0xbdf96ae4	-0.12178591
114	0x3d8d4231	0.06897391
115	0xbe2d2181	-0.16907312
116	0xbcb6b190	-0.022301465
117	0x3d551f19	0.05203161
118	0x3d47096e	0.048592977
119	0x3d2bd5b2	0.041951843
120	0xbd7bcd7a	-0.061475255
121	0xbd18261a	-0.03714571
122	0xbd3d7447	-0.04625347
123	0x3c77d693	0.015126842
124	0x3c23df31	0.010001943
125	0x3e8a30f5	0.26990476
126	0xbe429519	-0.19002189
127	0xbdc78f5e	-0.09744142
128	0x3d8ffcba	0.07030626
129	0xbe6eed28	-0.23332655
130	0xbd2f642e	-0.04282015
131	0x3e63b3c4	0.22236544
132	0x3da1662c	0.07880816
133	0x3c584e3c	0.013202246
134	0xbd07d86d	-0.033165384
135	0x3d366521	0.044530038
136	0x3dd14381	0.102179535
137	0xbe37fbab	-0.17967097
138	0x3db0aac4	0.08626321
139	0x3e6654ca	0.22493282
140	0x3bb9bbc7	0.0056681368
141	0x3d5816df	0.052756187
142	0x3e5497ac	0.20760983
143	0x3dd42c20	0.10359979
144	0x3d073b9e	0.03301584
145	0x3b816ca3	0.003949718
146	0x3dbb2f62	0.09139897
147	0xbd97b9b5	-0.07408468
148	0x3d4e2810	0.050331175
149	0xbd5557cc	-0.052085683
150	0xbdc9a073	-0.098450564
151	0x3dee6487	0.11640268
152	0x3b8ed23c	0.004358558
153	0xbe3ca3be	-0.18421838
154	0xbbab3e67	-0.005225945
155	0x3e1a5031	0.15069653
156	0x3dc9337e	0.098242745
157	0x3d6a5bb6	0.05721637
158	0x3e013064	0.12616116
159	0x3db2a801	0.087234505
160	0xba448fca	-0.0007498233
161	0xbe2bee6b	-0.16790168
162	0xbd6e7a46	-0.058222078
163	0x3dd865bf	0.105662815
164	0xbdf466de	-0.11933683
165	0xbd3478ff	-0.044060703
166	0x3c13632c	0.008995812
167	0xbddfee9b	-0.10934182
168	0x3d9abac4	0.07555154
169	0x3e1abbd8	0.15110719
170	0x3e29f92c	0.16598958
171	0xbd7ea5bf	-0.062169787
172	0xbe356ae7	-0.17716561
173	0x3dfc5172	0.12320222
174	0xbe207aa4	-0.15671784
175	0x3e23ddc0	0.1600256
176	0xbdf4b976	-0.11949436
177	0x3d8ae27a	0.06781478
178	0x3d151b1c	0.036402807
179	0xbd29be2e	-0.041441135
180	0xbdb6aaff	-0.08919334
181	0xbe4af66b	-0.19820563
182	0xbd7a28dd	-0.061074127
183	0xbd6fbe2a	-0.058530964
184	0xbd76b201	-0.06022835
185	0x3e84a9d0	0.25910807
186	0x3d506819	0.050880525
187	0x3e3c99ca	0.18418041
188	0xbe38e3e1	-0.18055679
189	0x3d0450fb	0.03230379
190	0x3df990f7	0.12185853
191	0xbdb062cb	-0.08612593
192	0xbdcc68bb	-0.09980913
193	0x3dfae90d	0.12251482
194	0x3ce8b447	0.028406275
195	0x3df91643	0.12162449
196	0x3d0d58bc	0.03450845
197	0xbdf4e291	-0.119572766
198	0xbddf2041	-0.10894824
199	0xbd9f4367	-0.07776528
200	0xbdb81c22	-0.08989741
201	0xbbdb34a4	-0.006689625
202	0x3e16ee12	0.14739254
203	0xbe949bd6	-0.29025143
204	0xbd6d32dd	-0.057909835
205	0xbdcfe953	-0.10151925
206	0x3dd9e7d4	0.10639921
207	0xbd99c32a	-0.07507928
208	0xba325bd7	-0.00068038463
209	0xbe5d9599	-0.21639098
210	0x3c77c4dc	0.0151226185
211	0xbe13dc6a	-0.1443955
212	0xb9d71a12	-0.0004102742
213	0x3d865b4e	0.06560384
214	0xbdc45149	-0.095858164
215	0xbdba3ba5	-0.090934075
216	0x3be3fe63	0.0069578155
217	0x3df2eb7e	0.11861323
218	0xbe23c5fc	-0.15993494
219	0x3e80c72f	0.25151965
220	0x3dddfe1e	0.10839485
221	0xbe1f0315	-0.1552852
222	0xbe103c4b	-0.140855
223	0xb9eae559	-0.00044802835
224	0xbe5936ca	-0.21212307
225	0xbdb1c52f	-0.08680188
226	0x3ddcb854	0.10777345
227	0xbdd3c057	-0.1033942
228	0xbb1c0798	-0.0023808237
229	0xbd1417e3	-0.036155593
230	0x3c95926f	0.018258302
231	0xbd0f15a9	-0.034932766
232	0xbe557eab	-0.20849101
233	0x3dd224dd	0.10260937
234	0x3d83b3b8	0.06430763
235	0xbdd6afff	-0.10482787
236	0xbe12e387	-0.14344607
237	0xbe152294	-0.14563972
238	0xbbce90a9	-0.006303866
239	0xbda92ae5	-0.082601346
240	0xbd004c32	-0.031322666
241	0xbd59bc3c	-0.05315803
242	0xbdd61880	-0.10453892
243	0x3de7bc3a	0.11315198
244	0x3df28a00	0.11842728
245	0xbba4066f	-0.0050056498
246	0xbe36125a	-0.17780438
247	0xbd72f8c0	-0.059319258
248	0xbe4f2a84	-0.20231062
249	0x3dbd0787	0.09229951
250	0xbe422a0d	-0.18961354
251	0x3e3393ee	0.175369
252	0xbe0409bf	-0.12894343
253	0x3d63d50a	0.05562309
254	0xbdc44e4e	-0.09585248
255	0xbe2b4d4f	-0.1672871

gru.weight_hh_l0 f4 [96, 32]
0	0x3bff7514	0.007795939
1	0x3e62fdb4	0.22167093
2	0x3e2ae852	0.16690186
3	0xbe6cc785	-0.23122986
4	0x3d6d15e6	0.057882212
5	0xbdea3106	-0.11435132
6	0xbdf420c2	-0.119203106
7	0x3e20fb92	0.15720966
8	0x3db300b3	0.08740368
9	0xbc3fd0f5	-0.011707534
10	0xbeafb0e1	-0.34314635
11	0xbd8179de	-0.063220724
12	0x3e46bb20	0.1940732
13	0xbca24828	-0.019809797
14	0xbe1a9ef6	-0.15099701
15	0x3e4e6b72	0.20158175
16	0x3d3b0ae8	0.045664698
17	0x3d82b954	0.06383005
18	0x3c6709c0	0.014101446
19	0x3e692aad	0.22770186
20	0xbdadeff0	-0.0849303
21	0xbe36ad35	-0.1783951
22	0xbdd2147f	-0.102578156
23	0x3db607e0	0.08888221
24	0x3e09f1e5	0.13471182
25	0xbcd6f275	-0.02623866
26	0xbdf58cab	-0.11989721
27	0x3dc3d2de	0.09561704
28	0x3e3a4982	0.18192104
29	0xbd039b8b	-0.03213076
30	0xbe108d9c	-0.1411652
31	0x3d29911c	0.041398153
32	0x3e335c2c	0.1751563
33	0xbdacb00b	-0.08432015
34	0xbd576a81	-0.052591804
35	0x3e192d16	0.14958605
36	0x3d2cca56	0.04218515
37	0x3dc7414f	0.097292535
38	0x3e24ccc4	0.16093737
39	0x3ba71ddc	0.005099995
40	0x3c731eac	0.014838856
41	0xbdfbeeca	-0.12301405
42	0x3e0c1755	0.13680775
43	0xbdaed2e8	-0.08536321
44	0xbda4d8c1	-0.08049155
45	0x3e4426b0	0.19155383
46	0xbe635f1f	-0.22204255
47	0x39e358a8	0.00043362868
48	0xbd841edf	-0.06451201
49	0xbd4f50b5	-0.050614078
50	0xbd247452	-0.040149994
51	0x3acd22ef	0.001565067
52	0xbd31325d	-0.04326092
53	0xbe39970a	-0.18124023
54	0xbca5dd6d	-0.020247186
55	0x3bb19368	0.0054191835
56	0xbd6813f5	-0.056659658
57	0xbd19e79f	-0.037574407
58	0xbdf08363	-0.1174381
59	0x3d67c44c	0.056583688
60	0x3e375c27	0.17906247
61	0xbdacdbbe	-0.0844035
62	0xbdeb0880	-0.114762306
63	0xbe1af13f	-0.1513109
64	0xbda4ee5b	-0.08053275
65	0xbe127585	-0.14302643
66	0xbdb7d1c1	-0.08975554
67	0xbd22a3b9	-0.03970692
68	0x3cafe379	0.021470772
69	0xba2bf728	-0.00065599615
70	0x3e1a475e	0.15066287
71	0x3e4b293a	0.19839945
72	0xbdc4c598	-0.096080005
73	0x3b4a609d	0.003088034
74	0x3dcabe5e	0.09899591
75	0xbd5cd25d	-0.053911556
76	0xbc7b289c	-0.015329506
77	0xbd6d8830	-0.057991207
78	0x3e1489b4	0.14505655
79	0x3e324723	0.17409949
80	0x3e016a21	0.12638141
81	0xbe10f826	-0.14157161
82	0x3dac0dc8	0.08401066
83	0x3d621061	0.0551914
84	0x3dd39e9c	0.10332987
85	0xbdcaf798	-0.09910506
86	0xbe46f2a0	-0.19428492
87	0x3e294b97	0.16532741
88	0xbdf168ce	-0.11787568
89	0x3dbf3cd9	0.09337778
90	0xbe056e98	-0.1303047
91	0x3cb2f863	0.021846956
92	0xbc2620d0	-0.010139659
93	0xbd3a88cb	-0.045540612
94	0x3e204d52	0.15654495
95	0x3e3f0466	0.18654022
96	0xbd8cb641	-0.068707
97	0xbd9438e5	-0.07237414
98	0xbd2302b8	-0.039797515
99	0xbd1122ab	-0.035433453
100	0xbdae5c1a	-0.08513661
101	0xbd8fa755	-0.07014338
102	0xbcd27514	-0.025690593
103	0xbd80cc12	-0.06288923
104	0xbe1298c3	-0.14316086
105	0x3e38dd12	0.18053082
106	0x3db07a11	0.08617032
107	0xbc647be6	-0.013945555
108	0xbdfa1eb8	-0.122128904
109	0xbc83f571	-0.016108247
110	0x3dc7b29c	0.09750864
111	0xbc4f76ea	-0.012662629
112	0x3a6efac3	0.0009116346
113	0xbcdfe1b4	-0.027329303
114	0x3e003ccc	0.12523192
115	0xbe04eb91	-0.12980486
116	0x3ba63342	0.0050720284
117	0x3e53893d	0.20657821
118	0xbe09f076	-0.13470635
119	0x3dce63ab	0.10077604
120	0xbdfd2f3c	-0.12362525
121	0x3be976ef	0.0071247737
122	0x3e30606c	0.17224282
123	0xbd7f891e	-0.062386625
124	0xbd816471	-0.06317986
125	0x3dfbe93b	0.123003446
126	0xbdacd1f3	-0.08438482
127	0x3db20382	0.08692075
128	0x3e12497c	0.14285845
129	0x3d04652a	0.03232304
130	0x3e828d56	0.25498456
131	0x3c3a4932	0.01136999
132	0xbd95bc86	-0.073113486
133	0x3e2c4eec	0.16826981
134	0xbe5ea351	-0.21741988
135	0x3d178a45	0.0369971
136	0x3e1d6dd6	0.1537393
137	0xbe260e6a	-0.16216436
138	0xbe0e6079	-0.13903989
139	0x3de12ec7	0.1099525
140	0x3e5a925b	0.21344893
141	0xbdd5b6fa	-0.10435291
142	0xbdf19f4b	-0.11797961
143	0x3e4e8f23	0.2017179
144	0x3dadc751	0.08485282
145	0xbdeac43b	-0.11463209
146	0x3dc7c5e7	0.09754544
147	0xbe148159	-0.14502467
148	0x3daad097	0.083405666
149	0xbd59ca0a	-0.053171195
150	0xbdbef94b	-0.093248926
151	0x3e5787c1	0.2104788
152	0xbd349228	-0.044084698
153	0xbceee908	-0.029163852
154	0x3e4deabf	0.2010908
155	0x3deb65f6	0.11494057
156	0xbdda24fe	-0.10651587
157	0xbe1fe0e7	-0.15613137
158	0x3e42f524	0.19038826
159	0xbd3915ac	-0.045186684
160	0x3d2048a6	0.039131783
161	0x3b60a2ff	0.003427684
162	0x3e0f0bbe	0.13969323
163	0x3d48882a	0.04895798
164	0xbd0a62a7	-0.03378549
165	0x3dcbe641	0.09956027
166	0xbbc874f0	-0.0061174557
167	0x3ccd3c8b	0.025053283
168	0xbe38a7f6	-0.18032822
169	0x3d7c83b0	0.061649024
170	0x3e485d40	0.19566822
171	0xbd8b387c	-0.06797883
172	0xbd8a4c13	-0.06752791
173	0xbc520139	-0.012817674
174	0xbdb9eef2	-0.09078778
175	0xbdf15291	-0.117833264
176	0x3d96de80	0.07366657
177	0x3db4c57a	0.08826728
178	0xbe307d3b	-0.17235272
179	0x3d83c714	0.064344555
180	0xbe20ede7	-0.15715753
181	0xbe1fafec	-0.15594453
182	0xbd38a9e0	-0.04508388
183	0x3e12e702	0.14345935
184	0x3dda9912	0.10673727
185	0xbda6fbb1	-0.08153475
186	0x3e06c667	0.13161622
187	0x3d01185d	0.031517375
188	0xbd1ae8e0	-0.037819743
189	0x3c538fac	0.012912672
190	0xbd560e57	-0.05225977
191	0xbdac027d	-0.08398912
192	0xbd5ccbb9	-0.053905223
193	0x3dff71e6	0.12472896
194	0xbd9bb8c2	-0.07603599
195	0xbe45bf9a	-0.19311371
196	0xbdae85ac	-0.0852159
197	0x3c9991e2	0.01874632
198	0xbe27579f	-0.16342019
199	0xbd887be0	-0.06664252
200	0xbe56e898	-0.20987165
201	0xbd9cab1f	-0.07649826
202	0x3b3180ca	0.002708482
203	0x3e2d354b	0.16914861
204	0x3e26b2eb	0.1627919
205	0xbcca7cf2	-0.024717782
206	0x3e34a4ba	0.17640963
207	0x3e1150ce	0.14190981
208	0x3dba4c81	0.09096623
209	0xbe15759b	-0.14595644
210	0xbdad7179	-0.08468909
211	0xbe6b6996	-0.22989497
212	0xbd4c7e0d	-0.0499249
213	0x3d0cac12	0.034343787
214	0x3dc7f3b8	0.097632825
215	0x3e162218	0.14661443
216	0x3dc373bb	0.09543558
217	0xbc5c273a	-0.013437087
218	0xbb5a0f16	-0.0033273152
219	0xbdb08db5	-0.086207785
220	0xbc4b18d3	-0.012396055
221	0x3e43f8fb	0.19137947
222	0x3e98c4ff	0.29837796
223	0xbcd6ffd9	-0.026245045
224	0xbdeb28e5	-0.114824094
225	0xbe259579	-0.161703
226	0x3e0efec1	0.13964368
227	0xbd9242f4	-0.071416765
228	0xbd513087	-0.05107167
229	0x3d0e87ed	0.034797598
230	0xbdc454b5	-0.09586469
231	0xbdd4a7f1	-0.10383595
232	0x3dabedcb	0.08394965
233	0xbd80a8c7	-0.06282192
234	0x3d1991d9	0.037492607
235	0xbda7d798	-0.08195418
236	0xbddd0cc1	-0.10793448
237	0xbca501ae	-0.020142402
238	0xbe1fbcc4	-0.15599352
239	0x3c0ac65c	0.008470144
240	0xbe06f1ed	-0.13178225
241	0x3dcceb94	0.100058705
242	0x3d49c943	0.049264204
243	0x3e06a838	0.13150108
244	0xbd2779ef	-0.04088777
245	0x3d87132b	0.06595453
246	0x3d6ede1f	0.0583173
247	0x3d8af433	0.067848586
248	0xbd34f942	-0.044183023
249	0x3e10a116	0.1412395
250	0x3e383e47	0.17992507
251	0xbe2fb63c	-0.1715936
252	0xbe195974	-0.1497553
253	0xb95d27d0	-0.00021091034
254	0x3d96caab	0.073628746
255	0xbd998eac	-0.074979156

gru.bias_ih_l0 f4 [96]
0	0xbdebc5af	-0.115123145
1	0x3deafdaf	0.114741676
2	0x3db168cd	0.08662567
3	0xbdef64a8	-0.116891205
4	0xbcde0a3b	-0.027104488
5	0x3e19386d	0.14962931
6	0x3c751076	0.014957538
7	0x3d72aebf	0.059248682
8	0xbd9cb0dd	-0.076509215
9	0xbe203323	-0.15644507
10	0x3dc0bb8b	0.09410771
11	0xbe1b092b	-0.15140216
12	0xbd331d08	-0.04372886
13	0x3c0b46c8	0.008500762
14	0xbdd6ffc7	-0.104980044
15	0xbe1c9e33	-0.15294723
16	0xbddef770	-0.10887039
17	0x3e2c626a	0.16834417
18	0xbdc5198c	-0.09624013
19	0x3dc475df	0.095927946
20	0x3e051f71	0.13000275
21	0xbd3fe39a	-0.046847917
22	0x3c4b8525	0.012421881
23	0x3dacfb64	0.084463865
24	0x3d49e849	0.04929379
25	0x3c691d72	0.014228212
26	0x3dd87000	0.10568237
27	0x3e69d3c4	0.22834688
28	0xbc857cb7	-0.01629482
29	0x3ddcbc5a	0.10778113
30	0x3e1e24d2	0.15443733
31	0xbd735d26	-0.059415005
32	0x3cc7b0dc	0.024376325
33	0x3ca80ff6	0.020515423
34	0xbe2c68e8	-0.16836894
35	0xbd904494	-0.0704433
36	0x3c7c1c45	0.015387599
37	0x3e3f52ba	0.18683901
38	0x3e7b4028	0.24536192
39	0x3d68178c	0.05666308
40	0xbe1260ae	-0.14294693
41	0x3dedc272	0.11609353
42	0x3d2b0717	0.04175481
43	0xbdfa9d8f	-0.12237083
44	0x3d6c34be	0.057667486
45	0x3e86285e	0.26202673
46	0xbd981478	-0.07425779
47	0xbdc3fb1d	-0.095693804
48	0x3e90c25d	0.28273287
49	0xbe31bf36	-0.17358097
50	0xbcbe67cb	-0.023242852
51	0x3dae4a3c	0.08510253
52	0x3d821ae7	0.063527875
53	0xbe249a38	-0.16074455
54	0x3cd25f8d	0.025680328
55	0x3cb27cd5	0.02178804
56	0x3e48fb29	0.1962706
57	0x3e5081e6	0.20362052
58	0xbd255c96	-0.0403715
59	0x3d2f9f11	0.042876307
60	0xbdafc228	-0.08581954
61	0xbdd5b5af	-0.10435044
62	0x3e2f9de7	0.17150079
63	0x3e7c5074	0.24640065
64	0xbd3e66cb	-0.04648475
65	0xbe393b8c	-0.18089122
66	0x3e14c3c4	0.14527804
67	0xbe0ed8a7	-0.13949834
68	0xbb463d42	-0.0030248915
69	0x3e3fee81	0.18743326
70	0xbd2fadc3	-0.04289032
71	0x3ddef2ac	0.1088613
72	0xbe1826b3	-0.14858513
73	0x3dee482c	0.116348594
74	0x3dc7d95e	0.097582564
75	0x3e3d1fb4	0.18469125
76	0x3e38e39a	0.18055573
77	0xbdc04de8	-0.093898594
78	0xbd2db7e9	-0.04241172
79	0x3db87d31	0.09008253
80	0xbdfb7521	-0.122782
81	0xbc0da285	-0.008644705
82	0x3d5587ca	0.05213145
83	0xbbbf3b5d	-0.005835934
84	0xbdbf3cea	-0.0933779
85	0x3db95154	0.09048715
86	0x3d27b436	0.040943347
87	0x3d4c05dd	0.04981028
88	0xbdf68df4	-0.12038794
89	0xbe21dc32	-0.15806654
90	0x3e2054d0	0.15657353
91	0xbdf65b18	-0.120290935
92	0xbe105560	-0.14095068
93	0x3df5159f	0.119670145
94	0x3e56b688	0.20968068
95	0x3df06b71	0.11739243

gru.bias_hh_l0 f4 [96]
0	0x3e3237cc	0.17404097
1	0x3dd40473	0.10352411
2	0xbd846359	-0.064642616
3	0x3d53d77d	0.051719178
4	0x3d881650	0.06644881
5	0x3d2f85f4	0.042852357
6	0x3e3752df	0.17902707
7	0x3c0e2cad	0.008677644
8	0x3aecc060	0.0018062703
9	0xbe401387	-0.18757449
10	0x3e00c44b	0.1257488
11	0xbe242e91	-0.16033389
12	0xbd1de1bb	-0.03854535
13	0x3e4fd993	0.20297842
14	0xbc17509c	-0.009235527
15	0x3b0410cc	0.0020151613
16	0x3e1257dc	0.14291328
17	0x3d1eda80	0.038782597
18	0xbe1359a3	-0.14389662
19	0x3e7744b3	0.241473
20	0x3e28c5cb	0.16481702
21	0x3e305ce6	0.17222938
22	0x3e68e059	0.22741832
23	0xbd1a36cb	-0.03764991
24	0xbd2dbf4b	-0.04241876
25	0x3e656d2e	0.2240493
26	0x3ce9de61	0.028548421
27	0x3d1c9e94	0.03823717
28	0x3d76eec6	0.060286306
29	0x3dfb6fff	0.12277221
30	0x3e216aca	0.15763393
31	0x3c5fcc25	0.013659512
32	0x3ca29c11	0.019849809
33	0xbd48577b	-0.048911553
34	0x3e0b5f13	0.13610487
35	0x3de6654e	0.11249791
36	0x3e2d7e04	0.16942602
37	0x3e6758e0	0.22592497
38	0x3d1d23ba	0.03836415
39	0x3d22f4b3	0.039784145
40	0xbc7c255b	-0.015389766
41	0x3d4ff44c	0.05077009
42	0xbd0a837c	-0.0338168
43	0x3e10b3ad	0.14131041
44	0xbde3ece2	-0.11129166
45	0xbc5a3385	-0.013317947
46	0x3e25876e	0.16164944
47	0xbd57b1ed	-0.052659918
48	0xbc9298eb	-0.017895183
49	0xbd327ae5	-0.043574233
50	0x3e467b79	0.19383039
51	0xbe51d43f	-0.20491122
52	0x3e868dda	0.262801
53	0xbe0c485a	-0.13699475
54	0x3e0bd2ed	0.1365468
55	0x3e31b89d	0.1735558
56	0x3dcbe812	0.09956373
57	0x3e000271	0.12500931
58	0x3e3317a6	0.1748949
59	0x3e0694c8	0.13142693
60	0x3c623c7a	0.013808364
61	0x3dad3615	0.08457581
62	0x3de0b0c5	0.10971216
63	0xbca9cad9	-0.020726608
64	0xbd523b62	-0.051326163
65	0x3dc4e2d8	0.096135795
66	0xbd34c62a	-0.044134296
67	0xbe3b6f89	-0.18304266
68	0xbdaf8e4e	-0.08572064
69	0x3e194eeb	0.14971511
70	0xbd3f9794	-0.046775416
71	0x3e4e962a	0.2017447
72	0xbd8e4b9a	-0.069480136
73	0xbd2addc8	-0.041715413
74	0x3d9cc593	0.07654872
75	0x3ab24440	0.0013600662
76	0x3e25482a	0.1614081
77	0xbe2673e5	-0.16255148
78	0xbd4d00cf	-0.0500496
79	0xbdf293ad	-0.11844573
80	0xbd8df24b	-0.06930979
81	0xbb6f4dc8	-0.0036514867
82	0x3c2b8c15	0.01047041
83	0xbd43f10b	-0.0478373
84	0x3cee5537	0.029093368
85	0xbcec4eab	-0.028846106
86	0xbdc1503d	-0.09439132
87	0xbd125570	-0.03572601
88	0x3de7f5d9	0.113261886
89	0xbe342926	-0.17593822
90	0x3e2e24a1	0.1700616
91	0xbc5feb27	-0.0136669045
92	0xbe3e7973	-0.18601017
93	0x3dff271d	0.12458632
94	0x3e1558e1	0.14584686
95	0x3e518dc7	0.2046424

output_layers.0.weight f4 [64, 32]
0	0x3dd49640	0.103802204
1	0x3dd255f1	0.10270298
2	0x3d4ff65c	0.050772056
3	0xbde30f75	-0.110869326
4	0x3e3ecd64	0.18633038
5	0xbd80a826	-0.06282072
6	0xbdae99f0	-0.08525455
7	0x3e0a4dc2	0.13506225
8	0x3daa125f	0.08304285
9	0x3e14dbca	0.14536968
10	0x3db94711	0.09046758
11	0xbdb97208	-0.09054953
12	0x3d057b40	0.032588243
13	0x3e547057	0.20745979
14	0xbd325171	-0.0435347
15	0xbddd4ee9	-0.108060665
16	0x3dd50c57	0.10402744
17	0x3e083b82	0.1330395
18	0xbdadc89a	-0.08485527
19	0xbd85e71f	-0.065382235
20	0xbe115b1a	-0.14194909
21	0x3d80457f	0.06263255
22	0xbe0f25c9	-0.13979258
23	0xbd18e622	-0.037328847
24	0xbdd686dd	-0.10474942
25	0x3e53f311	0.20698191
26	0xbd276acf	-0.040873345
27	0xbe19e308	-0.15028012
28	0x3cd85b2c	0.026410662
29	0xbdba42da	-0.09094782
30	0xbd6a8ea7	-0.05726495
31	0x3cc6c265	0.024262616
32	0xbd1fb9ac	-0.03899543
33	0x3e1a33f7	0.15058886
34	0xbd349493	-0.044087004
35	0xbe3ab747	-0.18233977
36	0xbdb1da27	-0.086841874
37	0x3e21d68c	0.158045
38	0xbe101bb7	-0.14073072
39	0x3e3665d2	0.17812279
40	0x3e072142	0.1319628
41	0xbd876017	-0.066101246
42	0xbe3adf27	-0.18249188
43	0x3dd50b8c	0.10402593
44	0x3dd6c214	0.10486236
45	0x3e548a5f	0.2075591
46	0xbde29379	-0.110632844
47	0xbdb08f49	-0.086210795
48	0xbe05181d	-0.1299748
49	0x3e469230	0.19391704
50	0x3df7ff29	0.12109215
51	0xbdc58d4d	-0.096460916
52	0xbe025b90	-0.12730241
53	0xbe4cfdc8	-0.20018685
54	0x3cfbe1d2	0.030747328
55	0x3d073314	0.033007696
56	0x3e7849a7	0.24246846
57	0x3e518388	0.20460331
58	0x3d87a01b	0.066223346
59	0x3dfd7d1c	0.12377378
60	0x3daf196e	0.08549772
61	0xbe4b0420	-0.19825792
62	0x3e2c8231	0.16846539
63	0x3df40f0e	0.11916934
64	0x3df210b8	0.11819595
65	0xbe009dc7	-0.12560187
66	0x3e161709	0.14657225
67	0xbe3732cf	-0.17890476
68	0x3dfa07c7	0.12208515
69	0xbd0ee23c	-0.034883723
70	0xbd942f24	-0.07235554
71	0xbc8e44df	-0.017366825
72	0xbe4544c9	-0.1926452
73	0xbdaf4b11	-0.0855924
74	0x3e13e5e8	0.14443171
75	0xbe10b4cd	-0.1413147
76	0x3e1d82be	0.15381905
77	0xbe1226de	-0.14272639
78	0xbdbcc91d	-0.09218047
79	0xbd511646	-0.051046632
80	0x3db59fdc	0.088683814
81	0xbc0401cc	-0.008057069
82	0xbe0b8387	-0.13624392
83	0xbd95fcb4	-0.0732359
84	0xbe34aa59	-0.17643107
85	0x3e56be34	0.20970994
86	0x3d7ff544	0.062489763
87	0xbc303436	-0.010754636
88	0xbc02844b	-0.007966111
89	0xbd63b108	-0.055588752
90	0x3d9458ca	0.07243498
91	0xbe12c264	-0.14331967
92	0xbe5345ee	-0.20632145
93	0xbdad4c27	-0.084617905
94	0xbd2d822a	-0.042360462
95	0x3e8115a3	0.2521182
96	0x3e7ce600	0.24697113
97	0xbd729f7e	-0.059234135
98	0x3d88503d	0.06655929
99	0x3dc58dc2	0.09646179
100	0xbdbdb65e	-0.092632994
101	0x3dd50b17	0.10402506
102	0xbde22ce9	-0.11043722
103	0xbb730661	-0.003708266
104	0x3d9b7e0e	0.075924024
105	0xbe8449ad	-0.2583746
106	0xbe769a68	-0.24082339
107	0x3dbc5d31	0.09197462
108	0x3dbde9b4	0.09273091
109	0x3c2a2323	0.010384354
110	0x3d968ae4	0.0735071
111	0x3e24ea7b	0.16105072
112	0xbc91c32b	-0.017793259
113	0x3e454559	0.19264735
114	0xbd1b6418	-0.037937254
115	0x3e08e1c1	0.13367368
116	0xbca54e3b	-0.020178905
117	0xbbd9ada3	-0.0066430136
118	0xbe3b8bcd	-0.18315049
119	0x3e55c69d	0.20876546
120	0x3e20525c	0.15656418
121	0x3e183a24	0.14865929
122	0x3dd22119	0.10260219
123	0x3d7c6f8c	0.061629817
124	0x3e1cd949	0.15317263
125	0x3d50ce50	0.050978005
126	0xbe45390b	-0.19260041
127	0x3da7e0ac	0.0819715
128	0x3dc3191f	0.09526276
129	0xbc9524a4	-0.018205948
130	0xbd03c87b	-0.032173615
131	0x3c6ce5d9	0.014459097
132	0xbe368721	-0.17824985
133	0x3d929bce	0.07158624
134	0x3e7020b4	0.23449975
135	0x3d77c227	0.060487892
136	0x3b3520a1	0.0027637857
137	0x3e1eac36	0.15495381
138	0x3e858372	0.26076847
139	0xbe0c64f1	-0.13710381
140	0xbe9d271e	-0.30693907
141	0x3dd38043	0.10327198
142	0x3d957b94	0.07298961
143	0xbe932a53	-0.28743228
144	0xbce08449	-0.027406828
145	0xbddad4ab	-0.106850944
146	0xbdbd8827	-0.092544846
147	0x3dc93216	0.09824006
148	0x3e10179c	0.14071506
149	0xbd8fdb67	-0.070242696
150	0x3e246f6d	0.1605813
151	0xbd802f5d	-0.06259034
152	0xbdf35fb0	-0.11883485
153	0x3e082d2f	0.13298486
154	0xbe99f7b0	-0.30071783
155	0xbdeaf1a9	-0.11471874
156	0x3e14b3eb	0.14521758
157	0x3d9b314a	0.075777605
158	0xbbb9ca45	-0.0056698644
159	0xbd6ef1a6	-0.058335923
160	0xbd4ce56e	-0.05002349
161	0xbc4d30ad	-0.012523812
162	0x3d80669b	0.062695704
163	0x3d9febfc	0.07808682
164	0x3e24effa	0.16107169
165	0x3e1d7525	0.15376718
166	0x3d2828a4	0.041054383
167	0x3db7f674	0.08982554
168	0xbe4eb75f	-0.20187138
169	0xbdb7363b	-0.089458905
170	0xbdbc9894	-0.092087895
171	0xbda9e03e	-0.08294724
172	0x3cbfbfa3	0.02340681
173	0xbe3412fc	-0.17585367
174	0xbc871009	-0.016487138
175	0x3e6bb095	0.2301658
176	0xbcf610e2	-0.030037347
177	0xbe51994c	-0.20468634
178	0x3c6c6fb2	0.014430927
179	0x3cd635d2	0.02614871
180	0x3e027841	0.12741186
181	0xbe34b4f3	-0.17647152
182	0x3e322e18	0.17400396
183	0x3e61e7ae	0.22061035
184	0x3d1b79a3	0.0379578
185	0xbdfe6193	-0.124209546
186	0x3d0b897c	0.034066662
187	0x3d477d2f	0.04870337
188	0xbd35a243	-0.044344198
189	0x3e362346	0.17786893
190	0xbbb8bda5	-0.0056378418
191	0xbd5dfad2	-0.05419428
192	0xbbc59543	-0.0060297563
193	0x3e3c593b	0.18393414
194	0x3e182efb	0.14861672
195	0xbdcfd026	-0.10147123
196	0x3d890f3a	0.06692357
197	0x3e59fe5e	0.2128844
198	0xbbaee33e	-0.005337148
199	0x3d996bc8	0.07491261
200	0xbd396af7	-0.045268025
201	0x3e59ee54	0.21282321
202	0x3c5b5d6f	0.0133889755
203	0x3d6b2c8f	0.05741554
204	0xbd965e20	-0.07342172
205	0xbe72455e	-0.23659274
206	0x3c989a34	0.018628217
207	0x3e15a240	0.14612675
208	0xbde1d7cc	-0.11027488
209	0x3bec6054	0.0072136316
210	0xbdb800b1	-0.08984507
211	0x3d838595	0.06421963
212	0xbd942368	-0.07233316
213	0x3e2ec9ab	0.17069118
214	0xbe03cc72	-0.12870958
215	0xbe26f2c9	-0.16303553
216	0xbde67c09	-0.112541266
217	0xbe596bf5	-0.21232589
218	0xbdee063a	-0.116222814
219	0xbd0303a1	-0.031985883
220	0xbb22ca4d	-0.002483982
221	0x3c29ef6d	0.010372025
222	0x3c9ce4c8	0.01915206
223	0x3e06416a	0.13110891
224	0xbe42d219	-0.19025458
225	0x3d8ada64	0.06779936
226	0x3e22b035	0.1588753
227	0x3cfe18a8	0.031017616
228	0x3d478359	0.048709247
229	0x3e2a693b	0.16641705
230	0x3df31d1e	0.11870788
231	0x3e292423	0.16517691
232	0x3cd7ba79	0.026334034
233	0x3dc3c758	0.09559506
234	0xbda31d6b	-0.079645954
235	0x3d3091c2	0.043107755
236	0xbe33a856	-0.17544684
237	0xbd8d4bd6	-0.0689923
238	0xbdad11e6	-0.084506795
239	0xbe51ed30	-0.20500636
240	0xbdeaf6c9	-0.11472852
241	0x3df83aef	0.12120616
242	0x3e1a1dac	0.15050381
243	0x3dd5eb75	0.104453005
244	0x3d8cbb73	0.068716906
245	0xbde39632	-0.11112632
246	0x3e69f397	0.22846828
247	0x3c988981	0.018620254
248	0xbe3b4184	-0.18286711
249	0xbe26a3da	-0.16273442
250	0x3cfc4055	0.030792395
251	0x3db81fa9	0.08990414
252	0x3d8003eb	0.06250747
253	0xbe60d027	-0.21954404
254	0xbd22e974	-0.03977342
255	0x3d9e8583	0.07740309

output_layers.0.bias f4 [64]
0	0x3da94929	0.08265907
1	0xbde7bc3e	-0.11315201
2	0x3e12b4a9	0.14326729
3	0x3a781940	0.0009464212
4	0x3d77e5de	0.060521953
5	0x3d052625	0.03250708
6	0x3da51ca2	0.08062102
7	0x3d4dcbe0	0.05024326
8	0xbd52c302	-0.051455505
9	0x3dc9bf27	0.098509125
10	0xbcc7b347	-0.024377478
11	0x3e1161a7	0.14197408
12	0x3e427844	0.1899119
13	0xbd88b86f	-0.06675803
14	0xbdb79947	-0.08964782
15	0x3e5227f0	0.20523047
16	0x3d978032	0.07397498
17	0x3e2fa58f	0.17153
18	0xbc8576a7	-0.01629193
19	0x3e11e275	0.14246543
20	0x3d172f61	0.03691042
21	0x3dde6d36	0.10860674
22	0xbdb5d103	-0.088777564
23	0xbd6fa573	-0.058507394
24	0xbd6c60e1	-0.05770958
25	0x3e54ba7e	0.20774266
26	0x3d132987	0.035928275
27	0xbd7e4dcb	-0.062085908
28	0xbe02f8c0	-0.12790203
29	0xbc7672ab	-0.015041987
30	0xbdc6c62f	-0.09705769
31	0x3dba0c88	0.090844214
32	0x3d99c076	0.07507412
33	0x3e59e603	0.21279149
34	0xbd671b42	-0.05642248
35	0x3dd00d7c	0.10158822
36	0xbd6d4cc9	-0.057934556
37	0x3e4b2de0	0.19841719
38	0xbc87f83b	-0.016597858
39	0xbdd56239	-0.10419125
40	0xbd0944ba	-0.03351281
41	0xbd2899f2	-0.04116244
42	0x3d0fd19f	0.03511202
43	0x3e273b79	0.16331281
44	0x3e078c30	0.13237071
45	0xbde4401a	-0.11145039
46	0x3dcfed43	0.10152676
47	0x3e4b6e6c	0.19866341
48	0x3c43853d	0.011933622
49	0xba97ff28	-0.0011596428
50	0xbbcd9924	-0.0062743593
51	0x3dbdc3e7	0.09265881
52	0xbd2dc1c6	-0.042421125
53	0x3dec0e0c	0.11526117
54	0xbcf6638f	-0.03007677
55	0x3d805d1e	0.06267761
56	0xbd23bb71	-0.03997368
57	0xbdfaa16f	-0.12237822
58	0x3e075b45	0.1321841
59	0x3e3c0a8b	0.18363397
60	0xbe45258d	-0.19252606
61	0xbd0a67b2	-0.033790298
62	0x3e297eaa	0.16552225
63	0x3d9bc064	0.07605055

output_layers.3.weight f4 [32, 64]
0	0x3db32295	0.087468304
1	0x3dd4840a	0.10376747
2	0xbd02e97c	-0.03196095
3	0x3daea503	0.08527567
4	0xbd6750e7	-0.05647364
5	0x3d45b8f6	0.048272096
6	0xbdce47bd	-0.10072277
7	0x3e12aa62	0.14322808
8	0x3e06c338	0.13160408
9	0xbdc17884	-0.09446815
10	0xbe294b7c	-0.16532701
11	0x3c1bfa3e	0.009520112
12	0xbddc3ae2	-0.107534185
13	0x3e1f796f	0.15573667
14	0x3c2f5255	0.010700782
15	0x3d575753	0.052573513
16	0x3de30e6f	0.11086737
17	0xbd622a81	-0.055216316
18	0xbb8508dd	-0.0040598945
19	0xbdd22e65	-0.10262755
20	0x3bc26697	0.00593264
21	0xbd8170f4	-0.06320372
22	0x3e2dfd6c	0.16991204
23	0xbdeffaf0	-0.117177844
24	0xbd10e35b	-0.035373073
25	0xbdce76ec	-0.10081276
26	0xbb8a7584	-0.0042254347
27	0xbe12ff01	-0.14355089
28	0xbd631bc4	-0.0554464
29	0x3e4ac066	0.19799957
30	0xbcc4527d	-0.023965115
31	0xbd4eef56	-0.050521217
32	0xbe341a11	-0.17588069
33	0x3d61c242	0.0551169
34	0xbb90b657	-0.004416268
35	0xbe38c3ca	-0.18043438
36	0x3dc95596	0.09830777
37	0xbd71af77	-0.059005227
38	0x3d285a42	0.0411017
39	0xbdec0e5b	-0.115261756
40	0xbdad78ee	-0.08470331
41	0x3d8e9f2e	0.06963955
42	0x3e59d785	0.2127362
43	0xbc9f8362	-0.019471828
44	0xbc094d5d	-0.008380261
45	0xbe160a39	-0.14652337
46	0x3e346dbc	0.17619985
47	0xbe5855dc	-0.21126503
48	0x3df6e2ef	0.12055003
49	0xbd2db657	-0.04241022
50	0x3e4d4c72	0.20048693
51	0xbdb4ee8c	-0.08834562
52	0xbdd2440c	-0.10266885
53	0xbd8c2665	-0.06843261
54	0x3e0cec89	0.13762106
55	0xbe0c5ec1	-0.13708021
56	0x3c637b70	0.01388441
57	0x3d87792e	0.0661491
58	0xbdfc0bdb	-0.12306949
59	0xbddb7b1d	-0.10716841
60	0xbde93761	-0.11387516
61	0x3b686551	0.003546078
62	0x397f48b3	0.00024345778
63	0x3e2a4a80	0.16629982
64	0xbd2f308f	-0.04277092
65	0x3e2c02ae	0.16797897
66	0x3db5f90d	0.08885393
67	0x3e283e09	0.16429915
68	0xbdf5f162	-0.12008931
69	0xbe039604	-0.12850195
70	0xbd035c5c	-0.032070503
71	0xbe0d20a0	-0.13781977
72	0xbcef20ca	-0.02919044
73	0xbe0fdb30	-0.14048457
74	0xbe2740e5	-0.16333349
75	0xbde38c1a	-0.111107066
76	0xbe0ab12f	-0.13544153
77	0xbda28f02	-0.07937433
78	0x383d6f59	4.5164812e-05
79	0xbd8affe1	-0.06787086
80	0x3db84d18	0.089990795
81	0xbe0854a1	-0.13313533
82	0xbe778f09	-0.24175657
83	0xbe8136df	-0.25237176
84	0xbe750e85	-0.2393132
85	0xbda7a30e	-0.08185397
86	0x3d84e9bd	0.064898945
87	0xbdc37372	-0.09543504
88	0x3e05046b	0.12989967
89	0xbd334174	-0.043763593
90	0x3e0f9de9	0.14025082
91	0xbdfd092c	-0.12355265
92	0x3db78775	0.08961383
93	0x3e09e0f2	0.13464716
94	0xbe71a8de	-0.23599574
95	0xbe36db69	-0.17857136
96	0xbda2abf7	-0.07942956
97	0x3cea1be1	0.028577747
98	0xbd94f29d	-0.07272837
99	0x3cb03ca5	0.021513293
100	0xbcf4d5dd	-0.029887134
101	0x3de24ca5	0.11049775
102	0xbdc6c909	-0.09706313
103	0x3d8bf4c9	0.068337984
104	0xbcaa1683	-0.020762688
105	0xbd75c958	-0.06000647
106	0xbc901ebf	-0.017592786
107	0xbb9ec84a	-0.0048456537
108	0xbc7ffa49	-0.0156236375
109	0x3d959122	0.073030725
110	0xbc1ed4cb	-0.0096942885
111	0xbe24ab05	-0.16080864
112	0xbe4d2352	-0.20033005
113	0xbd45f7e3	-0.048332106
114	0xbcbbd3df	-0.022928176
115	0x3d8cdfd2	0.06878628
116	0xbca744a1	-0.020418467
117	0xbdb73ff1	-0.08947743
118	0xbe53a562	-0.20668557
119	0x3d028aaa	0.03187052
120	0x3dd49662	0.10380246
121	0xbe05f66e	-0.13082287
122	0xbdc34036	-0.09533732
123	0xbdfaf073	-0.12252893
124	0x3dad9839	0.084763
125	0xbdce27e6	-0.10066204
126	0x3d004c3e	0.03132271
127	0xbe6bdf0c	-0.23034304
128	0x3c468fd2	0.01211925
129	0x3dc55b3c	0.09636542
130	0x3c6b3538	0.01435595
131	0xbd834b4f	-0.06410848
132	0x3d374d77	0.04475161
133	0xbdb98855	-0.090592064
134	0xbdd73ce8	-0.10509664
135	0x3c0312e0	0.008000106
136	0x3d2def93	0.042464804
137	0xbdae3833	-0.08506813
138	0xbdc300b2	-0.09521617
139	0xbc4349b8	-0.011919431
140	0xbe2a6df0	-0.166435
141	0xbc854aa3	-0.016270941
142	0x3d0cee84	0.034407154
143	0xbb2b037f	-0.0026094613
144	0x3ca79ace	0.020459559
145	0x3a498ae4	0.0007688238
146	0xbd3f9fb4	-0.046783164
147	0xbe1857bc	-0.14877218
148	0xbc04cb61	-0.00810513
149	0x3c8da12d	0.017288769
150	0x3e03568b	0.12825982
151	0xbe16f01b	-0.1474003
152	0x3d09fd48	0.033688813
153	0xbe00a16b	-0.12561576
154	0x3d8668d0	0.0656296
155	0xbe23f9a9	-0.16013207
156	0xbdf5f3e9	-0.12009413
157	0x3c6924fe	0.014230011
158	0xbe2b9cb7	-0.16759
159	0x3dd03953	0.10167184
160	0xbe414746	-0.18874845
161	0x3d414f91	0.04719502
162	0x3d6d6653	0.057958912
163	0xbcf349f1	-0.029698344
164	0x3baee89d	0.0053377883
165	0x3d8a13ed	0.06742082
166	0x3dbb1600	0.091350555
167	0x3d3f2884	0.046669498
168	0xbe13d0c6	-0.1443511
169	0xbd9a5c77	-0.075371675
170	0x3de0341a	0.109474376
171	0x3d3bda6d	0.045862604
172	0x3a773680	0.00094304234
173	0xbdca7199	-0.09884948
174	0x3e08b88a	0.13351646
175	0xbd0e26e0	-0.034705043
176	0x3c21ee16	0.009883424
177	0x3da058b5	0.078294195
178	0x3d16eef6	0.036848985
179	0xbbf97004	-0.0076122303
180	0xbe0a86d1	-0.13527991
181	0x3e0a4831	0.13504101
182	0x3c0a4a75	0.0084406035
183	0xbd805ffa	-0.06268306
184	0x3dd24386	0.10266785
185	0x3e03cb97	0.12870632
186	0xbdf3a595	-0.11896817
187	0xbe1879d3	-0.14890222
188	0x3db34e8e	0.087552175
189	0x3d909d2e	0.0706123
190	0x3e0db78b	0.13839547
191	0x3d9319b6	0.07182638
192	0x3dc9e8b0	0.09858835
193	0x3e1ec37f	0.15504263
194	0x3d309b61	0.04311693
195	0x3e111cf9	0.14171208
196	0xbd2fa4e5	-0.042881865
197	0xbcc60340	-0.024171472
198	0x3c5a5c39	0.013327652
199	0xbe3e05c7	-0.18556891
200	0xbb376a53	-0.0027986958
201	0xbe16daee	-0.14731953
202	0x3d485fda	0.048919536
203	0x3cbb0db0	0.022833675
204	0xbca2e667	-0.019885255
205	0xbd3ffcb0	-0.04687184
206	0xbe68346b	-0.22676246
207	0xbe14e2de	-0.14539668
208	0x3d862f39	0.06551976
209	0x3c80e488	0.015733972
210	0x3d3406dc	0.043951854
211	0x3d8884c4	0.06665948
212	0x3cef2d54	0.029196419
213	0x3c068624	0.008210693
214	0x3e0be160	0.13660192
215	0xbcf84ede	-0.030311044
216	0x3d1f03c3	0.038821947
217	0xbe008cf5	-0.12553771
218	0x3ddd99c8	0.10820347
219	0xbe1e230c	-0.15443057
220	0x3c2c2e80	0.010509133
221	0x3e24b9c3	0.16086487
222	0xbda374bf	-0.07981252
223	0xbbeaeaab	-0.007169088
224	0x3d9cbce4	0.076532155
225	0x3d5036a3	0.050833356
226	0x3c57c12a	0.0131686125
227	0xbe03ab99	-0.12858428
228	0xbd99cfb7	-0.075103216
229	0xbe0176e2	-0.12643006
230	0xbd31f47e	-0.043446057
231	0x3dda40ed	0.10656915
232	0xbe06afb9	-0.1315297
233	0x3d9109bb	0.07081934
234	0xbe11834d	-0.14210244
235	0xbd02155e	-0.03175866
236	0x3bdcbf4e	0.0067366725
237	0x3ced2d39	0.028952228
238	0x3e150253	0.14551668
239	0xbe021aa3	-0.12705474
240	0xbd6e80ae	-0.058228187
241	0x3e224cb5	0.15849574
242	0x3e40b2d3	0.18818216
243	0x3c8c10ff	0.017097948
244	0x3d8e00ac	0.06933722
245	0xbe11d740	-0.14242268
246	0xbe033a4f	-0.12815212
247	0xbd623242	-0.05522371
248	0x3de3b138	0.11117786
249	0xbdfc70b4	-0.12326184
250	0xbd8bcef8	-0.068265855
251	0x3d8ef861	0.06980968
252	0x3d51d62e	0.05122965
253	0xbdd9ea42	-0.10640384
254	0xbc7ad4be	-0.015309511
255	0xbe2b613c	-0.1673631

output_layers.3.bias f4 [32]
0	0xbd2f7873	-0.04283948
1	0x3d667311	0.05626208
2	0x3ddbdd7e	0.10735606
3	0x3d8a2ae2	0.067464605
4	0x3ce79a38	0.02827178
5	0xbdcb7caf	-0.09935891
6	0x3d9107c1	0.07081557
7	0x3c824700	0.015902996
8	0x3e0db4d6	0.13838515
9	0x3e146321	0.1449094
10	0x3e25914c	0.16168708
11	0x3dd6bc1f	0.104851
12	0x3ca161bd	0.019699926
13	0x3da8c4f0	0.08240688
14	0x3dd2b6c1	0.10288764
15	0xbd0414f9	-0.032246564
16	0xbe083e61	-0.13305046
17	0x3d25e941	0.04050565
18	0x3e005f83	0.12536435
19	0xbd2abd24	-0.041684285
20	0x3dcf9aea	0.101369694
21	0x3e0417e0	0.12899733
22	0x3c66334d	0.014050317
23	0x3cfe207e	0.031021353
24	0xbde029a8	-0.10945445
25	0x3d48327f	0.04887628
26	0x3d211945	0.03933074
27	0xbdcd0d88	-0.100123465
28	0x3e2cf931	0.16891934
29	0xbd15c600	-0.03656578
30	0x3c1050e4	0.008808348
31	0xbdd87a30	-0.105701804

output_layers.6.weight f4 [2, 32]
0	0xbe43cb22	-0.19120458
1	0x3df9602c	0.121765465
2	0xbdcb9066	-0.09939651
3	0x3d5ce488	0.053928882
4	0x3e0befa7	0.13665639
5	0xbd8f5954	-0.0699946
6	0x3e456175	0.19275458
7	0xbddd1bea	-0.1079634
8	0x3994f860	0.00028413814
9	0x3b22cd2a	0.0024841526
10	0x3b6dbe7e	0.0036276872
11	0x3b1f9def	0.002435561
12	0x3e2b05f5	0.16701491
13	0x3e6ea13b	0.23303692
14	0xba7dac20	-0.00096768327
15	0x3e0b31a1	0.1359315
16	0xbdf7e260	-0.121037245
17	0xbcf670e8	-0.030083135
18	0x3cccf970	0.025021285
19	0x3def2e35	0.11678735
20	0x3e2ece07	0.1707078
21	0x3b46abb6	0.003031475
22	0x3e59b0fc	0.2125892
23	0xbde6931d	-0.112585284
24	0x3d97357d	0.07383249
25	0xbd295c34	-0.041347697
26	0xbe255d8a	-0.16148964
27	0xbe2287ec	-0.15872163
28	0x3b16ee5e	0.0023030262
29	0x3bfea95f	0.0077716555
30	0x3dec4bdc	0.115379065
31	0xbe16a80b	-0.14712541
32	0x3df78850	0.120865464
33	0x3e2a781e	0.16647384
34	0x3e2ba3bc	0.16761678
35	0x3e02c234	0.12769395
36	0x3d0fda2d	0.035120178
37	0xbe98bc89	-0.2983134
38	0x3e235ca0	0.15953302
39	0xbdfbc4bd	-0.12293384
40	0xbe1f365d	-0.15548082
41	0xbe55be1a	-0.20873299
42	0xbe8638a0	-0.26215076
43	0xbe6ce8dd	-0.23135705
44	0x3dff6b32	0.12471618
45	0x3e3a4823	0.1819158
46	0x3e444279	0.19165982
47	0xbd7b77e5	-0.061393637
48	0x3d4ea5c7	0.050451066
49	0xbe7731a5	-0.24140032
50	0xbde4e622	-0.11176707
51	0xbdf284ae	-0.11841713
52	0x3dcf3f08	0.10119444
53	0xbe1c4f7c	-0.15264696
54	0x3cf204bd	0.029543275
55	0xbb294060	-0.0025825724
56	0x3ce96967	0.028492643
57	0xbe9e7ccc	-0.30954587
58	0x3e17455b	0.14772551
59	0xbdd2d5d9	-0.102946945
60	0xbe1c4920	-0.1526227
61	0xbe9af06e	-0.30261558
62	0x3d22df0a	0.039763488
63	0xbd201b0d	-0.039088298

output_layers.6.bias f4 [2]
0	0xbd2c344e	-0.04204207
1	0xbdb30cb7	-0.087426595

exp_avg f4 [96, 15]
0	0xba5ef763	-0.00085054914
1	0xba5c4c52	-0.00084037066
2	0xba5c6122	-0.0008406808
3	0xba5a42ee	-0.00083260133
4	0xb8cc58f3	-9.744046e-05
5	0x3a2f98b6	0.0006698476
6	0xba71305e	-0.00092006277
7	0xba5e9403	-0.00084906834
8	0xb910f0f2	-0.0001382267
9	0xbaebe72c	-0.0017997972
10	0xb8b977cf	-8.8438035e-05
11	0x3be2873f	0.0069130952
12	0x00000000	0.0
13	0x39a07a96	0.00030608912
14	0xb7ce6e73	-2.4608546e-05
15	0x399d97a9	0.0003005837
16	0x399b5abc	0.00029631506
17	0x398f7790	0.00027364166
18	0x39907526	0.00027553103
19	0x3a5e50bd	0.0008480659
20	0xb9d7ed33	-0.00041184723
21	0xb967d429	-0.00022108913
22	0xb9460293	-0.0001888371
23	0xb6ce2b0d	-6.14429e-06
24	0x3a3421a5	0.00068714685
25	0x375d12c3	1.3176995e-05
26	0x3abeb7f7	0.0014550675
27	0x00000000	0.0
28	0x37cca700	2.439646e-05
29	0xb61916f4	-2.2812137e-06
30	0xba874573	-0.001032038
31	0xba85e836	-0.0010216299
32	0xba88c67a	-0.0010435127
33	0xba879cb9	-0.001034639
34	0xbab615eb	-0.001389203
35	0x395211b8	0.00020033761
36	0xb9b77147	-0.00034988878
37	0xb9c160e5	-0.0003688402
38	0xb7f9cbb7	-2.9777975e-05
39	0xb9959917	-0.00028533555
40	0xb85dd415	-5.2888023e-05
41	0x3980d0c7	0.00024569614
42	0x00000000	0.0
43	0xb89c3f5a	-7.45046e-05
44	0xb7421ec5	-1.1570465e-05
45	0xbacd17b2	-0.001564732
46	0xbacc7c30	-0.0015600976
47	0xbacda08b	-0.0015688104
48	0xbacdcc7d	-0.0015701201
49	0xba85116e	-0.0010152289
50	0x384212e7	4.627081e-05
51	0xb9bc05d1	-0.00035862488
52	0xb9b51fce	-0.00034546707
53	0x38ef7e74	0.00011419962
54	0xb9d596eb	-0.00040738969
55	0xb8042601	-3.1506646e-05
56	0x3a3b8a34	0.0007154078
57	0x00000000	0.0
58	0x381b52c3	3.7031958e-05
59	0xb71ccf16	-9.3465405e-06
60	0x3b03de2a	0.0020121434
61	0x3b015a37	0.001973761
62	0x3b01bdee	0.0019797045
63	0x3afe8b2f	0.0019420142
64	0x3b2b32d1	0.0026122818
65	0xba20c466	-0.0006132781
66	0xba2110ff	-0.0006144195
67	0xba088ccc	-0.00052089687
68	0xb9f312df	-0.00046362632
69	0x3af73dff	0.0018863081
70	0x37d5fe72	2.5510064e-05
71	0x3aa42c98	0.0012525497
72	0x00000000	0.0
73	0xb997a8cf	-0.00028926737
74	0xb8f7f1da	-0.00011822926
75	0xb992ff4a	-0.00028037495
76	0xb99680ec	-0.00028706284
77	0xb98bfb6a	-0.00026699464
78	0xb992cacc	-0.00027998385
79	0x3922b86b	0.00015518225
80	0x39c6d1b6	0.0003792175
81	0xb783ecbf	-1.572666e-05
82	0xb8cf579b	-9.886847e-05
83	0xb9db003f	-0.00041771118
84	0x3a03d1b7	0.00050285034
85	0xb7cba71d	-2.4277304e-05
86	0xb8bd9aad	-9.041033e-05
87	0x00000000	0.0
88	0xb94498a4	-0.0001874888
89	0xb9ca7b51	-0.0003862032
90	0xbab3c600	-0.0013715625
91	0xbab4bfb8	-0.0013790047
92	0xbab40f73	-0.0013737514
93	0xbab607d2	-0.0013887829
94	0xbb0552cf	-0.0020343547
95	0x39de0b24	0.0004235144
96	0xb984881e	-0.00025278417
97	0xb9984cbe	-0.00029048877
98	0x3811ffae	3.4808814e-05
99	0x3a3080a1	0.00067330344
100	0xb8673532	-5.5124234e-05
101	0x39d04274	0.00039722363
102	0x00000000	0.0
103	0xb9046770	-0.00012627034
104	0x39859fce	0.000254868
105	0xb984fcbf	-0.00025365312
106	0xb98c3457	-0.00026741877
107	0xb97e6569	-0.00024261106
108	0xb98665c4	-0.00025634293
109	0x3a5465dd	0.0008102337
110	0xb805dffd	-3.1918276e-05
111	0xb89609dd	-7.1543946e-05
112	0xb895e1a5	-7.146903e-05
113	0xba300f5e	-0.0006716157
114	0x3a81fa14	0.0009916448
115	0x38803119	6.112661e-05
116	0x3a01ca58	0.0004951111
117	0x00000000	0.0
118	0xb9a66c5d	-0.00031742724
119	0xb9a9a873	-0.00032359696
120	0x3a10f1a6	0.00055291725
121	0x3a089193	0.00052096805
122	0x3a12095b	0.0005570852
123	0x3a0a82d5	0.0005283778
124	0x3a5fee04	0.0008542242
125	0xba1d4ffb	-0.0006000993
126	0xba01bf8b	-0.00049495016
127	0xb9bcfa13	-0.00036044474
128	0xba160dc5	-0.0005724098
129	0x3a9264bb	0.0011168936
130	0xb6644766	-3.4016207e-06
131	0x372aaccc	1.0173022e-05
132	0x00000000	0.0
133	0xb8e03512	-0.000106910375
134	0xb8a5d09c	-7.9066696e-05
135	0xb9aeab67	-0.0003331557
136	0xb9b3a5f3	-0.00034265182
137	0xb9aa9e0c	-0.0003254268
138	0xb9b0b2ea	-0.00033702637
139	0xb9b7dc03	-0.00035068401
140	0xb9a1c89d	-0.00030857782
141	0xba2715ae	-0.0006373775
142	0xba035667	-0.00050101284
143	0xba223d77	-0.00061889685
144	0x3a1d60f8	0.0006003524
145	0xb7ad919a	-2.0691008e-05
146	0xb8f4aaa7	-0.00011666613
147	0x00000000	0.0
148	0xb96ac936	-0.00022390936
149	0xb988f7aa	-0.00026124466
150	0x3982367d	0.0002483613
151	0x397e8cdc	0.00024275802
152	0x39888da3	0.0002604547
153	0x398365d6	0.0002506214
154	0x38e811f6	0.000110659676
155	0xb9c479a1	-0.00037474654
156	0xb96cb318	-0.00022573431
157	0xb8b2ea61	-8.531358e-05
158	0xb9733d8a	-0.00023197211
159	0x3a0a2202	0.000526935
160	0xb6d63c9f	-6.384754e-06
161	0x3aa029b7	0.0012219463
162	0x00000000	0.0
163	0x39015668	0.00012334588
164	0x39101800	0.00013741851
165	0x3a192529	0.0005842024
166	0x3a162a60	0.000572836
167	0x3a1a8053	0.00058937556
168	0x3a1821d3	0.000580338
169	0x3991a2f9	0.0002777798
170	0xb9eeb142	-0.00045526965
171	0xb958cae2	-0.00020674945
172	0xb8c2ed29	-9.2948154e-05
173	0xba192c19	-0.0005843058
174	0x3a91595a	0.0011089251
175	0xb76b7110	-1.4033416e-05
176	0x39a60922	0.00031668792
177	0x00000000	0.0
178	0xb8891bd6	-6.537854e-05
179	0xb82ec3e6	-4.1667277e-05
180	0xba2e472d	-0.0006648179
181	0xba34aed2	-0.00068925053
182	0xba2ecbe7	-0.0006667957
183	0xba355472	-0.00069171854
184	0xba1b5c63	-0.00059265475
185	0xb99d26e0	-0.00029974338
186	0xba8df0d0	-0.0010829214
187	0xba7a87a5	-0.0009556956
188	0xb9be38bf	-0.00036281903
189	0x3aa5f0a7	0.0012660221
190	0xb82af91a	-4.0763152e-05
191	0x3a943e79	0.0011310122
192	0x00000000	0.0
193	0xb9bff6bb	-0.00036614187
194	0xb95f6531	-0.00021304634
195	0x3a43bc1b	0.00074666896
196	0x3a40409f	0.0007333848
197	0x3a48b4ef	0.0007656356
198	0x3a44b4c4	0.0007503743
199	0x35d9368b	1.6183634e-06
200	0xba38627c	-0.0007033718
201	0xba5f2dcb	-0.00085135986
202	0xba30094a	-0.00067152514
203	0xba650d3b	-0.0008737628
204	0x3aa99ee2	0.0012941028
205	0xb908a788	-0.00013032381
206	0xb9f1de04	-0.00046132517
207	0x00000000	0.0
208	0xba03d0d8	-0.00050283736
209	0xb9166925	-0.00014344284
210	0xb94c2b5e	-0.00019471112
211	0xb9309949	-0.00016841771
212	0xb959bf20	-0.00020765932
213	0xb944b7cb	-0.00018760485
214	0x38ae3e02	8.3085164e-05
215	0xb9b43bc3	-0.000343768
216	0xba282677	-0.0006414423
217	0xba057411	-0.00050908426
218	0x39e3f1bb	0.00043476917
219	0xbacfd44e	-0.0015856118
220	0x38424926	4.632133e-05
221	0x382c0a42	4.101755e-05
222	0x00000000	0.0
223	0x388c331b	6.685239e-05
224	0x3900c5e9	0.00012280759
225	0xbae01fa6	-0.0017099276
226	0xbae02910	-0.0017102081
227	0xbae096b5	-0.0017134758
228	0xbae18b0c	-0.0017207577
229	0xbaa5db6f	-0.0012653897
230	0xb84e78da	-4.922678e-05
231	0x364253b3	2.8956972e-06
232	0xb713ac45	-8.801992e-06
233	0xb8f694ec	-0.00011757933
234	0x399386c1	0.00028138424
235	0xb754db74	-1.268728e-05
236	0x3921e3e3	0.00015439051
237	0x00000000	0.0
238	0xb88cfbd0	-6.722624e-05
239	0xb8bb302d	-8.925828e-05
240	0xb8cd5178	-9.7903365e-05
241	0xb8e93325	-0.00011119832
242	0xb8b4f4c0	-8.628657e-05
243	0xb8c5a0bb	-9.4236304e-05
244	0xba3337b6	-0.00068366097
245	0x38d59ea1	0.000101861784
246	0xb8f539f9	-0.000116933086
247	0xb8b5ec41	-8.674758e-05
248	0xba764917	-0.00093950465
249	0x3b04b222	0.0020247777
250	0xb84a1bf7	-4.8186597e-05
251	0x39debaee	0.00042482413
252	0x00000000	0.0
253	0xb9d068e8	-0.00039751013
254	0xb8bd646c	-9.030927e-05
255	0xba9a5990	-0.0011775959
