lightning_logs/version_13/checkpoints/epoch=49-step=250.ckpt (torch, 47499 bytes, 18 tensors)

network.0.weight f4 [64, 15]
0	0x3d40e5f4	0.0470943
1	0x3eb26552	0.34842926
2	0x3e5b3cb2	0.21409872
3	0x3e80a0ac	0.25122583
4	0xbdbc3839	-0.09190411
5	0xbe429ae3	-0.19004397
6	0x3da04938	0.07826465
7	0x3df931d8	0.1216771
8	0xbd8c9f64	-0.06866339
9	0xbdfa5c98	-0.12224692
10	0x3e5abc56	0.21360907
11	0xbe58f2f8	-0.21186435
12	0xbd6c4b28	-0.057688862
13	0xbe80e2db	-0.25173077
14	0xbdfad404	-0.1224747
15	0x3e5e911b	0.21735041
16	0xbe61862c	-0.22023839
17	0x3e2d2bce	0.16911241
18	0x3e0d6386	0.13807496
19	0x3cc52ee6	0.024070214
20	0xbe5a43c0	-0.21314907
21	0x3e47adb2	0.19499853
22	0x3cabbb29	0.020963268
23	0x3e8011e8	0.2501366
24	0x3e10cb90	0.14140153
25	0xbdd4ee21	-0.10396982
26	0xbdfaf3cc	-0.12253532
27	0x3dd96f04	0.10616878
28	0xbdc520d4	-0.09625402
29	0x3e424b6e	0.18974087
30	0xbe2690ee	-0.16266224
31	0x3e1aa127	0.15100537
32	0x3e69a2a1	0.22815944
33	0x3e5e9d4d	0.21739693
34	0x3dadefeb	0.08493026
35	0x3dc4632d	0.09589229
36	0xbe15824c	-0.14600486
37	0xbe0492cb	-0.12946622
38	0xbe607f9d	-0.2192368
39	0xbd5c0b93	-0.053721976
40	0x3e136cc9	0.14396967
41	0x3ea2d477	0.31802723
42	0xbdab4b21	-0.08363939
43	0xbe875367	-0.26430818
44	0xbdc96404	-0.098335296
45	0x3e826986	0.25471133
46	0x3de2be09	0.110714026
47	0x3e3591b5	0.17731364
48	0x3ddfb72e	0.10923611
49	0x3d4058fa	0.046959855
50	0x3e010be6	0.12602195
51	0xbd223b2a	-0.039607204
52	0x3dc89e8a	0.09795864
53	0x3d5d9d6f	0.05410522
54	0x3c813b1c	0.015775256
55	0xbe43359f	-0.19063424
56	0x3e858389	0.26076916
57	0xbddd8fb6	-0.10818426
58	0x3c6bc7bf	0.014390885
59	0xbe79b19b	-0.24384157
60	0x3d6c865b	0.05774532
61	0xbe0627ce	-0.13101122
62	0xbde3f3c0	-0.11130476
63	0xbe1cf2df	-0.15327023
64	0xbe63df03	-0.22253041
65	0xbe2b6c6b	-0.16740577
66	0x3e2294c4	0.15877062
67	0x3defd897	0.11711233
68	0x3e1a704a	0.15081897
69	0x3e00280f	0.12515281
70	0x3c1a4531	0.009415911
71	0x3e69adda	0.22820225
72	0x3e7cd479	0.24690427
73	0xbe057f21	-0.13036777
74	0x3e394391	0.18092181
75	0x3e8fe201	0.28102115
76	0xbe3c2b41	-0.18375875
77	0xbb21399f	-0.0024600995
78	0x3e8ca88d	0.27472344
79	0x3d072002	0.03298951
80	0xbd16d1c8	-0.036821157
81	0x3d8195ce	0.06327401
82	0xbcce0e8b	-0.025153419
83	0xbd822177	-0.06354039
84	0xbe3036e8	-0.17208445
85	0x3e0f9dfd	0.14025111
86	0x3e7df9e5	0.24802358
87	0x3d7bdd9f	0.06149065
88	0x3e0e6beb	0.13908355
89	0xbe5eac34	-0.21745378
90	0x3db4eca7	0.088342
91	0x3e390484	0.18068129
92	0xbd0d93d4	-0.034564808
93	0x3e5ee85f	0.2176833
94	0x3de109f4	0.109882265
95	0xbe472a35	-0.19449694
96	0x3e53a813	0.20669584
97	0xbe5775d3	-0.2104104
98	0xbdf75391	-0.12076486
99	0xbe8320d6	-0.2561099
100	0x3cd6ab93	0.02620486
101	0xbe0c3a73	-0.13694172
102	0x3e443ace	0.19163057
103	0xbde0bfc0	-0.109740734
104	0x3e147574	0.1449793
105	0x3e556283	0.2083836
106	0x3d5453fc	0.051837906
107	0xbd9b7353	-0.07590356
108	0xbdef87ea	-0.116958454
109	0x3e222a1e	0.15836379
110	0xbd187140	-0.03721738
111	0x3e2cfcfb	0.1689338
112	0xbb89b180	-0.004202068
113	0x3de00c09	0.109397955
114	0xbe6fd1e2	-0.23419908
115	0xbd97c874	-0.0741128
116	0xbe0f0fb1	-0.1397083
117	0xbde90873	-0.11378565
118	0xbd01ad61	-0.031659488
119	0xbcf9c5c6	-0.030489814
120	0xbe422cd8	-0.18962419
121	0x3db01eb4	0.08599606
122	0x3dfbdb36	0.122976705
123	0x3dc76150	0.09735358
124	0xbd91a7be	-0.071120724
125	0xbd8870fe	-0.066621765
126	0x3dc939b6	0.098254606
127	0xbda345c4	-0.07972291
128	0x3d9f44d4	0.077768
129	0x3d6cb280	0.05778742
130	0xbb1e3775	-0.0024141942
131	0xbe1fb9c2	-0.15598205
132	0xbdd6b19a	-0.104830936
133	0xbe97ce09	-0.2964938
134	0xbe9f0280	-0.31056595
135	0xbdb99e66	-0.09063415
136	0x3dcdc1b7	0.10046714
137	0xbe97189e	-0.2951097
138	0xbe23c47f	-0.15992926
139	0x3a84e22f	0.0010138209
140	0xbb32ea38	-0.002730025
141	0xbe24856a	-0.16066518
142	0xbd76598e	-0.060144
143	0xbc25e5ee	-0.01012562
144	0x3dadf2fe	0.08493613
145	0x3e2697a4	0.16268784
146	0x3e4e8540	0.20168018
147	0x3c41bf1a	0.011825347
148	0xbe7336a8	-0.23751318
149	0xbe69f563	-0.22847514
150	0x3e1b6faa	0.15179315
151	0xbe3d522a	-0.18488374
152	0x3e21ca25	0.15799768
153	0xba8a618e	-0.0010557638
154	0xbd335d23	-0.043789994
155	0xbe216188	-0.15759861
156	0x3dcde078	0.1005258
157	0x3db8f8db	0.090318404
158	0x3e2247f5	0.15847762
159	0x3d21bfd9	0.0394896
160	0x3e81cc70	0.25351286
161	0xbe3dfa90	-0.18552613
162	0xbe204823	-0.15652518
163	0xbe503470	-0.20332503
164	0x3e77a00a	0.24182144
165	0xbd8527e2	-0.06501748
166	0x3e795d6f	0.24352048
167	0xbe5c2019	-0.2149662
168	0x3c2f08f7	0.01068329
169	0xbe6966c1	-0.22793104
170	0xbdc963c6	-0.098334834
171	0x3e523540	0.20528126
172	0xbdc7991a	-0.09745999
173	0xbd93f2bf	-0.072240345
174	0xbe84857a	-0.25883085
175	0x3db4c7d8	0.0882718
176	0xbe3311d6	-0.17487273
177	0x3d9da304	0.076971084
178	0x3e431ea5	0.19054659
179	0xbd65699f	-0.05600893
180	0x3e3a2410	0.18177819
181	0xbdf243de	-0.11829351
182	0xbe955fc4	-0.29174626
183	0xbe3fd86a	-0.18734899
184	0xbd75f59f	-0.060048696
185	0xbe474294	-0.19458991
186	0xbd28e6fe	-0.041235916
187	0x3e866cf2	0.26254994
188	0xbe83ceea	-0.257438
189	0x3ddd66b2	0.10810603
190	0x3e3f133a	0.18659678
191	0x3cfe87b4	0.031070568
192	0x3e41948e	0.18904325
193	0xbe86db66	-0.26339263
194	0xbeb0ad56	-0.34507245
195	0x3e69341a	0.22773781
196	0x3d36d8c7	0.04464033
197	0x3e0abb11	0.13547923
198	0x3e33eb14	0.17570144
199	0x3dfbe028	0.12298614
200	0xbdac5192	-0.08413996
201	0x3cc71111	0.02430013
202	0x3dc695ae	0.09696518
203	0x3e3e9518	0.18611562
204	0xbd88eb32	-0.06685485
205	0x3dffc083	0.124878906
206	0xbd1ebad7	-0.038752403
207	0x3dc22ea1	0.0948155
208	0x3de4cd62	0.11171986
209	0x3e68c739	0.22732247
210	0x3de2c812	0.11073317
211	0x3e74916c	0.23883599
212	0x3e054455	0.13014348
213	0xbdce33c2	-0.10068466
214	0xbdbad086	-0.09121804
215	0x3e52c662	0.2058349
216	0x3ea59a6e	0.32344383
217	0x3db432e1	0.08798767
218	0x3da9212a	0.08258279
219	0x3e57083e	0.20999238
220	0xbe3d846b	-0.18507545
221	0xbdfe57d7	-0.12419098
222	0xbe3ef677	-0.18648706
223	0x3ce527a4	0.027973004
224	0xbe9d5bfd	-0.30734244
225	0xbc53e64e	-0.012933327
226	0x3e97f394	0.29678023
227	0x3ea14201	0.3149567
228	0xba518001	-0.00079917914
229	0x3d3c2c70	0.045940816
230	0xbe4bf586	-0.19917879
231	0x3d1c0fbb	0.03810094
232	0xbe596d63	-0.21233134
233	0xbba74093	-0.0051041334
234	0xbbc7af55	-0.0060938993
235	0xbc2b0534	-0.010438252
236	0x3d0ca470	0.034336507
237	0x3d69db59	0.05709395
238	0x3e0a52d9	0.13508166
239	0xbe30e932	-0.17276457
240	0x3e71db82	0.23618892
241	0x3e391840	0.18075657
242	0x3dc36129	0.09540016
243	0x3da1198a	0.07866199
244	0x3dc46ea5	0.09591416
245	0xbda2a7dc	-0.07942173
246	0x3df8cecd	0.12148819
247	0xbd18cf09	-0.03730682
248	0x3e6139ee	0.21994755
249	0xbe9682f1	-0.29396775
250	0xbe0d2ff7	-0.13787828
251	0xbdeb7ce6	-0.11498432
252	0x3e568049	0.20947374
253	0xbba402ce	-0.005005217
254	0x3e74adde	0.2389445
255	0x3d8cddf8	0.06878275

network.0.bias f4 [64]
0	0x3eb726f0	0.35771894
1	0xbe1f939e	-0.15583655
2	0x3c6245ba	0.013810569
3	0xbdfe317f	-0.124117844
4	0xbdd3bd36	-0.103388235
5	0xbcd9f620	-0.02660662
6	0xbc18b8d8	-0.009321414
7	0x3d06a45f	0.0328716
8	0x3bdfa506	0.0068250922
9	0x3caa6cfa	0.020803917
10	0x3e6cb147	0.23114501
11	0xbd9c1df8	-0.076229036
12	0x3e107602	0.14107516
13	0xbcfe331b	-0.031030228
14	0x3d25755b	0.040395122
15	0x3d12782c	0.035759136
16	0xbe81a0e6	-0.25318068
17	0x3d0100a0	0.031494737
18	0xbdd77ab3	-0.1052145
19	0xbe2de7d7	-0.16982971
20	0x3bc6886c	0.006058743
21	0x3e9bb7cf	0.30413672
22	0xbe4f01ce	-0.20215532
23	0xbc5caf6f	-0.013469561
24	0x3db5d8ae	0.08879219
25	0x3da05253	0.07828202
26	0x3cbfb135	0.023399929
27	0x3e015159	0.12628688
28	0x3e3c3a89	0.18381704
29	0xbd25cfd0	-0.04048139
30	0x3e16ef82	0.14739802
31	0x3e93f755	0.28899637
32	0xbdd5fc23	-0.10448482
33	0xbcaf7ebb	-0.021422734
34	0x3e22285e	0.15835711
35	0xbe11a39a	-0.14222565
36	0xbc8a63b7	-0.01689325
37	0x3e2c7d22	0.1684461
38	0xbe557b91	-0.20847918
39	0xbdccba0a	-0.09996422
40	0xbe5312c1	-0.20612623
41	0x3de60652	0.11231674
42	0xbd16f3bc	-0.036853537
43	0x3e177b94	0.14793235
44	0x3e836658	0.2566402
45	0x3eaf9ad2	0.34297806
46	0x3eaba642	0.33525282
47	0xbe3273ba	-0.17426959
48	0x3e844ed7	0.258414
49	0x3bb19537	0.005419399
50	0xbdf6f27c	-0.12057969
51	0x3e024427	0.1272131
52	0x3e440af7	0.19144808
53	0xbe173f67	-0.1477028
54	0x3cfd1623	0.030894345
55	0x3e5f7739	0.21822824
56	0x3af878f2	0.0018956943
57	0x3df60a49	0.120136805
58	0x3d727d42	0.059201486
59	0x3dce17b1	0.100631125
60	0xbdba20d7	-0.09088295
61	0xbd3fe892	-0.046852656
62	0xbe613ff7	-0.21997057
63	0x3ea2cef5	0.3179852

network.3.weight f4 [32, 64]
0	0xbd5d24d1	-0.05399019
1	0x3ba034e9	0.00488912
2	0x3d836e74	0.06417552
3	0x3dd83229	0.10556442
4	0xbd8a30b0	-0.06747568
5	0xbe20979e	-0.15682837
6	0x3cee988c	0.029125474
7	0xbd95f20c	-0.073215574
8	0x3d92bf68	0.07165414
9	0xbd84edba	-0.06490655
10	0xbd8de7bb	-0.06928965
11	0x3baa056b	0.005188634
12	0xbce56d83	-0.02800632
13	0xbde186ee	-0.11012064
14	0xbd568475	-0.052372415
15	0xbc6f3c87	-0.014601833
16	0x3d9de642	0.07709934
17	0x3dc24bc2	0.09487106
18	0xbd0358ad	-0.03206699
19	0xbb85d15f	-0.004083797
20	0x3d813563	0.06309011
21	0xbc54529f	-0.0129591515
22	0xbccbcdf6	-0.024878483
23	0x3dd42c84	0.10360053
24	0xbe2817c1	-0.16415311
25	0x3bc7abe8	0.006093491
26	0x3c9e3afa	0.019315232
27	0x3d11337d	0.035449494
28	0xbd0a8562	-0.03381861
29	0x3cc13314	0.023583926
30	0x3dca80a8	0.098878205
31	0x3c08a285	0.008339529
32	0xbd2fc33d	-0.042910803
33	0xbc3ccf90	-0.011524096
34	0xbdf5dfb7	-0.12005561
35	0x3cbed24e	0.02329364
36	0xbdc34fbd	-0.09536693
37	0xbe0147d0	-0.1262505
38	0x3cd8fca8	0.026487663
39	0xbcc40a47	-0.023930682
40	0xbda26aab	-0.079305016
41	0xbd6dc237	-0.058046546
42	0x3d200bd8	0.039073795
43	0x3ddaed5b	0.10689803
44	0xbd4a5889	-0.04940084
45	0xbd8e1c6b	-0.06939014
46	0x3cf4df07	0.029891504
47	0xbc00ac74	-0.007853616
48	0xbdfc9e79	-0.12334914
49	0xbd528c61	-0.051403407
50	0x3d737aab	0.059443157
51	0x3c9a66d1	0.018847855
52	0x3d715a8d	0.058924247
53	0x3de9cfa1	0.11416555
54	0x3d8c454f	0.06849157
55	0xbdc2b17c	-0.09506509
56	0xbdaee962	-0.08540608
57	0xbd7e9e37	-0.062162604
58	0x3de91f4f	0.11382925
59	0xbd21d547	-0.039510038
60	0xbdc6f450	-0.09714568
61	0x3d768d07	0.060193088
62	0xbe6ef7e8	-0.23336756
63	0xbd232fc7	-0.039840486
64	0x3df1f3bc	0.11814067
65	0x3d9d1b6c	0.07671246
66	0xbdc4bc79	-0.09606261
67	0xbda767a8	-0.08174068
68	0xbdc79b8e	-0.097464666
69	0xbdcb4883	-0.0992594
70	0x3dd5b253	0.10434403
71	0xbe0afde0	-0.13573408
72	0x3dd06fb4	0.10177556
73	0x3d9bac4d	0.07601223
74	0xbd579e5b	-0.052641254
75	0x3bab9912	0.0052367533
76	0xbda5a936	-0.08088915
77	0xbdfbf0de	-0.12301801
78	0xbda0d38f	-0.078528516
79	0xbb9ffbe1	-0.004882321
80	0xbd7629e8	-0.06009856
81	0x3de7e6c9	0.11323316
82	0xbe0320f1	-0.12805535
83	0xbd6ba2a3	-0.05752815
84	0x3c0c19d4	0.00855108
85	0x3d936576	0.071970865
86	0xbd4ff040	-0.05076623
87	0xbcfceab1	-0.030873628
88	0xbd2d928e	-0.042376094
89	0xbc029b84	-0.007971648
90	0xbde67710	-0.11253178
91	0xbcce27db	-0.025165489
92	0xbd1f6a73	-0.038919877
93	0xbdd69bc7	-0.10478931
94	0x3c703bed	0.014662725
95	0x3c608317	0.013703129
96	0xbdf6ec85	-0.12056831
97	0xbddb898e	-0.10719596
98	0xbc2e2026	-0.010627782
99	0xbde224f2	-0.11042203
100	0xbc4796c7	-0.012181944
101	0x3dc11d11	0.09429372
102	0xbe07726d	-0.13227244
103	0xbdfd3dc4	-0.123652965
104	0x3d8f3fdd	0.06994603
105	0x3c91733a	0.01775514
106	0x3b851945	0.0040618503
107	0xbcb7c636	-0.022433382
108	0x3cd1bd3c	0.02560293
109	0xbc6f7498	-0.0146152
110	0xbdf9063f	-0.121593945
111	0x3d4e9f6b	0.050445
112	0xbd66343d	-0.056202162
113	0x3d2ccfc3	0.042190325
114	0xbe1484cc	-0.14503783
115	0xbd62dd99	-0.055387113
116	0x3d24fa70	0.0402779
117	0xbbd4425c	-0.006477637
118	0xbd8bb004	-0.06820682
119	0xbd286903	-0.041115772
120	0x3d9c563f	0.07633638
121	0xbd57b970	-0.05266708
122	0x3cd7a589	0.02632405
123	0xbdb57dfb	-0.088619195
124	0x3d4ce5e3	0.050023925
125	0xbd7b5c01	-0.06136704
126	0xbbf1f224	-0.0073836017
127	0x3d9fb8cd	0.0779892
128	0xbddc6685	-0.107617415
129	0xbcd228f4	-0.025654294
130	0xbdf7eba4	-0.12105492
131	0xbdb100ea	-0.086427525
132	0x3d898cf1	0.067163356
133	0xbd0619e9	-0.032739554
134	0x3d67f557	0.05663046
135	0x3d82f2f0	0.06393993
136	0x3dbaf840	0.09129381
137	0x3d66f948	0.056390077
138	0xbcb150a5	-0.0216449
139	0x3d9bfe08	0.07616812
140	0xbde23c58	-0.11046666
141	0x3d70c410	0.05878073
142	0xbe27f597	-0.16402279
143	0xbe12b6ac	-0.14327496
144	0x3db39fc4	0.08770707
145	0xbd92414a	-0.07141359
146	0xbd618555	-0.055058796
147	0x3dad387d	0.0845804
148	0xbc4a1406	-0.0123338755
149	0xbb034ffd	-0.002003669
150	0xbba4bd54	-0.0050274525
151	0xbdb5a6a3	-0.08869674
152	0x3c534c82	0.012896659
153	0xbd31fc59	-0.043453548
154	0x3dc9183e	0.09819077
155	0xbd8888fa	-0.06666751
156	0xbde570d6	-0.11203162
157	0x3d88b3b7	0.06674903
158	0xbdc6bb04	-0.09703639
159	0x3db356da	0.087568
160	0x3d819f78	0.063292444
161	0xbd8f9afc	-0.07011983
162	0xbcee0b68	-0.029058173
163	0x3c9f9b88	0.019483343
164	0xbdff14dd	-0.12455151
165	0xbca91cc0	-0.020643592
166	0x3d649e09	0.055814777
167	0x3c052540	0.008126557
168	0x3c90b849	0.017665999
169	0xbd681850	-0.05666381
170	0x3dc3b620	0.09556222
171	0xbde6fd6c	-0.11278805
172	0x3cce2b10	0.025167018
173	0x3cdae2ba	0.02671944
174	0x3d1cd14b	0.038285535
175	0xbd6e466d	-0.058172632
176	0xbdab7ab6	-0.08373015
177	0x3ce4e2bb	0.027940145
178	0xbe1367a1	-0.14395
179	0x3cd3faf6	0.025876503
180	0xbd81b01b	-0.063324176
181	0x3dad839e	0.084723696
182	0xbd90cd3b	-0.070703946
183	0x3da2195a	0.07914992
184	0xbe09defe	-0.13463971
185	0x3d2944f0	0.04132551
186	0x3b9894d8	0.0046564154
187	0xbcf03268	-0.02932091
188	0xbd7b7966	-0.06139507
189	0xbe11de73	-0.14245014
190	0xbde5ec94	-0.11226764
191	0xbd7b49a4	-0.061349526
192	0x3dc50b7d	0.09621332
193	0xbd97b93e	-0.07408379
194	0x3d1a68ee	0.037697725
195	0x3dba3d1b	0.09093686
196	0xbd724439	-0.059147093
197	0xbd6f995f	-0.058495875
198	0x3cac6513	0.02104429
199	0x3d6235d8	0.05522713
200	0x3e0b3bf0	0.13597083
201	0x3dee57e0	0.116378546
202	0x3d0d0edb	0.034437995
203	0x3d46b04d	0.048507977
204	0x3dc94470	0.098275065
205	0xbd29675e	-0.041358344
206	0xbd91fae5	-0.071279325
207	0x3c4d0db9	0.012515479
208	0x3cd32b95	0.025777617
209	0x39e36ba1	0.00043377004
210	0x3c635504	0.01387525
211	0x3d04b9ec	0.03240387
212	0x3d82ab87	0.063803725
213	0xbd1a6a37	-0.03769895
214	0xbdb4c3c9	-0.088264056
215	0x3e17c1b8	0.14819992
216	0x3e1cbc99	0.1530632
217	0x3df7ea27	0.12105208
218	0x3e177269	0.14789738
219	0x3d7fb3cb	0.062427323
220	0x3b5da42d	0.003381978
221	0xbda6e01a	-0.08148213
222	0xbd2cec84	-0.042217746
223	0x3cc80c8b	0.024420043
224	0xbdb47c73	-0.08812799
225	0xbd87ec67	-0.06636887
226	0xbccdd24c	-0.025124691
227	0x3d97f354	0.07419458
228	0x3e38d794	0.18050987
229	0xbcbaf582	-0.022822145
230	0x3d1f252d	0.038853813
231	0xbdbc3a8d	-0.09190855
232	0xbd19c33f	-0.037539717
233	0xbd1c282f	-0.03812426
234	0x39db9020	0.00041878317
235	0x3beb2722	0.007176296
236	0x3ca64de9	0.020300822
237	0x3dbbafd2	0.091643944
238	0x3d954079	0.07287688
239	0xbd99fefe	-0.07519339
240	0x3d99ef71	0.07516373
241	0xbb9f171c	-0.00485505
242	0xbaa4b5ab	-0.0012566348
243	0x3d6233e1	0.055225257
244	0xbccbd35c	-0.024881057
245	0x3de7451b	0.11292478
246	0x3e2aef11	0.16692759
247	0x3e0d94d7	0.13826309
248	0x3dbdc1db	0.092654906
249	0x3dced24c	0.10098705
250	0x3c83dc18	0.01609616
251	0xbc60e492	-0.01372637
252	0xbdd5cf7b	-0.104399644
253	0x3d84cb94	0.06484142
254	0xbd58f0f3	-0.052964162
255	0xbd1cab3a	-0.038249232

network.3.bias f4 [32]
0	0xbde0ebfc	-0.109825104
1	0x3c503f1d	0.01271036
2	0xbdac16db	-0.08402797
3	0xbd3882dc	-0.045046672
4	0x3dcd56d3	0.10026326
5	0x3e073bf1	0.1320646
6	0x3dd99b89	0.10625369
7	0x3e6b6dcf	0.22991107
8	0x3e34457e	0.17604634
9	0x3b05a598	0.002039289
10	0xbb9fca44	-0.004876407
11	0x3d3d36b5	0.04619475
12	0x3d994029	0.07482941
13	0x3dcd4a87	0.100239806
14	0x3d9db46b	0.077004276
15	0xbd7a7e8f	-0.061155852
16	0xbbefdc5a	-0.007319969
17	0x3d84c321	0.064825304
18	0x3de608b8	0.11232132
19	0xbdd46d78	-0.10372442
20	0x3d30b2ee	0.04313939
21	0x3c863ba9	0.01638587
22	0xbda23340	-0.079199314
23	0xbe10eb46	-0.1415225
24	0xbe038726	-0.12844524
25	0x3e36bc14	0.17845184
26	0xbdc0d1e5	-0.09415034
27	0x3df958e3	0.12175157
28	0x3e4c4102	0.19946674
29	0x3de2e559	0.11078901
30	0xbd6757c2	-0.056480177
31	0xbe0bdbfc	-0.13658136

network.6.weight f4 [2, 32]
0	0x3defeb6b	0.11714824
1	0x3e1d4219	0.15357246
2	0x3e02ff7b	0.1279277
3	0xbcb0050e	-0.021486785
4	0xbb8957c8	-0.0041913725
5	0xbd9266bb	-0.071485005
6	0x3d50ea22	0.051004536
7	0xbb50d2e5	-0.0031863984
8	0xbb92a6be	-0.0044754436
9	0xbca44787	-0.020053638
10	0xbd749984	-0.059716716
11	0x3c4854ac	0.012227219
12	0xbb954f78	-0.0045565926
13	0xbac46076	-0.0014982361
14	0xbc9858ba	-0.018596996
15	0xbac70a9a	-0.0015185655
16	0x3d58da6d	0.052942682
17	0x3dd97b89	0.106192656
18	0xbbfa1a27	-0.007632512
19	0x3dd1d1b8	0.10245079
20	0xbb0d911f	-0.0021601391
21	0x3d3e8fcd	0.046523858
22	0x3df13673	0.117779635
23	0xbdf02c8d	-0.117272474
24	0x3cf48ba7	0.029851748
25	0xbb504972	-0.0031782058
26	0xbdc2c5cb	-0.09510382
27	0xbd11ff13	-0.03564365
28	0x3b3471e0	0.0027533695
29	0xbb83a289	-0.0040171784
30	0x3e13b3bb	0.1442403
31	0xbd9fbd3c	-0.077997655
32	0xbdafbb39	-0.08580632
33	0x3d827e10	0.06371701
34	0x3dc996ff	0.09843253
35	0xbe7dbb3a	-0.24778453
36	0xbe88b845	-0.26703086
37	0xbe4ea4cc	-0.20180053
38	0xbe1de176	-0.15418038
39	0xbe83720b	-0.25672945
40	0xbe6e0108	-0.23242581
41	0xbeb21742	-0.3478337
42	0xbe3da846	-0.18521222
43	0x3d883890	0.066514134
44	0xbe2c68c4	-0.1683684
45	0xbe69465f	-0.2278075
46	0xbe4d3f54	-0.20043689
47	0x3beba30c	0.0071910676
48	0xbdd37ce7	-0.103265576
49	0xbde06fbf	-0.10958814
50	0xbe961c5d	-0.29318514
51	0x3dc3d233	0.09561577
52	0xbe2d04cb	-0.1689636
53	0xbe4b4c76	-0.19853386
54	0xbdc20c67	-0.09475022
55	0x3de473db	0.1115491
56	0xbc138211	-0.009003178
57	0xbe8ca6cc	-0.27471006
58	0x3d7c554e	0.06160479
59	0xbe57698c	-0.21036357
60	0xbe8568a0	-0.26056385
61	0xbe76358b	-0.24043863
62	0x3de7cf91	0.11318887
63	0x3d80a924	0.06282261

network.6.bias f4 [2]
0	0x3e12268e	0.1427252
1	0xbe8ac3ae	-0.27102417

exp_avg f4 [64, 15]
0	0xba8afe99	-0.001060444
1	0xba6b9f63	-0.0008988289
2	0xba9f906c	-0.0012173778
3	0xbaad7567	-0.0013233841
4	0x3bcc1b7a	0.0062288614
5	0xbb9c20d3	-0.004764655
6	0xba22bbc6	-0.000620779
7	0x3a4855d6	0.0007642185
8	0x3b350852	0.0027623367
9	0xbb5bbcfe	-0.0033529396
10	0x3c363997	0.011122129
11	0xbaef9b37	-0.001828051
12	0x00000000	0.0
13	0x3b1f908d	0.0024347634
14	0xb99b72d8	-0.0002964947
15	0xbb38f564	-0.0028222436
16	0xbb394a0c	-0.0028272895
17	0xbb3a25a1	-0.0028403776
18	0xbb32a297	-0.0027257556
19	0xbb9537f6	-0.00455379
20	0xb961d0c9	-0.0002153545
21	0x3a46071b	0.00075541594
22	0x3a562643	0.00081691536
23	0x3a85c957	0.0010207099
24	0xbb854d1d	-0.0040680305
25	0xbb8b5e8f	-0.0042532156
26	0x3a0c868d	0.0005360626
27	0x00000000	0.0
28	0x396d8de1	0.00022654935
29	0x3abae25a	0.0014258132
30	0xbb898bd0	-0.004197575
31	0xbb761670	-0.0037549995
32	0xbb8ade7f	-0.0042379494
33	0xbb8b7b53	-0.0042566448
34	0xbbba6dd3	-0.0056893616
35	0xbb43dc82	-0.0029886072
36	0xb92fff31	-0.00016784367
37	0x3a6443a7	0.0008707591
38	0xbb021b5b	-0.001985273
39	0x3c049ce1	0.0080940435
40	0x3b9276a5	0.00446971
41	0xbba4f1d4	-0.005033711
42	0x00000000	0.0
43	0x3b4f2a20	0.0031610802
44	0xbb6f0b0b	-0.0036475088
45	0xbbea74d5	-0.0071550407
46	0xbbe4cf59	-0.0069827256
47	0xbbe64011	-0.0070266803
48	0xbbe3a0ea	-0.0069466727
49	0xbc52854c	-0.012849163
50	0x39b4b9d0	0.00034470716
51	0x3bb9c83d	0.005669622
52	0x3bb08f90	0.0053882077
53	0xbbbed58b	-0.005823796
54	0x3b3be26c	0.0028668894
55	0xbbfed9ef	-0.0077774446
56	0xbb2d6558	-0.002645811
57	0x00000000	0.0
58	0xbbf1657d	-0.0073668347
59	0xb9d1fc17	-0.00040051408
60	0xb9d47a89	-0.00040527087
61	0xb9d98f9b	-0.0004149646
62	0xb9dfc574	-0.0004268099
63	0xb9e28d3d	-0.0004321131
64	0xba3db729	-0.0007237071
65	0xbb2f0505	-0.0026705873
66	0xbaab4ad1	-0.0013068562
67	0xba567450	-0.0008180784
68	0x39364caf	0.0001738544
69	0x3861bdac	5.3820826e-05
70	0x3a61036e	0.000858358
71	0xbb32a1b9	-0.0027257039
72	0x00000000	0.0
73	0xb9a39c89	-0.0003120641
74	0xbb45b7f2	-0.0030169454
75	0xbb89c1fc	-0.004204033
76	0xbb86c8f8	-0.004113313
77	0xbb83706a	-0.0040112035
78	0xbb800171	-0.003906422
79	0xbb867884	-0.004103722
80	0x3b43ecdf	0.0029895825
81	0x3a21c8ef	0.0006171604
82	0xb9dd473c	-0.00042205479
83	0xbb4c41e8	-0.0031167213
84	0x3b82549a	0.0039773704
85	0xbbcc63d1	-0.006237485
86	0x3b220512	0.002472226
87	0x00000000	0.0
88	0xbb60fd0b	-0.0034330513
89	0xba2c5ea4	-0.0006575382
90	0xbc2a31f6	-0.010387888
91	0xbc266500	-0.010155916
92	0xbc2def7a	-0.010616178
93	0xbc2e2304	-0.010628466
94	0x3b1d3d72	0.0023992923
95	0xbc052ec2	-0.008128824
96	0xbbba01cc	-0.0056764837
97	0xbb483f55	-0.0030555327
98	0x3b4ab4fa	0.0030930624
99	0xbb295f12	-0.002584402
100	0x3c9a015f	0.018799482
101	0xb96711a9	-0.00022036456
102	0x00000000	0.0
103	0x3c04a872	0.008096801
104	0x3a7e69ce	0.0009705097
105	0xbb5e5416	-0.003392463
106	0xbb59d786	-0.0033240034
107	0xbb5dc3c5	-0.0033838612
108	0xbb5d478f	-0.0033764576
109	0x3ac4621d	0.0014982853
110	0x3b31b64d	0.0027116716
111	0x3b8e6153	0.004345098
112	0x3b863140	0.0040952265
113	0x3ba57bf2	0.005050176
114	0x3bb6cc3d	0.0055785463
115	0x3c055a83	0.008139255
116	0x3a0b9907	0.0005325232
117	0x00000000	0.0
118	0x3b66dcd1	0.0035226832
119	0x39c5d2c8	0.00037731812
120	0x3af8f1ae	0.0018992925
121	0x3b15b91c	0.002284593
122	0x3ae9414f	0.0017795953
123	0x3aeb7c8c	0.0017966195
124	0xbb05486d	-0.0020337359
125	0x3a8c5970	0.0010707807
126	0x3b905f55	0.0044058957
127	0x3b85e88b	0.004086559
128	0x3bcd3f11	0.0062636216
129	0xb96e37ea	-0.00022718278
130	0x3a2ad4e2	0.00065167074
131	0x3b17d32e	0.0023166644
132	0x00000000	0.0
133	0x3b1abddf	0.0023611707
134	0x3a9e8442	0.0012093859
135	0x3ba40e43	0.005006583
136	0x3ba72109	0.0051003736
137	0x3ba0291c	0.004887713
138	0x3ba259d4	0.004954556
139	0x3ba2622d	0.004955551
140	0xbb792041	-0.003801361
141	0x3b481e14	0.0030535506
142	0x3b4a31d4	0.0030852454
143	0x3b96100d	0.00457955
144	0x39fe8aa1	0.00048549942
145	0x3bcaef1a	0.006193054
146	0x3b5d9db1	0.0033815915
147	0x00000000	0.0
148	0x3b55c2ae	0.003261726
149	0xbaca600a	-0.0015439999
150	0xbbec68a4	-0.0072146226
151	0xbbebc2de	-0.007194861
152	0xbbe95d18	-0.0071216933
153	0xbbe67134	-0.007032538
154	0xbbe8fab1	-0.007109963
155	0x3ad40725	0.0016176446
156	0x3b41b5d7	0.0029557848
157	0x3b343d5b	0.002750239
158	0x3aa5c95e	0.0012648513
159	0xbba2f36c	-0.004972866
160	0xbb56ca6f	-0.0032774468
161	0x38cf1d8a	9.876031e-05
162	0x00000000	0.0
163	0xba9cf547	-0.0011974954
164	0x3a6dc4fe	0.00090701866
165	0xba641a89	-0.0008701464
166	0xba6dd0ea	-0.0009071963
167	0xba7fc8e3	-0.00097574125
168	0xba7fc10f	-0.0009756246
169	0xbab5d16f	-0.001387162
170	0xb9c8e5df	-0.0003831824
171	0x3a5bd9b0	0.0008386625
172	0x3a12166c	0.0005572799
173	0x3b16fdd3	0.0023039475
174	0xb9e79151	-0.00044168023
175	0x3ad19407	0.001598955
176	0x3a29b555	0.0006473859
177	0x00000000	0.0
178	0x3b79f263	0.0038138859
179	0xb9bf2759	-0.00036459675
180	0x3c366773	0.011133063
181	0x3c3b107a	0.011417503
182	0x3c2dc8d2	0.010606961
183	0x3c2ee457	0.010674558
184	0x3ca60538	0.02026616
185	0xbc53d488	-0.012929089
186	0xbc05ba6f	-0.008162125
187	0xbbe96466	-0.007122564
188	0x3c37fd67	0.011229849
189	0xbae7bf65	-0.0017680941
190	0x3cfbf3a5	0.030755827
191	0x3be8afc5	0.0071010315
192	0x00000000	0.0
193	0x3c35084d	0.011049342
194	0x39b40a62	0.0003434001
195	0x3b88d017	0.004175197
196	0x3b8af467	0.004240561
197	0x3b84060d	0.0040290416
198	0x3b8526ca	0.004063462
199	0x3b95ef82	0.0045756707
200	0xbaffc96d	-0.0019514986
201	0x385c1379	5.2470223e-05
202	0x3a594cc3	0.00082893315
203	0x3bb9c50b	0.0056692413
204	0x3bc3940f	0.0059685777
205	0x3c263e1d	0.010146645
206	0x39f87039	0.00047385858
207	0x00000000	0.0
208	0x3bdd9453	0.0067620664
209	0xba9254e7	-0.0011164219
210	0xb8cdb268	-9.8083925e-05
211	0x37c36915	2.3294744e-05
212	0xb91e93c6	-0.00015123104
213	0xb92c2957	-0.00016418599
214	0xba207836	-0.00061214285
215	0xbb35724e	-0.002768654
216	0xba2b3028	-0.0006530308
217	0xba5b80ef	-0.00083733996
218	0xb982f412	-0.0002497738
219	0xbb8c002e	-0.0042724824
220	0xba21f1be	-0.0006177685
221	0x3a233c57	0.0006226948
222	0x00000000	0.0
223	0xbb871186	-0.004121962
224	0x3a1fa7d3	0.00060903764
225	0xbb0a9743	-0.0021147288
226	0xbaeef1b8	-0.0018229997
227	0xbb104073	-0.002201107
228	0xbb146fff	-0.0022649763
229	0x3b94be6e	0.0045393026
230	0xbbc21867	-0.005923319
231	0xbbc81407	-0.006105903
232	0xbb91f592	-0.004454323
233	0xba0b99a4	-0.00053253234
234	0x3ad1e39a	0.0016013265
235	0x3c63689a	0.013879919
236	0x3a432862	0.0007444677
237	0x00000000	0.0
238	0x3baf36d7	0.0053471136
239	0x3a86a83d	0.0010273528
240	0xbc0c9054	-0.008579332
241	0xbc0a14ae	-0.008427782
242	0xbc0edb27	-0.008719242
243	0xbc0e7a7a	-0.008696193
244	0x3b1855ef	0.002324458
245	0xbbac8b98	-0.0052656643
246	0xbbf3c4c6	-0.0074392287
247	0xbbbdd997	-0.005793761
248	0x3bae59f5	0.0053207823
249	0xb9a5ae4e	-0.0003160112
250	0x3ca3c545	0.019991526
251	0x3a6f354e	0.00091250695
252	0x00000000	0.0
253	0x3bbc2cc8	0.005742643
254	0x3a4cdd4a	0.0007814957
255	0xbbb35ab0	-0.0054734573

exp_avg_sq f4 [64, 15]
0	0x386899eb	5.5456458e-05
1	0x386879f5	5.542669e-05
2	0x386852e9	5.5390326e-05
3	0x386739b0	5.5128417e-05
4	0x397a00ad	0.0002384211
5	0x3869263b	5.5587134e-05
6	0x38ad5e34	8.2668295e-05
7	0x38b80937	8.77552e-05
8	0x38f03af9	0.00011455076
9	0x3846526e	4.7283647e-05
10	0x3a378196	0.0007000206
11	0x38914841	6.927597e-05
12	0x00000000	0.0
13	0x38964541	7.165457e-05
14	0x36a58c74	4.933734e-06
15	0x37e43ad3	2.720711e-05
16	0x37e5862d	2.7361408e-05
17	0x37e68ba1	2.7483156e-05
18	0x37e4ce2a	2.727572e-05
19	0x38da820f	0.00010419275
20	0x377f0499	1.5200255e-05
21	0x38388e95	4.400181e-05
22	0x3854e8ee	5.076167e-05
23	0x3885c207	6.3780746e-05
24	0x37fecb9f	3.0373978e-05
25	0x395fae4e	0.00021331871
26	0x37867d18	1.6032296e-05
27	0x00000000	0.0
28	0x3874b790	5.834509e-05
29	0x3960e94f	0.00021449219
30	0x39152f29	0.00014227316
31	0x3915f403	0.00014300649
32	0x39154c0c	0.00014238077
33	0x391475d6	0.00014158277
34	0x3a1e2637	0.0006032916
35	0x3896abcf	7.184559e-05
36	0x387d513d	6.039556e-05
37	0x38428417	4.6376223e-05
38	0x384de26b	4.9086677e-05
39	0x3925cf18	0.00015812775
40	0x39dae042	0.00041747285
41	0x38cf8a97	9.8963435e-05
42	0x00000000	0.0
43	0x37deb1cd	2.6547257e-05
44	0x38439e8c	4.663928e-05
45	0x3913b23a	0.00014085407
46	0x3914c1c7	0.00014186568
47	0x3912b1f0	0.00013989932
48	0x39125396	0.00013954783
49	0x39e2cf9b	0.00043260757
50	0x389ae70c	7.386328e-05
51	0x385d4899	5.2758118e-05
52	0x386a760b	5.5899884e-05
53	0x384cd865	4.8838923e-05
54	0x3925dd95	0.00015818172
55	0x393fe173	0.00018299166
56	0x38c71fa6	9.4949544e-05
57	0x00000000	0.0
58	0x3816265b	3.5798508e-05
59	0x35d6e97e	1.6012198e-06
60	0x371e2d2d	9.428052e-06
61	0x371da485	9.396234e-06
62	0x371e91cf	9.451483e-06
63	0x371dc534	9.403844e-06
64	0x370148b7	7.705929e-06
65	0x3728b644	1.0056017e-05
66	0x38398097	4.4227196e-05
67	0x385a4a56	5.204448e-05
68	0x3873b251	5.8101785e-05
69	0x37521ada	1.2523227e-05
70	0x38b596cd	8.6588414e-05
71	0x384500df	4.696927e-05
72	0x00000000	0.0
73	0x38805b07	6.120471e-05
74	0x3a122068	0.0005574287
75	0x38e06595	0.000107000735
76	0x38e175df	0.00010750791
77	0x38e15346	0.00010744347
78	0x38df1349	0.00010637061
79	0x393767e2	0.0001749094
80	0x38d95aa4	0.000103642495
81	0x38420e9e	4.6266818e-05
82	0x382c5a99	4.109237e-05
83	0x3869225e	5.5583536e-05
84	0x38a890a6	8.037807e-05
85	0x396bf420	0.0002250229
86	0x388646d5	6.4028114e-05
87	0x00000000	0.0
88	0x3830773d	4.207272e-05
89	0x3691f7c2	4.3501796e-06
90	0x38c6ff09	9.48888e-05
91	0x38c69777	9.469588e-05
92	0x38c685ae	9.4662755e-05
93	0x38c43aef	9.3569855e-05
94	0x39da93e0	0.00041690376
95	0x38e65518	0.000109831046
96	0x3917feca	0.00014495399
97	0x390b34c7	0.00013275734
98	0x391df548	0.00015064061
99	0x38937e66	7.03305e-05
100	0x3a4ae717	0.00077401235
101	0x3926bb25	0.0001590071
102	0x00000000	0.0
103	0x395bf5d4	0.00020977046
104	0x3af1132f	0.0018392558
105	0x3752c0fb	1.2561907e-05
106	0x3751d5a1	1.250711e-05
107	0x3753ad1b	1.2616884e-05
108	0x37510dce	1.2460585e-05
109	0x388badee	6.6604334e-05
110	0x378d5552	1.684824e-05
111	0x3834122f	4.293228e-05
112	0x385233fb	5.0116312e-05
113	0x387a1565	5.962457e-05
114	0x3782de7d	1.5600812e-05
115	0x38b63301	8.6879365e-05
116	0x387a5b77	5.9689828e-05
117	0x00000000	0.0
118	0x38a63745	7.9257916e-05
119	0x3a5dad76	0.00084563287
120	0x38eecbd9	0.00011386694
121	0x38eedf49	0.000113903145
122	0x38ee9289	0.00011376019
123	0x38ee0bd2	0.00011350926
124	0x39ce3fd8	0.0003933895
125	0x3848d1dd	4.7879166e-05
126	0x382eb4ff	4.16534e-05
127	0x38197a03	3.6591675e-05
128	0x383fa9d2	4.5696106e-05
129	0x3909edf2	0.0001315398
130	0x37c1a1b4	2.3082692e-05
131	0x3670023a	3.5764083e-06
132	0x00000000	0.0
133	0x36fde99f	7.5671846e-06
134	0x3582951c	9.729151e-07
135	0x38c23982	9.2613525e-05
136	0x38c1dbb6	9.2438815e-05
137	0x38c2f704	9.296651e-05
138	0x38c26414	9.269282e-05
139	0x38bfec02	9.1515496e-05
140	0x3886ab01	6.42147e-05
141	0x38cbed16	9.723955e-05
142	0x38d56d13	0.00010176948
143	0x39010053	0.0001230252
144	0x392e1094	0.00016600109
145	0x39e65d01	0.00043938312
146	0x38bbbefa	8.952427e-05
147	0x00000000	0.0
148	0x388e418a	6.783295e-05
149	0x38ad821c	8.2735176e-05
150	0x38d50b1b	0.000101587
151	0x38d26c9a	0.00010033809
152	0x38d3cb83	0.00010099171
153	0x38d14d3b	9.980282e-05
154	0x397f2b30	0.00024334784
155	0x3895cebe	7.1433824e-05
156	0x39535319	0.00020153484
157	0x396d2d42	0.00022618941
158	0x3992f9ec	0.00028033496
159	0x38b346b1	8.5485524e-05
160	0x3a074680	0.00051603466
161	0x394d5aaf	0.00019584106
162	0x00000000	0.0
163	0x399f957b	0.00030438215
164	0x3b30cb96	0.0026976815
165	0x3763600d	1.3552618e-05
166	0x3762c6ad	1.35169075e-05
167	0x3763b291	1.357183e-05
168	0x3762bd59	1.3514736e-05
169	0x372ef8f4	1.0429172e-05
170	0x37b0ebf4	2.109071e-05
171	0x389bc93e	7.42846e-05
172	0x38be3551	9.069837e-05
173	0x38e6bf62	0.000110029025
174	0x37462992	1.18113985e-05
175	0x3942e4c9	0.00018586511
176	0x3880ffbf	6.151152e-05
177	0x00000000	0.0
178	0x38f7d938	0.00011818338
179	0x3a7b7829	0.00095927954
180	0x39345fa0	0.00017201761
181	0x39337afb	0.00017116584
182	0x3935393b	0.00017282825
183	0x39341072	0.00017172264
184	0x39f7d6af	0.00047271463
185	0x3933a200	0.0001713112
186	0x398add91	0.0002648649
187	0x3970b5b0	0.00022955867
188	0x39504988	0.00019863818
189	0x399e9fe2	0.0003025523
190	0x3ad5d3d0	0.0016313735
191	0x393639d9	0.00017378422
192	0x00000000	0.0
193	0x39194026	0.00014615114
194	0x37103124	8.59451e-06
195	0x38fc3bcd	0.00012027435
196	0x38f74faa	0.000117927164
197	0x38fa3e66	0.000119325516
198	0x38f591f3	0.000117096955
199	0x393ca9b4	0.00017992296
200	0x38f619a3	0.00011734969
201	0x3a3248c0	0.0006801002
202	0x3a60cc5f	0.00085753755
203	0x3a855c5b	0.0010174619
204	0x3870d985	5.742304e-05
205	0x3a6c9522	0.0009024908
206	0x3a995391	0.0011697878
207	0x00000000	0.0
208	0x3ad25796	0.0016047831
209	0x3c95baf0	0.018277615
210	0x38432104	4.652237e-05
211	0x3843db16	4.6695663e-05
212	0x3844bad1	4.6904028e-05
213	0x384493bb	4.6867626e-05
214	0x38c5d381	9.433088e-05
215	0x38110588	3.4575845e-05
216	0x37cc7830	2.4374662e-05
217	0x37bedfa5	2.2753908e-05
218	0x3808297d	3.2463566e-05
219	0x38390f68	4.4121785e-05
220	0x378df44f	1.6922275e-05
221	0x3624068a	2.444171e-06
222	0x00000000	0.0
223	0x376397b1	1.3565573e-05
224	0x34b6e474	3.4066363e-07
225	0x389621bd	7.1588416e-05
226	0x38973ab9	7.211179e-05
227	0x38937427	7.031141e-05
228	0x38921fe0	6.96776e-05
229	0x39c15d30	0.0003688126
230	0x389038a1	6.877003e-05
231	0x38aa6ee3	8.126886e-05
232	0x3868cc99	5.5503657e-05
233	0x3819f3e9	3.67052e-05
234	0x388f0c9c	6.82112e-05
235	0x39d68efa	0.00040923787
236	0x383fe567	4.5751596e-05
237	0x00000000	0.0
238	0x383eca44	4.5487905e-05
239	0x3733534c	1.06886255e-05
240	0x38d1a84b	9.9972436e-05
241	0x38d271ab	0.000100347526
242	0x38ce2d4a	9.831281e-05
243	0x38cc75b1	9.7494e-05
244	0x39b9af66	0.00035416632
245	0x38cfef5a	9.915112e-05
246	0x38c525ee	9.400757e-05
247	0x38984894	7.2614435e-05
248	0x38915fb7	6.931967e-05
249	0x386a5b96	5.5875244e-05
250	0x3a0e1e1e	0.0005421358
251	0x38352f51	4.319783e-05
252	0x00000000	0.0
253	0x38a84ea8	8.025515e-05
254	0x39da3941	0.00041622858
255	0x38fc00e7	0.000120164645

exp_avg f4 [64]
0	0x399ae976	0.0002954711
1	0xb99400fe	-0.000282295
2	0xbbb871ab	-0.0056287847
3	0xbbab2ebc	-0.005224077
4	0x3a3c24de	0.00071771245
5	0xba716f67	-0.00092100207
6	0xbc0b40f8	-0.0084993765
7	0xbb5c65b5	-0.0033629958
8	0xbc3599dc	-0.011084046
9	0xbc07986e	-0.008276088
10	0xbbcbce74	-0.0062196795
11	0x3b5ee33c	0.0034009954
12	0xbb5052c9	-0.0031787625
13	0x3b372b54	0.002794941
14	0xbbc2324a	-0.005926405
15	0xbaaba26e	-0.0013094672
16	0xbb7ddd52	-0.0038736654
17	0xbbd964b8	-0.006634321
18	0x395b3c2f	0.00020907888
19	0xba39853f	-0.0007077045
20	0xbba253a9	-0.0049538207
21	0xbc754f17	-0.01497247
22	0xba969903	-0.0011489693
23	0xbc069e1e	-0.008216409
24	0xbc2262f3	-0.009911287
25	0xbbae7d06	-0.0053249625
26	0xbb4d48ea	-0.0031323978
27	0xbbaef351	-0.005339064
28	0x3ad9c102	0.0016613307
29	0xbb20cf87	-0.0024537758
30	0xbbcb8379	-0.006210741
31	0xbc3972dd	-0.011318889
32	0xbc0d62ef	-0.008629545
33	0xbbe1563c	-0.006876735
34	0xbb3b3f0e	-0.002857152
35	0x3ad70dc9	0.0016407307
36	0xbc2a0eee	-0.010379536
37	0xbc341b44	-0.010992829
38	0x3a64ba88	0.0008725305
39	0xbae8bb72	-0.0017756058
40	0x3b6d00da	0.0036163838
41	0x3ac3ee39	0.0014948315
42	0xbb4588e9	-0.003014142
43	0xbb2243a6	-0.002475956
44	0xbb87094d	-0.004120982
45	0xbc204104	-0.009781126
46	0xbbf5d4cb	-0.0075021735
47	0xbb68e3b6	-0.0035536117
48	0xbbfa5eec	-0.00764071
49	0xbb1a77c9	-0.0023569933
50	0x3ac79b33	0.0015228748
51	0xbb538e47	-0.0032280849
52	0xba9b1399	-0.0011831402
53	0xbc39a0e3	-0.011329862
54	0xbc94fd5c	-0.018187217
55	0xbbdb4373	-0.00669139
56	0x3c16210d	0.009163153
57	0xbc060b9b	-0.008181478
58	0xbc39d56f	-0.01134239
59	0xbc0d1a81	-0.008612276
60	0xbb8e3b2c	-0.00434055
61	0xbbec19af	-0.00720521
62	0x3b08ab50	0.0020854063
63	0xbc35e4b0	-0.011101887

exp_avg_sq f4 [64]
0	0x3841bdec	4.6191664e-05
1	0x377dba70	1.51233835e-05
2	0x38cdf035	9.819904e-05
3	0x38cf5202	9.885804e-05
4	0x37398321	1.105739e-05
5	0x3894f4aa	7.102762e-05
6	0x389b718b	7.412125e-05
7	0x3783b2e9	1.5699728e-05
8	0x38ab627c	8.1722595e-05
9	0x38afcf30	8.383242e-05
10	0x38a2e68e	7.767706e-05
11	0x3780077d	1.5262276e-05
12	0x398935ca	0.00026170752
13	0x38c0b87f	9.1896385e-05
14	0x37f0281b	2.8628905e-05
15	0x3870ce41	5.7412548e-05
16	0x38964b30	7.166562e-05
17	0x38b00b05	8.3943865e-05
18	0x382770fa	3.992112e-05
19	0x37016ff6	7.715067e-06
20	0x379b402d	1.8507324e-05
21	0x3904f03b	0.00012677994
22	0x394a66e1	0.00019302547
23	0x3985e7c0	0.00025540404
24	0x38b08a4c	8.418094e-05
25	0x38cca5d8	9.758369e-05
26	0x38b80e11	8.776424e-05
27	0x38bae785	8.912295e-05
28	0x38934599	7.02247e-05
29	0x37b31ef4	2.1352877e-05
30	0x390f29be	0.00013653093
31	0x394655c6	0.00018914705
32	0x3898b602	7.2818264e-05
33	0x389d39f2	7.4971365e-05
34	0x382cc5ca	4.11922e-05
35	0x3705f13a	7.983583e-06
36	0x392ef701	0.00016685949
37	0x38ba14cd	8.8730456e-05
38	0x374b0cac	1.2102693e-05
39	0x381dadb9	3.759351e-05
40	0x3826a0cc	3.9727238e-05
41	0x3862b306	5.4049327e-05
42	0x381423ae	3.531918e-05
43	0x39258ff1	0.00015789249
44	0x386b4f60	5.610229e-05
45	0x38f54bac	0.00011696605
46	0x38244b4c	3.9170773e-05
47	0x37a13281	1.9216213e-05
48	0x390aa4ae	0.00013222054
49	0x381e415e	3.7731013e-05
50	0x38885c44	6.502171e-05
51	0x389de6c3	7.529326e-05
52	0x38d8999e	0.00010328296
53	0x38c3d666	9.3382594e-05
54	0x398a262b	0.00026349848
55	0x38fd31bf	0.00012073246
56	0x3831d9b1	4.240283e-05
57	0x388dd0f3	6.762324e-05
58	0x3948dffc	0.00019156927
59	0x39819639	0.00024716722
60	0x382728ff	3.9854083e-05
61	0x39a41b3b	0.00031300806
62	0x3813e27f	3.5258472e-05
63	0x396bec3f	0.00022499355

exp_avg f4 [32, 64]
0	0xba241815	-0.0006259692
1	0xb9e8ebdd	-0.0004442622
2	0x375c8379	1.3143633e-05
3	0x39976539	0.0002887638
4	0xba830502	-0.0009995999
5	0xb8bb7826	-8.939234e-05
6	0xba70cde1	-0.0009185952
7	0xb6216ebf	-2.4055332e-06
8	0xbaa51b8a	-0.0012596708
9	0xbb5301da	-0.0032197149
10	0xb9cc421a	-0.00038959162
11	0x3980969e	0.0002452628
12	0xbbb19c8a	-0.0054202722
13	0x3a180cd2	0.000580025
14	0x3b22e509	0.0024855754
15	0x39225f9f	0.00015485146
16	0xb81d4f8a	-3.7505793e-05
17	0xbb4b295f	-0.0031
18	0xbaf83f17	-0.0018939701
19	0x389e7b24	7.556964e-05
20	0xbb8630be	-0.004095166
21	0xbb477951	-0.00304373
22	0xb6bb7152	-5.5862265e-06
23	0x3b593307	0.0033141987
24	0x3a9d0d1c	0.0011982056
25	0x39d03bd4	0.00039717427
26	0xb90a10cc	-0.00013166963
27	0xbbda2d63	-0.0066582425
28	0x3a25462d	0.00063047075
29	0xba07e2ea	-0.0005183654
30	0x3b0921c6	0.0020924672
31	0x3bcc791b	0.006240023
32	0x38625144	5.3958283e-05
33	0xb9c87d8a	-0.00038240507
34	0x3a55afff	0.00081515306
35	0x38873d0c	6.4486725e-05
36	0xb8c9bfff	-9.620189e-05
37	0xb9cfe986	-0.00039656105
38	0xbb2e49e5	-0.0026594338
39	0x3a4fdea2	0.0007929598
40	0x379b6094	1.8522413e-05
41	0x3940a7a2	0.00018372995
42	0xb8ab20c4	-8.1600185e-05
43	0x3a2eb007	0.00066638034
44	0xbc1ca7ad	-0.009561461
45	0xbb8636d5	-0.004095892
46	0xbad7a800	-0.0016453266
47	0xbaebe98f	-0.0017998683
48	0xb91fc920	-0.00015238347
49	0x3966bfee	0.00022006009
50	0xb9921c77	-0.00027868498
51	0xb8f0e98c	-0.00011487593
52	0xba43e003	-0.000747204
53	0x3b802ef4	0.0039118472
54	0x3a78abe4	0.0009486063
55	0x3ae920d5	0.0017786274
56	0x39da26e5	0.0004160918
57	0x3b2dc705	0.002651633
58	0x3b6d0696	0.0036167256
59	0xba458e06	-0.0007536117
60	0x3a92c808	0.001119853
61	0xba9af39e	-0.0011821871
62	0x3afc97cd	0.0019271314
63	0x3c2a9a77	0.010412804
64	0x39dfa6f0	0.00042658253
65	0xbb3a854a	-0.0028460794
66	0x3b52c91e	0.0032163332
67	0xbb29b975	-0.0025897895
68	0x3a90fdb4	0.0011061938
69	0x3b7f0d56	0.003891786
70	0x3b98cece	0.004663325
71	0x3b4c643d	0.0031187676
72	0xbade899d	-0.0016978268
73	0x3ac3aec6	0.0014929406
74	0x3ab5da58	0.0013874276
75	0x3b804894	0.003914902
76	0xbb602158	-0.0034199562
77	0x3be0675d	0.0068482594
78	0xbba10c64	-0.004914807
79	0x3a9e29e3	0.0012066927
80	0x3b49e3a5	0.0030805853
81	0xbae27517	-0.0017277327
82	0xbafe6619	-0.001940909
83	0xbac47fad	-0.0014991664
84	0xb94a7ef7	-0.0001931152
85	0xba03ce69	-0.0005028011
86	0x3aab493c	0.001306809
87	0x3b419191	0.0029536227
88	0xb9bde94e	-0.00036222715
89	0xbaf11697	-0.0018393573
90	0xbb2bf253	-0.0026236966
91	0xbac03f57	-0.0014667314
92	0x3a63843f	0.0008679069
93	0x3a7765d7	0.00094374776
94	0x3af5da02	0.0018756988
95	0xbb68aa21	-0.0035501795
96	0x39e33a06	0.00043340045
97	0x3a27524e	0.0006382809
98	0x3afd9f7b	0.0019349897
99	0x37d67a4d	2.5567739e-05
100	0x3ae4b6a9	0.0017449456
101	0x37caf5ab	2.4194675e-05
102	0xba9505bc	-0.0011369507
103	0x3c04aa5e	0.008097259
104	0xba11b3e7	-0.00055581186
105	0x3a86375e	0.0010239889
106	0xba418d52	-0.0007383424
107	0x3b92eac9	0.004483555
108	0xbc22d7b9	-0.009939128
109	0xbb865e67	-0.004100609
110	0x3854c959	5.073226e-05
111	0x3acda184	0.0015688394
112	0xbb4aacdf	-0.0030925793
113	0x3a287c6a	0.00064272305
114	0xbb4cd217	-0.0031253153
115	0x3b113285	0.0022155356
116	0x3b4a77c4	0.003089414
117	0x3b6b78d6	0.0035930178
118	0xbae2c208	-0.0017300257
119	0xba2a81e4	-0.00065043406
120	0x39a410dc	0.0003129308
121	0xb98051a2	-0.00024474884
122	0x3ac33b90	0.001489507
123	0xbb169b35	-0.0022980694
124	0x3b0fb195	0.0021925915
125	0xb887ec77	-6.481347e-05
126	0x390d6703	0.00013485183
127	0xba6678a6	-0.0008791782
128	0x392011b4	0.00015265384
129	0xb92d7e2c	-0.00016545568
130	0xb47580b5	-2.2864226e-07
131	0x35838081	9.79766e-07
132	0xbbf10120	-0.0073548704
133	0x3b5032de	0.00317686
134	0x39fb2105	0.00047899052
135	0x3a922ac8	0.0011151666
136	0xb816cc9b	-3.595334e-05
137	0x392afd8e	0.0001630692
138	0xbba34c3f	-0.0049834545
139	0x3a69b65e	0.00089154195
140	0x3ad9eae8	0.0016625794
141	0x3bbe8754	0.005814472
142	0x399e28ed	0.000301666
143	0xb978968f	-0.0002370721
144	0xbba54468	-0.005043555
145	0xb5ef217e	-1.7816635e-06
146	0xbad132a5	-0.0015960528
147	0xbb9802c2	-0.0046390006
148	0xb7a45c81	-1.9593399e-05
149	0xbb3f7037	-0.0029211172
150	0x3ad711d4	0.0016408511
151	0xb7c41265	-2.3373586e-05
152	0xb422be8a	-1.5156743e-07
153	0xb87705f2	-5.8894926e-05
154	0xbae21c14	-0.00172508
155	0x39ee7302	0.00045480585
156	0xb94f8968	-0.00019792246
157	0xb87e9eb1	-6.0706112e-05
158	0xba2a12e0	-0.0006487798
159	0x35488a42	7.4707e-07
160	0xb608cf1d	-2.0386135e-06
161	0xbb86c2c3	-0.004112573
162	0xbbefd9b6	-0.0073196543
163	0x3abc7c9b	0.0014380397
164	0xb9d3be57	-0.0004038687
165	0xba84f744	-0.0010144492
166	0xbb0a3840	-0.0021090657
167	0x3b212077	0.0024586
168	0x3b28fc27	0.002578506
169	0xbbeeefa1	-0.0072917496
170	0xb7dcbb26	-2.6313191e-05
171	0x3144881f	2.859913e-09
172	0xb8d1031f	-9.966478e-05
173	0xb885805f	-6.365845e-05
174	0x3a8db877	0.0010812421
175	0xbb6d8367	-0.0036241652
176	0x3a0011b7	0.0004885452
177	0xbc31d065	-0.010852908
178	0x3943c555	0.00018670161
179	0xba144718	-0.0005656346
180	0xb9e17f16	-0.0004301003
181	0x3a448857	0.0007497123
182	0x385282d6	5.0189752e-05
183	0xbbf4179b	-0.007449103
184	0xbb691361	-0.003556453
185	0xbb1a30d9	-0.002352765
186	0xbb7eb78d	-0.003886673
187	0x3a6d819e	0.0009060147
188	0x3a79b284	0.0009525197
189	0xb4a25c85	-3.0242168e-07
190	0xba6f76e5	-0.0009134843
191	0x3b88c34a	0.004173671
192	0xbc9c0a89	-0.019047992
193	0xbbac2990	-0.005253978
194	0xbbe19eef	-0.0068854014
195	0xbc30be59	-0.01078757
196	0xbaf9735e	-0.0019031574
197	0x398bc10f	0.00026655986
198	0xbbe99b29	-0.0071290922
199	0xbb8c3221	-0.004278437
200	0xbb82fdbe	-0.0039975336
201	0x3a5f3579	0.0008514743
202	0xbc2be46c	-0.010491472
203	0x398a677a	0.00026398507
204	0xbb61be3c	-0.0034445664
205	0xbc285935	-0.010275175
206	0xbc4f61b3	-0.012657571
207	0xbbdc54d2	-0.0067239786
208	0xbc1477d6	-0.009061774
209	0xbbbcfae8	-0.005767215
210	0xbcba73e3	-0.022760337
211	0xbb820144	-0.003967436
212	0xb94697bf	-0.00018939281
213	0xbbe5ae0f	-0.007009275
214	0x3b5b48ec	0.0033460213
215	0xba4404d2	-0.0007477525
216	0xbba305ef	-0.0049750726
217	0xbc757ea1	-0.014983804
218	0xbc381636	-0.011235764
219	0x3993331a	0.00028076099
220	0xb940ab73	-0.00018374417
221	0xbba58da1	-0.005052284
222	0xbbcdcf1f	-0.0062807943
223	0xbc2772d8	-0.010220252
224	0xbbe40102	-0.006958128
225	0xbb420fb6	-0.0029611415
226	0xbae64a0c	-0.0017569675
227	0x3c0bf013	0.008541125
228	0xbbc4189b	-0.0059843785
229	0xbc16b8ab	-0.009199302
230	0x3b84c100	0.0040513277
231	0xbc680c99	-0.01416316
232	0x3a8fa37d	0.0010958757
233	0xbbf4d16a	-0.007471253
234	0xbc0008b5	-0.007814576
235	0xbc578fcb	-0.0131568415
236	0xbaa8bc29	-0.0012873459
237	0xbc463d30	-0.012099549
238	0x3bbd2e6f	0.0057733576
239	0xbb5ed50f	-0.0034001505
240	0xbb0b5493	-0.0021260127
241	0xbb8870c2	-0.0041638324
242	0xbb930d7c	-0.0044876914
243	0xbc2fb149	-0.01072342
244	0xbc7be514	-0.015374441
245	0xbb9f24ba	-0.004856673
246	0xbb818ca7	-0.0039535346
247	0xbc44ada0	-0.012004286
248	0x3c0a0cf0	0.008425936
249	0xbc0f1cab	-0.008734862
250	0xbbaf9094	-0.005357811
251	0xbc966d43	-0.018362647
252	0x3a160ca6	0.00057239307
253	0xbb38da2f	-0.002820622
254	0xbaf08cb0	-0.0018352475
255	0xbbc68e8e	-0.0060594743

exp_avg_sq f4 [32, 64]
0	0x3a995a9f	0.0011699981
1	0x39385cbb	0.00017582152
2	0x3a11f960	0.0005568471
3	0x3a4c24f6	0.000778749
4	0x389af68c	7.389215e-05
5	0x370319a5	7.814179e-06
6	0x397a8cd5	0.00023894322
7	0x38158f39	3.5657755e-05
8	0x38bdee79	9.056641e-05
9	0x38fc147c	0.00012020112
10	0x38a7aa52	7.994905e-05
11	0x3693a347	4.3999494e-06
12	0x39844ffb	0.00025236592
13	0x3a2b2916	0.00065292546
14	0x3a0d3666	0.0005386829
15	0x3a3e2985	0.00072541117
16	0x3879f1f2	5.9591555e-05
17	0x3a2e5482	0.0006650166
18	0x3afa0134	0.0019073845
19	0x367b8237	3.747771e-06
20	0x38d3b6c7	0.00010095309
21	0x3a433e8b	0.00074479793
22	0x35286a30	6.27394e-07
23	0x3a17a1be	0.00057842943
24	0x38cb41c1	9.692042e-05
25	0x3a76e52c	0.00094183045
26	0x39c59f64	0.00037693523
27	0x39a448ec	0.0003133485
28	0x376b0b69	1.4009748e-05
29	0x37a70c0d	1.9913563e-05
30	0x39ad8e7a	0.00033103285
31	0x3a289fc9	0.0006432501
32	0x3a05ec89	0.0005108794
33	0x392aa412	0.00016273584
34	0x38ebc3e1	0.000112421585
35	0x38ef2a7a	0.0001140432
36	0x375d0254	1.3173169e-05
37	0x39cbaa3c	0.00038846012
38	0x37a638fe	1.9815281e-05
39	0x3acf4cbb	0.0015815714
40	0x35bc195b	1.4014471e-06
41	0x38ae0779	8.2983584e-05
42	0x39b104bf	0.00033763607
43	0x3aecb3d4	0.0018058964
44	0x3938332d	0.00017566672
45	0x3a974ecb	0.0011543868
46	0x38ec3882	0.00011263882
47	0x389ee1a5	7.576057e-05
48	0x388992a0	6.55998e-05
49	0x39174298	0.0001442529
50	0x39923bad	0.00027891752
51	0x39b638a0	0.00034755934
52	0x3a987b90	0.0011633504
53	0x39baed9a	0.00035653712
54	0x3880c2ca	6.139798e-05
55	0x391f9f8d	0.00015222859
56	0x36e9ce81	6.9679813e-06
57	0x3a4c4a0d	0.0007793017
58	0x39ee88aa	0.0004549672
59	0x3a1701bf	0.0005760453
60	0x36a4f3b5	4.915952e-06
61	0x3982847b	0.00024894238
62	0x36b45b6d	5.3750614e-06
63	0x39822df1	0.0002482976
64	0x3a0c972b	0.0005363102
65	0x37e179d0	2.6878814e-05
66	0x373a5986	1.1107308e-05
67	0x37d4459c	2.5304784e-05
68	0x360417f8	1.9683484e-06
69	0x377619bf	1.4668737e-05
70	0x38f3e794	0.00011630278
71	0x369afb0d	4.618784e-06
72	0x379a2835	1.8376953e-05
73	0x37b29a12	2.1290998e-05
74	0x386fb720	5.715259e-05
75	0x37bd38f5	2.2557078e-05
76	0x37a4961d	1.9620225e-05
77	0x37c10002	2.3007397e-05
78	0x37920e00	1.7411076e-05
79	0x3936286f	0.00017371935
80	0x373213d4	1.0614243e-05
81	0x395e0d78	0.00021176587
82	0x381060c4	3.4422395e-05
83	0x353a8fd7	6.9499714e-07
84	0x3711d167	8.691429e-06
85	0x39a04c40	0.0003057439
86	0x3583b153	9.811869e-07
87	0x376dddd8	1.4177953e-05
88	0x371b0fd5	9.242406e-06
89	0x3921de95	0.00015437075
90	0x388203f4	6.1996194e-05
91	0x378ecab4	1.702211e-05
92	0x374385d8	1.1654069e-05
93	0x37e49831	2.7250588e-05
94	0x371a1207	9.183313e-06
95	0x37ecab2a	2.8213097e-05
96	0x35395200	6.9037196e-07
97	0x346adb53	2.1872738e-07
98	0x37d14d7a	2.495082e-05
99	0x3450d569	1.9449148e-07
100	0x37b8f512	2.2048629e-05
101	0x394ba0d7	0.00019419506
102	0x374998c3	1.2016101e-05
103	0x3881ba63	6.1859166e-05
104	0x35a7f382	1.251334e-06
105	0x380c6aba	3.3477998e-05
106	0x384159b9	4.6098347e-05
107	0x38955ec1	7.122523e-05
108	0x39134b88	0.0001404715
109	0x393766f1	0.00017490589
110	0x3714fc50	8.8802335e-06
111	0x3589c761	1.0265322e-06
112	0x380c4d47	3.345057e-05
113	0x3817b0db	3.6165915e-05
114	0x37c6a4c1	2.3680159e-05
115	0x386d88eb	5.6632718e-05
116	0x3989f43f	0.00026312654
117	0x381f2487	3.7942573e-05
118	0x380e9b5c	3.4000128e-05
119	0x3785b223	1.5937787e-05
120	0x37b8c2e9	2.2025271e-05
121	0x37807c4f	1.5316675e-05
122	0x36953df9	4.4477606e-06
123	0x39084d14	0.00012998685
124	0x371772a0	9.02699e-06
125	0x34848f43	2.4691153e-07
126	0x36837c8d	3.918604e-06
127	0x3656afd3	3.1990828e-06
128	0x3957f803	0.0002059639
129	0x3a0313a9	0.0005000183
130	0x3781286f	1.5396827e-05
131	0x37546fe7	1.2662239e-05
132	0x3b9f1bce	0.0048556095
133	0x3887e84f	6.4805725e-05
134	0x3968dbe5	0.00022207161
135	0x3863070f	5.412759e-05
136	0x3573c681	9.0813415e-07
137	0x37f24d7b	2.8884728e-05
138	0x3b32df8f	0.0027293896
139	0x393a331d	0.00017757383
140	0x38a74354	7.9757214e-05
141	0x3b7ec7cd	0.0038876415
142	0x371fcb3c	9.524458e-06
143	0x3793498a	1.755801e-05
144	0x3a2f3175	0.000668309
145	0x360fcb98	2.1427168e-06
146	0x3a4c5fa7	0.0007796236
147	0x3a7ce1d2	0.0009646687
148	0x3681cc0a	3.868253e-06
149	0x39d08f9f	0.00039779858
150	0x37eb4428	2.804592e-05
151	0x36b8e82b	5.5106552e-06
152	0x361d45a5	2.3435362e-06
153	0x37bcc1aa	2.2501528e-05
154	0x39cf3ea7	0.00039528796
155	0x371bfd21	9.297656e-06
156	0x3abf36b7	0.001458845
157	0x36de70ef	6.6292628e-06
158	0x3691ff62	4.351067e-06
159	0x36c5cf34	5.895179e-06
160	0x37de0dfb	2.6470972e-05
161	0x3a0b7156	0.00053193176
162	0x3b085bf2	0.0020806757
163	0x389ae58f	7.386051e-05
164	0x36edb3c3	7.0840774e-06
165	0x380b5fad	3.3229288e-05
166	0x3aa8a9d7	0.0012867999
167	0x39865229	0.00025619686
168	0x38bbb89b	8.95124e-05
169	0x3a27fc26	0.00064081175
170	0x37ca0c8e	2.4086123e-05
171	0x380ee958	3.4072757e-05
172	0x3641cbdd	2.8877905e-06
173	0x37f560fb	2.9251436e-05
174	0x3999f500	0.00029364973
175	0x3a9fcc82	0.0012191685
176	0x3602b1ad	1.947493e-06
177	0x3b26bd4a	0.0025442415
178	0x38c37823	9.320702e-05
179	0x39d1f793	0.00040048044
180	0x36b93341	5.5193964e-06
181	0x378e9597	1.6997377e-05
182	0x33b45a58	8.3983366e-08
183	0x3b0d5f28	0.002157161
184	0x39fa9ab7	0.00047798987
185	0x382f415f	4.1784133e-05
186	0x37a9a4fc	2.0223197e-05
187	0x37e3f125	2.71728e-05
188	0x37978ec0	1.8067076e-05
189	0x348cd5ae	2.6232505e-07
190	0x35bcb246	1.4058976e-06
191	0x396ec235	0.00022769796
192	0x3a944552	0.0011312163
193	0x39d1349f	0.00039902792
194	0x3a229858	0.00062025106
195	0x39d4ee39	0.0004061328
196	0x3b147939	0.0022655262
197	0x39aaa898	0.0003255054
198	0x3992e74c	0.0002801962
199	0x380cd32b	3.3575267e-05
200	0x3879e00c	5.9574886e-05
201	0x397b2a40	0.00023952965
202	0x3aa4d519	0.0012575715
203	0x38c6021c	9.4417686e-05
204	0x3934c6c5	0.00017240185
205	0x3b13d490	0.0022557117
206	0x398c2ed2	0.00026737765
207	0x3a1db4e9	0.00060160324
208	0x39eca5a9	0.00045136854
209	0x39f564f1	0.0004680525
210	0x3af79e95	0.0018891866
211	0x3a5f0962	0.0008508173
212	0x3878df5a	5.933582e-05
213	0x3a3f3267	0.00072935823
214	0x37af2125	2.087706e-05
215	0x39834e61	0.00025044664
216	0x39179027	0.00014454183
217	0x3a456d67	0.0007531256
218	0x39b60072	0.00034714077
219	0x3978e160	0.00023735082
220	0x3a7d5dd3	0.0009665165
221	0x38572474	5.1293944e-05
222	0x3921f51c	0.00015445467
223	0x39f46c58	0.0004662003
224	0x39a529d1	0.00031502408
225	0x39b6f464	0.0003489583
226	0x3a9ebe00	0.0012111068
227	0x39a93c66	0.00032279192
228	0x38b5ff74	8.6783344e-05
229	0x39b94f9d	0.00035345266
230	0x3a31126c	0.0006754759
231	0x3accfd90	0.0015639532
232	0x38427b3a	4.6367968e-05
233	0x39ef40d5	0.00045633936
234	0x395e55c8	0.00021203526
235	0x3a9206cd	0.0011140943
236	0x396dee33	0.00022690817
237	0x3a45dc7f	0.000754781
238	0x3a8195d9	0.0009886577
239	0x3a32ca24	0.00068202824
240	0x39411e43	0.00018417188
241	0x3ad3877e	0.0016138402
242	0x3971c6c6	0.000230576
243	0x3a060f8f	0.0005114013
244	0x3a6889e6	0.0008870646
245	0x39486acd	0.00019113273
246	0x38756ce5	5.8513968e-05
247	0x3aa21644	0.0012366255
248	0x3a0d52b6	0.0005391048
249	0x39ced160	0.00039447378
250	0x395e73aa	0.00021214658
251	0x3a145082	0.00056577486
252	0x388723e7	6.443989e-05
253	0x38c167eb	9.2223134e-05
254	0x39021c7d	0.00012408379
255	0x399aeb71	0.00029548586
