lightning_logs/version_66/checkpoints/epoch=49-step=200.ckpt (torch, 121435 bytes, 30 tensors)

gru.weight_ih_l0 f4 [96, 15]
0.15619667 -0.028090132 -0.0170882 0.015597497 0.041461203 0.08392641 0.02938532 -0.025081633
0.19918077 -0.13255158 -0.10708072 0.11799643 -0.024396112 0.11723536 -0.021516478 -0.1875467
-0.15219219 -0.2283315 -0.109487355 0.10240315 0.13194199 -0.02768314 0.056774836 0.06570501
0.07062024 0.15909912 0.13788354 0.05304362 -0.0136733055 0.112645246 -0.14114866 -0.16761559
-0.11804305 0.09527632 0.024145901 -0.06416169 -0.09193724 0.13261467 0.16642739 -0.09901113
-0.048460357 -0.14032182 -0.10078755 -0.13337703 0.16026466 -0.17151503 0.050881095 0.08716893
0.05094522 -0.061862182 0.10230238 0.108478256 -0.07809824 0.2519199 -0.030433016 0.18881825
0.024804909 0.15483016 0.044610053 0.01824022 -0.07185264 -0.1278689 0.0730523 0.15676215
-0.20527744 0.22004537 -0.07186845 -0.083293125 -0.03796571 -0.17024077 0.0050231586 -0.15815921
-0.0819014 0.05240323 0.13450298 0.048353564 -0.049183644 -0.030783258 0.19298844 0.21448863
-0.13695438 -0.042405702 0.06414678 -0.004989169 0.06515751 0.15686111 -0.09400687 -0.13172475
-0.046907503 -0.094898365 0.24296741 -0.049475104 0.12344028 0.021004487 0.06935296 0.01224712
-0.16043489 -0.14121647 0.06212898 0.07905794 0.060281485 0.16058728 0.109282665 -0.1370398
-0.04472859 0.09645653 0.04265557 0.16070428 -0.078738436 -0.10709622 -0.08392682 0.06840174
0.035012744 0.032106314 -0.18768488 0.17561051 0.08595043 0.10167605 0.05522639 0.08945636
0.102524385 0.03914404 -0.0060079168 0.032798972 -0.008566201 0.22152627 -0.15577199 -0.15216117
0.1010105 -0.06996942 0.016305411 -0.1546153 0.1062254 0.064197816 -0.038325924 -0.089571565
0.1814888 -0.0323278 0.044345934 0.04577058 -0.046969846 0.059705276 -0.11531045 0.18260677
0.11295186 -0.082355365 -0.011483396 -0.009113076 0.053726353 -0.13352023 -0.22847734 -0.12975402
0.018577933 -0.19966821 0.012115288 0.057734612 0.004557954 0.22102387 -0.08671486 0.012550233
0.15579747 0.11819005 0.121708654 0.077338986 0.1020813 0.088700525 -0.02324156 0.12733348
-0.18099731 -0.07525383 0.09654693 -0.14697444 0.08418035 0.11671272 -0.12555744 -0.11611766
-0.20459703 -0.13065197 0.03827729 0.022801615 -0.016775252 0.023173058 -0.16858687 0.03339651
0.15488939 0.067398414 0.030083163 -0.12128291 0.1288737 0.12973446 0.14814916 0.14783226
-0.017411621 0.15539637 -0.03053667 0.041851964 -0.06981907 0.09855667 0.19905978 -0.0128757795
-0.009127743 -0.068992436 0.02329735 0.20517719 -0.106216565 -0.046018634 0.14306892 -0.13440052
0.10275966 -0.071992375 -0.21777539 -0.1884274 0.028285382 0.009942013 0.1248733 0.039460875
-0.042444207 -0.1434313 -0.026872965 0.13170727 -0.10512698 0.050217535 -0.053133097 -0.12212309
-0.09123134 -0.0017540912 0.112430155 -0.0020381142 -0.033635903 -0.0041068066 0.13956454 -0.0021139276
0.09853638 -0.045087088 -0.1515699 0.05432039 -0.19858445 0.018896645 0.05289417 0.07634264
0.036747165 -0.061646394 -0.013861077 0.10055858 0.065536655 -0.09091695 -0.20677367 -0.23003307
-0.09128389 0.10726653 -0.08578929 -0.04321445 0.08432282 -0.008613031 0.11177135 0.01143125
00000000: 05f2 1f3e 471d e6bc 8efc 8bbc a58c 7f3c
00000010: 39d3 293d 9ce1 ab3d 7cb9 f03c ff77 cdbc
00000020: 0bf6 4b3e 9abb 07be 234d dbbd 1da8 f13d
00000030: 5bda c7bc 1819 f03d 5343 b0bc 3e0c 40be
00000040: 45d8 1bbe bccf 69be e83a e0bd beb8 d13d
00000050: cd1b 073e c1c7 e2bc bb8c 683d 5990 863d
00000060: 58a1 903d e1ea 223e 5831 0d3e 4444 593d
00000070: 0006 60bc 8db2 e63d 4689 10be 6ca3 2bbe
00000080: 8ec0 f1bd 3b20 c33d a0cd c53c 3467 83bd
00000090: 9749 bcbd 24cc 073e f16b 2a3e 59c6 cabd
000000a0: 5e7e 46bd 86b0 0fbe b469 cebd fd93 08be
000000b0: 6b1c 243e a3a1 2fbe b268 503d a085 b23d
000000c0: efab 503d 3363 7dbd e983 d13d d929 de3d
000000d0: f8f1 9fbd a5fb 803e a94e f9bc 9259 413e
000000e0: aa33 cb3c cc8b 1e3e 08b9 363d 846c 953c
000000f0: 7a27 93bd 11f0 02be 729c 953d 4286 203e
00000100: 4034 52be 9353 613e c42f 93bd 9695 aabd
00000110: ef81 1bbd 9953 2ebe 4f99 a43b 7df4 21be
00000120: ecbb a7bd c5a4 563d 26bb 093e 630e 463d
00000130: ca74 49bd 2c2d fcbc c39e 453e e8a2 5b3e
00000140: c53d 0cbe 9ab1 2dbd 635f 833d 2f7c a3bb
00000150: 4d71 853d 33a0 203e ad86 c0bd dae2 06be
00000160: 1522 40bd 135a c2bd 73cc 783e 68a6 4abd
00000170: 42ce fc3d 9a11 ac3c ed08 8e3d 25a8 483c
00000180: 0b49 24be 0d9b 10be f57a 7e3d 21e9 a13d
00000190: b8e9 763d fe70 243e 97cf df3d 2954 0cbe
000001a0: 5335 37bd 008b c53d 9bb7 2e3d aa8f 243e
000001b0: 9e41 a1bd 4355 dbbd d3e1 abbd 3616 8c3d
000001c0: 8669 0f3d e981 033d 7730 40be 3ed3 333e
000001d0: c706 b03d 883b d03d 1135 623d e534 b73d
000001e0: 4ef8 d13d 8055 203d 0fde c4bb 3758 063d
000001f0: 4059 0cbc c8d7 623e b182 1fbe 23d0 1bbe
00000200: 98de ce3d 214c 8fbd ed92 853c 7953 1ebe
00000210: b48c d93d 257a 833d a5fb 1cbd 4c71 b7bd
00000220: 33d8 393e 286a 04bd 15a4 353d ef79 3b3d
00000230: 7463 40bd 858d 743d e327 ecbd 45fd 3a3e
00000240: 4e53 e73d eea9 a8bd db24 3cbc 034f 15bc
00000250: 2a10 5c3d 87b9 08be f7f5 69be 3dde 04be
00000260: c030 983c d375 4cbe 337f 463c 217b 6c3d
00000270: e45a 953b 1554 623e 8f97 b1bd 7e9f 4d3c
00000280: 5f89 1f3e a00d f23d 6342 f93d e763 9e3d
00000290: 0010 d13d 9fa8 b53d 1665 bebc b563 023e
000002a0: 5c57 39be ae1e 9abd 66ba c53d 7880 16be
000002b0: bf66 ac3d 1407 ef3d 2192 00be 19cf edbd
000002c0: e281 51be a1c9 05be a6c8 1c3d 74ca ba3c
000002d0: 416c 89bc 6dd5 bd3c 09a2 2cbe c7ca 083d
000002e0: 539b 1e3e 2e08 8a3d f770 f63c 2d63 f8bd
000002f0: 78f7 033e 1cd9 043e 6ab4 173e 5761 173e
00000300: d1a2 8ebc 3a20 1f3e 0a28 fabc f76c 2b3d
00000310: 4dfd 8ebd 14d8 c93d 54d6 4b3e eff4 52bc
00000320: 878c 15bc e84b 8dbd 16da be3c f819 523e
00000330: 1288 d9bd 097e 3cbd a980 123e 4aa0 09be
00000340: a873 d23d bd70 93bd 8300 5fbe 1df3 40be
00000350: bfb6 e73c d3e3 223c 93bd ff3d baa1 213d
00000360: fad9 2dbd a8df 12be b124 dcbc 45de 063e
00000370: d04c d7bd e7b0 4d3d 17a2 59bd ac1b fabd
00000380: 7fd7 babd 89e9 e5ba c841 e63d e291 05bb
00000390: cdc5 09bd 6492 86bb 02ea 0e3e d289 0abb
000003a0: 71cd c93d 3dad 38bd 2435 1bbe 0f7f 5e3d
000003b0: b959 4bbe 23cd 9a3c 8fa7 583d 8859 9c3d
000003c0: 3284 163d ee80 7cbd 9219 63bc a8f1 cd3d
000003d0: 1538 863d aa32 babd 7abc 53be ca8d 6bbe
000003e0: 0cf3 babd 8eae db3d 4cb2 afbd a301 31bd
000003f0: 71b1 ac3d ac1d 0dbc 61e8 e43d 234a 3b3c

gru.weight_hh_l0 f4 [96, 32]
-0.19985689 0.083419114 0.033489753 -0.06597157 0.0299509 -0.09164342 -0.10461476 0.002100496
0.09242816 0.088498615 0.14174643 -0.027867587 0.04142137 -0.029308828 -0.008062216 0.09282972
0.20388415 0.101531945 0.022852642 0.01624393 -0.060303506 0.093808465 0.20648088 -0.03637083
-0.031045916 -0.1005088 0.073919676 0.039406333 -0.098022304 0.021659305 -0.220893 0.057848837
0.06599171 0.031383693 0.12269317 -0.007409731 0.18498543 -0.11625056 0.25921124 0.0980381
-0.11942655 0.1630157 0.10772362 -0.028777301 -0.09210991 0.05861003 0.22523054 -0.17810184
0.105173655 0.17075719 0.10996464 -0.041612707 -0.081250586 0.19533981 0.035115335 0.05220796
-0.024153218 0.07057919 0.18766217 0.103803925 0.0054104663 0.012602755 0.04969804 0.06677415
0.10477683 -0.035519715 -0.009606997 -0.11853397 -0.050014094 -0.09276962 0.2205546 0.026281696
0.065588646 0.10043629 0.035199035 -0.18966994 0.13630573 0.06751289 0.07817381 -0.14581187
-0.05057202 -0.094516665 0.0143564 -0.038683966 0.25214228 0.15206765 -0.09138825 -0.026555
0.050969318 0.12818925 -0.055808604 0.1337681 0.11086195 0.055526417 0.053441677 0.16513173
-0.019791776 -0.10922887 -0.13935325 0.07823776 -0.024394888 -0.03224055 -0.12303889 -0.11639766
0.0487112 0.123753406 0.117992885 0.12600847 -0.09059593 -0.13186313 -0.10059472 -0.067116626
-0.07133914 -0.03253935 -0.05753423 0.010433209 -0.035911687 0.10894434 -0.054102726 -0.18408701
0.011949168 -0.10640117 -0.1706413 -0.1330461 0.054618947 0.17079163 0.010002621 0.04941143
0.03420855 -0.056563426 0.09053809 0.13307923 -0.07375326 -0.15123631 0.13631073 0.015578214
0.17737631 0.08993812 -0.0008115842 0.08075137 0.1354929 -0.046059035 0.1203438 0.12294674
-0.1627804 0.20907556 -0.06757368 -0.059239015 0.19956787 -0.0961035 0.25366682 0.14786918
-0.21781203 0.10101588 -0.04520357 0.15895906 0.015453285 -0.14666365 -0.14673251 0.00021298754
-0.20504685 0.18953772 0.17790464 -0.0195671 -0.10621107 -0.1452803 -0.18616319 -0.0050490336
0.027987083 -0.03637174 0.15228915 -0.15887436 0.020421093 0.19512813 -0.18691278 0.0027164824
-0.08705734 -0.011524048 0.1437117 -0.14056455 0.105326846 -0.17963526 0.14184675 -0.050569553
0.025862379 0.15616629 0.021215964 -0.19100778 0.07596961 0.036688995 -0.08794539 0.17750645
-0.11777178 -0.21210673 0.0814698 0.08468701 0.056738477 -8.349249e-06 -0.19769222 -0.2409219
0.061431512 0.046408385 -0.005959711 -0.12102987 0.15956958 -0.24697998 -0.14707486 0.068299495
-0.18783477 -0.047540095 -0.046385687 -0.1914523 0.033407535 -0.114168555 0.1261239 0.0746142
0.003549557 -0.12210665 0.06659065 -0.008977814 0.029965315 -0.22680351 -0.08862594 0.1503302
0.034676705 -0.19838096 -0.0965072 -0.097528726 0.049657363 0.18576802 0.054209318 0.11474878
-0.015735758 -0.16098593 0.09707406 0.16157912 0.018051758 -0.14633021 0.06077928 -0.0140695125
-0.19980028 -0.06605158 -0.07942841 -0.17139089 0.08627887 0.022040829 0.08900938 0.0044074124
-0.022400487 -0.14438419 -0.18367398 -0.060428202 0.06913012 -0.16562144 -0.08733358 -0.008541171
00000000: 49a7 4cbe a4d7 aa3d 8d2c 093d 1a1c 87bd
00000010: 975b f53c 8caf bbbd 4340 d6bd 7aa8 093b
00000020: fa4a bd3d c33e b53d fa25 113e 914a e4bc
00000030: 74a9 293d 1119 f0bc 6317 04bc 821d be3d
00000040: 02c7 503e fbef cf3d 7735 bb3c fe11 853c
00000050: cf00 77bd a71e c03d b96f 533e 94f9 14bd
00000060: 0154 febc 8fd7 cdbd 3363 973d 8968 213d
00000070: ebbf c8bd db6e b13c c631 62be e7f2 6c3d
00000080: a926 873d 308c 003d 8f46 fb3d 54cd f2bb
00000090: d26c 3d3e c614 eebd 56b7 843e 33c8 c83d
000000a0: e895 f4bd 96ed 263e 349e dc3d 60be ebbc
000000b0: 1fa4 bcbd 1211 703d d6a2 663e 5460 36be
000000c0: 4965 d73d f9da 2e3e 2435 e13d 1672 2abd
000000d0: b566 a6bd 2907 483e 19d5 0f3d 04d8 553d
000000e0: f8dc c5bc d38b 903d 832a 403e 2797 d43d
000000f0: 484a b13b c97b 4e3c 2c90 4b3d e3c0 883d
00000100: 3c95 d63d 1f7d 11bd aa66 1dbc f0c1 f2bd
00000110: 94db 4cbd 00fe bdbd 11d9 613e b64c d73c
00000120: 5753 863d 8bb1 cd3d dd2c 103d d638 42be
00000130: bb93 0b3e 3344 8a3d 9719 a03d b54f 15be
00000140: 9b24 4fbd f491 c1bd 1b37 6b3c 1473 1ebd
00000150: cb18 813e 9fb7 1b3e c329 bbbd df89 d9bc
00000160: 34c5 503d 0b44 033e 9097 64bd 81fa 083e
00000170: 970b e33d ab6f 633d a9e5 5a3d 4b18 293e
00000180: 5d22 a2bc 63b3 dfbd 9eb2 0ebe 1e3b a03d
00000190: cad7 c7bc ab0e 04bd d0fb fbbd e561 eebd
000001a0: 6585 473d 6d72 fd3d 41a6 f13d 5d08 013e
000001b0: 5c8a b9bd 2107 07be 9b04 cebd 7174 89bd
000001c0: 411a 92bd fb47 05bd 03a9 6bbd 0df0 2a3c
000001d0: 2218 13bd 361e df3d d29a 5dbd 4e81 3cbe
000001e0: 71c6 433c dbe8 d9bd 98bc 2ebe 3d3d 08be
000001f0: 1eb8 5f3d 00e4 2e3e 09e2 233c a463 4a3d
00000200: 441e 0c3d 0daf 67bd 096c b93d ec45 083e
00000210: f30b 97bd b1dd 1abe 0a95 0b3e c43b 7f3c
00000220: 23a2 353e 7a31 b83d 7ec0 54ba f960 a53d
00000230: a7be 0a3e 66a8 3cbd cf76 f63d 80cb fb3d
00000240: e8af 26be e717 563e 1264 8abd 9ca4 72bd
00000250: 855b 4c3e e9d1 c4bd 9ee0 813e 056b 173e
00000260: 1e0a 5fbe 6ae1 ce3d 6127 39bd 2ac6 223e
00000270: c62f 7d3c ff2e 16be 0c41 16be 6855 5f39
00000280: cdf7 51be 2d16 423e a22c 363e 2f4b a0bc
00000290: 3185 d9bd 5cc4 14be 90a1 3ebe 5d72 a5bb
000002a0: 2b45 e53c 89fa 14bd b0f1 1b3e f6af 22be
000002b0: 234a a73c abcf 473e 1066 3fbe 0307 323b
000002c0: 1e4b b2bd 5ccf 3cbc 2929 133e 27f0 0fbe
000002d0: 9ab5 d73d 4ef2 37be 4640 113e 0522 4fbd
000002e0: 57dd d33c 0eea 1f3e 1acd ad3c 8b97 43be
000002f0: f495 9b3d 3347 163d b61c b4bd 40c4 353e
00000300: 5532 f1bd 8232 59be a3d9 a63d 6270 ad3d
00000310: 9b66 683d c013 0cb7 d46f 4abe 3bb4 76be
00000320: 9c9f 7b3d b816 3e3d ae49 c3bb 82de f7bd
00000330: 3566 233e 52e8 7cbe cb9a 16be 9be0 8b3d
00000340: c257 40be 67b9 42bd ebfe 3dbd 120c 44be
00000350: 57d6 083d 34d1 e9bd a026 013e 54cf 983d
00000360: af9f 683b 0d13 fabd ae60 883d ae17 13bc
00000370: d279 f53c 2e3f 68be 8481 b5bd 29f0 193e
00000380: 2909 0e3d 6124 4bbe 91a5 c5bd 24bd c7bd
00000390: 8565 4b3d f939 3e3e 970a 5e3d 6901 eb3d
000003a0: 47e8 80bc 7fd9 24be c4ce c63d ff74 253e
000003b0: 48e1 933c 96d7 15be b2f3 783d d083 66bc
000003c0: 7298 4cbe 0d46 87bd 5dab a2bd 1881 2fbe
000003d0: fab2 b03d f88e b43c 8d4a b63d 0e6c 903b
000003e0: 3a81 b7bc 73d9 13be 0815 3cbe 9083 77bd
000003f0: 1894 8d3d ab98 29be f3db b2bd 45f0 0bbc

gru.bias_ih_l0 f4 [96]
0.040093828 -0.090519674 -0.004175944 -0.02593456 0.17949802 0.07007786 -0.02923395 -0.075509876
0.13626654 -0.07371139 0.08070749 0.08809094 0.17202547 0.05504948 0.08005178 -0.03815836
-0.01297859 0.016165763 -0.06921247 0.0603829 0.069271006 0.08869782 0.022318004 -0.13818374
0.055950154 0.10219458 0.17153937 0.04313427 -0.062195048 0.10707146 -0.039520595 -0.09921632
-0.027794998 -0.14864084 0.08340719 -0.20991938 0.041487914 -0.045382027 0.030563243 -0.03888916
0.08292118 0.11633777 -0.17277469 -0.08328255 -0.007882527 0.017615411 0.09460258 -0.11995675
0.09452767 0.008568036 -0.021100707 -0.09329196 -0.18190151 -0.21178386 0.06992618 -0.011761735
-0.03202149 -0.20535658 0.00024736312 -0.09573497 0.12592225 0.08835365 0.07660558 -0.14475258
-0.046810985 0.15531282 0.15003544 0.21186316 -0.14064863 -0.24381685 0.09351043 -0.08426269
-0.13484694 -0.14251721 0.18588431 -0.23679216 0.2202407 0.05903963 -0.03220843 0.19721223
0.004922439 0.17839734 -0.20235515 -0.05511338 0.15846369 -0.14460804 0.11711454 0.11088906
-0.123628326 0.20658076 -0.048590437 -0.1978816 0.16877379 -0.1658797 -0.17748927 0.22968577
00000000: 6d39 243d 6162 b9bd 5bd6 88bb b774 d4bc
00000010: 54ce 373e fb84 8f3d 097c efbc eca4 9abd
00000020: 7589 0b3e fff5 96bd f849 a53d 0669 b43d
00000030: 7227 303e 907b 613d 30f2 a33d f14b 1cbd
00000040: 27a4 54bc 106e 843c 44bf 8dbd 0f54 773d
00000050: f5dd 8d3d 34a7 b53d 3fd4 b63c 0a80 0dbe
00000060: fd2b 653d 644b d13d 04a8 2f3e 8fad 303d
00000070: 3cc0 7ebd 4848 db3d 59e0 21bd ed31 cbbd
00000080: 56b2 e3bc 4e35 18be 64d1 aa3d 1bf5 56be
00000090: 3bef 293d 81e2 39bd c45f fa3c 3d4a 1fbd
000000a0: 94d2 a93d 7f42 ee3d d9eb 30be 0b90 aabd
000000b0: b725 01bc 324e 903c ffbe c13d e2ab f5bd
000000c0: b997 c13d f360 0c3c 64db acbc db0f bfbd
000000d0: 6444 3abe dedd 58be 7535 8f3d 4bb4 40bc
000000e0: f728 03bd ff48 52be 84b0 8139 b210 c4bd
000000f0: c3f1 003e c2f2 b43d 63e3 9c3d 053a 14be
00000100: e0bc 3fbd 530a 1f3e e4a2 193e a8f2 583e
00000110: 3206 10be 20ab 79be 6582 bf3d eb91 acbd
00000120: 5115 0abe 08f0 11be 7558 3e3e a579 72be
00000130: c786 613e 8ad3 713d fdec 03bd 01f2 493e
00000140: 694c a13b cbad 363e 3036 4fbe 91be 61bd
00000150: 4e44 223e 2114 14be bfd9 ef3d ce19 e33d
00000160: d930 fdbd e889 533e c406 47bd 79a1 4abe
00000170: 09d3 2c3e 5edc 29be bfbf 35be bf32 6b3e

gru.bias_hh_l0 f4 [96]
-0.040446766 -0.04975479 -0.11673637 -0.1597852 0.14550626 0.14280412 -0.064245164 -0.0054589445
0.15725502 0.11842825 -0.017451148 0.1928922 -0.11509475 0.09737926 -0.050933752 0.21828575
0.1794209 0.13569307 0.16302256 0.022007322 0.0034793396 -0.06749962 -0.012320886 0.17434546
0.15027107 -0.10133852 0.037714675 0.004132481 0.11071498 -0.009745805 -0.017719774 -0.059263173
-0.17345563 -0.08239652 0.11079906 -0.010722743 0.08520014 0.11223594 -0.065050445 0.0025346945
-0.025470637 -0.1681611 0.14424987 -0.21339104 0.08982251 0.017724644 -0.16971168 -0.15184328
-0.041029446 0.107889794 0.014916352 0.0030432388 -0.18348084 0.09611944 -0.13778338 0.038168512
-0.124417685 -0.044816356 -0.027396766 -0.22567993 -0.1559303 -0.040591456 -0.23763686 -0.064333804
-0.0023598631 0.121876955 0.105360135 0.010757273 0.032666463 -0.13727313 -0.15511452 -0.066617906
0.17064035 -0.05481285 0.071524814 0.0971001 -0.0754706 -0.16488914 0.078663886 0.21867107
-0.20187724 0.21761325 0.038407326 -0.063453175 -0.054450613 -0.122766025 0.06461178 0.16458319
-0.14289588 0.15568274 0.16875842 -0.14696848 0.18185762 0.03299464 0.045405082 -0.07650368
00000000: 82ab 25bd aecb 4bbd 7a13 efbd bb9e 23be
00000010: 98ff 143e 3e3b 123e f892 83bd f2e0 b2bb
00000020: 7607 213e 838a f23d b6f5 8ebc 8885 453e
00000030: ccb6 ebbd c76e c73d e99f 50bd 4d86 5f3e
00000040: 1dba 373e 20f3 0a3e 63ef 263e b348 b43c
00000050: a205 643b 3e3d 8abd 8bdd 49bc 9e87 323e
00000060: a9e0 193e 928a cfbd b47a 1a3d c369 873b
00000070: 89be e23d deac 1fbc 0f29 91bc f1bd 72bd
00000080: 5a9e 31be 82bf a8bd 9eea e23d 72ae 2fbc
00000090: 697d ae3d f5db e53d 2b39 85bd 1e1d 263b
000000a0: cca7 d0bc 6c32 2cbe 3db6 133e 2e83 5abe
000000b0: ddf4 b73d 4633 913c e6c8 2dbe ce7c 1bbe
000000c0: 7e0e 28bd 53f5 dc3d b763 743c 1371 473b
000000d0: 67e2 3bbe 45da c43d 1617 0dbe 9656 1c3d
000000e0: b3ce febd 5b91 37bd 2f6f e0bc a418 67be
000000f0: 31ac 1fbe 3a43 26bd 1457 73be 71c1 83bd
00000100: efa7 1abb a09a f93d 0ec7 d73d 463f 303c
00000110: 45cd 053d 5491 0cbe 57d6 1ebe f86e 88bd
00000120: 58bc 2e3e 7083 60bd 9a7b 923d 6bdc c63d
00000130: 5490 9abd b3d8 28be 881a a13d 4feb 5f3e
00000140: e8b8 4ebe 02d6 5e3e 0051 1d3d bdf3 81bd
00000150: 9b07 5fbd c16c fbbd 2e53 843d 7f88 283e
00000160: 4c53 12be 4c6b 1f3e 02cf 2c3e e87e 16be
00000170: e238 3a3e 6325 073d aefa 393d f6ad 9cbd

output_layers.0.weight f4 [64, 32]
-0.14151217 -0.11056192 0.2591407 0.24306019 -0.00062555564 -0.077907175 -0.1580658 0.019480722
0.17406584 -0.1061886 0.019566074 -0.14519581 -0.034168873 -0.04355276 0.1429913 0.22054337
-0.09521975 0.09162821 -0.1350253 -0.0046813507 0.06279764 -0.15865242 0.15588135 0.009971848
0.040662296 0.10958539 -0.10541398 -0.21860677 0.132729 -0.17458342 -0.15116483 0.16340937
0.16719514 -0.072399564 -0.11826006 -0.09162869 -0.050371487 0.061424516 0.095967844 -0.086631306
-0.05525926 -0.19757666 0.18502341 -0.12081559 -0.056638118 0.17323114 -0.0565239 -0.091850586
-0.13859814 0.018371386 0.050071344 -0.1129961 0.027711056 0.105100326 0.080854066 -0.19615655
-0.18224007 0.13782498 0.13527457 -0.08395684 -0.05696401 -0.2151684 0.12613505 0.13705985
0.19651677 -0.053300988 -0.05875842 0.13127287 0.059734568 -0.11352419 -0.18446745 -0.20350815
0.1723345 0.040262446 0.19763418 0.06633711 0.059648443 -0.2056785 -0.10409858 0.07258673
-0.022612358 0.09572447 -0.017148936 -0.21164238 0.21063697 0.05785733 -0.0050301366 -0.06197808
-0.19042522 0.17919634 -0.099285476 0.08981347 0.1631914 -0.015863512 -0.20061375 0.10900833
-0.12543133 0.08337159 -0.05228803 0.19992873 -0.13717228 -0.008918494 -0.11645964 0.0055658375
0.22553793 -0.20910084 -0.20887698 -0.08424024 -0.17736256 -0.23727252 0.109747306 0.073776975
-0.07008537 -0.0713179 -0.0047125067 -0.1285413 -0.03209624 -0.18186784 -0.14360404 -0.031687617
-0.05244593 -0.07075532 -0.057219442 -0.18618532 0.10357062 0.03991313 -0.067787535 -0.040232413
0.12466383 -0.03215942 -0.19163214 -0.018877085 0.069357045 -0.13036308 -0.081527434 0.031635948
-0.14935231 0.08827512 0.03666577 -0.058760684 -0.05139234 -0.15076444 -0.07869689 0.13010313
0.13668321 -0.13859433 0.08276317 0.022412477 -0.10821024 0.023849543 0.0626289 -0.1351557
-0.046937667 -0.17893474 -0.09099079 0.03922857 -0.10512187 0.17463475 0.1581255 -0.14256902
0.13521346 0.09830454 0.15638743 0.06612731 -0.018799646 0.05598938 -0.17151858 -0.15883335
-0.042827684 -0.087377325 0.11879999 0.08216397 0.19776367 -0.042542055 0.11958692 0.17972511
0.05186959 0.13181792 0.035890568 0.05090675 0.19322373 0.012152445 0.16622932 0.08664208
-0.15816382 0.05208165 -0.12464264 0.1417123 0.1827247 -0.16667205 -0.19827747 0.16231512
0.14531831 0.19591291 0.22686979 0.07618369 -0.14907213 0.058172733 0.111457124 -0.1550838
-0.056289632 -0.18686442 -0.0699462 -0.050649248 -0.072216295 -0.06638006 0.07114239 0.05589791
-0.09143208 -0.022967435 -0.15113914 0.057507787 -0.048809703 -0.09566467 -0.05874682 0.06171832
-0.19516781 0.10633964 -0.115588464 -0.22487018 -0.0064571607 -0.21815665 -0.044829067 0.09381901
-0.11248533 0.14889957 -0.064828254 -0.07258333 0.1484789 -0.16017291 0.13150966 0.032433227
-0.15186729 0.06510419 0.19076854 -0.10492541 0.107699566 0.07258223 0.117339015 -0.15835519
-0.06504297 0.19134206 -0.24798639 0.21311821 -0.068137296 0.023354024 -0.07320654 0.054008354
0.06619655 0.18396245 0.00078707153 -0.17828274 -0.08207349 0.018796353 -0.09618934 0.07460587
00000000: 91e8 10be 4a6e e2bd 17ae 843e c5e4 783e
00000010: 54fc 23ba cc8d 9fbd 00dc 21be 0996 9f3c
00000020: 513e 323e 6979 d9bd 0849 a03c 36ae 14be
00000030: a9f4 0bbd 6164 32bd 506c 123e 1fd6 613e
00000040: 9302 c3bd 92a7 bb3d 1244 0abe 0466 99bb
00000050: 0d9c 803d c875 22be 5c9f 1f3e f660 233c
00000060: 828d 263d 4e6e e03d 49e3 d7bd 74da 5fbe
00000070: 1cea 073e ffc5 32be f4ca 1abe c954 273e
00000080: 3435 2b3e 3946 94bd 5532 f2bd d3a7 bbbd
00000090: 5552 4ebd 4698 7b3d ca8a c43d c16b b1bd
000000a0: 8957 62bd 8951 4abe c776 3d3e 2a6e f7bd
000000b0: 5ffd 67bd 8163 313e 9b85 67bd 291c bcbd
000000c0: acec 0dbe 977f 963c 9c17 4d3d 806a e7bd
000000d0: 4c02 e33c d73e d73d d196 a53d 43dd 48be
000000e0: 249d 3abe fe21 0d3e 6b85 0a3e 90f1 abbd
000000f0: 1853 69bd 1b55 5cbe 8c29 013e 6b59 0c3e
00000100: b13b 493e 2352 5abd abac 70bd 656c 063e
00000110: 3cac 743d 5f7f e8bd 09e5 3cbe 7164 50be
00000120: 7578 303e 3cea 243d 9d60 4a3e c0db 873d
00000130: ed51 743d 629d 52be a331 d5bd 5aa8 943d
00000140: 8d3d b9bc 310b c43d ed7b 8cbc c8b8 58be
00000150: 38b1 573e cffb 6c3d d8d3 a4bb badc 7dbd
00000160: d4fe 42be 3f7f 373e 2f56 cbbd 20f0 b73d
00000170: a51b 273e 32f4 81bc b16d 4dbe c23f df3d
00000180: 1271 00be b9be aa3d f92b 56bd 1eba 4c3e
00000190: e476 0cbe e01e 12bc 6482 eebd a161 b63b
000001a0: 6af3 663e 881e 56be d9e3 55be 2686 acbd
000001b0: 889e 35be 91f7 72be 32c3 e03d 6218 973d
000001c0: eb88 8fbd 1f0f 92bd 5f6b 9abb 55a0 03be
000001d0: 5977 03bd 903b 3abe f00c 13be e0ca 01bd
000001e0: 8bd1 56bd 2ae8 90bd ef5e 6abd 5da7 3ebe
000001f0: d51c d43d f37b 233d 31d4 8abd beca 24bd
00000200: c04f ff3d 99b9 03bd 373b 44be 1ea4 9abc
00000210: 110b 8e3d e67d 05be dbf7 a6bd b294 013d
00000220: d0ef 18be 96c9 b43d d92e 163d 0baf 70bd
00000230: c680 52bd fe61 1abe d62b a1bd c139 053e
00000240: aff6 0b3e aceb 0dbe bd7f a93d 5f9a b73c
00000250: 559d ddbd 1e60 c33c 9543 803d 4166 0abe
00000260: b641 40bd ab3a 37be 6159 babd 23ae 203d
00000270: 234a d7bd 74d3 323e a7eb 213e 9dfd 11be
00000280: 6675 0a3e e453 c93d 0724 203e c16d 873d
00000290: b701 9abc 1f55 653d 91a2 2fbe 36a5 22be
000002a0: 156c 2fbd e2f2 b2bd 694d f33d 9545 a83d
000002b0: 8f82 4a3e 9440 2ebd fde9 f43d dc09 383e
000002c0: 3575 543d 47fb 063e fd01 133d 9983 503d
000002d0: 71dc 453e 0c1b 473c 0538 2a3e 6771 b13d
000002e0: b2f5 21be 9153 553d a444 ffbd 071d 113e
000002f0: 2f1c 3b3e 14ac 2abe 4009 4bbe ef35 263e
00000300: 53ce 143e 659d 483e 8e50 683e 3206 9c3d
00000310: 5da6 18be 8846 6e3d a243 e43d 4ace 1ebe
00000320: f58f 66bd 6359 3fbe f43f 8fbd 9675 4fbd
00000330: 23e6 93bd 45f2 87bd 1ab3 913d 35f5 643d
00000340: be40 bbbd 3426 bcbc 38c4 1abe 498d 6b3d
00000350: afec 47bd d7eb c3bd 81a0 70bd 59cc 7c3d
00000360: 12da 47be 99c8 d93d a5b9 ecbd 5e44 66be
00000370: 9796 d3bb 7564 5fbe af9e 37bd 2e24 c03d
00000380: b55e e6bd 2179 183e adc4 84bd 92a6 94bd
00000390: da0a 183e 5e04 24be 78aa 063e b4d8 043d
000003a0: 1983 1bbe 5855 853d d458 433e 22e3 d6bd
000003b0: 9791 dc3d fea5 943d 704f f03d dd27 22be
000003c0: 4035 85bd 2cef 433e 25f0 7dbe a93b 5a3e
000003d0: 918b 8bbd f050 bf3c 4fed 95bd dd37 5d3d
000003e0: 0f92 873d a760 3c3e 7a53 4e3a c08f 36be
000003f0: 2516 a8bd cffa 993c ebfe c4bd f6ca 983d

output_layers.0.bias f4 [64]
0.1279446 -0.0921828 0.18014912 -0.10252324 0.1342787 0.1940182 0.032224663 -0.002305312
-0.023666581 -0.090678 0.1404779 -0.100244954 0.2008314 -0.08832942 0.23986201 0.1735754
0.18463476 -0.1094862 0.053392544 -0.12060435 0.20854437 -0.053207465 -0.09375802 -0.012835811
0.1594726 -0.06095151 -0.10804863 0.025257528 0.21311024 -0.09230218 0.1316033 -0.02977564
-0.107232824 -0.093317375 0.076515764 0.20389585 -0.06637156 0.016512584 0.029214188 0.107439935
-0.08342754 -0.11143653 0.14739357 0.13553225 0.023165397 -0.12858973 0.05597885 0.09420309
-0.10582025 -0.019282581 0.019095335 0.17066678 0.05689606 0.1772606 0.20172216 0.1829464
-0.06359322 -0.13828443 -0.09059646 0.15853792 0.01274708 0.08095333 -0.13190506 -0.18075651
00000000: e903 033e 56ca bcbd 0379 383e b4f7 d1bd
00000010: 5b80 093e b5ac 463e 02fe 033d b814 17bb
00000020: 6be0 c1bc 63b5 b9bd 70d9 0f3e 3a4d cdbd
00000030: bfa6 4d3e 0ee6 b4bd 639e 753e c0bd 313e
00000040: e510 3d3e 4d3a e0bd 24b2 5a3d 6aff f6bd
00000050: a88c 553e 12f0 59bd 3404 c0bd 4b4d 52bc
00000060: c94c 233e 4aa8 79bd 9a48 ddbd e0e8 ce3c
00000070: 9239 5a3e ed08 bdbd 04c3 063e 0bec f3bc
00000080: e29c dbbd 2e1d bfbd 4cb4 9c3d 13ca 503e
00000090: d0ed 87bd 6645 873c 9852 ef3c 7809 dc3d
000000a0: 0fdc aabd d638 e4bd 57ee 163e f7c8 0a3e
000000b0: 5cc5 bd3c 07ad 03be 144a 653d 8ded c03d
000000c0: 4ab8 d8bd 81f6 9dbc d26d 9c3c 46c3 2e3e
000000d0: d80b 693d cd83 353e 4190 4e3e 4d56 3b3e
000000e0: 2a3d 82bd 6f9a 0dbe a38a b9bd c457 223e
000000f0: 21d9 503c dcca a53d 1f12 07be 3c18 39be

output_layers.3.weight f4 [32, 64]
0.21708652 0.13281861 0.054749593 0.0142561495 0.012948489 0.15000446 0.0423489 0.012466555
0.11149973 0.16298439 0.0007642809 -0.03832634 0.124702044 0.00014779589 0.15779378 0.090554684
0.102444604 0.042639755 0.17277817 -0.046346907 0.10310826 0.0013990118 0.1835826 0.108823486
0.09565383 0.07422632 0.20912395 0.037205454 0.10176123 0.043575615 0.13695997 -0.0081678685
0.06982696 0.12138942 -0.002492731 0.04774089 0.06680036 -0.019202886 0.11121787 0.022016019
0.20855068 0.19827524 0.023099685 0.20881788 0.01776417 0.16728815 0.11550787 0.14959773
-0.049382 0.00057814055 0.009730004 0.0028729325 0.011647277 0.14615484 0.00064759236 0.02877562
0.13921373 0.18753397 0.045856286 0.19573005 0.03133496 0.0386614 0.062551595 0.021147164
0.007888985 -0.12781158 -0.0010899615 0.04379268 -0.10041554 -0.07942404 -0.10141416 -0.13900718
0.040057253 -0.03595289 -0.13899772 -0.017275276 0.10514429 -0.10093934 -0.13142991 -0.0031664649
0.011494018 -0.14142948 -0.09513437 -0.14542432 0.06217875 0.028118612 -0.09007994 -0.075510964
-0.012685276 -0.00024365717 -0.038388923 0.0141578 -0.10362634 -0.14783591 0.064513065 0.076782726
-0.06732968 -0.011377664 -0.017583242 0.011655572 -0.115966484 -0.067227654 -0.13451768 -0.12207132
0.054451123 -0.0019483002 0.08651933 -0.01564326 -0.05869774 0.026549477 0.013651332 -0.0644814
0.06035109 -0.114572614 -0.08625306 0.010178926 -0.1153646 -0.08217481 0.010751857 -0.08429184
0.08849235 -0.11653582 -0.08695128 -0.07178205 0.067285195 0.019585894 -0.04210275 0.07056132
0.14476956 0.0577231 0.1307669 0.07849763 0.015712377 0.09503824 0.10267737 0.21360746
0.094108775 0.0056752106 0.2005216 0.059861746 0.052391972 0.15428546 0.2097515 0.061959263
0.21740253 0.008174023 0.063921034 0.15719149 0.19134878 0.15426898 -0.013356966 0.026082698
0.047144413 0.15186678 0.09841969 0.112751 0.04093633 0.18935524 0.107362784 0.1837695
0.013329033 -0.06789642 0.08135271 0.15176834 -0.019217063 0.15013115 0.07916585 0.16300738
0.13689464 0.18976133 0.1536497 0.062057894 0.014807076 0.046572544 0.0345289 0.07591134
0.10900377 0.19981448 0.01627966 0.19164377 0.13713437 0.08201371 0.21909246 0.08176549
0.1591683 0.19738697 0.05670038 0.13941377 0.065301225 0.13002247 0.16099331 -0.06331557
-0.009050203 0.032426972 -0.011801773 -0.0005139362 -0.1310258 -0.1049833 0.007885509 -0.1304869
0.09135345 0.0014115901 -0.09474023 -0.15367278 -0.055029843 0.089869566 -0.09348887 -0.10476239
0.045349594 0.022642804 -0.025807193 -0.13616516 -0.12463998 0.10153972 5.440142e-05 -0.12533835
-0.0623443 -0.03098265 -0.014734959 -0.1342674 -0.13850145 0.003015247 -0.1029086 -0.06744414
-0.1099168 -0.008875249 -0.09678627 -0.033485193 0.055376273 -0.12167212 0.08122822 0.04406044
-0.018785315 -0.072636284 -0.031533953 -0.08326522 0.0575027 0.050648976 -0.08966776 0.00061516877
-0.08434152 0.08473996 -0.14956608 0.083677985 0.042789157 -0.1452803 -0.035122655 0.063922405
-0.088351205 0.0045667957 0.08618058 -0.10885537 -0.09825729 0.06417639 -0.1329302 -0.02436475
00000000: ee4b 5e3e 9a01 083e 1c41 603d a092 693c
00000010: e625 543c c59a 193e 0a76 2d3d 8640 4c3c
00000020: f859 e43d 61e5 263e 065a 483a 15fc 1cbd
00000030: c963 ff3d a8f9 1a39 b194 213e bc74 b93d
00000040: 7ace d13d 06a7 2e3d c3ec 303e 41d6 3dbd
00000050: 6c2a d33d 0c5f b73a 14fd 3b3e d9de de3d
00000060: 28e6 c33d f803 983d 9724 563e bf64 183d
00000070: 3168 d03d 587c 323d 3c3f 0c3e 86d2 05bc
00000080: 7001 8f3d 049b f83d 165d 23bb f48b 433d
00000090: a1ce 883d 5f4f 9dbc 32c6 e33d f05a b43c
000000a0: 4f8e 553e aa08 4b3e 8d3b bd3c 5bd4 553e
000000b0: 2a86 913c 964d 2b3e 648f ec3d 2630 193e
000000c0: c844 4abd 5b8e 173a 986a 1f3c cf47 3c3b
000000d0: 38d4 3e3c 9da9 153e 30c3 293a d9ba eb3c
000000e0: 0b8e 0e3e e808 403e cdd3 3b3d 756d 483e
000000f0: 1659 003d 6b5b 1e3d 0d1b 803d d13c ad3c
00000100: cd40 013c 0ae1 02be 0add 8eba f45f 333d
00000110: aaa6 cdbd 12a9 a2bd 3ab2 cfbd e657 0ebe
00000120: 1313 243d 5643 13bd 6b55 0ebe e184 8dbc
00000130: e455 d73d 49b9 cebd 9095 06be 7784 4fbb
00000140: 6851 3c3c e4d2 10be cfd5 c2bd 1dea 14be
00000150: 25af 7e3d 0159 e63c d57b b8bd 7ea5 9abd
00000160: e7d5 4fbc 397e 7fb9 b43d 1dbd 1ef6 673c
00000170: 0c3a d4bd 4c62 17be 6d1f 843d 4340 9d3d
00000180: 25e4 89bd 6269 3abc bb0a 90bc 03f7 3e3c
00000190: d67f edbd a7ae 89bd 01bf 09be 8700 fabd
000001a0: 2408 5f3d 1b5e ffba 0c31 b13d 4b26 80bc
000001b0: 0b6d 70bd 4a7e d93c d6a9 5f3c d30e 84bd
000001c0: b432 773d 0ca5 eabd 72a5 b0bd 83c5 263c
000001d0: 4744 ecbd 444b a8bd 8f28 303c 33a1 acbd
000001e0: 7a3b b53d 55aa eebd 8313 b2bd 7802 93bd
000001f0: d2cc 893d 9972 a03c ef73 2cbd 7482 903d
00000200: 793e 143e 0f6f 6c3d c2e7 053e 5ec3 a03d
00000210: 3eb7 803c 69a3 c23d 8348 d23d eabb 5a3e
00000220: 1abc c03d 1ef7 b93b 8955 4d3e 9731 753d
00000230: f798 563d 02fd 1d3e 19c9 563e ffc8 7d3d
00000240: c59e 5e3e 56ec 053c 08e9 823d cef6 203e
00000250: eff0 433e b0f8 1d3e 2dd7 5abc 62ab d53c
00000260: 801a 413d f782 1b3e 4390 c93d ffe9 e63d
00000270: daac 273d 57e6 413e 05e1 db3d 122e 3c3e
00000280: 0462 5a3c 470d 8bbd 409c a63d 2969 1b3e
00000290: 1a6d 9dbc fbbb 193e b521 a23d 68eb 263e
000002a0: 1c2e 0c3e cb50 423e 5956 1d3e 6b30 7e3d
000002b0: 6199 723c dac2 3e3d 2d6e 0d3d 6877 9b3d
000002c0: 5e3d df3d 2b9c 4c3e ec5c 853c 443e 443e
000002d0: f46c 0c3e cef6 a73d c659 603e aa74 a73d
000002e0: 04fd 223e cf1f 4a3e a83e 683d 7cc2 0e3e
000002f0: a6bc 853d 9c24 053e 6edb 243e 98ab 81bd
00000300: 4d47 14bc 25d2 043d 395c 41bc adb9 06ba
00000310: a12b 06be 7c01 d7bd 3932 013c 5c9e 05be
00000320: 8517 bb3d 1b05 b93a 2a07 c2bd 665c 1dbe
00000330: f966 61bd 890d b83d 1877 bfbd aa8d d6bd
00000340: 7fc0 393d 677d b93c 9b69 d3bc e16e 0bbe
00000350: 3f43 ffbd 0ff4 cf3d 142d 6438 b258 00be
00000360: bd5c 7fbd 54cf fdbc e66a 71bc 657d 09be
00000370: 53d3 0dbe 739b 453b bec1 d2bd 2720 8abd
00000380: 0f1c e1bd 7e69 11bc e137 c6bd c527 09bd
00000390: 3bd2 623d 3c2f f9bd fb5a a63d b878 343d
000003a0: a9e3 99bc 55c2 94bd bf29 01bd f586 aabd
000003b0: f387 6b3d 4d75 4f3d bba3 b7bd 4743 213a
000003c0: 3fbb acbd 258c ad3d da27 19be 5d5f ab3d
000003d0: af43 2f3d 5cc4 14be c6dc 0fbd c0e9 823d
000003e0: 7af1 b4bd 0fa5 953b 727f b03d 90ef debd
000003f0: 1e3b c9bd e96e 833d db1e 08be 9698 c7bc

output_layers.3.bias f4 [32]
0.09948383 0.06682338 0.1277126 -0.04037486 0.06349481 0.03307668 0.03142726 -0.034250516
0.025260843 -0.10935355 -0.08165517 -0.0048210467 -0.019354533 -0.031431176 -0.023755517 -0.018905086
0.074082285 -0.046762988 -0.012899346 -0.09218354 -0.046341565 0.085266225 0.089632146 -0.018950483
-0.056426242 0.16821939 -0.06368184 0.18608151 0.07396623 -0.050562628 0.07481437 -0.029900417
00000000: 2ebe cb3d b2da 883d 18c7 023e 1c60 25bd
00000010: 9109 823d 6a7b 073d dfb9 003d 454a 0cbd
00000020: d4ef ce3c c1f4 dfbd d33a a7bd dff9 9dbb
00000030: 668d 9ebc fabd 00bd ee9a c2bc d7de 9abc
00000040: 74b8 973d 8c8a 3fbd c757 53bc b9ca bcbd
00000050: a7d0 3dbd 0fa0 ae3d 0f91 b73d 0b3e 9bbc
00000060: 341f 67bd b441 2c3e a06b 82bd 278c 3e3e
00000070: 9b7b 973d c21a 4fbd 4738 993d b8f1 f4bc

output_layers.6.weight f4 [2, 32]
0.0023739093 -0.042520337 0.0020728996 0.17597216 -0.034294587 0.13573703 0.06521381 -0.019260123
-0.10318174 0.034851663 -0.08619872 0.096324824 0.033211973 0.00072750147 0.11937469 -0.13131002
0.17024696 -0.013990612 -0.14154519 0.06767943 0.12998371 0.115719944 0.111567326 0.023378326
-0.12124058 0.0011646914 -0.107215114 0.0022419896 0.08918907 0.049501903 0.0029526956 0.0009955877
-0.24973226 0.11742593 -0.2372861 0.07568149 0.1487964 0.13514116 0.103709176 -0.2166483
-0.09213367 -0.048069738 -0.042031895 -0.1950641 -0.31169954 -0.23665617 0.11006312 0.08331873
0.12325998 0.08254456 0.06863166 0.021237891 0.03286265 0.11167357 0.1102234 0.08114333
0.11449038 -0.23693638 0.13511312 -0.15855737 0.069274776 -0.31623244 -0.15203391 -0.2543023
00000000: 9793 1b3b ce29 2ebd 7cd9 073b 0c32 343e
00000010: 7b78 0cbd a6fe 0a3e d18e 853d 68c7 9dbc
00000020: f350 d3bd 9ec0 0e3d f488 b0bd f345 c53d
00000030: 4709 083d ccb5 3e3a b87a f43d 2276 06be
00000040: 3855 2e3e e138 65bc 39f1 10be 839b 8a3d
00000050: 731a 053e 94fe ec3d 697d e43d e783 bf3c
00000060: fb4c f8bd 8fa8 983a 9993 dbbd 58ee 123b
00000070: c2a8 b63d 82c2 4a3d 0382 413b 617e 823a
00000080: d0b9 7fbe 027d f03d 21fb 72be e6fe 9a3d
00000090: 155e 183e 7262 0a3e 7a65 d43d 0dd9 5dbe
000000a0: 94b0 bcbd c6e4 44bd a329 2cbd e2be 47be
000000b0: 1597 9fbe ff55 72be c668 e13d 03a3 aa3d
000000c0: ba6f fc3d 1f0d a93d c18e 8c3d 16fb ad3c
000000d0: fc9a 063d 1db5 e43d cebc e13d 792e a63d
000000e0: ef79 ea3d 739f 72be 185b 0a3e dd5c 22be
000000f0: efdf 8d3d 38e9 a1be c7ae 1bbe e933 82be

output_layers.6.bias f4 [2]
-0.011438747 0.014286669
00000000: 9569 3bbc a212 6a3c

exp_avg f4 [96, 15]
0.0014032848 0.0014045964 0.0013670515 0.0013718323 0.00078961643 0.0005283071 -0.00029763507 -0.00085639907
-6.665414e-05 -0.0004862173 0.00023281224 0.0002381984 0.0 0.00022661292 0.00017412197 0.0005725312
0.00059797434 0.00057241844 0.000585137 0.0005019233 0.00015015746 0.00022748574 -5.8835926e-06 -0.00013464282
-0.00089872 -1.12391635e-05 -2.5078385e-05 0.0 1.9487083e-05 -4.676143e-06 0.00033889775 0.00054137333
0.00031483482 0.00037375116 0.0014174576 -0.0004162914 6.405966e-05 6.954943e-05 -0.0005288628 0.0015168849
-0.00013072132 -0.00035078495 0.0 -6.602776e-05 0.00014343331 -0.0004384135 -0.000386954 -0.00047835938
-0.0004515895 0.00025795258 -0.0003391822 -0.00028504134 -0.00015056807 7.239595e-05 -0.00011895861 -3.2231786e-05
-2.7958009e-05 0.0 0.00016795473 -1.5225594e-05 -5.3263102e-05 -2.8839348e-05 -5.2250693e-05 -5.6537225e-05
0.00013663579 -0.00016668926 -0.00021560852 -0.00019154558 -0.0003422217 0.0009957815 -1.1444531e-06 2.2381184e-05
0.0 2.0994152e-05 0.00010277862 0.0008940586 0.0009891379 0.000771068 0.00088435697 0.00036822417
-1.0239922e-05 -0.00011092445 -0.0004001672 0.00092704763 -0.0021579613 0.00014445826 0.00017627337 0.0
0.00047019834 0.0002919268 0.0003409477 0.00039511282 0.0003554448 0.00037035873 6.260485e-05 -0.00025923623
4.0978175e-05 0.00019171712 7.1574075e-05 0.00059189415 0.00015613016 9.6387404e-05 0.0 2.6258553e-05
7.3496885e-05 -0.0005412484 -0.00047104317 -0.00056886335 -0.00052622135 -0.00021417983 -0.0005041419 -0.00029435236
-9.091244e-05 -7.4950294e-06 0.0012824722 4.855996e-05 8.135138e-05 0.0 0.00012636124 5.9308033e-05
-0.0008040727 -0.0007806582 -0.0008285811 -0.00083694083 -0.0005247997 -0.00044506165 -0.00064382504 -0.00044991082
-0.00011426704 0.0019443369 0.00015426755 0.00020305465 0.0 0.0001722975 -8.179635e-06 -0.0013948162
-0.0013342056 -0.0014260025 -0.0013933561 0.00045183647 -0.00011628885 -0.00017767328 -7.042565e-05 0.00056194986
-0.00065783144 0.00025286025 0.00041705754 0.0 0.0002926306 0.00041664534 0.0004366208 0.00048405633
0.00039168706 0.0004331108 0.00015007287 0.00029596387 0.00016073973 -0.00020177879 8.87227e-05 -0.0006108534
-5.4064847e-05 -3.63157e-05 0.0 0.000251037 4.1980653e-05 0.0002445119 0.00033485153 0.00014732024
0.00025816786 0.00063440687 0.000282282 0.0003096118 4.0224084e-05 0.00086826616 -0.0025792709 -9.580088e-05
-0.00030326008 0.0 0.00013622359 7.740596e-05 0.00018298323 0.0003004719 0.00013356861 0.00018496125
8.235487e-05 -4.3992444e-05 -0.00019595369 -0.00038061812 0.0005341052 -0.00024693974 0.00012917376 0.00031072527
0.0 0.0003488646 0.00019830912 -0.0016744429 -0.0015667743 -0.0017307587 -0.0016949824 -0.00076562003
-0.0008649263 -0.00056547613 -0.0001568227 0.00025274188 0.0005454924 0.00015415301 0.00017541021 0.0
0.00034259513 0.00014999691 0.0010015802 0.0010252688 0.0010194768 0.0010168266 0.00035394306 0.00033127004
0.0003595736 -8.328414e-05 -0.000701821 -0.0014267222 -0.00032400433 -0.00061672315 0.0 -0.0004619616
-0.00019749618 -0.0006525715 -0.00061355 -0.0007140438 -0.00067792466 -0.000190994 -0.00025405717 -0.00032774056
-0.00024857765 0.00040864677 -0.0004456801 3.3924123e-05 0.00028170008 0.0 0.00040721789 0.0001774417
-0.00059116445 -0.0005519255 -0.00062941475 -0.0005899884 -0.00014365338 -0.00017409572 -0.00021106914 -0.0001520971
0.00023921193 -0.00014945946 -5.098568e-06 7.813084e-06 0.0 0.0001235047 2.3142507e-05 5.0404564e-05
00000000: 6dee b73a 6f1a b83a a32e b33a 0ecf b33a
00000010: 43fe 4e3a 177e 0a3a e70b 9cb9 f87f 60ba
00000020: abc8 8bb8 fbea feb9 0f1f 7439 e5c4 7939
00000030: 0000 0000 f19e 6d39 8394 3639 eb15 163a
00000040: 61c1 1c3a 5a0e 163a e163 193a 8193 033a
00000050: 9673 1d39 3d89 6e39 ad6b c5b6 e82e 0db9
00000060: 1498 6bba d78f 3cb7 6c5f d2b7 0000 0000
00000070: 3178 a337 c3e7 9cb6 16ae b139 f3ea 0d3a
00000080: 6a10 a539 08f4 c339 fcc9 b93a b041 dab9
00000090: c557 8638 11db 9138 62a3 0aba 36d2 c63a
000000a0: 3d12 09b9 8fe9 b7b9 0000 0000 6278 8ab8
000000b0: 9666 1639 ddda e5b9 16e0 cab9 4fcc fab9
000000c0: 51c3 ecb9 cf3d 8739 44d4 b1b9 9a71 95b9
000000d0: cfe1 1db9 48d3 9738 6b79 f9b8 9e30 07b8
000000e0: 5e87 eab7 0000 0000 011d 3039 6e71 7fb7
000000f0: d266 5fb8 07ec f1b7 c127 5bb8 6222 6db8
00000100: e445 0f39 4fc9 2eb9 f914 62b9 a0d9 48b9
00000110: 386c b3b9 e284 823a 1c9b 99b5 3abf bb37
00000120: 0000 0000 991c b037 da8a d738 425f 6a3a
00000130: f6a5 813a 7f21 4a3a 31d4 673a 360e c139
00000140: 21cc 2bb7 1ca0 e8b8 88cd d1b9 1d05 733a
00000150: 956c 0dbb b879 1739 06d6 3839 0000 0000
00000160: f484 f639 c00d 9939 3ac1 b239 2527 cf39
00000170: fe5a ba39 b52c c239 b94a 8338 19ea 87b9
00000180: fbdf 2b38 ac07 4939 0a1a 9638 5829 1b3a
00000190: dfb6 2339 9823 ca38 0000 0000 d045 dc37
000001a0: 5722 9a38 91e2 0dba 58f6 f6b9 c61f 15ba
000001b0: 1ef2 09ba 7695 60b9 6428 04ba 4e53 9ab9
000001c0: 3fa8 beb8 d07d fbb6 a018 a83a dcac 4b38
000001d0: 319b aa38 0000 0000 d67f 0439 84c1 7838
000001e0: 68c8 52ba 16a5 4cba 2335 59ba 2666 5bba
000001f0: b692 09ba 2a57 e9b9 5ec6 28ba 02e2 ebb9
00000200: a6a2 efb8 1fd9 fe3a e1c2 2139 11eb 5439
00000210: 0000 0000 c2aa 3439 443b 09b7 44d2 b6ba
00000220: 83e0 aeba b4e8 baba 46a1 b6ba 77e4 ec39
00000230: 1ae0 f3b8 cf4d 3ab9 7cb1 93b8 d14f 133a
00000240: 5272 2cba 5492 8439 84a8 da39 0000 0000
00000250: 376c 9939 3171 da39 40ea e439 f1c8 fd39
00000260: 595b cd39 2613 e339 e15c 1d39 992b 9b39
00000270: 3e8c 2839 9594 53b9 a310 ba38 ae21 20ba
00000280: b0c3 62b8 b051 18b8 0000 0000 9e9d 8339
00000290: 6214 3038 d531 8039 038f af39 fa79 1a39
000002a0: b45a 8739 534e 263a 40ff 9339 6453 a239
000002b0: 48b6 2838 5b9c 633a fc08 29bb b5e8 c8b8
000002c0: e1fe 9eb9 0000 0000 3ed7 0e39 0255 a238
000002d0: 30df 3f39 a888 9d39 8d0e 0c39 28f2 4139
000002e0: efb5 ac38 8784 38b8 eb78 4db9 b38d c7b9
000002f0: 3103 0c3a b177 81b9 d172 0739 d7e8 a239
00000300: 0000 0000 d0e7 b639 33f1 4f39 fb78 dbba
00000310: 395c cdba a0da e2ba 2c2a deba e4b3 48ba
00000320: 39bc 62ba 763c 14ba c670 24b9 7182 8439
00000330: 60ff 0e3a 22a4 2139 52ee 3739 0000 0000
00000340: 579e b339 7d48 1d39 7447 833a 5062 863a
00000350: f79f 853a 0a47 853a 6f91 b939 50ae ad39
00000360: 2785 bc39 d5a8 aeb8 69fa 37ba da00 bbba
00000370: 20df a9b9 97ab 21ba 0000 0000 7033 f2b9
00000380: fa16 4fb9 5511 2bba a5d6 20ba ab2e 3bba
00000390: c1b6 31ba 9045 48b9 fa32 85b9 98d4 abb9
000003a0: 8753 82b9 a43f d639 2caa e9b9 c049 0e38
000003b0: 25b1 9339 0000 0000 dc7f d539 a50f 3a39
000003c0: 60f8 1aba 18af 10ba 4fff 24ba 74a9 1aba
000003d0: a9a1 16b9 778d 36b9 7152 5db9 417c 1fb9
000003e0: f7d4 7a39 38b8 1cb9 5e14 abb6 f114 0337
000003f0: 0000 0000 0a81 0139 2822 c237 7d69 5338

exp_avg_sq f4 [96, 15]
8.6773395e-07 8.7343864e-07 8.57357e-07 8.672232e-07 8.975782e-07 1.927227e-07 1.2445383e-07 1.8550804e-07
2.116682e-07 4.079217e-07 7.000539e-08 3.4047652e-08 0.0 5.0135203e-08 3.139659e-08 1.7679304e-07
1.8025594e-07 1.8017944e-07 1.7874844e-07 4.555429e-07 7.4788154e-08 4.1788304e-08 5.7306718e-08 1.268721e-07
2.0122384e-07 4.0411354e-08 2.9380647e-08 0.0 4.2657753e-08 1.2887137e-08 2.786345e-06 2.818857e-06
2.731326e-06 2.66382e-06 3.3523145e-06 7.896522e-07 7.307608e-07 7.7496077e-07 1.4412201e-06 1.4530465e-06
1.8295081e-07 8.979918e-07 0.0 6.0295963e-07 9.514478e-08 3.7302723e-07 3.8126373e-07 3.6968277e-07
3.762109e-07 3.5866694e-07 8.280866e-08 8.924145e-08 9.413643e-08 1.5297145e-07 2.228482e-07 2.5350255e-08
1.631977e-07 0.0 1.2854899e-07 7.4363493e-09 6.729404e-08 6.823877e-08 6.841014e-08 6.712197e-08
1.7017905e-07 4.9384315e-08 2.6529417e-08 2.9021539e-08 6.361688e-08 1.6204396e-07 1.1227794e-08 1.9610049e-08
0.0 1.3728317e-08 7.089498e-09 3.071177e-06 3.0953074e-06 3.0459937e-06 3.0761876e-06 1.4244589e-06
2.4721993e-07 2.4582127e-07 2.633157e-07 4.8934965e-07 1.2287218e-06 1.594925e-07 1.3795797e-07 0.0
1.750001e-07 6.811127e-08 2.580049e-07 2.6209892e-07 2.5557787e-07 2.6034778e-07 1.7606659e-07 6.0741876e-08
2.9986275e-08 2.6620373e-08 4.257182e-08 2.3645512e-07 1.3373891e-08 6.6362693e-09 0.0 1.4716316e-08
2.7411786e-09 1.5961623e-07 1.631288e-07 1.627748e-07 1.6302427e-07 3.2565927e-07 1.0113167e-07 4.850016e-08
4.835773e-08 9.1926346e-08 3.1931532e-07 2.8324623e-08 1.809578e-08 0.0 2.383363e-08 1.06393925e-08
2.4643776e-07 2.5332332e-07 2.5968865e-07 2.6195974e-07 3.7143923e-07 1.03080176e-07 1.13726195e-07 1.0339186e-07
9.63096e-08 5.716475e-07 5.5495484e-08 1.8594154e-08 0.0 2.9261097e-08 1.6332454e-08 8.5172775e-07
8.4882475e-07 8.817146e-07 8.8330404e-07 7.236269e-07 1.4416223e-07 1.4042456e-07 1.1977527e-07 1.8530095e-07
5.5000027e-07 3.019269e-07 1.7866509e-07 0.0 3.9677413e-08 4.3115815e-08 1.1721787e-06 1.1675955e-06
1.2163489e-06 1.2121448e-06 1.6636566e-06 3.909862e-07 2.1951004e-07 2.1313265e-07 6.403356e-07 1.0312376e-06
1.3197435e-07 1.4280317e-07 0.0 1.756576e-07 6.075917e-08 2.10348e-06 2.1138778e-06 2.0878836e-06
2.1029598e-06 1.8142184e-06 7.314691e-07 5.652941e-07 5.089944e-07 6.201715e-07 1.3712609e-06 3.6532387e-07
4.0290402e-07 0.0 4.1958836e-07 7.257481e-08 1.573093e-06 1.6006102e-06 1.5761808e-06 1.5683299e-06
1.3919345e-06 2.2600837e-07 2.7393781e-07 3.1676282e-07 4.3270785e-07 6.9973436e-07 9.295218e-08 8.6143196e-08
0.0 1.1611084e-07 5.3146202e-08 6.593322e-07 6.701549e-07 6.8026856e-07 6.8140446e-07 6.8753894e-07
9.862905e-08 1.1899974e-07 9.3317524e-08 1.701849e-07 4.739952e-07 1.8869319e-07 6.3219446e-08 0.0
3.3920667e-08 1.0445093e-08 2.9852418e-07 3.0385388e-07 3.109791e-07 3.0209733e-07 8.2407433e-07 2.7560753e-07
1.4223647e-07 1.6058011e-07 3.239616e-07 3.5446604e-07 1.069895e-07 9.9592334e-08 0.0 8.317262e-08
2.5760286e-08 2.752573e-07 2.634402e-07 2.7789835e-07 2.6501613e-07 4.3022277e-07 7.8112286e-08 7.502262e-08
8.215108e-08 1.5792341e-07 3.6923038e-07 3.4606586e-08 1.0921064e-07 0.0 9.3804395e-08 1.4450986e-08
3.8771375e-07 4.0440096e-07 4.1038265e-07 4.2608576e-07 5.5434003e-07 9.528753e-08 1.7878891e-07 1.2865411e-07
1.7429996e-07 4.7266963e-07 5.353115e-08 4.3887447e-08 0.0 6.4219776e-08 1.6342405e-08 1.9388235e-06
00000000: 39ee 6835 3f76 6a35 2025 6635 20cb 6835
00000010: 1bf1 7035 36ef 4e34 9ca1 0534 1030 4734
00000020: e946 6334 5500 db34 df55 9633 ca3b 1233
00000030: 0000 0000 3d54 5733 ead8 0633 80d4 3d34
00000040: 608c 4134 5977 4134 ffed 3f34 5791 f434
00000050: 399b a033 ba7a 3333 6721 7633 563a 0834
00000060: fd0f 5834 c190 2d33 ba60 fc32 0000 0000
00000070: b236 3733 3a66 5d32 0bfd 3a36 982b 3d36
00000080: d34b 3736 14c4 3236 53f8 6036 7cf8 5335
00000090: 8029 4435 e606 5035 f26f c135 4c06 c335
000000a0: 2371 4434 870d 7135 0000 0000 12db 2135
000000b0: 6552 cc33 7944 c834 7db0 cc34 d078 c634
000000c0: 08fa c934 cf8e c034 8bd4 b133 02a5 bf33
000000d0: 0d28 ca33 7940 2434 0c48 6f34 cdc1 d932
000000e0: 713b 2f34 0000 0000 4707 0a34 d282 ff31
000000f0: 4a83 9033 a98a 9233 dfe8 9233 b124 9033
00000100: 76ba 3634 a11a 5433 cee2 e332 0a4b f932
00000110: c09d 8833 4efe 2d34 5ce4 4032 f472 a832
00000120: 0000 0000 c7d9 6b32 e297 f331 6b1a 4e36
00000130: fab8 4f36 c669 4c36 8070 4e36 0930 bf35
00000140: a6b9 8434 6bf9 8334 d65d 8d34 da5b 0335
00000150: 8fea a435 f740 2b34 9921 1434 0000 0000
00000160: a9e7 3b34 9144 9233 ec83 8a34 9ab6 8c34
00000170: 5b36 8934 edc5 8b34 d10c 3d34 3371 8233
00000180: 42ca 0033 d2aa e432 36d8 3633 4ae4 7d34
00000190: ffc2 6532 3e05 e431 0000 0000 0bd3 7c32
000001a0: 535f 3c31 fa62 2b34 8128 2f34 32c7 2e34
000001b0: c50b 2f34 45d6 ae34 b92d d933 7d4e 5033
000001c0: e3b1 4f33 0b69 c533 5d6e ab34 814e f332
000001d0: 0b71 9b32 0000 0000 b5ba cc32 8bc8 3632
000001e0: 264e 8434 7e00 8834 566b 8b34 79a3 8c34
000001f0: 386a c734 ed5c dd33 a339 f433 4708 de33
00000200: c3d2 ce33 5173 1935 ee59 6e33 fab8 9f32
00000210: 0000 0000 d559 fb32 724b 8c32 49a2 6435
00000220: cbda 6335 f7ae 6c35 311c 6d35 433f 4235
00000230: 03cb 1a34 9cc7 1634 939b 0034 23f7 4634
00000240: bba3 1335 8418 a234 16d7 3f34 0000 0000
00000250: c769 2a33 572e 3933 c153 9d35 47b6 9c35
00000260: 6e41 a335 fab0 a235 ce4a df35 bce8 d134
00000270: 76b2 6b34 75d9 6434 87e3 2b35 0e69 8a35
00000280: d5b4 0d34 7055 1934 0000 0000 659c 3c34
00000290: b57a 8233 8329 0d36 25dc 0d36 911d 0c36
000002a0: 9320 0d36 1280 f335 2c5a 4435 b7be 1735
000002b0: d4a1 0835 dc79 2635 2a0c b835 bb21 c434
000002c0: b54e d834 0000 0000 c943 e134 6cda 9b33
000002d0: 1023 d335 8cd4 d635 298d d335 687f d235
000002e0: 81d2 ba35 b5ac 7234 ba11 9334 8d0f aa34
000002f0: ea4e e834 61d5 3b35 009d c733 b9fd b833
00000300: 0000 0000 9c58 f933 de42 6433 f7fc 3035
00000310: b2e4 3335 b39b 3635 c2e9 3635 518f 3835
00000320: e5cd d333 cd8c ff33 da65 c833 12bc 3634
00000330: 6779 fe34 979b 4a34 42c3 8733 0000 0000
00000340: 2bb0 1133 0172 3332 da44 a034 5c21 a334
00000350: a4f4 a634 f12f a234 f535 5d35 36f7 9334
00000360: aab9 1834 ed6b 2c34 f1ec ad34 714d be34
00000370: 1ac2 e533 77df d533 0000 0000 a29c b233
00000380: 7847 dd32 13c7 9334 f26e 8d34 0f32 9534
00000390: 8a47 8e34 5ef9 e634 afbe a733 1f1c a133
000003a0: 096b b033 a891 2934 a33a c634 58a2 1433
000003b0: 2f87 ea33 0000 0000 8371 c933 1c44 7832
000003c0: f926 d034 721c d934 9052 dc34 c8c0 e434
000003d0: f5cd 1435 e0a0 cc33 1ff9 3f34 2c24 0a34
000003e0: 3527 3b34 38c3 fd34 1fea 6533 c27e 3c33
000003f0: 0000 0000 32e9 8933 5461 8c32 bc1c 0236
