lightning_logs/version_31/checkpoints/epoch=49-step=150.ckpt (torch, 121435 bytes, 30 tensors)

gru.weight_ih_l0 f4 [96, 15]
00000000: 722d 9a3d b7f6 06be 4fbe bcbd 4a52 1d3d
00000010: f82e 2f3e 466b 10be 6014 983d 4cfe 173d
00000020: c56d 293e bc8c 943d 7aa0 debd 6792 ff3d
00000030: a66c 9ebd 0d1d 2a3e 2179 0dbe 8b27 133e
00000040: 4408 8e3c 0869 3abd 7210 013c b6dd b0bd
00000050: c338 293e 40e0 4bbd 5cf3 a93d e329 1e3e
00000060: f6a9 f83d f63e 6dbc 22d6 4fbd ef5f 2fbe
00000070: 51e7 e43d 3f54 fcbc 18d7 f23d 0715 1f3e
00000080: 89c0 913d c7f9 30be bc0f 3b3e 29fc 49bc
00000090: 6618 d9bc c871 d73d 4219 c4bd c758 303e
000000a0: e434 cdbd 6571 153a 51b5 10be 0f76 4bbd
000000b0: 0995 4c3c 7ca5 27be 66a2 aa3d f496 8b3d
000000c0: d0a8 6b3c 698a 873e 3294 16be 0174 80bd
000000d0: 8110 c2bd 3376 1bbe a8a9 c6bb 8b39 b5bd
000000e0: eb2c d23c 1e7f aabd 16c6 1ebe 25d8 18bd
000000f0: a8e0 d83d 8be0 dc3d de97 d93d 46b1 013d
00000100: e5c7 3f3d 4470 24be 6f25 943d 360c d7bd
00000110: 1237 873d 65a0 7abd c37f 603e da09 ec3c
00000120: c802 01be 61bf a33c b4f4 373e edf8 953c
00000130: d6b4 fcbd 9098 e7bd fd5e cc3d e794 993c
00000140: 5581 de3c 8148 cf3d c811 7ebd a2a3 86be
00000150: d508 21be 3418 233d cbca 57be 4622 023b
00000160: 8cf8 cebd a452 3fbd c391 8b3d 6a82 e8bd
00000170: b72d 1cbe 0ae5 f6bd 3881 7bb9 d632 fcbb
00000180: 766c 0e3e b5de 14bd 9f82 953d 086f 3b3e
00000190: 4a46 2dbe 726e cabd f4f9 19bd cf97 89bd
000001a0: 9d06 69bc 6d9f 50be 5821 463b 9664 babd
000001b0: fc42 09be da67 163c 9134 45bc eb17 b1bd
000001c0: 9baf 543e 9cf9 1d3d bd2f a73d 5c90 183e
000001d0: aa52 1bbe 0ec4 adbd 4107 b13d 6915 8abe
000001e0: b852 5fbe 2c12 9dbd e2ea 71bd eaf7 1e3d
000001f0: f0a8 643e 6691 2fbd 362c ec3d 28fd f83b
00000200: 0324 05be 4509 b2bd c0b8 023d 448e ff3d
00000210: 7637 eebd f3f1 89bd a6ea 3ebe cd2a d53d
00000220: 0a91 f03d 8de6 553e 90b4 2d3e 2e90 65be
00000230: 79c2 52bd 36a0 df3d ccd5 3f3e efd8 d43c
00000240: 8253 733e f732 c63d 9ab6 c8bd deb9 03be
00000250: 0358 7bbd efd4 de3d 06f6 01be 790f b9bd
00000260: 6722 c9bd f230 2a3c 0a10 b03d 4916 22bd
00000270: 9f01 d43c b42b e0bc 01b6 1bbe eee9 77bd
00000280: 6983 2d3d 0e41 253d 1eac d83d e8d9 eb3d
00000290: eff1 20bd f21e 473e 43ec ca3d 87ac b53d
000002a0: bd4a 353e f66c 5e3d 8b44 163e 8ca1 093c
000002b0: 0261 83bd 8a97 1cbc 4034 07be a83b 01be
000002c0: 3d53 89bd 3879 efbd 7154 cfbb 9569 f23d
000002d0: aaf1 fbbc 509f 303e 5fe4 aebc 3a31 b1bb
000002e0: 1fde aebd 9ee5 dc3d dfd8 9e3d 5e4e 073b
000002f0: e8e7 2d3c 5bff 253d 7697 db3c 74a3 093e
00000300: 9878 b7bc fad8 653d 066a 71bd 4aaf 643d
00000310: 0fac b83b 766f 883c 1a03 f0bd 9098 7bbe
00000320: 3285 01be 13ab 0cbd 0ffb ccbd 3f42 0ebe
00000330: 1e28 883b 497a f9bd 524c a1bd 97ec 643d
00000340: 3200 d0bd d22d 533c e0a5 bf3b 6015 34bc
00000350: 665b 593d b95c bdbc c4f8 9c3d 52ff 0bbe
00000360: 7c83 0f3e 9cc1 f13d 9981 a83d 8dd4 483e
00000370: 5031 47be 7624 0b3e d8da a13d abe0 d1bd
00000380: a1bc 303d 802a 84bd 5d1f 5abe c17c 5dbe
00000390: 4f38 243d 48d2 0cbe e120 903c 0f0a d33b
000003a0: 9b73 12be 73e1 fdbd 69c8 74bd 3fe8 56bd
000003b0: 5a36 53be ea11 363d aa07 64bd 2a4e cb3d
000003c0: 1f1d 5abd ecf4 afbd eba6 3abe 40e2 3bbe
000003d0: 832e ac3c 7ace aabd 6351 683d 6180 5d3a
000003e0: 4074 d8bd 3a9a bdbd 2e6b 223d 2574 01be
000003f0: a0d4 5e3d 984c e7bc 9782 d6bd b05d e63d
0.07528199 -0.13180052 -0.09215986 0.038408555 0.17107761 -0.14103422 0.07425761 0.03710775
0.1654578 0.072534055 -0.10870452 0.12479096 -0.07735567 0.16612644 -0.13815738 0.14370553
0.017337926 -0.04551032 0.007877456 -0.08636038 0.16525559 -0.04977441 0.0829837 0.15445666
0.121417925 -0.014480343 -0.050741322 -0.1712644 0.111769326 -0.03080189 0.11857432 0.15535365
0.07116801 -0.17282782 0.18267721 -0.012328186 -0.026500892 0.10519749 -0.0957513 0.17221366
-0.10019854 0.0005700796 -0.14131667 -0.049673136 0.012486705 -0.16371721 0.08331756 0.068159014
0.01438351 0.26472786 -0.1470497 -0.06272126 -0.09475804 -0.15181808 -0.006062705 -0.08848866
0.025656184 -0.08325027 -0.15505251 -0.037315506 0.10589725 0.10785016 0.106246695 0.0316632
0.046821494 -0.16058451 0.072337024 -0.10500376 0.06602301 -0.06118812 0.21923737 0.028813291
-0.12598717 0.019988718 0.1796444 0.018307174 -0.12339179 -0.11308396 0.09979055 0.01874776
0.02716128 0.10121251 -0.062028676 -0.26296717 -0.15726025 0.039818004 -0.21073453 0.0019856854
-0.10106 -0.04670967 0.06814911 -0.113529995 -0.15251814 -0.120554045 -0.00023985363 -0.00769649
0.13908562 -0.036345202 0.073003046 0.18304074 -0.16921344 -0.09884347 -0.03759189 -0.06718408
-0.014222768 -0.20373316 0.0030232277 -0.091012165 -0.13404459 0.009180034 -0.012036459 -0.0864714
0.20770113 0.038568124 0.08163402 0.14898819 -0.15168253 -0.0848466 0.08643962 -0.2696946
-0.21808898 -0.07669482 -0.059061892 0.038810648 0.2233007 -0.042863272 0.1153187 0.007598538
-0.13002019 -0.08693174 0.031914473 0.12478307 -0.11631672 -0.06735601 -0.18644199 0.10408554
0.11746414 0.2088873 0.1696341 -0.22418281 -0.051454995 0.1091923 0.18733901 0.025982348
0.23762324 0.096776895 -0.098004535 -0.12863871 -0.06136323 0.108804576 -0.12691507 -0.09036154
-0.09821015 0.010387646 0.08596809 -0.039572034 0.02587968 -0.02736459 -0.15206148 -0.060525827
0.04236165 0.040345244 0.10579704 0.11516172 -0.039293226 0.19445398 0.099083446 0.088707976
0.17704292 0.054303132 0.14674585 0.008400332 -0.06414987 -0.009557614 -0.13203526 -0.12620413
-0.067053296 -0.116930425 -0.006327205 0.118365444 -0.030754883 0.17248273 -0.02134913 -0.0054074796
-0.0853846 0.107859835 0.07756209 0.0020646076 0.010614373 0.04052673 0.02680562 0.13441259
-0.02239637 0.056115128 -0.058939002 0.05583123 0.0056357454 0.016654711 -0.117193416 -0.24569917
-0.12648466 -0.034342837 -0.10008823 -0.13892458 0.004155173 -0.12181527 -0.07875885 0.055889692
-0.10156287 0.012889342 0.0058486313 -0.010991424 0.05306568 -0.023115503 0.07664636 -0.13671616
0.14015001 0.11804506 0.08227844 0.19612332 -0.19452405 0.13588127 0.07903069 -0.1024793
0.04314864 -0.06453419 -0.21301027 -0.21629621 0.040092763 -0.13752091 0.017593803 0.006440408
-0.14301912 -0.12396517 -0.05976144 -0.05246758 -0.20626202 0.044450678 -0.05567137 0.09927018
-0.05325043 -0.08591637 -0.18227737 -0.18348026 0.021018272 -0.083401635 0.05671824 0.0008449611
-0.10569048 -0.09257932 0.039652996 -0.12641962 0.054401994 -0.028234765 -0.10474127 0.11248338

gru.weight_hh_l0 f4 [96, 32]
00000000: 1f26 b23d 9eb4 83bd b566 ca3d f4ad 0bbe
00000010: 276b 2abe 3b08 0bbd 82c3 17be 00b0 933d
00000020: 3871 073e 2f74 f93d f0cb d33c 8b57 0a3e
00000030: 7647 7abd 44ec 14be 45eb 2cbd ad8b 103e
00000040: 3e65 f93d 9adb 02be 6ea0 46bd 746e b43d
00000050: eb60 b23d 4b65 923d 8aa6 1ebe 6798 ef3d
00000060: 31ee 1bbe e9e5 123e 72b9 06be 75ab 36bd
00000070: dfc0 85bd 8ae9 3f3e 91bf 37be 6bae a43d
00000080: c1fb 443d 898b fd3d cd4f 8b3d 8422 b4bd
00000090: fc7a d83d da80 6cbc c1a7 eabd 1c19 143e
000000a0: f6e5 0fbd 3202 eabd e1eb 003c cb46 593d
000000b0: 37b3 20be 6a42 89bd ca11 1e3e 633f 363e
000000c0: 210e a1bb f652 15be cbc4 34be 3eb9 523d
000000d0: 5266 003d c2a6 363d cbd0 16be acb6 ccbb
000000e0: 9143 313e 2aa7 20be 1cc2 7ebd b2a0 0a3d
000000f0: 047e 26be e4ae 373e 4163 083d aef9 3b3e
00000100: ce2e 773d c6bc 1a3d 6857 f53d 2bc6 383d
00000110: 44a4 21be 89ac ddbd 3ebc eebd 4d3a 25be
00000120: 0ccd f43d a444 7eba 93bc 433d 2c01 3c3d
00000130: c51a 2c3d 4a31 2ebe 577e f13d 270e b83d
00000140: c08b 01be 89c3 d1bd 68c3 a53d 40d8 263e
00000150: fcd5 59be 47dc 233e 9bd3 85bc a091 6c3e
00000160: 4d26 d9bd 296c e13c a164 02be 19b5 03be
00000170: 390d f0bc 736b 0a3e 7b16 5f3d 0357 edbd
00000180: f28b b1bc bf87 983c 51d0 c4bd 4bc8 01be
00000190: d84c 72be a496 27bb 80e6 71be 74a1 2cbd
000001a0: f096 ecbc cee5 f33c 8372 733c 5e67 83bc
000001b0: ce26 aa3d 4a8b 8a3c 67c1 c0bd 9e99 bcbd
000001c0: decc 3abe 868d e43c e0af 7abe 1028 a73d
000001d0: d70d 78bd f4ce 4f3e dd97 fb3d c7ad d1ba
000001e0: 62fd 003e ff4e 6fbe 09ad 343d c739 1b3d
000001f0: e2d2 34bd bb41 063e f279 4d3d 59aa e33d
00000200: a072 85bd c2b2 893d 5d4c 193e 53ee d6bd
00000210: fa27 37be caf8 70bd b37b aebd 796d 88bd
00000220: 063b 253e f5af 323d a70f 1a3e e474 c13d
00000230: 1c47 be3d fa27 0f3e 271e fe3d 29d2 98bd
00000240: 33ed e5bd 0b04 ddbc 7403 bebd 691b c3bd
00000250: 662b 35be 16a2 503e f40e 073e cb45 1b3d
00000260: 594e 963d 6fa4 06be e979 fb3d f59d e1bd
00000270: 314c ad3d 82e2 87bd a5b8 0d3e 3c4a 4a3d
00000280: a1d4 a4bd 6a92 d5bb da61 a23d b141 36bd
00000290: 440f 04be cb64 c73d 6411 1d3c e667 02bc
000002a0: 1adf bc3d a03b 323d 4a0b 15bc 12a3 d0bd
000002b0: bec8 e9bd fbf7 043e 5ea0 14be 286e 02be
000002c0: eacb c3bd c050 533e 3319 9abb b2c4 963d
000002d0: aad6 afbd 7422 2d3e 346f bfbd 6a64 b43d
000002e0: 6d2d 1a3e 2665 a3bc 1366 05be f54a fa3d
000002f0: f107 b43c 956e 3d3e 998d d1bd 8408 913d
00000300: dfb5 d23d f603 eebd d2aa 2cbe 07cc 49bd
00000310: 4ea0 123e 8279 c8bd ca83 2b3e fb40 e23d
00000320: 8d70 b5bd 759d 873d f1c7 51be f715 b23d
00000330: 58e1 743c a107 a6bd 9061 17be cb12 693e
00000340: 83f8 103e 6c9e a23c 561b 6c3d 0efa fbbc
00000350: 2520 883d 181e c83d 90d5 1b3e ce9a 123e
00000360: 43dd a3bd 1773 883d 1783 07bd e85d 05be
00000370: 6f09 133e 1252 30be c4de 5bbe d036 a6bc
00000380: 68f7 0a3e d5b6 7fbd b89d 3abb 9771 4fbe
00000390: a1f5 a6bd 19f7 313c afe4 a2bd 2c6e 7cbe
000003a0: 472e 353d 91e2 edbd 1dd2 20bd 1418 6ebe
000003b0: d189 b73d 72bc 873d e159 823d 42a3 df3d
000003c0: c187 44be 3da8 29be 54c5 a2bd fa21 0fbe
000003d0: 9568 553c 4079 453e 5a3e ef3d 8619 c5bb
000003e0: 174b 4cbd 6633 46be c65d 9f3c fef0 8dbb
000003f0: 584d a9bd c62a 51bc 86e9 0ebd 9501 803b
0.08698677 -0.06430934 0.09882871 -0.13640577 -0.16642438 -0.033943396 -0.14820674 0.07211304
0.13226783 0.121803634 0.02585408 0.13509957 -0.061103307 -0.14543253 -0.042216558 0.14115782
0.121775135 -0.12779084 -0.04849284 0.0881013 0.08709892 0.07148226 -0.15493217 0.1169899
-0.15227582 0.14345516 -0.1315668 -0.044597108 -0.06530928 0.18741432 -0.1794417 0.0804108
0.048091654 0.1238013 0.0680233 -0.08795646 0.105703324 -0.0144350175 -0.11457778 0.14462703
-0.035131417 -0.114262 0.007868738 0.05304603 -0.15693365 -0.067021206 0.15436473 0.17797618
-0.0049150144 -0.14582428 -0.17653196 0.051446192 0.03134758 0.044592626 -0.14728086 -0.006247362
0.17310931 -0.15688768 -0.062196836 0.033844657 -0.16259009 0.17937809 0.03329778 0.18356964
0.06034737 0.037777685 0.11979562 0.045110863 -0.15785319 -0.10823924 -0.11656998 -0.16135521
0.11953172 -0.00096995593 0.04778726 0.045899555 0.042017717 -0.1701099 0.117916755 0.08987074
-0.12650967 -0.102423735 0.080939114 0.1629343 -0.21273035 0.16001998 -0.016336253 0.23102427
-0.106030084 0.027517395 -0.127337 -0.12862052 -0.02930318 0.13517551 0.0544648 -0.11588862
-0.021673176 0.018619416 -0.09610046 -0.12674062 -0.23662126 -0.0025571967 -0.23623085 -0.04214616
-0.028880566 0.029772665 0.014858845 -0.0160405 0.08308183 0.016912121 -0.094118886 -0.09208988
-0.18242213 0.027899515 -0.24481153 0.08161938 -0.060560074 0.2029379 0.12284825 -0.0015997224
0.12596658 -0.23369978 0.04411033 0.037896898 -0.044146426 0.13111012 0.050165124 0.111164756
-0.065160036 0.067235485 0.14970537 -0.104946755 -0.17886344 -0.058831014 -0.085196875 -0.06661505
0.16135797 0.043624837 0.15045033 0.09446123 0.09290907 0.13980094 0.12408095 -0.0746196
-0.11226883 -0.026979467 -0.092780024 -0.095267124 -0.17692336 0.20374331 0.13189298 0.037908357
0.073391624 -0.13148664 0.12279112 -0.11016456 0.08461798 -0.06635 0.13839968 0.0493872
-0.08048368 -0.006517698 0.0792882 -0.044496242 -0.12896448 0.097360216 0.009586666 -0.007959342
0.09222241 0.043513894 -0.00909693 -0.10187353 -0.11415242 0.12985222 -0.145143 -0.12737334
-0.09560378 0.20636272 -0.004702711 0.073617354 -0.08585866 0.16907674 -0.09347382 0.08808215
0.15056391 -0.019945692 -0.1302722 0.12221328 0.021976443 0.18499215 -0.10232086 0.07081702
0.102885954 -0.11621849 -0.16862038 -0.04926684 0.14318964 -0.09788801 0.16749492 0.1104755
-0.08859358 0.066218294 -0.20486428 0.08695596 0.014946304 -0.08106924 -0.14783311 0.22761075
0.141573 0.019850932 0.057643257 -0.030758884 0.06646756 0.09771365 0.15218186 0.14316866
-0.08001187 0.06662577 -0.033084 -0.13024104 0.14359067 -0.17218807 -0.21471697 -0.020289809
0.1357094 -0.06243022 -0.0028475355 -0.20258175 -0.08152319 0.010862135 -0.07953774 -0.24651402
0.044233587 -0.1161548 -0.03926288 -0.23251373 0.08961833 0.0662774 0.06364799 0.10919811
-0.19192411 -0.16568084 -0.079477936 -0.13977805 0.013025423 0.19284534 0.116818145 -0.0060150055
-0.0498763 -0.19355544 0.019453894 -0.004331707 -0.08266705 -0.012766546 -0.034890674 0.0039064386

gru.bias_ih_l0 f4 [96]
00000000: d4a2 dc3d 7a55 cf3d cc82 033e 3944 80bd
00000010: 8373 523e a200 823d 0b9f 12bc b39e 9f3e
00000020: 00f5 c0bd 3b7b a63d 2df2 7b3e 8967 9f3d
00000030: 5f1d 523e 56bf 1fbe c274 09be d634 253d
00000040: f8cb 19be 9f32 d43d 6ada 2d3e 4f6a 96bd
00000050: 8363 64bd 22cc 23bd 11e8 493e a45b 753e
00000060: 994e 633e 6551 263e 9419 c53d d329 d3bd
00000070: 4aca 1d3e fb73 383e 0e24 7bbd baca 75bd
00000080: c6a0 16be 3780 babd 1361 403e 5291 5e3e
00000090: 5b9a 0d3d a1cc 803e 49d1 d6bd b801 36bd
000000a0: bbba 16bd b682 4b3e 41b5 773d e67a 5f3e
000000b0: 67db 43be 18ef 2b3e 8701 1bbe dd9d 6a3e
000000c0: 809d 0fbe fb7e ca3c 5b19 9b3e c7f4 14bc
000000d0: 1f46 4c3d 33c0 753e 96e8 053e 78ce 273d
000000e0: 73fc 2bbd 1293 40be ebe7 693e 8f70 2c3b
000000f0: 9017 3738 feaa e4bd fa03 9ebd 2362 e8bd
00000100: 1d79 e43d 9190 173c 8f4f fabd 3ad1 25be
00000110: 35d8 87bd 9f76 81bd 2e1a aa3d 1cf6 81bd
00000120: e85d 383e 8f56 473d eb93 4fbe 2cae 173e
00000130: 0a41 22bd f7da 6bbd 19d7 79bc 2118 023e
00000140: 7123 20bd 01ee ba3d 2418 01bd dc17 fbbc
00000150: 479e 3bbe fe74 283d f91f 84bc 0b38 393d
00000160: f6f9 e93d 2990 a8bd b2d5 193e cdbc 463c
00000170: 547d 16bd d38b 6b3e e61e 233e 8f50 2c3e
0.107732445 0.10123725 0.12842864 -0.062630124 0.20551877 0.06347777 -0.008949052 0.31175765
-0.0942173 0.08128973 0.24604101 0.0778342 0.20519017 -0.15600333 -0.13423446 0.04033359
-0.15019214 0.10361218 0.1697785 -0.073444955 -0.055758964 -0.039989598 0.19717433 0.2396074
0.22197951 0.16241987 0.09624019 -0.10310712 0.15409198 0.18012993 -0.06131368 -0.06000779
-0.14709768 -0.09106486 0.18787031 0.21735123 0.034571033 0.2515612 -0.10489137 -0.044435233
-0.036799174 0.19874081 0.06047559 0.21824226 -0.19126664 0.16790426 -0.15137301 0.22911783
-0.14024925 0.024718752 0.30292782 -0.009091563 0.04987156 0.239991 0.13077006 0.04096839
-0.0419888 -0.18806103 0.22842376 0.0026312207 4.3652544e-05 -0.11165427 -0.07715602 -0.11346843
0.11155913 0.009250776 -0.12222206 -0.16193095 -0.06633035 -0.06321453 0.08305775 -0.0634577
0.18004572 0.048666533 -0.2027127 0.14812535 -0.039612807 -0.057581868 -0.015249037 0.12704517
-0.0390963 0.09127427 -0.031517163 -0.030651025 -0.18322097 0.041127197 -0.016128527 0.045219462
0.114246294 -0.08230621 0.15022925 0.012129975 -0.036740616 0.23002557 0.15929756 0.16827606

gru.bias_hh_l0 f4 [96]
00000000: 2721 c7bd 0147 10be 324b afbd 8686 9d3c
00000010: 5049 413d 6373 c13d 6267 d93d b483 683e
00000020: 1db0 aa3d be73 9c3d ec1f 75bc f6cb 27be
00000030: d74b 093e 5610 62bd 7f12 cabd 55c8 43bc
00000040: 7be8 15be 867f 26bd 77b3 2b3e cb35 dfbd
00000050: 356e b13c 6c8d c2ba 9e13 f3bc 9415 a7bd
00000060: a2ff 373e a3b4 61bd c234 c1bd 0e78 b4bc
00000070: 1828 e83d d4cc dbbd 50da b93d b14b 57bd
00000080: 824b 253e 3dd2 883d 27f4 883d e0c7 873e
00000090: 208b 59bd cd64 4c3d 5579 0fbc 1a8c 753e
000000a0: 4937 c2bd 0f2d c03d a6d5 6c3b 762d 843d
000000b0: e5f1 953c d659 ea3d 1709 b4bc 7e77 0bbd
000000c0: e010 26be dca3 b5bd c140 83bb 2e10 c83d
000000d0: 4faf 21bd d8e0 6fbd 6b51 15be 2999 9e3d
000000e0: 722c 99bd 9f18 db3d cbdf 033c 845b d5bd
000000f0: 5e06 073e 31d8 0d3e a4ae b63d de63 e3bd
00000100: cf22 eebd 557b 5f3d 220d dc3d 85ed f7bd
00000110: ba6f 11be 9b5b 7b3d b0a3 da3d 43c6 31be
00000120: c966 063e 78eb 363d 6cbc c5bd 9162 2dbe
00000130: ebaf ab3c 4b46 82bd eb49 56be 9b1a 20be
00000140: 81ec 1c3e 9639 343e e33c 45be 6562 993d
00000150: 2b26 62be 3bb2 323e 4de8 67bd b930 273e
00000160: 1ff1 7abd 0c3e 063e 42b2 91bd 6f11 3ebe
00000170: 71d0 44be f598 193e e8d0 15be 5054 283e
-0.0972312 -0.14089586 -0.08559264 0.019229185 0.047189057 0.094458364 0.10615422 0.22706491
0.08334372 0.076392636 -0.014961224 -0.16386399 0.13407837 -0.05519136 -0.09866809 -0.011949618
-0.14639466 -0.04064896 0.16767679 -0.10898932 0.021658996 -0.0014843172 -0.02967244 -0.081584126
0.1796861 -0.05510391 -0.09433891 -0.022029903 0.11335772 -0.10732427 0.09074843 -0.05256242
0.16142085 0.06680725 0.06687193 0.2651968 -0.053111196 0.04990082 -0.008756955 0.23979226
-0.09483201 0.09383594 0.0036138087 0.064539835 0.01830382 0.11442916 -0.02197699 -0.034049504
-0.16217375 -0.08869144 -0.004005522 0.09768711 -0.039473828 -0.058564037 -0.1458184 0.07744057
-0.074791804 0.106980555 0.008048962 -0.10417846 0.13186023 0.13852002 0.08920029 -0.111030325
-0.11627733 0.054560978 0.107446924 -0.1210585 -0.14202777 0.06136666 0.10675752 -0.17360787
0.13125147 0.044658154 -0.09655079 -0.16932131 0.020957908 -0.063610636 -0.20926635 -0.15635149
0.15324594 0.17600092 -0.19261508 0.074894704 -0.22084872 0.17450802 -0.056618024 0.1632718
-0.061265107 0.13109607 -0.07114078 -0.18561338 -0.19220139 0.14999755 -0.14630473 0.16438413

output_layers.0.weight f4 [64, 32]
00000000: 5695 94bc d242 ab3d ea99 db3d 46a9 d53c
00000010: 1fcc 8c3d f56a 563d b7f1 913d ac3f 3c3e
00000020: a260 8e3c f5d3 47bc 89f9 8cbd 4940 15be
00000030: 826f 9cbd a767 983d 0595 313d 2f80 283e
00000040: f007 253e 5a7e 523d 9588 03bd c424 a63c
00000050: b674 1e3e 84dd 163e aef5 33be 7e93 00bc
00000060: 502e 75be ecc5 e63d 756d 4a3e 4e49 af3b
00000070: f017 58bd a47c 4cbe 9db5 5f3e ecc2 82be
00000080: 3e36 8b3d 4f60 ab3d e637 313e b22a 0cbe
00000090: 2cb7 bc3d 0221 423c 30c3 c1bd 0265 6dbd
000000a0: 694d bebd 210a bc3d d77e db3c db1b 1dbe
000000b0: d569 b23d 5d19 7cbd 9f63 20bc c409 1cbe
000000c0: ce63 b6bd 497c e63d e7f9 18be 1b14 703d
000000d0: cc61 f4bd 41fd f23c c000 173e 924a 0a3d
000000e0: e639 123e e64b 9ebd f233 babd 406a 543e
000000f0: 168e 62bd b164 26be 479f 6b3d fcb3 873d
00000100: 4a01 af3d 241e c3bc 8517 a63d 5564 ec3d
00000110: 01a6 90bd 2c44 dabd 997a 093c 0741 523e
00000120: d573 91bd 8f1b 49be 3124 e83d 6c7a d6bc
00000130: 197b 343d b281 96be 29f4 7e3d 9bf6 72be
00000140: 0678 193d d59e 96bd 13ee aebd c535 613d
00000150: ffd4 04be 00f0 eebd 3be9 e53c 0818 d0bd
00000160: 3538 b6bd c75a 19be 4f32 74be e70c 843d
00000170: 706b 763c 7206 04bd 3c0e efbd 6417 5a3d
00000180: 934c a3bd 3b42 35bc ced1 f63c d95c 03be
00000190: 9d62 c3bd 8201 c6bd 8c91 20be 8d40 c13d
000001a0: 6856 5cbd 83fa af3d e055 7db9 23e1 043e
000001b0: 6736 b43d becd aebb f4e4 8abd 9729 1bbd
000001c0: 98b9 173d 554a 173e 7683 443e 29c1 cb3c
000001d0: 3651 99bd a7b3 96bd 1a75 a23d c6ad 96bd
000001e0: 7963 0bbe 9e3d abbb 88f3 033e 2758 b9bd
000001f0: 0b39 b93d 72df 613d a683 28bd 3b1e 9abd
00000200: d0e8 1f3d 4a38 24bd 97d4 b9bd ad2f 5bbc
00000210: 4091 013d 59a7 b23d 1fa1 0ebe afb2 843a
00000220: 67ce 5e3d 4eff 3dbd 1335 73bd fe54 303e
00000230: c31d febd 77e5 fc3d 29f4 143e 7f9c 413e
00000240: f2f9 5bbd 0844 91bd fdbb 2c3e a297 413d
00000250: 9bce dd3d 6e2d bb3d fc61 703b 0bf9 eebd
00000260: 4b73 d33d 07e4 683d c793 dfbd 8d7f 243e
00000270: a481 0d3c d795 ffbd eb22 a3bd a6bb 2bbe
00000280: aa6e 093e 5de3 18be 6b55 0e3c 9de4 d2bd
00000290: c47f 19be 5e4c 37be 3f43 2c3e 1fcf d13c
000002a0: 4c91 82bc 762f 043e edd3 50be 3762 17bd
000002b0: 811b 0e3d 81bc 893d 07f7 0e3e c63c 893d
000002c0: 1625 6a3d 2222 0a3e b104 38bd d6c5 33be
000002d0: ba7d 44bb 401f 96bd 81c4 8cbd 2c14 2fbe
000002e0: 3c6a ce3d 9316 05be bc3f bfbc 0aab 443e
000002f0: 14ab 3ebe 7d68 433d 062e 8abc 431a 523e
00000300: 4ce5 673d afdd 97bd c7de 563e d185 3ebd
00000310: 213c 24be 5b0b 3f3d 058d 32be 231d 5dbd
00000320: 34c3 8d3d 6518 c13d 4e51 ccbc d1f2 ff3d
00000330: d1c7 993c 4592 8e3d 93d4 dd3c 5ab3 15bd
00000340: d39b 13be 65cd 4dbe 0684 893a 77b5 273e
00000350: a7ed b83d c1ad 653e e9b7 303e 2c01 84bd
00000360: d922 8abd 3a52 04bc cc9e 06bd f606 96bd
00000370: ed78 883d ac39 433e 4613 4dbe f291 513e
00000380: d91a 19be fe24 923d c4c0 333e f2b5 983b
00000390: 154a 88bd b058 f9bd 2e84 ba3c 737a 833d
000003a0: df35 08be e9e7 20bd c9cf dabd 4a98 45bd
000003b0: 61a1 253d c769 083d 0483 2abd ceee b13d
000003c0: d096 233e 883c 0cbe 84f9 9c3c 3fef e5bd
000003d0: 236c f5bd d3a9 8c3d 9b16 6f3c d6bb 03be
000003e0: 98a4 c0bc dd8b e33c 0357 1bbe da96 523d
000003f0: b153 973c c962 a63d 00ad e03d 52ee e63d
-0.018137615 0.08362354 0.10722716 0.026081692 0.068748705 0.052348096 0.071261816 0.18383664
0.017380062 -0.012196531 -0.068835326 -0.14575304 -0.07638456 0.07441645 0.043355007 0.16455148
0.16116309 0.05139003 -0.032112677 0.020281203 0.15474209 0.14732939 -0.17574188 -0.007847665
-0.23943448 0.11268219 0.19768317 0.005349315 -0.052757204 -0.19969422 0.21846624 -0.2553934
0.06797455 0.08367979 0.1730648 -0.13688162 0.09214625 0.01184869 -0.09461057 -0.057957657
-0.092921086 0.091816194 0.02679388 -0.15342657 0.08711592 -0.061547626 -0.0097893765 -0.152381
-0.08905755 0.11254174 -0.1493908 0.058612924 -0.11932716 0.029661776 0.1474638 0.033762522
0.14279899 -0.0772932 -0.09091939 0.20743656 -0.055311285 -0.16249348 0.057524946 0.06626126
0.08545168 -0.023818083 0.08109955 0.11542574 -0.07062913 -0.10657534 0.008391046 0.20532618
-0.07102171 -0.19639419 0.11335028 -0.026181422 0.044062708 -0.29395825 0.062244568 -0.23726885
0.03746798 -0.073545136 -0.08541503 0.05498292 -0.12971877 -0.1166687 0.028065315 -0.101608336
-0.088974394 -0.14976035 -0.23847316 0.064477734 0.0150402635 -0.03223271 -0.11672637 0.053244963
-0.0797359 -0.011063154 0.03012934 -0.12828387 -0.09540293 -0.09668256 -0.15680522 0.0943614
-0.05379334 0.08592703 -0.00024159951 0.12976508 0.08799439 -0.005334585 -0.067819506 -0.03788146
0.03704223 0.14774449 0.19190773 0.02487238 -0.07486193 -0.07358485 0.079324916 -0.073573634
-0.13612165 -0.005225851 0.12885869 -0.09050017 0.09044083 0.055144735 -0.041141175 -0.07525297
0.039040387 -0.040092744 -0.090737514 -0.013378066 0.03163266 0.08723325 -0.1392865 0.0010124053
0.05439606 -0.046386056 -0.059376787 0.17219922 -0.1240802 0.123484544 0.14546265 0.18907355
-0.053705163 -0.07093054 0.16868587 0.04726375 0.108304225 0.091395244 0.0036679497 -0.11668595
0.10324725 0.05685809 -0.10916858 0.16064282 0.008636866 -0.124797516 -0.079656444 -0.16770801
0.13421121 -0.14930482 0.008687357 -0.10297511 -0.14990145 -0.17900226 0.16822527 0.025611458
-0.015938424 0.1290873 -0.20393343 -0.0369589 0.0346942 0.067254074 0.13961421 0.06701045
0.057164274 0.13489583 -0.04492635 -0.17555937 -0.0029982165 -0.07330179 -0.06873418 -0.17097539
0.10078856 -0.12996893 -0.02334582 0.19205871 -0.18619949 0.04770707 -0.016867649 0.2051783
0.05661516 -0.0741533 0.2098342 -0.046514336 -0.16038562 0.04664169 -0.17436607 -0.053982865
0.06921998 0.09428481 -0.024941113 0.124974854 0.018772038 0.069614924 0.027078902 -0.036547996
-0.14414911 -0.20097883 0.0010491617 0.16377817 0.090297036 0.22429563 0.17257656 -0.06445536
-0.06744928 -0.008076245 -0.032866284 -0.073255464 0.0666369 0.19064969 -0.20026883 0.2046583
-0.14951648 0.07135962 0.17554003 0.0046603614 -0.06654755 -0.12175119 0.022768106 0.0641984
-0.133018 -0.039283667 -0.10684163 -0.048240937 0.040437106 0.033304002 -0.041628852 0.086881265
0.15975499 -0.13694966 0.019161947 -0.11227273 -0.11983516 0.06868329 0.014592792 -0.12864622
-0.023515984 0.027776653 -0.15169911 0.051413395 0.018472524 0.081243105 0.10970497 0.11275925

output_layers.0.bias f4 [64]
00000000: aec9 ddbc f99f 6f3d 20a4 41bd c74b b03c
00000010: 8bb9 7e3d 9380 0b3e 30b5 7abc 3c5f 253e
00000020: 5fb8 3fbd c59e 593e be24 ee3d 1a85 85bd
00000030: 29ed 8b3d 5f48 ca3d 2fc3 493e 5dc3 44be
00000040: d5b0 f03d 3ca4 603d 1541 dc3d 964b 14be
00000050: 6b8a 213d ee11 2b3e ab0c 6d3c 8004 313e
00000060: 40c5 503d 8229 0b3e 0b9c 183e 672f 1f3e
00000070: 9c88 9b3d 5f51 123d 9d3d e5bd b17a 92bb
00000080: 6de0 263e 8b92 88bd 3910 103d e9df 04be
00000090: c381 5e3d 4baf da3d c6d9 b53d c187 c33d
000000a0: 5d03 debd 3b12 68bb fdc9 b9bd 2b28 84bd
000000b0: 74bf d9bc 8f62 963d 07ff f73d 7b06 a53b
000000c0: 6b0b a9bd 9c69 6bbd 5b1c 0c3d e8aa de3b
000000d0: 4124 6cbd f64d 803e af6f e7bd cd13 533e
000000e0: cacc bebd 467d bf3d b947 b83d d23a 27bd
000000f0: dc77 1a3e 3ba5 323e 72bd 573e a3e0 e53d
-0.027073707 0.05850217 -0.047275662 0.021520508 0.062188666 0.13623266 -0.0153019875 0.1614961
-0.04680669 0.21251972 0.11628102 -0.06519528 0.06832344 0.09877085 0.19703363 -0.1921515
0.11752478 0.054844126 0.10754601 -0.14481959 0.039438646 0.16706058 0.014468352 0.17286873
0.050969362 0.13590053 0.14903276 0.15545426 0.075944155 0.035722133 -0.111933924 -0.0044701924
0.16296549 -0.06668576 0.03517172 -0.1297604 0.05432297 0.10677966 0.088794276 0.095473774
-0.10840485 -0.0035411257 -0.09071729 -0.06452974 -0.02658055 0.07343017 0.121091895 0.005036173
-0.08254131 -0.057473764 0.03420673 0.006795276 -0.057651762 0.2505948 -0.11300599 0.20613022
-0.09316404 0.09350066 0.08998055 -0.04082758 0.15084785 0.17445843 0.21068361 0.11224487

output_layers.3.weight f4 [32, 64]
00000000: 3d79 d13d c7b1 15bd 6d8e ea3d b55f c33b
00000010: 1161 1c3e 75f8 433e 3602 c6bc ef56 443c
00000020: b3a6 59bc cc6b 83bb f878 ca3c b33a dc3d
00000030: bd36 97bd e934 a13c 1e1f e0bc 2c02 50bc
00000040: bd30 1c3e 83da 1c3e 1b4b 8b3d 238e c03d
00000050: da82 44bb 5e73 d5bb 7b58 f13d 807d e6bb
00000060: 567e fc3d 54eb 923d 835e 313d 0d0b ff3c
00000070: 088a 423e f61c adbc 04b0 54bc ee60 a43d
00000080: f0bd 473e aa18 203e d0db 793d ce44 ccbb
00000090: 08d8 fe38 322f 8539 5a0a bd3d 27e3 113b
000000a0: 2099 263e e969 ecbc 1212 3d3d c43c d0bd
000000b0: 3524 833d 3297 bf3d a811 993c e8d4 4e3c
000000c0: fc44 6b3d 5234 b9bd 4618 653d 4e50 963d
000000d0: 66e3 e33d 0cb6 113e c3c7 a43b fe35 223e
000000e0: fc3d c0bd d2ab 4b3a 1677 953c aff6 233e
000000f0: 2d91 663d 262a 433e 6157 f43d e068 b43d
00000100: 5bbc 2abe 5d0e 293d 8ed6 94bc 0501 5c3d
00000110: dd53 3b3c 2cf8 0a3d fa67 e8bd 0ac9 e6bd
00000120: 6476 893d c9f6 19be fa1c b3bd 8c3e f73d
00000130: a2b7 063d 96ee 01be c40d 91bd 554b d1bd
00000140: 265b d5bd 629c 05be 7759 0a3d 6f0d 18be
00000150: be3a a6bd 0412 423c 8745 a2bd f716 dc3c
00000160: c565 48bd 8d3c 1b3c 627b 403c bbe2 efbc
00000170: 4934 f43d abbc 393c cfc5 a6bb e810 293d
00000180: 2a8b 123b af56 8b3d 0c42 7a3d 9c7d 0abe
00000190: 1cd9 5dbd 19ef 9a3d 53f4 b43c d5f1 cb3d
000001a0: 7d78 61bd 54dd 15be a3a9 dfbd b9bc 84bd
000001b0: c798 8ebc 7a0f 3d3d 1132 a2bc ea01 1dbe
000001c0: 84a8 89bd 8611 863d fcd5 ea3d 129e 03bd
000001d0: 686d 4bb9 e424 44bd 32b4 173d a14b 8b3d
000001e0: 351a bcbd 5bd9 25bd 3e31 c1bc 8ba6 d3bd
000001f0: 1506 793d 47a3 5ebd 0505 993c 706d c73d
00000200: b2e2 48bd e3b4 a83d aa9b 6f3e 66be 323e
00000210: 4c15 2abd 019e babd 909e c23d 1fc9 e13d
00000220: 3683 ed3d 3daa 60bc df15 ef3d 54ff c3bd
00000230: 7252 193e d521 b53d b13f b1bd 8edf f53d
00000240: f2f2 e23d b3ba 20bd 89dc 22bd 1422 413e
00000250: 4cc4 9dbd 80ff fabd 3181 103e 4f64 e3bc
00000260: 2685 20ba 4a64 89bb 0b0a 4dbd abac 5f3d
00000270: 3e21 c1bd 26e0 303e 084e 3dbd 5d3a a4bd
00000280: 573d cc3c 910a d83d 3d8a 373d 963e 30bd
00000290: c382 353d e7f0 d23d 5f7e 1bbc 6d97 8bbd
000002a0: 9c97 ec39 8d6e 00be 3053 793b 7f6f 0d3d
000002b0: d0e4 a63d c34f 1fbd 75ee 39bd 2425 1b3e
000002c0: ab21 60bd da3d f13d fc0d 323c 8d32 9fbd
000002d0: 7c54 6cbd d083 60bd ed75 7dbd 68d9 dabd
000002e0: 4956 c1bc 2d68 89bc cb5f cf3d 9bf4 0f3e
000002f0: bc64 dbbd 0e2e a2bd 7e98 e43d 13e0 9ebd
00000300: b878 0bbe 6f04 1d3d de90 3abc e41b 943d
00000310: 7c74 7e3d bf57 c9bd 51bf 963d 2118 e0bb
00000320: 79d3 c9bd c6c8 f0bc 1d70 15bd 9720 1bbd
00000330: 6b6b 403c 2afd 183c 216b 843d 0bed 7ebd
00000340: a887 06be 9ea0 05be e922 abbd 5fde 4bbd
00000350: 70c8 cfbd 89ab 48bd ddf4 b7bd c6d3 b2b9
00000360: 4480 a03a 26ce 0cbd b552 09be 664f b43d
00000370: 5417 02be 877e a03d 49c3 cbbd 987f 91bd
00000380: 6b66 99bd afe0 d4bd d3ec 8d3d 76ab a3bd
00000390: 0084 dbbb 074c 023d 3f29 82bd 01db b1bd
000003a0: ee43 623d 12f9 573d d272 b5bd 0b26 edbd
000003b0: 5b0f c5bd 0b85 323a 07a6 e8bd 320f e7bc
000003c0: 0064 cb3d 432a a8bd d52f 92bd 5949 85bd
000003d0: 5572 a6bd fbc4 0fbd e5ce b1bc 77b8 bb3d
000003e0: 8f8d a13d 51d1 3fbd 28f3 833c 963b b7bc
000003f0: 35e7 9abd 8847 c3bd cd3a dabd e536 6ebc
0.102282025 -0.036546495 0.11452947 0.005962337 0.15271403 0.19137748 -0.024170976 0.011983617
-0.013284373 -0.004010653 0.024715886 0.107533835 -0.073834874 0.01967855 -0.027358588 -0.01269583
0.15252967 0.1531773 0.068014346 0.094021104 -0.002998522 -0.006513997 0.117844544 -0.0070340037
0.12328784 0.071737915 0.043303024 0.0311332 0.18997967 -0.021131974 -0.0129814185 0.080263
0.19506049 0.15634409 0.061000645 -0.006233788 0.00012151903 0.000254029 0.0923049 0.0022260637
0.1626935 -0.028859096 0.04615981 -0.1016784 0.0640339 0.0935501 0.018685177 0.012624003
0.057438836 -0.090431824 0.055931352 0.07339536 0.11127357 0.14229602 0.0050286963 0.15840909
-0.093868226 0.00077694387 0.018245261 0.16012071 0.056290794 0.19059047 0.11930729 0.08809066
-0.16673414 0.041273464 -0.018168714 0.05371191 0.011433569 0.03392808 -0.11347957 -0.11268814
0.06712034 -0.15035547 -0.08745761 0.12072477 0.03288997 -0.1268867 -0.07082704 -0.102194466
-0.10417776 -0.13047937 0.033776727 -0.14848875 -0.08116673 0.011845116 -0.079234175 0.02686642
-0.04892518 0.009474886 0.011748167 -0.029282918 0.11924035 0.011336486 -0.0050894986 0.04127589
0.002236078 0.06803643 0.061098143 -0.13524479 -0.05416213 0.075651355 0.02208916 0.09958235
-0.055046547 -0.14635211 -0.109210275 -0.064813085 -0.017406834 0.046157338 -0.019799264 -0.15332761
-0.06721595 0.06546311 0.114665955 -0.03213317 -0.00019400346 -0.047886744 0.037037082 0.068015344
-0.09184686 -0.04049049 -0.02358305 -0.103345 0.060796816 -0.054354932 0.018679151 0.097376704
-0.04904432 0.082376264 0.23399225 0.17455444 -0.041524217 -0.09112168 0.095029 0.11024689
0.11597292 -0.013712463 0.116740935 -0.09570184 0.14972857 0.088443436 -0.08654726 0.1200553
0.110814944 -0.03924055 -0.0397611 0.18860656 -0.07703456 -0.12255764 0.14111783 -0.027757792
-0.0006123356 -0.0041928636 -0.050058406 0.05460803 -0.094301686 0.17273006 -0.046216995 -0.080189444
0.024931593 0.105488904 0.04480957 -0.043028437 0.044314157 0.10299855 -0.009490578 -0.068159916
0.00045126386 -0.12542172 0.0038043968 0.03453016 0.08149111 -0.038894426 -0.045393426 0.15150887
-0.05471961 0.117793754 0.010867592 -0.07773314 -0.057697758 -0.054813206 -0.06188004 -0.10685998
-0.023600714 -0.016773308 0.10125693 0.14058153 -0.10712573 -0.079189405 0.11161898 -0.077575825
-0.1362027 0.038334306 -0.011387078 0.07231882 0.062122807 -0.09831189 0.073607095 -0.006838814
-0.09854788 -0.029392611 -0.036483873 -0.037872877 0.01174436 0.009337703 0.06465746 -0.06223778
-0.13137686 -0.13049552 -0.08356268 -0.049772616 -0.10145652 -0.048991714 -0.08982251 -0.0003410859
0.0012245257 -0.034376286 -0.13410456 0.088042066 -0.12704211 0.07836633 -0.09949357 -0.07104415
-0.07490238 -0.103944175 0.06929936 -0.07991688 -0.0066990852 0.031810787 -0.06355523 -0.0868435
0.055240564 0.052727766 -0.08859791 -0.11579522 -0.096220694 0.0006809986 -0.11359792 -0.028205488
0.09931183 -0.08211186 -0.071380295 -0.065081306 -0.08127276 -0.035099965 -0.0217051 0.09166043
0.07888328 -0.04683048 0.016107157 -0.02236728 -0.075636305 -0.09535128 -0.106557466 -0.014539455

output_layers.3.bias f4 [32]
00000000: 4d72 1a3e 6ff0 8b3d 6ca1 1a3d afe1 9e3d
00000010: da93 c5bc 1bce 923d 8ee7 86bd bf9d b7bb
00000020: c99e 993c 1da0 dc3d e58c c7bd 0d76 c73d
00000030: adfb 2abd 6d6d 563d 7268 a0bd 1b5a 28bd
00000040: 886c 49bc 7e8e 95bd fb03 693d f34b 55bd
00000050: b6bd cdbd 2a8b fabd 7157 a1bd 59f2 1a3d
00000060: c129 d93d e658 0e3c 93e9 c3bc fd6a 123e
00000070: 58a4 6e3d b099 2a3d 3002 bb3c 5dba 143d
0.15082665 0.068329684 0.0377516 0.077578895 -0.024118353 0.07168218 -0.06587134 -0.0056035216
0.018752472 0.10772727 -0.097436704 0.09739313 -0.041743923 0.05235045 -0.07832421 -0.041101556
-0.012293942 -0.07302569 0.05688856 -0.052074384 -0.1004595 -0.12233575 -0.07878006 0.037828777
0.10603667 0.008688187 -0.023915088 0.14298625 0.0582622 0.041650474 0.022828192 0.036310542

output_layers.6.weight f4 [2, 32]
00000000: 5709 583c 07ca c3bd 1349 fe3d 43d1 433e
00000010: 9527 053e 6470 2e3a 6694 fe3d 0a98 d6b8
00000020: 6164 dfbd 3bfc 7f3b dd9f 0cbe d751 86bd
00000030: e9e2 db3d 6a99 96bb f7f4 0e3e 2271 92bd
00000040: fdda 283e cfe1 49bb 2f81 2c3e 6708 453e
00000050: 661c 7e3c 65de 263d 5568 a23d a974 c03c
00000060: c656 28bd 2511 df3d d45a 523b 422c 7abc
00000070: da82 173e 3f8d a13d fe00 b7bd af11 3c3c
00000080: a547 1cbe 97e6 49bd 2ec1 7cbe 0c99 003e
00000090: e109 bf3d a540 37be 5d03 67be d81b 54be
000000a0: 9697 033e d671 8abe 890c c63d 0592 81be
000000b0: a5cf aabb dcde 8cbe f431 df3d 6188 cdbd
000000c0: e360 99bc 95ee 083e 5335 cf3d 12bb f6bd
000000d0: 630a 80ba d20a b33d 7d1d 84be de6a 5bbe
000000e0: b9f4 17be 65bb 01be 233a e13d 272a 8bbe
000000f0: 6ca3 ecbd 41bb 9e3c 2702 4bbe 9636 8dbe
0.013185821 -0.09560018 0.124162816 0.19122796 0.1300338 0.0006654321 0.124306485 -0.00010232635
-0.10907818 0.0039060253 -0.13732858 -0.065585785 0.10736639 -0.004595925 0.13960634 -0.071504846
0.16489787 -0.0030804758 0.16846155 0.19241486 0.0155097 0.040739436 0.07930056 0.023493128
-0.04109838 0.10891942 0.0032097595 -0.015269341 0.1479601 0.07888269 -0.08935736 0.0114788255
-0.15261705 -0.049292173 -0.24683067 0.12558383 0.09328056 -0.17895754 -0.22559877 -0.20713747
0.12850794 -0.27039975 0.0967036 -0.25306717 -0.0052127414 -0.27513778 0.108982 -0.10035778
-0.018722957 0.13372262 0.10117593 -0.120473996 -0.000976872 0.08742298 -0.25803748 -0.21427485
-0.14839448 -0.12669142 0.10997417 -0.27180597 -0.11554608 0.019376399 -0.1982504 -0.27580708

output_layers.6.bias f4 [2]
00000000: e6db 003e 18d0 64bd
0.12583885 -0.055862516

exp_avg f4 [96, 15]
00000000: e260 a038 695e ad38 4f05 8538 5b21 9a38
00000010: f675 083a 64ff f039 0d5e 1e3a 159a 083a
00000020: 9042 173a e70e d7b9 a623 df39 498d 4f39
00000030: 0000 0000 ae9d ff39 9e94 f038 ece3 e6b8
00000040: 823b c6b8 c015 11b9 5125 03b9 4aee 0d3a
00000050: 5c94 3cba 3818 8e39 2f02 f339 6dfb c939
00000060: a953 56ba 204e b539 6c2c 47b8 0000 0000
00000070: e2d3 3539 6502 4639 f6ff 0cba f5b2 0eba
00000080: c25b 14ba 833f 14ba e88d 80b9 1c59 7739
00000090: 9467 ccb9 f35d f0b9 258e b3b8 4ba2 39ba
000000a0: 5e83 35b8 d1b5 bdb8 0000 0000 0aab 9eb8
000000b0: f4a1 70b9 958a 993a e4fd 9b3a 175e 933a
000000c0: a369 973a db8d 6d3a 4a42 bdba f8ba 14b9
000000d0: 47fa 2c39 176d b43a 53d0 9eb9 15b9 303a
000000e0: 6b11 213a 0000 0000 c808 103a ce9e fa39
000000f0: a02d 0339 b3c0 0739 103a 0539 b4c2 0939
00000100: 0d99 f1b9 a45f 3aba 97d2 29b9 3785 53b7
00000110: 11aa dab8 25a6 433a 6763 77b8 19fc 4cb9
00000120: 0000 0000 5480 b8b8 fc13 3638 b961 283a
00000130: be92 2a3a 9892 203a ef9b 273a efe9 8b3a
00000140: d87f 813a e851 703a fc3a 423a 0adb f13a
00000150: 1595 853a 2f3e 5e3a 5db7 0d3a 0000 0000
00000160: be55 1f3a 4daf 8c39 cea2 2e39 1048 2d39
00000170: 4da5 2239 a711 2b39 f7be 1a3a e016 6cb9
00000180: f748 84b9 d935 5bb9 0610 003a 2827 bdba
00000190: db11 c539 5231 d939 0000 0000 4c24 d5b8
000001a0: 7cca 9fb8 0627 2e3b a577 2e3b 5ee4 2d3b
000001b0: 2c50 2e3b fc97 cab7 c7a3 49ba 3ef8 3db9
000001c0: bb90 b137 93d2 d639 ef10 213a 3ba5 ac39
000001d0: e166 e839 0000 0000 7ddc 25b9 4464 7339
000001e0: f48a 7a3b 8165 7d3b 34fd 783b deb1 7d3b
000001f0: b3a5 a0b8 7b4b 183b 19b2 2e3b ff6c 173b
00000200: 4c68 873b 625c 4c3b 0a8f 813a f83c 093a
00000210: 0000 0000 cfd8 dcb9 bfac 49b9 ddee f639
00000220: 9bc2 f339 f160 f339 ba00 f039 3145 1b39
00000230: 5136 50b9 4c31 efb9 7a0d e5b9 970f 20b9
00000240: f427 ddba 5544 9e38 eb0f 2a3a 0000 0000
00000250: 9e43 0db8 e290 563a b877 8139 2bca 8539
00000260: 0a32 7239 0774 7c39 0874 8738 bf99 83b9
00000270: 5f62 6db9 0a0a 40b9 2ce5 b439 7e20 bcba
00000280: 0c9d 5039 f04d 0939 0000 0000 ace1 1537
00000290: 7e1f b538 b75e e0b8 6fbd e2b8 96d6 ebb8
000002a0: 1663 e7b8 3e42 3238 b324 5f39 5e75 b5b7
000002b0: 69a6 89b8 6547 75b7 e3c2 8cb9 4db9 dfb7
000002c0: f612 e8b7 0000 0000 f2ca 41b8 6c8f f1b7
000002d0: 7037 92b9 2487 8fb9 775b 96b9 cc59 8db9
000002e0: a222 6338 fb6f f8b9 f15c 6538 a464 4539
000002f0: 8358 ef39 f69a 003a 12bb 0739 a1c2 68b8
00000300: 0000 0000 9435 00b7 cca0 6038 25e1 333a
00000310: 5123 333a 7f56 313a 1be4 343a bdf5 203a
00000320: 418b 163a 8eca e839 7dd2 ab39 da6b fc38
00000330: 99b2 0ebb 6450 7c39 2456 4539 0000 0000
00000340: ddd4 2439 f9c5 3439 14ad 19ba caf2 18ba
00000350: a802 1cba f223 1aba 4dbf dd39 4e67 08b9
00000360: 3da1 5337 68b1 2938 7ed8 9939 b6c5 e5b9
00000370: c5a9 3039 5ecf 3339 0000 0000 bc67 2737
00000380: de77 bf39 8fd2 8f3a 9fa5 903a 6da0 883a
00000390: 0a12 8f3a 63aa 953b 3d42 9c3a e888 a739
000003a0: 2f1c 5139 4d5d e53a 37f0 aebb 7a5c 933a
000003b0: 4212 64ba 0000 0000 711a 8fb9 3388 beba
000003c0: 0e50 223a 7229 213a 7112 203a 0b30 213a
000003d0: 6c27 d639 b152 3bb9 e1cd dcb7 a39e 0d38
000003e0: 76ee 6639 25b7 0538 ec90 5539 08b5 2d39
000003f0: 0000 0000 2042 1739 346b e837 6141 243a
7.64744e-05 8.266868e-05 6.342923e-05 7.349505e-05 0.0005205566 0.00045966648 0.00060412363 0.00052109483
0.00057701115 -0.000410191 0.00042560435 0.00019793691 0.0 0.0004875487 0.00011471774 -0.000110097084
-9.45246e-05 -0.0001383638 -0.00012507035 0.0005414231 -0.0007193738 0.00027102395 0.000463502 0.00038525034
-0.00081759185 0.00034581218 -4.748667e-05 0.0 0.00017340438 0.00018883643 -0.00053787173 -0.0005443537
-0.0005659425 -0.0005655216 -0.0002451979 0.00023588951 -0.00038987084 -0.00045846365 -8.5618616e-05 -0.00070813735
-4.3276108e-05 -9.046088e-05 0.0 -7.5658856e-05 -0.00022948516 0.0011714274 0.0011901227 0.0011243251
0.0011551868 0.00090619706 -0.0014439311 -0.00014184031 0.00016496434 0.0013765421 -0.00030291322 0.00067414466
0.0006144258 0.0 0.00054944726 0.00047802035 0.0001251013 0.0001294639 0.00012705498 0.0001313787
-0.00046081134 -0.00071095885 -0.00016195547 -1.2607597e-05 -0.000104267274 0.0007463417 -5.8981965e-05 -0.0001954887
0.0 -8.797707e-05 4.3410793e-05 0.0006423253 0.00065068516 0.000612536 0.00063937803 0.0010674576
0.0009880019 0.00091674784 0.0007409302 0.001845212 0.0010191525 0.0008477894 0.00054060464 0.0
0.0006078145 0.0002683349 0.00016654583 0.00016525411 0.00015511103 0.00016314407 0.000590309 -0.00022515235
-0.00025231365 -0.00020905527 0.00048852 -0.0014431225 0.0003758807 0.00041426212 0.0 -0.00010163392
-7.6194265e-05 0.0026573553 0.0026621607 0.0026533823 0.002659808 -2.415105e-05 -0.0007691946 -0.00018116922
2.116744e-05 0.0004097415 0.0006144186 0.00032929503 0.0004432714 0.0 -0.00015817765 0.00023211638
0.0038229795 0.0038665237 0.0037992718 0.0038710753 -7.6602584e-05 0.002323835 0.0026656447 0.0023105738
0.004132306 0.0031182994 0.0009884548 0.00052352203 0.0 -0.00042123205 -0.00019233207 0.00047098743
0.00046493564 0.000464208 0.00045776909 0.00014807728 -0.0001985666 -0.0004562236 -0.00043688325 -0.00015264597
-0.0016872869 7.546755e-05 0.00064873573 0.0 -3.3679993e-05 0.00081850414 0.00024693995 0.00025518364
0.0002309756 0.00024075816 6.458914e-05 -0.00025100817 -0.00022638727 -0.00018314287 0.00034503022 -0.0014352945
0.0001989493 0.00013094372 0.0 8.933635e-06 8.6366184e-05 -0.00010698794 -0.000108118045 -0.00011245643
-0.000110333945 4.25002e-05 0.00021280609 -2.1631535e-05 -6.5636654e-05 -1.4619761e-05 -0.00026848083 -2.6669959e-05
-2.7665385e-05 0.0 -4.6203793e-05 -2.8796225e-05 -0.00027888594 -0.00027375773 -0.00028678376 -0.0002696052
5.415327e-05 -0.00047385678 5.4684413e-05 0.00018824876 0.0004565158 0.00049059035 0.00012944292 -5.5494373e-05
0.0 -7.641869e-06 5.3555515e-05 0.0006861857 0.00068335707 0.0006764903 0.00069004454 0.00061401335
0.00057427963 0.00044401403 0.00032772488 0.00012036385 -0.0021773933 0.0002406254 0.00018819474 0.0
0.00015719557 0.00017239888 -0.00058622775 -0.0005834518 -0.00059513235 -0.000587999 0.00042294935 -0.00013008455
1.2614121e-05 4.0457962e-05 0.00029343733 -0.0004382559 0.00016847912 0.0001714802 0.0 9.978128e-06
0.00036519667 0.0010972786 0.0011035687 0.0010423787 0.001091541 0.004567431 0.0011921596 0.00031954725
0.00019942292 0.0017499119 -0.0053386944 0.001124277 -0.00087002304 0.0 -0.00027294786 -0.001453644
0.00061917386 0.00061478384 0.00061062636 0.00061488216 0.00040846632 -0.00017864515 -2.6321914e-05 3.376476e-05
0.00022023343 3.1880238e-05 0.0002036725 0.00016566005 0.0 0.00014425116 2.7706476e-05 0.0006265846

exp_avg_sq f4 [96, 15]
00000000: 22dc 2134 1c2f 2234 698d 2234 f360 2234
00000010: e778 4133 e6b0 cf32 c890 c832 8e27 9c32
00000020: 9015 fb32 8fef 9933 009e 4d32 900a 9431
00000030: 0000 0000 0aee 8932 f108 4a31 7a12 3035
00000040: ec2b 2f35 a45e 2d35 7349 2d35 76bf 2334
00000050: 110d 9a33 30c1 4933 2d59 4c33 dc70 a033
00000060: 0467 4434 9726 0433 b366 9b33 0000 0000
00000070: e5a2 8033 38be 1132 c6f2 c134 dea6 c134
00000080: 42ba bd34 4a88 be34 ec78 7633 4246 6e33
00000090: c09d 7a33 4c55 8833 3036 3a33 9df9 9534
000000a0: bf5c 3432 0172 9634 0000 0000 323a 0034
000000b0: d560 1534 594e 5135 b076 5135 3517 5035
000000c0: 9365 5035 9b96 0f34 6bab 2f34 f17f a733
000000d0: 1824 9033 4816 d433 260b 3e35 de82 f632
000000e0: d8b2 4a33 0000 0000 5984 0833 4fe7 6033
000000f0: e30f 1034 56dc 0f34 b979 0f34 3202 0f34
00000100: 37fa b733 e9fd 7c33 b3e9 0533 0d9a da32
00000110: 55e4 1433 fda7 6534 dc0a 6132 0bfc 5133
00000120: 0000 0000 d1c2 b132 bea3 8532 08a4 2735
00000130: e5c2 2735 558e 2735 195e 2735 920a db33
00000140: 1172 ef33 1b7d 0f33 7466 cd32 fc38 1434
00000150: eac5 1535 7394 0b33 f54e c232 0000 0000
00000160: ce6c e732 b187 d331 0222 2534 4cf6 2434
00000170: 91aa 2534 45a2 2534 2498 4833 d756 3433
00000180: 3c65 8533 f682 5733 29b5 3433 b0b8 c134
00000190: c0e8 8932 8402 a132 0000 0000 dacd 2a32
000001a0: 1d15 1232 6480 e834 9bf0 e834 9913 e834
000001b0: beba e834 46b5 b833 d19f 7833 2afd 5c33
000001c0: d555 3033 c3ee 2433 615b 0c35 e444 a132
000001d0: 0bfa e432 0000 0000 d002 de32 a475 db31
000001e0: cbae 0537 cfe9 0537 2593 0537 aaab 0537
000001f0: 443e 7a35 0738 1535 2409 aa35 09fa 9335
00000200: 835b 0436 59c5 c236 cc96 a434 ed7b 9934
00000210: 0000 0000 f571 9035 ff2c 0a34 f3f2 6e33
00000220: 3ca8 6d33 de38 7033 0851 6f33 70cb 6d33
00000230: 72c4 4f32 2d13 da32 5c94 d632 f6b9 2d33
00000240: d522 7834 308b 8533 238a c233 0000 0000
00000250: 3e20 ea33 ef7d 5833 477c cf34 eb04 d034
00000260: e48a cf34 2aa8 d034 eade 8233 a2d0 1233
00000270: b219 a832 ec0c 9132 8da6 0233 f5f2 8834
00000280: 3a3b 5332 77da 0532 0000 0000 9f87 4632
00000290: e01f 5331 905c ee32 c26d ee32 e548 ed32
000002a0: e1d5 ec32 1dff 9d31 3443 be31 e714 8d31
000002b0: 7f8b 9331 db67 a231 69bb 1a32 a21c 0931
000002c0: dbd8 0f32 0000 0000 d14b a431 7a65 3830
000002d0: b048 7a34 9d33 7a34 408f 7a34 b0f1 7934
000002e0: b5e6 4b33 0c34 8333 3791 8a33 f6cb 6d33
000002f0: e878 5933 d43a 8f34 75e8 9632 f205 b632
00000300: 0000 0000 4300 9d32 6219 6e32 8d76 0a34
00000310: 6cda 0a34 cc7a 0a34 0748 0b34 80e3 1633
00000320: d89f 0133 0c78 9432 7611 3a32 a906 0e32
00000330: 4612 8934 6e05 d531 8510 9831 0000 0000
00000340: 2b7d ca31 b7e9 0732 c904 0b34 148a 0a34
00000350: f3f0 0a34 f987 0a34 ff60 e232 55af 9d32
00000360: 1a47 cc31 00ee db31 1d4d ba32 d1bd b832
00000370: c988 d531 fd8c 9d32 0000 0000 f954 8a32
00000380: cc6b d733 e2ec 9936 fd1c 9a36 9f2c 9a36
00000390: 47f1 9936 619b 0436 571b 0835 da46 1f35
000003a0: b8b4 0b35 0c4f 5b35 249b 4236 1fc7 8434
000003b0: 0a2b 3c34 0000 0000 984d 5834 b73f 2134
000003c0: cdf9 6433 5b65 6533 e764 6433 b7b7 6433
000003d0: d7b3 8632 62a8 d931 b41a 9c31 497d 7e31
000003e0: abd6 1832 efa2 c932 ac92 6031 53f5 1731
000003f0: 0000 0000 4262 7531 88b8 cd2f c662 ed33
1.5074377e-07 1.5104564e-07 1.513887e-07 1.5122696e-07 4.5046274e-08 2.4178416e-08 2.3348903e-08 1.8178778e-08
2.9230051e-08 7.168193e-08 1.19684955e-08 4.3085677e-09 0.0 1.6057147e-08 2.9399951e-09 6.5591996e-07
6.5256495e-07 6.458524e-07 6.4554405e-07 1.5250211e-07 7.1735606e-08 4.6974662e-08 4.7578556e-08 7.4711096e-08
1.82914e-07 3.0768742e-08 7.236431e-08 0.0 5.990095e-08 8.483362e-09 3.6125692e-07 3.6070463e-07
3.5339514e-07 3.548942e-07 5.7386316e-08 5.5477592e-08 5.8351134e-08 6.348509e-08 4.3355783e-08 2.793503e-07
1.0498467e-08 2.8022626e-07 0.0 1.19421e-07 1.3911934e-07 7.797258e-07 7.803128e-07 7.751981e-07
7.763385e-07 1.3372703e-07 1.6360507e-07 7.799816e-08 6.712088e-08 9.876072e-08 7.079674e-07 2.869768e-08
4.7194447e-08 0.0 3.1785337e-08 5.2364438e-08 1.3416825e-07 1.339807e-07 1.3362195e-07 1.3318711e-07
8.5671154e-08 5.8904252e-08 3.1179024e-08 2.5448594e-08 3.4666602e-08 2.1388401e-07 1.3099193e-08 4.8890836e-08
0.0 2.0694104e-08 1.55577e-08 6.2451045e-07 6.2495957e-07 6.241947e-07 6.234928e-07 1.0199905e-07
1.1150053e-07 3.3408565e-08 2.3911731e-08 1.3804305e-07 5.579483e-07 3.2498473e-08 2.2620478e-08 0.0
2.6941418e-08 6.1563346e-09 1.5379194e-07 1.5363293e-07 1.5428874e-07 1.5425856e-07 4.67045e-08 4.1988496e-08
6.2117095e-08 5.0177697e-08 4.207428e-08 3.608343e-07 1.6054742e-08 1.874401e-08 0.0 9.942108e-09
8.503119e-09 4.3306784e-07 4.338843e-07 4.3227627e-07 4.334924e-07 8.601141e-08 5.7887352e-08 5.1452993e-08
4.1056257e-08 3.8401378e-08 5.228704e-07 1.8774195e-08 2.66564e-08 0.0 2.584548e-08 6.387113e-09
7.968115e-06 7.981856e-06 7.9616775e-06 7.967386e-06 9.3222866e-07 5.5588356e-07 1.2668647e-06 1.1025123e-06
1.97228e-06 5.804625e-06 3.06571e-07 2.858864e-07 0.0 1.0762002e-06 1.2868621e-07 5.5634654e-08
5.533387e-08 5.5931075e-08 5.572022e-08 5.5365888e-08 1.2093652e-08 2.538726e-08 2.4980345e-08 4.0448832e-08
2.3109472e-07 6.218613e-08 9.058956e-08 0.0 1.0902339e-07 5.0405955e-08 3.8647178e-07 3.8746597e-07
3.865781e-07 3.8865375e-07 6.0941446e-08 3.4183024e-08 1.9569459e-08 1.6886098e-08 3.041946e-08 2.5508749e-07
1.2295283e-08 7.791292e-09 0.0 1.15559535e-08 3.072266e-09 2.774894e-08 2.7756759e-08 2.762358e-08
2.7571277e-08 4.5983044e-09 5.537368e-09 4.1060164e-09 4.294122e-09 4.7266275e-09 9.006592e-09 1.99524e-09
8.373003e-09 0.0 4.7816475e-09 6.7083017e-10 2.3309508e-07 2.3301841e-07 2.3335178e-07 2.3277858e-07
4.7474447e-08 6.10963e-08 6.45254e-08 5.5366364e-08 5.0634213e-08 2.667863e-07 1.7568007e-08 2.1190292e-08
0.0 1.8277325e-08 1.3859195e-08 1.289538e-07 1.2931713e-07 1.2896925e-07 1.2971587e-07 3.5131507e-08
3.018053e-08 1.7284059e-08 1.0830595e-08 8.267002e-09 2.5531534e-07 6.199733e-09 4.4256603e-09 0.0
5.8932037e-09 7.911175e-09 1.2947125e-07 1.2902484e-07 1.2939908e-07 1.2901718e-07 2.6353971e-08 1.8356937e-08
5.9452647e-09 6.4007963e-09 2.1688317e-08 2.1506738e-08 6.2146666e-09 1.834132e-08 0.0 1.6103956e-08
1.0031326e-07 4.587332e-06 4.5929323e-06 4.594752e-06 4.5878437e-06 1.9759975e-06 5.070373e-07 5.933522e-07
5.2044516e-07 8.1698886e-07 2.8998556e-06 2.4731796e-07 1.7524522e-07 0.0 2.0144796e-07 1.5017473e-07
5.331258e-08 5.34104e-08 5.3177157e-08 5.3252474e-08 1.5681435e-08 6.334674e-09 4.5432333e-09 3.703308e-09
8.896374e-09 2.3473573e-08 3.2679663e-09 2.2112843e-09 0.0 3.5708045e-09 3.74204e-10 1.1054139e-07
