logs/bandit_training/version_6/checkpoints/epoch=59-step=240.ckpt (torch, 121179 bytes, 30 tensors)

gru.weight_ih_l0 f4 [96, 15]
0	0x3d821818	0.06352252
1	0x3cab7f14	0.020934619
2	0xbb05e425	-0.0020430174
3	0x3d0c86ef	0.03430837
4	0x3e27eb3c	0.16398329
5	0x3e6651d6	0.22492155
6	0x3e3c3716	0.18380389
7	0x3e58aa2d	0.21158667
8	0xbd2f4e43	-0.042799246
9	0x3b08eba5	0.0020892408
10	0xbdcb7545	-0.09934477
11	0x3caf35d3	0.02138797
12	0x3dc9c062	0.09851147
13	0xbdd56fe0	-0.10421729
14	0xbe21d44c	-0.15803641
15	0xbe2b0385	-0.16700561
16	0x3e249a44	0.16074473
17	0xbbc7ebc0	-0.0061011016
18	0x3b9ce9ea	0.004788627
19	0x3dde8c2b	0.10866579
20	0x3e3f158c	0.18660563
21	0x3e3fc421	0.18727161
22	0x3df8ddd2	0.12151684
23	0xbdfb8a71	-0.12282265
24	0x3e0c1e86	0.13683519
25	0xbe0e156d	-0.13875361
26	0x3d98eedc	0.07467434
27	0x3e25d953	0.16196184
28	0x3e15147d	0.14558597
29	0xbdfaff4f	-0.122557275
30	0x3e26fcec	0.1630742
31	0x39f2935c	0.00046267628
32	0x3e2c8d32	0.16850737
33	0x3dd50553	0.10401406
34	0x3e42a792	0.19009236
35	0xbe11f335	-0.14252932
36	0x3cb06f17	0.021537347
37	0xbd751f71	-0.059844438
38	0xbe170228	-0.14746916
39	0x3e4015c5	0.18758304
40	0x3e067732	0.13131407
41	0xbd1fc85f	-0.03900945
42	0x3dc371ba	0.09543176
43	0x3ceb906d	0.028755391
44	0xbe08905e	-0.13336322
45	0xbe129206	-0.14313516
46	0xbd7d7596	-0.061879717
47	0x3d358696	0.044317804
48	0xbe42b7f2	-0.19015482
49	0x3dac79d7	0.084216766
50	0xbab92f92	-0.0014128557
51	0x3d88aa56	0.06673114
52	0x3e2d4015	0.16918977
53	0x3d4a2579	0.049352143
54	0xbdea0b03	-0.114278816
55	0xbc2b1c9b	-0.010443832
56	0xbe319439	-0.17341699
57	0xbdb4acd9	-0.088220306
58	0xbe0d88c9	-0.1382171
59	0xbcf0fafe	-0.029416557
60	0x3e5162f3	0.20447902
61	0x3bb7780e	0.0055990284
62	0x3dc23d34	0.0948433
63	0xbdbff002	-0.0937195
64	0x3e4807a3	0.19534163
65	0x3d083286	0.033251308
66	0xbe2128d7	-0.15738235
67	0x3e28e894	0.16494972
68	0xbbc944b8	-0.006142225
69	0x3d8286be	0.06373356
70	0xbe39442b	-0.1809241
71	0x3d248745	0.040168066
72	0x3e02a7ea	0.12759367
73	0x3d9196a4	0.071088105
74	0x3c634046	0.013870304
75	0xbe38eefa	-0.18059912
76	0xbdf129ae	-0.11775528
77	0xbd8cb67f	-0.06870746
78	0x3d814f1e	0.063139185
79	0x3e556b64	0.20841748
80	0x3b2d0dcc	0.0026405929
81	0xbe0096ae	-0.1255748
82	0x3d979c9d	0.074029185
83	0xbe87c825	-0.26519886
84	0xbe6fd4a5	-0.23420961
85	0x3da116cc	0.07865676
86	0xbdbfbc2f	-0.09362065
87	0x3d13362f	0.035940345
88	0xbce8b502	-0.028406624
89	0x3dfdfbec	0.12401566
90	0x3bf93060	0.0076046437
91	0xbda1e7fc	-0.07905576
92	0x3e1caec7	0.15301047
93	0xbdd73979	-0.10509009
94	0x3dd7e2b2	0.105412856
95	0xbcb8a07c	-0.022537462
96	0xbd0e780c	-0.034782454
97	0x3e221ec7	0.15832053
98	0xbe941d24	-0.28928483
99	0x3c2018af	0.00977151
100	0xbc01d12d	-0.007923407
101	0xbdce9cfc	-0.10088536
102	0x3e15c40f	0.14625572
103	0x3d9012de	0.07034849
104	0x3e34839a	0.17628327
105	0x3c79b2ce	0.015240384
106	0xbe10b8d6	-0.1413301
107	0x3de33788	0.11094576
108	0xbdd0bf5f	-0.10192751
109	0xbcc0dc6a	-0.023542602
110	0xbe597546	-0.21236143
111	0x3c78b396	0.015179535
112	0x3beaffcc	0.0071716066
113	0xbeb21274	-0.34779704
114	0x3dc67a60	0.0969131
115	0xbd7b716d	-0.061387468
116	0x3be65897	0.0070296037
117	0x3da530e3	0.08065965
118	0xbe7ddc0d	-0.24790974
119	0xbe58c41a	-0.21168557
120	0xbe11b8d4	-0.14230663
121	0xbdec8b1a	-0.11549969
122	0xbe2b4322	-0.16724828
123	0xbdeaa37c	-0.114569634
124	0x3c75075a	0.014955366
125	0x3c5ef384	0.013607863
126	0xbe1d9b47	-0.15391265
127	0xbdc86aa4	-0.09785965
128	0xbe2b887a	-0.1675128
129	0xbc356693	-0.011071819
130	0xbcb49695	-0.02204446
131	0xbdd33eae	-0.103146896
132	0xbda39bfa	-0.079887345
133	0xbe39848e	-0.18116972
134	0x3d9b41a0	0.07580876
135	0x3e66dd77	0.2254542
136	0x3e2e24dd	0.1700625
137	0xbdc01929	-0.09379799
138	0x3d5a2b6f	0.053264078
139	0xbcf12b82	-0.029439691
140	0xbd768619	-0.06018648
141	0x3c87ca0a	0.016575832
142	0x3aed634a	0.0018111255
143	0xbdcb859d	-0.09937594
144	0x3d641b31	0.055689994
145	0xbe0184bc	-0.1264829
146	0x3da2925a	0.079380706
147	0x3b9a071a	0.0047005536
148	0x3d57a7d1	0.052650277
149	0xbc4f69d7	-0.0126595115
150	0x3e121dda	0.142692
151	0x3e0ff5dc	0.14058632
152	0x3e2b0d55	0.16704305
153	0x3e091e22	0.13390401
154	0x3db22a73	0.08699503
155	0xbdca6d80	-0.09884167
156	0xbdb1c3a7	-0.08679896
157	0x3e1f74e9	0.15571941
158	0xbe4d602f	-0.20056222
159	0xbe0b0728	-0.13576949
160	0xbdd1e65c	-0.10249016
161	0xbe13b31f	-0.14423798
162	0x3dece169	0.11566431
163	0xbe53a370	-0.20667815
164	0x3d6058aa	0.054772057
165	0x3e276e4a	0.16350666
166	0xbe132d98	-0.14372861
167	0xbe190f81	-0.1494732
168	0x3ad2781f	0.0016057527
169	0x3e32403f	0.1740732
170	0x3e441b8f	0.19151138
171	0x3d63f91c	0.05565749
172	0xbd797c89	-0.06090978
173	0x3d82d9f2	0.06389226
174	0xbe5f3a48	-0.21799576
175	0xbce872ef	-0.028375117
176	0xbd589735	-0.052878577
177	0xbd106210	-0.03524977
178	0x3dbe5195	0.09292904
179	0xbd41f1c3	-0.047349703
180	0x3db4d58c	0.08829793
181	0x3e41cd4a	0.18925968
182	0xbb8c764a	-0.004286562
183	0x3e2f8975	0.1714228
184	0xbe27db47	-0.16392241
185	0xbd79080e	-0.060798697
186	0xbdf724fc	-0.12067601
187	0xbe96a2c3	-0.29421052
188	0xbd3f731c	-0.046740636
189	0xbe7753c5	-0.2415305
190	0xbe542246	-0.207162
191	0x3e0ad7db	0.13558905
192	0x3de8820f	0.11352932
193	0x3e580fc0	0.21099758
194	0xbce4ed80	-0.02794528
195	0xbe2838ad	-0.1642787
196	0xbb078d30	-0.002068352
197	0x3caf404d	0.021392966
198	0x3ded8734	0.115980536
199	0xbdf7ce97	-0.12099951
200	0xbe48b70e	-0.1960108
201	0x3df0a0b2	0.117494
202	0x3df166cc	0.11787185
203	0xbe863508	-0.26212335
204	0x3df05686	0.11735253
205	0xbc318b96	-0.010836503
206	0xbded5549	-0.115885325
207	0x3e1cd8b1	0.15317036
208	0x3d267b43	0.040644895
209	0x3d499447	0.049213674
210	0x3de78820	0.11305261
211	0x3db7c21a	0.08972569
212	0xbd7a6cad	-0.061138798
213	0xbcf5f290	-0.03002289
214	0xbd81ac45	-0.06331686
215	0xbdf920e7	-0.12164479
216	0xbd68ae50	-0.056806862
217	0x3e17df6d	0.14831324
218	0x3d8779a0	0.06614995
219	0x3e832cc6	0.25620097
220	0xbdb66c09	-0.08907325
221	0x3de3cb2d	0.11122737
222	0xbe20093f	-0.15628527
223	0xbdde21de	-0.108463034
224	0x3c67d009	0.014148721
225	0x3d2b1916	0.04177197
226	0x3d8c435b	0.068487845
227	0xbc9c914c	-0.019112252
228	0x3d13d548	0.036092073
229	0xbcccac88	-0.024984613
230	0x3d908bf2	0.070579425
231	0x3e2204d6	0.15822157
232	0x3e452bee	0.19255039
233	0xbea73214	-0.32655394
234	0x3d178d73	0.03700013
235	0x3d8ecece	0.069730386
236	0x3dc38b04	0.095479995
237	0x3d9f8091	0.07788194
238	0xbe2ae631	-0.16689374
239	0xbe9c95a4	-0.30582917
240	0xbd7338a7	-0.0593802
241	0xbe3d8de2	-0.18511155
242	0xbe11a259	-0.14222087
243	0x3dd58c17	0.10427111
244	0x3d0d70c4	0.03453137
245	0x3e1d74bc	0.15376562
246	0x3df792cd	0.12088547
247	0xbdf09373	-0.11746874
248	0xbe45aedf	-0.1930499
249	0xbe1c38c2	-0.15256026
250	0xbcdbb9e6	-0.026822042
251	0xbc300321	-0.0107429335
252	0xbd9a90fd	-0.075471856
253	0x3df0a08e	0.117493734
254	0x3e318645	0.17336376
255	0xbd936827	-0.071976

gru.weight_hh_l0 f4 [96, 32]
0	0x3d92b53f	0.07163476
1	0xbdf19343	-0.11795666
2	0x3d2c6164	0.042085066
3	0x3c77900f	0.01511003
4	0xbce6bf70	-0.028167456
5	0x3e0f7e39	0.14012994
6	0x3d75540d	0.05989461
7	0xbd5de701	-0.05417538
8	0x3d03552e	0.032063656
9	0x394e29ff	0.00019661336
10	0xbc682c03	-0.014170649
11	0xbc96891f	-0.018375931
12	0xbde2bc6e	-0.11071096
13	0xbdb5ed15	-0.088831104
14	0x3d68ee87	0.056868102
15	0x3cff654f	0.031176237
16	0x3dcab218	0.0989725
17	0xbdf37b3b	-0.11888739
18	0x3d7a3478	0.061085194
19	0x3e016f43	0.12640099
20	0x3d8bef2a	0.06832726
21	0x3e1724cc	0.1476013
22	0x3e2a48cb	0.16629331
23	0x3e8176ef	0.25286052
24	0x3e5b09e5	0.21390493
25	0xbd2bce30	-0.041944683
26	0x3de531cb	0.11191138
27	0xbdd18af7	-0.102315836
28	0xbbbd6a07	-0.0057804617
29	0xbc4d2f33	-0.01252346
30	0x3c4c996b	0.01248775
31	0x3d4cd68d	0.0500093
32	0xbe9858f3	-0.29755363
33	0x3cb120ec	0.021622144
34	0xbe49f82d	-0.19723578
35	0xbca8940c	-0.020578407
36	0x3e46dc8e	0.19420072
37	0x3e84c61d	0.25932398
38	0x3c8359a3	0.016033953
39	0x3da147d2	0.07875027
40	0x3e6b497f	0.22977255
41	0xbe4305b9	-0.19045152
42	0xbd82c3ba	-0.06384988
43	0x3e0d14c2	0.1377745
44	0x3e27e440	0.16395664
45	0xbe6fed79	-0.23430432
46	0xbc489019	-0.012241387
47	0x3bb22cc1	0.005437464
48	0x3d7efd21	0.06225312
49	0xbdf4fcfb	-0.11962315
50	0xbe597a59	-0.21238078
51	0x3e604fce	0.21905443
52	0xbe2d8935	-0.16946872
53	0xbe93a9e7	-0.28840563
54	0x3d302cbf	0.043011423
55	0xbd6ac801	-0.057319645
56	0xbca36fe7	-0.01995082
57	0xbd0d0c44	-0.034435526
58	0xbc1f7c52	-0.00973423
59	0x3e242fcd	0.1603386
60	0x3e62239e	0.220839
61	0x3cbe1f2a	0.02320822
62	0xbe3c7623	-0.1840444
63	0xbe5a0ca8	-0.2129389
64	0x3d898df2	0.06716527
65	0xbe6f72e5	-0.23383673
66	0xbd2e72cd	-0.04258995
67	0x3e42ff84	0.19042784
68	0x3c76deda	0.01506778
69	0xbbaeaa26	-0.005330342
70	0xbe395e68	-0.1810242
71	0xbdbcc5eb	-0.09217437
72	0xbdde73f5	-0.10861961
73	0xbe07b6de	-0.13253352
74	0x3e63a41b	0.2223057
75	0x3e4dab43	0.20084862
76	0xbe1e1912	-0.15439251
77	0xbde1c5ae	-0.110240325
78	0x3e310a0f	0.17288993
79	0x3c30470a	0.0107591245
80	0xbd8961f8	-0.06708139
81	0xbda21f11	-0.07916082
82	0xbe4bcef9	-0.19903173
83	0x3d599cda	0.0531281
84	0x3dabaf99	0.08383102
85	0x3dd7f044	0.10543874
86	0xbe2da485	-0.1695729
87	0xbdc719a5	-0.09721688
88	0xbcaa4ac5	-0.020787606
89	0x3d16809a	0.036743738
90	0xbce4d365	-0.027932832
91	0x3b96421a	0.0045855166
92	0x3d3dfec7	0.046385553
93	0xbdb2ea10	-0.0873605
94	0xbe11a7ea	-0.1422421
95	0xbe616397	-0.22010647
96	0x3d6c8383	0.057742607
97	0x3e4b9b29	0.19883408
98	0xbde02130	-0.1094383
99	0xbdc0cf6e	-0.09414564
100	0xbdce089d	-0.100602366
101	0x3ddbc829	0.10731537
102	0xbd519c49	-0.051174436
103	0x3e41f205	0.1893998
104	0x3e46442f	0.19361947
105	0xbe3e6005	-0.18591316
106	0x3d4a172d	0.04933851
107	0x3e1f6766	0.15566787
108	0xbbad15ed	-0.005282155
109	0xbd86e4bf	-0.065865986
110	0xbdfe51c7	-0.124179415
111	0xbc5a49cb	-0.013323258
112	0x3dca8b54	0.09889856
113	0xbe3e79db	-0.18601172
114	0x3d8f0ca9	0.069848366
115	0xbcf1092a	-0.029423315
116	0xbe37224c	-0.17884177
117	0x3e49f7a9	0.19723381
118	0x3e3f4ee0	0.18682432
119	0x3e6ef496	0.2333549
120	0x3c24e577	0.010064474
121	0xbe0abd72	-0.1354883
122	0xbc9b2a4c	-0.018941067
123	0xbe93a841	-0.28839305
124	0x3c84b61a	0.016200114
125	0x3e7af86e	0.24508831
126	0x3e14fa5d	0.14548631
127	0x3e35b1ec	0.17743653
128	0xbdb72257	-0.08942097
129	0xbe38e623	-0.1805654
130	0xbdfec882	-0.124405876
131	0x3e551d84	0.2081204
132	0x3d39355a	0.045216896
133	0x3e8c13a8	0.27358747
134	0xbdd3e7fc	-0.10346982
135	0x3aacdeb7	0.0013188933
136	0x3e22d9fe	0.1590347
137	0x3c2d9c69	0.010596373
138	0x3e5bbe67	0.21459351
139	0x3cadbaaa	0.021207172
140	0x3e073149	0.13202395
141	0xbc62791f	-0.013822823
142	0xbdde5f3b	-0.108580075
143	0x3e693d7b	0.22777359
144	0x3c882274	0.016617991
145	0x3e3e15bb	0.18562977
146	0xbc1f2ac5	-0.009714787
147	0xbd17705f	-0.0369724
148	0xbe42a425	-0.19007929
149	0xbdf55098	-0.11978263
150	0xbd1be3b7	-0.038058963
151	0xbd73cf3f	-0.059523817
152	0xbdd1f40a	-0.10251625
153	0x3de85e33	0.11346092
154	0xbe2d31fc	-0.16913599
155	0x3d648bce	0.05579739
156	0x3df2cf48	0.11855942
157	0x3b379618	0.0028013047
158	0x3de19db4	0.110164076
159	0xbddbed3a	-0.10738607
160	0x3e2046a0	0.15651941
161	0x3dc35b53	0.09538903
162	0xbe42fa95	-0.19040902
163	0xbbc4b278	-0.0060027204
164	0x3e215efb	0.15758888
165	0xbde49ab5	-0.111623205
166	0xbd9c3d15	-0.07628838
167	0xbe208238	-0.15674675
168	0x3dac52aa	0.084142044
169	0xbcad70b7	-0.02117191
170	0x3dd522f1	0.10407055
171	0x3e0b056b	0.13576286
172	0xbb432ad1	-0.002978016
173	0xbd2f03ef	-0.04272836
174	0xbe0ed77e	-0.13949391
175	0x3d471999	0.048608396
176	0xbbfa65e9	-0.007641543
177	0x3e122569	0.14272083
178	0xbd5aefe8	-0.05345145
179	0xbdc2d1c5	-0.095126666
180	0xbc6473fa	-0.013943667
181	0xbe2466b1	-0.16054799
182	0x3e33631c	0.17518276
183	0x3da18f61	0.078886755
184	0xbcd6d182	-0.026222948
185	0xbe084afb	-0.13309853
186	0x3db6d8ae	0.08928047
187	0xbd813b58	-0.06310147
188	0xbe196536	-0.14980015
189	0xbd8d3990	-0.06895745
190	0xbdac3f41	-0.08410502
191	0x3e0a031c	0.13477749
192	0xbe022e64	-0.12713009
193	0xbd77dd0b	-0.060513537
194	0xbe0f42f6	-0.13990387
195	0x3e1db0c6	0.15399465
196	0xbd6b17fd	-0.057395924
197	0x3d33a580	0.043859005
198	0x3d0b26a7	0.03397241
199	0xbd10e593	-0.03537519
200	0xbde3e1ab	-0.11127027
201	0xbd9d1cd7	-0.076715164
202	0xbda4daaf	-0.08049523
203	0x3d900bae	0.07033478
204	0x3de41b38	0.11138004
205	0x3d8da077	0.06915372
206	0x3dd07285	0.10178093
207	0x3e326165	0.17419966
208	0xbc27f0f9	-0.010250323
209	0xbd05b0c8	-0.032639295
210	0xbe13165b	-0.14363997
211	0x3d3d02f6	0.046145402
212	0xbe0c2b5a	-0.13688412
213	0xbe57a264	-0.21058041
214	0x3d53f044	0.051742807
215	0x3d8ccc21	0.06874872
216	0xbce3fbf6	-0.027830105
217	0x3ba5a231	0.005054735
218	0x3e2b325e	0.16718432
219	0x3d2ec537	0.042668547
220	0x3dc59412	0.09647383
221	0xbcd42249	-0.025895255
222	0xbdda7950	-0.1066767
223	0x3d9c3a60	0.07628322
224	0xbe204d17	-0.15654407
225	0xbe63fa20	-0.22263384
226	0xbc324cc4	-0.01088256
227	0x3e8230ff	0.25428006
228	0x3e11a3a9	0.14222588
229	0x3e0c48d3	0.13699655
230	0xbe293458	-0.16523874
231	0xbd2e2d3e	-0.042523615
232	0x3da634e9	0.081155606
233	0xbdb8f50d	-0.09031115
234	0x3db60571	0.088877566
235	0xbdaafc0a	-0.08348854
236	0x3e45109a	0.19244614
237	0xbdd11db2	-0.10210742
238	0xbdb2607a	-0.08709808
239	0xbd754b44	-0.059886232
240	0x3d8bcd48	0.06826264
241	0xbdbe9b26	-0.09306936
242	0xbe3ee92a	-0.18643633
243	0xbdc20f68	-0.09475595
244	0xbe4fa73d	-0.2027864
245	0xbdc5b880	-0.09654331
246	0x3c9f7c2b	0.019468388
247	0xbc7d1b5f	-0.01544842
248	0x3dcbd6f0	0.099531054
249	0xbe5d78bb	-0.21628086
250	0x3b8074e5	0.003920185
251	0xbc77ece4	-0.015132163
252	0xbdb3b095	-0.08773915
253	0xbe20379b	-0.15646212
254	0x3c365aa8	0.011130013
255	0xbe070b1f	-0.13187836

gru.bias_ih_l0 f4 [96]
0	0x3cfa297c	0.03053736
1	0x3cfb9be6	0.030713987
2	0x3e346443	0.17616372
3	0x3c0a4acf	0.008440687
4	0x3cef2e1f	0.029196797
5	0x3dd7d12d	0.10537944
6	0x3e46e453	0.19423036
7	0xbd629555	-0.055318195
8	0x3db07f34	0.08618012
9	0xbca51cc5	-0.02015532
10	0xbcfcf6c0	-0.030879378
11	0x3d9996a3	0.07499435
12	0x3ce94aeb	0.028478106
13	0x3e350b8a	0.17680183
14	0xbb97c6be	-0.004631846
15	0x3e86f26c	0.26356828
16	0x3de2e1ca	0.11078222
17	0xbd2fb761	-0.042899493
18	0xbd877308	-0.06613737
19	0x3e1f0c7c	0.15532106
20	0xbd6711bf	-0.05641341
21	0x3e2c34da	0.16817036
22	0x3d9fed95	0.07808987
23	0x3e041da9	0.1290194
24	0x3dc099d8	0.09404343
25	0x3e093d53	0.134023
26	0x3de411e8	0.11136228
27	0xbcc94d14	-0.024572887
28	0xbdd38dfe	-0.10329817
29	0xbe235257	-0.15949379
30	0x3e0205d2	0.12697533
31	0x3d619aba	0.0550792
32	0x3e28e88a	0.16494957
33	0x3d12c56c	0.035832807
34	0x3e68c851	0.22732665
35	0x3e513bfb	0.20433037
36	0x3e6c5abf	0.23081492
37	0x3e2dfa45	0.16990001
38	0x3e5424d9	0.20717181
39	0xbdb036a4	-0.08604172
40	0xbafea275	-0.0019427078
41	0x3e05ef23	0.13079505
42	0xbd5f5d7a	-0.054532506
43	0x3ccbcd9b	0.024878314
44	0x3e3fb0cb	0.18719785
45	0x3d151c2f	0.03640383
46	0x3cc9260e	0.024554279
47	0x3dcef7a2	0.10105826
48	0xbd541d22	-0.051785596
49	0x3e8c18fd	0.27362815
50	0x3e14b261	0.14521171
51	0x3e7912c0	0.24323559
52	0xbdf2d125	-0.118562974
53	0x3cdd5dfb	0.027022352
54	0x3d9b524d	0.07584057
55	0x3d1d7c9a	0.038448907
56	0x3e13ad28	0.14421523
57	0xbcd7399d	-0.02627259
58	0xbd7de5a7	-0.06198659
59	0x3d03cd40	0.032178164
60	0xbdf88a6c	-0.12135777
61	0x3d86e99c	0.06587526
62	0xbd8f6cdf	-0.070031874
63	0x3dce481e	0.10072349
64	0xbd6cc11f	-0.057801362
65	0xbdaf95d3	-0.085734986
66	0xbe5573e6	-0.20844993
67	0x3da91578	0.08256048
68	0x3e3babfb	0.18327324
69	0x3e2497a2	0.16073468
70	0xbe14233d	-0.14466567
71	0xbe1e6d82	-0.15471461
72	0x3e490738	0.1963166
73	0xbdd3cc40	-0.10341692
74	0x3c5939a6	0.013258373
75	0x3cdc64f4	0.026903607
76	0xbe0c3b48	-0.13694489
77	0xbcf93961	-0.030422868
78	0xbe1f823b	-0.15577023
79	0xbdb76383	-0.08954527
80	0xbe1f69a6	-0.15567645
81	0x3e03a796	0.12856898
82	0xbddd2bef	-0.10799395
83	0x3e4174a7	0.18892156
84	0xbdbb616e	-0.091494426
85	0xbe573afe	-0.21018597
86	0x3cca2221	0.024674477
87	0x3e134b71	0.14384247
88	0xbc55c01f	-0.0130462935
89	0xbe2f82d4	-0.1713975
90	0x3dbe0745	0.0927873
91	0x3e55f256	0.20893225
92	0x3d5aaf30	0.053389728
93	0x3d653179	0.055955384
94	0xbe3563f9	-0.17713918
95	0x3de21dee	0.11040865

gru.bias_hh_l0 f4 [96]
0	0x3e2a1ea2	0.16613248
1	0x3db56a9e	0.08858226
2	0xbc228451	-0.009919242
3	0x3e20c5f9	0.1570052
4	0x3e4691d2	0.19391564
5	0x3d810f39	0.063017316
6	0x3e2d9450	0.16951108
7	0x3c43c167	0.011947966
8	0x3e53ab3a	0.20670786
9	0xbde7b4d7	-0.11313789
10	0x3e01ad5c	0.12663788
11	0x3e2bde85	0.16784103
12	0xbd8b8207	-0.0681191
13	0xbdd6dba4	-0.10491112
14	0xbd97fc19	-0.07421131
15	0x3e7da4cc	0.24769896
16	0xbe0e741e	-0.13911483
17	0x3e09c094	0.13452369
18	0xbdbf5038	-0.093414724
19	0xbdb6eb1e	-0.08931564
20	0xbe13556f	-0.14388059
21	0x3d63c5c8	0.05560854
22	0x3e0bc9bf	0.13651179
23	0x3d9460e8	0.07245046
24	0x3e2c1f58	0.16808832
25	0xbc988dbd	-0.018622274
26	0x3e21ded2	0.15807655
27	0x3d601f26	0.054717205
28	0x3e35727c	0.17719454
29	0xbdb519df	-0.08842825
30	0x3dd3c757	0.103407554
31	0xbd481311	-0.04884631
32	0x3df6f56e	0.12058531
33	0x3e6855f6	0.22689041
34	0x3ca4620f	0.02006629
35	0x3c906149	0.017624514
36	0x3d46d286	0.048540615
37	0xbc54229e	-0.0129477065
38	0xbc88f06c	-0.016716205
39	0x3e040a11	0.12894465
40	0x3e410062	0.18847802
41	0x3e81b12c	0.25330484
42	0x3ce88867	0.028385354
43	0xbde15485	-0.11002449
44	0x3e01149e	0.12605521
45	0x3e0162b1	0.12635304
46	0x3e13b832	0.14425734
47	0x3df25836	0.11833231
48	0xbdf37016	-0.11886613
49	0x3e83df50	0.2575631
50	0x3e29972f	0.16561578
51	0x3d5d6eea	0.054060854
52	0xbd76c5ae	-0.060247116
53	0xbdd13054	-0.10214296
54	0x3dd5bad6	0.10436027
55	0x3debdde3	0.11516931
56	0xbd73fa50	-0.05956489
57	0x3dcd3c3b	0.10021254
58	0x3d4bc23f	0.049745794
59	0x3e5d267a	0.21596709
60	0xbe47968e	-0.19491026
61	0x3e152a9b	0.14567034
62	0xbc9ff480	-0.019525766
63	0x3da199fa	0.07890697
64	0xbe1250ce	-0.14288637
65	0xbe3f7b7c	-0.1869945
66	0xbd41aa06	-0.047281288
67	0xbdf4367d	-0.11924455
68	0x3e15e843	0.14639382
69	0x3c4f434e	0.012650324
70	0x3dd876da	0.10569544
71	0xbe06f446	-0.1317912
72	0x3e484845	0.19558819
73	0x3d3346f3	0.043768834
74	0x3e49336c	0.19648522
75	0x3de66513	0.11249747
76	0x3e2f93c1	0.17146207
77	0xbdcd9ca6	-0.10039644
78	0x3d6e61e7	0.058198836
79	0x3e6bb685	0.23018844
80	0xbd820cab	-0.063500725
81	0xbd7ca2fb	-0.061678868
82	0xbe4754e8	-0.19465983
83	0x3dcb38d0	0.099229455
84	0xbd32081d	-0.04346477
85	0xbe182354	-0.14857227
86	0x3e12a738	0.14321601
87	0x3e5626b2	0.20913199
88	0x3cc7b3fb	0.024377814
89	0xbdc14115	-0.094362415
90	0xbe2540e6	-0.16138038
91	0x3e3274db	0.1742739
92	0x3d3aae1c	0.0455762
93	0x3e047dbb	0.12938587
94	0xbdcc8d63	-0.09987905
95	0x3c0cde97	0.008597991

output_layers.0.weight f4 [64, 32]
0	0x3d44d9eb	0.048059385
1	0xbcf80cfd	-0.03027963
2	0x3cd6ff15	0.02624468
3	0x3e5b5100	0.21417618
4	0xbde8cb44	-0.11366895
5	0x3e1fab2e	0.15592644
6	0x3d45b52d	0.048268486
7	0xbe09616b	-0.13416068
8	0x3e318369	0.17335285
9	0x3d46e1d0	0.048555195
10	0xbca45a6e	-0.020062651
11	0x3c80c27f	0.015717743
12	0xbd33ae56	-0.04386743
13	0xbe26f79a	-0.1630539
14	0xbd58c848	-0.052925378
15	0xbd5f6ef4	-0.054549173
16	0xbe1409b2	-0.14456823
17	0xbd99ac14	-0.075035244
18	0xbe1a9ccf	-0.1509888
19	0xbd397286	-0.045275234
20	0x3dcbb051	0.09945739
21	0xbde20112	-0.110353604
22	0x3d667860	0.056267142
23	0x3dbe61a8	0.0929597
24	0x3df894d3	0.12137761
25	0x3cb70196	0.022339623
26	0x3cade2f9	0.021226393
27	0x3e56a3c5	0.2096091
28	0xbe1c60ae	-0.15271255
29	0x3de12a31	0.109943755
30	0xbd8457d1	-0.06462062
31	0xbdca13fd	-0.09867094
32	0xbe484e78	-0.19561183
33	0x3d9bcf89	0.076079436
34	0xbe49eebd	-0.19719978
35	0x3dee71f9	0.11642832
36	0x3bfaff64	0.0076598395
37	0xbceb6195	-0.028733054
38	0xbcc72f6f	-0.02431461
39	0xbe576654	-0.21035129
40	0x3dfc0b9c	0.12306902
41	0x3e145309	0.144848
42	0x3e247fa4	0.16064316
43	0xbb974f2e	-0.0046175933
44	0x3ddb2f5d	0.10702393
45	0xbdece118	-0.11566371
46	0x3b30112d	0.0026865706
47	0x3e185daa	0.1487948
48	0x3d8f3007	0.06991582
49	0xbd7a6c68	-0.06113854
50	0xbe337b88	-0.17527592
51	0x3d824265	0.0636032
52	0xbdbb4dcb	-0.09145697
53	0xbd638100	-0.055542946
54	0xbd95094c	-0.07277164
55	0x3e1f7abc	0.15574163
56	0x3e102a13	0.1407855
57	0xbd2afdb7	-0.041745868
58	0xbd4f7784	-0.05065109
59	0x3b8c560f	0.00428272
60	0xbe2746e4	-0.16335636
61	0xbda753a7	-0.08170252
62	0x3d52f106	0.05149939
63	0xbdf728ab	-0.12068304
64	0xbd08c6f2	-0.033392854
65	0xbd96560a	-0.073406294
66	0xbd4c57ab	-0.049888294
67	0x3dd5ceb4	0.10439816
68	0xbe03ffe6	-0.12890586
69	0xbd744248	-0.059633523
70	0x3e1c8e68	0.15288699
71	0x3db4a9d4	0.08821455
72	0xbdd31510	-0.10306752
73	0xbdbe3fc3	-0.09289505
74	0xbdf92eaf	-0.12167107
75	0xbe0c874e	-0.1372349
76	0xbd4c4bb9	-0.049876902
77	0x3e74b068	0.23895419
78	0xbe2a1326	-0.16608867
79	0xbc6fe241	-0.0146413455
80	0xbe0ba1f8	-0.13636005
81	0xbe9fbc56	-0.31198376
82	0x3e7bc202	0.24585727
83	0xbe9b5df3	-0.30345115
84	0xbe1a9dbc	-0.15099233
85	0x3e2eadf3	0.17058544
86	0x3e23ed32	0.16008452
87	0x3e10e9e2	0.14151719
88	0x3e4b9689	0.19881643
89	0x3e2c829b	0.16846697
90	0x3e23b6a9	0.15987648
91	0xbe1f27fd	-0.15542598
92	0x3dcd405e	0.10022043
93	0xbe032c95	-0.12809975
94	0xba9c1588	-0.0011908272
95	0xbcba43c9	-0.0227374
96	0xbe3b3c08	-0.18284619
97	0xbccf38d7	-0.025295658
98	0xbb6353e5	-0.0034687456
99	0x3d29e644	0.041479364
100	0xbd7c8cad	-0.061657596
101	0x3e00326e	0.12519237
102	0xbd94adef	-0.07259738
103	0x3e28a7c9	0.16470255
104	0x3dc500b9	0.096192785
105	0x3cc21977	0.023693783
106	0x3cb40226	0.02197368
107	0x3e42b516	0.19014391
108	0x3c8b61e8	0.017014459
109	0x3d92ef7b	0.071745835
110	0xbe3d4459	-0.18483104
111	0x3e1dbf76	0.15405068
112	0xbd6a8938	-0.05725977
113	0x3e4bc07a	0.19897643
114	0xbdf95729	-0.121748276
115	0x3b59e316	0.0033246926
116	0x3cc4243e	0.023943063
117	0xbd11a4ef	-0.035557684
118	0x3d04be76	0.0324082
119	0x3d0dffd2	0.034667797
120	0x3c9827b7	0.018573625
121	0xbcdd3903	-0.027004724
122	0x3d8916c3	0.066937946
123	0xbdc6cb84	-0.09706786
124	0x3ded2f48	0.11581284
125	0x3de66bea	0.11251052
126	0x3d4f17ae	0.050559692
127	0x3cfbabfe	0.03072166
128	0x3be5b846	0.0070104925
129	0xbdee2bb6	-0.11629431
130	0x3e027c01	0.12742616
131	0x3d4e32d4	0.050341442
132	0x3d85efda	0.06539889
133	0xbcf746d4	-0.03018514
134	0xbdbdb6a3	-0.09263351
135	0x3de57747	0.11204391
136	0x3d85e671	0.06538094
137	0x3e2b2960	0.16715002
138	0x3e363280	0.17792702
139	0x3d7a589b	0.061119657
140	0xbc6502d5	-0.013977726
141	0x3d8f5325	0.069982804
142	0xbc9f3dcd	-0.019438649
143	0x3a9d3553	0.0011994041
144	0x3e19e3a9	0.15028252
145	0xbb4723da	-0.003038636
146	0x3dc959e9	0.09831602
147	0x3db1cc34	0.08681527
148	0x3cfe9119	0.031075047
149	0xbdbb59f6	-0.09148018
150	0x3d4603ed	0.048343588
151	0xbc83ae02	-0.016074184
152	0xbd39684f	-0.045265492
153	0xbe1cc970	-0.15311217
154	0xbdfd1866	-0.12358169
155	0xbd89ecbc	-0.067346066
156	0xbd86fe64	-0.0659149
157	0x3dd368df	0.10322737
158	0xbdb7cbd3	-0.08974423
159	0xbd376146	-0.0447705
160	0xbd0ae220	-0.033907056
161	0xbdeffaeb	-0.11717781
162	0xbde9a765	-0.11408881
163	0xbdd2fb3b	-0.10301825
164	0xbda04196	-0.078250095
165	0x3e1deec1	0.15423109
166	0xbd2a8c93	-0.04163797
167	0x3d9c0c6f	0.07619559
168	0x3dd5f0b3	0.104463
169	0xbe30aa7e	-0.17252538
170	0x3de2946d	0.11063466
171	0xbd4abb2a	-0.0494949
172	0x3d01f564	0.031728163
173	0xbdcfbe68	-0.10143739
174	0x3cba9a60	0.02277869
175	0x3dcb1eab	0.09917959
176	0xbe159911	-0.14609171
177	0x3dc1e7d8	0.09468049
178	0xbcf6ec02	-0.030141834
179	0xbdc8fbec	-0.09813675
180	0x3dab8a09	0.083759375
181	0x3e302991	0.17203356
182	0xbe4c3213	-0.19940977
183	0xbe5dcb71	-0.21659638
184	0xbc0415fa	-0.00806188
185	0x3df455e6	0.11930446
186	0xbe9c539b	-0.30532536
187	0xbb4a71df	-0.0030890626
188	0x3d7bea4b	0.061502736
189	0xbe2d302c	-0.16912907
190	0xbdf53a09	-0.1197396
191	0xbd9870a3	-0.07443359
192	0xbc01cde0	-0.00792262
193	0xbe026921	-0.12735416
194	0x3d55592c	0.052086994
195	0x3e12b33f	0.1432619
196	0x3e3e4e9b	0.18584673
197	0xbbcaf43a	-0.006193665
198	0x3cdf61b8	0.027268276
199	0x3d2e346f	0.042530473
200	0x3dd1e2c7	0.102483325
201	0x3dd550df	0.104158156
202	0x3c20e5dc	0.009820428
203	0xbcd896a6	-0.026439022
204	0xbdf15757	-0.11784237
205	0xbe1cdd78	-0.15318859
206	0x3d7d81ce	0.06189137
207	0x3e07a1ae	0.1324527
208	0xbda7786b	-0.08177265
209	0x3e132d94	0.14372855
210	0xbdb0cecc	-0.086331934
211	0xbda103ac	-0.078620285
212	0xbdacf8fb	-0.08445927
213	0xbdc87d23	-0.09789493
214	0x3e1adf6f	0.15124296
215	0xbdacd10d	-0.08438311
216	0x3c325d5d	0.010886517
217	0xbe0dea9b	-0.13859026
218	0x3cecc5a7	0.028902842
219	0x3dcec99d	0.100970484
220	0x3e284903	0.16434102
221	0xbe1f2500	-0.15541458
222	0xbd27c4c5	-0.04095914
223	0x3e11c3c7	0.1423484
224	0xbe27b176	-0.1637629
225	0x3e0b77d4	0.1361993
226	0xbe017b5d	-0.12644716
227	0x3c99bfd9	0.018768238
228	0x3df609ca	0.12013586
229	0xbd6739b1	-0.056451503
230	0x3c8346ab	0.016024908
231	0x3d0b27e9	0.03397361
232	0x3df11314	0.11771217
233	0xbe12a3b2	-0.14320257
234	0x3d73c43e	0.059513323
235	0x3deb9b44	0.11504224
236	0xbcf6453f	-0.030062316
237	0xbd88f9f8	-0.06688303
238	0xbe4a7d60	-0.1977439
239	0x3e27112b	0.16315143
240	0x3e26bfce	0.16284105
241	0x39830884	0.00024992612
242	0x3dd7b440	0.10532427
243	0xbdf3f09d	-0.11911128
244	0xbd7518ab	-0.05983798
245	0xbd80f346	-0.06296401
246	0x3e62f801	0.22164918
247	0xbb6e7a2e	-0.0036388743
248	0xbde4e9c4	-0.111774
249	0xbe276eff	-0.16350935
250	0xbe5d9ea4	-0.21642548
251	0xbd22a1aa	-0.039704956
252	0x3e0a3273	0.13495807
253	0xbdf5a0d8	-0.11993569
254	0x3e54b94c	0.2077381
255	0xbd5ba9d8	-0.053628772

output_layers.0.bias f4 [64]
0	0x3e0e6af8	0.13907993
1	0xbd572cd6	-0.052532993
2	0xbdd6a0b8	-0.104798734
3	0x3e2e6614	0.17031127
4	0xbd612755	-0.05496915
5	0xbe3d695d	-0.18497224
6	0x3e31eacb	0.17374723
7	0xbe169b81	-0.14707758
8	0x3e11869e	0.14211509
9	0xbcbfeb06	-0.023427498
10	0x3dc99d3a	0.09844442
11	0xbd7ec951	-0.06220371
12	0xbdec0f18	-0.115263164
13	0x3e06ed11	0.13176371
14	0xbc49e441	-0.012322486
15	0xbd9a2d5d	-0.075281836
16	0xbcef85c6	-0.029238593
17	0xbcaee5fd	-0.021349901
18	0xbe01b472	-0.1266649
19	0xbe36cd75	-0.17851813
20	0xbe04ef0f	-0.12981819
21	0x3dd2cfdb	0.102935515
22	0x3e1363a1	0.14393474
23	0x3e0c97d0	0.13729787
24	0xbd8cf4aa	-0.068826035
25	0xbc5db276	-0.013531318
26	0x3db719ad	0.08940444
27	0x3d8dccc8	0.069238245
28	0x3d0b17f1	0.03395838
29	0x3df273af	0.11838471
30	0xbd10ad94	-0.035321787
31	0x3db1db5d	0.08684418
32	0xbd4d0ee7	-0.05006304
33	0x3e264667	0.16237794
34	0xbda826b1	-0.08210505
35	0xbd9efdbd	-0.077632405
36	0xbdf75773	-0.120772265
37	0xbdee4a9f	-0.116353266
38	0xbac8fe31	-0.0015334544
39	0x3e3c15d6	0.18367705
40	0x3ddbdc65	0.10735396
41	0x3e028f9d	0.12750097
42	0xbe302659	-0.17202128
43	0xbe3279e7	-0.17429315
44	0x3d5e465e	0.054266326
45	0xbc4ce461	-0.012505622
46	0xbcf40d86	-0.029791605
47	0x3d3012b4	0.042986587
48	0xbcd38989	-0.025822418
49	0xbd7f895f	-0.062386867
50	0x3dd329b0	0.10310686
51	0x3dc61687	0.096722655
52	0xbd7b528c	-0.06135802
53	0xbb49c43f	-0.0030787138
54	0xbe3461a6	-0.17615375
55	0x3d1553c8	0.036456853
56	0x3e342829	0.17593445
57	0xbd32dc7a	-0.043667294
58	0xbd335098	-0.043778032
59	0x3e41a4d4	0.18910533
60	0xbd3ca1e6	-0.046052836
61	0x3e5a0f7f	0.21294974
62	0x3d814583	0.063120864
63	0x3e05a93f	0.13052844

output_layers.3.weight f4 [32, 64]
0	0xbd98e553	-0.07465615
1	0x3e004cbd	0.12529273
2	0x3e0870ac	0.13324231
3	0x3dc7b2d2	0.09750904
4	0x3e5c0d3b	0.21489422
5	0xbdb96f5b	-0.090544425
6	0xbd8e23ba	-0.06940408
7	0x3d71be09	0.059019122
8	0xbbe7c7e0	-0.0070733875
9	0x3d8e0368	0.069342434
10	0x3de4ab76	0.11165516
11	0xbcc14e43	-0.023596888
12	0x3dcc1fa4	0.099669725
13	0x3d51519a	0.051103212
14	0x3d371e0c	0.04470639
15	0x3e41e01f	0.18933152
16	0x3d407d97	0.04699477
17	0x3d584d25	0.052807946
18	0x3d652770	0.055945814
19	0x3e1ceb0f	0.15324043
20	0x3e2808f4	0.16409665
21	0x3e28c838	0.16482627
22	0x3daf2ad3	0.0855309
23	0xbb5f6971	-0.0034089948
24	0x3e0afb6b	0.13572471
25	0x3d389009	0.045059238
26	0x3e592f0d	0.21209355
27	0x3c7e1cb6	0.015509775
28	0x3bcb5c32	0.006206059
29	0x3d107f24	0.0352775
30	0xbd8c23c9	-0.06842763
31	0x3e0eb02b	0.1393439
32	0x3e1df848	0.15426743
33	0x3e100ac6	0.1406661
34	0x3dbb1e9d	0.091366984
35	0xbbd9721c	-0.0066359174
36	0x3d9d9299	0.07693977
37	0x3dc3e313	0.09564795
38	0x3de47911	0.11155904
39	0x3d909eb1	0.07061518
40	0x3e3ad78f	0.18246292
41	0x3d04b6a6	0.03240075
42	0x3d438f14	0.04774387
43	0xbd9d5bd0	-0.076835275
44	0xbd676ec1	-0.056502108
45	0xbda13a12	-0.07872404
46	0x3dc5b2ae	0.09653221
47	0x3dabe32c	0.08392939
48	0x3db4d113	0.0882894
49	0x3dc7eead	0.09762321
50	0x3e02dd28	0.12779677
51	0x3e2b5c77	0.16734491
52	0x3e19e019	0.15026893
53	0x3d75aec9	0.05998114
54	0xbdc554ad	-0.09635291
55	0xbd060c22	-0.032726415
56	0x3e0df4cf	0.13862918
57	0x3e08a95f	0.1334586
58	0x3e2bee69	0.16790165
59	0xbcddc57e	-0.02707171
60	0x3dd9c076	0.10632412
61	0x3bc27880	0.005934775
62	0xba4b6818	-0.00077593466
63	0x3df1d464	0.118080884
64	0x3dbd288c	0.09236249
65	0xbdc002a9	-0.093755074
66	0xbd4cbeb3	-0.049986552
67	0x3dc186bb	0.09449526
68	0x3d8edaf0	0.06975353
69	0x3d049802	0.03237153
70	0xbd870b40	-0.06593943
71	0xbdb7e952	-0.08980049
72	0x3e29ab08	0.1656915
73	0x3bc8763c	0.0061176103
74	0x3e1a0143	0.15039544
75	0xbc81c766	-0.01584215
76	0xbdcfb2da	-0.10141535
77	0x3d34e612	0.044164725
78	0xbb1f9c1d	-0.0024354525
79	0xbc8ef972	-0.01745293
80	0x3e026dad	0.1273715
81	0x3dac49f6	0.084125444
82	0xbc7c8841	-0.015413345
83	0x3cc547da	0.024082113
84	0x3d825d8b	0.06365498
85	0x3c9500d3	0.01818887
86	0x3dba1a77	0.09087079
87	0x3d5f3e4c	0.05450277
88	0x3d593b10	0.053034842
89	0x3d2f21e1	0.04275692
90	0xbe03794e	-0.12839243
91	0xbd8cd82e	-0.068771705
92	0x3c24a4ae	0.010049028
93	0x3d811497	0.06302755
94	0x3c190de1	0.009341688
95	0x3ca838a7	0.020534826
96	0x3e05d181	0.130682
97	0xbd4adc75	-0.04952665
98	0xbcf08b5a	-0.029363323
99	0x3dac4863	0.08412244
100	0xbda36141	-0.07977534
101	0xbdc05192	-0.09390558
102	0xbd9141a8	-0.07092601
103	0x3d019330	0.03163451
104	0xbb1bfd26	-0.0023802011
105	0xbd0d63ea	-0.034519114
106	0x3dc6a0de	0.09698652
107	0x3dfd98b6	0.12382643
108	0x3d691eae	0.056914024
109	0x3be0098a	0.0068370746
110	0x3de7744c	0.11301479
111	0x3daf407a	0.0855722
112	0xbd8f3dc6	-0.06994204
113	0xbd1560d2	-0.03646929
114	0x3cda8c21	0.026678147
115	0xbd5e150a	-0.054219283
116	0xbdac989c	-0.084275454
117	0x3d81320e	0.06308375
118	0xbd041d2a	-0.032254376
119	0x3da6cee2	0.081449285
120	0x3d8a698c	0.06758413
121	0x3dcfd091	0.10147203
122	0xbda9dfc4	-0.08294633
123	0xbd060356	-0.032718025
124	0xbe054d7b	-0.13017838
125	0x3e1a82ef	0.1508901
126	0xbcf7f222	-0.030266825
127	0x3c4f704d	0.012661052
128	0xbd50aadb	-0.05094419
129	0xbcaf770a	-0.021419067
130	0x3d84178a	0.06449802
131	0xbe0a0ddc	-0.1348185
132	0x3d88a254	0.06671587
133	0xbdea5094	-0.1144115
134	0xbd39610c	-0.045258567
135	0x3d85a475	0.06525508
136	0xbde654f8	-0.11246675
137	0x3cb19ac0	0.021680236
138	0x3d2857c4	0.041099325
139	0xbd97310d	-0.073824026
140	0x3d720758	0.059089035
141	0xbd73a481	-0.059483055
142	0xbdf15c5c	-0.11785194
143	0xbcc9844f	-0.024599222
144	0xbc6535fd	-0.013989923
145	0x3e2ce805	0.16885383
146	0x3d5bfc18	0.053707212
147	0x3da65c08	0.08123022
148	0x3dd5765f	0.10422968
149	0x3d55eef3	0.052229833
150	0xbc906c68	-0.017629817
151	0x3dfdaef3	0.123868845
152	0x3c8bb4c9	0.017053979
153	0x3d52b060	0.051437736
154	0x3cfdff09	0.0310054
155	0xbd2c9d77	-0.042142358
156	0xbd4515e0	-0.048116565
157	0xbdbf3bf1	-0.09337605
158	0xbd34df38	-0.04415819
159	0x3dbfb1c1	0.09360076
160	0xbe0afabe	-0.13572213
161	0x3d863f75	0.06555072
162	0xbdb7c4b1	-0.08973063
163	0x3c682a18	0.014170192
164	0x3dcf8538	0.10132831
165	0xbdf4abb0	-0.11946809
166	0xbd1c4fbf	-0.03816199
167	0xbde8f016	-0.11373918
168	0xbd332186	-0.043733142
169	0xbd7c2ba4	-0.061565056
170	0xbc3443e2	-0.011002513
171	0x3d860b54	0.065451294
172	0x3cb860ce	0.022507098
173	0x3cb362c0	0.021897674
174	0xbd606e32	-0.05479259
175	0xbc93d95b	-0.01804798
176	0x3d9b8f13	0.075956486
177	0xbb3687bc	-0.00278519
178	0xbcee4e5c	-0.029090099
179	0x3c870e0a	0.016486187
180	0x3d2f3f6d	0.042785097
181	0x3d3382bb	0.043825846
182	0xbdf53d2a	-0.11974557
183	0x3d00052c	0.031254932
184	0x3d98348f	0.074319
185	0x3c176439	0.009240204
186	0x3db8fbe8	0.09032422
187	0xbd507b22	-0.05089868
188	0x3d2eb3f3	0.04265208
189	0xbdf0546c	-0.11734852
190	0xbd8fc8f7	-0.07020753
191	0xbcb00439	-0.021486389
192	0x3b9ef895	0.0048514106
193	0xbc248932	-0.010042476
194	0x3b6155c1	0.0034383389
195	0xbe095b62	-0.13413766
196	0x3c242ee0	0.0100209415
197	0xbddcbd66	-0.107783124
198	0xbe1086df	-0.14113949
199	0xbdac5bbc	-0.084159344
200	0x3da58cee	0.08083521
201	0xbd7fefa6	-0.062484406
202	0xbdfbc83b	-0.1229405
203	0xbd6bcdb8	-0.057569236
204	0xbd877172	-0.06613435
205	0xbe0c0c80	-0.13676643
206	0x3c5e452e	0.013566298
207	0xbe19b61b	-0.15010874
208	0x3c76f699	0.015073442
209	0x3b90da68	0.0044205673
210	0xbda718c0	-0.081590176
211	0x3d95c6b4	0.0731329
212	0xbc5f639e	-0.01363459
213	0xbd8de0d2	-0.06927647
214	0xbdc0bfe2	-0.09411599
215	0xbcbb2367	-0.02284403
216	0x3d8185fb	0.06324383
217	0xbbee754f	-0.007277168
218	0x3da56503	0.08075907
219	0xbdbf5a15	-0.09343354
220	0xbc83a059	-0.01606767
221	0xbcf8864e	-0.030337479
222	0xbe0b89ed	-0.13626833
223	0xbdf86b8f	-0.1212989
224	0x3c117405	0.008877759
225	0x3bf179a4	0.007369237
226	0x3d17c941	0.037057165
227	0xbe135a26	-0.14389858
228	0xbde1d4df	-0.1102693
229	0xbbb51f3e	-0.005527406
230	0xbcaf7cb6	-0.021421771
231	0xbce303f6	-0.02771185
232	0xbc086d5c	-0.008326855
233	0xbd7bb863	-0.06145514
234	0xbdddfe41	-0.10839511
235	0x3d316207	0.043306377
236	0x3d16b129	0.036790047
237	0x3dad03f1	0.084480174
238	0xbca3e831	-0.020008178
239	0xbd5ee0c6	-0.05441358
240	0xbe1723af	-0.14759706
241	0xbce52fff	-0.027976988
242	0x3dbb4a10	0.09144986
243	0xbd828086	-0.0637217
244	0x3bac0e83	0.0052507534
245	0xbdd69e8e	-0.10479461
246	0x3de511a2	0.11185004
247	0xbddfe2c1	-0.10931922
248	0x3c2e3aac	0.010634106
249	0x3d66a8a7	0.056313183
250	0x3d639008	0.05555728
251	0x3d51c4f0	0.051213205
252	0xbd9f9a9c	-0.07793161
253	0x38bc01d5	8.96488e-05
254	0xbd020abe	-0.031748526
255	0xbd1cef4a	-0.03831414

output_layers.3.bias f4 [32]
0	0x3da0253d	0.07819603
1	0x3e034be2	0.12821916
2	0xbd7046d3	-0.058661293
3	0x3db3bd67	0.0877636
4	0xbd8de4d4	-0.06928411
5	0x3c79439f	0.015213876
6	0x3d8f5038	0.069977224
7	0xbc9f2c7e	-0.019430395
8	0x3de777e7	0.113021664
9	0x3e2276ad	0.15865584
10	0x3d375131	0.044755165
11	0x3dc77f56	0.09741084
12	0x3d29b60d	0.041433383
13	0x3d7f16d4	0.06227763
14	0xbcce4b21	-0.025182309
15	0x3c6879f5	0.014189233
16	0x3df07720	0.11741471
17	0xbd40e19f	-0.04709017
18	0xbdb0e88c	-0.08638105
19	0x3dfadfa0	0.12249684
20	0x3cbb4e82	0.022864584
21	0x3e0b6c2e	0.13615486
22	0x3c419986	0.011816388
23	0xbcfea8d4	-0.031086363
24	0xbc853dc1	-0.016264798
25	0x3e098066	0.13427886
26	0x3d5c80ad	0.053833652
27	0x3d483152	0.04887516
28	0x3c9fd496	0.019510549
29	0x3e24a60a	0.16078964
30	0x3d2b78c3	0.041863214
31	0xbd8f92cd	-0.07010422

output_layers.6.weight f4 [2, 32]
0	0xbbf39a31	-0.0074341525
1	0x3c6c0dbc	0.014407571
2	0x3e115b56	0.14194998
3	0xbb1e5a7f	-0.0024162827
4	0xbe264519	-0.16237296
5	0xbb6c2f85	-0.0036039066
6	0xbdcbc4f7	-0.099496774
7	0xbb8bd38c	-0.0042671617
8	0xbb4155c4	-0.0029500583
9	0x3e8d8ca0	0.2764635
10	0xbb88a2de	-0.004169806
11	0xbe101d3e	-0.14073655
12	0xbdbb1554	-0.091349274
13	0x3d6bc0d4	0.057556942
14	0xbd186813	-0.037208628
15	0xbdbff28b	-0.09372433
16	0x3dd8e6a5	0.10590867
17	0xbd9efa24	-0.07762554
18	0xbdbc3c07	-0.09191137
19	0xbdcc8348	-0.099859774
20	0xbd46456e	-0.048406057
21	0x3d5d9010	0.054092467
22	0xbe0d7faa	-0.13818231
23	0x3d4007f6	0.046882592
24	0xbda41cb1	-0.08013285
25	0x3df651c1	0.12027312
26	0xbb82f29d	-0.003996207
27	0xbd869c9f	-0.06572842
28	0xbbb83cbd	-0.005622475
29	0xbb58e1f6	-0.0033093668
30	0xbe11e8a1	-0.14248897
31	0xbdda541c	-0.10660574
32	0xbe1de548	-0.15419495
33	0xbe85f44b	-0.26162943
34	0xbda62d92	-0.081141606
35	0x3c912efa	0.017722595
36	0xbe375e29	-0.17907013
37	0xbe41dd10	-0.18931985
38	0xbe1baedb	-0.15203421
39	0xbe808aae	-0.25105804
40	0xbe72724d	-0.23676415
41	0xbe004581	-0.12526514
42	0xbe6b2cba	-0.2296628
43	0x3d794bbc	0.06086324
44	0xbd8236dd	-0.063581206
45	0x3d3c0f28	0.04591289
46	0xbe43b6b5	-0.19112666
47	0xbe830e3b	-0.25596794
48	0xbe813aef	-0.25240275
49	0x3dd0ad03	0.10189249
50	0xbe86e6d4	-0.26347983
51	0xbda5cac2	-0.080953136
52	0xbdf907ff	-0.12159728
53	0xbe6abd10	-0.22923684
54	0x3e2376cd	0.15963288
55	0xbe36b8e9	-0.17843975
56	0xbe875de4	-0.2643882
57	0xbe19cea5	-0.15020235
58	0xbe5938e7	-0.21213113
59	0x3e107213	0.14106016
60	0xbe59b81f	-0.21261643
61	0xbe1e6139	-0.15466775
62	0x3b2be232	0.0026227352
63	0x3d213e4f	0.039366063

output_layers.6.bias f4 [2]
0	0x3dba503a	0.09097333
1	0xbdfe8db5	-0.12429372

exp_avg f4 [96, 15]
0	0x3a9dd124	0.0012040478
1	0x3a9c3678	0.0011918088
2	0x3aa041ea	0.0012226675
3	0x3a9f1646	0.0012137375
4	0xba927d56	-0.0011176269
5	0x39aa41f8	0.00032474077
6	0xba1f4b63	-0.0006076602
7	0xba0a7db2	-0.0005283012
8	0xba215e44	-0.0006155709
9	0xba9e1693	-0.0012061171
10	0xb8df6ff2	-0.0001065432
11	0x39352ef5	0.00017278998
12	0x00000000	0.0
13	0xb9bcb793	-0.00035994928
14	0xb94df1d9	-0.00019640419
15	0xb9589452	-0.00020654619
16	0xb95ad949	-0.00020871045
17	0xb9587ff5	-0.00020647033
18	0xb9522849	-0.00020042168
19	0xba039fa3	-0.0005021041
20	0xb9bb57f2	-0.00035732944
21	0xb8f6dacb	-0.000117709475
22	0xb823f21b	-3.9087707e-05
23	0xb9d23b90	-0.000400987
24	0xba793be2	-0.00095075194
25	0xb84b1da2	-4.842657e-05
26	0x38ee1f28	0.00011354528
27	0x00000000	0.0
28	0xb7eb056b	-2.8016706e-05
29	0x38326fb4	4.254254e-05
30	0x3a8b2a3d	0.0010617446
31	0x3a894dc5	0.0010475448
32	0x3a8b86b7	0.0010645007
33	0x3a8c3746	0.0010697625
34	0x39390bb2	0.00017647332
35	0x3920f523	0.0001535011
36	0x390c3733	0.00013372004
37	0x38e0a9cd	0.0001071278
38	0xb9618cce	-0.00021510126
39	0xb97cc27a	-0.00024105041
40	0xb6fd3eca	-7.547297e-06
41	0xb85e2fc6	-5.2973417e-05
42	0x00000000	0.0
43	0xb8cde751	-9.818248e-05
44	0xb909d723	-0.00013145483
45	0x3b0d0a1f	0.0021520925
46	0x3b0c6669	0.0021423346
47	0x3b0da796	0.0021614782
48	0x3b0d14c7	0.0021527277
49	0xb9508d42	-0.00019889048
50	0x3a01aad8	0.0004946417
51	0x35ade067	1.2954814e-06
52	0x38842ace	6.3022235e-05
53	0xb9dffc57	-0.00042721882
54	0xb88986ab	-6.557753e-05
55	0x36fbdff7	7.506456e-06
56	0x38b7f8be	8.772452e-05
57	0x00000000	0.0
58	0xb7fdff48	-3.0278825e-05
59	0xb8b1076f	-8.441402e-05
60	0xb99fef50	-0.00030505145
61	0xb9aa2b6f	-0.00032457287
62	0xb9a38e00	-0.0003119558
63	0xb9a2bcd7	-0.00031039744
64	0xba55cf7e	-0.0008156224
65	0xba943915	-0.0011308516
66	0xba7e0e5e	-0.0009691472
67	0xba73297d	-0.00092758966
68	0xba86d8de	-0.001028802
69	0xbb04e604	-0.0020278702
70	0xb8d1fda8	-0.00010013144
71	0x3ac72da8	0.0015196102
72	0x00000000	0.0
73	0xba28e0ce	-0.000644219
74	0xb9d48c3d	-0.00040540277
75	0x3ae56b77	0.001750334
76	0x3ae4fbbe	0.0017470045
77	0x3ae4c892	0.0017454794
78	0x3ae50013	0.0017471336
79	0xb80cb99e	-3.355147e-05
80	0x395ca764	0.00021043193
81	0xb974bf63	-0.0002334095
82	0xb93d7a53	-0.00018070014
83	0xb98158bc	-0.0002467091
84	0xb9f93fe3	-0.0004754058
85	0x36d6c01b	6.400061e-06
86	0x3a02b3a4	0.0004985875
87	0x00000000	0.0
88	0xb8405d4e	-4.5863264e-05
89	0xb8fb59a4	-0.000119853095
90	0xb8bfa993	-9.1391754e-05
91	0xb8a655b4	-7.93146e-05
92	0xb8b38d94	-8.561756e-05
93	0xb8b35169	-8.550549e-05
94	0xba3d3e4e	-0.0007219062
95	0xba08b06a	-0.0005214276
96	0xb97ab303	-0.00023908545
97	0xb950a499	-0.00019897743
98	0x35f724ec	1.841368e-06
99	0xb9971529	-0.0002881673
100	0x374dd887	1.2269366e-05
101	0x3aa44be5	0.0012534825
102	0x00000000	0.0
103	0x38641221	5.437632e-05
104	0x3879d44a	5.9563936e-05
105	0x3a91aa49	0.0011113371
106	0x3a8fbaaa	0.0010965664
107	0x3a91df8f	0.0011129248
108	0x3a91f87f	0.001113668
109	0xb8a8458e	-8.02382e-05
110	0x378977e0	1.6387494e-05
111	0xb95c8f95	-0.00021034323
112	0xb943d9b8	-0.00018677756
113	0xba174b8c	-0.000577145
114	0xba816f69	-0.0009875122
115	0xb8b8da57	-8.814473e-05
116	0x398256c9	0.00024860192
117	0x00000000	0.0
118	0xb988a059	-0.0002605941
119	0xb9be2b2f	-0.00036271798
120	0x3a1fa13b	0.0006089394
121	0x3a1e19a8	0.0006031045
122	0x3a23a215	0.00062421086
123	0x3a1fad4c	0.0006091192
124	0xb9bb4511	-0.00035718878
125	0xb9517cdf	-0.00019978311
126	0xb8f92267	-0.00011879653
127	0xb90a32c7	-0.00013179622
128	0xb9e543eb	-0.00043728887
129	0xb8d09409	-9.9457866e-05
130	0xb844e153	-4.693989e-05
131	0x38a85907	8.027447e-05
132	0x00000000	0.0
133	0xb8352a49	-4.3193144e-05
134	0xb81845ac	-3.630451e-05
135	0xbb1df6ad	-0.002410333
136	0xbb1c658f	-0.0023864245
137	0xbb1e5b53	-0.002416332
138	0xbb1d9712	-0.0024046344
139	0xba1dab13	-0.0006014567
140	0x392ccbc6	0.0001647911
141	0x38a3d33a	7.81179e-05
142	0x37c93e30	2.3990026e-05
143	0x39b43b05	0.00034376248
144	0xbb070441	-0.00206019
145	0x3714f0d4	8.87756e-06
146	0x3900328f	0.00012225866
147	0x00000000	0.0
148	0x3821f183	3.8610317e-05
149	0x378a93b3	1.651966e-05
150	0x3a30f0ac	0.000674973
151	0x3a2e8537	0.0006657424
152	0x3a2fa064	0.000669962
153	0x3a315de5	0.00067660055
154	0xb9637561	-0.00021692134
155	0xb9c83059	-0.00038182994
156	0xba34304d	-0.00068736525
157	0xba220336	-0.0006180288
158	0xba69365a	-0.00088963436
159	0xba8d6bff	-0.0010789632
160	0x3780ddba	1.5362039e-05
161	0x3b2f54d1	0.0026753435
162	0x00000000	0.0
163	0xb9fab4d8	-0.00047818455
164	0xb8ca670f	-9.651307e-05
165	0x3b3be742	0.0028671776
166	0x3b3b1f61	0.0028552639
167	0x3b3d8893	0.0028920516
168	0x3b3b7307	0.0028602497
169	0x39caf89b	0.00038713668
170	0x39a84a6a	0.000320989
171	0xb9747db0	-0.00023316476
172	0xb90ec5f1	-0.00013615914
173	0xb9d104b6	-0.00039867096
174	0x3abc9806	0.0014388568
175	0xb888d3a7	-6.524409e-05
176	0x391d2e9b	0.00014990049
177	0x00000000	0.0
178	0xb858c3ff	-5.168095e-05
179	0xb941dae9	-0.00018487465
180	0xbaa63cab	-0.0012682875
181	0xbaa0fb03	-0.0012281839
182	0xbaa6a8ba	-0.0012715079
183	0xbaa563e5	-0.0012618272
184	0xba2c73d7	-0.0006578541
185	0xb95a49c5	-0.00020817581
186	0x39ee703f	0.00045478527
187	0x39dd788f	0.00042242228
188	0x39ebc838	0.00044971867
189	0xb9a7f08f	-0.00032031952
190	0x389e9448	7.5616466e-05
191	0x39b7d69c	0.00035064376
192	0x00000000	0.0
193	0x39802ef8	0.00024449057
194	0x39027c0f	0.00012443982
195	0xba856f27	-0.0010180221
196	0xba8585f0	-0.0010187011
197	0xba84ea4e	-0.0010140629
198	0xba84ed55	-0.0010141531
199	0xba9701e9	-0.0011520955
200	0xb9975bcb	-0.00028869355
201	0x380888b0	3.2552227e-05
202	0x39095dba	0.00013100254
203	0xba6e87af	-0.0009099198
204	0xbad33aad	-0.0016115509
205	0xb8c67d91	-9.464764e-05
206	0xb92985e5	-0.00016166976
207	0x00000000	0.0
208	0xb9e85fc7	-0.00044321848
209	0xb96412fc	-0.00021750847
210	0xbb073714	-0.0020632194
211	0xbb06e93f	-0.0020585803
212	0xbb07eb5e	-0.0020739655
213	0xbb076570	-0.0020659827
214	0xb737be7e	-1.0952002e-05
215	0xb90a8b05	-0.00013212494
216	0x38ad80db	8.273284e-05
217	0x386df13d	5.6729874e-05
218	0xb706ec61	-8.042059e-06
219	0xbb0377d7	-0.0020060444
220	0xb70ee8e9	-8.518088e-06
221	0x3a358e89	0.00069258414
222	0x00000000	0.0
223	0x377ecbfc	1.5187074e-05
224	0x394bc3a9	0.00019432478
225	0xba598573	-0.00082977785
226	0xba59ddd1	-0.0008310946
227	0xba5b7ca9	-0.0008372763
228	0xba5bb4e4	-0.0008381142
229	0xb9d7120e	-0.00041021447
230	0xb9df2009	-0.00042557743
231	0xb93f4b88	-0.00018243317
232	0xb90ad57c	-0.00013240235
233	0xb88cc213	-6.711869e-05
234	0xbaa1744a	-0.0012317982
235	0xb82d09b3	-4.1255447e-05
236	0x3aabff59	0.0013122364
237	0x00000000	0.0
238	0xb78c1f75	-1.6703949e-05
239	0xb84d41cd	-4.893709e-05
240	0x3acb2401	0.0015498401
241	0x3ac9f317	0.001540753
242	0x3acaf412	0.0015484116
243	0x3aca33f6	0.0015426863
244	0xb930a261	-0.00016845159
245	0xb88c701d	-6.696603e-05
246	0xb8656aab	-5.4697197e-05
247	0xb7d99347	-2.5936997e-05
248	0xb9cae3d0	-0.00038698176
249	0x39d53507	0.00040666034
250	0x3647af37	2.97553e-06
251	0x397e280b	0.00024238245
252	0x00000000	0.0
253	0xb8a919e4	-8.0633705e-05
254	0xb94ae829	-0.00019350708
255	0x392db3c5	0.00016565535
