lightning_logs/version_62/checkpoints/epoch=49-step=200.ckpt (torch, 121435 bytes, 30 tensors)

gru.weight_ih_l0 f4 [96, 15]
-0.07695656 0.17586988 -0.11664718 0.055831693 0.006204073 0.0075758644 -0.064960286 0.01751587
-0.10978718 -0.041421745 -0.08177982 0.15510884 0.02334046 -0.10089685 -0.105353035 0.07826078
0.051783487 0.10485948 0.072652616 0.1790729 -0.10364052 -0.11491258 0.2179863 0.08660502
0.15037082 0.03393727 0.04991652 0.16637927 -0.13523203 0.17257474 0.20046705 0.06167065
0.019403832 0.22032546 0.13470164 -0.024924185 -0.06796841 0.025299026 0.12605847 0.1300062
0.0010277341 -0.004012138 0.10513506 0.22177012 -0.009837294 0.129819 0.15223618 0.15563348
0.13194312 0.0038189623 -0.13944866 -0.12456168 -0.05853032 -0.041603893 -0.045804936 -0.11819758
0.023621762 -0.10679695 -0.12478421 0.08314475 -0.12291588 0.12302097 -0.12418811 0.056457404
0.014361596 0.0250712 0.16972242 0.034446273 -0.0033163875 0.0070914896 0.15530425 0.016631503
0.13577665 -0.07711356 0.23120187 0.19877881 0.19533344 0.22172093 0.11021689 0.14496176
0.06568551 0.07557318 -0.09625208 0.18194346 -0.070423484 0.1403686 0.039508563 -0.025885962
0.113297105 -0.0347993 0.13319252 -0.079316795 -0.13731225 -0.1127824 0.004918165 -0.09130572
-0.07834642 -0.037168443 -0.119689494 -0.09506999 0.05615603 -0.1936021 -0.11577868 -0.08949491
0.007957018 -0.093503945 -0.027340222 0.08554705 0.22495797 -0.050448146 -0.06768141 -0.10807942
0.11669563 0.02236063 0.11214557 0.1130496 0.09468537 0.10243079 0.04663689 0.06396279
0.1631021 -0.17681988 -0.16341236 -0.0030103517 0.031931106 0.028531332 0.05589867 0.0016454682
-0.10576871 0.04158166 -0.052361645 0.19602984 0.05737364 0.071365975 0.024797902 0.042019274
0.11686136 -0.13132226 -0.18975797 0.11541474 -0.1492721 0.06714353 0.19669925 -0.07576907
-0.14802222 0.15156431 -0.17019804 -0.11035149 -0.07714271 -0.10428435 -0.09108426 0.13733655
0.12259088 -0.020211924 -0.14909355 -0.105185546 0.19387902 -0.091914296 -0.16020623 0.020746704
-0.024681652 -0.0576307 -0.043951027 0.09982457 -0.08116062 0.040972017 -0.109517455 -0.10261537
0.0765782 0.027444327 -0.21026781 -0.034453366 0.10520254 0.05944166 -0.05879523 0.036489006
0.09844526 0.050550044 0.06438926 0.0066938046 -0.032081995 -0.05391936 -0.18439138 -0.077093154
-0.11907707 -0.13281046 0.09398736 0.017003642 -0.0037851257 0.16586657 0.14129454 -0.0023381193
0.06856763 0.021091167 -0.008240341 -0.024054509 -0.07618804 0.09158746 -0.08133255 0.05417335
0.08425828 0.23889835 0.23283046 -0.004615305 0.06930717 0.0719957 0.08858975 -0.16093707
-0.14643168 0.10899367 0.14515547 -0.16242453 -0.12537502 -0.10790042 -0.09641955 -0.012739954
0.076535605 -0.063767165 -0.08184508 -0.015115987 0.103458196 0.14686191 -0.047683343 -0.15275985
-0.12549414 -0.073503695 -0.1158168 -0.04384445 0.10531098 0.014251874 -0.12077242 -0.05590583
0.079058714 0.21895115 -0.13728726 0.17947493 0.15798765 0.025714803 0.054667294 0.012076654
0.10190292 -0.085878335 -0.19554122 -0.07011723 0.15364249 0.2282281 -0.04332723 0.20084982
0.1549473 -0.03843411 0.14587495 0.12214742 -0.1334682 0.04379781 -0.12573037 0.0859909
00000000: 679b 9dbd 3c17 343e b7e4 eebd c6af 643d
00000010: 894b cb3b f53e f83b e609 85bd 717d 8f3c
00000020: 1ad8 e0bd d9a9 29bd 2e7c a7bd dad4 1e3e
00000030: 7e34 bf3c 02a3 cebd 55c3 d7bd 3047 a03d
00000040: ec1a 543d 91c0 d63d e5ca 943d e35e 373e
00000050: 7b41 d4bd 4957 ebbd cd37 5f3e f95d b13d
00000060: cffa 193e cf01 0b3d 4475 4c3d 545f 2a3e
00000070: 447a 0abe 6fb7 303e 3c47 4d3e 5d9a 7c3d
00000080: c9f4 9e3c ff9c 613e 3aef 093e ce2d ccbc
00000090: 0633 8bbd e73f cf3c 7915 013e 5820 053e
000000a0: 09b5 863a 4178 83bb 0d51 d73d b517 633e
000000b0: 9a2c 21bc 46ef 043e cde3 1b3e 625e 1f3e
000000c0: 191c 073e 8e47 7a3b a1cb 0ebe 321a ffbd
000000d0: 7dbd 6fbd d868 2abd f59d 3bbd 9311 f2bd
000000e0: 6d82 c13c 5cb8 dabd dd8e ffbd cb47 aa3d
000000f0: 52bb fbbd 6bf2 fb3d 5656 febd e13f 673d
00000100: e64c 6b3c 1e62 cd3c b7cb 2d3e 8917 0d3d
00000110: c057 59bb ba5f e83b 1408 1f3e ca3e 883c
00000120: 0909 0b3e b7ed 9dbd 2fc0 6c3e ac8c 4b3e
00000130: 7d05 483e d00a 633e 65b9 e13d db70 143e
00000140: 2086 863d 1dc6 9a3d cf1f c5bd 634f 3a3e
00000150: 303a 90bd c9bc 0f3e bbd3 213d cc0e d4bc
00000160: 5008 e83d b689 0ebd 9f63 083e d870 a2bd
00000170: 959b 0cbe 75fa e6bd 8f28 a13b 7efe babd
00000180: 1674 a0bd f03d 18bd c41f f5bd 0eb4 c2bd
00000190: de03 663d a13f 46be 5f1d edbd 1b49 b7bd
000001a0: 275e 023c ff7e bfbd 9af8 dfbc 4b33 af3d
000001b0: 625b 663e b7a2 4ebd 8d9c 8abd be58 ddbd
000001c0: 1efe ee3d a42d b73c 94ac e53d 8c86 e73d
000001d0: 67ea c13d 3cc7 d13d 5306 3f3d ecfe 823d
000001e0: 3d04 273e 4510 35be 9255 27be 5249 45bb
000001f0: 31ca 023d 8aba e93c 01f6 643d c0ac d73a
00000200: 449d d8bd 8851 2a3d 2a79 56bd 0cbc 483e
00000210: 9f00 6b3d 5328 923d f824 cb3c 671c 2c3d
00000220: 0255 ef3d 5879 06be ea4f 42be 905e ec3d
00000230: c9da 18be 8c82 893d 876b 493e d02c 9bbd
00000240: 2393 17be ad33 1b3e 6548 2ebe f6ff e1bd
00000250: fffc 9dbd 0993 d5bd 628a babd f4a1 0c3e
00000260: ed10 fb3d 7a93 a5bc fbab 18be 856b d7bd
00000270: 3988 463e 903d bcbd 1a0d 24be fef4 a93c
00000280: 2d31 cabc 2b0e 6cbd fe05 34bd d370 cc3d
00000290: 8a37 a6bd 46d2 273d b04a e0bd 0228 d2bd
000002a0: 08d5 9c3d edd2 e03c 7250 57be f91e 0dbd
000002b0: 6e74 d73d 1979 733d 44d3 70bd 7f75 153d
000002c0: ab9d c93d 900d 4f3d 84de 833d b457 db3b
000002d0: 6968 03bd 8cda 5cbd 18d1 3cbe 04e3 9dbd
000002e0: aede f3bd 77ff 07be 727c c03d 394b 8b3c
000002f0: df0f 78bb edd8 293e 84af 103e 223b 19bb
00000300: 306d 8c3d 62c7 ac3c 7f02 07bc f60d c5bc
00000310: 7a08 9cbd 3592 bb3d ae91 a6bd e0e4 5d3d
00000320: 9b8f ac3d c5a1 743e 1c6b 6e3e fc3b 97bb
00000330: ebf0 8d3d 7b72 933d 8b6e b53d b0cc 24be
00000340: 30f2 15be 1338 df3d a3a3 143e 9e52 26be
00000350: 4f62 00be e5fa dcbd 9d77 c5bd 3dbb 50bc
00000360: b3be 9c3d 5c98 82bd 659e a7bd 0ba9 77bc
00000370: e4e1 d33d f862 163e 9c4f 43bd 146d 1cbe
00000380: 8981 00be 1b89 96bd 5c31 edbd 3d96 33bd
00000390: 48ad d73d b180 693c 8857 f7bd 83fd 64bd
000003a0: 89e9 a13d bb34 603e 0895 0cbe 47c8 373e
000003b0: 84c7 213e daa7 d23c d0ea 5f3d 28dd 453c
000003c0: 7ab2 d03d fbe0 afbd f53b 48be 9f99 8fbd
000003d0: 7554 1d3e a1b4 693e e577 31bd 93ab 4d3e
000003e0: 81aa 1e3e 166d 1dbd 3e60 153e 6d28 fa3d
000003f0: e3ab 08be 5565 333d 76bf 00be ff1b b03d

gru.weight_hh_l0 f4 [96, 32]
-0.10568105 0.002904064 -0.0017792986 0.062452544 0.0006448765 0.13372576 0.16377471 -0.030963562
0.077050515 -0.12513748 -0.16991849 -0.16722678 -0.14260857 -0.13927628 -0.08023652 -0.16614473
0.15373078 0.141369 -0.18403053 -0.20793499 -0.06972384 -0.06411055 0.05049265 -0.050869707
0.12267627 -0.19345188 -0.009970159 -0.18064643 -0.0048921257 -0.13723217 0.12757456 0.14403705
0.108222246 0.2950452 -0.19666782 0.048800062 -0.07713949 0.20477273 -0.024616651 0.27067256
0.09869273 -0.17043047 0.14573768 0.25207868 -0.13170275 0.1920074 -0.044145398 -0.07404008
-0.046825476 -0.025932163 0.18876731 -0.21727733 -0.13920765 0.09533498 -0.035447106 0.06659066
-0.16234955 0.001148283 -0.025555704 -0.06463449 0.19687429 0.15002239 0.22614996 -0.006184182
-0.12081729 -0.11481273 0.08190795 0.014068971 -0.22223184 0.061503228 0.19575639 -0.18238498
0.033027858 0.027292404 -0.21360844 0.0035533812 0.004552647 -0.04647083 0.004027361 0.20843598
0.18759875 0.16980547 -0.016931815 -0.21095224 0.18089262 0.047021918 -0.108235806 -0.23700099
0.14178923 0.028044263 -0.16065721 0.06830894 -0.12559667 0.08009017 -0.13362494 0.17650996
0.024167519 -0.21081918 0.20104103 -0.20377447 0.08634493 -0.20962521 -0.18931119 -0.19784018
0.057413638 -0.12604342 0.07428142 -0.06928766 0.15535603 0.06812553 0.07713686 0.07504343
0.06475902 -0.27169675 -0.07813431 -0.045346007 0.10240403 0.1350872 -0.14498997 -0.09792857
-0.12663968 0.18336935 0.0016265269 0.059532393 -0.009920869 0.029055294 -0.11154597 0.016600009
-0.031079693 0.058227796 -0.08977204 -0.039259218 0.058386743 -0.17918786 0.14946361 -0.1277573
-0.11727816 -0.051478017 0.04091807 0.032123026 0.025564464 -0.0600125 0.015557102 0.120239586
-0.04265077 -0.0421223 -0.10545199 -0.13340004 -0.08083586 -0.12239104 0.09603134 -0.047336817
-0.031827454 -0.11786097 0.05043659 0.026657367 0.08281052 -0.11731737 -0.063234515 -0.051561184
0.056795128 -0.10904313 -0.14967747 -0.11170753 -0.019932797 0.069435835 0.21424636 -0.049317468
0.14134903 0.072662935 0.07507807 -0.028160501 0.06611948 0.047909845 -0.012478196 -0.0110713765
0.12564425 -0.042263754 0.041889742 0.039955713 -0.02047987 0.076540865 0.07743574 0.15694962
0.028692452 -0.06633339 -0.054352015 0.0038321938 0.10627974 -0.105517395 -0.0082799755 -0.036609076
0.024377722 0.17150989 0.07806622 -0.090451 -0.13632806 0.06056424 0.030035835 0.05424478
0.13748689 -0.065057494 -0.15488343 0.05748716 -0.021303136 0.08868632 -0.07067358 -0.06632207
0.14211203 0.052285302 0.12471617 -0.11461594 -0.053389452 0.18952711 0.14462398 -0.057570133
0.104598105 0.12455034 -0.12468249 -0.14403735 0.10277974 -0.10270547 -0.19545369 0.025470993
-0.1417473 -0.21529709 -0.117961556 -0.04764444 0.13333316 -0.12080487 -0.03308724 -0.08814309
-0.21712218 -0.17677213 -0.14300816 -0.029162869 0.16212021 0.14952368 0.21921451 0.057533056
0.08180913 -0.23812726 0.09938156 -0.052978884 0.0712749 -0.05763143 -0.015063245 -0.13900563
0.13321607 0.12921897 0.007278256 0.06552134 -0.033132028 -0.17903562 -0.21462305 0.20349449
00000000: 4e6f d8bd 1c52 3e3b 5b37 e9ba 3dce 7f3d
00000010: ee0c 293a 68ef 083e 8fb4 273e 4ca7 fdbc
00000020: a9cc 9d3d 0a24 00be 1dff 2dbe 7f3d 2bbe
00000030: fb07 12be 719e 0ebe 0b53 a4bd d821 2abe
00000040: 9a6b 1d3e 09c3 103e 8072 3cbe e9ec 54be
00000050: 5fcb 8ebd 644c 83bd 62d1 4e3d c15c 50bd
00000060: b23d fb3d 4018 46be e159 23bc 61fb 38be
00000070: 204e a0bb 9786 0cbe e8a2 023e 737e 133e
00000080: a0a3 dd3d 2a10 973e 4a63 49be 93e2 473d
00000090: 4ffb 9dbd f1af 513e dca8 c9bc 9895 8a3e
000000a0: 6a1f ca3d 5385 2ebe 423c 153e 7510 813e
000000b0: 16dd 06be 969d 443e ced1 34bd 53a2 97bd
000000c0: 12cc 3fbd b06f d4bc 384c 413e f37d 5ebe
000000d0: 738c 0ebe fc3e c33d fc30 11bd af60 883d
000000e0: f63e 26be fc81 963a 325a d1bc 165f 84bd
000000f0: 6a99 493e 789f 193e db93 673e aea4 cabb
00000100: 0e6f f7bd f022 ebbd 5bbf a73d 8b81 663c
00000110: be90 63be cfea 7b3d 5d74 483e 21c3 3abe
00000120: 3848 073d 5294 df3c 2cbc 5abe d8df 683b
00000130: 5f2e 953b 3258 3ebd f4f7 833b 3e70 553e
00000140: e319 403e 7ce1 2d3e 97b4 8abc dd03 58be
00000150: ea3b 393e 0e9a 403d bcaa ddbd 63b0 72be
00000160: 3231 113e 15bd e53c 5383 24be 8fe5 8b3d
00000170: 6a9c 00be 5106 a43d fad4 08be 07bf 343e
00000180: f6fa c53c fce0 57be b3dd 4d3e 41aa 50be
00000190: 9cd5 b03d fea7 56be cbda 41be 9e96 4abe
000001a0: 902a 6b3d 8711 01be db20 983d b0e6 8dbd
000001b0: a715 1f3e 6685 8b3d eef9 9d3d 5fb0 993d
000001c0: 61a0 843d d61b 8bbe e204 a0bd bcbc 39bd
000001d0: 34b9 d13d 4d54 0a3e 4078 14be c68e c8bd
000001e0: d5ad 01be 2dc5 3b3e 3031 d53a 3dd8 733d
000001f0: 248b 22bc 5e05 ee3c 3772 e4bd befc 873c
00000200: d79a febc 4580 6e3d 67da b7bd 46ce 20bd
00000210: f026 6f3d 067d 37be fd0c 193e cfd2 02be
00000220: 882f f0bd 9dda 52bd b599 273d 6f93 033d
00000230: 916c d13c abcf 75bd 37e3 7e3c 2c40 f63d
00000240: 93b2 2ebd 6f88 2cbd 37f7 d7bd 059a 08be
00000250: 458d a5bd 27a8 fabd 14ac c43d 40e4 41bd
00000260: 815d 02bd 1861 f1bd 9996 4e3d 8d60 da3c
00000270: 9098 a93d 1744 f0bd 1981 81bd d231 53bd
00000280: 02a2 683d 0152 dfbd 0d45 19be ebc6 e4bd
00000290: 1b4a a3bc 6034 8e3d 6663 5b3e 1d01 4abd
000002a0: cdbd 103e 4ed0 943d 88c2 993d dab0 e6bc
000002b0: a669 873d 1d3d 443d 5971 4cbc b864 35bc
000002c0: e3a8 003e c21c 2dbd 9494 2b3d 9aa8 233d
000002d0: 66c5 a7bc 75c1 9c3d a196 9e3d 67b7 203e
000002e0: 6f0c eb3c cdd9 87bd 38a0 5ebd 8b25 7b3b
000002f0: 31a9 d93d 8119 d8bd bca8 07bc 66f3 15bd
00000300: cab3 c73c 4aa0 2f3e 2fe1 9f3d 603e b9bd
00000310: 9599 0bbe 3512 783d b60d f63c c62f 5e3d
00000320: 5dc9 0c3e dd3c 85bd c399 1ebe a877 6b3d
00000330: ea83 aebc 2ca1 b53d 4fbd 90bd ded3 87bd
00000340: d185 113e 1d29 563d 316b ff3d c3bb eabd
00000350: e6ae 5abd 6513 423e 4f18 143e a9ce 6bbd
00000360: 8837 d63d 4014 ff3d 8959 ffbd 877e 13be
00000370: 2f7e d23d 3f57 d2bd 0325 48be 8ba8 d03c
00000380: 3426 11be d776 5cbe d495 f1bd d126 43bd
00000390: 7d88 083e 8b68 f7bd 7c86 07bd 5d84 b4bd
000003a0: 4755 5ebe c103 35be bb70 12be f8e6 eebc
000003b0: d702 263e bc1c 193e c579 603e c8a7 6b3d
000003c0: 8c8b a73d a2d7 73be 8f88 cb3d 6300 59bd
000003d0: 93f8 913d ef0e 6cbd d4cb 76bc 7e57 0ebe
000003e0: cb69 083e fa51 043e 707e ee3b 0d30 863d
000003f0: 73b5 07bd 1d55 37be 25c6 5bbe dc60 503e

gru.bias_ih_l0 f4 [96]
0.1578453 0.0435493 -0.07911418 -0.022751383 0.14682385 -0.16860746 -0.0064683654 -0.04194043
-0.14946266 0.065082535 0.1385487 0.12844034 0.12615158 -0.069794804 0.1935647 -0.1785521
0.02897665 -0.048186004 -0.00030100098 -0.05789584 0.14829002 0.13605663 0.2373681 -0.1417501
-0.038918536 -0.03344888 -0.10807126 0.13428919 0.120688096 0.014439902 -0.091208965 0.060974818
-0.20425783 -0.18863387 -0.008905494 -0.032910153 0.01346016 -0.113906026 -0.0034187846 0.06885915
0.15429518 -0.21882698 0.052856628 -0.12093762 0.0093411915 -0.004179181 -0.09126139 0.10551683
-0.07249082 -0.13607174 -0.16098866 -0.019718068 0.0248095 -0.004097155 -0.013364603 -0.04171345
0.103771344 0.03201675 0.10257496 -0.20001553 -0.09214919 -0.13440347 -0.010321085 -0.09803479
-0.19859026 -0.0049684267 0.09747849 0.07298146 0.15240385 0.009214926 0.13276717 -0.049990572
-0.16847895 -0.20540166 0.052340113 -0.14356788 0.072052464 0.16767342 -0.0262248 -0.14554633
0.04527282 -0.22219016 0.13736269 -0.23775958 0.10829308 0.059724037 -0.15314819 -0.02474277
-0.1368634 0.109828 0.16691649 0.14366503 -0.04923829 -0.058983024 -0.006100174 0.040836103
00000000: 33a2 213e c060 323d 9d06 a2bd 1c61 babc
00000010: fe58 163e 6fa7 2cbe 95f4 d3bb bac9 2bbd
00000020: bd0c 19be fe49 853d b6df 0d3e dd85 033e
00000030: e12d 013e 94f0 8ebd d335 463e 5dd6 36be
00000040: 7160 ed3c b05e 45bd abcf 9db9 3024 6dbd
00000050: 57d9 173e 6e52 0b3e a010 733e f026 11be
00000060: 0b69 1fbd b101 09bd 7754 ddbd 1b83 093e
00000070: 522b f73d 5795 6c3c c4cb babd bbc0 793d
00000080: f728 51be 3d29 41be 59e8 11bc cccc 06bd
00000090: 0188 5c3c 9047 e9bd b00d 60bb 0706 8d3d
000000a0: 8eff 1d3e 2e14 60be 3180 583d 25ae f7bd
000000b0: cc0b 193c 83f1 88bb 40e7 babd 3519 d83d
000000c0: 1176 94bd 6456 0bbe 36da 24be c987 a1bc
000000d0: 4b3d cb3c 6d41 86bb 35f7 5abc b9db 2abd
000000e0: 1286 d43d ff23 033d d212 d23d dfd0 4cbe
000000f0: b7b8 bcbd 10a1 09be c519 29bc 77c6 c8bd
00000100: 3f5b 4bbe 2fce a2bb cda2 c73d 4e77 953d
00000110: c10f 1c3e 33fa 163c 1ef4 073e eac2 4cbd
00000120: bf85 2cbe d054 52be 9662 563d 7503 13be
00000130: 3e90 933d 95b2 2b3e 64d5 d6bc 190a 15be
00000140: fe6f 393d d185 63be cea8 0c3e 3f77 73be
00000150: c3c8 dd3d 31a1 743d e1d2 1cbe 59b1 cabc
00000160: eb25 0cbe 81ed e03d 28ec 2a3e ed1c 133e
00000170: 17ae 49bd 2f98 71bd f8e3 c7bb c243 273d

gru.bias_hh_l0 f4 [96]
0.049096182 -0.07114581 0.09827716 -0.103623345 0.20721741 0.035007473 0.031357694 0.10243204
0.021723637 0.023203963 -0.02624814 -0.015715752 -0.088933 0.10486587 -0.082631364 -0.18589614
0.039451115 0.11274749 -0.14000818 0.04107104 -0.02109496 -0.058003735 0.1918771 0.017509742
0.18080252 -0.07149581 -0.1126795 0.043032356 -0.07588324 0.1642325 0.13429725 0.005513858
0.026828097 -0.117415115 0.044580605 -0.21618102 0.011162774 0.023071451 -0.13753587 0.032322016
-0.14561829 -0.076091304 -0.20452061 -0.0794958 0.03135196 -0.16688177 -0.038493544 -0.14377254
-0.047547035 -0.17448027 -0.03578038 -0.07671046 -0.09002395 -0.11325002 -0.035521977 0.03252593
0.054970272 0.1316501 -0.14172855 0.01699489 0.12880865 -0.037517577 0.14965838 -0.13863602
-0.20115274 0.19375274 0.06911672 -0.10740084 0.023344556 -0.07885944 -0.035149332 -0.07671427
0.08412218 -0.15287493 0.086323954 -0.16298983 0.22461353 0.116386056 0.19519657 0.10562332
-0.06214152 0.09625436 -0.07065994 -0.19321343 0.036507983 -0.0066477917 -0.20984787 -0.12499858
-0.009987952 0.08380796 0.09054577 0.02418905 0.022075946 0.056246046 0.13426222 -0.027614297
00000000: 1419 493d e5b4 91bd 8945 c93d 7a38 d4bd
00000010: cd30 543e ff63 0f3d ed70 003d e4c7 d13d
00000020: c5f5 b13c 3d16 be3c 5706 d7bc 52be 80bc
00000030: 8122 b6bd ebc3 d63d a23a a9bd 8f5b 3ebe
00000040: 7e97 213d 28e8 e63d 4e5e 0fbe 1b3a 283d
00000050: 56cf acbc 5395 6dbd 6e7b 443e 9770 8f3c
00000060: 4c24 393e 656c 92bd 82c4 e6bd b242 303d
00000070: ac68 9bbd 912c 283e 3885 093e 98ad b43b
00000080: 99c6 db3c 5677 f0bd 279a 363d 8f5e 5dbe
00000090: 11e4 363c 5700 bd3c 34d6 0cbe 1764 043d
000000a0: f61c 15be c2d5 9bbd da6d 51be b2ce a2bd
000000b0: ea6a 003d 0ee3 2abe 68ab 1dbd 1c39 13be
000000c0: aec0 42bd f5aa 32be 738e 12bd 601a 9dbd
000000d0: 7a5e b8bd a0ef e7bd 7e7f 11bd e939 053d
000000e0: 8228 613d 49cf 063e 4a21 11be de38 8b3c
000000f0: 6ae6 033e 08ac 19bd 0c40 193e 9af6 0dbe
00000100: fcfa 4dbe 1e67 463e 118d 8d3d f9f4 dbbd
00000110: 153d bf3c 0f81 a1bd bff8 0fbd 5f1c 9dbd
00000120: 4048 ac3d 3f8b 1cbe 9dca b03d cee6 26be
00000130: 1701 663e d05b ee3d 9ce1 473e 0a51 d83d
00000140: 1b88 7ebd 0221 c53d 29b6 90bd bed9 45be
00000150: 6589 153d b8d5 d9bb 5ce2 56be 41ff ffbd
00000160: 82a4 23bc 82a3 ab3d 1070 b93d 1d28 c63c
00000170: 9dd8 b43c 4162 663d 097c 093e 6137 e2bc

output_layers.0.weight f4 [64, 32]
-0.080329195 -0.10055231 0.035237752 0.097023144 -0.04874896 -0.12855335 0.1307729 -0.09157897
-0.16000818 0.034635942 -0.02401529 -0.12263887 0.0005811868 -0.067507364 -0.083379626 -0.19270478
-0.10308662 0.03908609 0.16850905 0.1146098 0.16825972 0.045455176 0.05297743 -0.10567268
-0.21562472 0.07014879 -0.039125253 0.13662176 0.02781086 0.0084599 -0.0804842 0.05845505
0.12393309 0.1427652 -0.17360315 0.07510353 0.020906031 -0.0880205 0.040195517 -0.18903281
-0.07726458 0.103846245 -0.05571817 0.10829304 -0.061774418 0.11649625 -0.068510875 -0.017934058
0.10963665 0.18877584 0.013726673 0.0376396 0.040740017 -0.09288195 0.14257492 -0.08969498
0.062061217 -0.02708277 -0.07842093 0.068631865 0.11927157 0.018229958 -0.16283739 0.10221814
-0.11374565 0.1363018 -0.04911392 0.03348549 0.21308857 0.12181981 -0.023863282 -0.22602282
-0.11328235 -0.032301612 -0.051891487 -0.0057468447 0.20677184 0.1511344 0.1079461 -0.13819052
-0.09569432 0.0034313572 -0.057857413 -0.16474803 0.14232954 0.17968279 -0.21757428 -0.12583718
-0.119479656 0.067625225 0.092000924 -0.085000284 0.0048417333 -0.13743202 0.048808973 -0.11402784
0.0019439727 0.19299956 -0.011190496 -0.13597617 -0.08867931 -0.03640145 -0.029252358 0.02129019
-0.0009459065 -0.104456104 0.09074248 -0.09310218 0.17536876 0.18009157 0.16120028 -0.137133
-0.0075468225 0.03676449 0.19208005 -0.107502505 0.140886 0.08454302 -0.036021408 -0.08194845
-0.08431543 0.12675047 0.19430362 0.18264435 -0.12851655 0.16343814 -0.10539128 -0.011489033
-0.26496503 -0.14488071 -0.023466965 0.043865096 -0.13571575 0.13487779 0.21847066 -0.18082185
0.040006723 -0.043757293 -0.12995625 -0.09941852 0.03963556 0.10507777 -0.005288018 -0.04141069
0.022678988 -0.11992075 -0.16480461 -0.08877495 0.21406451 -0.04623702 -0.11165197 -0.18272276
0.03777753 0.0743808 0.011306507 -0.19789562 -0.09888745 0.03937223 0.030360918 0.051405866
0.2228198 -0.08572639 -0.21100989 -0.04268239 -0.16068447 -0.042342708 -0.17539664 0.052898183
0.083696075 0.050747596 -0.08534587 0.13932103 0.031576995 -0.056448735 -0.02281175 0.123415366
-0.064922236 -0.1511597 -0.11719132 0.11372038 -0.1050106 0.17582916 -0.06604836 -0.15546945
-0.17941608 0.16176113 -0.04329263 0.23665747 -0.052689526 0.1893676 -0.006370355 -0.19950143
-0.033579417 0.07218427 0.14373057 0.03551025 -0.18511917 0.078603595 -0.011771172 -0.049526405
-0.015675139 -0.08051605 -0.18416782 0.050383467 0.010791125 0.07172133 0.079786666 -0.1248739
0.017221281 0.07092557 -0.15100639 -0.095335476 0.10277631 0.12249277 0.09750603 -0.097970314
-0.14007695 -0.048853643 0.048877493 -0.014198175 0.13939105 -0.10796295 0.058395132 0.11699915
-0.088872276 0.11140689 0.14394397 0.011698764 -0.07828711 -0.1953614 0.082490005 0.08362343
-0.04683056 -0.18696745 -0.03891987 -0.08179119 0.1383521 -0.055919636 -0.031385865 0.026288664
0.025183136 0.11238424 0.07857808 -0.1598208 0.20440811 -0.0007671919 -0.09853047 0.065735646
0.025087139 -0.062123843 -0.10049259 0.03967601 -0.1405522 -0.024946688 -0.16790496 -0.13335508
00000000: a283 a4bd 5fee cdbd 7655 103d 12b4 c63d
00000010: fdac 47bd 7da3 03be 55e9 053e c18d bbbd
00000020: 2fd9 23be 6bde 0d3d b7bb c4bc 162a fbbd
00000030: c95a 183a 4d41 8abd f0c2 aabd 6754 45be
00000040: 141f d3bd bc18 203d a38d 2c3e 8bb8 ea3d
00000050: 474c 2c3e 352f 3a3d ddfe 583d eb6a d8bd
00000060: bacc 5cbe 2baa 8f3d cd41 20bd 93e6 0b3e
00000070: 9ad3 e33c 649b 0a3c e6d4 a4bd 906e 6f3d
00000080: a2d0 fd3d 0a31 123e 06c5 31be e1cf 993d
00000090: 2043 ab3c 1844 b4bd 0ea4 243d d191 41be
000000a0: e43c 9ebd 57ad d43d bc38 64bd bec8 dd3d
000000b0: 2c07 7dbd 9695 ee3d 6e4f 8cbd 72ea 92bc
000000c0: 2e89 e03d 744e 413e d7e5 603c fb2b 1a3d
000000d0: 01df 263d e438 bebd 29ff 113e 00b2 b7bd
000000e0: e733 7e3d afdc ddbc 279b a0bd dd8e 8c3d
000000f0: a744 f43d fe56 953c d8be 26be bf57 d13d
00000100: 7bf3 e8bd b392 0b3e ae2b 49bd 1528 093d
00000110: e433 5a3e aa7c f93d ee7c c3bc 8772 67be
00000120: 9400 e8bd b24e 04bd 2b8c 54bd 0750 bcbb
00000130: ffbb 533e fac2 1a3e d812 dd3d d181 0dbe
00000140: 62fb c3bd 9fe0 603b e5fb 6cbd b5b3 28be
00000150: d6be 113e c4fe 373e cbcb 5ebe 76db 00be
00000160: c0b1 f4bd 187f 8a3d fb6a bc3d a114 aebd
00000170: 67a7 9e3b fbba 0cbe ebeb 473d 6e87 e9bd
00000180: e6cc fe3a ada1 453e 5858 37bc 563d 0bbe
00000190: 809d b5bd b019 15bd a4a2 efbc c468 ae3c
000001a0: b6f6 77ba 15ed d5bd 31d7 b93d 5bac bebd
000001b0: de93 333e ed69 383e b011 253e 986c 0cbe
000001c0: 564b f7bb 5d96 163d a2b0 443e 462a dcbd
000001d0: 6b44 103e e424 ad3d 2f8b 13bd 97d4 a7bd
000001e0: 91ad acbd e0ca 013e 87f7 463e 1f07 3b3e
000001f0: d899 03be 545c 273e 62d7 d7bd 7f3c 3cbc
00000200: 7fa9 87be 9c5b 14be cb3d c0bc e3ab 333d
00000210: 12f9 0abe 671d 0a3e c6b6 5f3e 5d29 39be
00000220: 17de 233d d93a 33bd 4013 05be f09b cbbd
00000230: e658 223d 0433 d73d 1c47 adbb 419e 29bd
00000240: 49c9 b93c 0399 f5bd 8ac2 28be a4cf b5bd
00000250: ba33 5b3e 0863 3dbd caa9 e4bd ad1b 3bbe
00000260: 9cbc 1a3d f654 983d ed3e 393c 26a5 4abe
00000270: 8185 cabd c744 213d 76b7 f83c f58e 523d
00000280: e02a 643e 5191 afbd fa12 58be bbd3 2ebd
00000290: 788a 24be 8c6f 2dbd 2d9b 33be c4ab 583d
000002a0: d968 ab3d b6dc 4f3d d1c9 aebd 2caa 0e3e
000002b0: e156 013d ca36 67bd b5df babc 32c1 fc3d
000002c0: f3f5 84bd 9cc9 1abe 0102 f0bd 3be6 e83d
000002d0: cc0f d7bd 8f0c 343e 5d44 87bd 6233 1fbe
000002e0: d9b8 37be b6a4 253e 9d53 31bd 5656 723e
000002f0: f9d0 57bd 95e9 413e 69be d0bb 1a4a 4cbe
00000300: 928a 09bd 59d5 933d 1b2e 133e 3273 113d
00000310: e18f 3dbe ecfa a03d e0db 40bc 33dc 4abd
00000320: 2669 80bc 99e5 a4bd 7d96 3cbe e55e 4e3d
00000330: 42cd 303c a2e2 923d 3167 a33d e3bd ffbd
00000340: a513 8d3c 6d41 913d 6ba1 1abe 3f3f c3bd
00000350: 637c d23d 7ddd fa3d 3eb1 c73d a9a4 c8bd
00000360: 5570 0fbe c21a 48bd c433 483d 769f 68bc
00000370: 87bc 0e3e ae1b ddbd bc2f 6f3d 409d ef3d
00000380: ab02 b6bd 4c29 e43d 0c66 133e 2cac 3f3c
00000390: fe54 a0bd d20c 48be 85f0 a83d c342 ab3d
000003a0: 67d1 3fbd 6574 3fbe 716a 1fbd 2482 a7bd
000003b0: 2cac 0d3e fd0b 65bd 778e 00bd 535b d73c
000003c0: dd4c ce3c b529 e63d 8bed a03d 10a8 23be
000003d0: 5c50 513e 601d 49ba 58ca c9bd 69a0 863d
000003e0: 8b83 cd3c 9275 7ebd 0fcf cdbd 5083 223d
000003f0: eaec 0fbe ff5c ccbc 47ef 2bbe 3c8e 08be

output_layers.0.bias f4 [64]
0.18490705 -0.0067344047 0.13418916 0.17494014 0.06766506 -0.08244915 0.050862975 0.13656698
0.1988478 0.06447441 -0.098927036 -0.072197996 0.05083436 0.18292435 -0.0063759782 0.06490409
-0.13458383 0.17930688 0.059300784 -0.0038250305 -0.14238222 0.07559522 0.13546841 0.004864642
0.10655004 0.0768176 0.02378936 0.0075874766 -0.12863696 0.19400723 -0.16669074 -0.021521442
0.06330614 0.03928903 0.057661694 0.13991788 0.26491606 0.123568 -0.12729959 0.0903913
-0.046796575 0.122977346 -0.16639346 -0.019836422 -0.06943814 -0.14874762 -0.063423984 0.019787828
0.13296853 0.14931813 -0.13050988 0.2400958 0.0146699175 0.10399832 0.12456391 -0.035084702
0.20407845 -0.068459496 -0.05179063 0.20956199 -0.0072389273 0.15455356 0.03341753 0.10373696
00000000: 4658 3d3e 48ac dcbb e268 093e 8223 333e
00000010: fb93 8a3d 1adb a8bd b255 503d 37d8 0b3e
00000020: c29e 4b3e 290b 843d 429a cabd 8bdc 93bd
00000030: b137 503d 8550 3b3e 95ed d0bb 6fec 843d
00000040: 58d0 09be 399c 373e 61e5 723d 5dad 7abb
00000050: a5cc 11be abd1 9a3d 3bb8 0a3e 9367 9f3b
00000060: e836 da3d 8c52 9d3d e7e1 c23c 5ea0 f83b
00000070: 68b9 03be d5a9 463e fab0 2abe bc4d b0bc
00000080: a6a6 813d 89ed 203d ab2e 6c3d a246 0f3e
00000090: 14a3 873e 3811 fd3d d35a 02be 131f b93d
000000a0: c4ad 3fbd 8cdb fb3d 0c63 2abe fe7f a2bc
000000b0: 9535 8ebd 4c51 18be 6fe4 81bd 151a a23c
000000c0: e728 083e dae6 183e 62a4 05be acdb 753e
000000d0: 185a 703c 12fd d43d 5d1b ff3d fab4 0fbd
000000e0: f1f9 503e 7e34 8cbd 6922 54bd 6b97 563e
000000f0: 8634 edbb 4a43 1e3e d2e0 083d 0b74 d43d

output_layers.3.weight f4 [32, 64]
0.033191092 0.06172114 -0.01962114 -0.07236671 -0.03982723 -0.040720355 -0.0554817 -0.059452932
-0.016676389 0.013476548 0.12271749 -0.012302299 0.033284 0.074311025 -0.03924952 -0.01856879
0.031853978 -0.010780826 -0.09219111 0.016842123 -0.052972242 0.06673671 -0.09412243 -0.034203373
-0.09945886 0.0011213494 0.014154117 -0.10095781 -0.031344682 0.043156624 -0.04559356 -0.07237198
-0.08968869 0.089592196 0.07035384 -0.036225215 -0.043462515 0.11618073 0.08695612 -0.017927546
0.017403906 0.0021977096 0.018171534 0.09871166 -0.088899516 0.08440986 0.013822428 -0.036217157
0.07224527 -0.1158109 0.07943571 0.08989399 0.00395397 -0.06730929 -0.067715295 0.0024996926
0.009961492 -0.01479415 0.044455826 -0.026151009 0.020064903 -0.0031257838 0.048773132 -0.07487233
-0.0023475944 -0.071170345 0.0059729377 -0.055483386 0.048815303 -0.025501901 -0.051761422 -0.063533
-0.15385869 -0.15800971 -0.1049704 -0.1396291 -0.053331017 -0.015755355 -0.087472506 -0.0067488933
-0.13947639 0.06979029 -0.0046529556 0.051664695 -0.0006678322 0.06489874 0.066859715 0.082317695
-0.14806029 0.06474985 0.063173205 -0.14424923 -0.047177956 0.004474609 -0.05285255 0.016256152
-0.10248599 -0.019161489 0.053031296 -0.075568706 -0.028195031 -0.051266782 -0.10950547 -0.02058759
-0.087276444 -0.0656786 -0.07425004 -0.114353135 -0.037805267 -0.13274755 -0.09781063 0.09172859
0.08027008 -0.03998453 -0.16942486 0.05910094 -0.09696037 0.083374485 -0.023550147 0.041185893
0.023326308 -0.113844045 0.013593014 -0.025437627 -0.11765902 -0.022632038 -0.018527629 -0.12591434
-0.07797986 -0.112604536 -0.06471684 0.05623574 -0.028467847 -0.047532987 0.051808935 -0.02716887
-0.03172156 -0.13524231 -0.07301045 -0.040276695 0.009670298 0.1102257 -0.08349202 0.04464998
0.036616173 -0.010170209 -0.14018387 -0.13205217 -0.08784771 0.09737969 0.04840035 -0.013074844
-0.118443556 0.046047915 0.047381043 0.039850473 -0.07141312 -0.1276786 -0.09271256 -0.095938906
0.09473716 -0.045900352 0.051419333 -0.093987726 -0.08726162 0.059423544 0.041902598 0.050501395
-0.092562884 -0.08655081 -0.12582164 -0.10315577 -0.057763312 0.04344577 -0.13829868 -0.15383096
-0.053478368 0.042531643 -0.0100968145 0.082847774 -0.16091064 -0.13643293 0.118698165 0.10092381
0.014339783 0.03684166 -0.031967886 -0.07110154 -0.13593179 -0.113719136 -0.006088805 -0.043604545
0.026573228 -0.10584041 0.021359667 -0.11301987 -0.14599583 0.07158142 0.04106131 0.052813105
-0.0918209 -0.06007489 -0.1321103 0.10336202 -0.032808714 -0.0963292 0.0060013537 0.053521313
-0.03633799 -0.03265032 -0.054408967 -0.028586023 0.06889082 -0.044254553 -0.08555519 0.019287167
0.020923417 -0.014830669 -0.10918587 -0.032374058 0.04748807 0.04251696 0.06829175 -0.130451
0.06369475 0.01465304 -0.07718412 0.015747054 -0.07713138 0.04015623 -0.026867898 -0.073945805
-0.08761452 -0.123342775 -0.09063348 -0.12631758 -0.0913269 0.07985352 0.036763124 -0.006128941
0.015565271 0.04960726 0.07903273 -0.08667549 0.048042852 -0.120507956 -0.068694845 0.026743362
-0.017544404 0.0003289408 0.08623428 0.036438927 0.048031025 0.032773905 -0.14524263 -0.1257818
00000000: 62f3 073d 4ecf 7c3d 83bc a0bc ff34 94bd
00000010: e121 23bd 63ca 26bd c740 63bd eb84 73bd
00000020: ec9c 88bc bdcc 5c3c 4f53 fb3d 958f 49bc
00000030: ce54 083d 6130 983d 1bc4 20bd 931d 98bc
00000040: 5179 023d 10a2 30bc b1ce bcbd 7ef8 893c
00000050: 6cf9 58bd 42ad 883d 43c3 c0bd d618 0cbd
00000060: 16b1 cbbd 3efa 923a abe6 673c f8c2 cebd
00000070: 4863 00bd 00c5 303d 50c0 3abd c337 94bd
00000080: b4ae b7bd 1d7c b73d ad15 903d e460 14bd
00000090: c005 32bd 2af0 ed3d 0d16 b23d cadc 92bc
000000a0: a392 8e3c 7307 103b 78dc 943c 5729 ca3d
000000b0: f310 b6bd 14df ac3d 7777 623c 7158 14bd
000000c0: 54f5 933d 442e edbd 31af a23d 571a b83d
000000d0: 4e90 813b 74d9 89bd 51ae 8abd e2d1 233b
000000e0: 8735 233c 2a63 72bc 5017 363d a43a d6bc
000000f0: 275f a43c f3d9 4cbb 56c6 473d aa56 99bd
00000100: 19da 19bb c2c1 91bd a2b8 c33b 8c42 63bd
00000110: 8ef2 473d 5de9 d0bc c903 54bd 971d 82bd
00000120: 228d 1dbe 4ccd 21be b9fa d6bd eefa 0ebe
00000130: a071 5abd 6011 81bc c924 b3bd d225 ddbb
00000140: e6d2 0ebe 36ee 8e3d d277 98bb 5c9e 533d
00000150: 7611 2fba a1e9 843d bfed 883d 2e96 a83d
00000160: 1e9d 17be 929b 843d f460 813d 12b6 13be
00000170: ac3d 41bd be9f 923b ea7b 58bd 9f2b 853c
00000180: 2de4 d1bd 8ef8 9cbc 5837 593d c4c3 9abd
00000190: 44f9 e6bc 1efd 51bd 6744 e0bd 4ea7 a8bc
000001a0: febd b2bd 8082 86bd 6810 98bd fa31 eabd
000001b0: b2d9 1abd f9ee 07be f150 c8bd 33dc bb3d
000001c0: a464 a43d d2c6 23bd b67d 2dbe d413 723d
000001d0: 2993 c6bd 3ec0 aa3d 3dec c0bc 8ab2 283d
000001e0: d016 bf3c 1127 e9bd 3cb5 5e3c 9262 d0bc
000001f0: 36f7 f0bd d366 b9bc 41c7 97bc b0ef 00be
00000200: e8b3 9fbd 359d e6bd 438a 84bd 7357 663d
00000210: 6735 e9bc f3b1 42bd 9b35 543d 4091 debc
00000220: 77ee 01bd f67c 0abe 8186 95bd 2df9 24bd
00000230: 2b70 1e3c 03be e13d ddfd aabd e6e2 363d
00000240: d7fa 153d f3a0 26bc 5c8c 0fbe af38 07be
00000250: 80e9 b3bd 016f c73d 723f 463d df37 56bc
00000260: 8992 f2bd bd9c 3c3d a012 423d 403a 233d
00000270: 0b41 92bd 2ebe 02be 15e0 bdbd 9e7b c4bd
00000280: 8e05 c23d 0202 3cbd 149d 523d a37c c0bd
00000290: 38b6 b2bd 1a66 733d 0fa2 2b3d 8dda 4e3d
000002a0: 9c91 bdbd 8d41 b1bd 63d7 00be 5543 d3bd
000002b0: 3999 6cbd 31f4 313d 2b9e 0dbe dd85 1dbe
000002c0: 220c 5bbd a935 2e3d 1c6d 25bc 18ac a93d
000002d0: c2c5 24be 13b5 0bbe 0618 f33d 24b1 ce3d
000002e0: 69f1 6a3c 48e7 163d c2f0 02bd af9d 91bd
000002f0: b431 0bbe 94e5 e8bd 9984 c7bb ae9a 32bd
00000300: 19b0 d93c dbc2 d8bd 78fa ae3c f676 e7bd
00000310: ee7f 15be 4899 923d e72f 283d 8e52 583d
00000320: 990c bcbd 1611 76bd ec47 07be 77af d33d
00000330: 6e62 06bd 3e48 c5bd 01a7 c43b 2a39 5b3d
00000340: 25d7 14bd 58bc 05bd f0db 5ebd 3c2d eabc
00000350: a116 8d3d 4344 35bd 8f37 afbd 1f00 9e3c
00000360: 9667 ab3c 56fc 72bc d79c dfbd a99a 04bd
00000370: da82 423d 4426 2e3d 8cdc 8b3d f294 05be
00000380: 6572 823d 4e13 703c b512 9ebd f7ff 803c
00000390: 0ff7 9dbd dc7a 243d 111a dcbc e670 97bd
000003a0: 3e6f b3bd 239b fcbd 0c9e b9bd 6559 01be
000003b0: 9909 bbbd 3e8a a33d ee94 163d 49d5 c8bb
000003c0: 7a05 7f3c fb30 4b3d e9db a13d eb82 b1bd
000003d0: 95c8 443d e0cc f6bd e2af 8cbd e514 db3c
000003e0: 48b9 8fbc b075 ac39 999b b03d fc40 153d
000003f0: 2ebc 443d ee3d 063d 7cba 14be f2cc 00be

output_layers.3.bias f4 [32]
0.10268101 0.054139543 -0.027718572 0.028314041 0.011171146 -0.05076389 0.10455793 0.07635609
-0.009189596 0.080724336 -0.095824316 0.1216077 0.061038297 -0.013629695 -0.021990782 0.0074774646
0.08913601 0.013952206 0.04023702 0.04551072 0.05697955 0.01368484 0.12653245 0.13128176
-0.06669251 0.100996315 -0.08276787 0.2021415 -0.0151044475 -0.07524785 -0.018062888 0.025174184
00000000: 6c4a d23d 6dc1 5d3d 0f12 e3bc d9f2 e73c
00000010: 2f07 373c cced 4fbd 7822 d63d 9560 9c3d
00000020: f68f 16bc cd52 a53d 8a3f c4bd 750d f93d
00000030: 4b03 7a3d 164f 5fbc 0326 b4bc 8505 f53b
00000040: f18c b63d cb97 643c 93cf 243d 7369 3a3d
00000050: 6363 693d 6136 603c b991 013e ba6e 063e
00000060: 1596 88bd 28d7 ce3d 3382 a9bd 2efe 4e3e
00000070: a578 77bc 8b1b 9abd 9ff8 93bc 173a ce3c

output_layers.6.weight f4 [2, 32]
0.10009865 -0.018069949 0.10173829 -0.06662803 -0.0012970202 -0.03656418 0.13988091 -0.007071404
-0.0017237739 -0.0015085111 -0.110340945 -0.0010318765 0.050146244 -0.0024011652 0.071393535 0.084905565
-0.055749174 -0.09175311 -0.011645497 0.017126791 -0.15135518 -0.005408348 -0.0051243273 -0.012528632
-0.046097215 0.24652128 0.15692252 -0.00030633 -0.05298565 0.12811057 0.007377743 -0.05346381
-0.2204722 0.053872216 -0.027202148 0.002688047 -0.25653073 -0.2613126 0.14014867 -0.2965495
-0.25779817 -0.16038933 0.056163535 -0.21348411 -0.2827249 -0.30367965 0.04104594 0.087779656
0.047744732 0.11596227 0.035054896 -0.2689437 0.07538094 -0.23215528 -0.29606694 -0.30514365
-0.30879328 0.04403249 0.119058385 -0.25832993 -0.2467104 -0.019881634 -0.14458688 0.0056804013
00000000: 8500 cd3d 6e07 94bc 2a5c d03d 4774 88bd
00000010: c700 aaba 52c4 15bd f13c 0f3e 3cb7 e7bb
00000020: 41f0 e1ba 3cb9 c5ba 6ffa e1bd 0840 87ba
00000030: 2666 4d3d de5c 1dbb c636 923d f8e2 ad3d
00000040: 3f59 64bd 0ee9 bbbd c1cc 3ebc 7c4d 8c3c
00000050: dafc 1abe 8338 b1bb f9e9 a7bb e444 4dbc
00000060: 6fd0 3cbd 1370 7c3e 4cb0 203e eb9a a0b9
00000070: 7b07 59bd 6b2f 033e fec0 f13b defc 5abd
00000080: 77c3 61be 1da9 5c3d 0ad7 debc f229 303b
00000090: ff57 83be c4ca 85be 2283 0f3e 56d5 97be
000000a0: 1ffe 83be 1a3d 24be bc0b 663d 949b 5abe
000000b0: 51c1 90be e67b 9bbe ca1f 283d d2c5 b33d
000000c0: fb8f 433d a07d ed3d b995 0f3d fdb2 89be
000000d0: 5361 9a3d 1dba 6dbe 1696 97be ca3b 9cbe
000000e0: 271a 9ebe 6a5b 343d e2d4 f33d d243 84be
000000f0: a7a1 7cbe cfde a2bc 950e 14be a922 ba3b

output_layers.6.bias f4 [2]
0.1306587 -0.14645772
00000000: 65cb 053e 03f9 15be

exp_avg f4 [96, 15]
-0.00095773645 -0.00087564625 -0.0010217516 -0.0010206816 -0.0010886509 -0.00064636633 -0.00051795953 -0.00023003078
0.00064780447 0.00029207647 -0.0002023105 -0.000193737 0.0 0.00011112714 -5.700215e-05 -0.0045656078
-0.0045222533 -0.0045188805 -0.0045436462 -0.001557669 -0.0022240328 -0.00013269173 0.00045397508 -0.001001975
-0.0004992484 -0.000647703 -0.00060365594 0.0 -0.00069921947 -0.0004577908 -5.9982613e-05 -9.313248e-05
-6.4126434e-05 -8.623963e-05 -0.0006292208 -0.00036302276 -9.520486e-05 3.7040332e-05 -0.00016786843 0.00061218266
-0.00015896256 4.6315025e-05 0.0 -0.00016421339 -1.3097298e-05 0.0014763837 0.001493173 0.0014568369
0.0014917634 0.001463085 0.0007127367 2.3533814e-05 -0.00011193694 0.00062118913 -0.00073957443 0.0003507418
0.00036175712 0.0 0.00063407916 0.00031591524 -0.0010090952 -0.0009717385 -0.0010408729 -0.0010396314
-0.0004353081 -0.0012389199 -0.00047824913 -0.00022510783 0.00016149708 6.1548395e-05 -0.00021239257 -0.00078529894
0.0 -5.10773e-05 -0.00020781721 -0.00033639354 -0.00033563364 -0.0004006169 -0.0004397951 -0.0020053026
-0.00060875254 -0.0006850472 -0.0005604217 3.5975918e-05 0.00025018424 -0.00035377752 -0.00011305085 0.0
0.000119874894 -6.267883e-05 -0.00018513048 -0.00019623118 -0.00020823831 -0.00021635681 -0.0014835368 0.00045282615
-0.00013111868 -0.00033132435 0.0005199801 0.0006785863 -0.00015077314 -7.5959138e-06 0.0 3.5385987e-05
-6.6101306e-06 -4.406537e-05 0.00011335752 -0.00011929649 -6.422279e-05 -0.002825361 -0.00020867966 0.0003156583
0.00043303592 0.0014937175 0.000189293 -0.0005728634 -0.00030333255 0.0 0.0009376534 -8.849561e-05
0.0005071465 0.00046814096 0.0004729917 0.0004491276 0.00067117246 -0.00017293755 -0.00032139843 -0.00024073255
0.00012164003 0.0013765539 0.00044723236 7.187871e-05 0.0 -0.0003496527 3.0855623e-05 -0.0016477208
-0.0014574071 -0.0018062824 -0.0017976322 -0.0041375994 -0.0032430622 -0.0008823717 -0.00014695748 0.0013390301
0.0008749368 -0.00071082736 -0.0011182126 0.0 -0.00028166888 -0.00047708384 -0.0024327002 -0.0024158056
-0.002452251 -0.0024653056 0.00042425588 -0.00051355653 -0.0006468459 -0.000578987 0.00018797781 -0.0004400262
0.00011254215 -5.6508794e-05 0.0 -0.00012632419 -0.00012027222 0.00034158697 0.00040146074 0.00029492247
0.00032399537 -0.0011923807 0.00030978414 5.974296e-05 -1.6212645e-05 0.00079499895 0.00046773528 -0.00019250957
-0.0002989273 0.0 0.00042272327 1.9749561e-05 -0.0013787292 -0.001361145 -0.0013992375 -0.0014568582
0.0005149836 -0.0009381632 -0.00089501933 -0.00067728874 0.0001776498 -0.00041687224 0.00029040303 -0.00025431853
0.0 -0.00016868241 -0.00041736744 -0.0029439619 -0.0028115248 -0.003074725 -0.0030482572 -0.0032328481
-0.0025085334 -0.0007707448 -0.0002475496 0.0011851295 0.00021095584 -0.0007190981 -0.0011221023 0.0
-0.000474807 -0.0003332634 8.170038e-05 0.0001356377 8.934493e-05 7.9609395e-05 -0.0017819727 9.492988e-05
0.00027041294 0.00024358962 -0.0001560108 0.0006292731 -0.0005049139 -0.00092829997 0.0 -0.00054819963
-0.000465093 0.00023444806 0.00023254137 0.00017299132 0.00016586336 -0.0010673574 5.2334497e-05 -0.0003883194
-0.0004557518 0.0005372992 5.6407556e-05 -0.00017076172 -4.8338225e-05 0.0 -5.111765e-05 -7.904641e-05
-0.0018908278 -0.0018796126 -0.0019009083 -0.0019292467 -0.00093214837 -0.0029160022 -0.00090198324 -0.00020289706
-0.00026607094 0.00024049569 -0.00017733237 6.3720494e-05 0.0 -0.00037475722 0.0005168628 0.00020242017
00000000: 9b10 7bba a08b 65ba 4bec 85ba 64c8 85ba
00000010: 10b1 8eba e970 29ba adc7 07ba 6b34 71b9
00000020: 6cd1 293a d721 9939 5023 54b9 e125 4bb9
00000030: 0000 0000 ee0c e938 9815 6fb8 189b 95bb
00000040: 692f 94bb 1e13 94bb dee2 94bb b32a ccba
00000050: 14c1 11bb 2a23 0bb9 8103 ee39 b454 83ba
00000060: fedf 02ba 9dca 29ba aa3e 1eba 0000 0000
00000070: d34b 37ba a403 f0b9 d795 7bb8 1f50 c3b8
00000080: 9e7b 86b8 8cdb b4b8 4bf2 24ba 1754 beb9
00000090: b8a8 c7b8 c15b 1b38 d705 30b9 e27a 203a
000000a0: 30af 26b9 6142 4238 0000 0000 b230 2cb9
000000b0: 77bc 5bb7 3783 c13a 92b6 c33a 56f3 be3a
000000c0: 4687 c33a fcc4 bf3a f3d6 3a3a 7b6a c537
000000d0: b0bf eab8 4cd7 223a 00e0 41ba c4e3 b739
000000e0: 38aa bd39 0000 0000 5538 263a 6da1 a539
000000f0: 9e43 84ba 44bc 7eba e66d 88ba 3e44 88ba
00000100: 103a e4b9 4163 a2ba 83bd fab9 ec0a 6cb9
00000110: 8b57 2939 8b13 8138 b2b5 5eb9 85dc 4dba
00000120: 0000 0000 d53b 56b8 82e9 59b9 fa5d b0b9
00000130: fcf7 afb9 e409 d2b9 4d94 e6b9 656b 03bb
00000140: b194 1fba bd94 33ba 43e9 12ba d9e4 1638
00000150: 292b 8339 377b b9b9 b715 edb8 0000 0000
00000160: 5865 fb38 7172 83b8 961f 42b9 68c3 4db9
00000170: 8c5a 5ab9 d7dd 62b9 3c73 c2ba 4c69 ed39
00000180: e77c 09b9 9ab5 adb9 464f 083a 28e3 313a
00000190: db18 1eb9 67e0 feb6 0000 0000 6a6b 1438
000001a0: 97cc ddb6 d5d2 38b8 5bba ed38 d12e fab8
000001b0: 59af 86b8 b129 39bb 05d1 5ab9 f17e a539
000001c0: 1909 e339 d8c8 c33a f47c 4639 362c 16ba
000001d0: 9b08 9fb9 0000 0000 dbcc 753a b896 b9b8
000001e0: 07f2 043a d170 f539 dffb f739 e378 eb39
000001f0: 9ff1 2f3a 9256 35b9 5e81 a8b9 276d 7cb9
00000200: fe18 ff38 7c6d b43a 837a ea39 97bd 9638
00000210: 0000 0000 9751 b7b9 f96a 0138 56f8 d7ba
00000220: 7806 bfba c8c0 ecba 879e ebba b394 87bb
00000230: 8e89 54bb f64e 67ba 9918 1ab9 6582 af3a
00000240: 045c 653a d156 3aba fd90 92ba 0000 0000
00000250: f5ac 93b9 1c21 fab9 f06d 1fbb 7e52 1ebb
00000260: f2b5 20bb f790 21bb a96e de39 32a0 06ba
00000270: 1891 29ba 29c7 17ba e91b 4539 51b3 e6b9
00000280: 9b04 ec38 db03 6db8 0000 0000 e475 04b9
00000290: a83a fcb8 0717 b339 267b d239 d39f 9a39
000002a0: ecdd a939 a849 9cba 866a a239 8494 7a38
000002b0: 6400 88b7 7a67 503a 5e3a f539 65dc 49b9
000002c0: 58b9 9cb9 0000 0000 f5a0 dd39 dcab a537
000002d0: 7ab6 b4ba 7368 b2ba 9f66 b7ba 0df4 beba
000002e0: f7ff 063a 11ef 75ba bb9f 6aba 148c 31ba
000002f0: 8147 3a39 a58f dab9 3c41 9839 0e56 85b9
00000300: 0000 0000 57e0 30b9 1cd2 dab9 7cef 40bb
00000310: 8f41 38bb 5381 49bb 45c5 47bb 31de 53bb
00000320: 3566 24bb cf0b 4aba 8bc9 81b9 5956 9b3a
00000330: 0734 5d39 db81 3cba 8113 93ba 0000 0000
00000340: 84ef f8b9 dbb9 aeb9 8f56 ab38 f839 0e39
00000350: b25e bb38 f8f3 a638 1591 e9ba 1715 c738
00000360: 36c6 8d39 176c 7f39 d596 23b9 cef5 243a
00000370: 335c 04ba 2859 73ba 0000 0000 0eb5 0fba
00000380: bad7 f3b9 2cd6 7539 59d6 7339 0165 3539
00000390: 9beb 2d39 92e6 8bba bd81 5b38 5997 cbb9
000003a0: f9f1 eeb9 8ad9 0c3a 2797 6c38 800e 33b9
000003b0: c6be 4ab8 0000 0000 2967 56b8 b8c5 a5b8
000003c0: a7d5 f7ba 555d f6ba e627 f9ba c7de fcba
000003d0: 6b5b 74ba 661a 3fbb 1273 6cba c4c0 54b9
000003e0: 707f 8bb9 922d 7c39 4cf2 39b9 aea1 8538
000003f0: 0000 0000 107b c4b9 137e 073a c040 5439

exp_avg_sq f4 [96, 15]
1.9058351e-06 1.9409667e-06 1.9405304e-06 1.9261286e-06 2.0271489e-06 5.501944e-07 4.1593918e-07 2.978473e-07
5.3056914e-07 2.1803867e-06 1.5762326e-07 3.6747056e-07 0.0 5.231627e-07 6.76803e-08 1.8514418e-05
1.8708319e-05 1.816124e-05 1.8436924e-05 1.5113807e-06 1.283602e-06 3.3276044e-07 3.031662e-07 1.5229784e-06
3.835427e-06 2.9877282e-07 3.4599776e-07 0.0 5.456476e-07 1.5185223e-07 4.4940077e-07 4.449638e-07
4.5520676e-07 4.511092e-07 3.485804e-07 9.5205e-08 1.0805046e-07 1.10557366e-07 1.0865385e-07 4.2861052e-07
8.4159396e-08 1.6621378e-08 0.0 3.072535e-08 1.395338e-07 7.761338e-07 7.9765033e-07 7.5377227e-07
7.74812e-07 3.6810624e-07 1.7303603e-07 6.610785e-08 5.9114978e-08 1.4730956e-07 6.594293e-07 5.3446342e-08
9.4487234e-08 0.0 1.1018789e-07 1.1428993e-07 1.7418229e-06 1.747395e-06 1.752075e-06 1.7598437e-06
4.6123978e-07 4.6655546e-07 1.5054908e-07 1.5629993e-07 1.6101417e-07 7.04147e-07 6.422572e-08 1.5641294e-07
0.0 9.343604e-08 5.022248e-08 5.043679e-07 5.0920147e-07 5.0636044e-07 5.0660094e-07 3.475731e-07
7.5404905e-08 7.4294476e-08 8.7329326e-08 8.5395534e-08 2.2324299e-07 2.1972408e-08 1.5445606e-08 0.0
2.1260341e-08 7.6461815e-09 2.8459687e-07 2.781303e-07 2.6570942e-07 2.666322e-07 3.623879e-07 1.564234e-07
8.842285e-08 1.283623e-07 8.683173e-08 4.28948e-07 1.8008926e-08 1.0032196e-08 0.0 1.5183995e-08
4.5518633e-09 2.4848407e-06 2.5897896e-06 2.4372882e-06 2.4493927e-06 1.9131146e-06 4.88984e-07 4.748448e-07
4.0143158e-07 8.070707e-07 2.6343316e-06 3.0940566e-07 8.0471324e-08 0.0 7.422255e-07 4.22659e-08
2.1932972e-06 2.1921605e-06 2.238208e-06 2.2299225e-06 9.1975716e-07 2.1883292e-07 2.7005848e-07 2.993605e-07
2.3362269e-07 1.7313789e-06 2.8396357e-07 5.098467e-08 0.0 1.4614069e-07 5.947676e-08 1.7190483e-05
1.7471704e-05 1.7203365e-05 1.73619e-05 1.0268844e-05 3.3842969e-06 1.1074687e-06 9.962971e-07 2.7470965e-06
1.4475709e-05 1.3997868e-06 6.376925e-07 0.0 1.4375365e-06 2.406425e-07 2.6280377e-06 2.636491e-06
2.6178095e-06 2.6455834e-06 9.519276e-07 5.629532e-07 3.7815553e-07 3.712886e-07 5.274691e-07 1.5394986e-06
2.7855467e-07 5.851802e-08 0.0 1.1002246e-07 1.3090478e-07 6.0291524e-07 6.227433e-07 5.773704e-07
5.904343e-07 6.420506e-07 1.6857143e-07 2.5872188e-07 2.5770365e-07 4.181543e-07 5.579669e-07 9.022936e-08
4.830198e-07 0.0 5.176143e-07 3.119303e-08 1.8488134e-06 1.8849458e-06 1.8276977e-06 1.8593157e-06
9.655629e-07 4.266144e-07 2.4199105e-07 2.4259091e-07 4.2728175e-07 1.4875133e-06 1.558526e-07 9.125688e-08
0.0 1.5259428e-07 7.063797e-07 1.5190375e-05 1.5331738e-05 1.519427e-05 1.5340725e-05 6.395993e-06
2.7468e-06 9.488111e-07 7.609748e-07 2.1174371e-06 8.937444e-06 4.9480605e-07 9.941244e-07 0.0
1.201747e-06 2.2787411e-07 1.3160695e-06 1.3363159e-06 1.3148158e-06 1.3148477e-06 9.70287e-07 2.1010527e-07
2.1718958e-07 2.2599617e-07 4.7272482e-07 2.1210874e-06 9.063142e-08 6.7452777e-07 0.0 4.7747517e-07
7.1843736e-08 3.374941e-07 3.325669e-07 3.27653e-07 3.2386643e-07 1.7844737e-07 8.12886e-08 8.2156994e-08
8.864458e-08 8.159121e-08 3.6366237e-07 1.2442401e-08 1.6710835e-08 0.0 2.4465887e-08 6.917755e-08
1.0541683e-06 1.0700513e-06 1.0420677e-06 1.0660394e-06 2.652546e-07 8.059786e-07 2.282701e-07 1.2083758e-07
1.8408397e-07 5.2760487e-07 7.282681e-08 2.5111567e-07 0.0 8.88992e-08 1.0349733e-06 2.2566007e-06
00000000: ffcb ff35 8e41 0236 0f3a 0236 a342 0136
00000010: 270a 0836 12b1 1335 3f4e df34 d2e7 9f34
00000020: 6f6c 0e35 c252 1236 273f 2934 c548 c534
00000030: 0000 0000 786f 0c35 a357 9133 694f 9b37
00000040: cfef 9c37 f758 9837 fea8 9a37 a5da ca35
00000050: 3b48 ac35 3fa6 b234 d8c2 a234 2469 cc35
00000060: 11b2 8036 0667 a034 92c1 b934 0000 0000
00000070: 9e78 1235 d30c 2334 2c45 f134 5ce3 ee34
00000080: 2463 f434 fa2f f234 8624 bb34 8173 cc33
00000090: 5e09 e833 8e6b ed33 1655 e933 c81b e634
000000a0: 1ebb b433 ccc6 8e32 0000 0000 e1f6 0333
000000b0: c2d2 1534 8257 5035 1d1e 5635 d656 4a35
000000c0: adfc 4f35 23a0 c534 c8cb 3934 2df7 8d33
000000d0: 9be5 7d33 252c 1e34 a303 3135 e08c 6533
000000e0: e8e8 ca33 0000 0000 6fa0 ec33 8e6f f533
000000f0: 94c8 e935 0988 ea35 d728 eb35 c533 ec35
00000100: 50a0 f734 e57a fa34 9ea6 2134 66d3 2734
00000110: 3de3 2c34 9d04 3d35 77ec 8933 76f2 2734
00000120: 0000 0000 02a7 c833 33b4 5733 e663 0735
00000130: 0fb0 0835 d3ec 0735 5afd 0735 159a ba34
00000140: 49ee a133 d28b 9f33 ce89 bb33 b162 b733
00000150: 91b4 6f34 d6bd bc32 3fad 8432 0000 0000
00000160: fc9f b632 435c 0332 b2ca 9834 f051 9534
00000170: d3a6 8e34 a725 8f34 378e c234 56f5 2734
00000180: fae2 bd33 f6d3 0934 4078 ba33 2a4a e634
00000190: 0cb2 9a32 115a 2c32 0000 0000 f56d 8232
000001a0: 9d66 9c31 3dc1 2636 3fcc 2d36 4b90 2336
000001b0: 3f60 2436 0f63 0036 ba42 0335 2cee fe34
000001c0: 5684 d734 7aa5 5835 79c9 3036 641c a634
000001d0: 94cf ac33 0000 0000 593d 4735 d987 3533
000001e0: 8f30 1336 081d 1336 1f34 1636 c7a5 1536
000001f0: 3be5 7635 56f8 6a34 8efc 9034 cbb7 a034
00000200: b7d9 7a34 ba61 e835 a873 9834 3dfa 5a33
00000210: 0000 0000 d9ea 1c34 6473 7f33 4834 9037
00000220: 3390 9237 f24f 9037 65a4 9137 5948 2c37
00000230: c71d 6336 56a4 9435 82b8 8535 c25a 3836
00000240: b2dc 7237 4fe0 bb35 e52d 2b35 0000 0000
00000250: 61f1 c035 a731 8134 585d 3036 92ee 3036
00000260: a0ad 2f36 c78a 3136 f787 7f35 d91d 1735
00000270: 4d05 cb34 8455 c734 6797 0d35 c5a0 ce35
00000280: 438c 9534 3e55 7b33 0000 0000 7d45 ec33
00000290: d58e 0c34 05d8 2135 982a 2735 97fc 1a35
000002a0: 567e 1e35 6259 2c35 9000 3534 77e6 8a34
000002b0: 855a 8a34 b07e e034 32c7 1535 1ec4 c133
000002c0: dea8 0135 0000 0000 2ff2 0a35 19f9 0533
000002d0: bf24 f835 3ffe fc35 374f f535 9a8d f935
000002e0: 7d98 8135 7009 e534 ffea 8134 713d 8234
000002f0: 2865 e534 91a6 c735 7058 2734 00f9 c333
00000300: 0000 0000 ccd8 2334 0b9e 3d35 2ada 7e37
00000310: a89c 8037 e5ea 7e37 f5af 8037 299d d636
00000320: aa55 3836 cdb1 7e35 ca45 4c35 4b19 0e36
00000330: 08f2 1537 d0d2 0435 db6d 8535 0000 0000
00000340: b64b a135 8fad 7434 cea3 b035 775b b335
00000350: ba78 b035 d379 b035 cf3a 8235 4c99 6134
00000360: 9e34 6934 5ba9 7234 ceca fd34 0158 0e36
00000370: 26a1 c233 3211 3535 0000 0000 d82b 0035
00000380: 8348 9a33 d630 b534 a68b b234 49e8 af34
00000390: dddf ad34 3d9b 3f34 e190 ae33 496e b033
000003a0: e05c be33 3e37 af33 603d c334 42c2 5532
000003b0: 848b 8f32 0000 0000 0e29 d232 c38e 9433
000003c0: f27c 8d35 af9e 8f35 2cdd 8b35 d614 8f35
000003d0: 5168 8e34 6d5a 5835 681a 7534 95bf 0134
000003e0: 9ea8 4534 bba0 0d35 f664 9c33 13d1 8634
000003f0: 0000 0000 dae8 be33 69e9 8a35 1b70 1736
