lightning_logs/version_83/checkpoints/epoch=49-step=200.ckpt (torch, 47499 bytes, 18 tensors)

network.0.weight f4 [64, 15]
000000 f0 cb 68 be 96 9f 09 be 0a 9c 04 bb b8 59 a5 bd
       -0.22734046 -0.13439783 -0.0020234608 -0.08073753
000010 97 0a f4 3d 5e e3 ea 3c 98 0b e6 bd e9 45 d5 3d
       0.11916082 0.02867287 -0.1123268 0.10413725
000020 e4 a4 66 bd 47 63 b5 3e 85 6a ea bd 22 3f 8b bc
       -0.056309596 0.35427305 -0.11446098 -0.016997878
000030 79 93 c6 bd b1 1f 88 be 3c 38 62 be 66 10 af 3e
       -0.09696097 -0.2658668 -0.22091764 0.341922
000040 ee 05 b0 3c 8c bd 83 3d 4d 15 ec bd 32 48 4b be
       0.021487202 0.064326376 -0.115275 -0.19851759
000050 53 8b 02 be 7c 8c f0 3c 6f 12 08 3d 2a f3 23 be
       -0.1274846 0.029363863 0.033220705 -0.16010728
000060 35 c7 82 be 1b 85 5a be 87 60 b7 be ab 87 35 ba
       -0.25542608 -0.21339838 -0.35815832 -0.0006924818
000070 8d 72 05 3e fe c9 55 be e6 a3 0e be 91 c8 1f 3c
       0.13031979 -0.20877835 -0.1392971 0.009752409
000080 e3 88 e4 bd 84 a2 31 be 5b 23 44 3e bd 2f c1 3d
       -0.111589216 -0.17347151 0.19154112 0.094329335
000090 16 98 75 3b 37 0a 13 be 18 70 e9 3d 5c 6d 77 be
       0.0037474683 -0.14359365 0.11398333 -0.24162811
0000a0 93 20 a8 3d c2 3e e5 3d 17 f3 47 bd ed 21 f1 bd
       0.08209338 0.11193611 -0.048815813 -0.11774049
0000b0 5f df 8f 3d 14 17 61 be 92 5a 91 b9 2a c6 b0 3d
       0.070250265 -0.2198146 -0.00027724035 0.08631547
0000c0 a9 19 6a be 76 ab 69 be 77 56 e4 bd 0e d1 5a 3e
       -0.22861351 -0.22819313 -0.11149304 0.2136881
0000d0 9e 11 76 bd 0f fc 11 bd c1 3b c6 3e f7 a6 84 bd
       -0.060075395 -0.035640772 0.38717464 -0.064771585
0000e0 0c 9d a4 bc d1 14 25 be 31 d7 4b 3e d6 b3 83 be
       -0.020094417 -0.16121222 0.19906308 -0.2572314
0000f0 8a 7a 5d bc cd 12 20 bd 03 1f 0a bd 5d 7b 86 3e
       -0.013517985 -0.03908043 -0.03372098 0.26265994
000100 53 fe 89 3e e4 4a 1e be a9 d5 27 3e 4c ac 28 3e
       0.26951846 -0.15458256 0.16390099 0.16471976
000110 e9 79 a0 bd 63 be ba be 62 bb 2d 3b 25 18 ae be
       -0.078357525 -0.3647338 0.0026509394 -0.34002796
000120 6c 78 ec bd 51 fe 04 be a8 f1 99 be 95 8a 8e 3d
       -0.11546406 -0.12987639 -0.30067182 0.06960026
000130 64 55 48 3e 5e 83 1e bd f1 95 5a be 42 27 6c bb
       0.19563824 -0.0386995 -0.2134626 -0.0036034142
000140 21 dd 21 be 6a c0 23 3e 53 fe 86 be 41 01 ef 3d
       -0.1580701 0.15991369 -0.2636591 0.11670161
000150 4b 51 58 3e 96 ba 90 3c 55 0e c7 be 60 7f ef bd
       0.21124761 0.017667096 -0.38878122 -0.11694217
000160 96 e3 00 3e cd f0 eb bd 25 41 56 be 52 2c d1 bb
       0.12586817 -0.115205385 -0.20923288 -0.006383457
000170 b0 be 5c be ac 0c 6a be 46 f2 4e 3e 86 64 c2 bd
       -0.21557117 -0.22856396 0.20209607 -0.094918296
000180 05 3a 5b bc b4 37 cc 3b d6 4c f7 bc 9c 72 7a bd
       -0.013380532 0.0062322263 -0.030188005 -0.061144456
000190 ae 30 61 3e 34 15 81 3e 65 5a 6b 3e c3 42 e4 bc
       0.21991226 0.2521149 0.22983702 -0.027863866
0001a0 a3 30 73 3d a0 4b 0a be 2c 9a c4 bd e9 49 20 3e
       0.059372555 -0.13505411 -0.095997185 0.15653194
0001b0 5b 71 83 3e 21 b0 86 be 21 47 8c be 5c eb fc bd
       0.2567242 -0.2630625 -0.27398017 -0.12349579
0001c0 34 66 37 bd 09 3d 7c 3c 88 ea 2a be 8d 5b 3d 3d
       -0.044775203 0.015395411 -0.16691029 0.046229888
0001d0 fb 10 59 be 7e d3 5e 3e 5c a7 d7 3d fa f4 65 be
       -0.21197884 0.21760365 0.10529968 -0.22456732
0001e0 3d 68 3c 3e 30 40 60 be cf 6b 7e be c7 86 f1 3d
       0.18399139 -0.21899486 -0.24845813 0.11793285
0001f0 44 c2 92 be 4a 01 00 3e 2a 37 02 3e 7d bc 7b 3d
       -0.28663838 0.12500492 0.12716356 0.061459053
000200 8b e4 87 bd cc 2b bb bd f9 0a 80 3d b1 a8 23 3e
       -0.06635388 -0.09139213 0.06252093 0.1598232
000210 1e ef 1e 3e f3 25 e4 bc 5c 21 24 3e b4 07 8d be
       0.15520903 -0.027850127 0.1602835 -0.2754494
000220 df 2e a4 be be 76 86 3d 96 67 33 3e 91 75 24 3e
       -0.3206701 0.06565617 0.17519984 0.16060473
000230 9d b4 49 bd 8d b0 07 be 26 50 36 3d e9 dd 25 bd
       -0.049244512 -0.13250943 0.04451003 -0.040494833
000240 7d f1 ae 3e bc 51 87 bd f9 17 50 be 14 78 b5 bd
       0.34168616 -0.066073865 -0.20321645 -0.08860794
000250 ab a1 41 be 98 c0 63 be 27 d8 39 be 4e 5f 79 bd
       -0.18909328 -0.22241437 -0.18148862 -0.060881905
000260 77 b8 57 bd 29 2f 61 be 0e 5a af 3d 24 23 41 be
       -0.052666154 -0.21990646 0.085620984 -0.18861061
000270 fd 76 55 3e 5a 71 2c 3d 1b d9 ad bd e7 67 d5 3e
       0.20846172 0.042100288 -0.08488675 0.41680834
000280 d1 f4 b1 bc 63 9e 9c be 61 16 9d bd ae a7 46 3c
       -0.021723183 -0.3058959 -0.07670284 0.012124939
000290 c3 b5 8a 3c e7 d6 e7 bd b3 73 3c be cb 1c bc bd
       0.016932374 -0.11320286 -0.18403511 -0.09185179
0002a0 db fe a2 bc 05 fe 55 3e df 2b 02 3e b7 88 94 bd
       -0.019896915 0.20897682 0.12712048 -0.07252639
0002b0 39 b9 fb 3d 31 9c 4f be a5 ac db be e8 cb b8 3d
       0.12291188 -0.20274426 -0.42905155 0.09023267
0002c0 75 64 76 be 7b 02 c7 3d cf 4d b0 bd 6d 3b 10 be
       -0.24061759 0.0971727 -0.08608591 -0.14085169
0002d0 bf c0 5a bd 8c 5e 2c bd 72 60 2d be 4a 2b 00 bc
       -0.053406473 -0.042082354 -0.16931322 -0.007822821
0002e0 4b 35 85 3d 52 2c ae bb 0d 29 68 be 61 6a 01 3e
       0.065043055 -0.005315342 -0.2267191 0.12638237
0002f0 d3 52 49 3e 91 8d 33 3e 51 11 0e 3e 1c 50 65 bd
       0.19660501 0.17534472 0.13873793 -0.0559846
000300 31 f8 82 be 14 3f 1b bd f1 41 ca 3c ba cb 04 3d
       -0.2557998 -0.037901953 0.024689646 0.03242085
000310 74 06 15 3e db f1 48 be 19 c0 64 be 4f 82 07 bd
       0.14553243 -0.1962351 -0.22338904 -0.033083256
000320 6f 34 00 be 38 9f 3d be 6c 7d 04 3e 2b 54 14 3e
       -0.12520002 -0.18517768 0.1293847 0.14485233
000330 76 4e d0 be ff 6b 84 be 7c a1 4a 3e 0f 0d 8f 3d
       -0.4068486 -0.25863644 0.19788164 0.069849126
000340 7e 2f 14 3e b3 0c a5 3d eb b2 27 be da e2 4a 3e
       0.14471242 0.08059063 -0.16376846 0.198131
000350 a3 99 4e 3d 2a b5 35 3d e4 59 23 3c fd 87 db bb
       0.05043949 0.044362225 0.009970162 -0.0066995607
000360 cb c7 73 bc d5 b2 83 3d eb 40 26 3e 91 b7 40 3e
       -0.014879177 0.06430594 0.16235702 0.18820025
000370 f3 14 cc bd a7 ca 2d 3e 46 57 e3 3d b8 c1 75 be
       -0.09964933 0.16971837 0.111006305 -0.23999679
000380 70 c2 83 3d 14 a5 6c 3b e8 5c 1a 3c 33 7f 8a bd
       0.064335704 0.0036109136 0.009421565 -0.067625426
000390 84 07 fb 3d 70 17 9e bd 54 52 ce 3d a9 fe af 3d
       0.12257293 -0.07719314 0.100742966 0.085934944
0003a0 b5 67 3c 3e 23 f1 c6 bd b3 f4 c5 be 0c ba 0b 3d
       0.18398936 -0.09713962 -0.38663253 0.034112975
0003b0 d6 e3 29 be 41 c3 2f 3e 78 00 2f 3e 63 e9 25 3e
       -0.16590819 0.17164327 0.17090023 0.16202311
0003c0 47 70 7f be fd d6 15 3e 0f ef 28 3e 6d b2 12 bd
       -0.24945174 0.14632793 0.16497444 -0.03581469
0003d0 25 01 bb bd be b8 a3 be 69 85 ca bd 3e fc 4f be
       -0.09131078 -0.31976885 -0.09888727 -0.20311067
0003e0 76 10 e9 3d fd 95 a8 be 2f dd 7e be 6d 31 76 be
       0.11380093 -0.32926932 -0.24889062 -0.24042292
0003f0 52 85 24 3e c1 d5 c2 3d 9d a2 46 3e 9b 74 84 be
       0.16066483 0.095134266 0.1939797 -0.25870213

network.0.bias f4 [64]
000000 f0 cb 64 3d 9f 04 b9 3e 98 1a d4 3d db 83 e6 bc
       0.055858552 0.36136338 0.10356635 -0.028139045
000010 40 d4 b7 bd db fb ea bd f0 96 c2 bd 5a ce 56 be
       -0.0897603 -0.11473819 -0.09501445 -0.20977154
000020 81 6d ed 3b 0d a9 b5 3d 2e ff 1c bd ba 96 8b 3e
       0.00724572 0.088701345 -0.038329296 0.27263433
000030 5f 65 6c 3e e9 7d 04 3e 8c 90 39 3e f6 f2 2f 3e
       0.23085545 0.12938656 0.18121547 0.17182526
000040 22 df 09 3d af 20 d9 3c 7d 2f 8d 3e fa fd 62 3e
       0.03366006 0.026504843 0.27575293 0.22167197
000050 50 6d 80 be d7 1e 42 3e c1 a2 0a be 7f eb fe bd
       -0.250834 0.18957077 -0.13538648 -0.12447261
000060 eb bb db 3c 55 ed 04 3e 9d f9 30 be fc 88 67 3c
       0.026823005 0.1298116 -0.1728272 0.014131781
000070 22 2d cf 3e 5c 78 a7 3a 28 29 20 be 87 f1 95 3e
       0.4046412 0.0012776959 -0.156407 0.29285833
000080 40 14 3b 3e 63 00 43 bd 3d f8 7d 3e 1e cf 47 3d
       0.18269444 -0.04760779 0.24801727 0.048781507
000090 eb d6 cd 3e bb 00 8a be 95 07 47 be 7c 57 df 3c
       0.40203032 -0.26953682 -0.19436486 0.027263395
0000a0 d2 1e 40 3e 82 62 c3 bd 38 d8 40 3e 34 4b 79 3e
       0.18761757 -0.09540273 0.18832481 0.24345094
0000b0 ef a6 0b be ca de 1e bc d7 71 2a 3e 5f 2d 37 3d
       -0.13637899 -0.009696672 0.16644989 0.044721004
0000c0 a4 e2 c4 bd cd 93 4c 3e 05 ed b3 3e fc c5 2d bc
       -0.09613541 0.19978257 0.3514177 -0.010606285
0000d0 5d 96 80 be 7b 97 1c be 01 d8 08 3d a8 72 79 be
       -0.25114718 -0.1529216 0.033409122 -0.24360144
0000e0 0f 3c da bd 43 22 90 3e 14 4b f1 bc 91 05 df 3c
       -0.106559865 0.2815114 -0.029454745 0.027224334
0000f0 19 3a 13 be ad 83 af 3e f8 7a b0 bd 35 1c 2f 3e
       -0.14377631 0.34280148 -0.086172044 0.17100604

network.3.weight f4 [32, 64]
000000 97 86 c4 3c 5d 7b df bc 33 1b 87 bd bf 2d a0 3d
       0.023989959 -0.027280504 -0.06596985 0.078212254
000010 97 13 1a 3d b6 40 95 3d c8 7e 44 3d 28 98 a6 bc
       0.03761634 0.07287733 0.04797247 -0.020336226
000020 4a ea ea bd e5 6d a7 3d 07 93 38 3d 15 15 8e 3d
       -0.11470468 0.081752576 0.04506209 0.06937615
000030 22 a0 9d 3d 5c c4 4b bd a3 91 06 3c ca 6d 01 be
       0.076965585 -0.04974781 0.008213433 -0.12639537
000040 89 3c c4 3b 2b 65 8e 3d 85 0c 03 3c cb 4c db bd
       0.0059886617 0.0695289 0.00799859 -0.107080065
000050 ef af 9d bd 75 ca ce bd 8c 51 3a bd 9c 0b 8b bd
       -0.07699572 -0.10097209 -0.045487925 -0.06789324
000060 9e bc cb bc c7 78 fb bd 08 94 9c bd 44 1f 53 3c
       -0.024870213 -0.12278896 -0.07645422 0.012885872
000070 39 29 62 3b fe 94 08 3c ad 82 35 bc bf 1c 1a bc
       0.0034509434 0.008336304 -0.011078519 -0.009406268
000080 6c f8 45 bb 4d 90 a0 3b 08 9e 0f be 8c 84 14 be
       -0.0030207885 0.0049000145 -0.14025128 -0.14503688
000090 b1 02 0b bd 7c 0e 02 be e5 82 b2 bd 07 48 ae bd
       -0.033938114 -0.12700838 -0.087163724 -0.08509832
0000a0 b9 5b f3 bb 84 89 8e bd 8a be d4 bd a4 65 18 3d
       -0.0074267057 -0.06959823 -0.10387905 0.037206307
0000b0 ad 3f ed bd eb 25 da bd 75 b3 89 3d 6c e6 67 3b
       -0.11584411 -0.106517635 0.06723682 0.0035385145
0000c0 14 db a4 bd f0 49 d4 bd 98 de 46 3d fb a3 f3 bd
       -0.08049598 -0.10365665 0.048552126 -0.11896511
0000d0 6d 41 63 bc 92 bf 56 3d b1 ca 47 ba 87 73 e8 3c
       -0.013870579 0.05242879 -0.0007621451 0.0283754
0000e0 42 a6 ad 3d 86 8a 5b bc 51 32 01 be af ef e9 bb
       0.08478977 -0.013399726 -0.1261685 -0.007139168
0000f0 eb 62 89 3c f4 57 09 be c5 4a 32 3d 00 11 83 bb
       0.0167708 -0.13412458 0.043528337 -0.0039998293
000100 60 ef 8f bd d5 eb ab bc 5f 19 1f bd d5 bf 8d 3c
       -0.07028079 -0.020986477 -0.038842555 0.017303387
000110 43 4a 56 bd de c2 04 bd d2 fc e3 3c dc 29 46 bd
       -0.052316915 -0.032412402 0.027830515 -0.048379764
000120 e9 8e 37 3d 7b dd 94 3d 69 f4 58 3d 6d fb 67 3c
       0.044814024 0.072688065 0.052967463 0.014159066
000130 64 ff a9 bb 2a 7f 11 be 0e c5 ce bd 2d f2 dd bd
       -0.0051879156 -0.14208665 -0.10096179 -0.10837207
000140 ab b3 d1 bd 36 79 b6 bd 10 fd 1f 3d a5 52 c9 bc
       -0.10239347 -0.08909838 0.0390597 -0.02457554
000150 78 bb 0f be ab 7e 53 bd 00 da b1 bd f1 b0 a3 3d
       -0.14036357 -0.051634472 -0.08684158 0.07992733
000160 8d bf 38 bd 3e f3 b6 3d 6a 4c 8f 3d 1c 29 d2 bd
       -0.045104552 0.089331135 0.06996997 -0.10261747
000170 20 5a 11 be 9f 96 15 3d a5 38 0e bd 7d 74 00 be
       -0.14194536 0.036520597 -0.03472199 -0.12544437
000180 65 0c 30 bd 58 1f ab bd c5 b5 0a 3d e8 a5 ed bd
       -0.04298057 -0.08355588 0.033864755 -0.1160391
000190 d2 83 98 bd 76 1f 43 bd 4f 3a b5 bd 5f ab a2 bd
       -0.07447018 -0.047637425 -0.08849012 -0.07942843
0001a0 b4 7f 70 3c 9f 7c 57 3d c0 67 a4 3b 20 ce ab bb
       0.014678884 0.052609082 0.005017251 -0.005243078
0001b0 ff 79 9e bc ae 5b 94 bd 9f 1c da 3b 45 65 8f bd
       -0.019345282 -0.07244049 0.006656244 -0.070017375
0001c0 90 18 41 bd c8 cf 21 bd a0 9e 00 bd 8e bf b3 3d
       -0.047142565 -0.039504796 -0.031401277 0.087767705
0001d0 c3 40 4d bd d3 98 71 bd 5d ae dd 3c 34 fb ed 3d
       -0.05011059 -0.058983635 0.027060682 0.11620179
0001e0 52 bf e6 bd e8 b3 ee bd 7b 45 f4 bc fb c6 1e bd
       -0.1126696 -0.11655408 -0.029818287 -0.03876398
0001f0 94 f3 6e bc bb 3b 0e bd 08 99 b2 3d 1e 74 48 bd
       -0.014584441 -0.034724932 0.08720595 -0.048938863
000200 47 a0 f0 3b 04 e6 31 bd b8 7a 06 3c a0 13 2d 3d
       0.0073433253 -0.04343225 0.008207969 0.042255044
000210 c0 24 a7 3d 36 7f 2a bd a2 5b c7 3d ce f4 3b bd
       0.081613064 -0.041625224 0.097342744 -0.04588776
000220 2d 99 ee bd f9 9b 69 bd d8 62 9f bd 33 8a 2f 3d
       -0.1165031 -0.057033513 -0.07782525 0.042856406
000230 94 7d a6 3d ab 0a 17 be 61 8c 13 bd 11 fb 83 bd
       0.08129421 -0.14750163 -0.036022548 -0.064443715
000240 f4 f3 bd bd c3 d9 17 be 40 83 a1 3d 8e b6 a0 3c
       -0.09275046 -0.14829163 0.07886362 0.019618299
000250 82 8e 2f 3b d9 9d b8 bd 1e 47 13 3d df 2e 1e bd
       0.0026787822 -0.09014482 0.035956495 -0.03861892
000260 0a 9b 77 bd 97 e9 b1 3d 39 ba 09 be 4e 4c db bb
       -0.06045059 0.08687132 -0.13449945 -0.006692446
000270 92 cb 4a 3d 60 f0 81 3d d0 7d b7 bd e6 47 25 be
       0.049510546 0.06344676 -0.08959544 -0.16140708
000280 77 af 61 bc a5 de b7 3b bf 0e c3 bd 7b 20 ef bd
       -0.013774744 0.005611258 -0.09524297 -0.11676117
000290 c2 8a 86 bd be b9 65 bd bc 3a c3 bc 41 b3 35 3d
       -0.06569435 -0.05608534 -0.023831718 0.044360403
0002a0 36 e4 0d 3e 5a 63 89 3d 0a 56 91 3d df 73 de 3c
       0.13856587 0.06708403 0.07096489 0.027154861
0002b0 e4 4c 90 bd b6 0d 0e 3d af b4 ca bd e6 01 f5 bd
       -0.07045916 0.034681045 -0.09897744 -0.11963253
0002c0 03 de 47 3d 4a ad 8b bd bb 23 5e bd 41 dd 73 bc
       0.04879571 -0.06820162 -0.054233294 -0.014884294
0002d0 7c 00 c0 3c 35 85 a5 ba ab 83 b8 bd da fb 04 bc
       0.023437731 -0.00126282 -0.09009489 -0.008116687
0002e0 eb 62 b4 bc 29 eb b7 bb 52 34 6c bd a4 cc 9f bd
       -0.022019824 -0.00561275 -0.057667084 -0.07802704
0002f0 c9 3c a5 bd 9e 49 b9 bc 8d 89 4e bd ed af 19 be
       -0.080682345 -0.022618111 -0.050424147 -0.15008517
000300 c0 e7 e9 bc 0a 62 aa 3d e9 42 e2 bd 28 35 b1 bd
       -0.02855289 0.08319481 -0.11047918 -0.08652717
000310 65 71 20 bd 28 88 22 bd 27 9e 02 bd 27 43 ab bd
       -0.03917064 -0.03968063 -0.031889107 -0.08362418
000320 1c a5 15 3d db 9d 86 bd 39 8c b9 3a 46 83 00 3c
       0.036534414 -0.06573077 0.001415617 0.007843798
000330 0f 4c 4a 3d 78 53 86 bd 9b 37 d3 bd 57 01 87 3d
       0.04938894 -0.06558889 -0.1031334 0.065920524
000340 d3 80 23 be 8e 12 91 3d d2 df 29 3d f7 6e 06 3c
       -0.15967111 0.07083617 0.041473217 0.008205167
000350 15 6f 23 3d ed e2 b6 3d b3 c0 0b be 2c e4 c6 3d
       0.039900858 0.089300014 -0.13647728 0.09711489
000360 ca be 07 bd 66 4c 82 3d a8 32 94 bd 1d ed 05 be
       -0.033140935 0.06362228 -0.072362244 -0.13078733
000370 fb 7d 0e 3e 85 9f 48 3d dd d2 f9 bd b5 23 68 3d
       0.13915245 0.048980255 -0.12198422 0.056674678
000380 14 83 76 bd 77 a6 06 bd 9d c2 61 3d a0 6a 8a 3d
       -0.0601836 -0.032873597 0.05511724 0.06758618
000390 cd 53 6d bc be 34 aa 3d 35 ba b0 bd 63 6d b0 bc
       -0.014485312 0.08310841 -0.08629266 -0.021536535
0003a0 8e a5 60 bc 4d b4 99 3d f8 13 76 3d 69 1d 48 bd
       -0.013711346 0.07505093 0.060077637 -0.048856173
0003b0 bc 96 b7 3b c9 69 af bd cb 36 d8 3c 9b ae 62 3c
       0.0056026857 -0.08565099 0.026393315 0.0138355745
0003c0 7e 56 bf bc a1 bd cb 3d 72 4e c5 3d 06 0d 9c 3d
       -0.023356672 0.09948278 0.09634103 0.076196715
0003d0 74 70 92 bd 18 97 39 3d f8 85 32 be 4b ce db 3d
       -0.07150355 0.04531011 -0.17433918 0.10732707
0003e0 e4 b1 cc bc b0 55 af bc 49 fa 96 3b a7 85 00 3e
       -0.024987169 -0.021403164 0.004607473 0.12550984
0003f0 cb a6 a5 3d 63 2d 48 bc 15 2e 64 3d 1d f1 07 bd
       0.08088454 -0.012217852 0.05570801 -0.033188928

network.3.bias f4 [32]
000000 35 b6 c2 bd 75 88 87 3d 66 9c 53 3d 41 4a 43 3c
       -0.095074095 0.06617824 0.051662825 0.011919559
000010 9b 35 2b 3e 60 7f 54 3e 21 a7 f7 3d 16 af 81 bd
       0.16719668 0.20751715 0.12092424 -0.06332223
000020 b3 c6 fc 3d a7 ab 3d 3e af be db 3d bf ce 12 3e
       0.12342586 0.18522511 0.107297294 0.1433668
000030 66 24 49 3a fe 10 24 bc 1a de b2 bd f7 83 36 3e
       0.00076729653 -0.010013817 -0.08733769 0.17823778
000040 be f6 9a b8 b5 15 f2 bd 6b 1e 74 3d ee b0 91 3e
       -7.3892516e-05 -0.118205465 0.05959932 0.284553
000050 d8 33 89 3d 99 55 9d 3d 4c f3 07 3d 26 52 44 3e
       0.066993415 0.07682342 0.03319101 0.19171962
000060 39 1c ef 3d 82 4f 3e bc 9e bd 23 3d 97 9a 3a 3e
       0.11675305 -0.011615636 0.039975755 0.18223034
000070 87 b7 78 3d 86 76 88 3d c4 17 77 3e ee f1 0c be
       0.0607219 0.066632316 0.2413016 -0.13764164

network.6.weight f4 [2, 32]
000000 bd d8 09 bd 90 f6 cc bd 72 0f a5 bd cc 00 cc bd
       -0.033653963 -0.100079656 -0.080595866 -0.099610895
000010 9d 54 f3 3d a2 96 9b bd 91 e4 20 3e dd 29 dd 3d
       0.11881373 -0.0759709 0.15712191 0.107990004
000020 f9 0a b0 3d 81 9c 21 bd 3e 23 f8 3d 01 28 27 3e
       0.08595843 -0.039455894 0.12116097 0.16323854
000030 cf b3 11 be a8 ad 13 3e 15 30 80 3c ca 8b 1d 3e
       -0.14228748 0.14421713 0.015647927 0.15385357
000040 04 38 8c 3e d3 4b 28 be 88 79 73 3e 16 9b 56 3d
       0.27386487 -0.16435175 0.23776829 0.052393995
000050 66 c9 21 3e a4 48 21 3e ce d1 60 3e 25 f5 5b bd
       0.15799484 0.15750366 0.21955034 -0.053700585
000060 64 6f 09 bd a3 94 de bd d5 19 e9 bc d9 a8 87 3e
       -0.033553496 -0.10868194 -0.0284547 0.26496008
000070 a4 bc 9a bc d4 fa 26 3e 8a c5 7e bd 59 e3 60 bd
       -0.018888779 0.16306621 -0.062200107 -0.054904316
000080 6d b5 0a 3d 76 69 76 3d 0e 4e 47 3c 9d a4 f3 bd
       0.033864427 0.06015917 0.012164606 -0.11896632
000090 85 c4 91 be c6 7c 9c be 75 71 83 bd bf db 3b 3e
       -0.28470245 -0.30563945 -0.064181246 0.18345545
0000a0 71 85 b3 3d 7c a6 81 be 42 d2 3a 3e e9 41 40 3e
       0.08765686 -0.2532233 0.1824427 0.18775143
0000b0 2e 71 9b bb ab e3 61 3e 8f 9c 71 3d b5 4a 9f 3e
       -0.0047437167 0.22059505 0.058987197 0.31111684
0000c0 0e c2 52 3e c4 bd d9 bd 29 6f 6e 3e 0b 88 91 be
       0.20581838 -0.10631898 0.23284592 -0.28424105
0000d0 49 25 93 3e 2e b0 83 3e 89 0e 16 3e fb 99 90 be
       0.28739384 0.25720352 0.14653982 -0.28242478
0000e0 56 23 9a be 1b e5 19 3d d4 d2 63 be 12 06 4f 3e
       -0.30105084 0.037572008 -0.22248393 0.2021716
0000f0 8e 8c 42 3e 40 14 17 3d db 05 94 be 9f 57 51 3d
       0.1899893 0.036884546 -0.28910717 0.051108953

network.6.bias f4 [2]
000000 f5 09 31 3e e9 92 49 be
       0.17288955 -0.19684948

exp_avg f4 [64, 15]
000000 cc 9e 6f 3c 0e 41 7d 3c 2a e4 89 3c 5d 49 8d 3c
       0.0146252625 0.015457405 0.01683243 0.017246896
000010 e1 8a 5d 3b 94 75 26 bc 0d df 9a 3b 2c 86 fa 3b
       0.0033804702 -0.010159869 0.0047262968 0.007645389
000020 cb db 00 3b 14 dd 00 bb 66 06 16 3a 25 0b 39 39
       0.0019662257 -0.0019663023 0.00057229993 0.00017647127
000030 00 00 00 00 64 75 0b 3a 93 7c 74 39 41 03 e0 bc
       0.0 0.0005319922 0.00023316061 -0.027345302
000040 20 47 d7 bc 25 20 f5 bc c7 fb e5 bc 95 4f e0 bb
       -0.026279032 -0.029922554 -0.028074158 -0.0068454244
000050 78 28 3d bc 68 06 ca bb de fc 5d bb a3 8a ab bb
       -0.011545293 -0.0061653145 -0.0033872644 -0.0052350326
000060 32 c5 20 bb 4d 69 31 b9 42 d5 50 39 00 00 00 00
       -0.00245316 -0.00016919263 0.0001991587 0.0
000070 49 19 a1 3a 8a f5 89 39 03 d2 e6 3b 6c 7f db 3b
       0.0012290861 0.00026313617 0.0070440783 0.0066985395
000080 27 62 de 3b 07 3d d4 3b 3a 06 5d 3b 35 a4 4c 3b
       0.006786603 0.0064770016 0.0033725635 0.0031225805
000090 1e f5 cd ba 78 19 22 bb a0 4c a5 3b 2d bd 9d 3b
       -0.0015713309 -0.002473442 0.005044535 0.0048138113
0000a0 fc 60 9a b9 cd 71 d0 3a 00 00 00 00 49 c9 b5 38
       -0.00029445428 0.0015903056 0.0 8.668245e-05
0000b0 f0 fd cc 3a 15 92 03 3c 01 6d e4 3b a8 15 11 3c
       0.0015639644 0.008030434 0.006971002 0.008855261
0000c0 0f e5 f7 3b 69 17 12 3b c9 f8 ce 3b a5 dd f3 3b
       0.0075651477 0.0022291786 0.0063162786 0.0074421936
0000d0 51 5c c8 3b ba f8 4e 3b d8 78 19 bc 84 d1 2c b7
       0.0061145206 0.0031581358 -0.00936719 -1.0300781e-05
0000e0 10 98 19 3a 00 00 00 00 0a 34 5c ba 4a d9 e6 39
       0.0005859146 0.0 -0.00084000884 0.00044030912
0000f0 3e d4 05 bc 8d 62 06 bc 1a 96 16 bc 24 54 13 bc
       -0.008168278 -0.008202207 -0.00919106 -0.008992229
000100 74 91 e5 3a 34 ae 13 3c f6 e1 04 b9 26 59 25 bb
       0.0017514662 0.009013701 -0.00012672678 -0.0025230139
000110 35 35 80 3b 2d 7a b0 b9 22 3b ac 3a a5 6c b6 39
       0.003912593 -0.00033660364 0.0013140182 0.00034794692
000120 00 00 00 00 63 cd 19 3b ed 03 bb 39 e5 3f a1 39
       0.0 0.0023468367 0.00035670344 0.00030755918
000130 ba 13 0b 3a bb b2 32 3a 7b 30 76 3a 05 44 88 b9
       0.00053053687 0.0006816794 0.00093913794 -0.0002599062
000140 fa 3b 4b ba 16 9e 96 39 62 ac 04 3a 7e 29 e8 ba
       -0.00077527727 0.00028728013 0.00050610874 -0.0017712561
000150 b7 6a e5 ba ba 97 1a ba e6 36 19 37 00 00 00 00
       -0.0017503117 -0.0005897243 9.132293e-06 0.0
000160 a7 37 de b9 aa 18 ab ba a8 5c 50 3b 00 a0 51 3b
       -0.00042384604 -0.0013053615 0.0031793509 0.0031986237
000170 bc a2 60 3b 26 73 5c 3b 00 41 2a 3b 1d 8d f5 b9
       0.0034276685 0.003363797 0.0025978684 -0.0004683518
000180 53 03 91 3a b2 19 a8 3a c0 60 53 3b 71 3b 19 3b
       0.0011063613 0.0012825041 0.0032253712 0.0023381377
000190 1d 41 59 3a 52 c5 12 ba 00 00 00 00 36 2b 07 3a
       0.00082875957 -0.0005598861 0.0 0.000515628
0001a0 f9 59 df b9 ab 26 3c bb 1a 01 2b bb 30 2d 45 bb
       -0.0004260091 -0.0028709571 -0.0026093186 -0.0030086748
0001b0 ad 1f 33 bb ef 95 89 39 11 ba dd 39 19 ab 21 ba
       -0.0027332113 0.00026242386 0.00042291035 -0.0006167158
0001c0 12 7d 46 ba 83 af e2 b7 50 20 1a 3a 2e 64 3a b7
       -0.00075717375 -2.7023028e-05 0.0005879449 -1.1109789e-05
0001d0 0f 45 b7 37 00 00 00 00 80 1c 8a 38 9d 24 f2 37
       2.1847458e-05 0.0 6.585661e-05 2.8865697e-05
0001e0 e4 e1 83 3a 17 83 69 3a 2b 02 32 3a 57 67 3f 3a
       0.0010061827 0.00089077785 0.0006790484 0.00073014706
0001f0 57 8f 49 3a 03 d6 2d 3b 69 3b 71 39 71 ca f3 b9
       0.0007688901 0.0026525266 0.00023005683 -0.00046499402
000200 41 4f ba 39 f4 4b eb 3a 01 80 be 39 35 e7 bb 3a
       0.00035535733 0.0017951713 0.00036334994 0.0014335873
000210 00 00 00 00 1c 25 15 3a 69 77 9c 3a 60 62 f0 3b
       0.0 0.00056894287 0.0011937442 0.007335946
000220 29 dc 0a 3c 2b 36 1c 3c 75 be 13 3c 99 8a f0 3b
       0.008475342 0.009534399 0.009017576 0.007340741
000230 dc 8b ea 3b 01 72 48 b9 81 44 09 bb 49 82 8f 3b
       0.007157786 -0.00019115956 -0.0020945373 0.004379545
000240 7e c3 83 bc 8f fb c6 3a 64 3b 8f 39 00 00 00 00
       -0.016084429 0.0015181171 0.00027319335 0.0
000250 57 6c 61 3a 47 bc c2 39 46 30 a8 3b 88 4e c6 3b
       0.0008599213 0.0003714284 0.005132708 0.006051842
000260 eb ab d9 3b cb 38 e0 3b ee 70 83 ba 9e 29 01 3a
       0.0066428087 0.0068427077 -0.0010028163 0.0004927161
000270 02 35 05 3c 9c 41 09 3c 96 0d 86 3b 33 3d b3 bb
       0.008130314 0.008377459 0.004090975 -0.005469942
000280 5d 54 89 ba f1 53 99 39 00 00 00 00 35 c6 89 b9
       -0.0010477413 0.00029244975 0.0 -0.00026278352
000290 1c a2 f6 39 4b aa 34 bc b3 ed 2d bc 3c 97 44 bc
       0.00047041557 -0.011026929 -0.010615754 -0.011998948
0002a0 c9 65 34 bc 3f 68 2e ba 26 67 fa 3a c2 4d 9c 3a
       -0.011010596 -0.0006653107 0.0019104227 0.0011925029
0002b0 00 ec 40 3a 8f 73 44 bb 6f b5 71 3a 3f bd f8 3a
       0.00073593855 -0.0029976105 0.0009220456 0.0018977298
0002c0 75 89 1b b8 00 00 00 00 d9 ef 08 3b 5b 80 4d b8
       -3.7082897e-05 0.0 0.0020894913 -4.899535e-05
0002d0 b9 94 19 bb 84 d1 f2 ba bb 40 00 bb 33 58 b6 ba
       -0.0023434593 -0.0018525575 -0.0019569832 -0.0013911783
0002e0 b6 d9 a7 ba 07 8f 5d 3a 59 65 30 3b 33 f6 29 3b
       -0.0012805972 0.00084517937 0.0026915877 0.00259341
0002f0 c2 c8 0e 3a 25 a1 dd bb 6e 39 4d 39 85 f1 97 37
       0.00054467854 -0.0067635947 0.00019571718 1.8113069e-05
000300 00 00 00 00 e9 21 20 3b 7b ee 2e 3a 87 ba ee ba
       0.0 0.0024434275 0.00066731096 -0.0018213548
000310 db 24 e0 ba 63 f6 38 bb b5 e0 1e bb 0b ff 1e 3b
       -0.0017100828 -0.002822303 -0.0024242823 0.0024260904
000320 ab 07 84 bb 7a 03 43 bb 0e 28 06 bb 12 c9 74 3b
       -0.0040292344 -0.002975671 -0.0020470652 0.0037351293
000330 1c 52 62 3b 3a 76 f1 3a ce 14 23 3b 00 00 00 00
       0.0034533804 0.0018422075 0.0024884227 0.0
000340 a5 63 6d 3b 04 4a 76 3b ce 26 25 3b 88 b5 47 3b
       0.0036222723 0.0037580738 0.0025200131 0.0030473191
000350 ad 33 36 3b 6f 5b 48 3b de ad 1d 3a 05 bc 13 bb
       0.0027801797 0.0030572077 0.0006014983 -0.0022542488
000360 91 4d 76 b9 be 11 b9 39 6c c6 6a 3a 14 e4 c7 ba
       -0.00023489284 0.0003529917 0.0008955959 -0.0015250468
000370 13 89 0e 39 7b f8 9f 3a 00 00 00 00 df 33 8c ba
       0.0001359324 0.001220479 0.0 -0.0010696611
000380 ff bc b4 b9 5e 73 25 bc 4c 50 17 bc 47 79 35 bc
       -0.00034473088 -0.010098306 -0.009235453 -0.011076278
000390 30 5c 20 bc 52 ec d1 3a 25 c5 a9 b9 2a b5 dc 3b
       -0.009787604 0.0016015864 -0.00032381076 0.0067354636
0003a0 91 96 e9 3b a3 0c 91 3b 5b 1d 8f 3a 39 27 2d 3b
       0.0071285446 0.0044265552 0.0010918783 0.0026421084
0003b0 e4 30 a1 39 00 00 00 00 a2 4f 04 3c 13 42 a6 3b
       0.0003074474 0.0 0.008075627 0.0050737946
0003c0 0a 05 83 bc 68 24 7b bc ca 5a 8c bc f5 4f 82 bc
       -0.015993614 -0.015328504 -0.017133135 -0.015907267
0003d0 84 3a 8c bb fb d2 ac bb 12 e5 11 ba 7f 03 56 3a
       -0.0042794365 -0.0052741743 -0.0005565445 0.0008163973
0003e0 7c 00 a5 bb 99 fd cf ba ed 74 8f ba 10 f8 fc b8
       -0.005035458 -0.0015868425 -0.0010944881 -0.000120625016
0003f0 00 00 00 00 41 44 c3 b9 55 7c 28 b9 e2 fb 80 3c
       0.0 -0.00037244151 -0.00016068046 0.015745107

exp_avg_sq f4 [64, 15]
000000 7c 00 a2 38 08 2c 9e 38 8e 08 b0 38 db 15 a6 38
       7.724852e-05 7.5422286e-05 8.3939274e-05 7.919568e-05
000010 93 50 ce 37 9f 5c 38 39 24 db 80 38 a3 60 75 38
       2.4594634e-05 0.00017582111 6.144334e-05 5.8502552e-05
000020 c2 69 60 38 1b 8e 22 39 bc cd be 35 58 bd 01 34
       5.3504256e-05 0.00015502462 1.421598e-06 1.2082944e-07
000030 00 00 00 00 9f 68 93 35 f5 81 62 34 05 4d 5f 38
       0.0 1.0982802e-06 2.1095168e-07 5.3239073e-05
000040 f1 2f 4d 38 90 d2 80 38 99 42 62 38 d1 1f ad 36
       4.8920458e-05 6.142736e-05 5.3944623e-05 5.1595057e-06
000050 8b b2 25 38 95 bc 6d 37 10 d6 1d 37 a1 34 16 37
       3.9505347e-05 1.41702085e-05 9.4077695e-06 8.95295e-06
000060 e0 c8 fb 37 86 3c 0d 35 5c 3c 98 33 00 00 00 00
       3.0015071e-05 5.2614666e-07 7.089031e-08 0.0
000070 45 36 d1 35 7b e0 04 34 2e 75 0f 38 ac 16 f1 37
       1.5587508e-06 1.2375124e-07 3.420299e-05 2.8739996e-05
000080 d1 8b b6 36 51 cd a1 36 77 98 17 38 0d 86 9a 36
       5.4402994e-06 4.822076e-06 3.61432e-05 4.605163e-06
000090 82 6f 2c 38 f2 24 3f 38 66 30 86 38 fd 31 ba 36
       4.1111845e-05 4.5572357e-05 6.398633e-05 5.5490514e-06
0000a0 c6 ef 52 38 c6 3c 04 3a 00 00 00 00 7c 53 21 39
       5.0291208e-05 0.00050444563 0.0 0.00015385257
0000b0 30 51 f1 39 70 99 62 38 2e d5 83 38 74 19 85 38
       0.0004602759 5.40255e-05 6.2862746e-05 6.346675e-05
0000c0 ca f4 8e 38 42 fb 17 37 4f fc 00 38 38 bb a6 37
       6.816683e-05 9.058802e-06 3.075256e-05 1.9875923e-05
0000d0 d6 49 94 37 01 b0 b1 37 90 a9 82 38 4e 6a 44 36
       1.7677357e-05 2.1182002e-05 6.2304665e-05 2.9268153e-06
0000e0 a4 66 53 33 00 00 00 00 f1 ea 57 37 7e 17 4a 36
       4.9220617e-08 0.0 1.28697e-05 3.011402e-06
0000f0 7d d3 8c 37 4e 87 86 37 11 12 9b 37 50 b8 91 37
       1.6787782e-05 1.6037051e-05 1.8485853e-05 1.7371174e-05
000100 53 ab 8c 37 06 4b 04 38 06 78 f0 37 0e b6 e9 37
       1.676908e-05 3.1541123e-05 2.866612e-05 2.786054e-05
000110 db 0e e1 37 97 b7 3c 37 42 cb 46 37 7e da 06 33
       2.6829008e-05 1.1248419e-05 1.1849044e-05 3.1398024e-08
000120 00 00 00 00 be 34 76 37 6d b9 88 33 7c 7a a8 37
       0.0 1.4675023e-05 6.366722e-08 2.0084197e-05
000130 6b fd c4 37 db e0 c1 37 cd 8a d4 37 d8 91 64 36
       2.3483028e-05 2.31121e-05 2.5337004e-05 3.405954e-06
000140 3a b5 ff 35 f2 19 7c 36 5b 34 79 36 64 55 5c 36
       1.9051724e-06 3.7566028e-06 3.7134366e-06 3.2832259e-06
000150 0f b6 cd 37 3f 3b 48 36 6d 27 49 31 00 00 00 00
       2.4522682e-05 2.9836808e-06 2.927176e-09 0.0
000160 0a bb 61 36 f0 46 88 35 b3 f0 55 36 fa 46 4f 36
       3.3636484e-06 1.0153435e-06 3.1879579e-06 3.0886717e-06
000170 90 8e 1f 36 f9 e7 20 36 33 fd 3c 37 05 44 1e 36
       2.3775829e-06 2.3976884e-06 1.1264626e-05 2.3583427e-06
000180 e9 e1 9e 36 de 2b a4 36 b3 e9 c2 36 f5 87 97 35
       4.7350663e-06 4.8926877e-06 5.8088567e-06 1.1289945e-06
000190 c6 d4 89 37 9f ac a9 37 00 00 00 00 8b 4e 36 37
       1.6430753e-05 2.0226753e-05 0.0 1.0866333e-05
0001a0 85 0f 9a 37 59 4c a8 37 75 0a a3 37 27 fe b8 37
       1.8365457e-05 2.0062713e-05 1.9435984e-05 2.2052858e-05
0001b0 25 23 a1 37 e6 02 ee 35 bb bd 07 38 cc ec 25 37
       1.9209061e-05 1.7733225e-06 3.236321e-05 9.8899e-06
0001c0 de 15 95 36 a2 1a 11 36 18 bd 92 37 95 b6 fa 33
       4.4430917e-06 2.1622186e-06 1.749261e-05 1.1674744e-07
0001d0 bd 60 7b 32 00 00 00 00 2d 05 34 34 5e 69 db 32
       1.4632119e-08 0.0 1.6765689e-07 2.5542871e-08
0001e0 3b 78 e1 37 73 7e bd 37 6d f1 67 36 59 1c 50 36
       2.6878077e-05 2.2589438e-05 3.456221e-06 3.1010916e-06
0001f0 b8 1f e6 37 e7 20 3b 36 11 70 05 38 a0 57 0e 38
       2.7432907e-05 2.7884323e-06 3.181404e-05 3.3937045e-05
000200 b6 f8 4f 38 43 da bd 36 21 85 20 38 53 28 cf 39
       4.9584276e-05 5.658048e-06 3.827096e-05 0.0003951216
000210 00 00 00 00 49 6e fa 38 9f 69 bd 39 5c f0 4c 39
       0.0 0.00011941471 0.00036127583 0.00019544497
000220 09 2c 49 39 cb e3 5d 39 7b 66 57 39 52 33 b5 37
       0.00019185258 0.00021161062 0.00020542175 2.160078e-05
000230 87 da c8 38 dc f2 52 38 d3 b5 40 38 b7 94 13 38
       9.577447e-05 5.0294082e-05 4.5945704e-05 3.5186033e-05
000240 7e c5 89 39 2b ef 9a 35 a2 76 e8 33 00 00 00 00
       0.0002627782 1.1543501e-06 1.0824921e-07 0.0
000250 40 2c a0 35 d1 6f 51 34 1c f6 11 38 eb 9a 19 38
       1.1933807e-06 1.950532e-07 3.47999e-05 3.662232e-05
000260 96 cb 23 38 79 08 24 38 e3 e8 42 37 f9 42 06 38
       3.9051833e-05 3.9108538e-05 1.1617524e-05 3.2010463e-05
000270 97 e8 c0 37 0d 76 b6 37 9b ab c2 37 89 39 26 38
       2.2996492e-05 2.1751062e-05 2.3206512e-05 3.9631068e-05
000280 c6 66 f5 36 c7 58 55 33 00 00 00 00 6a e5 d7 36
       7.3135334e-06 4.967367e-08 0.0 6.4342066e-06
000290 60 e4 4a 35 dd 67 d0 37 33 5a c7 37 64 64 ec 37
       7.5583193e-07 2.4843897e-05 2.376465e-05 2.818014e-05
0002a0 0b b9 d5 37 3e c9 46 37 42 f1 3d 38 ca d2 88 37
       2.5477746e-05 1.1848575e-05 4.52858e-05 1.631062e-05
0002b0 22 00 72 37 b8 0b 7f 37 73 bf e2 37 af 8b 30 37
       1.4424355e-05 1.5201913e-05 2.703045e-05 1.052294e-05
0002c0 17 e5 3d 33 00 00 00 00 99 f2 af 36 3e bf a5 33
       4.4213348e-08 0.0 5.2436485e-06 7.718198e-08
0002d0 24 42 90 37 36 96 80 37 04 b4 2a 37 ea 4b 1e 37
       1.7196937e-05 1.5328736e-05 1.0174703e-05 9.435209e-06
0002e0 9a f6 58 37 32 17 92 37 23 28 9f 37 d5 ce a3 37
       1.293202e-05 1.7415357e-05 1.8972967e-05 1.9527428e-05
0002f0 d7 e2 bc 37 e9 cc ca 37 9a 7a 73 37 a2 ab f1 38
       2.2516977e-05 2.4175695e-05 1.4512474e-05 0.000115237446
000300 00 00 00 00 ba 80 1f 38 b0 45 de 38 04 8d 4d 38
       0.0 3.802844e-05 0.00010598765 4.900714e-05
000310 4b df 31 38 08 ac 95 37 7c 73 87 37 fd 98 29 38
       4.2408046e-05 1.7842292e-05 1.614703e-05 4.043522e-05
000320 9a 2f 8a 37 1e ea 5d 38 c3 e7 64 38 4f 7c 94 38
       1.6473048e-05 5.2908545e-05 5.457528e-05 7.080344e-05
000330 89 96 68 37 be 29 5b 38 97 02 0b 3a 00 00 00 00
       1.3863327e-05 5.2252544e-05 0.0005302815 0.0
000340 2d 7b 2d 39 ac d2 fe 39 c7 60 a7 37 4e 6c b6 37
       0.00016544452 0.00048603618 1.9953017e-05 2.1746524e-05
000350 5a 64 ba 37 bb eb c8 37 d2 e9 1f 36 6f 9c 94 36
       2.2219658e-05 2.3951628e-05 2.3828948e-06 4.428955e-06
000360 81 ba c3 36 d2 ec c9 36 1e b8 d1 36 29 1d cb 37
       5.833165e-06 6.0178363e-06 6.2501194e-06 2.4213065e-05
000370 2d 33 e3 35 cc 91 91 36 00 00 00 00 c6 7c 56 36
       1.6927712e-06 4.3383097e-06 0.0 3.1961113e-06
000380 f8 19 aa 36 8c 32 0c 38 ae ec 09 38 7e 08 1c 38
       5.069418e-06 3.3425677e-05 3.288377e-05 3.7201207e-05
000390 ac 0d 14 38 98 4c b4 37 30 c8 5f 38 ec 1e 0c 38
       3.5298683e-05 2.1493339e-05 5.3353782e-05 3.34074e-05
0003a0 f1 42 0d 38 47 52 2c 38 41 30 e6 37 14 49 94 37
       3.3679364e-05 4.1084622e-05 2.7440607e-05 1.7677005e-05
0003b0 08 b9 50 36 00 00 00 00 bd f4 0e 38 72 a6 91 37
       3.1102118e-06 0.0 3.408337e-05 1.7362854e-05
0003c0 5d fd 43 39 13 05 27 39 da 2d 49 38 4b 5c 31 38
       0.00018691034 0.00015928251 4.7964837e-05 4.2286043e-05
0003d0 4c d2 36 39 4d 1e 3f 38 08 b1 53 39 5b a8 61 39
       0.00017435214 4.556617e-05 0.00020188477 0.0002152039
0003e0 74 53 a1 39 3a b8 2d 38 4a c9 78 39 1d 4c 20 3b
       0.0003077049 4.141799e-05 0.00023726109 0.002445943
0003f0 00 00 00 00 08 24 41 3a 96 55 12 3b 31 82 d4 38
       0.0 0.0007367735 0.0022328845 0.00010133198

exp_avg f4 [64]
000000 91 58 b0 bb 6b 04 c7 bb c0 36 7a bb e6 5f 92 bc
       -0.0053816517 -0.0060735247 -0.0038179606 -0.017867994
000010 8f d9 2d bc 56 03 92 b9 72 77 f2 ba ce a7 2e ba
       -0.010610952 -0.00027849776 -0.0018498732 -0.0006662578
000020 55 60 b5 39 eb 7f 08 bc fa 1e 12 bc e8 39 94 3a
       0.00034594783 -0.008331279 -0.008918518 0.0011308761
000030 d0 f4 b4 b9 c6 e6 96 bb 56 a0 99 ba 68 9d 19 bc
       -0.00034514675 -0.004605147 -0.0011720757 -0.0093759075
000040 1a 38 78 3b 49 03 b8 bc 6d ee 3a bb f4 2a 84 3a
       0.0037875236 -0.022462504 -0.002852346 0.0010083602
000050 3c 84 1d 39 b3 a9 23 3c dc e1 0b bb 51 0f 1c ba
       0.00015021948 0.00998919 -0.002134434 -0.000595321
000060 bd 0c 83 bb 46 a9 f5 bb eb 92 88 ba 51 82 04 bb
       -0.0039993213 -0.0074969856 -0.0010419762 -0.0020219276
000070 67 67 fa ba b4 b7 bc 3a 45 6d 27 bc d0 81 ef bb
       -0.0019104303 0.001439801 -0.010218923 -0.007309176
000080 08 bc 4a bb 8c 1d 36 3a 84 20 a5 ba 20 b4 57 bb
       -0.003093483 0.0006947152 -0.0012598191 -0.003291376
000090 97 4a fd 3a 53 e5 90 3a 93 f1 96 3a e5 11 1b bc
       0.0019324598 0.0011054672 0.0011516087 -0.009464716
0000a0 75 ab e4 bb 1f 13 38 3b 49 ac 12 3b 47 3e d9 b9
       -0.006978447 0.002808757 0.0022380522 -0.00041435866
0000b0 3f c3 65 bb 23 5e 46 bb 7b 9a 9d ba ec d2 b8 bb
       -0.0035059003 -0.0030268512 -0.0012024188 -0.005640378
0000c0 20 55 95 bc be b4 1e 3c 84 35 6a 3c 67 c7 c1 bb
       -0.018229067 0.009686647 0.014294986 -0.005913663
0000d0 52 bd f2 3a 87 35 1e 3a 68 71 2b bc 0e 78 99 38
       0.0018519557 0.0006035198 -0.01046405 7.3179704e-05
0000e0 59 9d 1d bb 67 e5 56 bb 9e e8 24 3a 7f 49 9e bb
       -0.0024050085 -0.0032790543 0.0006290766 -0.0048305388
0000f0 41 ed d1 bb 1d e2 3f bc c0 2d 1a bc 28 64 c0 3b
       -0.0064064567 -0.011711624 -0.009410322 0.0058713146

exp_avg_sq f4 [64]
000000 f2 a8 eb 38 d7 42 8a 38 bf 5d ba 36 b9 fe 3f 38
       0.00011237142 6.592803e-05 5.5541454e-06 4.5775178e-05
000010 e2 f2 f4 37 52 b0 36 36 2b d6 51 36 59 4d 64 37
       2.9200168e-05 2.7222745e-06 3.126809e-06 1.3607868e-05
000020 06 4d 53 36 bf 1f d3 38 22 c3 41 38 93 76 2c 38
       3.1486284e-06 0.00010067177 4.6196517e-05 4.1118426e-05
000030 d3 6a 87 37 eb 81 12 38 07 71 aa 36 54 f2 8b 38
       1.6142998e-05 3.4930108e-05 5.079553e-06 6.6731736e-05
000040 44 6d 33 38 43 45 39 39 54 ea 28 37 fd 3e 4f 37
       4.2778687e-05 0.00017668777 1.0068139e-05 1.2352827e-05
000050 16 e3 02 35 a0 22 d6 38 ce 6f cd 37 f9 e6 23 36
       4.875923e-07 0.000102107646 2.4489967e-05 2.4423337e-06
000060 a6 84 9c 37 35 a8 37 38 e7 a9 04 36 20 7f 96 38
       1.8658418e-05 4.3787255e-05 1.976843e-06 7.176236e-05
000070 f1 44 64 39 77 ce 87 36 47 77 78 37 a7 ac 46 38
       0.00021769457 4.047349e-06 1.4809723e-05 4.7367674e-05
000080 3b 2a 91 36 ef 62 a5 36 97 65 89 37 ba f5 62 38
       4.326253e-06 4.9289006e-06 1.637898e-05 5.411145e-05
000090 d6 22 3c 39 34 32 b9 35 72 53 47 36 fd c7 ea 38
       0.00017942055 1.3798185e-06 2.9701882e-06 0.0001119524
0000a0 f2 2e 56 38 ca d5 ae 36 9a 2e 18 37 66 6d 68 37
       5.1065297e-05 5.2104924e-06 9.070756e-06 1.3853749e-05
0000b0 19 97 9f 38 d7 e0 1f 37 0c 99 ab 37 54 36 5d 38
       7.609855e-05 9.529488e-06 2.0456057e-05 5.2741103e-05
0000c0 e9 3f 31 39 28 bd 80 38 20 a0 8b 39 fc d6 82 37
       0.00016903844 6.138749e-05 0.00026631448 1.5597318e-05
0000d0 ac 84 99 36 4b 8d 3b 36 d4 1a 60 38 c8 6c 50 35
       4.5752004e-06 2.7947415e-06 5.3430747e-05 7.7644336e-07
0000e0 3c 58 b6 37 95 56 1e 37 21 f7 47 36 f2 f6 cb 38
       2.1737178e-05 9.437693e-06 2.9797159e-06 9.7257915e-05
0000f0 be eb 63 38 a9 a2 83 38 17 6e 04 38 1f 29 07 39
       5.434057e-05 6.2768646e-05 3.157378e-05 0.00012889922

exp_avg f4 [32, 64]
000000 6c 41 79 34 a3 fb 11 b4 4c 32 3b 35 8b aa 84 33
       2.3213732e-07 -1.3595722e-07 6.973612e-07 6.1777506e-08
000010 3c 48 e6 32 17 3d a3 b3 a0 a0 a7 33 e9 a0 64 b4
       2.6808372e-08 -7.601391e-08 7.805761e-08 -2.1292693e-07
000020 17 9d 85 33 05 a5 22 34 23 92 f0 33 de 56 47 35
       6.2218696e-08 1.514746e-07 1.1202453e-07 7.4259685e-07
000030 75 34 77 33 e1 57 fd b5 51 73 d2 b2 ee c1 b6 33
       5.755688e-08 -1.8875545e-06 -2.4499657e-08 8.510311e-08
000040 a5 16 0d b5 b9 2a a0 34 10 3a 72 32 8b 7a 37 35
       -5.2559545e-07 2.9833407e-07 1.4099456e-08 6.8351136e-07
000050 82 15 0d 28 d7 f2 17 b4 39 2a 7e 27 af 59 3c 35
       7.831736e-15 -1.4151315e-07 3.527247e-15 7.0165964e-07
000060 7a 5b fe 32 4a 68 2d 32 8e 5c 8d 34 9f 17 2d 35
       2.961109e-08 1.0093638e-08 2.633064e-07 6.4481895e-07
000070 2c 92 12 34 6d 4f f3 b3 8c 13 b6 b3 91 cd 42 b4
       1.3650487e-07 -1.1330017e-07 -8.478591e-08 -1.8142443e-07
000080 61 8c cf 32 cc e8 ba 28 68 7c 92 33 45 b3 d8 b4
       2.4161809e-08 2.0751108e-14 6.821284e-08 -4.036357e-07
000090 67 34 d7 33 53 74 fb 31 d9 7a f7 32 52 e3 9f 32
       1.00212496e-07 7.318286e-09 2.881045e-08 1.861341e-08
0000a0 fb ea cd b4 52 04 c0 33 66 3d 22 34 9d d2 bb b4
       -3.8355196e-07 8.9414826e-08 1.5109762e-07 -3.4984706e-07
0000b0 3f 61 ac 32 eb f7 88 34 6d cb f9 34 26 ad 27 35
       2.0067658e-08 2.5512358e-07 4.6527876e-07 6.246431e-07
0000c0 32 f6 8a 32 e8 69 22 34 7d f7 b7 b4 cd f1 ab b2
       1.6177271e-08 1.5125954e-07 -3.4266478e-07 -2.0016978e-08
0000d0 74 5c 16 33 0b e3 90 b4 31 6f 38 34 af f1 22 29
       3.5008682e-08 -2.6987286e-07 1.7176787e-07 3.6180853e-14
0000e0 1f 86 49 33 c7 79 81 b5 5e 0f c1 2e 38 74 7d b4
       4.6920942e-08 -9.646691e-07 8.7793536e-11 -2.3604741e-07
0000f0 f1 80 82 b4 85 51 9e 29 67 99 a4 34 38 e7 57 35
       -2.4308204e-07 7.030751e-14 3.0658995e-07 8.043021e-07
000100 34 21 bd 36 7c 51 05 b5 0b e8 90 39 0c a1 b2 37
       5.6365043e-06 -4.9664936e-07 0.00027638706 2.1294247e-05
000110 8e 7f 38 3a e4 f1 83 39 bf 13 93 39 02 18 12 ae
       0.000703805 0.0002516649 0.00028052737 -3.321788e-11
000120 38 ca ae 36 72 d9 e6 36 fe 9d e3 38 65 67 82 38
       5.2091455e-06 6.879848e-06 0.00010853632 6.218142e-05
000130 ae db 4a 3a 09 77 e6 37 53 d2 b7 36 98 ac 98 39
       0.00077384233 2.7473567e-05 5.47831e-06 0.00029120292
000140 79 28 4e b0 4d b6 81 37 53 96 dd 37 54 9e a3 b5
       -7.499988e-10 1.5462889e-05 2.6415253e-05 -1.2190526e-06
000150 fe 08 7a 37 28 fc 22 30 92 82 63 38 67 fc 91 b5
       1.4903255e-05 5.929359e-10 5.424262e-05 -1.0876801e-06
000160 a1 f7 10 3a 6b 77 32 3a 66 39 56 39 78 2a 17 36
       0.00055300636 0.0006807956 0.00020430013 2.2525473e-06
000170 28 5f e3 37 ee 01 ed b5 51 81 10 36 53 85 5b 37
       2.710482e-05 -1.7658438e-06 2.1532944e-06 1.3084459e-05
000180 04 62 35 3a 3d fb fb b6 c7 4f 11 38 9d f6 50 b4
       0.00069192075 -7.509631e-06 3.4644992e-05 -1.9461227e-07
000190 a3 7f 88 37 aa 86 06 b6 bb 29 85 38 46 10 6f 36
       1.6271899e-05 -2.004594e-06 6.349707e-05 3.5623248e-06
0001a0 ee ec 0a 3a 45 bb 98 3a 92 31 30 3a 15 6c ee 37
       0.00052995875 0.001165249 0.0006721254 2.842214e-05
0001b0 13 f9 73 37 61 1e 81 3a 8d c0 58 37 5d 2a d6 36
       1.4541921e-05 0.0009850973 1.2919435e-05 6.3826287e-06
0001c0 c3 30 22 b4 8d 42 d2 39 93 82 98 36 88 f7 9c 38
       -1.5105165e-07 0.00040103905 4.545154e-06 7.484766e-05
0001d0 ae 29 66 36 db 98 d1 36 f2 b0 93 39 a5 6f ee 3a
       3.4296932e-06 6.24648e-06 0.0002816986 0.0018191232
0001e0 a6 30 55 39 46 d4 24 31 99 bd cf 3a 02 01 27 b6
       0.00020331386 2.3985804e-09 0.0015849351 -2.4885526e-06
0001f0 98 f6 f3 37 0d d5 2f 39 28 a7 1b 38 93 3f 20 b6
       2.9082687e-05 0.00016768668 3.7110556e-05 -2.3878863e-06
000200 11 78 48 38 ca 24 80 b8 26 11 8d b9 35 72 37 39
       4.7795536e-05 -6.110368e-05 -0.00026906392 0.00017494785
000210 9e 43 24 39 d6 6b c5 b8 03 fa 3a 3a ff dd 8d 2c
       0.00015665448 -9.413778e-05 0.00071325916 4.0321075e-12
000220 8b 2e 1c b6 f9 e4 20 38 40 a9 f3 b9 6d 23 f2 b8
       -2.3272903e-06 3.836022e-05 -0.00046474673 -0.00011546058
000230 ca 28 74 3a 28 8f cf 39 59 23 69 b8 65 44 49 39
       0.00093139394 0.00039588776 -5.558445e-05 0.00019194333
000240 13 5d f0 b7 a5 55 41 b7 32 6e d1 b8 a8 ef 2d b8
       -2.865357e-05 -1.1523637e-05 -9.986422e-05 -4.146961e-05
000250 a2 9a 08 38 50 f3 5b b7 f0 c4 0c 38 e1 6b 4f b7
       3.256894e-05 -1.3110068e-05 3.3562013e-05 -1.2363279e-05
000260 f8 45 e4 b9 22 ca db b9 78 78 cf b8 59 64 a7 b7
       -0.0004353968 -0.00041921536 -9.892968e-05 -1.995468e-05
000270 57 12 20 38 72 70 1a b9 f5 31 da 38 a0 60 bf 39
       3.8164053e-05 -0.00014728474 0.00010404355 0.0003650235
000280 3f cd 82 b8 9b fd 54 38 ed a8 af 38 a7 5f 76 b8
       -6.237113e-05 5.0780927e-05 8.376115e-05 -5.8740054e-05
000290 d6 c3 02 b8 c7 9f e7 b8 9c d1 60 3a 25 f4 ad 37
       -3.11768e-05 -0.00011044699 0.0008576156 2.0736896e-05
0002a0 36 09 08 ba bf 3a 9b 3a f0 bc 84 37 c4 88 0a b9
       -0.0005189361 0.0011843069 1.5823607e-05 -0.00013211655
0002b0 b7 8b 3b 38 23 de 9f ba 68 68 4c b8 e9 6c a8 38
       4.4714394e-05 -0.0012196939 -4.8734626e-05 8.03115e-05
0002c0 e1 b8 c6 37 94 31 a0 b9 91 82 58 b6 50 c1 2d 3a
       2.368953e-05 -0.00030554517 -3.2262508e-06 0.0006628232
0002d0 c0 36 27 37 05 e3 a3 b7 f1 66 9e 39 48 d1 e5 b9
       9.966723e-06 -1.9536828e-05 0.00030212806 -0.0004383421
0002e0 dd 8f 2b b9 e4 42 28 b9 80 54 83 b9 88 e2 09 38
       -0.00016361424 -0.00016046647 -0.00025049224 3.287432e-05
0002f0 8e fd 12 39 dc 84 72 b9 17 0f 73 b7 25 51 d2 b7
       0.00014018102 -0.00023128412 -1.4487442e-05 -2.5071737e-05
000300 1d 48 18 3b ab f8 60 ba 20 4b b5 3b 91 84 30 39
       0.0023236342 -0.0008581976 0.0055326372 0.00016834053
000310 ab 8e b5 ba f8 18 8e 39 c8 60 49 3b c1 06 bf 36
       -0.0013851722 0.00027102954 0.0030727852 5.69303e-06
000320 c5 23 80 3b d7 4a f3 3a b3 90 08 ba ac 60 2a 3c
       0.003910514 0.0018561733 -0.000520955 0.010399025
000330 a8 48 44 3b ae 7b 9e 3b 7d 11 79 3b e8 0f ba 3b
       0.0029950533 0.004836521 0.0038004809 0.0056781657
000340 03 b4 c0 b9 2d 0e f5 3a 40 8d 91 3b cd 16 97 bb
       -0.00036755213 0.0018696241 0.004441887 -0.0046108724
000350 d3 3a 2f 3b cd 35 53 3b 5b b1 3c 3c 8f e2 04 ba
       0.0026737943 0.0032228113 0.011516894 -0.000506916
000360 cb 5c fc 3b dd c5 b9 3a 30 fd 76 3a b8 18 e6 3a
       0.0077014915 0.0014173348 0.0009421883 0.0017554974
000370 27 c4 3c b9 62 5f 91 3b 62 91 59 3b 68 1a b8 3b
       -0.0001800215 0.0044364193 0.0033198227 0.0056183822
000380 f3 5d 1a 3a 94 25 91 bb 2c 02 6e 39 84 b4 40 3b
       0.00058886333 -0.0044295285 0.00022698258 0.002940447
000390 66 55 3f 3a 30 16 97 3a f8 56 37 3b 48 9d bd b7
       0.0007298797 0.0011526998 0.0027975421 -2.2603796e-05
0003a0 64 59 b9 b9 4f d0 35 3c 72 c4 90 3b 41 7d a3 3b
       -0.0003535255 0.011097028 0.0044179494 0.0049892967
0003b0 80 15 b6 3a 8c 1d a3 3a 06 f7 3e 3b 48 46 cc 3b
       0.0013891906 0.0012444719 0.0029138937 0.006233964
0003c0 9c 41 5d b9 68 e5 8c ba 21 ed 92 b9 38 b5 55 3b
       -0.00021100644 -0.0010749521 -0.00028023965 0.0032609235
0003d0 0f ca c0 39 be 12 60 37 f9 f1 2c 3b b6 15 01 3b
       0.0003677164 1.3355804e-05 0.0026389344 0.0019696779
0003e0 4b da 0a 3b ae 7f 88 38 27 8d 3c 3b 78 ee 84 3b
       0.0021187242 6.5087675e-05 0.0028770657 0.004056748
0003f0 ca ea 80 3a 79 30 ee 39 64 7a 4f 39 32 e3 6e b9
       0.0009835598 0.00045431012 0.00019786652 -0.00022782086
