lightning_logs/version_24/checkpoints/epoch=49-step=150.ckpt (torch, 121435 bytes, 30 tensors)

gru.weight_ih_l0 f4 [96, 15]
00000000: ae9e 10be 1814 b7bd b161 1bbe d8a8 f83d
00000010: 56a0 503e 67e8 a63c 2f5b b7bc d95c b13d
00000020: 7e10 17bc 2cf1 ce3d 1fde cc3c 5cbe 10be
00000030: f365 c13d 7266 45ba 0f6a 07be 252d 343d
00000040: 4bd0 1a3e 427d 62bd 5d17 713d f5a3 833d
00000050: 28fa b9bd 87cc 24be 990a 083d 1849 0cbd
00000060: 3bda 0b3e 9899 fbbd cb87 b93d d376 babd
00000070: 8a30 13bd 9373 1e3e ee1b 0bbe f750 db3d
00000080: 193d d43d ab69 bcbc 240b ae3c 5d1a 1bbe
00000090: 111b 153e 32a8 203e 9525 a23d 727c 03be
000000a0: 2edb 633e bb93 d0bc 86ba bfbd f7a1 813c
000000b0: 82a4 8cbd c49e 1f3e 1fce bfbb 628e 1fbd
000000c0: 0163 ab3d 7f14 4c3d bbff ab3d 5815 323d
000000d0: 9786 56be fc5f 15be 0236 adbd ba83 ecbd
000000e0: 4a6e 393e 18da a5bc 0b1b f5bb 21fc 60be
000000f0: f03c 0dbe 8645 993d dff4 cabd e403 d3bd
00000100: 50cc 03be 71bd 80bd 857e 1e3e ff14 253e
00000110: ee82 583e 3c41 5c3d 4132 1fbe f29b 8b3d
00000120: 6653 30be f081 cfbd 9803 23bd 91c5 93ba
00000130: 01c5 6c3d 6834 efbd ea23 663c a4c7 853e
00000140: 7c74 17be 2880 99bd 96ef afbd 94ef 58be
00000150: 68db a83c dfd9 503e c9c0 733d fd17 933d
00000160: c393 053e fed6 fdbd 9fd8 193e 8047 1b3d
00000170: 6fbb b3bd 75a5 153e cce5 92be bc65 c63d
00000180: c5f5 f03d 3704 1d3e a86d 923d 90a3 cabd
00000190: 3601 32be 29ab c8bd ea31 28be 537d 253d
000001a0: e346 a53d 2b87 1c3e 50ef 5d3e e889 d0bd
000001b0: 4e9f c3bd a8c4 d4bd c4e6 1fbe df55 df3c
000001c0: 9206 fdbd 3d16 d93c c869 913d 0ac6 efbd
000001d0: aebd 94bd 4bbd 093d 39a5 483d 28d0 e0bc
000001e0: a969 843d d78e a23a bc9a 7dbd 590d 3c3e
000001f0: e3e5 69be 5e42 a3bd c482 fc3d 3e6c a4bd
00000200: c498 21be 42a7 13be 9f68 20be c5b8 c0bd
00000210: 93d1 94bd 10a3 04be 3e2f d73d c491 e5bc
00000220: d57b 3abc e5ff aabc 84ec 3a3d bf21 27be
00000230: 41f1 cfbd 7b60 1e3d 35bb 67bd 6702 9c3d
00000240: 80b9 f93d 2f14 143e deaa bb3d c3f9 cc3d
00000250: b2f1 b5bd 9139 753d b350 c1bc 017f 9dbd
00000260: 686e b53d 0788 973c f447 9a3d 187c 27bd
00000270: f2b9 583e 528f bc3d 5860 3ebd 5d45 52bd
00000280: 16d5 0d3e 26df 41bc a884 273d 0c5d 0b3e
00000290: 8e16 8bbd fbad bb3d 90a6 c6bd f995 1b3e
000002a0: 959d 623d 6fb4 1dbe 8c53 343e 4a88 bebd
000002b0: 8e17 ffbc 5156 4cbc 3137 18bd 978c 56bd
000002c0: 8745 6bbd 6a8e 873c ac9d 053e c140 98bd
000002d0: 1125 353e 191c 32bc 90ee 8ebd 78aa 14bd
000002e0: 6bf1 e8bd ed6a 273e 396d a8bc a08c 19be
000002f0: 1df2 163e 0f65 273e 1d3b ffbd bdcf f1bd
00000300: c268 7dbd 824f a7bd aa53 c93d e146 133e
00000310: dbe9 36be 2e20 fa3d 10c6 173e 2a6b 30be
00000320: 1c14 023d 3546 a4bd 6c39 163e 2fdb 523e
00000330: 5a55 203e 7f39 9a3d b2af ebbd a44c 273e
00000340: fb35 28ba 080f c7bd 9f3c dd3d cd45 5d3d
00000350: a345 5d3c 2b8f 133e fb2b 423e a420 da3d
00000360: 0716 45be 23c6 2bbe 219c 913b e522 4a3e
00000370: f0d5 a43d fa45 4dbd d107 303e 7686 4abe
00000380: 5c2d 84bc 980d d53d 0124 25be a353 273e
00000390: 8168 eabd 2ea7 08be 8d14 813e 5936 203e
000003a0: a762 1cbd eeb4 833d 6922 293e a664 f83d
000003b0: 71d9 703c e10b 95bd 3d41 c03d b525 b8bd
000003c0: 10f9 a7bc d98a b1bc d5fd ab3d 81be 7ebb
000003d0: 10c8 f7bc a32b d43d 1760 9b3d a03e 14bd
000003e0: d77d 933d 1f66 debd b516 1cbe b730 873d
000003f0: c2f4 91bc f9c1 a33d b753 83bd d2e2 fabd
-0.14123031 -0.089393795 -0.15173985 0.121415794 0.20373663 0.02037449 -0.022382347 0.086602874
-0.009220241 0.10104594 0.02500826 -0.14135116 0.094432734 -0.0007530219 -0.13224052 0.043988366
0.1511852 -0.055295236 0.05886017 0.06427757 -0.09080917 -0.16093646 0.03321323 -0.034249395
0.13657467 -0.12285155 0.090591036 -0.09104695 -0.035934962 0.15473776 -0.13584873 0.10708802
0.10363216 -0.022999605 0.021245547 -0.15146776 0.14561106 0.15689161 0.079173245 -0.12840441
0.22251579 -0.025461068 -0.093617484 0.015824301 -0.06867315 0.15587908 -0.005853429 -0.038954146
0.08368493 0.049824234 0.08398386 0.043477386 -0.2094978 -0.14587396 -0.08457567 -0.11548562
0.18108478 -0.020245597 -0.0074800304 -0.2197118 -0.13792777 0.07483964 -0.09909987 -0.103034765
-0.12870908 -0.06286133 0.15477951 0.1612129 0.21143696 0.05377315 -0.15546514 0.068168536
-0.17219314 -0.101322055 -0.03979835 -0.0011274089 0.057805065 -0.116799176 0.0140466485 0.26128876
-0.14790529 -0.07495147 -0.08590619 -0.21185142 0.020612434 0.20395611 0.059510026 0.0718231
0.13044648 -0.12394522 0.1502404 0.037909985 -0.087759845 0.14613898 -0.28690946 0.09687373
0.11765627 0.15333639 0.071498215 -0.09894478 -0.17383274 -0.09798271 -0.1642529 0.04040272
0.08070161 0.15285937 0.21673322 -0.101825535 -0.09551869 -0.10389072 -0.15615374 0.027262626
-0.12354769 0.026499862 0.07100254 -0.11707695 -0.07262741 0.03362779 0.048985694 -0.027443007
0.064654656 0.0012402189 -0.061915144 0.18364467 -0.22841601 -0.07971643 0.12329629 -0.08028458
-0.15780932 -0.14419273 -0.1566491 -0.09410242 -0.072665356 -0.12952828 0.105070576 -0.028023608
-0.011382063 -0.020873973 0.045635715 -0.16321467 -0.101534374 0.03866623 -0.05657502 0.07617646
0.121935844 0.14460824 0.0916345 0.10008576 -0.0888399 0.059869353 -0.02359805 -0.0769024
0.08858949 0.01849748 0.07533255 -0.04088983 0.21164683 0.09207024 -0.0464786 -0.05133568
0.13850817 -0.011832988 0.040897995 0.13609713 -0.06791411 0.091640435 -0.09699738 0.15193929
0.055326063 -0.15400861 0.17609996 -0.09303339 -0.031139161 -0.012471751 -0.03716201 -0.05238017
-0.057439353 0.0165474 0.13048428 -0.07434226 0.17689921 -0.010870957 -0.06979096 -0.036295384
-0.11374172 0.16349383 -0.020559894 -0.1499505 0.14740796 0.16347145 -0.12462447 -0.11807201
-0.061867483 -0.08169462 0.09830411 0.14382507 -0.17862646 0.12213169 0.14821649 -0.1722838
0.03175746 -0.080212034 0.14670342 0.20591424 0.15657559 0.07530498 -0.115081206 0.1633783
-0.0006416735 -0.09719664 0.10802578 0.054021645 0.013505372 0.14410083 0.1896209 0.10650757
-0.19246684 -0.16774802 0.004443661 0.19739874 0.08048618 -0.050115563 0.17190482 -0.19777855
-0.01613491 0.104029834 -0.16127016 0.16340499 -0.11445714 -0.13345024 0.25210992 0.15645732
-0.03818002 0.06430994 0.16517033 0.12128572 0.01470028 -0.07277656 0.09387443 -0.08991567
-0.020504504 -0.021672653 0.08398024 -0.0038870873 -0.030246764 0.103598855 0.07586687 -0.036192536
0.072017364 -0.10859322 -0.15243037 0.066010885 -0.017816905 0.07995982 -0.06412452 -0.12250294

gru.weight_hh_l0 f4 [96, 32]
00000000: 885a 223e 170d 89bc 8a08 fd3d c653 ce3d
00000010: 8185 1fbd f1eb b3bd 0a7c 603e b828 fdbd
00000020: be69 033e 9c7c 41be 21d3 66bd dda8 2cbe
00000030: 15f0 da3c 1544 39be ca02 103d f379 91bc
00000040: 42b6 52bc 4896 6cba f271 5dbe b39b 66bd
00000050: 1bb0 b1bd 7499 9d3d e540 c8bd c9da 203e
00000060: c002 1bbd bdf7 f93b d42a 003e c22f 603e
00000070: 50ee 613d d854 383d c53a 13be 3635 f1bd
00000080: 5f45 4c3c 4466 34bc 31a6 56bd 3cdc e13c
00000090: 0619 003e 2caf 42be 816e 163c 8da8 543d
000000a0: ad94 13be 7b25 bb3d 8140 213e 1cfb 2dbd
000000b0: cb5e 033d ba63 d23d 68ab e83d fded 22bc
000000c0: fb05 a03d c3c4 a43d 3861 943d 802b 1f3e
000000d0: 2d71 123e 26a1 0ebe 04b0 0dbe 6167 b53d
000000e0: d141 3b3e 5ced d63b 417f 2abe 4ed5 d4bd
000000f0: 8b75 efbd 4ccc 12be 95d5 e53c 1115 99bd
00000100: f3bd cabd cb02 8cbd 0a12 a23d f3d5 bdbd
00000110: 65c3 e3bd 1698 29bb 910e 22bd 7543 39be
00000120: 6443 863d 61c8 9c3d 9f29 623d e241 2c3e
00000130: 83d3 613c b436 513d 1e8f adbc 5fb8 5b3d
00000140: a74e 50bd e30b 1a3d e588 23be b792 a83d
00000150: b365 013d 36d9 0fbe 4ade c43d 685d 9bbd
00000160: c48f 2cbe 36a9 2ebd 06a1 3abd 9cd1 343e
00000170: 49d7 1e3e 2764 d43d a56b d93d f567 e53d
00000180: 9925 f2bc 0b9a acbd 9c17 f4bd fe48 6c3c
00000190: 9c6c 0a3e f426 6bbe 0dd7 05bd 1bfe 813d
000001a0: 3db1 c33c 57fe 92bd 8a78 873d 7902 1dbd
000001b0: f10c 05be 5f4e d03d 6b86 893d 76b8 95bd
000001c0: fb51 2fbe 0be2 c53d 60a0 223e 8f25 673d
000001d0: 1607 05be 352d e23d f73c bbbc c860 44bd
000001e0: 2ec0 6f3e 9139 c0bd 1bfb 3ebe 275b 3bbd
000001f0: b525 823c d8ba ae3c bcd1 ae3d 587b bc3b
00000200: b1ff 4cbe 779c 55bc 9119 2d3d f2e1 6f3d
00000210: 02c8 aabd 604c 6fbd 4895 503e 6d2a 993d
00000220: cbee 403d 1591 59bb 8e3b 96bd ec48 0fbd
00000230: 21c0 b6bc 237b 86bd 29e2 033a cf65 2fbc
00000240: 6ca4 f53c cb54 e8bd 0e44 68bd 6c0a aebd
00000250: 71dc 383e b070 b9bd 368e 313e 6673 a63d
00000260: 5182 8d3d 18e6 c73c 52de 77bd f898 b83b
00000270: 28d4 663c 6d58 c3bd 9829 e83c ef17 eebc
00000280: e5c2 fbbd 33a3 a3bd fffc 923e 7ed3 173e
00000290: 32ba 123e 86a7 a7bc 981f 213e 25e2 c0bd
000002a0: 4a47 3fbd ef00 0fbd 035a be3d f3a7 2d3e
000002b0: 9cce 85bd 14bc 713e 709b 003e 029d 093e
000002c0: 1bb0 c53c 2a99 0f3e eb65 3ebe b8d7 8a3d
000002d0: 749a 163e dad3 25be 9573 963c 687f 2bbb
000002e0: 6d11 77bd d434 333e ed9d 9d3c 404a 7a3d
000002f0: d7f0 663d b8ec 013e 6bcb 3fbc 5bdf 63bd
00000300: 3e3a afbd b101 143e 7f85 03be 66a3 0b3e
00000310: 2753 133e 972e e1bd 866c 54bd a690 b93b
00000320: fefc 0f3e 9e5a 9ebd 45be f4bd ff02 1f3e
00000330: cc2b c03d d92e 113e 20af c43c 1b76 2fbe
00000340: 60c4 063c a22d 943c 5814 35bd dd42 b03d
00000350: d574 fe3c ab2f 563e e5b3 043e 30fa 0b3e
00000360: 2009 13be 2c95 e23d 9062 b2bc e080 1fbd
00000370: d626 4c3a 2251 3b3d cf12 1e3d 6bd5 b1bd
00000380: d1f3 1ebe e71e d8bd 7193 10bd ab74 923d
00000390: 1bff 273e 80fc f33d 1434 aebb 3a32 fabc
000003a0: 48f6 1fbe 46f1 9dbd 0344 b8bd 77f7 1a3d
000003b0: 201a 14be c622 cb3d dc2b 36bd c3f2 94bc
000003c0: 2981 a93d 6d82 013d 45d4 a93d 778d c2bd
000003d0: 64db b83c 1a35 91bd f5a9 383e d622 ac3d
000003e0: 0ee0 13bd e2d2 fc3d eeeb dfbd 4a2a 5a3c
000003f0: 449d 90bc 2edc 53bd e9a4 b13d 4f91 953d
0.15854847 -0.016729875 0.12355144 0.10074572 -0.03894568 -0.087852366 0.21922317 -0.12361282
0.12833306 -0.18895191 -0.056353692 -0.16861291 0.026725808 -0.18092377 0.03515891 -0.017758345
-0.012860836 -0.0009025079 -0.21625498 -0.05630083 -0.086761676 0.076952845 -0.09778003 0.1570846
-0.03784442 0.0076284097 0.12516338 0.21893218 0.055158913 0.04500279 -0.14377888 -0.11777727
0.012467711 -0.01101071 -0.052404586 0.027570836 0.12509546 -0.19012135 0.00918162 0.051918555
-0.14412184 0.09138008 0.15747263 -0.042475805 0.032072823 0.102729276 0.11360818 -0.009944436
0.07813641 0.08045342 0.072451055 0.15543938 0.14300986 -0.13928661 -0.13836676 0.088576086
0.18286826 0.006559057 -0.16650106 -0.10392247 -0.116923414 -0.14335746 0.028055945 -0.07474721
-0.09899511 -0.0683647 0.07913597 -0.09269323 -0.11121253 -0.0025878004 -0.039564673 -0.18092139
0.065558225 0.07655407 0.055215474 0.16822007 0.0137833385 0.05107756 -0.021186408 0.053642627
-0.05085626 0.037608992 -0.1597019 0.08231109 0.03159113 -0.14047703 0.09612711 -0.07586175
-0.16851717 -0.04264184 -0.04556372 0.17658085 0.15511812 0.10370665 0.10616235 0.11201469
-0.029558944 -0.08427819 -0.11918566 0.0144217 0.13517994 -0.22964078 -0.03267579 0.06347295
0.023888225 -0.07177418 0.06614788 -0.038332436 -0.12993218 0.10171198 0.06715091 -0.07310574
-0.17121117 0.09662255 0.1588149 0.056432303 -0.12990984 0.11043779 -0.022856219 -0.04794386
0.23413154 -0.0938598 -0.18650477 -0.045741227 0.01588712 0.021329328 0.085360974 0.0057520084
-0.20019414 -0.013037792 0.04226071 0.058565088 -0.0833893 -0.058422446 0.20369446 0.07478795
0.04710273 -0.0033198048 -0.07335578 -0.034981653 -0.022308411 -0.06566455 0.0005030954 -0.010705425
0.029985629 -0.11344298 -0.056705527 -0.084980816 0.18052842 -0.090546966 0.17339405 0.08127479
0.069096215 0.02440171 -0.060514756 0.0056334697 0.014088668 -0.0953835 0.028340146 -0.029064147
-0.122930326 -0.07990112 0.28708646 0.14826772 0.1432884 -0.020465624 0.15734708 -0.09418134
-0.046698846 -0.034913 0.09294512 0.16958599 -0.06533548 0.23606902 0.12559295 0.134388
0.024131825 0.14023271 -0.18593566 0.06779426 0.14707357 -0.16194096 0.01836566 -0.002616847
-0.060319353 0.17500621 0.019240344 0.061105967 0.056382027 0.12687957 -0.0117062135 -0.05563293
-0.08556031 0.1445377 -0.12843893 0.1363655 0.14387189 -0.109952144 -0.05186131 0.0056629954
0.14061353 -0.077321276 -0.119503535 0.15528487 0.093833536 0.14178027 0.024009287 -0.17134897
0.00822553 0.018088166 -0.044208854 0.08606503 0.03106157 0.20916621 0.1295925 0.13669658
-0.1435895 0.110636085 -0.021775514 -0.038941264 0.00077877694 0.04573167 0.038592156 -0.08683284
-0.15522696 -0.10552769 -0.03529686 0.07151159 0.16405909 0.11913395 -0.005316267 -0.030541528
-0.15621293 -0.07712035 -0.08997347 0.037833657 -0.14463091 0.09918742 -0.04447542 -0.018182164
0.082765885 0.031618524 0.0829244 -0.094996385 0.022565551 -0.070902064 0.18033583 0.08405082
-0.036102347 0.1234491 -0.10933672 0.013315747 -0.017653115 -0.05172365 0.08674032 0.07303106

gru.bias_ih_l0 f4 [96]
00000000: 11fa 00bd 0c31 083e 3dce f93d 7663 1b3d
00000010: 0691 023e bf0a a7bd 6039 1e3e bb66 363e
00000020: 7ff3 903c d57c ecbd b581 b9bd 757c 873d
00000030: 9cac 423e 9789 ccbd e0b6 b83d 3ce7 183e
00000040: 8915 913d 43cd 42bd bb6b 9a3d bdb8 b03d
00000050: f765 d33d b40c f53d de1a 73bc 04bc 023e
00000060: 8e04 25bd 7cee 19bd c4b6 b53d 3ca5 08be
00000070: 3556 073e 262d f83d 63dc cebd e685 e4bd
00000080: 534b ee3d ba1f 84bd 8c94 423e f415 493e
00000090: 94bd 163e 6fdf c53d 5a7a 30bd c4f6 1f3e
000000a0: 8d55 b93d 5607 b23c b490 2e3e a9ea 58be
000000b0: 475f cb3d 1858 3abd e5a2 b83d d4c7 243e
000000c0: a8aa 1cbe d42a c7bd 699d 2c3e 5e24 06be
000000d0: 7d88 283e 2ec1 bf3d 05d5 1e3e 5c13 903e
000000e0: 21c9 433e 5f33 de3c 0694 84bd 7d2d 523d
000000f0: b722 1a3e d61f df3c ea13 bebc 6449 30be
00000100: e3ba 4bbe 26ce 52be e32f cc3d 210c 76bd
00000110: 6731 cfbc 4eb7 24be 9693 e7bd ecbf 2bbe
00000120: 152f 253e 6b11 af3d 3fbb 46be afac a23d
00000130: 7c6c 51be 1adb 6d3e a4c9 583d 50d8 c0bd
00000140: 5218 5a3e 75d4 433e 29d5 f03d 4d08 3ebd
00000150: 5b36 4b3c 92f9 ba3d c472 4ebb 3bcc 4d3e
00000160: ca41 423e 2db2 863d db69 7fba 2f50 a0bd
00000170: 2125 003c eeee 2c3e 2a51 28be 5c97 1e3e
-0.031488482 0.1329996 0.1219754 0.03793665 0.12750635 -0.081563465 0.15451574 0.17812626
0.017694233 -0.11547247 -0.09057943 0.06615535 0.19011158 -0.09987181 0.09019256 0.14931959
0.07084186 -0.047559034 0.07540079 0.08628986 0.103221826 0.119653136 -0.014837949 0.12767035
-0.040287547 -0.037580952 0.088727504 -0.13344282 0.13216479 0.121179864 -0.10100629 -0.111583516
0.11635461 -0.06451364 0.19001979 0.1963728 0.14720756 0.09661757 -0.043085434 0.15621477
0.09049521 0.021732014 0.17047387 -0.21183266 0.09930282 -0.04549417 0.09015445 0.16091853
-0.15299475 -0.09724966 0.16856922 -0.1309981 0.16458316 0.09363018 0.15510948 0.2813977
0.19119693 0.027124105 -0.06473546 0.051312912 0.15052305 0.02723686 -0.023202855 -0.17215496
-0.1989551 -0.20586452 0.09970071 -0.06007016 -0.025292112 -0.1608555 -0.11307447 -0.16772431
0.16131242 0.08548244 -0.19407366 0.07943093 -0.2045154 0.23228112 0.052926674 -0.09416258
0.2129834 0.19124015 0.11759407 -0.046394635 0.012403096 0.09129633 -0.003150151 0.20097439
0.18970409 0.06576953 -0.0009743252 -0.07827794 0.007821352 0.1688802 -0.16437212 0.15487427

gru.bias_hh_l0 f4 [96]
00000000: 8ff6 10bd 6db4 273e dfd9 4e3e eedd 643d
00000010: c718 633c 2e6a afbd c8ed 2a3e a180 ca3d
00000020: fe2d f63d 7f96 1a3d 1fbe 9b3b 78af 993d
00000030: c44d 1d3e 97de 54bd a36e 473e 97a8 72bd
00000040: 44d9 483e 1bc2 d53c 802e 0a3e 5bf8 033e
00000050: 5de6 77bc baac 6a3d fe7b 3b3e 11a0 eabc
00000060: 23bd 08bd e886 efbd e900 243e dd06 8bbd
00000070: c836 22bd e48d 6e3b b5e3 373d e6fd 2dbc
00000080: 7f47 42be d2fa cdbd abc6 3f3e 4f88 4e3d
00000090: fa75 733e 653f 2dbd 17d9 963d fc55 1f3e
000000a0: a65d fb3d 951f 91bc bd68 6b3e dee5 ee3c
000000b0: 48da 433e 13cf 10bd f96e 9dbd 5b81 c43d
000000c0: e2d9 31be deec 623d ab4d 87bd d23d d63d
000000d0: 7da9 bbbd d7bc be3d 5c5b 1c3e 6a5e 4f3e
000000e0: 4ad0 0bbe 7d07 2e3e d70c ec3c c842 f13d
000000f0: 6903 10bd 978a 1dbe b44d 11bd 82d5 153e
00000100: fc3c 14be df26 e63d 09ba 383e 7050 063e
00000110: eecb bfbd e945 0d3d 2b57 5bbe d7a1 f6bd
00000120: bae5 113e f5e3 853c f5b9 49bc 1354 d13c
00000130: 423d 003c 6fff 73bd 51f2 38be 6a31 01be
00000140: cd44 d6bd 4d51 4d3e 127d ecbc c7bd f5bd
00000150: fd60 c9bc 48aa babd a00c 5d3e 9d8e 2f3e
00000160: d03d ad3d 686f 273e 2518 4d3d 393d 203d
00000170: 0ccb 1a3e abf6 91bc aacd 7f3d 2a39 6abd
-0.035391387 0.1637742 0.20200299 0.05587571 0.013860888 -0.08565174 0.16692269 0.09887815
0.12020491 0.03774118 0.004752889 0.07504171 0.15361696 -0.05197009 0.19475798 -0.05924281
0.1961413 0.026093533 0.13494301 0.12887709 -0.0151306065 0.05729363 0.18309018 -0.028640779
-0.0333835 -0.11695653 0.16015972 -0.067884184 -0.039603025 0.0036400491 0.044894893 -0.010619616
-0.18972586 -0.10057606 0.1872813 0.050422963 0.23775473 -0.042296786 0.07365625 0.15560144
0.122737214 -0.017715255 0.22989173 0.029162344 0.19126236 -0.03535373 -0.07687182 0.09594985
-0.17368272 0.055401675 -0.06606611 0.1046101 -0.09163187 0.09313362 0.15269226 0.2025086
-0.13653675 0.16995044 0.028814716 0.11780316 -0.035159502 -0.15384899 -0.035474494 0.14632228
-0.14476389 0.11237883 0.18039717 0.13116622 -0.093650684 0.0344905 -0.2141997 -0.12042587
0.1424779 0.01634405 -0.012312402 0.025552785 0.007827105 -0.059569772 -0.18061186 -0.12616506
-0.104623415 0.20050545 -0.028868232 -0.11999088 -0.02458238 -0.0911451 0.21586847 0.17144246
0.084590554 0.16351092 0.050071854 0.039120886 0.15116519 -0.017817816 0.062451996 -0.057183422

output_layers.0.weight f4 [64, 32]
00000000: 8d74 4f3d 4235 0fbd 9bcb 133e 932c ce3d
00000010: 6fe5 853d a85b 2a3c ea05 113d 514d e93c
00000020: 7d9e e0bd 2962 5d3d 6806 fcbd 6350 0abe
00000030: b706 2bbe 9e87 513d 60e0 eabd 5b3a c33d
00000040: f6fc 2e3e d91e ab3d 9bc1 423e 478c 2abd
00000050: 8386 233e 103d e2bd a23d 0f3e 0786 763e
00000060: 6bff 5d3c 5b7f 583e 9063 1cbe f38a 18bd
00000070: cbaa cfbb 177b 673d 1e27 5abe 89e4 4a3d
00000080: 7c2c 243e 2c73 57bb 2aeb a2bd 6440 57bc
00000090: a663 67bc dd12 c43d 196a 553e 3562 3b3d
000000a0: 7af2 28be 6cce b0bd f694 ab3d ebb8 ebbd
000000b0: ece4 843d ad16 d73c 12c8 dabc 18f3 ba3d
000000c0: 6b13 143e 6ebe d4bc 6c25 4b3d 656e 343e
000000d0: 4e3f db3d 4d02 2cbe 51bf 24be 9d8d e5bd
000000e0: 68f4 eabd fc62 663e ea9a 0fbe 6f16 ff3d
000000f0: 96cf 263e 1a3a be3d 6a8f 0fbe 9024 453d
00000100: 7905 b7bb 2662 c33b 0d40 6ebd db8e 1abe
00000110: 680a 283e 54de 8bbd 55a8 e3bd bc9e 10be
00000120: 98c0 233c cad7 973d 4022 e6bd 74e5 80bb
00000130: 3329 21be 9cd1 f8bb a080 01be f24a 173c
00000140: 950a cb3d 82a2 f63d eda3 ba3c 88df bf3d
00000150: 2c6d a33d 08a2 a73d b878 fc3d 5945 083e
00000160: 3d2c dd3c ee3c 89bd d5ad 4d3e 6f99 37be
00000170: 1101 c83d 4f8d dbbd b960 483e e6ed a2bd
00000180: 0e17 d3bd 1af8 69bd dcc2 d63d 898a 1d3e
00000190: 5f7f 223e 778d 31be 761b 1cbe 8bb8 8cbd
000001a0: 97d2 ebbd 3dd1 243e 7197 48be 85a4 c53d
000001b0: bbeb eb3d 8497 3fbc a721 0c3e b57d cc3c
000001c0: 4f79 00be 8bc2 263d fd34 1a3e e443 48be
000001d0: 7eeb f53b b6f7 2cbe 831f aa3d 6d31 c63d
000001e0: 8a7c 1c3e c0e8 69bd db20 41be 5c4d e2bc
000001f0: 67fe 98bd 00e7 86bc 6fc4 b2bd 1599 cebd
00000200: 7ccc 07be 32fe ffbd 5669 f2bd 1fe6 29be
00000210: d342 083e be98 ac3d 823d 0fbe da97 bdbd
00000220: 8665 7f3d fb70 143e f25a 23be b812 33be
00000230: b274 9a3d 6a28 b93b 1822 323e bafe 143e
00000240: 138e a3bd 70c3 91bd b8b6 2dbe 00a0 a93d
00000250: 2f2a c2bd 8b4e b6bd 30e5 103d aac2 9a3d
00000260: ea63 93bd 44f3 593d 9e1f 62bd 2a16 7d3d
00000270: 3420 c0bd 688b 14be bb54 fe3d 800d a8bd
00000280: d36a 0f3d c2fa febd 8080 1e3e 8684 bbbd
00000290: 4da6 ab3d cbfd 2b3e b438 f83d e725 e8bd
000002a0: 7777 ed3d 9ca5 443c 7f69 00be 2576 81bd
000002b0: ac25 073d ce47 3e3c 7af1 ed3d 1c45 f1bd
000002c0: 8ae4 21be 6dc3 b03c 77fd 443c 98a1 f53d
000002d0: 6300 933c 6c3c b9bc 9d82 643c 2b34 d53d
000002e0: 0943 c7bd 9d2f e1bd d23b d3bc 55b4 453e
000002f0: 2fe0 0bbe 30cb 423e 47d7 c8bd 9911 383e
00000300: e5fd 3ebd fdaa afbd 3a35 e3bd fa2e 2fbe
00000310: f2f2 013e ba7a 1dbe 3740 9cbc 6c73 d2bd
00000320: b8d8 233e 32d6 2d3e b4b0 9f3d 46b3 91bc
00000330: f8fa ce3c 120e 2f3e 67de 12be 5993 f03d
00000340: 537d bebc 90ff bfbc 32ed 6ebd b2fb f33d
00000350: aa24 24be ec55 3b3d 9d51 8dbd e47a b33c
00000360: 34b0 1c3d f683 ed3d 833f f63d 61c1 a33c
00000370: af68 a1bd 55d8 6e3d 20a4 2b3e 5454 283e
00000380: b5e1 67bd 1fac 533c cb14 13be bdf3 8a3d
00000390: 31b3 bdbb e749 843d fe90 533e db59 7cbd
000003a0: 5249 cb3c d41b d33d 0720 c43d d51f 41be
000003b0: 4fcd 27bb dc7e c13d 7439 edbd 94af f5bd
000003c0: 2f55 2c3d 8d11 f6bd ae36 1cbe a8c7 8a3a
000003d0: a7a5 f6bd 8666 e0bd 5e56 c23d cddd e4bc
000003e0: 8a1f 9c3d 808c 1a3e aa1a 0abe c86d 5c3d
000003f0: ccc2 de3c c637 403d 7c7c 2dbe 21f1 ecbc
0.05064826 -0.0349629 0.14433138 0.100670956 0.065379016 0.010397829 0.03540603 0.02847925
-0.10967729 0.05404869 -0.123059094 -0.13507228 -0.1670178 0.051154725 -0.114685774 0.09532615
0.17088684 0.08355493 0.19019167 -0.041637685 0.15969281 -0.11046803 0.13988355 0.24074565
0.013549666 0.21142332 -0.15272355 -0.037241887 -0.006337499 0.056513872 -0.21303985 0.049534354
0.16032594 -0.0032875044 -0.0795501 -0.0131379105 -0.014122879 0.095739104 0.20841254 0.045747954
-0.16498747 -0.08633122 0.083780214 -0.1150988 0.06488976 0.02625593 -0.02670673 0.09128398
0.14460532 -0.02596971 0.049596235 0.17620237 0.10705434 -0.16797753 -0.16088606 -0.11208651
-0.11472398 0.22498697 -0.14023939 0.12455451 0.16290125 0.09288426 -0.14019552 0.04813057
-0.005585369 0.005962628 -0.058166552 -0.15093558 0.1641022 -0.06829515 -0.11116091 -0.14123052
0.009994648 0.07414205 -0.112370014 -0.003933603 -0.15738373 -0.0075933468 -0.12646723 0.009234177
0.09914128 0.12042715 0.022783244 0.09368807 0.07979807 0.08185202 0.12327713 0.13307704
0.026998634 -0.067010745 0.20085843 -0.17929624 0.097658284 -0.10720312 0.19568147 -0.07955532
-0.10307132 -0.057121374 0.10486385 0.15384878 0.158689 -0.17339121 -0.1524485 -0.06871136
-0.11514776 0.16095443 -0.1958902 0.0965052 0.115195714 -0.011693839 0.13684712 0.024962286
-0.12546276 0.040712874 0.15059276 -0.19557148 0.0075048795 -0.16891369 0.08306792 0.09677396
0.15281883 -0.057106733 -0.1886019 -0.027624778 -0.074703984 -0.016467571 -0.08728873 -0.10087792
-0.13261598 -0.12499656 -0.118364975 -0.1659169 0.13306741 0.08427571 -0.13988307 -0.09257479
0.06235268 0.14496224 -0.15952662 -0.1748761 0.07541789 0.0056505697 0.17395818 0.14550295
-0.07986083 -0.07117355 -0.16964233 0.08282471 -0.09480702 -0.089017 0.03537482 0.075566605
-0.071967915 0.05321051 -0.055205934 0.061788715 -0.09381142 -0.14506304 0.12418505 -0.082057
0.035013985 -0.12450172 0.15478706 -0.09156136 0.08381329 0.16796033 0.1212019 -0.11335354
0.11595052 0.012002375 -0.12540244 -0.063213624 0.03299491 0.011613799 0.116183236 -0.1178076
-0.15809837 0.021577561 0.012023321 0.11993712 0.01794452 -0.02261182 0.013947156 0.10410341
-0.09729583 -0.1099541 -0.02578536 0.19307072 -0.13659738 0.19022822 -0.09806686 0.17975463
-0.04662885 -0.08577535 -0.110941365 -0.17107764 0.12690333 -0.15378848 -0.019073589 -0.10275921
0.1600064 0.1697624 0.07797375 -0.01778568 0.025266156 0.17095211 -0.14342652 0.11746854
-0.023253119 -0.023437291 -0.058331676 0.119132414 -0.16029611 0.04573624 -0.06900332 0.021909185
0.038253978 0.11597435 0.12023833 0.019989671 -0.07881295 0.05831178 0.16761827 0.16438419
-0.056611735 0.012919455 -0.143634 0.06784771 -0.0057891835 0.06459408 0.20660779 -0.06160913
0.024815235 0.10308042 0.09576421 -0.18859799 -0.0025604551 0.09448025 -0.11583224 -0.119963795
0.042073425 -0.12015066 -0.15255234 0.0010588067 -0.120433144 -0.10957055 0.094891295 -0.027937794
0.07623203 0.15092659 -0.13486734 0.053815633 0.027192496 0.04692819 -0.16942018 -0.028923573

output_layers.0.bias f4 [64]
00000000: 6204 943d fdec 263e d8cd 373c c0d6 f7bd
00000010: 67d7 373d 9c22 233e d8b4 c7bd d926 0e3d
00000020: a797 fbbc f759 39be c9bd 003e 61a9 77bd
00000030: bf16 d03d d915 c03c 20b9 903d 2150 003e
00000040: a765 0d3e d85e 5e3d 39af 603d 7d2c e33d
00000050: 8350 013e 56d4 b0b8 0759 fb3d a2e9 4bbd
00000060: cc6e bc3b 4fc8 d13d 7469 393e 1ce9 81bd
00000070: 12fa e53c 2253 37be dd1e 933d 9275 a53d
00000080: fd0b 493e 3b5b d93b 0f07 103e ec14 01be
00000090: cde1 d23d 4757 1d3e 1083 d33d a9cd e93d
000000a0: bad2 c1bd 0378 a4bd da73 77bd a4ba 243e
000000b0: a1f9 ab3d bee7 fc3c 5bf7 dd3d 9fd2 e33d
000000c0: 7a5d 4f3e 4350 f03d 3216 b4bc 90e8 38be
000000d0: 0063 c6bd 2014 813c 45f6 8abd 10c0 bf3c
000000e0: 8c5d 9d3d dfa3 fe3d 7795 233e 7186 5f3d
000000f0: b44b 823d d22e ef3d 39ee 0b3e c3e3 cb3c
0.072273985 0.16301341 0.011218511 -0.12101507 0.044883158 0.15931171 -0.0975129 0.034705017
-0.030711962 -0.18100725 0.12572397 -0.060464267 0.101605885 0.023447918 0.0706656 0.12530567
0.13808309 0.05428967 0.054854605 0.1109247 0.12628369 -8.4318846e-05 0.1227284 -0.049783356
0.0057505127 0.10243284 0.18106633 -0.0634329 0.028073344 -0.17902806 0.07183621 0.080790654
0.1963348 0.00663319 0.14065193 -0.12605637 0.10296974 0.15365325 0.103277326 0.1141618
-0.09464021 -0.08030703 -0.06041322 0.16086823 0.08397222 0.030872222 0.10838195 0.11124157
0.20250502 0.11734059 -0.02198324 -0.18057466 -0.096868515 0.015756667 -0.067852534 0.023407012
0.07683858 0.124336 0.15974985 0.054571573 0.063620955 0.11678852 0.13665093 0.024888879

output_layers.3.weight f4 [32, 64]
00000000: e6a8 c53c 084e d23d 4600 cabd 6936 74bd
00000010: 6f44 27bd 7b5f c93d e7bb d7bd 8d0a b1bc
00000020: f095 84bd 7aac cebd 03e1 083e 9d9f d63d
00000030: faf4 023e 50d6 a73d 7d94 1abd e304 e43b
00000040: a00c 613c 45fb 9e3c e2c4 923d 5712 24bb
00000050: bf28 cc3d 9494 79bd 06bb 51bd e7f1 b0bc
00000060: d54c 0e3d ba97 093e d613 193e 9370 7bbd
00000070: 5cde 0b3e 5b11 91bd 70af b33c 5e34 c4bd
00000080: c81b 23bc 4fb9 053e b4f2 81bd aac1 51bc
00000090: c1a6 aabd d1dd 043e b661 49bd a10f 61bd
000000a0: 0f27 33bd 6d32 20be 266f c7bd e4f7 8a3d
000000b0: a93b 97bd c84e 80bc 422a e43d 9b9e 2bbd
000000c0: 5900 92bd 351b 4b3c c9c5 793d f477 743d
000000d0: 6e90 75bd 611e 563d 07f5 b63d 5eff 033e
000000e0: d0dc 323d 9011 133e 495d 443e 725e ea3d
000000f0: 8706 043e 5bfc 053e b09f fa3d c6b5 c2bc
00000100: 4a2a 2cbc 6d7c 843e 35cb 433e f616 863d
00000110: af41 0fbd 08e2 513d f357 633c c1a0 4fbd
00000120: ce4a 363d 1886 70bc d354 3c3e 0a0a 4b3e
00000130: ea58 0d3e fc6d bf3c 68ec 8a3d 96fb bc3d
00000140: 008a 363e 3f64 02bd 2805 e33c 4b0b a63d
00000150: 91d6 103e b175 583e a188 133e d555 c6bc
00000160: 067e 343e 58b4 bd3d e790 f03d 0327 5b3e
00000170: 6168 1f3d f8c6 7ebd 7ffa 91bc f5b9 033e
00000180: eada 303e 9986 e83c 063a 2f3e 78c5 343e
00000190: b49a f53d 0d36 503e 5a21 bc3d d150 093e
000001a0: edef c23d 35ad 903c bd9c 983d c05f c53c
000001b0: 2191 ccbc ff5d b73d 114e dd3d ad93 0d3e
000001c0: 7b2f 173e cc8e 063e 01e1 803d 4a2e c13c
000001d0: dcf5 ca3d be07 c33d cfbe 0f3e 55d3 f73d
000001e0: 3e81 f63d 161e a13d 8b2f 033e f9b3 5abc
000001f0: 5ac9 d83d 8104 5a3e 36bd 173e 81b2 ee3c
00000200: c8f3 a93d 8cd8 febd 2d51 7dbd 3a70 36bc
00000210: 785c 88bd d79d 263d 2014 9d3d d7fd 873d
00000220: b980 fdbd ee02 ec3d d1eb be3d b075 eebc
00000230: 49da 863d d9c7 853d 0e4e 4bbd 9cc0 f13c
00000240: bdfb c43b fd93 8fbd 5dac d4bd cec8 f9bd
00000250: 0a32 abba 6420 03be bde3 eb3c b96b b8bd
00000260: 1f96 cdbb 43ad 97bd b073 e73c 3de9 413d
00000270: 3a79 4abc 5225 8fbd 8b64 a63d 832c edbc
00000280: bc2d 943d e128 713c b887 4a3d 3881 d6bd
00000290: c7ff 9cbb a3cc 3dbd 8033 19bd d70e a9bc
000002a0: fca1 4fbc 4f58 a83d 71d9 ee38 2236 a13d
000002b0: cd8e f7bd e834 0ebe 42cd 89bd eea1 0bbe
000002c0: 527d fb3c 71be 533d 02c5 b7bd 4396 eebd
000002d0: 70d5 20bd b71b 84bd 7dbe c6bd 49be f1bd
000002e0: 6fe2 c23d 8a83 183d 18fa 433d 6454 c23c
000002f0: 1367 4cbd ebab 0bbe 7d46 7d3c dca1 82bd
00000300: 1283 1d3e 6673 dd3d 2940 813d f3bb 863d
00000310: 8234 fb3c c037 afbc 2341 913d eab4 7bbd
00000320: 9b46 69bc 1657 b8bc d23a b83a e507 0c3d
00000330: 3db6 81bc 4172 453c 3689 f23d a45a a4b8
00000340: b2fa 283e d349 b53d c3d0 c8bb fd81 b0bb
00000350: 5e84 453e 143d f8bb 2828 3d3e 288b 113d
00000360: 8e03 b5bc e1e4 293e d83f 053e c971 373e
00000370: 43c2 82bd 0fed 9a3d 7b39 8b3d e27c f03d
00000380: d106 af3d ec6f 233e 5bcb 293e adf6 1bbd
00000390: 238c 133e 1245 31bc 83a8 43bc 9d3e f03c
000003a0: f4e2 213e 14cc 37bd 49ca 85bd 86eb 643e
000003b0: dad3 033e 4d48 1f3e 5aa1 053e 8763 113e
000003c0: 3854 c83d b6bd 8b3d 3609 f23c 741c 463a
000003d0: 1c3c aebd a78c 203e 58e7 983d d616 9aba
000003e0: fc7b 6c3d e9d0 0d3e b57d 10bd 0ebd 353d
000003f0: 85e7 47bd 95c2 463e 1746 333e 143e b33d
0.024128389 0.102687895 -0.098633334 -0.059622202 -0.040836748 0.098326646 -0.105338864 -0.021611476
-0.06473911 -0.10091491 0.13367085 0.104796626 0.12788764 0.08195174 -0.037739266 0.0069585904
0.01373592 0.019406924 0.07166459 -0.0025035345 0.09968709 -0.06093271 -0.05120375 -0.021599723
0.03474124 0.13436785 0.14948973 -0.061386656 0.13659042 -0.070833884 0.021934241 -0.09580301
-0.009955354 0.13058971 -0.0634512 -0.012802521 -0.08332587 0.12975241 -0.04916545 -0.054946546
-0.04373842 -0.15644236 -0.09737997 0.06785563 -0.07384426 -0.015662566 0.111408725 -0.041899305
-0.071289726 0.012396623 0.06097964 0.05968471 -0.059952192 0.052275065 0.08933454 0.12890384
0.043667614 0.14362168 0.1917621 0.11443795 0.12893115 0.13084547 0.12237489 -0.023768317
-0.010508129 0.2587618 0.19120486 0.06547348 -0.03497475 0.05124095 0.013875949 -0.050690416
0.044504933 -0.014680408 0.18391733 0.19828048 0.1380345 0.023367874 0.06783372 0.09227674
0.1782608 -0.031833883 0.02771242 0.08107623 0.1414435 0.21138646 0.14407589 -0.02421085
0.17626199 0.092629135 0.11746388 0.214016 0.038917903 -0.06220147 -0.017819641 0.12863906
0.17271009 0.028384494 0.17111978 0.17653453 0.11992398 0.20333119 0.09186049 0.13409735
0.095184185 0.017660717 0.074517705 0.024093509 -0.024971547 0.08953475 0.108059056 0.13825865
0.14764206 0.1314041 0.06292916 0.023581643 0.09910175 0.09522961 0.14037631 0.12100855
0.1203637 0.078670666 0.12811105 -0.013348573 0.1058528 0.2129078 0.14818272 0.029137852
0.08298451 -0.12443647 -0.061844993 -0.011135155 -0.06658262 0.04067787 0.07669854 0.06640213
-0.123780675 0.11523996 0.09322322 -0.029108852 0.06584603 0.065322585 -0.049634986 0.029510789
0.006011455 -0.070106484 -0.10384438 -0.121965036 -0.0013061177 -0.12805325 0.028795118 -0.090049215
-0.0062739993 -0.07406094 0.028253406 0.047341574 -0.012358004 -0.0698954 0.08124646 -0.028951889
0.07235286 0.014719219 0.049445838 -0.10473865 -0.004791233 -0.046337735 -0.03740263 -0.020636959
-0.012672897 0.082199685 0.00011389226 0.07871653 -0.12087784 -0.1388737 -0.06728603 -0.1363599
0.030699406 0.05169529 -0.08973123 -0.11649754 -0.03926605 -0.06450599 -0.097043015 -0.11803872
0.09515845 0.03723482 0.04784593 0.023721881 -0.049902987 -0.136398 0.0154587 -0.063785285
0.1538203 0.10813026 0.06311066 0.06578817 0.030664686 -0.021388888 0.07092502 -0.06145183
-0.014238025 -0.022502463 0.0014055616 0.034187216 -0.015833968 0.012051166 0.11842577 -7.8370125e-05
0.16501883 0.088519715 -0.006128402 -0.0053865896 0.19288775 -0.0075756405 0.1847235 0.0355331
-0.022096422 0.16591217 0.13012636 0.179145 -0.06384709 0.075647466 0.06798073 0.117425695
0.08546222 0.15960664 0.1658148 -0.038077045 0.14408927 -0.01081969 -0.011942032 0.029326731
0.15809232 -0.04487236 -0.065327235 0.2235547 0.12873784 0.15554924 0.13049832 0.14198123
0.097816885 0.06823294 0.029545408 0.00075573404 -0.08507559 0.15678655 0.07466 -0.0011756073
0.05773543 0.13849224 -0.035276134 0.04436975 -0.04880478 0.19410165 0.17507206 0.08752075

output_layers.3.bias f4 [32]
00000000: 3675 bfbb bcb1 86bb 2e3e bfbc 39b8 253e
00000010: fa63 a0bc a982 edbc 7fc1 7a3d d992 b33d
00000020: 975d 793d ab20 c3bc 8169 edbc 6671 81bd
00000030: 21fc 0cbd 6985 c23d e5fc efbd cb2b d4bd
00000040: 9ecf 063e d123 7e3d b06a bbbd f101 4ebd
00000050: 1a60 ffbd 9af6 0c3e 17d0 933d 5407 a33d
00000060: 36ab 0e3e 6563 ae3d ef12 0f3e 57f2 99bd
00000070: 7655 393d e0ff f6bc 235c bebd a9f6 dfbd
-0.00584283 -0.004110543 -0.02334508 0.16183557 -0.019578923 -0.028992968 0.06121969 0.08768243
0.06088027 -0.023819288 -0.028980972 -0.06320457 -0.034420136 0.09498102 -0.11718158 -0.10359915
0.13165137 0.062045876 -0.091512084 -0.05029482 -0.12469502 0.13765946 0.07217424 0.07960382
0.139325 0.08515052 0.13972066 -0.07516926 0.045247518 -0.030151308 -0.092949174 -0.109357186

output_layers.6.weight f4 [2, 32]
00000000: b3c1 41bd ce25 f73b 687c 143d 0196 0f3c
00000010: 4add d03c e30e 023e 1340 9e3a 9368 99bd
00000020: ad07 193e 04b8 a83d 9703 903c aeb8 1abe
00000030: 0cd9 c73d c285 223e 71ac 03be 11f9 66bd
00000040: eef8 be3d a123 90bd 64bd c5bd f71a 213e
00000050: a241 0abe 7aef 993b d290 093c af69 9c3b
00000060: 49c6 823c c8f4 5c3e 10a7 e73d a054 bbbd
00000070: 42df 22bd a80c 433d c2bb 323e 51c1 a23d
00000080: 696a 67be bfe6 8fbe 48a9 ac3d ba7b 81be
00000090: e759 e83c b991 cf3d ab2b 8bbe 973a 0b3e
000000a0: 8c60 78bc 703c 033e 0b69 64be c440 f23d
000000b0: 8263 89be b94f a9bc 68fc 1c3e 20b8 68be
000000c0: 2836 8bbd fc89 4ebe 09d0 54bd 1d4a 933d
000000d0: 5b5a 6b3d 49bd 6cbe 8a9b 0fbe 2899 90be
000000e0: 062e 92be 92b3 063e 8a32 25be 6de2 f4bd
000000f0: cefe f5bc a39a 8cbd 2437 873d f489 f23d
-0.047303867 0.0075423485 0.036251456 0.008763791 0.025496144 0.12700991 0.0012073539 -0.07490649
0.14944334 0.08238223 0.017579837 -0.15109512 0.09758195 0.15871337 -0.1285875 -0.056389872
0.09324823 -0.07038046 -0.09655264 0.15732943 -0.135016 0.0046977373 0.008396344 0.0047733407
0.01596369 0.21577752 0.113111615 -0.09147 -0.039763696 0.04761949 0.17454436 0.079470284
-0.22599186 -0.28105733 0.08430725 -0.25289708 0.028363181 0.10135216 -0.27181754 0.13596569
-0.015159737 0.12816024 -0.22305696 0.11828759 -0.2683373 -0.020667898 0.1533066 -0.22726488
-0.06797439 -0.20169824 -0.05195621 0.0719187 0.057459217 -0.23119082 -0.14024177 -0.2824185
-0.28550738 0.13154438 -0.1613256 -0.1195725 -0.030028727 -0.06865432 0.06602314 0.11842719

output_layers.6.bias f4 [2]
00000000: fae7 91bd c894 373d
-0.07124324 0.044819623

exp_avg f4 [96, 15]
00000000: 181c a4ba 78ae a4ba 7662 a5ba 0a75 a6ba
00000010: ea16 aeba 2d6a 24ba 4161 5dba 0e04 42ba
00000020: baed 43b8 4806 653a e79c bcb9 d4cb 2cb9
00000030: 0000 0000 a383 c4b9 5013 abb9 f785 0fbb
00000040: 5eaa 11bb ab74 11bb 9505 14bb b56e 2a39
00000050: 342b 45ba 87f7 85ba 850d 71ba dcd3 a8b9
00000060: ffec 4739 aaea 9437 a4ed 8139 0000 0000
00000070: 7000 f1b9 bab2 0a39 ba65 483a 3dce 4a3a
00000080: 6e69 413a d9cf 443a c74a f5b9 bf0f 39ba
00000090: 9c6c 70ba 61c9 4cba f15b f539 58ff 153b
000000a0: eb5f ea37 5794 04b8 0000 0000 4587 a139
000000b0: 7484 06b9 7bcf e7ba 50d6 e5ba b642 e9ba
000000c0: 3fdd e9ba a343 133a 6c14 62ba f618 9fb9
000000d0: e700 ceb8 efa9 9539 f13a a03a 2f2b 9539
000000e0: 9c6d 91b9 0000 0000 687c b339 ccbf a437
000000f0: 4dd8 9f39 8270 a239 0759 9f39 2d32 a339
00000100: f96f 12b9 a41c 2438 d510 2739 4829 2a39
00000110: 742c 29b9 ab83 46ba 5817 6cb9 6591 c0b8
00000120: 0000 0000 c71d 2339 cc9d 85b7 7d55 6d39
00000130: 600a 7739 7b5f 6539 e110 6e39 ee49 30bb
00000140: c68d 3c3a 1fb4 213a 8b7f ee39 27f1 cf3a
00000150: b93f e538 f528 7c39 ea60 473a 0000 0000
00000160: 153e 8d3a e81e 0239 c1b6 8239 0e86 8439
00000170: 52e9 8239 4127 8439 adef a53a b1d8 8239
00000180: 3622 253a f73a 1c3a 2789 30b9 208d 2fba
00000190: 964a 4439 2362 76b9 0000 0000 f08f e238
000001a0: aad8 eab8 fe54 6c3a b739 6c3a e710 6c3a
000001b0: c35d 6e3a 88ad 36ba 794c f738 216f 2ab9
000001c0: ce5d 3ab9 baec 62b8 09c7 9f39 901a 69b9
000001d0: 09e1 a1b8 0000 0000 9881 0939 e308 37b8
000001e0: 4234 b33a c1e6 b33a 7f87 b63a 4ec7 b93a
000001f0: 4a04 9039 26c2 a539 21fe 8039 09af 5739
00000200: 7c8d 14ba 0498 94b9 386d 57b9 a673 5db9
00000210: 0000 0000 31aa 9938 feac bfb8 a418 3a3a
00000220: 896a 3b3a 4443 383a 969d 3a3a 1111 7f38
00000230: 4b93 c0b8 d4e7 51b9 1bb4 3db9 79b5 a738
00000240: a142 603a ddfc e137 5402 0638 0000 0000
00000250: 4f99 4739 e4fd 3337 0b00 8a3a cd14 893a
00000260: f6ac 893a d507 8a3a 657a c739 77d6 c139
00000270: b845 a6b9 1634 c6b9 0cfe 31ba 5618 9e39
00000280: 62c9 ebb8 5457 b7b8 0000 0000 abf8 5339
00000290: 6dbd e3b6 fa8c 97b9 c249 98b9 146e 95b9
000002a0: 19d6 98b9 a68d 7c39 d17c 41b8 400e c337
000002b0: bb7a f537 f32f e338 b79d 9eb7 8bb8 2339
000002c0: cd4f 0a39 0000 0000 bfcc 50b8 1020 6537
000002d0: 5c08 80ba 4d73 7fba 4ec3 7cba 6bc5 7dba
000002e0: 3223 4f39 983f 42b9 7072 b9b8 5ba0 52b8
000002f0: b9bb 13ba 6fe9 c0b9 9395 78b8 2f9c 6038
00000300: 0000 0000 43f8 10b9 eb1d c936 4a23 c8b9
00000310: e097 ccb9 38f2 c5b9 98a5 cab9 8d93 3239
00000320: 11c5 33b9 d9e5 99b9 41c2 86b9 98c7 48b9
00000330: 824e 99b9 ed60 11b7 b9be 9837 0000 0000
00000340: c59c 71b9 67f6 8937 69b6 893a 44c4 883a
00000350: 3619 863a 75a1 873a 3d32 c4ba 22f9 df39
00000360: 2e82 a8b9 e6c3 e3b9 dc93 463a f057 103b
00000370: bae9 89b8 6f52 5b39 0000 0000 3a61 033a
00000380: 9df3 3238 66bb 42ba 0db1 42ba e49b 43ba
00000390: 9580 46ba 2e5f 5139 306b 0bba 5dfa 37ba
000003a0: 9985 1eba 1561 11ba d1e1 4839 04bb bfb8
000003b0: 5a69 8936 0000 0000 3b55 b5b8 9b30 0b38
000003c0: c826 0a3a fa9f 0a3a dae8 063a f283 083a
000003d0: 7ea6 1739 6001 36b7 cfc3 47b9 9bc5 45b9
000003e0: 689d 35b9 1c06 4c3a 7592 e1b7 5c90 1237
000003f0: 0000 0000 328f a538 5d99 c937 5aae bcb8
-0.001252058 -0.0012564203 -0.0012617845 -0.0012699675 -0.0013281975 -0.0006271925 -0.0008444973 -0.0007401117
-4.6713023e-05 0.0008736593 -0.00035975056 -0.0001647913 0.0 -0.0003748211 -0.0003263005 -0.0021899918
-0.002222679 -0.0022194784 -0.0022586335 0.00016253705 -0.00075213914 -0.0010220864 -0.0009195435 -0.00032201305
0.00019066407 1.7752249e-05 0.00024781853 0.0 -0.00045967428 0.00013227286 0.0007644553 0.00077364204
0.0007378076 0.00075077784 -0.00046785755 -0.00070595363 -0.00091714575 -0.000781199 0.00046798543 0.0022887792
2.7939639e-05 -3.1609405e-05 0.0 0.00030809097 -0.00012828578 -0.0017685735 -0.0017535184 -0.0017796371
-0.0017842426 0.00056176836 -0.0008624259 -0.0003034544 -9.8230135e-05 0.00028546105 0.0012224597 0.0002845167
-0.0002773822 0.0 0.0003423423 1.9639636e-05 0.00030488 0.00030982873 0.00030393174 0.00031127167
-0.00013965358 3.912732e-05 0.00015932632 0.00016227842 -0.00016133656 -0.00075727206 -0.0002251541 -9.182355e-05
0.0 0.00015555984 -1.5928315e-05 0.00022633928 0.0002355962 0.00021874711 0.00022703737 -0.0026899534
0.0007192757 0.0006168503 0.00045489924 0.0015864716 0.0001093144 0.0002404785 0.0007605689 0.0
0.0010775948 0.0001240928 0.00024931694 0.0002527688 0.0002496937 0.00025206248 0.001265993 0.0002495698
0.00062993483 0.0005959714 -0.00016835761 -0.00066967495 0.00018719802 -0.00023496947 0.0 0.0001080333
-0.00011198346 0.00090153504 0.0009011286 0.0009005204 0.0009092951 -0.0006968607 0.00011792122 -0.00016253862
-0.00017773287 -5.4103068e-05 0.00030475136 -0.00022230507 -7.718994e-05 0.0 0.00013113616 -4.3638876e-05
0.001367219 0.0013725386 0.0013925879 0.0014173777 0.00027469016 0.00031615904 0.00024603403 0.00020569203
-0.0005666835 -0.0002834202 -0.00020544685 -0.00021119285 0.0 7.327309e-05 -9.139812e-05 0.00070990087
0.0007149359 0.00070290663 0.0007118819 6.0812632e-05 -9.182709e-05 -0.00020018156 -0.00018091539 7.9969825e-05
0.00085548504 2.6939839e-05 3.1950258e-05 0.0 0.00019035231 1.0728345e-05 0.0010528577 0.001045847
0.0010503817 0.0010530899 0.0003804743 0.00036971617 -0.00031713932 -0.0003780431 -0.000678987 0.0003015424
-0.00011243184 -8.742386e-05 0.0 0.00020215164 -6.7871792e-06 -0.00028906 -0.00029046653 -0.0002850151
-0.00029151214 0.00024085361 -4.613103e-05 2.3252447e-05 2.9263427e-05 0.00010833135 -1.890851e-05 0.00015613639
0.00013190434 0.0 -4.978175e-05 1.3656929e-05 -0.0009768116 -0.0009744659 -0.000964214 -0.00096806017
0.0001975417 -0.00018524972 -8.842803e-05 -5.0217244e-05 -0.0005635578 -0.00036795015 -5.926711e-05 5.355122e-05
0.0 -0.00013825395 5.9937497e-06 -0.00038173265 -0.00039023068 -0.00037755235 -0.0003865182 0.0001703037
-0.00017144183 -0.00029353684 -0.00025703202 -0.00019147841 -0.00029240927 -8.665241e-06 1.8208624e-05 0.0
-0.00023041952 1.6446413e-05 0.0010506633 0.0010434468 0.0010230902 0.00103478 -0.0014968585 0.00042719493
-0.00032140448 -0.0004344277 0.00075751333 0.002202507 -6.576204e-05 0.00020916176 0.0 0.00050117413
4.266539e-05 -0.0007428437 -0.00074268953 -0.0007461889 -0.0007572261 0.0001996725 -0.00053184014 -0.0007018203
-0.0006047129 -0.00055457774 0.0001915761 -9.142424e-05 4.0951827e-06 0.0 -8.646628e-05 3.318545e-05
0.0005270061 0.00052881206 0.0005146392 0.00052076497 0.00014462505 -1.08483655e-05 -0.00019051063 -0.00018860998
-0.00017320144 0.0007782893 -2.689029e-05 8.735889e-06 0.0 7.894485e-05 2.4032483e-05 -8.997014e-05

exp_avg_sq f4 [96, 15]
00000000: 95e4 4735 f0dc 4735 a9b7 4735 83c1 4735
00000010: ee48 d334 f55f b933 7de6 f133 8852 e033
00000020: bcfb 1634 8706 7035 1890 b233 86cf cf33
00000030: 0000 0000 a2de 2833 bc05 d933 b791 b635
00000040: 76a1 b835 a6e2 b735 9a6b b935 66b5 2934
00000050: 2f09 d533 3998 d633 fb2c be33 91a3 b933
00000060: 6c63 6b35 85c6 0933 6772 c632 0000 0000
00000070: cab1 7533 1c3a c931 d739 0934 f38b 0a34
00000080: 8d75 0734 a264 0834 31b2 4c33 bef3 0b33
00000090: fc01 1533 4f32 e632 fc3f 9a32 237a ef34
000000a0: 80a7 fa31 752c ec31 0000 0000 9895 b632
000000b0: d9e3 b431 c457 2f35 9f94 2e35 16c9 2e35
000000c0: faad 2e35 9b4a 3234 9674 c533 e256 8533
000000d0: 9ec3 8a33 c6b6 aa33 8ea8 6a35 2e24 a833
000000e0: 0197 5733 0000 0000 0afb a833 bab9 2a32
000000f0: bdf8 6034 91d8 6134 8003 5f34 577c 6034
00000100: 8eda 4733 222b 9a32 7ab1 1432 b423 0132
00000110: d80d f232 8a30 0134 8920 cb32 439e a831
00000120: 0000 0000 ae02 9632 1c98 7130 82a3 1a35
00000130: 2c0b 1b35 c8a3 1835 bfab 1835 88fb 9134
00000140: ccfe a033 7e1c e233 58e1 be33 458a 0134
00000150: 31e6 9435 7efe aa32 d40d 2833 0000 0000
00000160: a14e a733 b5b5 0432 fb0d 8834 4008 8834
00000170: 6942 8634 9823 8634 a1ee d533 895d 7d33
00000180: 9f08 5033 71eb 4933 83a6 1b33 cdcd 1735
00000190: 2957 1732 7da4 8433 0000 0000 be5d dd32
000001a0: a5f1 1a32 892a 1e35 2b85 1e35 8ced 1d35
000001b0: 2c37 1e35 ca2b e933 8b64 6533 7ea7 4633
000001c0: 00ee 4c33 8163 5833 e394 6635 5f0b b632
000001d0: 8e3e 9632 0000 0000 f743 b332 7783 9f31
000001e0: b199 a335 8391 a435 d7c4 a335 be46 a435
000001f0: 3f9a 4634 c1bf 0934 9bad 5e33 3846 4733
00000200: e330 da33 026e 4435 2784 1633 c78d eb32
00000210: 0000 0000 a4de 3433 ba35 ff31 386f 1234
00000220: ef14 1434 6948 1234 062e 1434 5632 b732
00000230: 40aa 5732 6139 7232 9b40 7032 8f77 d132
00000240: fa82 a933 1bf9 f731 1fd7 2d32 0000 0000
00000250: 5604 5332 6017 2d30 5cea cd35 3a1d ce35
00000260: 5e34 ce35 187f ce35 e139 7e34 47a3 d133
00000270: 41aa 8933 e56e 8733 aa29 2734 8d65 4135
00000280: 6292 7133 17cc 3e33 0000 0000 d555 3033
00000290: b062 f732 3bb4 ba32 38cc bb32 62b5 b732
000002a0: 670c ba32 2439 b731 59ed 5931 f221 8731
000002b0: 1f88 8931 5ee9 8031 d46b cb32 a7af 7c31
000002c0: 606f 3531 0000 0000 30cb a931 0084 1d30
000002d0: 1a1b 6d35 0d99 6d35 10dd 6935 ea44 6935
000002e0: eee9 dd33 f1e9 5933 e055 6333 7108 5f33
000002f0: eee8 6533 ce9d 1335 f7eb 8f32 dbe2 be32
00000300: 0000 0000 dd19 0a33 41cc d631 e386 0834
00000310: a05a 0934 1c66 0734 6ce8 0734 9313 c632
00000320: 7551 e732 516b 1c33 4fed 1933 2235 c732
00000330: 1aa6 0634 ad3e 2132 6009 5932 0000 0000
00000340: 04ba 0233 ec93 b730 c8f8 6a35 a94e 6c35
00000350: d5e1 6a35 47ac 6c35 a51f 7b34 7af0 0734
00000360: 9090 aa33 5992 aa33 45e1 e533 d445 5e35
00000370: 8d5d 0533 29f2 e632 0000 0000 ceaf 8233
00000380: e6db ec31 0356 1735 6cd3 1735 bd4f 1735
00000390: 86ab 1735 24ca 2834 b077 9b33 91c2 9633
000003a0: adcf 8033 c983 9733 12ce 2235 9c7b 0d33
000003b0: 479b 5d33 0000 0000 f62a 1133 7054 2a33
000003c0: 249f df34 cde6 e034 6c82 de34 4d63 e034
000003d0: 7a4d 7e33 d1d4 2333 1d01 f932 0941 df32
000003e0: bef0 5c33 2b1a 5a34 7c9f 6532 58b9 2932
000003f0: 0000 0000 8ba0 3032 61d5 9731 556e 5634
7.446591e-07 7.4454783e-07 7.440054e-07 7.4414874e-07 3.9354876e-07 8.632188e-08 1.12643626e-07 1.0445825e-07
1.4061419e-07 8.9416466e-07 8.3149814e-08 9.676937e-08 0.0 3.931803e-08 1.0105893e-07 1.3602465e-06
1.375606e-06 1.3700526e-06 1.381489e-06 1.5805344e-07 9.920256e-08 9.992841e-08 8.8557464e-08 8.6444864e-08
8.7689e-07 3.207835e-08 2.3102258e-08 0.0 5.7205206e-08 5.856476e-09 1.2780161e-07 1.2903165e-07
1.261562e-07 1.2702597e-07 4.7659515e-08 3.258514e-08 3.469357e-08 2.6798402e-08 1.7957056e-08 4.4606085e-07
7.295e-09 6.873558e-09 0.0 2.1255616e-08 5.2645928e-09 6.5320296e-07 6.5036323e-07 6.511267e-07
6.507322e-07 1.6604683e-07 9.194734e-08 6.209099e-08 6.461708e-08 7.949488e-08 8.741707e-07 7.829691e-08
5.0195926e-08 0.0 7.8687734e-08 9.937532e-09 2.0952116e-07 2.1033544e-07 2.0769767e-07 2.090686e-07
4.6532072e-08 1.7947574e-08 8.655087e-09 7.516906e-09 2.8178803e-08 1.203172e-07 2.3647106e-08 4.907436e-09
0.0 1.7463517e-08 8.789145e-10 5.7607406e-07 5.7758257e-07 5.6862746e-07 5.6874336e-07 2.7191368e-07
7.496928e-08 1.0529128e-07 8.888554e-08 1.2064363e-07 1.1093854e-06 1.9906334e-08 3.9128125e-08 0.0
7.790846e-08 7.724727e-09 2.5342146e-07 2.5337977e-07 2.5007765e-07 2.4985343e-07 9.961992e-08 5.8991223e-08
4.8436615e-08 4.7013092e-08 3.624019e-08 5.6551363e-07 8.809175e-09 6.176649e-08 0.0 2.5770415e-08
9.018923e-09 5.8921484e-07 5.905337e-07 5.8832734e-07 5.893987e-07 1.0857873e-07 5.340966e-08 4.62528e-08
4.771391e-08 5.0381917e-08 8.5898336e-07 2.119276e-08 1.7490745e-08 0.0 2.086925e-08 4.642455e-09
1.2189176e-06 1.2261302e-06 1.2201734e-06 1.2239541e-06 1.8496301e-07 1.2828879e-07 5.1846296e-08 4.639716e-08
1.01603085e-07 7.317577e-07 3.504479e-08 2.7422074e-08 0.0 4.2112006e-08 7.4275848e-09 1.3637771e-07
1.379119e-07 1.3623652e-07 1.3800317e-07 2.1326894e-08 1.25533575e-08 1.40993e-08 1.3984528e-08 2.4385171e-08
7.8935e-08 7.216966e-09 1.0118838e-08 0.0 1.2282802e-08 6.297025e-10 1.5341898e-06 1.5356702e-06
1.5363437e-06 1.5385185e-06 2.367665e-07 9.762021e-08 6.4105286e-08 6.306599e-08 1.5568244e-07 7.204588e-07
5.624532e-08 4.442344e-08 0.0 4.1056257e-08 2.8799462e-08 2.173521e-08 2.1862533e-08 2.1386487e-08
2.165889e-08 5.332497e-09 3.1712573e-09 3.9328762e-09 4.0027e-09 3.751821e-09 2.3681345e-08 3.6770673e-09
2.6402276e-09 0.0 4.941647e-09 5.730385e-10 8.832882e-07 8.85121e-07 8.712095e-07 8.6899547e-07
1.0333666e-07 5.0737018e-08 5.293066e-08 5.192891e-08 5.3530066e-08 5.4991403e-07 1.6754695e-08 2.2222073e-08
0.0 3.215415e-08 6.2514407e-09 1.2715059e-07 1.2792088e-07 1.2610002e-07 1.265741e-07 2.3059135e-08
2.6928982e-08 3.6419184e-08 3.583892e-08 2.3190811e-08 1.254015e-07 9.385684e-09 1.2633194e-08 0.0
3.0437164e-08 1.3357044e-09 8.753382e-07 8.8031317e-07 8.750042e-07 8.816755e-07 2.3387709e-07 1.266034e-07
7.942538e-08 7.9428624e-08 1.070462e-07 8.280306e-07 3.105156e-08 2.6885646e-08 0.0 6.0855754e-08
6.8935035e-09 5.6377047e-07 5.655954e-07 5.636792e-07 5.6501483e-07 1.5719758e-07 7.239521e-08 7.020311e-08
5.9982405e-08 7.055457e-08 6.0649575e-07 3.2941543e-08 5.1596796e-08 0.0 3.3799516e-08 3.9658005e-08
4.1652777e-07 4.189118e-07 4.1445617e-07 4.1795502e-07 5.9209448e-08 3.814495e-08 2.8987921e-08 2.5990191e-08
5.1441695e-08 2.0312352e-07 1.3365817e-08 9.879237e-09 0.0 1.0281052e-08 4.4189368e-09 1.9970442e-07
