lightning_logs/version_29/checkpoints/epoch=49-step=150.ckpt (torch, 121435 bytes, 30 tensors)

gru.weight_ih_l0 f4 [96, 15]
-0.117907785 0.09555366 0.080668114 -0.061163556 0.026221678 0.017934196 0.15092292 -0.15646254
-0.099856436 -0.06824345 -0.11800862 0.22178848 -0.040186092 0.11828693 0.0029210981 -0.0844237
0.06595011 0.08825757 0.1675753 0.18334351 0.080458716 -0.016040474 -0.23598933 0.13840246
0.18275365 0.08763995 0.13622095 -0.050580915 -0.008543129 0.06401489 -0.10072969 -0.22259194
-0.20923665 -0.16847716 -0.014438756 -0.10249854 -0.016999353 -0.09201532 0.11617246 0.060789667
-0.077362865 -0.0051957928 -0.07656986 0.08977658 -0.077714026 -0.03305139 -0.0047681755 -0.160322
-0.002532622 0.06620074 -0.11264085 -0.18859972 -0.120444566 -0.0073672873 0.11339289 -0.13494581
-0.09696235 0.06225458 0.15808327 -9.984408e-05 -0.011800696 -0.12076672 0.095816016 -0.15967464
-0.10613886 -0.2641096 -0.1327808 -0.19567214 -0.062312823 0.017295046 0.049789414 0.17180616
0.07379264 0.13427685 0.028905535 0.070045896 0.1378855 0.020108985 -0.010502287 0.009276335
0.018299522 -0.10132953 -0.1807023 -0.09419687 -0.031712316 0.048243165 0.18262826 -0.018803563
0.09728381 0.118753456 -0.0053066346 0.0014366726 -0.037574686 -0.09850679 0.19285879 0.13372907
0.1165776 0.1627013 0.18514872 -0.047040842 0.14356005 0.13319491 -0.12373531 -0.054522198
0.014419294 0.075067796 -0.08304325 0.08469196 -0.1510828 -0.15196246 -0.23272826 0.10229383
-0.117322914 -0.08126361 -0.11346354 -0.16128795 -0.18012384 -0.14441478 0.039376758 -0.081287384
0.11644996 0.026473116 0.14237048 -0.035074767 0.19244008 0.07190615 0.13076077 -0.1463979
0.09558486 0.12974359 -0.1557244 -0.12737787 -0.15611927 0.009664768 0.043667182 -0.18603675
0.07308127 0.09583132 -0.08745 0.076652214 -0.08216164 -0.08130745 -0.124255806 -0.017651029
0.17497295 0.06267136 0.04106126 -0.09329717 0.171019 0.07349834 -0.042522907 -0.0705217
0.067527175 0.060062163 0.01635919 -0.0467691 -0.02289911 -0.17803259 -0.20597772 0.11157442
-0.028481035 0.05299649 0.07798659 0.04096436 -0.08499346 0.08976348 0.08856991 0.013984337
0.005778372 0.0135173695 -0.22567226 -0.15503877 -0.08559749 0.1330407 0.1398918 0.103185356
0.2096595 -0.11488369 0.08482211 0.15448725 -0.18953922 -0.053663474 -0.101436295 -0.17021082
-0.013003002 -0.028352479 0.16304521 0.17413495 0.13433746 0.07570274 0.00627797 -0.04691427
0.060210902 -0.09224449 0.12766238 -0.025831318 0.095517665 0.13786793 -0.04977198 0.04741902
-0.00850593 -0.07231162 0.041410223 0.013410286 0.046642847 0.017170964 -0.13096118 0.1659111
0.19291851 0.096153244 -0.036906682 -0.04509248 0.19571066 -0.052776657 -0.1350521 -0.093128994
0.072230935 -0.08682008 0.14445506 -0.15182865 0.038536742 -0.08739666 0.15635167 0.051586103
0.11649876 0.12413799 -0.11157738 -0.056331318 -0.16143277 -0.10712267 0.031693216 -0.022431772
0.029309785 -0.12587264 -0.1590009 0.19661848 0.13042498 0.049695875 0.13234577 -0.14406629
0.11965034 0.067485616 -0.14505978 6.399688e-05 -0.10695947 0.017100666 -0.106094465 0.021668661
0.20016363 -0.059792783 0.0469543 0.009436399 0.11545501 -0.060808606 0.13548154 -0.047225602
00000000: a379 f1bd a3b1 c33d 5335 a53d a386 7abd
00000010: d8ce d63c bcea 923c 8a8b 1a3e b737 20be
00000020: 8881 ccbd 39c3 8bbd 81ae f1bd 851c 633e
00000030: 2c9a 24bd 6b40 f23d e56f 3f3b 55e6 acbd
00000040: da10 873d 63c0 b43d dc98 2b3e 67be 3b3e
00000050: 8ac7 a43d 5067 83bc 30a7 71be 60b9 0d3e
00000060: c623 3b3e 937c b33d 817d 0b3e ef2d 4fbd
00000070: 7bf8 0bbc 3d1a 833d 5e4b cebd 24ef 63be
00000080: 2242 56be 4785 2cbe 8890 6cbc c1ea d1bd
00000090: 3a42 8bbc 8772 bcbd d4eb ed3d 96fe 783d
000000a0: 6c70 9ebd 7841 aabb a9d0 9cbd c9dc b73d
000000b0: 8828 9fbd e560 07bd 5b3e 9cbb 732b 24be
000000c0: 59fa 25bb 4194 873d 3fb0 e6bd 4920 41be
000000d0: a4ab f6bd 4969 f1bb 883a e83d 3c2f 0abe
000000e0: 3294 c6bd a9fe 7e3d 95e0 213e 6263 d1b8
000000f0: b557 41bc 8b54 f7bd 303b c43d c081 23be
00000100: 555f d9bd 6039 87be b1f7 07be 475e 48be
00000110: bb3b 7fbd 57ae 8d3c fcef 4b3d f4ed 2f3e
00000120: 9820 973d df7f 093e 4dcb ec3c 3974 8f3d
00000130: db31 0d3e 99bb a43c c911 2cbc c5fb 173c
00000140: e1e8 953c db85 cfbd 060a 39be 4aea c0bd
00000150: c6e4 01bd a09a 453d e702 3b3e ee09 9abc
00000160: bc3c c73d 0335 f33d 47e3 adbb bc4e bc3a
00000170: eae7 19bd eebd c9bd c67c 453e 46f0 083e
00000180: 3dc0 ee3d 2b9b 263e a097 3d3e e6ad 40bd
00000190: 6801 133e 3f64 083e f068 fdbd ab52 5fbd
000001a0: e73e 6c3c 25bd 993d 9412 aabd fa72 ad3d
000001b0: 73b5 1abe 0c9c 1bbe 5150 6ebe 6d7f d13d
000001c0: ff46 f0bd 896d a6bd 935f e8bd ab28 25be
000001d0: 6272 38be 78e1 13be 8649 213d 007a a6bd
000001e0: 517d ee3d 26de d83c 91c9 113e 8faa 0fbd
000001f0: 030f 453e 8843 933d 27e6 053e 55e9 15be
00000200: ffc1 c33d 81db 043e 3876 1fbe 586f 02be
00000210: bbdd 1fbe fa58 1e3c 5cdc 323d 6b80 3ebe
00000220: a2ab 953d 3643 c43d fc18 b3bd d6fb 9c3d
00000230: 5d44 a8bd 8584 a6bd d479 febd e498 90bc
00000240: 1c2c 333e d859 803d da2f 283d 9612 bfbd
00000250: 9b1f 2f3e 4c86 963d 802c 2ebd ae6d 90bd
00000260: b04b 8a3d be03 763d b503 863c f590 3fbd
00000270: ea96 bbbc 2d4e 36be d3eb 52be 2181 e43d
00000280: 0f51 e9bc d912 593d 6fb7 9f3d 3fca 273d
00000290: 0d11 aebd ead5 b73d 2464 b53d 901e 653c
000002a0: 7f58 bd3b f577 5d3c a116 67be 7cc2 1ebe
000002b0: bd4d afbd d23b 083e cc3f 0f3e d852 d33d
000002c0: fbb0 563e 2448 ebbd 37b7 ad3d e831 1e3e
000002d0: 9216 42be 3bce 5bbd d5bd cfbd bf4b 2ebe
000002e0: 8b0a 55bc 7543 e8bc 53f5 263e 6f50 323e
000002f0: c28f 093e 0a0a 9b3d 6eb7 cd3b 2d29 40bd
00000300: b59f 763d aeea bcbd edb9 023e 339c d3bc
00000310: c49e c33d 402d 0d3e b4dd 4bbd 723a 423d
00000320: 755c 0bbc 1d18 94bd c49d 293d d1b6 5b3c
00000330: 920c 3f3d 1faa 8c3c b01a 06be 99e4 293e
00000340: 6e8c 453e feeb c43d 762b 17bd e4b2 38bd
00000350: 6068 483e 562c 58bd 194b 0abe 6aba bebd
00000360: d0ed 933d bace b1bd 07ec 133e f878 1bbe
00000370: b4d8 1d3d 05fd b2bd a71a 203e f34b 533d
00000380: e796 ee3d 0f3c fe3d ae82 e4bd abbb 66bd
00000390: a24e 25be 2163 dbbd bfd0 013d d6c2 b7bc
000003a0: 131b f03c c2e4 00be 22d1 22be 5b56 493e
000003b0: 208e 053e e78d 4b3d a685 073e 1d86 13be
000003c0: 3d0b f53d e635 8a3d 8d8a 14be 1036 8638
000003d0: 910d dbbd b216 8c3c 0e48 d9bd 7a82 b13c
000003e0: b2f7 4c3e 47e9 74bd 2753 403d 209b 1a3c
000003f0: ad73 ec3d 7212 79bd acbb 0a3e a26f 41bd

gru.weight_hh_l0 f4 [96, 32]
0.07016352 -0.08176786 -0.07168644 0.048666216 -0.19816777 -0.11227572 -0.022527415 -0.13024256
0.11174094 0.0149369845 -0.16396447 -0.082655266 0.10662069 -0.043862354 -0.036537472 -0.07363528
0.19131932 0.035193104 0.097986 0.020216966 0.098546796 0.10300786 0.061313998 -0.16353072
0.12586837 -0.11792774 0.10242168 -0.08363143 0.06976498 0.037272155 0.099568255 0.09745861
0.18490501 0.03992813 -0.14784363 -0.15900928 -0.09576812 0.004924534 0.15931599 0.2014505
-0.047258023 0.08380803 0.033296026 -0.061420728 -0.1314089 0.033174217 0.047781657 0.0037343733
-0.08280856 -0.12288641 0.08180976 -0.18630977 -0.060654867 -0.04913205 0.01875834 -0.06679705
-0.10903347 0.21020584 -0.11077197 -0.042701468 -0.20545222 0.047175724 -0.16633399 -0.09712672
-0.17274375 0.1395228 0.11961499 -0.03724777 0.009761726 0.092930414 -0.14132024 0.1490297
-0.0020168803 -0.02697253 0.06970008 0.09500829 -0.037273113 -0.12334413 -0.09857033 -0.20627153
-0.028524566 0.101976976 -0.019931234 0.13670802 -0.0607918 -0.18038452 -0.23212716 0.04968047
-0.12563655 -0.04865515 -0.1248099 0.08656755 0.15002126 -0.06877646 0.066098645 0.120988555
0.14719374 0.12931773 0.022404268 0.19499578 -0.07943504 -0.043967832 0.066264614 -0.091936186
0.16555816 0.18741831 0.08638201 0.07040736 -0.08481143 0.10795964 -0.112872586 -0.0030440688
0.04275413 -0.008358366 0.10993946 -0.119116254 -0.03735533 0.17361122 0.07839678 -0.08009662
-0.06114036 -0.052403416 -0.17536998 -0.028911656 0.13731855 -0.01854679 0.1553996 -0.024761872
-0.093764305 0.20622505 0.04984265 0.10759738 -0.0908544 0.094020136 -0.125096 -0.02536473
-0.16827361 0.025329275 0.12871829 -0.035905372 0.07350333 -0.06555131 -0.011337822 -0.26154083
0.17331529 -0.12742744 -0.03503693 -0.18489791 0.13656808 -0.112757355 0.11323436 0.07874192
-0.034006916 -0.136851 -0.12901872 -0.07802948 0.07742211 -0.080606624 -0.028187929 -0.019216405
0.17464617 -0.11911919 0.111297406 -0.043161634 0.10766302 -0.048408423 0.14423025 0.16605584
0.12520087 -0.10115465 0.017714862 -0.0723576 -0.095939025 -0.12111206 0.08599539 0.05030309
-0.029801812 0.051229153 -0.10265374 -0.2097175 0.017288677 -0.043586545 -0.020536218 -0.12320344
-0.14509104 0.07808054 0.15502374 0.11943236 -0.07507439 0.20022164 -0.006993041 0.07205847
0.09951113 -0.001881988 -0.19683765 -0.20569229 0.03366007 0.031106591 -0.016649965 0.043549813
-0.083733335 -0.10443458 0.16404366 -0.03852847 -0.030911766 0.1047565 -0.04212759 -0.1618046
0.10095441 -0.026233455 0.035487607 0.04094512 0.039108336 -0.15027416 0.16883136 0.014231458
-0.05983797 0.0022711777 0.1735331 0.18148887 -0.061533008 -0.027961707 -0.03252297 -0.07124788
-0.113106914 0.1756904 -0.07306954 0.039869387 0.040152602 0.06702369 -0.0986436 -0.013664687
-0.10348969 -0.08592282 -0.010547326 -0.105223835 -0.027933953 0.029621888 -0.009071381 -0.05033063
0.16288573 0.17217265 -0.02136793 -0.01985118 -0.1526293 -0.104633294 0.07884467 -0.09597621
0.13808106 -0.15009685 0.043632846 0.050760392 -0.11473346 0.07124752 -0.10923256 -0.09008104
00000000: e4b1 8f3d e875 a7bd 57d0 92bd 3a56 473d
00000010: 7eec 4abe d0f0 e5bd 6a8b b8bc 4e5e 05be
00000020: 6fd8 e43d 41ba 743c 4de6 27be 2a47 a9bd
00000030: f35b da3d 03a9 33bd 51a8 15bd 18ce 96bd
00000040: 36e9 433e a526 103d e2ac c83d 0d9e a53c
00000050: e7d2 c93d c9f5 d23d 6324 7b3d 9974 27be
00000060: a3e3 003e 1984 f1bd 75c2 d13d f546 abbd
00000070: f1e0 8e3d b0aa 183d 71ea cb3d 6198 c73d
00000080: bd57 3d3e ae8b 233d 5264 17be 54d3 22be
00000090: 1322 c4bd fc5d a13b bb23 233e 0a49 4e3e
000000a0: a191 41bd 8ba3 ab3d 6a61 083d 4d94 7bbd
000000b0: 0e90 06be b0e1 073d b3b6 433d 63bc 743b
000000c0: 8997 a9bd dfab fbbd e08b a73d fdc7 3ebe
000000d0: 3d71 78bd b03e 49bd 17ab 993c e4cc 88bd
000000e0: f14c dfbd 3340 573e 6adc e2bd bce7 2ebd
000000f0: 1162 52be 553b 413d 7553 2abe 60ea c6bd
00000100: bde3 30be 11df 0e3e b4f8 f43d 1e91 18bd
00000110: a5ef 1f3c 4d52 be3d 41b6 10be 3e9b 183e
00000120: a32d 04bb 7ff5 dcbc eabe 8e3d b593 c23d
00000130: b1ab 18bd d99b fcbd 3edf c9bd d838 53be
00000140: 5aac e9bc 4ed9 d03d d446 a3bc 30fd 0b3e
00000150: d300 79bd b8b6 38be beb2 6dbe c07d 4b3d
00000160: dea6 00be 9f4a 47bd 559c ffbd 544a b13d
00000170: 2c9f 193e acda 8cbd ba5e 873d d9c8 f73d
00000180: f5b9 163e de6b 043e 2889 b73c f9ac 473e
00000190: d7ae a2bd 9d17 34bd beb5 873d 0a49 bcbd
000001a0: 1488 293e 96ea 3f3e 0de9 b03d bc31 903d
000001b0: 9db1 adbd f219 dd3d be29 e7bd 007f 47bb
000001c0: f41e 2f3d 87f1 08bc f127 e13d 39f3 f3bd
000001d0: e701 19bd 24c7 313e 7e8e a03d b209 a4bd
000001e0: 506e 7abd f7a4 56bd 3094 33be 23d8 ecbc
000001f0: 3c9d 0c3e 70ef 97bc 1321 1f3e 69d9 cabc
00000200: 8007 c0bd a92c 533e ce27 4c3d 045c dc3d
00000210: df11 babd a18d c03d 2a19 00be b2c9 cfbc
00000220: eb4f 2cbe 577f cf3c bace 033e 8311 13bd
00000230: ea88 963d c43f 86bd 46c2 39bc aee8 85be
00000240: 9079 313e 577c 02be e282 0fbd e155 3dbe
00000250: 81d8 0b3e 54ed e6bd 6be7 e73d 7243 a13d
00000260: d64a 0bbd ab22 0cbe 7c1d 04be eccd 9fbd
00000270: 7c8f 9e3d 1615 a5bd 5fea e6bc b96b 9dbc
00000280: 72d6 323e c3f4 f3bd e5ef e33d 41ca 30bd
00000290: 6e7e dc3d e947 46bd 18b1 133e 8b0a 2a3e
000002a0: a834 003e 2b2a cfbd c21e 913c 3930 94bd
000002b0: ae7b c4bd 9a09 f8bd 5a1e b03d 9d0a 4e3d
000002c0: ee22 f4bc a9d5 513d 203c d2bd 2fc0 56be
000002d0: fca0 8d3c ce87 32bd 923b a8bc 1652 fcbd
000002e0: bf92 14be b1e8 9f3d 8bbe 1e3e f498 f43d
000002f0: 9ac0 99bd e706 4d3e e125 e5bb 6493 933d
00000300: 7ecc cb3d 0aad f6ba cf8f 49be 00a1 52be
00000310: 24df 093d 40d3 fe3c 8265 88bc 4a61 323d
00000320: 627c abbd cce1 d5bd 10fb 273e 07d0 1dbd
00000330: ac3a fdbc 938a d63d fb8d 2cbd 1bb0 25be
00000340: 30c1 ce3d 8be7 d6bc 745b 113d 12b6 273d
00000350: 1030 203d 78e1 19be 21e2 2c3e 102b 693c
00000360: a918 75bd 0ad8 143b a9b2 313e 38d8 393e
00000370: 090a 7cbd f30f e5bc ce36 05bd 69ea 91bd
00000380: 99a4 e7bd 2fe8 333e 7ca5 95bd 154e 233d
00000390: 0e77 243d b743 893d a805 cabd dae1 5fbc
000003a0: 67f2 d3bd 4ef8 afbd b1ce 2cbc 987f d7bd
000003b0: bfd5 e4bc 9aa9 f23c 21a0 14bc 7e27 4ebd
000003c0: 84cb 263e 074e 303e cc0b afbc f19e a2bc
000003d0: db4a 1cbe fb49 d6bd 5079 a13d 2d8f c4bd
000003e0: 1f65 0d3e fdb2 19be 5bb8 323d 21ea 4f3d
000003f0: 60f9 eabd 38ea 913d 52b5 dfbd 697c b8bd

gru.bias_ih_l0 f4 [96]
0.10016167 0.040706206 0.09895547 -0.07075407 -0.013404651 -0.030147504 0.023925208 0.0413522
0.1119969 0.0032325005 0.019424802 0.09763081 -0.16551599 0.1529325 0.198059 -0.023701578
0.0834734 0.16941263 -0.20557916 -0.00034592947 0.042689238 -0.101981916 -0.14703383 -0.08884049
0.060727004 -0.04203409 0.0969138 -0.06414587 0.06833105 0.061944626 -0.08287187 0.09237069
0.13447195 0.070495054 -0.0011562535 0.13131823 0.013404161 0.064619645 -0.068540104 -0.17684762
0.16226456 -0.113224216 0.07325248 0.14245372 0.063203074 0.030618431 0.26093668 0.013592759
0.029941358 0.14364883 0.11670589 -0.20733517 0.051204156 -0.03917296 0.050205927 0.19244836
0.0010504189 -0.19418873 0.019441182 0.20262833 -0.035535403 0.15033527 0.16256398 -0.13881013
0.035943557 0.1394387 -0.03146438 -0.050438564 0.14612697 0.095316514 -0.15992068 -0.11700706
0.02978689 0.014422114 -0.11157728 0.15044759 -0.22371297 -0.0037123756 0.124033324 -0.011170627
0.16190842 0.17250723 0.09392348 -0.14370503 0.024238784 0.063665725 -0.094870746 -0.1671999
-0.11008654 0.024209486 -0.028985739 0.03566642 0.087345645 -0.12767407 -0.17456906 -0.07912227
00000000: 9021 cd3d 8dbb 263d 2aa9 ca3d 83e7 90bd
00000010: 2e9f 5bbc e6f7 f6bc ccfe c33c ed60 293d
00000020: a15e e53d 5cd8 533b c320 9f3c aaf2 c73d
00000030: 067d 29be 569a 1c3e facf 4a3e d029 c2bc
00000040: 1af4 aa3d 817a 2d3e 5883 52be de5d b5b9
00000050: e9da 2e3d e5db d0bd 0990 16be 01f2 b5bd
00000060: e1bc 783d f02b 2cbd be7a c63d e95e 83bd
00000070: 26f1 8b3d a6b9 7d3d bab8 a9bd d82c bd3d
00000080: 04b3 093e b65f 903d 6e8d 97ba 4978 063e
00000090: 209d 5b3c 4e57 843d c15e 8cbd 8b17 35be
000000a0: ae28 263e 19e2 e7bd 6505 963d 63df 113e
000000b0: 9d70 813d 81d3 fa3c 7e99 853e 2ab4 5e3c
000000c0: 9447 f53c ae18 133e 7f03 ef3d ac4f 54be
000000d0: 73bb 513d d373 20bd bba4 4d3d 2f11 453e
000000e0: 36ae 893a 69d9 46be 1d43 9f3c cd7d 4f3e
000000f0: 928d 11bd 7df1 193e 2c77 263e 3e24 0ebe
00000100: 8d39 133d 05c9 0e3e cbe0 00bd ab98 4ebd
00000110: 4fa2 153e 4e35 c33d 3fc2 23be 66a1 efbd
00000120: a303 f43c bb4a 6c3c a182 e4bd ef0e 1a3e
00000130: 0315 65be 544b 73bb 2f05 fe3d 0105 37bc
00000140: 52cb 253e bca5 303e f45a c03d 6927 13be
00000150: 6a90 c63c 2d63 823d 984b c2bd 7336 2bbe
00000160: 0d75 e1bd f952 c63c 8073 edbc f416 123d
00000170: 46e2 b23d febc 02be 3bc2 32be db0a a2bd

gru.bias_hh_l0 f4 [96]
0.117724836 0.09439663 0.10599339 -0.11607539 -0.12815422 -0.108663276 -0.18696712 0.011575774
-0.039547943 0.06808064 0.095036775 0.0908829 -0.010855374 0.042616818 0.028960057 -0.11851368
0.022598702 0.030540941 -0.005486804 -0.17646876 0.013477301 0.14328335 0.10926207 0.16319571
0.08308231 0.15588783 0.11619574 -0.037298657 0.18072617 0.12424206 0.024336597 -0.10412564
0.14339581 -0.025023496 0.013179013 0.0942937 0.098262824 0.06356428 0.15890336 -0.07722041
-0.027692948 0.008746852 0.22799766 0.030506603 0.17996748 0.018883316 -0.021387197 -0.12793148
-0.21282825 -0.09961788 0.10947693 0.06496454 -0.012090267 0.12466467 0.07591437 0.104082175
0.0012786048 0.075974904 -0.07486313 -0.0017808034 -0.13028413 -0.14155917 0.03188596 -0.05109321
0.104738936 0.10477352 -0.041569564 0.1803168 -0.0226321 -0.055741884 0.14187554 0.02045256
-0.10681743 0.19073716 0.050615434 -0.091325 0.07231248 0.0483197 -0.20732528 -0.10043594
0.036578108 0.0011761629 -0.008086224 0.13113627 0.1526279 0.16437748 0.08383832 -0.15661778
0.0016892937 -0.17715101 -0.17751957 -0.21234187 0.030105455 0.19289227 -0.097325586 -0.19237009
00000000: b819 f13d 0553 c13d 1013 d93d efb8 edbd
00000010: dc3a 03be da8a debd 4f74 3fbe 51a8 3d3c
00000020: 06fd 21bd dd6d 8b3d a4a2 c23d d020 ba3d
00000030: bdda 31bc f98e 2e3d a43d ed3c 4db7 f2bd
00000040: ea20 b93c ff30 fa3c a6ca b3bb 3ab4 34be
00000050: e6cf 5c3c dfb8 123e cbc4 df3d c71c 273e
00000060: 0f27 aa3d 0fa1 1f3e 08f8 ed3d 7ac6 18bd
00000070: 4810 393e 9f72 fe3d 8b5d c73c d33f d5bd
00000080: 5ad6 123e 13fe ccbc c9ec 573c 0e1d c13d
00000090: 053e c93d fd2d 823d 90b7 223e bc25 9ebd
000000a0: 52dc e2bc f54e 0f3c 3878 693e fce8 f93c
000000b0: 6549 383e 2fb1 9a3c 3434 afbc 7800 03be
000000c0: a6ef 59be 7604 ccbd 7135 e03d 210c 853d
000000d0: 4116 46bc 3150 ff3d fe78 9b3d 0929 d53d
000000e0: dc96 a73a bb98 9b3d d751 99bd d969 e9ba
000000f0: 3469 05be e3f4 10be da9a 023d 1d47 51bd
00000100: 5e81 d63d 8093 d63d d944 2abd f8a4 383e
00000110: f466 b9bc 9a51 64bd d247 113e 218c a73c
00000120: 19c3 dabd 9a50 433e 2152 4f3d 9a08 bbbd
00000130: 9118 943d e1ea 453d 144d 54be 5cb1 cdbd
00000140: edd2 153d 7a29 9a3a 157c 04bc 9648 063e
00000150: 7d4a 1c3e 9252 283e 6db3 ab3d 6960 20be
00000160: 4a6b dd3a 1367 35be b1c7 35be 2670 59be
00000170: b79f f63c 8d85 453e a352 c7bd aafc 44be

output_layers.0.weight f4 [64, 32]
0.1384726 -0.09949883 -0.14035518 -0.13518658 0.18485159 0.14121468 -0.16457365 -0.09764887
-0.14775352 0.09769464 -0.14167237 -0.05887507 -0.14207073 0.16939712 -0.03375575 0.023158533
-0.14293978 0.17865859 0.18779473 0.094537996 0.14190844 -0.07327909 -0.19495113 -0.18137361
-0.13131809 -0.07248036 0.15039952 -0.059113003 -0.059058934 0.11021451 -0.1773979 0.06519922
-0.022710107 0.13088973 0.12780884 0.11662826 -0.0012165611 -0.059875842 0.07404933 0.015189384
-0.11054132 0.096838735 -0.07050586 -0.206309 0.028677622 -0.020621635 -0.080806494 0.08252096
-0.025612043 0.07265312 -0.055696625 0.15050787 -0.12157013 0.065013595 -0.02760155 0.042224467
-0.116958015 -0.057610024 0.06492302 -0.20085445 0.13085261 -0.09131995 -0.1517661 0.032486588
-0.07474889 0.11565548 -0.009493354 -0.09008482 0.13822071 0.0629562 0.17124179 -0.16845489
0.054172024 -0.030272422 -0.094086155 0.16879633 -0.12458928 0.11576541 -0.15204905 -0.18693256
-0.107774764 0.17072003 0.09565357 -0.17386356 0.119248934 -0.0072772787 -0.13115086 -0.16641672
-0.044754405 0.0027305991 -0.14447232 -0.006500532 0.064778395 0.18637608 -0.006086719 -0.06368291
-0.05308872 0.19197711 -0.113002755 0.009621916 -0.017886953 -0.13369966 -0.0027036206 -0.14992037
-0.05230379 0.06834081 -0.0030067263 -0.20045437 -0.12952575 -0.016590333 0.0648148 -0.06842281
0.14410613 -0.09903317 -0.027349278 0.008251256 -0.05090718 0.0631238 0.065956585 0.0006928083
0.016490836 0.013955918 -0.03828616 -0.027597966 -0.0293493 -0.13976958 -0.06905351 0.1646494
-0.13180433 0.13692977 -0.120557 0.004726032 0.009040768 -0.019294929 0.063360944 -0.0059053474
0.14713752 -0.115817904 0.0869588 -0.03800249 0.16516149 0.0959013 -0.13497192 0.015696734
-0.1823837 0.13620897 0.13444172 -0.12162336 0.14002724 0.12836857 0.073375106 -0.068617634
0.09987695 -0.12822641 0.0017043563 0.15410219 -0.1309385 -0.006290474 0.18159893 0.16035415
0.13964388 -0.1348374 -0.1398354 0.17646822 0.16193758 -0.06365113 0.1491745 -0.01140362
-0.0058342763 -0.09896356 0.095073506 -0.132701 -0.029273149 -0.037089318 0.1666691 0.05460412
-0.06372414 -0.01475168 -0.033695832 -0.083121456 -0.05489082 -0.15819213 0.03249102 -0.11864481
-0.050979175 -0.06843893 0.11205725 0.0671593 -0.045063157 -0.09852721 0.109806515 0.059390772
0.106824294 0.112199344 -0.04254662 -0.091696694 -0.19235079 -0.023178838 0.055235278 -0.145673
0.03732275 0.046639796 -0.107190415 -0.010528168 -0.066439934 0.15249489 -0.116450325 0.07153152
0.100354604 -0.028224882 -0.09265602 -0.113936335 0.031872336 0.060347907 -0.017129324 -0.051632658
0.1120616 0.10971049 0.08107855 0.07393295 -0.05921102 0.17556825 -0.1439326 -0.13360475
0.20671514 -0.07286277 0.08235989 -0.050710946 0.08213394 -0.01052191 -0.0013071264 0.05429549
-0.17517191 0.18348777 -0.20178191 0.1697819 -0.15277489 0.06708442 -0.07934091 -0.018827716
0.18482724 0.18383391 0.08608543 -0.04345805 -0.03385057 -0.044466514 0.11716115 -0.087877095
-0.18771784 -0.0030832763 -0.12538293 -0.025356373 0.1227319 -0.09439981 -0.126636 0.09473761
00000000: c3cb 0d3e 0bc6 cbbd 45b9 0fbe 5a6e 0abe
00000010: bc49 3d3e 959a 103e ff85 28be 21fc c7bd
00000020: b34c 17be 2114 c83d 9012 11be fc26 71bd
00000030: fd7a 11be 7076 2d3e 7843 0abd f7b6 bd3c
00000040: ce5e 12be 47f2 363e 434d 403e 239d c13d
00000050: 7250 113e 5913 96bd 45a1 47be 01ba 39be
00000060: 4078 06be 9570 94bd 5502 1a3e 7a20 72bd
00000070: c8e7 71bd 25b8 e13d cca7 35be 2b87 853d
00000080: 8c0a babc f507 063e 52e0 023e ccda ee3d
00000090: 0475 9fba 5f40 75bd 2da7 973d e5dc 783c
000000a0: 7d63 e2bd 6353 c63d 6065 90bd ab42 53be
000000b0: 55ed ea3c b4ee a8bc e07d a5bd c000 a93d
000000c0: 59d0 d1bc 29cb 943d 2522 64bd bc1e 1a3e
000000d0: c3f9 f8bd d925 853d a51c e2bc 90f3 2c3d
000000e0: af87 efbd 7df8 6bbd 5cf6 843d caac 4dbe
000000f0: 3afe 053e f405 bbbd 9368 1bbe a810 053d
00000100: f215 99bd c8dc ec3d 038a 1bbc 647e b8bd
00000110: bb89 0d3e 2eef 803d 025a 2f3e 707f 2cbe
00000120: 7ce3 5d3d dffd f7bc 3eb0 c0bd f2d8 2c3e
00000130: aa28 ffbd 6a16 ed3d bfb2 1bbe 406b 3fbe
00000140: 04b9 dcbd 3bd1 2e3e 05e6 c33d 4a09 32be
00000150: c938 f43d 3d76 eebb 694c 06be 2569 2abe
00000160: 6550 37bd daf3 323b 8df0 13be 6a02 d5bb
00000170: 89aa 843d 5fd9 3e3e 1a73 c7bb 2f6c 82bd
00000180: 8f73 59bd a695 443e fd6d e7bd 3ea5 1d3c
00000190: a987 92bc 90e8 08be 3a2f 31bb ba84 19be
000001a0: 803c 56bd 44f6 8b3d 7f0c 45bb e943 4dbe
000001b0: 66a2 04be 73e8 87bc 9fbd 843d 4221 8cbd
000001c0: 8f90 133e e7d1 cabd 980b e0bc 4730 073c
000001d0: 0c84 50bd 0d47 813d 3f14 873d 949d 353a
000001e0: ca17 873c 5da7 643c f3d1 1cbd 2115 e2bc
000001f0: f16d f0bc c21f 0fbe ed6b 8dbd da99 283e
00000200: b7f7 06be 5137 0c3e 97e6 f6bd d4dc 9a3b
00000210: bb1f 143c 6610 9ebc 62c3 813d a581 c1bb
00000220: 38ab 163e f031 edbd 7517 b23d 80a8 1bbd
00000230: 1820 293e e767 c43d 1436 0abe 7096 803c
00000240: cbc2 3abe 5d7a 0b3e 17ab 093e ab15 f9bd
00000250: 4d63 0f3e 0d73 033e b045 963d 6787 8cbd
00000260: 498c cc3d c94d 03be b564 df3a f7cc 1d3e
00000270: be14 06be 5220 cebb 12f5 393e e133 243e
00000280: cefe 0e3e d112 0abe 0331 0fbe 16b4 343e
00000290: f7d2 253e 865b 82bd 33c1 183e 40d6 3abc
000002a0: 752d bfbb 68ad cabd e6b5 c23d c5e2 07be
000002b0: 3ece efbc f8ea 17bd 4eab 2a3e 92a8 5f3d
000002c0: cd81 82bd 08b1 71bc a404 0abd 953b aabd
000002d0: 32d5 60bd 1efd 21be 4e15 053d 0dfc f2bd
000002e0: 8acf 50bd b629 8cbd 467e e53d d18a 893d
000002f0: 2594 38bd a2c8 c9bd 3de2 e03d bd43 733d
00000300: b2c6 da3d c5c8 e53d 5d45 2ebd 7acb bbbd
00000310: 9bf7 44be 8ce1 bdbc 633e 623d 4e2b 15be
00000320: bddf 183d 5f09 3f3d a686 dbbd 567e 2cbc
00000330: a911 88bd 9f27 1c3e 827d eebd 1e7f 923d
00000340: b786 cd3d de37 e7bc 70c2 bdbd 7457 e9bd
00000350: 918c 023d 5e2f 773d cc52 8cbc c47c 53bd
00000360: 8d80 e53d e5af e03d 830c a63d 296a 973d
00000370: 4187 72bd 2ac8 333e 1163 13be afcf 08be
00000380: 22ad 533e 1339 95bd 4dac a83d 48b6 4fbd
00000390: d735 a83d 1764 2cbc e253 abba f364 5e3d
000003a0: 4460 33be 38e4 3b3e eb9f 4ebe 4edb 2d3e
000003b0: 0571 1cbe 8e63 893d 7d7d a2bd 953c 9abc
000003c0: 5a43 3d3e f53e 3c3e 8f4d b03d 1101 32bd
000003d0: e5a6 0abd 8522 36bd 2ff2 ef3d e8f8 b3bd
000003e0: 1b39 40be cb10 4abb 6264 00be 2bb8 cfbc
000003f0: dd5a fb3d b054 c1bd deac 01be cb05 c23d

output_layers.0.bias f4 [64]
0.08797678 0.0039783535 0.133877 0.03510638 -0.16294982 0.037434816 -0.1507168 -0.0523106
0.14961262 -0.1386276 -0.07741775 0.07863612 0.10084229 0.115177445 -0.060268603 -0.05189427
0.014915567 -0.08253649 -0.17169842 0.06036792 -0.102710575 -0.0134806475 -0.12950763 -0.08579983
-0.05399327 0.21676356 -0.0023592548 0.16347034 0.085668705 -0.009392484 -0.039313547 -0.08564035
0.15405376 -0.09800874 0.11658862 0.1340878 -0.011252537 0.2084591 0.11360441 0.13103351
0.21541286 0.11395645 0.009526071 -0.13818674 0.09543724 0.008120369 0.17937998 0.1466369
-0.11157941 0.080696285 -0.072071664 -0.13472734 0.05931111 0.14992917 0.12885861 0.020358104
-0.005764945 -0.12690938 -0.16456594 -0.14887159 0.1746505 0.121327676 -0.11802751 -0.13079762
00000000: 2c2d b43d d95c 823b 0d17 093e b5cb 0f3d
00000010: 51dc 26be 4055 193d 8155 1abe a443 56bd
00000020: 0d34 193e 65f4 0dbe 338d 9ebd f90b a13d
00000030: 6786 ce3d 27e2 eb3d 36dc 76bd 168f 54bd
00000040: 6c60 743c e408 a9bd b6d1 2fbe 5a44 773d
00000050: ec59 d2bd efdd 5cbc a69d 04be d2b7 afbd
00000060: 0c28 5dbd 44f7 5d3e ba9d 1abb c564 273e
00000070: 1373 af3d efe2 19bc 3e07 21bd 3564 afbd
00000080: 45c0 1d3e ceb8 c8bd 04c6 ee3d 504e 093e
00000090: 905c 38bc 4d76 553e 6ea9 e83d a62d 063e
000000a0: 3095 5c3e 0062 e93d 3d13 1c3c d380 0dbe
000000b0: 9a74 c33d 4c0b 053c 63af 373e fc27 163e
000000c0: bf83 e4bd 1844 a53d 4f9a 93bd f7f5 09be
000000d0: 35f0 723d 0887 193e 83f3 033e 0ac6 a63c
000000e0: dde7 bcbb 88f4 01be f983 28be cb71 18be
000000f0: 95d7 323e a57a f83d 68b8 f1bd d0ef 05be

output_layers.3.weight f4 [32, 64]
-0.099840365 -0.14089575 -0.11351806 -0.14066027 -0.012228121 -0.089772366 -0.029054455 -0.053840943
-0.0044321413 0.011670255 0.01051856 -0.07450171 0.0064792493 -0.020354785 -0.036322743 -0.109521925
-0.11872051 0.040433962 -0.09728931 0.034061514 0.040045355 -0.1270669 -0.07926603 -0.1536859
-0.035366394 0.019233331 0.020073863 -0.077226035 0.07783455 0.04903832 0.062074836 -0.0058195973
-0.13918704 -0.010174897 -0.052184384 0.004297934 0.056422908 -0.11833154 -0.13258663 0.062319573
-0.058199517 0.044835657 -0.07988255 0.01464266 0.05147814 0.034559935 0.004077511 -0.053157907
-0.122721836 -0.10328826 -0.076159716 0.06512932 0.08608261 -0.020486446 -0.039784726 -0.14902742
-0.109074235 0.06785382 -0.025298854 0.063692495 -0.068883404 -0.018038884 0.051334534 -0.09661964
-0.039528377 -0.044312082 0.010752902 0.06876783 -0.029042393 0.009221603 0.047766283 0.012586105
-0.0030523783 -0.101342484 0.013651364 0.085266836 0.081349306 0.038533203 -0.07828785 0.016093794
0.029616686 -0.04906487 0.10432126 -0.04881153 0.10431948 0.010827518 -0.013483141 -0.11051736
-0.10695345 0.047051236 0.024061304 -0.073442616 -0.105344474 -0.033228137 0.0617354 -0.041562933
0.07569218 0.042506136 -0.041438818 -0.117288366 -0.12223611 -0.020331541 -0.1259472 -0.029923173
0.028811386 -0.14807472 0.006914698 0.005147108 0.04181476 0.061141692 -0.11194134 0.014035273
0.0122343125 -0.061821867 -0.13639058 -0.115210176 -0.07860494 -0.04803314 0.01129514 0.02358739
0.057785627 0.061648697 0.030531928 0.0055403644 0.023847304 -0.036454532 -0.13179451 0.023268547
-0.08306856 0.0071382606 -0.07131974 0.017980538 0.008476342 0.10206877 0.07276043 0.096152656
-0.044671103 0.13823861 0.084375694 -0.0010625125 0.107142545 -0.04161466 0.047322623 0.05709654
0.043375567 -0.060738496 0.00493267 0.058100376 0.026746033 0.07266546 -0.15338056 -0.10781079
-0.078064986 0.049511746 0.0632556 0.08099978 0.06231703 0.10414002 -0.08982934 0.04672364
0.022672543 0.0915463 0.06251686 -0.010016599 0.0005963264 0.079908244 -0.07310014 0.09727763
-0.030072706 -0.011721604 -0.016276347 -0.11361678 0.11560706 0.09876843 -0.07414071 0.10659184
0.109900706 -0.038009427 0.034253903 0.014846504 0.014603754 -0.02412289 0.06591251 0.044817016
0.07946256 -0.0037976624 0.11462616 0.038056877 0.030974671 -0.10308891 -0.036782783 0.13299976
0.034623746 -0.09213084 -0.059262317 -0.041002575 -0.05333581 -0.11759963 0.08115482 0.057116993
-0.038971875 0.05904296 -0.094552636 -0.008361127 0.08713605 -0.065048896 -0.06395408 0.079850316
-0.08842228 -0.034985512 0.04998145 0.032641266 0.033455573 -0.02374134 -0.13764606 -0.114837594
-0.10850107 0.010777126 -0.10639562 -0.01762665 0.08628365 -0.063561134 -0.1251164 0.027726607
-0.0140426075 -0.062577985 -0.05185654 -0.14158823 0.035384838 -0.12387108 0.050416626 -0.151821
-0.10262265 -0.00041244706 0.048949234 -0.057909 0.07489972 0.054365695 -0.13576905 0.011954564
-0.08749946 0.05356957 0.04640098 -0.07903447 -0.040448327 -0.081591755 -0.033453587 0.045349117
-0.03239627 -0.01505018 -0.041260265 -0.12105563 0.06535477 0.029653313 0.038482334 -0.1248556
00000000: 1b79 ccbd fa46 10be 287c e8bd 3f09 10be
00000010: 7558 48bc 93da b7bd 9c03 eebc 5288 5cbd
00000020: 7f3b 91bb 9934 3f3c 0a56 2c3c 5a94 98bd
00000030: e24f d43b 14bf a6bc 28c7 14bd 084d e0bd
00000040: bd23 f3bd 159e 253d 9e3f c7bd 1684 0b3d
00000050: 9906 243d d31d 02be 3a56 a2bd d65f 1dbe
00000060: 5adc 10bd 388f 9d3c f171 a43c af28 9ebd
00000070: b867 9f3d 68dc 483d 2f42 7e3d 52b2 bebb
00000080: 0c87 0ebe 9cb4 26bc 4bbf 55bd afd5 8c3b
00000090: b51b 673d ce57 f2bd cac4 07be cf42 7f3d
000000a0: 9e62 6ebd 98a5 373d 7699 a3bd c4e7 6f3c
000000b0: beda 523d b88e 0d3d a49c 853b 1bbc 59bd
000000c0: 9655 fbbd cc88 d3bd a0f9 9bbd 8562 853d
000000d0: 144c b03d 31d3 a7bc 4ff5 22bd a59a 18be
000000e0: 5062 dfbd f2f6 8a3d 8b3f cfbc 3671 823d
000000f0: be12 8dbd 48c6 93bc 2944 523d 85e0 c5bd
00000100: 82e8 21bd 9680 35bd f12c 303c 26d6 8c3d
00000110: 50ea edbc 3516 173c 94a6 433d f335 4e3c
00000120: 690a 48bb a68c cfbd f8a9 5f3c 61a0 ae3d
00000130: 779a a63d fed4 1d3d 6155 a0bd 22d7 833c
00000140: b19e f23c 3ff8 48bd 62a6 d53d 99ee 47bd
00000150: 74a5 d53d e765 313c 64e8 5cbc ed56 e2bd
00000160: 690a dbbd ccb8 403d 361c c53c 1569 96bd
00000170: d8be d7bd 3a1a 08bd 42de 7c3d e53d 2abd
00000180: 8004 9b3d ea1a 2e3d c0bb 29bd e234 f0bd
00000190: ed56 fabd 558e a6bc 4ef8 00be 7121 f5bc
000001a0: db05 ec3c e6a0 17be b194 e23b 12a9 a83b
000001b0: f445 2b3d b66f 7a3d 8041 e5bd 34f4 653c
000001c0: 6d72 483c ed38 7dbd f9a9 0bbe 50f3 ebbd
000001d0: a0fb a0bd 66be 44bd 400f 393c 583a c13c
000001e0: 9fb0 6c3d 5883 7c3d 181e fa3c f28b b53b
000001f0: 6c5b c33c 5951 15bd 24f5 06be ae9d be3c
00000200: d91f aabd 12e8 e93b 1510 92bd ec4b 933c
00000210: 5be0 0a3c 6e09 d13d 6c03 953d afeb c43d
00000220: 0cf9 36bd 6c8e 0d3e 2acd ac3d 0144 8bba
00000230: 8d6d db3d 2274 2abd 5ed5 413d 10de 693d
00000240: 94aa 313d eec8 78bd 3ca2 a13b a9fa 6d3d
00000250: 7f1a db3c a1d1 943d cb0f 1dbe e7cb dcbd
00000260: 89e0 9fbd d4cc 4a3d 278c 813d 36e3 a53d
00000270: 2440 7f3d 5d47 d53d 72f8 b7bd 4a61 3f3d
00000280: c5bb b93c a07c bb3d d708 803d a91c 24bc
00000290: ca52 1c3a efa6 a33d 87b5 95bd 7e39 c73d
000002a0: 095b f6bc f80b 40bc f955 85bc eaaf e8bd
000002b0: 65c3 ec3d 1a47 ca3d 16d7 97bd d34c da3d
000002c0: 9f13 e13d c6af 1bbd d24d 0c3d c03e 733c
000002d0: 9544 6f3c 5e9d c5bc 23fd 863d 0c92 373d
000002e0: 44bd a23d 34e2 78bb 1fc1 ea3d 87e1 1b3d
000002f0: 98be fd3c 4720 d3bd 8ba9 16bd 1731 083e
00000300: a1d1 0d3d 18af bcbd 0bbd 72bd 51f2 27bd
00000310: a676 5abd 13d8 f0bd 8034 a63d 82f3 693d
00000320: f9a0 1fbd 08d7 713d d0a4 c1bd 1cfd 08bc
00000330: 6374 b23d 5b38 85bd 5bfa 82bd 9088 a33d
00000340: be16 b5bd f84c 0fbd 59b9 4c3d d9b2 053d
00000350: b608 093d 337d c2bc 17f3 0cbe f92f ebbd
00000360: cf35 debd 8b92 303c f2e5 d9bd c465 90bc
00000370: 7bb5 b03d 572c 82bd 831e 00be e922 e33c
00000380: f712 66bc e328 80bd 8667 54bd 81fc 10be
00000390: b1ef 103d 1fb0 fdbd aa81 4e3d f776 1bbe
000003a0: d32b d2bd b53d d8b9 fe7e 483d fd31 6dbd
000003b0: 0665 993d 90ae 5e3d 0b07 0bbe 13dd 433c
000003c0: eb32 b3bd c46b 5b3d f40e 3e3d d3dc a1bd
000003d0: 25ad 25bd 9419 a7bd a106 09bd ffbf 393d
000003e0: f4b1 04bd 0895 76bc 8600 29bd 04ec f7bd
000003f0: b9d8 853d 81eb f23c a79f 1d3d 4bb4 ffbd

output_layers.3.bias f4 [32]
0.014045713 -0.12705651 0.04385577 -0.12379316 0.03228543 0.0748426 -0.1062317 0.11292582
-0.115878396 0.09065745 0.0923148 -0.119626455 -0.07587438 0.023003403 -0.0024704563 -0.037680574
0.12212372 -0.117437005 0.17210966 0.08436843 0.14746016 -0.06774033 0.14244469 -0.04847897
-0.14055817 0.049907938 -0.053318605 0.20115729 -0.091301546 -0.052022737 0.05460366 0.0627102
00000000: fd1f 663c 1a1b 02be 1ca2 333d 4587 fdbd
00000010: ba3d 043d 1447 993d 0190 d9bd a745 e73d
00000020: a751 edbd 9daa b93d 8b0f bd3d b7fe f4bd
00000030: 0764 9bbd a271 bc3c 61e7 21bb f256 1abd
00000040: 001c fa3d d082 f0bd 843d 303e 5bc9 ac3d
00000050: ccff 163e 71bb 8abd 05dd 113e e291 46bd
00000060: 7bee 0fbe 446c 4c3d 9c64 5abd 2dfc 4d3e
00000070: 4efc babd cb15 55bd 16a8 5f3d 356e 803d

output_layers.6.weight f4 [2, 32]
0.14152162 0.017047713 -0.035045374 0.051058684 -0.118896075 0.09654614 0.118163265 0.08431791
-0.11136683 0.004073519 0.0908155 -0.03874878 -0.0792516 0.0048300563 0.0029717798 0.043293126
0.020068817 -0.08674968 0.001854558 -0.09199499 0.0015592829 -0.087958604 0.0022092552 -0.1093245
-0.022119315 -0.004526255 0.024281232 0.0013223443 -0.119211555 -0.018560309 0.002140449 -0.03840511
0.12864356 0.043294918 -0.19677965 0.1278204 0.069369905 0.072407246 -0.17631978 -0.12880853
-0.1170004 -0.18944348 0.11859208 -0.14050916 0.08979702 -0.23111048 -0.20732233 -0.13756794
-0.29489443 -0.11024444 -0.22146717 0.06873226 -0.13698466 -0.27554852 -0.22607157 0.01477275
0.15826109 -0.29203904 0.09582051 -0.21824938 0.08498623 0.09712852 -0.17908418 -0.14418781
00000000: 0beb 103e a5a7 8b3c bd8b 0fbd e922 513d
00000010: c97f f3bd fcb9 c53d 95ff f13d deae ac3d
00000020: 4b14 e4bd 277b 853b 7afd b93d 0ab7 1ebd
00000030: aa4e a2bd 7345 9e3b 31c2 423b 2254 313d
00000040: 5c67 a43c d1a9 b1bd a414 f33a df67 bcbd
00000050: da60 cc3a a423 b4bd 27c9 103b 86e5 dfbd
00000060: 9133 b5bc fb50 94bb 6fe9 c63c 8352 ad3a
00000070: 3025 f4bd ca0b 98bc c646 0c3b ad4e 1dbd
00000080: 23bb 033e 0356 313d 9b80 49be 5ae3 023e
00000090: cf11 8e3d 404a 943d 2c8d 34be 62e6 03be
000000a0: e89d efbd 79fd 41be 68e0 f23d a2e1 0fbe
000000b0: 80e7 b73d 3aa8 6cbe 4e4c 54be 9cde 0cbe
000000c0: 67fc 96be d6c7 e1bd 4ac8 62be 80c3 8c3d
000000d0: b545 0cbe b214 8dbe 4e7f 67be 6809 723c
000000e0: 320f 223e 2486 95be 8b3d c43d c47c 5fbe
000000f0: 430d ae3d 51eb c63d d861 37be f8a5 13be

output_layers.6.bias f4 [2]
-0.008107307 -0.10892565
00000000: 83d4 04bc 6914 dfbd

exp_avg f4 [96, 15]
-0.00055936025 -0.00058316684 -0.00055418327 -0.0005648728 -0.00097585225 0.0007280853 1.4434246e-06 -0.00013777475
-0.00042411964 -0.0007850672 -0.00043081137 -0.00037639585 0.0 -0.0004999399 0.00014299432 -0.0005019751
-0.0005090038 -0.00048342848 -0.000489073 -0.0015347563 0.0008588226 0.00071056536 0.00056074676 -0.00023986564
-0.00039649624 -0.00038799297 -0.00023591262 0.0 -0.00042495586 4.13939e-05 -0.00023961502 -0.00023808394
-0.00025072217 -0.00024630755 -0.00021268651 0.0002938317 7.3573676e-05 1.0629746e-05 0.00041430097 -0.00074406795
-1.8052897e-05 -2.4593499e-05 0.0 -6.533791e-05 -1.7935716e-05 -0.0005264012 -0.00052766176 -0.0005217362
-0.00052285066 -0.0011465687 0.0012448857 0.00073653343 0.00046905095 0.00051578577 -0.00044160444 -0.00012311683
-6.0480426e-07 0.0 -0.00016194285 -3.0687348e-05 -0.00012942673 -0.00013761774 -0.00011187771 -0.00011836598
-0.0007353335 0.000760789 0.00035045436 0.00019892912 -0.00016838811 -0.00032474092 -4.745759e-05 -3.556949e-05
0.0 -0.00038187116 -3.266628e-05 -0.0006535197 -0.0006532082 -0.0006490887 -0.0006498145 -0.00013811624
0.00016650964 0.00014531273 0.00011931563 6.8054454e-05 -0.0001240795 1.9348565e-06 -3.9733604e-05 0.0
-5.4157063e-05 1.5714235e-05 -0.00030089277 -0.00030283752 -0.00029719702 -0.00029792372 5.138993e-05 6.668312e-05
7.801468e-05 7.065447e-05 -6.379701e-05 -0.00013796553 2.0276246e-05 -2.316417e-05 0.0 -5.3089047e-05
6.94813e-05 -6.7565044e-05 -6.227507e-05 -8.7219894e-05 -7.3782176e-05 -0.00021033046 0.0008126681 4.3842818e-05
-0.00012660761 0.00031575558 -0.00067775906 -4.5787165e-05 -0.0002740512 0.0 -0.00012541692 -0.00018750057
-0.00023297386 -0.00023669879 -0.00023686881 -0.00023580737 -4.626649e-05 0.00021119218 3.0714411e-06 -3.4356963e-05
-6.67943e-06 -0.00032631957 -1.4678822e-05 -4.147052e-05 0.0 -0.00010346318 -2.4417614e-05 0.00014089013
0.00012602814 0.00013352824 0.00011796948 -0.001344258 0.00045220036 -0.00048736914 -0.0006215832 -0.00022468914
0.0001999864 -0.00056085596 2.8364082e-05 0.0 -0.0009694107 0.00034488973 -0.0011109401 -0.001117672
-0.0011109074 -0.0011022245 0.0003947108 0.0012271482 0.0002696451 8.688436e-06 -0.00011433296 -0.0017630436
-4.1943247e-05 -0.000718748 0.0 -0.00019316131 -0.00039735087 -0.0005684232 -0.00056870136 -0.0005584602
-0.00055858435 -0.0012613393 0.0014192599 0.0007185994 0.00043399812 0.00055911095 0.00032833096 -0.00012532654
-0.00012760631 0.0 -0.00024035052 -6.047444e-05 0.00011000967 0.00010499981 0.00010907875 0.00010158826
-0.00042182492 0.00015525508 -0.00019054099 -0.00024424223 -0.00011395881 0.00027335456 -0.00013651238 0.00016931891
0.0 -0.00030758142 0.0001184301 -0.00035824988 -0.0003676549 -0.00035833288 -0.00036460458 -0.00050624495
0.00034096243 -0.00033068194 -0.00040537465 -3.553357e-05 7.522051e-05 -9.247696e-05 -0.00010222137 0.0
-0.00031609245 -5.1854542e-05 -8.146677e-05 -8.4254905e-05 -6.913933e-05 -7.3580646e-05 9.792411e-05 0.00020316163
0.00024417543 0.00023143862 -0.000459847 -0.00021204019 -3.0975956e-05 -0.0002423347 0.0 -8.039721e-05
-9.447208e-05 0.00033179994 0.00032478414 0.00032807354 0.0003238727 -0.0003431995 -5.6305173e-05 1.3154503e-05
2.5494808e-05 0.00027382508 0.00017350526 -5.886221e-06 5.5475564e-05 0.0 -5.4241318e-05 3.3997556e-05
0.00048776084 0.00049140776 0.00048072523 0.0004781088 0.00038247783 -0.00042548063 -0.00017616265 -7.315542e-05
-0.0002092829 0.0014841565 -0.00027867375 4.4786913e-05 0.0 -5.91541e-05 -1.6668067e-05 0.00086366496
00000000: 08a2 12ba aadf 18ba 9c46 11ba f913 14ba
00000010: 56d0 7fba fadc 3e3a b1bb c135 a177 10b9
00000020: 605c deb9 f8cc 4dba 86de e1b9 ff56 c5b9
00000030: 0000 0000 660e 03ba bff0 1539 fb96 03ba
00000040: ab6e 05ba ac74 fdb9 2235 00ba e029 c9ba
00000050: 9c22 613a 3c45 3a3a 14ff 123a 7184 7bb9
00000060: d3e0 cfb9 896b cbb9 505f 77b9 0000 0000
00000070: 9ccc deb9 5d9e 2d38 2b41 7bb9 2ca6 79b9
00000080: 5c73 83b9 d722 81b9 9a04 5fb9 6c0d 9a39
00000090: 914b 9a38 6956 3237 8936 d939 8e0d 43ba
000000a0: 4d70 97b7 234e ceb7 0000 0000 0606 89b8
000000b0: a874 96b7 30fe 09ba c852 0aba 20c5 08ba
000000c0: ea0f 09ba 7648 96ba 6f2b a33a ec13 413a
000000d0: f4ea f539 cc35 073a 2587 e7b9 ec18 01b9
000000e0: d559 22b5 0000 0000 34cf 29b9 4ab6 00b8
000000f0: b9b6 07b9 7b4d 10b9 e39f eab8 403b f8b8
00000100: 65c3 40ba af6f 473a 30bd b739 a197 5039
00000110: 5791 30b9 fd41 aab9 330d 47b8 7330 15b8
00000120: 0000 0000 e135 c8b9 2703 09b8 f750 2bba
00000130: 0f3c 2bba 9b27 2aba 5058 2aba 4cd3 10b9
00000140: 1799 2e39 175f 1839 1739 fa38 75b8 8e38
00000150: 561b 02b9 95d8 0136 a2a7 26b8 0000 0000
00000160: b426 63b8 10d2 8337 25c1 9db9 2ac6 9eb9
00000170: 1cd1 9bb9 a532 9cb9 848b 5738 3ad8 8b38
00000180: d09b a338 542c 9438 c2ca 85b8 d7aa 10b9
00000190: e816 aa37 ad50 c2b7 0000 0000 eeab 5eb8
000001a0: 7db6 9138 b5b1 8db8 ac99 82b8 d3e9 b6b8
000001b0: 81bb 9ab8 278c 5cb9 3c09 553a dee3 3738
000001c0: f9c1 04b9 ff8b a539 a4ab 31ba 980b 40b8
000001d0: 88ae 8fb9 0000 0000 5982 03b9 cd9b 44b9
000001e0: 724a 74b9 5932 78b9 fd5f 78b9 0f43 77b9
000001f0: 440e 42b8 7873 5d39 f51e 4e36 821a 10b8
00000200: de1f e0b6 df15 abb9 0f45 76b7 a2f0 2db8
00000210: 0000 0000 5ffa d8b8 6dd4 ccb7 e8bb 1339
00000220: 6c26 0439 b703 0c39 6266 f738 d031 b0ba
00000230: 4e15 ed39 9485 ffb9 bef1 22ba 889a 6bb9
00000240: 71b3 5139 6806 13ba 67ef ed37 0000 0000
00000250: 0d20 7eba 51d2 b439 f79c 91ba d97e 92ba
00000260: de9b 91ba 8478 90ba 30f1 ce39 43d8 a03a
00000270: 275f 8d39 8cc4 1137 0ac6 efb8 ed15 e7ba
00000280: 38ec 2fb8 5d6a 3cba 0000 0000 588b 4ab9
00000290: 8853 d0b9 3c02 15ba e714 15ba a165 12ba
000002a0: f66d 12ba 8653 a5ba 7606 ba3a 6460 3c3a
000002b0: 3e8a e339 4d91 123a d623 ac39 166a 03b9
000002c0: 0fce 05b9 0000 0000 9a06 7cb9 efa5 7db8
000002d0: feb4 e638 5833 dc38 35c1 e438 c80b d538
000002e0: 6228 ddb9 f8cb 2239 f5cb 47b9 a30d 80b9
000002f0: 2cfd eeb8 0751 8f39 c324 0fb9 338b 3139
00000300: 0000 0000 e142 a1b9 ad5d f838 7cd3 bbb9
00000310: cec1 c0b9 a0de bbb9 6628 bfb9 86b5 04ba
00000320: 34c3 b239 615f adb9 7788 d4b9 e109 15b8
00000330: b4bf 9d38 31f0 c1b8 ae5f d6b8 0000 0000
00000340: 36b9 a5b9 647e 59b8 24d9 aab8 02b2 b0b8
00000350: e5fe 90b8 4f4f 9ab8 9b5c cd38 c907 5539
00000360: ac04 8039 55ae 7239 9f17 f1b9 1b57 5eb9
00000370: 2eec 01b8 3a1b 7eb9 0000 0000 ec9a a8b8
00000380: 501f c6b8 6ff5 ad39 ca47 aa39 4901 ac39
00000390: 75cd a939 75ef b3b9 3829 6cb8 29b2 5c37
000003a0: afdd d537 2e90 8f39 f7ee 3539 4182 c5b6
000003b0: 6fae 6838 0000 0000 2c81 63b8 9998 0e38
000003c0: 27ba ff39 d1d1 003a d909 fc39 adaa fa39
000003d0: 4e87 c839 0b13 dfb9 4db8 38b9 046b 99b8
000003e0: f372 5bb9 0788 c23a f51a 92b9 95d9 3b38
000003f0: 0000 0000 3b1c 78b8 67d2 8bb7 9367 623a

exp_avg_sq f4 [96, 15]
7.005088e-07 7.0003637e-07 7.0037925e-07 7.034042e-07 2.2769173e-07 1.2250314e-07 5.1964033e-08 4.8714085e-08
1.4907532e-07 4.4120458e-07 6.056664e-08 5.5611437e-08 0.0 7.708726e-08 2.4645644e-08 6.503111e-07
6.520293e-07 6.4691943e-07 6.482925e-07 2.6720704e-07 2.183965e-07 8.1599964e-08 5.7589105e-08 8.6329145e-08
1.2120081e-06 4.6805866e-08 4.458348e-08 0.0 7.291954e-08 1.2439586e-08 3.639223e-07 3.6427204e-07
3.6438942e-07 3.6588963e-07 5.925498e-08 4.908551e-08 1.536135e-08 1.0955642e-08 5.1713755e-08 2.2822073e-07
1.5946167e-08 1.23957395e-08 0.0 1.6786625e-08 3.5374508e-09 7.13777e-07 7.1414e-07 7.09919e-07
7.112275e-07 2.1241621e-07 2.0760723e-07 1.00701335e-07 6.216003e-08 7.976652e-08 1.2282165e-06 3.2773798e-08
4.1408263e-08 0.0 5.9344966e-08 1.2141831e-08 4.2715382e-07 4.247296e-07 4.2421132e-07 4.229455e-07
1.8787324e-07 9.363631e-08 9.143921e-08 7.7852675e-08 1.1711252e-07 5.5079414e-07 4.734852e-08 5.4563404e-08
0.0 8.612199e-08 1.1458648e-08 2.4986826e-07 2.4919726e-07 2.5152715e-07 2.5115736e-07 5.370704e-08
1.7044348e-08 7.606182e-09 6.668104e-09 3.564698e-08 9.416065e-08 1.1467496e-08 7.1250255e-09 0.0
6.8113666e-09 1.2829751e-09 3.5616925e-08 3.5569716e-08 3.5623806e-08 3.5665973e-08 5.0741806e-09 4.068267e-09
2.152361e-09 1.7244993e-09 4.7554836e-09 1.30757085e-08 1.1321284e-09 2.086478e-09 0.0 1.5653516e-09
9.097362e-10 1.2546417e-06 1.2519243e-06 1.2446524e-06 1.2472094e-06 1.353081e-07 9.6116146e-08 2.603664e-08
2.3512952e-08 6.864913e-08 3.3553906e-07 2.4956554e-08 3.6549903e-08 0.0 2.0228908e-08 6.6561854e-09
2.0124753e-07 2.0034783e-07 2.0096348e-07 2.0092277e-07 3.366764e-08 1.46264e-08 6.0619776e-09 5.511816e-09
2.3297888e-08 4.1996735e-08 7.396069e-09 4.604345e-09 0.0 9.294758e-09 2.0541002e-09 2.317038e-06
2.3151847e-06 2.3127259e-06 2.313304e-06 7.7701975e-07 5.1899576e-07 1.0586633e-06 9.888403e-07 7.7170984e-07
3.3237293e-06 2.1093672e-07 1.7945696e-07 0.0 2.3608517e-07 5.2607135e-08 2.007999e-06 2.0099462e-06
2.0043822e-06 2.009759e-06 4.0605124e-07 2.4508668e-07 1.9352353e-07 1.6273421e-07 2.1815244e-07 1.109022e-06
8.4310756e-08 1.154693e-07 0.0 1.6442328e-07 4.466954e-08 5.0543014e-07 5.024742e-07 5.051123e-07
5.030333e-07 2.1360852e-07 1.8354528e-07 2.133339e-07 1.7884325e-07 1.6323975e-07 5.830248e-07 4.3666876e-08
3.4760586e-08 0.0 7.893695e-08 7.387496e-09 4.5912194e-07 4.5848108e-07 4.588237e-07 4.58659e-07
1.304153e-07 6.1514186e-08 5.496148e-08 5.189437e-08 5.1766307e-08 5.716029e-07 2.254848e-08 2.0111058e-08
0.0 4.361386e-08 7.185365e-09 3.5845875e-07 3.5854507e-07 3.5706907e-07 3.5743307e-07 1.3229003e-07
7.275351e-08 5.0765934e-08 5.1164886e-08 7.363289e-08 4.0161083e-07 3.542678e-08 4.4748113e-08 0.0
4.5286306e-08 6.492612e-09 2.4597628e-07 2.4265404e-07 2.4641415e-07 2.445998e-07 5.2962793e-08 2.3115104e-08
8.4310745e-09 8.03674e-09 6.030056e-08 8.44062e-08 1.0381355e-08 1.8410955e-08 0.0 7.58005e-09
1.732066e-08 2.0560952e-07 2.058535e-07 2.054468e-07 2.0606835e-07 5.128081e-08 1.75501e-08 1.8351072e-08
1.8753699e-08 2.154293e-08 3.0645367e-07 5.493054e-09 6.0663137e-09 0.0 8.6261815e-09 1.7715486e-09
3.6222397e-07 3.628806e-07 3.6248304e-07 3.6323527e-07 3.3849636e-07 6.774214e-08 6.223874e-08 5.863263e-08
6.211235e-08 5.6435647e-07 4.1503956e-08 1.4463417e-08 0.0 1.9525556e-08 8.169497e-09 2.2551242e-06
00000000: 990a 3c35 22ea 3b35 b201 3c35 92d1 3c35
00000010: 6d7b 7434 6889 0334 0f2f 5f33 b439 5133
00000020: 8311 2034 b2de ec34 dd10 8233 6cd9 6e33
00000030: 0000 0000 2b8b a533 58b4 d332 0a91 2e35
00000040: 1d07 2f35 f7a7 2d35 5206 2e35 a874 8f34
00000050: 5f80 6a34 0e3c af33 e457 7733 f363 b933
00000060: 48ac a235 9807 4933 0e7c 3f33 0000 0000
00000070: f197 9c33 e1b5 5532 1a61 c334 2b91 c334
00000080: 4da1 c334 7d6f c434 8a7f 7e33 17d2 5233
00000090: f7f3 8332 6c37 3c32 e01b 5e33 d60c 7534
000000a0: fef9 8832 0af5 5432 0000 0000 2e32 9032
000000b0: 7e17 7331 629a 3f35 54b3 3f35 4391 3e35
000000c0: 2eeb 3e35 8614 6434 a4ea 5e34 2541 d833
000000d0: d67c 8533 1c4c ab33 33d9 a435 2cc3 0c33
000000e0: ded8 3133 0000 0000 7be2 7e33 5698 5032
000000f0: 9353 e534 6406 e434 29bf e334 3011 e334
00000100: 34ba 4934 1b15 c933 3d5d c433 f62f a733
00000110: 4a7f fb33 49da 1335 405c 4b33 1959 6a33
00000120: 0000 0000 11f2 b833 abdb 4432 a225 8634
00000130: 69c9 8534 a109 8734 ced6 8634 84ab 6633
00000140: eb68 9232 58ac 0232 431d e531 451a 1933
00000150: 5d35 ca33 9502 4532 63d0 f431 0000 0000
00000160: 6a09 ea31 ac54 b030 39f9 1833 51c5 1833
00000170: ca00 1933 272f 1933 f758 ae31 dbc8 8b31
00000180: bce8 1331 6d03 ed30 ad65 a331 93a3 6032
00000190: 3a99 9b30 b661 0f31 0000 0000 ea23 d730
000001a0: fe10 7a30 2965 a835 cb07 a835 ee0d a735
000001b0: ca65 a735 3549 1134 6968 ce33 2da7 df32
000001c0: 87f9 c932 426c 9333 2324 b434 0b60 d632
000001d0: 0bfb 1c33 0000 0000 d7c3 ad32 6db4 e431
000001e0: 8016 5834 311f 5734 6cc8 5734 3bbd 5734
000001f0: f699 1033 9647 7b32 b849 d031 7262 bd31
00000200: 9920 c832 e65f 3433 8320 fe31 3f34 9e31
00000210: 0000 0000 c7ae 1f32 1d28 0d31 697e 1b36
00000220: 925e 1b36 5434 1b36 433e 1b36 6494 5035
00000230: 1e51 0b35 6517 8e35 4bb8 8435 7f27 4f35
00000240: 3c0d 5f36 d87d 6234 c1b0 4034 0000 0000
00000250: 997e 7d34 28f2 6133 29c1 0636 9de2 0636
00000260: 0683 0636 66df 0636 42ff d934 7594 8334
00000270: 58cb 4f34 0abc 2e34 493d 6a34 b5d9 9435
00000280: 540e b533 ebf7 f733 0000 0000 548c 3034
00000290: aeda 3f33 e5ac 0735 c4e1 0635 0e97 0735
000002a0: 2f08 0735 435c 6534 8b14 4534 c710 6534
000002b0: 0f08 4034 0047 2f34 2981 1c35 3d8c 3b33
000002c0: ab4b 1533 0000 0000 0c84 a933 1ad5 fd31
000002d0: 3d7d f634 2925 f634 4054 f634 9d3d f634
000002e0: 4908 0c34 c819 8433 c90e 6c33 77e2 5e33
000002f0: a855 5e33 4170 1935 a2b0 c132 afc0 ac32
00000300: 0000 0000 f251 3b33 24e3 f631 3272 c034
00000310: 0f7e c034 33b3 bf34 3ae5 bf34 9b0b 0e34
00000320: aa3c 9c33 bc09 5a33 63c0 5b33 1c20 9e33
00000330: f99c d734 2828 1833 1231 4033 0000 0000
00000340: d280 4233 9e15 df31 b90e 8434 1e46 8234
00000350: e74a 8434 8a51 8334 3579 6333 a78e c632
00000360: 42d8 1032 f511 0a32 957e 8133 cd42 b533
00000370: af59 3232 1e26 9e32 0000 0000 6a39 0232
00000380: 89c8 9432 84c5 5c34 9408 5d34 c998 5c34
00000390: a343 5d34 d93f 5c33 14c1 9632 6fa2 9d32
000003a0: d217 a132 670d b932 ac86 a434 6abd bc31
000003b0: dc6f d031 0000 0000 5932 1432 d37a f330
000003c0: af77 c234 eed1 c234 4a9b c234 ad02 c334
000003d0: 96ba b534 a379 9133 1ca8 8533 42d3 7b33
000003e0: a062 8533 487e 1735 1542 3233 c87a 7832
000003f0: 0000 0000 27b9 a732 d459 0c32 bd56 1736
