lightning_logs/version_34/checkpoints/epoch=49-step=100.ckpt (torch, 121435 bytes, 30 tensors)

gru.weight_ih_l0 f4 [96, 15]
0.19877581 -0.059540924 0.056166384 -0.05685988 0.074273 0.18714347 -0.05525397 -0.16124885
0.05737336 -0.1180079 0.10134289 -0.19605407 -0.03449275 0.13167061 0.08962684 0.14020641
-0.11913632 0.12512939 0.049869265 0.15514368 0.03956339 -0.11468955 -0.008517669 0.02635159
0.07210982 -0.15179443 -0.027821431 -0.08739349 0.15360552 0.12147065 0.037224706 -0.07078575
-0.15331763 0.06669468 -0.15488403 0.17839526 -0.1438717 -0.07341084 -0.031178456 -0.0767248
-0.17365086 -0.007843787 -0.12494245 -0.18351857 -0.006315822 0.04550353 -0.13676131 -0.064574316
0.014311223 0.11501477 0.11733133 -0.031319182 0.1293874 -0.027944205 0.09452862 -0.120194145
0.16842149 0.048404496 0.02361337 -0.1532034 -0.019710971 -0.17263514 -0.05289012 0.14093077
-0.048233114 0.1075314 -0.1964389 -0.049733896 -0.014654229 0.13844354 0.048052054 0.05748186
-0.006548335 -0.06671403 -0.16976845 0.061087333 -0.034324646 0.010479584 0.042338498 -0.09894554
-0.042043436 -0.095814995 -0.03239915 0.004413955 0.16005634 0.06325683 -0.021951081 -0.09429579
0.063724965 0.12882261 -0.10659311 -0.07126019 0.16569847 0.03952146 -0.13996397 -0.050994504
0.031241024 0.041867025 -0.011781051 -0.10371342 0.11069914 0.18728414 -0.118311174 0.15687136
0.13281417 -0.037603077 0.028958147 -0.12442539 0.0025581126 -0.07158126 0.08558853 -0.16353223
-0.06650609 -0.06766209 0.040481545 -0.18727174 -0.07900167 0.009645327 -0.051735383 0.12345462
0.04177827 -0.03957423 0.073302545 0.07915902 0.14140692 0.11391049 0.17598209 -0.089585304
0.08393773 0.04995558 -0.036875904 0.16865036 -0.13658704 0.0658809 0.1002071 0.13096088
-0.08762505 0.024967205 -0.06381221 -0.0203978 -0.030179903 0.08490433 -0.033555426 -0.037768014
0.17211919 0.04173296 -0.09294553 -0.027447544 -0.08129145 -0.18977775 0.08401134 0.060357366
0.11276994 0.007879179 -0.17167112 0.01964027 0.086373955 -0.08010259 0.03942482 0.13251986
-0.10519892 0.09027951 0.11486643 -0.11804511 -0.14061694 0.0021276826 -0.10325722 -0.16232106
-0.064524025 -0.03729655 -0.048456825 0.06581616 0.14686911 -0.13642474 -0.008484616 -0.086561576
-0.100236356 -0.151901 0.16997726 -0.044149615 0.17361255 0.1274932 0.16885626 -0.0013207023
-0.13821296 -0.0655997 0.038203888 0.025135713 -0.08723958 -0.12860848 -0.022738714 0.06490127
0.16558047 0.06821251 -0.110157825 0.024240265 0.19141322 0.1461257 -0.08427439 0.18490708
0.02506344 -0.14943938 -0.094143115 0.08007877 -0.12267821 6.0558414e-06 0.16849047 -0.1518614
-0.08142212 0.014545145 -0.08521623 -0.03316017 0.04666766 0.17729032 -0.093121946 0.17189206
0.10779349 0.15541516 0.06597888 -0.016985307 0.104681805 -0.1359878 -0.07922581 -0.08614828
-0.09175051 0.1413979 0.10896724 -0.12717952 -0.018923746 0.075326085 -0.15587763 -0.20171201
-0.14159414 0.04044816 -0.07168734 -0.019694075 0.11999684 0.09322413 0.10092195 -0.15478694
0.08467094 -0.09410877 -0.009913599 -0.12960704 -0.14761926 0.24555525 -0.045069914 -0.05117165
0.039644435 -0.015730672 0.04644031 0.03798545 -0.014048366 -0.010520919 0.0866595 -0.07621457
00000000: e38b 4b3e 2fe1 73bd b90e 663d e8e5 68bd
00000010: 711c 983d 8aa2 3f3e fd51 62bd 6b1e 25be
00000020: 5400 6b3d 20ae f1bd dc8c cf3d 66c2 48be
00000030: 4548 0dbd a9d4 063e 478e b73d 4592 0f3e
00000040: befd f3bd eb21 003e b743 4c3d fcdd 1e3e
00000050: 390d 223d 5be2 eabd b18d 0bbc 4adf d73c
00000060: 50ae 933d 0070 1bbe c5e9 e3bc 5cfb b2bd
00000070: c44a 1d3e 9bc5 f83d ef78 183d 1ff8 90bd
00000080: 4cff 1cbe 3897 883d eb99 1ebe 3fad 363e
00000090: 1a53 13be 6c58 96bd f669 ffbc e421 9dbd
000000a0: 88d1 31be 3a83 00bc d4e1 ffbd 4bec 3bbe
000000b0: f4f4 cebb e961 3a3d 280b 0cbe 8a3f 84bd
000000c0: 9f79 6a3c dd8c eb3d 694b f03d 8b48 00bd
000000d0: 217e 043e 3feb e4bc 3998 c13d 5928 f6bd
000000e0: af76 2c3e cb43 463d d370 c13c 5ae1 1cbe
000000f0: e778 a1bc 44c7 30be 4fa3 58bd 2850 103e
00000100: 1690 45bd 6c39 dc3d 4727 49be c5b5 4bbd
00000110: 4b18 70bc 25c4 0d3e 3bd2 443d 1972 6b3d
00000120: 6a93 d6bb 5ea1 88bd c8d7 2dbe b636 7a3d
00000130: 0098 0cbd 90b2 2b3c 226b 2d3d f6a3 cabd
00000140: bd35 2cbd a73a c4bd f9b4 04bd f0a2 903b
00000150: cfe5 233e cc8c 813d c1d2 b3bc 271e c1bd
00000160: 3c82 823d 13ea 033e 7d4d dabd ddf0 91bd
00000170: dcac 293e 41e1 213d b752 0fbe 9ddf 50bd
00000180: 2ded ff3c c27c 2b3d 4f05 41bc b467 d4bd
00000190: 3bb6 e23d 6ac7 3f3e 214d f2bd e3a2 203e
000001a0: 7000 083e af05 1abd a339 ed3c bdd2 febd
000001b0: 02a6 273b 3299 92bd 0a49 af3d fe74 27be
000001c0: 5834 88bd 6c92 8abd facf 253d 2ac4 3fbe
000001d0: a1cb a1bd 6f07 1e3c 7be8 53bd c7d5 fc3d
000001e0: b11f 2b3d 9618 22bd a51f 963d 201e a23d
000001f0: facc 103e e749 e93d a634 343e 8078 b7bd
00000200: 8be7 ab3d 399e 4c3d 300b 17bd aeb2 2c3e
00000210: 79dd 0bbe 91ec 863d 6139 cd3d 9c1a 063e
00000220: c374 b3bd 0688 cc3c faaf 82bd 4919 a7bc
00000230: d83b f7bc 52e2 ad3d 6a71 09bd a2b2 1abd
00000240: 0340 303e 2ef0 2a3d 3a5a bebd acd9 e0bc
00000250: 227c a6bd 1955 42be 230e ac3d 4939 773d
00000260: edf3 e63d ac17 013c 8eca 2fbe a2e4 a03c
00000270: d4e4 b03d d40c a4bd ec7b 213d 49b3 073e
00000280: 8872 d7bd 77e4 b83d 173f eb3d a2c1 f1bd
00000290: e3fd 0fbe 9770 0b3b 8578 d3bd 7e37 26be
000002a0: 2c25 84bd 44c4 18bd aa7a 46bd 9fca 863d
000002b0: db64 163e edb2 0bbe 0f03 0bbc 3247 b1bd
000002c0: b848 cdbd f08b 1bbe 850e 2e3e 3ad6 34bd
000002d0: 7dc7 313e 948d 023e a8e8 2c3e 6a1b adba
000002e0: b387 0dbe 2359 86bd ae7b 1c3d 69e9 cd3c
000002f0: aaaa b2bd f1b1 03be 8a46 babc f5ea 843d
00000300: ed8d 293e 00b3 8b3d 6d9a e1bd 8593 c63c
00000310: d401 443e faa1 153e 0d98 acbd 4858 3d3e
00000320: d851 cd3c a306 19be 1bce c0bd 5700 a43d
00000330: b73e fbbd 4833 cb36 c488 2c3e 8e81 1bbe
00000340: a4c0 a6bd c34e 6e3c d985 aebd f5d2 07bd
00000350: 9726 3f3d 988b 353e b8b6 bebd 7904 303e
00000360: d5c2 dc3d 2725 1f3e ef1f 873d c524 8bbc
00000370: 6a63 d63d 6340 0bbe 2441 a2bd 826e b0bd
00000380: b1e7 bbbd 9cca 103e 372a df3d 593b 02be
00000390: f905 9bbc 9044 9a3d 639e 1fbe 988d 4ebe
000003a0: 0efe 10be f8ac 253d d0d0 92bd 7855 a1bc
000003b0: e7c0 f53d 4bec be3d 2bb0 ce3d 7880 1ebe
000003c0: f567 ad3d 19bc c0bd a66c 22bc b5b7 04be
000003d0: 8129 17be d672 7b3e 3b9b 38bd 5d99 51bd
000003e0: 3462 223d 9cdd 80bc 3238 3e3d a296 1b3d
000003f0: 1e2b 66bc ef5f 2cbc 897a b13d 6216 9cbd

gru.weight_hh_l0 f4 [96, 32]
0.015555665 0.10988641 -0.13017629 0.002504675 -0.121952206 -0.08701574 0.18787175 0.094388515
0.009080745 0.011313891 -0.119648434 0.031663515 -0.13214345 0.137342 -0.0072566206 -0.16161868
-0.052212257 -0.14351007 0.04635753 -0.058917683 -0.0008663806 0.08999083 -0.18179463 0.015330086
0.013801914 0.021657608 0.11167132 0.02075985 0.07288555 -0.066784844 0.012009414 0.08406912
-0.10018202 -0.20627141 -0.06611774 -0.026951862 0.15284447 0.08985581 0.18275079 -0.14227834
0.15885074 0.092619106 0.017333565 -0.005168209 0.012187521 0.09024498 -0.0752603 -0.10971675
0.18359049 0.17095941 0.019977514 0.00981342 0.13953465 -0.1173104 0.16919966 -0.039741956
-0.1293862 0.03595273 0.111291535 0.031734485 -0.026545329 -0.09214099 -0.13761932 0.14449833
-0.09502216 -0.13410577 0.011477185 0.007335119 -0.13265446 -0.046126053 -0.14559399 0.018367205
0.006189119 0.09836849 -0.12575993 -0.1302211 0.0068356344 0.1523062 -0.019395987 -0.18950687
0.092519306 -0.17276362 0.18845923 0.084591225 0.1318536 -0.11271501 -0.19316728 -0.028179785
-0.1048051 -0.1514725 -0.024413388 0.0702595 0.0016231405 0.17100239 -0.2072016 -0.10415334
0.12708224 0.13026716 0.044761788 0.13551816 0.008780375 0.13728637 -0.22932844 0.00864552
0.053268768 -0.116613925 0.09930932 -0.1642556 -0.11579902 -0.06690922 0.05905164 -0.04371673
0.14652394 0.0543857 -0.097654834 -0.112241276 0.13004148 0.02555174 0.13055545 -0.069415495
-0.07288364 -0.07373431 -0.17549618 -0.068871185 0.09942179 0.22958808 0.13238575 -0.044856377
0.053271342 0.10496534 0.1067379 0.13245055 -0.11256473 0.1278577 -0.05883675 -0.1439233
0.08634085 -0.20617692 0.013961317 -0.0067170933 -0.1177537 -0.1724535 0.068773404 -0.16563609
-0.10343054 -0.16469942 0.12137328 -0.17641036 -0.048317768 0.068556204 0.014671273 -0.012309236
-0.007541686 0.15072645 0.1375124 0.04496397 -0.014157132 -0.042476844 0.04385079 0.038715556
0.05675166 -0.110803485 -0.05916492 -0.012338574 0.10331223 0.18993199 -0.042456344 -0.042974032
-0.09445228 0.1584193 -0.04078756 0.0003997148 0.01755966 0.008838618 0.04454235 -0.08106466
-0.065539785 0.066016756 0.034103423 -0.17913103 0.11062373 0.1473316 -0.04707349 0.11670667
0.13358201 0.008071806 0.033262696 0.16114421 0.18394482 0.061083794 -0.118255556 -0.15735224
0.01370377 0.030600207 -0.05023985 0.06576368 0.09885653 -0.096776016 0.19780536 0.09276016
0.0046387715 -0.104038484 0.09071706 0.05103754 0.0038328136 0.18081233 -0.20052409 -0.06375778
0.016065557 0.15510021 0.004021113 -0.14064059 -0.2120911 0.12725826 -0.02727719 -0.008705769
0.12343017 -0.0508831 0.14507172 0.03450218 -0.16025478 -0.09710669 0.11116778 0.19777212
-0.074436516 0.082578264 -0.1558936 0.06294456 -0.048466202 -0.06709404 -0.085369304 0.11560608
0.14359087 -0.069287546 -0.04520453 0.16173317 -0.12090106 -0.09652012 -0.026535055 -0.20190324
-0.2068238 -0.18618168 -0.056485757 0.07875882 -0.18032607 0.02563133 -0.023934249 -0.13358438
0.1075024 -0.029523658 0.21263777 0.113602415 0.23142768 -0.12995785 0.09131029 0.030126978
00000000: 30dd 7e3c 200c e13d ef4c 05be 7925 243b
00000010: 14c2 f9bd 4f35 b2bd 7461 403e c44e c13d
00000020: 68c7 143c e65d 393c 3d0a f5bd 9ab1 013d
00000030: 9d50 07be 62a3 0c3e f2c8 edbb 5e7f 25be
00000040: 85dc 55bd 4ef4 12be 65e1 3d3d ab53 71bd
00000050: d11d 63ba 1d4d b83d 5f28 3abe 0b2b 7b3c
00000060: 6c21 623c 4c6b b13c efb3 e43d 9010 aa3c
00000070: 0545 953d 7ec6 88bd 22c3 443c 6e2c ac3d
00000080: 3b2c cdbd d038 53be bd68 87bd 27ca dcbc
00000090: 4383 1c3e 5306 b83d 0623 3b3e 6ab1 11be
000000a0: c5a9 223e 16af bd3d 1fff 8d3c 145a a9bb
000000b0: 2bae 473c 5cd2 b83d 1222 9abd 2db3 e0bd
000000c0: 25ff 3b3e fc0f 2f3e e2a7 a33c 77c8 203c
000000d0: 2ce2 0e3e 6f40 f0bd ad42 2d3e 76c8 22bd
000000e0: d17d 04be 2b43 133d d1ec e33d 05fc 013d
000000f0: 9775 d9bc 6ab4 bcbd 14ec 0cbe 5ff7 133e
00000100: fa9a c2bd 0653 09be ce0a 3c3c 705b f03b
00000110: 92d6 07be acee 3cbd 9716 15be d276 963c
00000120: 18ce ca3b 6b75 c93d 36c7 00be ae58 05be
00000130: 75fd df3b 28f6 1b3e 55e4 9ebc 170e 42be
00000140: c37a bd3d f2e8 30be 75fb 403e 2a3e ad3d
00000150: a104 073e 21d7 e6bd a5cd 45be 4bd9 e6bc
00000160: 0ea4 d6bd 9b1b 1bbe 96fe c7bc 36e4 8f3d
00000170: 8fbf d43a 401b 2f3e a82c 54be 594e d5bd
00000180: d921 023e c164 053e 2358 373d 46c5 0a3e
00000190: 90db 0f3c cc94 0c3e 13d5 6abe f0a5 0d3c
000001a0: 5a30 5a3d 48d3 eebd af62 cb3d 9f32 28be
000001b0: 0928 edbd b307 89bd 22e0 713d 5010 33bd
000001c0: 5f0a 163e 8ac3 5e3d 42ff c7bd c1de e5bd
000001d0: 9829 053e e251 d13c 54b0 053e b629 8ebd
000001e0: 0544 95bd 0402 97bd 45b5 33be 560c 8dbd
000001f0: a79d cb3d 2319 6b3e 2190 073e 52bb 37bd
00000200: 0d33 5a3d 11f8 d63d 6699 da3d 1ea1 073e
00000210: 5688 e6bd 21ed 023e cefe 70bd a160 13be
00000220: 79d3 b03d 0b20 53be 02be 643c 101b dcbb
00000230: da28 f1bd a697 30be 12d9 8c3d 829c 29be
00000240: 64d3 d3bd f7a6 28be 8e92 f83d eba4 34be
00000250: dae8 45bd 3267 8c3d c75f 703c aeac 49bc
00000260: 3f20 f7bb 0958 1a3e 0dd0 0c3e 242c 383d
00000270: 51f3 67bc 33fc 2dbd e39c 333d 3494 1e3d
00000280: 6e74 683d f0ec e2bd ea56 72bd bb27 4abc
00000290: 5d95 d33d 887d 423e b4e6 2dbd 8a05 30bd
000002a0: 3270 c1bd ab38 223e db10 27bd d090 d139
000002b0: 47d9 8f3c dacf 103c 0a72 363d 3a05 a6bd
000002c0: b939 86bd cb33 873d 08b0 0b3d 206e 37be
000002d0: b28e e23d 18de 163e 22d0 40bd e803 ef3d
000002e0: b9c9 083e 9c3f 043c 773e 083d fd02 253e
000002f0: 085c 3c3e 0033 7a3d f82f f2bd f220 21be
00000300: c785 603c 49ad fa3c 4dc8 4dbd 1caf 863d
00000310: 4b75 ca3d 8132 c6bd 7d8d 4a3e 0af9 bd3d
00000320: d600 983b 2112 d5bd dec9 b93d bd0c 513d
00000330: f12f 7b3b de26 393e 3056 4dbe 7093 82bd
00000340: ea9b 833c 97d2 1e3e 8ac3 833b 1604 10be
00000350: 692e 59be fd4f 023e 6a74 dfbc a4a2 0ebc
00000360: f5c8 fc3d cc6a 50bd ae8d 143e 2852 0d3d
00000370: d419 24be dfdf c6bd efab e33d c684 4a3e
00000380: 2c72 98bd cb1e a93d 92a2 1fbe 14e9 803d
00000390: 7f84 46bd 9a68 89bd 1ad6 aebd e1c2 ec3d
000003a0: 7c09 133e a1e6 8dbd 6328 39bd 619d 253e
000003b0: fa9a f7bd 57ac c5bd 0b60 d9bc b9bf 4ebe
000003c0: 9ec9 53be 69a6 3ebe 9c5d 67bd 4e4c a13d
000003d0: 66a7 38be ccf8 d13c c211 c4bc 58ca 08be
000003e0: 382a dc3d 99db f1bc b7bd 593e 62a8 e83d
000003f0: 61fb 6c3e ac13 05be e400 bb3d dacc f63c

gru.bias_ih_l0 f4 [96]
0.12346833 -0.09078972 0.17635581 0.19305013 0.07741616 0.19816011 -0.10938208 -0.12217082
0.14793867 -0.08716468 0.017509224 0.062087838 0.027667629 0.13303737 -0.1782036 0.19116355
-0.08998172 0.0044374755 0.041224025 -0.12702227 0.17619443 0.19909018 0.1479982 0.028361326
0.094734296 -0.17643398 0.1442387 -0.222192 0.14017543 0.08591051 -0.087276585 0.02290597
-0.004222166 -0.09244959 -0.027049506 0.06943791 -0.14811085 -0.065470524 -0.05668102 0.08012714
-0.110640876 0.050305102 -0.118163675 0.03590075 -0.0018969716 -0.114586115 -0.20537782 -0.011413877
0.20363307 -0.17970622 -0.05312005 -0.10203402 -0.035645567 -0.09280154 -0.011602998 0.021240972
0.08223015 -0.03560835 -0.12151445 -0.062290765 -0.017659377 0.07325094 0.079660006 0.14543639
-0.13980925 -0.1528492 -0.17505755 0.14078635 -0.028274134 0.0102139795 -0.052990463 0.037783362
0.06889699 -0.07662243 -0.09145939 0.056899387 0.09167261 -0.111647315 0.1378247 -0.13370852
-0.19111808 -0.17905536 0.08875787 -0.21723801 -0.19761637 0.17365348 -0.17003947 -0.027478479
-0.00044445592 -0.20974149 0.06690543 0.17114015 0.051971845 0.13761915 -0.20842941 0.124213964
00000000: f7dc fc3d f6ef b9bd 9e96 343e efae 453e
00000010: 5d8c 9e3d 7cea 4a3e b603 e0bd b234 fabd
00000020: 3c7d 173e 6583 b2bd 816f 8f3c d14f 7e3d
00000030: 39a7 e23c f33a 083e 017b 36be 61c0 433e
00000040: 5648 b8bd 3e68 913b 86da 283d 2012 02be
00000050: 506c 343e 4cde 4b3e d78c 173e 0356 e83c
00000060: 0e04 c23d 1cab 34be 4fb3 133e 4d86 63be
00000070: 268a 0f3e d9f1 af3d 11be b2bd 4da5 bb3c
00000080: 185a 8abb 3656 bdbd ed96 ddbc 7735 8e3d
00000090: 5faa 17be 6915 86bd 5b2a 68bd b319 a43d
000000a0: af97 e2bd b90c 4e3d ccff f1bd aa0c 133d
000000b0: cea3 f8ba 20ac eabd 904e 52be 4501 3bbc
000000c0: 3085 503e e804 38be 6994 59bd 36f7 d0bd
000000d0: 1601 12bd bc0e bebd 801a 3ebc 8c01 ae3c
000000e0: 4868 a83d 10da 11bd 91dc f8bd 9a24 7fbd
000000f0: 66aa 90bc 9704 963d c924 a33d 47ed 143e
00000100: 282a 0fbe 8084 1cbe 4942 33be 4c2a 103e
00000110: 289f e7bc 8958 273c 870c 59bd bac2 1a3d
00000120: dd19 8d3d 38ec 9cbd 104f bbbd 550f 693d
00000130: d9be bb3d 59a7 e4bd eb21 0d3e e3ea 08be
00000140: 75b4 43be 4a5a 37be b0c6 b53d a473 5ebe
00000150: f25b 4abe 38d2 313e d41e 2ebe 8c1a e1bc
00000160: dd05 e9b9 79c6 56be b705 893d 5d3f 2f3e
00000170: 6ee0 543d 09ec 0c3e 856e 55be e463 fe3d

gru.bias_hh_l0 f4 [96]
-0.010129879 -0.13800049 -0.026589876 0.060037695 0.04580677 0.14410564 -0.1927862 -0.06700948
-0.084816486 0.15593389 -0.14712137 0.11178573 -0.11065353 -0.12874219 -0.060483463 -0.11111808
-0.081025526 0.1496309 0.1555742 -0.048790723 -0.116281234 -0.011126675 -0.09109685 -0.1089624
0.18407866 -0.060096968 -0.06261478 -0.07402946 -0.08667099 -0.19289692 0.13665846 -0.07900855
0.106210895 0.045598 0.11982863 -0.08636757 0.020329038 0.123502254 -0.053181 0.15784654
-0.064750336 -0.058549233 0.108567856 0.037457805 0.093086556 -0.1303461 0.09579771 0.013740974
0.17126948 -0.16573173 -0.06423346 -0.068860285 -0.18123615 -0.10113677 -0.1826195 -0.08227896
0.09092513 -0.0591861 0.12320111 -0.007993249 0.16700128 -0.06657762 0.058147646 -0.11406488
-0.10437729 -0.082203016 -0.19189385 0.03384525 -0.1240489 0.18706611 0.0651648 0.07313556
-0.05711343 -0.1551823 -0.009952041 -0.12796375 -0.06508577 0.01544842 0.13390797 -0.14394528
0.06883953 -0.0005425635 0.14875801 -0.12619986 -0.09124872 0.19153965 -0.036215506 0.13454136
-0.14286618 0.07263134 0.12837382 -0.08794408 0.20237733 -0.07932163 -0.0012421324 0.05746674
00000000: cbf7 25bc 0050 0dbe 03d3 d9bc 16ea 753d
00000010: e19f 3b3d 6e90 133e bf69 45be 443c 89bd
00000020: 44b4 adbd 22ad 1f3e fca6 16be ebef e43d
00000030: 519e e2bd fed4 03be 82bd 77bd e091 e3bd
00000040: b6f0 a5bd d838 193e d84e 1f3e c8d8 47bd
00000050: db24 eebd a84c 36bc fc90 babd ae27 dfbd
00000060: 1e7f 3c3e 3d28 76bd 2e3c 80bd c29c 97bd
00000070: 8f80 b1bd c586 45be 32f0 0b3e 3ccf a1bd
00000080: 1985 d93d f8c4 3a3d b668 f53d 7be1 b0bd
00000090: 1589 a63c c0ee fc3d 52d4 59bd 86a2 213e
000000a0: d39b 84bd 52d1 6fbd d358 de3d 5b6d 193d
000000b0: 2aa4 be3d 7379 05be 9731 c43d d221 613c
000000c0: 4461 2f3e 94b5 29be d58c 83bd 9f06 8dbd
000000d0: f895 39be cb20 cfbd 9b00 3bbe df81 a8bd
000000e0: f436 ba3d 206d 72bd dd50 fc3d 1ef6 02bc
000000f0: 6202 2b3e d959 88bd 3a2c 6e3d d99a e9bd
00000100: c3c3 d5bd 0e5a a8bd d27f 44be 51a1 0a3d
00000110: 5a0d febd 428e 3f3e 1f75 853d 19c8 953d
00000120: c6ef 69bd 1ce8 1ebe e30d 23bc ee08 03be
00000130: b04b 85bd 5f1b 7d3c 2c1f 093e 6466 13be
00000140: bdfb 8c3d d23a 0eba 0554 183e 893a 01be
00000150: 9ce0 babd f822 443e b656 14bd 36c5 093e
00000160: 834b 12be bdbf 943d 6d74 033e 071c b4bd
00000170: 013c 4f3e 6173 a2bd 0ccf a2ba 3f62 6b3d

output_layers.0.weight f4 [64, 32]
-0.011985069 -0.13448408 -0.037550867 0.08155731 -0.06806182 0.08904154 0.11154805 0.12442843
0.15943319 0.05067652 -0.097789414 0.008466468 -0.11978023 -0.17022605 0.13936748 0.06983924
0.03839761 -0.05398399 0.10301115 -0.10994044 -0.10741976 0.020192096 -0.05059715 0.16513762
-0.0022136075 0.14513656 -0.053218383 0.038131915 0.1375222 -0.121834874 0.004040107 0.10550111
-0.009565337 -0.10120917 0.11459399 0.04345496 0.124480814 0.15073322 0.18661909 0.12363287
-0.04823131 0.095574945 -0.004135051 0.06865837 0.08112589 -0.03233676 -0.0005742152 -0.015684031
0.07148264 0.057914976 0.13292916 -0.18066859 0.08614578 0.1979098 -0.19887462 0.18227287
0.10999457 0.119199954 -0.14480372 0.15935843 0.08446415 -0.07184219 0.06653843 -0.025943948
-0.019044407 -0.100180924 -0.07341193 -0.1373296 0.0443766 -0.06753041 -0.16052958 -0.10040266
0.007934631 -0.053785708 -0.15602806 0.10160276 0.046471514 0.17411743 -0.051606547 0.19287823
-0.018015642 0.11790064 -0.07276192 0.07686048 -0.077111736 -0.03890129 -0.1706663 0.013306006
-0.07512488 -0.011948826 -0.14245224 -0.06749181 -0.13801299 0.022657225 -0.12757684 -0.0104645565
-0.123476915 -0.06365192 -0.12314383 -0.06399259 -0.015177825 -0.025593536 -0.048933312 -0.08570392
0.10540816 0.03617787 -0.084585175 0.031549275 0.1561383 0.09925249 0.04863689 -0.18225747
0.016485557 -0.09619599 0.07440505 -0.19997612 0.024432838 0.1331502 -0.054841105 -0.10907456
0.022676794 -0.13009098 0.012178795 0.008856873 0.0992687 -0.16392484 -0.118809156 -0.1020051
-0.077966034 0.043668266 -0.23922163 0.033313993 0.051171605 0.15613776 0.19261001 -0.021266587
-0.018646797 -0.2139616 0.03440422 0.0858737 -0.18817845 -0.023812056 -0.047542825 -0.14265078
-0.032122754 -0.13760565 -0.028232764 0.014438994 -0.1535242 0.07625264 -0.017577026 0.015803453
0.103072815 -0.06587155 0.089238174 0.23178373 0.17820355 0.13230163 0.063518666 0.06089399
-0.14706208 -0.08938005 -0.011731645 0.13468741 0.10931215 0.084545925 -0.10934046 0.21308616
0.09009338 0.08273331 -0.15048489 -0.07681945 0.20169896 -0.11032755 0.17032883 -0.19444036
-0.118350476 -0.15115237 0.11008148 0.0026140553 -0.19483408 0.15801284 0.023780227 0.16461407
-0.18079978 -0.19754143 0.1717232 0.09526294 0.06904806 0.07687368 0.06550646 0.1604945
-0.0044525787 0.030338513 0.002947386 -0.039100703 0.13788581 -0.08335456 -0.059155677 0.17644458
0.010969936 0.00020089152 -0.024496758 0.15775172 0.1149367 -0.09521457 0.09795481 0.0099572055
0.039993618 0.1865991 0.002928923 -0.007985678 -0.04623504 -0.13456096 0.14678447 0.13248456
0.044368546 -0.020562347 -0.013587934 -0.11828008 0.11101192 0.14552239 0.09957821 0.16662565
-0.12814328 0.08743677 0.07581264 -0.05197713 0.037470482 -0.0865967 -0.09508856 -0.11264378
-0.020442456 -0.0074114115 -0.04420451 -0.1296144 0.09702798 -0.10892183 0.0027035065 -0.15857334
0.0009998948 0.17945871 0.19578412 0.13287672 -0.031369377 -0.067156374 -0.023517588 -0.03776988
0.085536614 0.02907244 0.19352216 -0.02720625 -0.13444285 -0.08741836 -0.09136369 0.10796903
00000000: 065d 44bc 32b6 09be f0ce 19bd 8507 a73d
00000010: ff63 8bbd 695b b63d 4e73 e43d 55d4 fe3d
00000020: 7442 233e 2f92 4f3d d145 c8bd f1b6 0a3c
00000030: 564f f5bd bd4f 2ebe 59b6 0e3e e007 8f3d
00000040: d046 1d3d 511e 5dbd 83f7 d23d 7428 e1bd
00000050: e4fe dbbd e569 a53c f53e 4fbd d619 293e
00000060: 2c12 11bb ae9e 143e 85fb 59bd 3630 1c3d
00000070: 9fd2 0c3e 9084 f9bd e062 843b f710 d83d
00000080: eeb7 1cbc c146 cfbd 41b0 ea3d d4fd 313d
00000090: ccef fe3d cf59 1a3e 1319 3f3e 3b33 fd3d
000000a0: 328e 45bd ccbc c33d 527f 87bb c29c 8c3d
000000b0: 5525 a63d 8d73 04bd ee86 16ba cc7b 80bc
000000c0: 7e65 923d 4138 6d3d 951e 083e 3001 39be
000000d0: 336d b03d dea8 4a3e caa5 4bbe bda5 3a3e
000000e0: d544 e13d 1b1f f43d 6d47 14be db2e 233e
000000f0: 8afb ac3d 0022 93bd 4d45 883d 6788 d4bc
00000100: 0403 9cbc a82b cdbd fe58 96bd 21a0 0cbe
00000110: 3dc4 353d 624d 8abd de61 24be e99f cdbd
00000120: 4100 023c 674e 5cbd d2c5 1fbe 1c15 d03d
00000130: ea58 3e3d d74b 323e 6361 53bd df81 453e
00000140: 8a95 93bc e475 f13d 3404 95bd 0769 9d3d
00000150: c2ec 9dbd f656 1fbd 26c3 2ebe 6f01 5a3c
00000160: 13db 99bd 02c5 43bc 00df 11be 2539 8abd
00000170: 4753 0dbe a59b b93c 81a3 02be 8873 2bbc
00000180: 77e1 fcbd f05b 82bd d532 fcbd 8c0e 83bd
00000190: 69ac 78bc 89a9 d1bc 4c6e 48bd 8985 afbd
000001a0: 3ce0 d73d 3f2f 143d fe3a adbd d039 013d
000001b0: b8e2 1f3e e444 cb3d 7a37 473d b4a1 3abe
000001c0: b80c 873c 6702 c5bd ad61 983d 8ac6 4cbe
000001d0: 6027 c83c 8758 083e 11a1 60bd 7c62 dfbd
000001e0: afc4 b93c 9236 05be 9289 473c 6b1c 113c
000001f0: 634d cb3d eadb 27be 3752 f3bd 0de8 d0bd
00000200: a8ac 9fbd 7fdd 323d 84f6 74be 4174 083d
00000210: 5199 513d 94e2 1f3e 8f3b 453e 4437 aebc
00000220: 2bc1 98bc c018 5bbe 70eb 0c3d 8dde af3d
00000230: dab1 40be 8011 c3bc 44bc 42bd 0c13 12be
00000240: 2693 03bd 7fe8 0cbe 6648 e7bc 8891 6c3c
00000250: 7335 1dbe 582a 9c3d b2fd 8fbc 3e76 813c
00000260: d717 d33d aae7 86bd 81c2 b63d b758 6d3e
00000270: fe7a 363e 147a 073e 1316 823d fa6b 793d
00000280: 7197 16be e30c b7bd 1636 40bc 7feb 093e
00000290: 0cdf df3d 6a26 ad3d e4ed dfbd 4233 5a3e
000002a0: e182 b83d 1570 a93d b618 1abe 8453 9dbd
000002b0: 2c8a 4e3e 69f3 e1bd ae6a 2e3e 601b 47be
000002c0: bc61 f2bd b0c7 1abe 6672 e13d 9250 2b3b
000002d0: 9682 47be 1ece 213e c0ce c23c 9790 283e
000002e0: 9423 39be 4d48 4abe 35d8 2f3e 3719 c33d
000002f0: 1269 8d3d f36f 9d3d 4028 863d ac58 243e
00000300: f0e6 91bb 7988 f83c ee28 413b 0f28 20bd
00000310: f031 0d3e ccb5 aabd 394d 72bd e3ad 343e
00000320: 3fbb 333c 68a6 5239 6dad c8bc ab89 213e
00000330: ef63 eb3d dbff c2bd 889c c83d 8c23 233c
00000340: 59d0 233d d613 3f3e 2cf3 3f3b 5cd6 02bc
00000350: f460 3dbd 59ca 09be ab4e 163e 08aa 073e
00000360: cbbb 353d 5e72 a8bc ed9f 5ebc d43c f2bd
00000370: 385a e33d d203 153e a9ef cb3d ea9f 2a3e
00000380: fe37 03be 0d12 b33d a843 9b3d f9e5 54bd
00000390: a67a 193d 9c59 b1bd cabd c2bd c8b1 e6bd
000003a0: f076 a7bc 6ddb f2bb ca0f 35bd a3b9 04be
000003b0: 9bb6 c63d 6912 dfbd 502d 313b 0d61 22be
000003c0: e70e 833a 06c4 373e a27b 483e d610 083e
000003d0: 2d7d 00bd 4889 89bd f5a7 c0bc 97b4 1abd
000003e0: d22d af3d 5329 ee3c ac2a 463e a4df debc
000003f0: 63ab 09be 6608 b3bd e31c bbbd de1e dd3d

output_layers.0.bias f4 [64]
0.1454659 0.19560598 -0.09438181 0.19869405 -0.083308615 0.084398694 -0.1298164 0.13294671
-0.022105837 0.008549827 -0.056149922 0.08548148 -0.01604767 0.120662265 -0.048447594 0.06289894
-0.059765305 0.016118228 0.082579315 0.13443442 -0.12360046 0.057261936 -0.002187416 -0.18736936
0.17427641 -0.10574782 -0.02086128 0.06754719 -0.0050486275 0.13906762 0.11526724 0.069915816
0.20144328 -0.11426944 -0.08130816 -0.06647245 -0.06614235 0.100688554 0.13260613 0.0028348812
-0.047617435 0.081750415 -0.14159589 0.10397834 -0.13677816 0.08002738 -0.026486786 0.01051327
0.1358367 0.117709905 -0.0124122 0.053930704 0.1862167 0.11212251 0.03828474 0.20022433
0.06391407 0.07840287 0.002647824 -0.1735687 0.06905672 0.036717914 -0.1118022 0.15842488
00000000: 03f5 143e ef4c 483e 404b c1bd 7476 4b3e
00000010: b59d aabd 39d9 ac3d 97ee 04be 2f23 083e
00000020: 4d17 b5bc 9314 0c3c 76fd 65bd ea10 af3d
00000030: 6776 83bc c71d f73d fc70 46bd 29d1 803d
00000040: 77cc 74bd 600a 843c 581f a93d 2da9 093e
00000050: 3d22 fdbd 7e8b 6a3d c05a 0fbb c1dd 3fbe
00000060: 8475 323e 5092 d8bd 46e5 aabc 2e56 8a3d
00000070: f56e a5bb be67 0e3e 3b11 ec3d 0630 8f3d
00000080: 2647 4e3e 1906 eabd e584 a6bd b522 88bd
00000090: a475 87bd cd35 ce3d e7c9 073e 6ac9 393b
000000a0: 800a 43bd c36c a73d 83fe 10be 99f2 d43d
000000b0: 930f 0cbe 65e5 a33d d1fa d8bc da3f 2c3c
000000c0: c718 0b3e e411 f13d 8a5c 4bbc 71e6 5c3d
000000d0: 97af 3e3e 7da0 e53d 76d0 1c3d 9b07 4d3e
000000e0: 61e5 823d af91 a03d 1d87 2d3b febb 31be
000000f0: 9c6d 8d3d 8665 163d 8df8 e4bd 223a 223e

output_layers.3.weight f4 [32, 64]
0.08863679 -0.08650259 -0.090080746 -0.05307 0.07820701 0.025043946 -0.049956523 -0.07732642
0.037888773 -0.044721287 -0.10412708 0.109591655 -0.050341982 0.012920428 0.06356829 0.08180555
-0.0136784455 0.13425595 0.12838434 0.14544012 0.05273604 0.003639361 -0.083496846 -0.08034326
0.009985002 0.11466829 -0.07033905 0.14740051 0.18673348 -0.013944143 0.1296368 0.036476955
0.08812007 0.076519504 0.029914042 -0.059047177 0.11289557 0.09276536 0.14670697 0.03680635
-0.05616502 0.14533685 -0.060296256 0.043722387 0.006294211 0.11938479 -0.12331483 -0.053233188
-0.08028777 0.020292552 0.0819057 -0.018693168 -0.031894557 0.09172453 -0.050090116 0.09120686
0.10393047 -0.008404596 -0.069004655 -0.0813988 -0.015841968 0.029213808 -0.12813213 0.11580938
0.10449699 0.037696704 0.031209905 0.061734907 -0.048878938 -0.012602204 -0.017562533 0.039035447
-0.03974071 0.077743486 0.074209474 0.016438302 -0.0895887 0.05582475 0.16712661 0.13398938
-0.08165823 0.083128504 -0.077403426 -0.069421716 0.10231436 -0.03519539 0.03736171 -0.06966842
0.03615337 -0.05324974 -0.09878646 -0.0679904 0.12646054 0.03817788 0.05320828 0.15066083
-0.067874976 -0.032347016 0.030544171 0.030129986 0.08975865 0.04057516 -0.02134316 -0.029381916
0.041247178 -0.009262296 0.055511698 -0.08043991 0.015101323 -0.029308673 -0.11326094 -0.055795483
0.065566346 0.14121643 -0.09104862 -0.108275086 -0.010816597 0.004473759 -0.046948828 0.006842279
-0.03974179 0.085852735 0.08457997 0.07118388 0.05069275 -0.04547465 -0.12304993 0.058492135
0.09588596 0.10972726 0.06750846 0.053460576 -0.15121442 -0.09711317 -0.044254042 0.043738004
-0.0026142255 -0.011780234 -0.086404346 -0.066599794 0.03471245 0.14268439 -0.07554482 0.080782145
0.09498723 -0.025359673 0.1487342 0.15727392 0.03691219 0.07925656 -0.105512865 -0.001116756
0.069809936 -0.080990985 0.11720069 0.080699265 0.075430565 -0.073678575 0.13739346 0.08204751
-0.06380342 -0.036882363 0.04583466 0.0021731185 0.077104785 -0.02976205 -0.028629038 0.010816947
0.041499734 0.13777289 0.088860765 -0.03533062 0.13195966 0.053389493 -0.00956659 -0.040167455
0.004707299 -0.022322264 -0.037077073 -0.015463771 -0.04104811 0.058548022 0.07378036 -0.1022096
-0.04106877 0.10290005 0.08361646 -0.019712484 0.00078352523 0.07181126 0.030686757 -0.0047052805
0.0908617 0.09364366 -0.040797662 0.15818323 0.088085525 0.13006687 -0.015747938 0.093786284
-0.09109591 0.11600391 0.16211775 -0.070966035 0.051157158 0.05213941 0.052052967 0.105947524
0.075601615 -0.05053988 -0.03451157 -0.06980243 -0.052701924 0.009334043 0.0861279 -0.08647888
0.1746513 -0.051386356 0.16770412 0.14346047 -0.040547363 0.15534917 0.10691268 0.04150468
0.1663681 -0.08740689 0.09498822 0.16486928 -0.02366617 0.03411942 0.13947861 0.10657867
-0.07303423 -0.066654876 -0.07364466 0.13894823 -0.08674801 0.033969063 0.0018639741 0.036039654
-0.008911797 0.11392299 0.10114555 0.16154638 0.16540518 0.10778087 0.022275422 -0.003382608
-0.049268954 0.062043943 0.06740222 0.028201286 -0.06662374 -0.045220785 0.0536632 0.16065484
00000000: 3587 b53d 4528 b1bd 417c b8bd ee5f 59bd
00000010: ff2a a03d f628 cd3c 369f 4cbd 505d 9ebd
00000020: 4231 1b3d ab2d 37bd 9440 d5bd 9771 e03d
00000030: 6533 4ebd 34b0 533c 1730 823d ab89 a73d
00000040: 8f1b 60bc 647a 093e 2f77 033e 41ee 143e
00000050: bf01 583d 5882 6e3b 6500 abbd 028b a4bd
00000060: 2298 233c 35d7 ea3d eb0d 90bd 29f0 163e
00000070: 1037 3f3e fa75 64bc 82bf 043e dc68 153d
00000080: 4c78 b43d 42b6 9c3d 4b0e f53c 74db 71bd
00000090: cb35 e73d c4fb bd3d 5a3a 163e 41c2 163d
000000a0: 4b0d 66bd 2fd3 143e 35f9 76bd 3f16 333d
000000b0: ab3f ce3b 0380 f43d 7c8c fcbd 0b0b 5abd
000000c0: ea6d a4bd 913c a63c 2dbe a73d 6a22 99bc
000000d0: dea3 02bd 12da bb3d 4b2b 4dbd aaca ba3d
000000e0: 80d9 d43d 6eb3 09bc 5052 8dbd 6ab4 a6bd
000000f0: 04c7 81bc cc51 ef3c 1235 03be 782d ed3d
00000100: 8502 d63d dc67 1a3d eaab ff3c bedd 7c3d
00000110: 4835 48bd 7a79 4ebc 4ddf 8fbc a2e3 1f3d
00000120: 28c7 22bd fa37 9f3d 23fb 973d 9ea9 863c
00000130: 487a b7bd 7ea8 643d 3d23 2b3e 8334 093e
00000140: 6e3c a7bd 473f aa3d b085 9ebd f92c 8ebd
00000150: 318a d13d 0b29 10bd 9808 193d 51ae 8ebd
00000160: 8e15 143d 661c 5abd 8e50 cabd 8d3e 8bbd
00000170: df7e 013e 6960 1c3d edf0 593d d546 1a3e
00000180: 0902 8bbd 4e7e 04bd c537 fa3c 29d3 f63c
00000190: 62d3 b73d 2432 263d dad7 aebc 58b2 f0bc
000001a0: cdf2 283d e3c0 17bc 3c60 633d aebd a4bd
000001b0: 8a6b 773c be18 f0bc 5af5 e7bd ce89 64bd
000001c0: a647 863d 0a9b 103e b377 babd 54bf ddbd
000001d0: 1938 31bc 9c98 923b 6a4d 40bd 3235 e03b
000001e0: 4ac8 22bd 8fd3 af3d 4338 ad3d dbc8 913d
000001f0: 33a3 4f3d a043 3abd 9a01 fcbd 7395 6f3d
00000200: dc5f c43d b0b8 e03d e041 8a3d 7af9 5a3d
00000210: f4d7 1abe 45e3 c6bd ba43 35bd 9f26 333d
00000220: 6d53 2bbb e201 41bc c3f4 b0bd 7965 88bd
00000230: a42e 0e3d db1b 123e 3eb7 9abd 1c71 a53d
00000240: aa88 c23d 17bf cfbc c74d 183e 6a0c 213e
00000250: 3d31 173d 4351 a23d 2117 d8bd 1d60 92ba
00000260: 83f8 8e3d 9ade a5bd ea06 f03d a845 a53d
00000270: 577b 9a3d cbe4 96bd dfb0 0c3e 8608 a83d
00000280: 5eab 82bd f611 17bd 20bd 3b3d e16a 0e3b
00000290: 1de9 9d3d 8bcf f3bc 7287 eabc 9039 313c
000002a0: a0fb 293d 5614 0d3e a2fc b53d d7b6 10bd
000002b0: 6f20 073e f1ae 5a3d 30bd 1cbc a186 24bd
000002c0: b03f 9a3b 2edd b6bc 21de 17bd c25b 7dbc
000002d0: 1022 28bd 0dd0 6f3d 281a 973d 4453 d1bd
000002e0: ba37 28bd 43bd d23d 1b3f ab3d 137c a1bc
000002f0: 7d65 4d3a c811 933d cb62 fb3c c12e 9abb
00000300: b315 ba3d 3fc8 bf3d 731b 27bd c9fa 213e
00000310: 2f66 b43d 4030 053e d201 81bc 0613 c03d
00000320: 7e90 babd 7593 ed3d 3202 263e a456 91bd
00000330: 2b8a 513d 2290 553d 7e35 553d 04fb d83d
00000340: 05d5 9a3d e802 4fbd 015c 0dbd 94f4 8ebd
00000350: f9dd 57bd d0ed 183c d363 b03d d71b b1bd
00000360: cad7 323e 807a 52bd a1ba 2b3e 4de7 123e
00000370: fe14 26bd da13 1f3e 09f5 da3d d000 2a3d
00000380: 665c 2a3e 6202 b3bd 2f89 c23d 7ed3 283e
00000390: 8edf c1bc cec0 0b3d 7bd3 0e3e eb45 da3d
000003a0: f892 95bd 5a82 88bd 03d3 96bd 7248 0e3e
000003b0: f1a8 b1bd 2523 0b3d 9850 f43a 519e 133d
000003c0: c902 12bc 7550 e93d 6625 cf3d 6a6c 253e
000003d0: fa5f 293e 37bc dc3d f27a b63c bfae 5dbb
000003e0: 3ece 49bd ca21 7e3d 2d0a 8a3d 6206 e73c
000003f0: 0772 88bd 6e39 39bd f2cd 5b3d b482 243e

output_layers.3.bias f4 [32]
0.029777778 0.116141 0.016252628 -0.009047867 -0.0010782852 0.069885306 -0.049644273 -0.016128363
-0.09000734 -0.047463488 -0.015627222 0.09493188 -0.11716089 0.09412539 0.07435802 -0.002516198
-0.08058949 -0.032492466 0.0055633383 0.005958873 -0.08832397 -0.05162909 0.06532027 0.019262612
-0.12791312 0.0135408025 -0.11988498 0.05839969 0.14446667 0.0004003963 0.12341803 -0.10935496
00000000: 87f0 f33c 55db ed3d 3b24 853c 813d 14bc
00000010: 3f55 8dba 0720 8f3d cb57 4bbd a11f 84bc
00000020: c555 b8bd 1369 42bd a904 80bc a56b c23d
00000030: 0cf2 efbd d0c4 c03d 0549 983d cce6 24bb
00000040: 1a0c a5bd d216 05bd aa4c b63b a642 c33b
00000050: 33e3 b4bd 0679 53bd a2c6 853d a0cc 9d3c
00000060: a8fb 02be 3eda 5d3c 4286 f5bd 8334 6f3d
00000070: 12ef 133e 48ec d139 98c2 fc3d 7ef5 dfbd

output_layers.6.weight f4 [2, 32]
0.09494412 0.07834175 0.1436544 -0.022620022 0.010812633 -0.020046588 -0.015437124 0.1662934
-0.0787322 0.034861296 -0.11206852 0.108251005 -0.156804 0.06955016 0.14456896 0.0081794
-0.024219275 -0.05405842 0.15213741 0.027399793 -0.12258534 0.025817562 -0.06241365 -0.028210372
-0.13105151 -0.15161636 -0.02294464 -0.044003937 0.064993165 0.025232308 0.050125375 -0.04572354
-0.19116111 -0.105212495 -0.13586982 -0.26631007 0.037609354 -0.14276643 0.14362507 0.08010927
0.08137968 -0.15580304 -0.1660338 -0.22815517 -0.12552062 -0.103699 -0.09201493 -0.25241813
0.046868537 -0.21622583 -0.1809836 -0.27992964 -0.14834854 -0.20542811 -0.2636797 -0.25795126
0.10825289 -0.08682343 -0.060843877 0.061010376 -0.17700264 -0.19872802 -0.24528971 0.09839521
00000000: 1072 c23d a471 a03d 241a 133e a04d b9bc
00000010: 7827 313c be38 a4bc feeb 7cbc d148 2a3e
00000020: 593e a1bd b8ca 0e3d 2e84 e5bd b4b2 dd3d
00000030: 3a91 20be 5070 8e3d e309 143e e402 063c
00000040: 8067 c6bc 5d6c 5dbd e9c9 1b3e 8875 e03c
00000050: 060e fbbd 5a7f d33c 75a5 7fbd 7019 e7bc
00000060: 5e32 06be 5241 1bbe 66f6 bbbc 793d 34bd
00000070: 231b 853d fcb3 ce3c 4450 4d3d 9b48 3bbd
00000080: bdbf 43be a679 d7bd 7521 0bbe cb59 88be
00000090: 440c 1a3d 5d31 12be 7312 133e 5410 a43d
000000a0: 64aa a63d d58a 1fbe c404 2abe 82a1 69be
000000b0: 7a88 00be 2460 d4bd 5372 bcbd f33c 81be
000000c0: 39f9 3f3d 4e6a 5dbe c453 39be f052 8fbe
000000d0: aee8 17be bf5b 52be 0701 87be 3012 84be
000000e0: b1b3 dd3d 7cd0 b1bd 6e37 79bd 04e6 793d
000000f0: 2e40 35be 5c7f 4bbe 3a2d 7bbe 6e83 c93d

output_layers.6.bias f4 [2]
0.001632398 -0.0094350325
00000000: 30f6 d53a 6595 1abc

exp_avg f4 [96, 15]
0.00017984114 0.00026672712 -0.00012659947 9.341924e-05 0.00075131527 -0.00092336885 0.00024175853 0.00046441494
0.0011376403 0.0028589896 0.00013233721 -7.664998e-06 0.0 -7.917799e-05 3.9446928e-05 4.9931245e-05
-7.138401e-05 -0.00028899935 -0.0001703739 0.00087401783 -0.00039592772 -0.0002067777 -0.00012532486 3.911584e-05
-0.00040295874 -4.7533253e-05 5.0322924e-05 0.0 -7.848737e-05 -4.995189e-05 0.0003675007 0.00027100652
0.00037151176 0.00030450276 -0.0002946208 -0.00018993267 -0.00025633798 -0.00022427765 -0.0005018982 -0.0010050426
-0.00017276757 -9.603665e-05 0.0 -0.00022016474 0.00023927382 -0.0004772111 -0.000426636 -0.00041119292
-0.00050153554 -0.0003987572 -0.0006275909 -0.00028495578 -0.00015390886 0.0004854276 -0.000440711 0.0003164389
0.00013360853 0.0 0.00024378052 0.00064434204 -0.0012156499 -0.001129438 -0.0012486157 -0.0011723763
-0.00015333951 -0.0008339277 0.0005826312 0.000800264 0.0006060935 0.0008462481 -1.7163746e-05 -0.00016200815
0.0 -0.00012875379 -2.8738257e-05 2.3713252e-05 -0.0001992447 -0.00022986012 -0.00023587611 -6.356016e-05
-0.00079620373 -0.0006362792 -0.00048244817 -0.0003661789 -0.00038243897 -0.00017793429 -0.00021338169 0.0
4.309005e-05 1.8519147e-05 -0.00035891178 -0.00036745638 -0.0004562581 -0.0004279837 8.4252526e-05 -0.00043498786
4.301196e-05 0.0001446497 5.56585e-05 0.0001321477 -0.00032872814 0.000120574645 0.0 9.128924e-05
-0.00010479686 -0.00010736324 -0.00021375528 -0.0002940007 -0.00022299321 3.3120104e-05 -0.00044022134 -0.0001722001
-7.904991e-05 0.00014285801 0.0010660904 -7.575953e-05 3.759926e-05 0.0 0.0001064778 -2.8211462e-05
0.000270582 0.00022422963 0.000119956785 0.00016171118 0.0003348154 -0.00049464795 -0.00025686217 -0.00015506468
-7.061221e-06 0.00019962585 2.2466094e-05 0.000102553204 0.0 4.915773e-05 0.00012148964 -0.00016537114
-0.00021650821 -0.0004158812 -0.0002727427 0.0002035072 -0.00063898787 -0.00012536088 1.5550673e-05 0.00022580917
8.988717e-05 0.00010578992 -0.00018033473 0.0 -1.5385793e-05 7.160811e-05 2.443173e-05 -1.9265177e-05
-0.00015283549 -8.951967e-05 0.00029781446 -0.0002049156 -0.00019566642 -0.00015752905 0.00021608938 0.00023421904
0.00013843892 0.00011630455 0.0 0.0001304498 -2.9952282e-05 0.00027741233 0.0002739851 0.0002776409
0.0002747675 -4.9572216e-05 -0.00042263206 -7.644735e-05 1.7019773e-05 -5.349199e-05 0.000355536 3.1752184e-05
5.697991e-05 0.0 3.7269023e-05 7.0865965e-05 -0.00071528816 -0.00062305643 -0.0007656877 -0.000681397
0.00024515222 -0.00051863294 0.00021445123 0.0003430613 0.00074879517 0.00091982575 0.00022250129 4.3569442e-05
0.0 5.315077e-05 2.8758235e-05 -0.0003259555 -0.0003003184 -0.00034236774 -0.00032073114 -6.7429246e-05
-0.00012079309 6.697934e-05 9.770866e-05 9.9391866e-05 0.00064186787 -7.3839365e-06 3.5527314e-06 0.0
-4.1187825e-05 8.536613e-06 -0.00034956608 -0.00030309113 -0.0004487653 -0.00036899085 0.00040513248 -0.0005458149
0.00011483814 0.0002452746 0.0004352921 0.0006830476 6.3470776e-05 0.00019288991 0.0 0.00019777127
6.444562e-05 -0.0005647039 -0.00062930904 -0.000655453 -0.0006386129 -0.00038374806 -0.00013624202 1.5684725e-05
4.769561e-05 -0.00033618478 -0.0005809681 -0.0002211936 -0.00018409167 0.0 -0.00019682359 -3.4614925e-05
-0.00051469926 -0.00048693153 -0.00050380494 -0.00050451484 -0.0003674846 -0.0007053793 4.799591e-05 0.0002119089
7.042173e-05 0.0007072695 -0.00013525168 -7.770277e-05 0.0 -9.517478e-05 -2.8751847e-05 6.295563e-05
00000000: bd93 3c39 82d7 8b39 c9bf 04b9 13ea c338
00000010: eaf3 443a 3c0e 72ba 9080 7d39 b87c f339
00000020: e01c 953a e35d 3b3b 00c4 0a39 ea98 00b7
00000030: 0000 0000 5c0c a6b8 d173 2538 446d 5138
00000040: 00b4 95b8 d684 97b9 65a6 32b9 581e 653a
00000050: 8594 cfb9 77d2 58b9 a369 03b9 5010 2438
00000060: 3544 d3b9 715e 47b8 d411 5338 0000 0000
00000070: 9699 a4b8 6f83 51b8 1cad c039 e115 8e39
00000080: 77c7 c239 aba5 9f39 5677 9ab9 aa28 47b9
00000090: 1a65 86b9 132c 6bb9 d191 03ba a2bb 83ba
000000a0: f128 35b9 4967 c9b8 0000 0000 06dc 66b9
000000b0: 94e5 7a39 3132 fab9 1dae dfb9 6195 d7b9
000000c0: 7b79 03ba 4910 d1b9 ea84 24ba 1e66 95b9
000000d0: 9862 21b9 fd80 fe39 3b0f e7b9 b6e7 a539
000000e0: 4419 0c39 0000 0000 569f 7f39 10e9 283a
000000f0: 7156 9fba a709 94ba 97a8 a3ba 6caa 99ba
00000100: c3c9 20b9 f19b 5aba b8bb 183a cfc8 513a
00000110: 3fe2 1e3a c0d6 5d3a ddfa 8fb7 bbe0 29b9
00000120: 0000 0000 1502 07b9 f012 f1b7 d2eb c637
00000130: 58ec 50b9 9b06 71b9 8355 77b9 9a4b 85b8
00000140: 54b8 50ba f9cb 26ba 19f1 fcb9 b3fb bfb9
00000150: 1782 c8b9 df93 3ab9 36bf 5fb9 0000 0000
00000160: 97bb 3438 9159 9b37 532c bcb9 29a7 c0b9
00000170: ed35 efb9 0063 e0b9 bbb0 b038 150f e4b9
00000180: be67 3438 1cad 1739 dc72 6938 2191 0a39
00000190: 2559 acb9 05dd fc38 0000 0000 8a72 bf38
000001a0: 63c6 dbb8 3328 e1b8 7f23 60b9 1b24 9ab9
000001b0: 49d3 69b9 71ea 0a38 82cd e6b9 9d90 34b9
000001c0: 99c7 a5b8 28cc 1539 0fbc 8b3a 17e1 9eb8
000001d0: e6b3 1d38 0000 0000 d54c df38 a7a7 ecb7
000001e0: e7dc 8d39 2f1f 6b39 4f91 fb38 0491 2939
000001f0: 2a8a af39 43ab 01ba 75ab 86b9 dc98 22b9
00000200: 6def ecb6 a852 5139 9275 bc37 d511 d738
00000210: 0000 0000 b62e 4e38 41c8 fe38 7a67 2db9
00000220: 7b06 63b9 a10a dab9 e8fe 8eb9 8c64 5539
00000230: c081 27ba 4e73 03b9 d172 8237 30c7 6c39
00000240: cf81 bc38 88db dd38 3c18 3db9 0000 0000
00000250: bd10 81b7 502c 9638 bef2 cc37 a79b a1b7
00000260: 7742 20b9 82bc bbb8 fb23 9c39 9dde 56b9
00000270: ce2b 4db9 622e 25b9 0d96 6239 b298 7539
00000280: ea29 1139 88e8 f338 0000 0000 5ac9 0839
00000290: 0942 fbb7 a771 9139 a8a5 8f39 5590 9139
000002a0: ab0e 9039 c3eb 4fb8 b794 ddb9 5c52 a0b8
000002b0: afc5 8e37 965c 60b8 3c67 ba39 a62d 0538
000002c0: b6fd 6e38 0000 0000 4f51 1c38 e09d 9438
000002d0: 2d82 3bba 9c54 23ba 6fb8 48ba c79f 32ba
000002e0: c687 8039 def4 07ba 50de 6039 e9dc b339
000002f0: cb4a 443a 7620 713a 3c4f 6939 55be 3638
00000300: 0000 0000 34ee 5e38 d73d f137 02e5 aab9
00000310: 0e74 9db9 d27f b3b9 ce27 a8b9 cd68 8db8
00000320: 4c52 fdb8 4277 8c38 f0e8 cc38 9a70 d038
00000330: 0643 283a 88c3 f7b6 766b 6e36 0000 0000
00000340: 17c1 2cb8 7938 0f37 f745 b7b9 34e8 9eb9
00000350: 4248 ebb9 1d75 c1b9 f667 d439 0515 0fba
00000360: 42d5 f038 3398 8039 eb37 e439 8c0e 333a
00000370: 9d1b 8538 7e42 4a39 0000 0000 d260 4f39
00000380: fb26 8738 a308 14ba 37f8 24ba b5d2 2bba
00000390: 9668 27ba cb31 c9b9 30dc 0eb9 b192 8337
000003a0: c50c 4838 f541 b0b9 1c4c 18ba 34f0 67b9
000003b0: bb08 41b9 0000 0000 6e62 4eb9 7e2f 11b8
000003c0: e2ec 06ba d84a ffb9 c711 04ba 6b41 04ba
000003d0: f3aa c0b9 34e9 38ba 374f 4938 dd33 5e39
000003e0: 61af 9338 0d68 393a 59d2 0db9 5bf4 a2b8
000003f0: 0000 0000 9298 c7b8 1f30 f1b7 0c07 8438

exp_avg_sq f4 [96, 15]
7.763624e-08 6.850254e-08 8.226848e-08 7.1150325e-08 3.7730725e-08 9.291865e-08 4.3863455e-08 4.836009e-08
6.5615225e-08 3.8412023e-07 1.3481501e-08 1.2881944e-08 0.0 1.8993772e-08 1.7701984e-09 3.239485e-07
3.2700387e-07 3.402329e-07 3.3610814e-07 1.1370321e-07 7.297107e-08 6.20959e-08 6.003049e-08 6.729345e-08
2.6067835e-07 3.7563538e-08 2.514731e-08 0.0 4.037961e-08 3.4929672e-09 5.5101947e-07 5.177861e-07
6.030218e-07 5.5938546e-07 7.2956034e-08 8.271992e-08 7.0025045e-08 6.2853715e-08 1.1904717e-07 5.2439725e-07
3.942965e-08 3.3235477e-08 0.0 3.017823e-08 2.9804745e-08 2.4990942e-07 2.417032e-07 2.3173338e-07
2.3260795e-07 1.04992345e-07 7.921592e-08 7.217383e-08 7.9416495e-08 1.065714e-07 1.8752664e-07 5.4117496e-08
4.107733e-08 0.0 1.9374289e-08 1.5004629e-07 4.464729e-07 4.1241478e-07 4.544989e-07 4.3289563e-07
6.6364315e-08 8.758994e-08 9.543282e-08 1.08670946e-07 1.2977078e-07 2.0945178e-07 3.2507053e-08 3.114903e-08
0.0 3.1768568e-08 4.0878296e-09 6.4152607e-07 6.285971e-07 7.0580273e-07 6.756868e-07 1.5094817e-07
1.4542924e-07 1.3637732e-07 1.15086294e-07 1.8758284e-07 5.870775e-07 7.157456e-08 7.956699e-08 0.0
5.3257892e-08 1.797089e-08 3.8447592e-08 3.8413546e-08 4.1493376e-08 3.7874262e-08 2.8213375e-08 2.4777906e-08
1.4083143e-08 1.8505729e-08 1.699057e-08 2.989574e-08 3.7589555e-08 1.0354951e-08 0.0 9.814026e-09
1.706443e-08 3.1250684e-07 3.0439392e-07 3.224778e-07 3.0812058e-07 4.0437932e-08 6.3305315e-08 6.856083e-08
5.956936e-08 3.268829e-08 3.6006435e-07 1.2254237e-08 5.0574e-08 0.0 4.621556e-08 5.065219e-09
1.18706e-07 1.06291694e-07 1.1906383e-07 1.0651218e-07 2.7286884e-08 4.4440878e-08 3.2904616e-08 2.6573773e-08
2.0845173e-08 9.6158296e-08 2.9295721e-08 4.7656465e-09 0.0 8.747221e-09 2.2539914e-09 2.0961507e-07
1.9161045e-07 2.2831624e-07 2.0400302e-07 5.160267e-08 1.1933966e-07 1.0077612e-07 8.4059124e-08 8.529418e-08
1.4830194e-07 2.467768e-08 3.3026843e-08 0.0 3.249015e-08 5.8574616e-09 1.17796134e-07 1.18229856e-07
1.2487685e-07 1.2545587e-07 2.562332e-08 3.033942e-08 4.059422e-08 3.8925364e-08 2.2861657e-08 7.83784e-08
1.1120302e-08 1.1859376e-08 0.0 1.2361886e-08 1.6161719e-09 1.8559657e-08 1.8030596e-08 1.9640042e-08
1.8861337e-08 3.5243404e-09 1.5671937e-08 6.8640116e-09 5.7700493e-09 5.796625e-09 1.8208947e-08 1.3971811e-09
2.0020368e-09 0.0 1.192791e-09 7.1427655e-09 1.6461982e-07 1.4413676e-07 1.6222154e-07 1.4434131e-07
1.7298232e-08 2.5191612e-08 2.6258238e-08 3.0812558e-08 3.627694e-08 7.6415965e-08 5.9946927e-09 5.8344374e-09
0.0 5.9809344e-09 5.883327e-10 3.535704e-08 3.5382357e-08 3.8727947e-08 3.81412e-08 4.8484226e-09
9.381708e-09 6.1959637e-09 6.5477646e-09 4.3632955e-09 5.502205e-08 2.2423137e-09 2.0280537e-09 0.0
3.3768066e-09 3.271588e-10 1.289512e-07 1.1737619e-07 1.3908884e-07 1.18318056e-07 2.4501173e-08 4.446383e-08
2.4483137e-08 2.5236778e-08 3.690163e-08 1.13583226e-07 2.0320465e-08 4.4788204e-09 0.0 8.158969e-09
1.1430347e-09 5.8474586e-07 5.512335e-07 6.292638e-07 5.82708e-07 8.6977806e-08 1.1380751e-07 7.4587504e-08
6.06153e-08 1.3976026e-07 5.353128e-07 4.6407308e-08 2.7888545e-08 0.0 3.475095e-08 6.352215e-09
3.458863e-07 3.198853e-07 3.3876464e-07 3.2565814e-07 4.0558614e-08 9.218028e-08 6.64122e-08 6.804662e-08
5.7301804e-08 2.3917073e-07 1.116976e-08 4.4577355e-09 0.0 5.9443175e-09 1.0950407e-09 4.3566214e-07
00000000: f9b8 a633 ab1b 9333 93ab b033 4ecb 9833
00000010: 5f0d 2233 918a c733 6164 3c33 7bb4 4f33
00000020: 5ae8 8c33 1539 ce34 459c 6732 644f 5d32
00000030: 0000 0000 bf27 a332 524b f330 25eb ad34
00000040: 128f af34 41a9 b634 5a72 b434 002d f433
00000050: 45b4 9c33 9559 8533 1cea 8033 f782 9033
00000060: 5cf3 8b34 8c55 2133 8503 d832 0000 0000
00000070: da6d 2d33 ee08 7031 c5e9 1335 fdfd 0a35
00000080: 58df 2135 ad28 1635 01ac 9c33 c2a3 b133
00000090: ad60 9633 32fa 8633 e0a6 ff33 4ec4 0c35
000000a0: 5c59 2933 cbbe 0e33 0000 0000 519d 0133
000000b0: aa02 0033 4a2b 8634 6fc3 8134 63d2 7834
000000c0: c9c2 7934 2778 e133 6a1d aa33 fcfd 9a33
000000d0: ae8b aa33 3fdc e433 ee5a 4934 d16e 6833
000000e0: 016d 3033 0000 0000 836c a632 691c 2134
000000f0: c5b2 ef34 db69 dd34 da01 f434 b968 e834
00000100: 2b84 8e33 1419 bc33 bff0 cc33 7c5e e933
00000110: 1f57 0b34 abe5 6034 e29d 0b33 b8c8 0533
00000120: 0000 0000 e971 0833 ee74 8c31 5635 2c35
00000130: ddbc 2835 6576 3d35 d860 3535 5114 2234
00000140: 4927 1c34 1d6f 1234 5c25 f733 616a 4934
00000150: a997 1d35 88b4 9933 6ade aa33 0000 0000
00000160: acbd 6433 685e 9a32 9321 2533 24fc 2433
00000170: 7336 3233 31ab 2233 de59 f232 31d7 d432
00000180: 51f2 7132 87f6 9e32 a9f2 9132 b766 0033
00000190: 2772 2133 8ee5 3132 0000 0000 8b9a 2832
000001a0: 1495 9232 9dc6 a734 956b a334 0321 ad34
000001b0: c56b a534 faad 2d33 77f2 8733 b73b 9333
000001c0: 34d9 7f33 2865 0c33 de4e c134 b486 5232
000001d0: b336 5933 0000 0000 8c7e 4633 230a ae31
000001e0: 50eb fe33 7a42 e433 08b0 ff33 b1bb e433
000001f0: 7e64 ea32 43df 3e33 0253 0d33 5844 e432
00000200: 050f b332 957f ce33 f9a5 fb32 12bf a331
00000210: 0000 0000 af46 1632 a3e4 1a31 8d12 6134
00000220: 7bbd 4d34 1727 7534 ec0b 5b34 bca1 5d33
00000230: d623 0034 426a d833 fe83 b433 f92a b733
00000240: ed3c 1f34 cbfa d332 66d9 0d33 0000 0000
00000250: 4c8b 0b33 c742 c931 1cf7 fc33 8de5 fd33
00000260: e315 0634 0cb5 0634 471a dc32 8c4e 0233
00000270: d159 2e33 e42e 2733 5161 c432 fb50 a833
00000280: 9b0b 3f32 16be 4b32 0000 0000 2660 5432
00000290: fe1f de30 1e6d 9f32 b3e1 9a32 e9b4 a832
000002a0: 8504 a232 da30 7231 f49e 8632 7cd8 eb31
000002b0: e441 c631 a72b c731 e669 9c32 f106 c030
000002c0: 3494 0931 0000 0000 9aef a330 6e6c f531
000002d0: 5ac2 3034 03c4 1a34 1e2f 2e34 3dfc 1a34
000002e0: 3797 9432 f164 d832 7a8e e132 c456 0433
000002f0: ebce 1b33 1f1a a433 e0f9 cd31 4178 c831
00000300: 0000 0000 db80 cd31 3cb8 2130 7adb 1733
00000310: 50f7 1733 d455 2633 b1d0 2333 2d97 a631
00000320: 302d 2132 46e4 d431 bffa e031 f4eb 9531
00000330: 6251 6c33 3317 1a31 e65d 0b31 0000 0000
00000340: 690d 6831 82db b32f d675 0a34 3e10 fc33
00000350: 7358 1534 0a16 fe33 a676 d232 80f8 3e33
00000360: fd4e d232 43c8 d832 c57d 1e33 0aeb f333
00000370: 2d8d ae32 1fe4 9931 0000 0000 862b 0c32
00000380: f518 9d30 6ef7 1c35 7af8 1335 aeea 2835
00000390: 646b 1c35 8ec8 ba33 5766 f433 ea2c a033
000003a0: 9d2b 8233 0211 1634 6ab2 0f35 6051 4733
000003b0: 8f8f ef32 0000 0000 1341 1533 ad42 da31
000003c0: 40b2 b934 b3bc ab34 75df b534 1dd6 ae34
000003d0: ab32 2e33 a5f4 c533 7e9e 8e33 0621 9233
000003e0: 001c 7633 6067 8034 20e5 3f32 a82a 9931
000003f0: 0000 0000 c53e cc31 5280 9630 f3e4 e934
