lightning_logs/version_71/checkpoints/epoch=49-step=100.ckpt (torch, 140809 bytes, 36 tensors)

shared_gru.weight_ih_l0 f4 [96, 15]
00000000: 9ae4 883c 4663 0fbe 1b0f e9bd 6a8d 6fbe
00000010: ce91 a8bd 71bf a53d 5dbb 8a3c c279 3e3e
00000020: 2386 bc3b ebca 22be f2bf 1cbd 72e7 c2bd
00000030: 29c0 313e c85b 733c 9e78 773d cdfd 3abe
00000040: 19d1 35be a266 06be 0ec4 c33c 63fe 933c
00000050: 59d3 fd3d b6eb 4b3e 207c c73d 7114 083e
00000060: 84c3 163d d2b2 103d d2d1 2cbd 997e 173d
00000070: 7766 aebd 3e30 853c b02a 3cbc e306 0d3c
00000080: ac8c 803d d760 563b c5b1 dbbd f9b8 a3bd
00000090: cb83 6e3e 27e9 fd3d a028 8fbd d41e 02bb
000000a0: cc66 c5bd 784d 78bd a16e 9ebc f391 24be
000000b0: 0cb2 9a3d 17d4 0bbd c029 e83d 941f 5ebe
000000c0: 84ca dbbd 9c7d 85bc 0f1f cebc 7d21 cbbc
000000d0: 1fcf 613e 6636 0d3e 1698 19bd c6e3 a03c
000000e0: 9f94 4f3b 6881 623d 7ff6 72bd f156 c93c
000000f0: e10e d03c 1802 9d3d 9a27 b13d ee70 06be
00000100: 97e6 ff3d 3cf6 24be 20da 9c3b cec9 f7bd
00000110: 31b5 f83d f628 9fbc f943 1dbe caee dcbd
00000120: 6019 fb3d 7a54 983d 52d0 853d 43da ddbd
00000130: 8175 2bbe 4eec dbbd 6606 81bb 2e85 7dbe
00000140: 3d92 1ebe d8cc c93d b9ec 553d 33ae a0bc
00000150: 49c1 f4bd 4e1f 44be 9036 a0bd 7624 fcbd
00000160: 5959 85bd 1cca debd 4c15 abb9 94da 1c3d
00000170: f187 043e 4dea 42be 38af 15be c074 fd3d
00000180: 0338 f7bc 914f 253e 2659 773c 43b7 b63d
00000190: a33d 1bbe 018c c63d fb31 2f3e b7fd 4ebe
000001a0: bb22 6cbd 1e77 64bd 8fdc 213e c90d d5bd
000001b0: 8f5c 9e3c 4ee2 533e 2e86 04bd 5b23 c93c
000001c0: 41c7 a1bc 85c4 3c3e 0c7a 423c 0dae 633e
000001d0: 8a05 db3d 0353 a13d 9bca 3b3e 3bf8 a4bc
000001e0: 4bdf c5bd 10f6 363d d007 0e3e e2b1 ebbd
000001f0: 8004 9f3c 05de cdba 17d3 efbd 416e 38be
00000200: ddfc fc3d 6ce0 1e3e 4741 df3d 89c1 39bd
00000210: e3d1 093d 45d4 40bd d276 0b3d 1a1c d73d
00000220: 4088 c2bd bac5 35be f76a e73d 2cf0 47be
00000230: 933d afbd ea30 4c3e 71bf c93d 5caf 46be
00000240: bd65 623c 529f cfbd f46f 513d c292 f23d
00000250: 7bac bb3c 8b74 093d 0e1c cc3d a12c 3fbd
00000260: e45b debc f98d 1a3e 15c6 303e d18e 333c
00000270: bb4d 81bd 13ba b53c 7eba 093c 1e22 00be
00000280: ff8e 393e 0c6e a13c fb75 c5bd 463f 533e
00000290: dd2b 80bc b25a 353d 70a2 96bd 2a34 353d
000002a0: 5c46 dbbd 9f6e d5bc 4e67 1cbd 472e 0a3e
000002b0: 19e6 a73d 3b15 8fbd 79df 103e 1f98 4fbd
000002c0: e9fb ac3d 0a11 843d 7719 713d 5b80 26be
000002d0: a6dc 883d 3357 c3bd 818b e83d 7e18 a4bc
000002e0: 7774 583d 8626 f6bc 43e0 873d 6a51 df3d
000002f0: f03c a33d 426d f03d fbb6 95bd e942 693d
00000300: 8007 fbbc c392 453e b809 223d 8cc6 2cbd
00000310: 9302 2a3d c310 a33c 0b0a 31be d5ae 4dbe
00000320: 86d5 06bc f236 d93d 7994 383e 754d 693d
00000330: 8cf9 3abe f3a3 0b3e 18a7 02bd 50c7 25bd
00000340: bbf5 4b3d 4331 913d 8466 383d 3ece 2e3e
00000350: 7f1d 0c3e f6c3 b6bd 4bb8 42be 53e6 aa3d
00000360: 78bd 05be c891 f2bd bb48 223e dcf1 a83c
00000370: b4d9 13be f94c e33d fdeb bf3d 1061 933d
00000380: 138c 04be 519a 1f3e 079b df3d 8273 15be
00000390: 3dd9 64bc f043 4d3e a587 743d 5a4e b3bd
000003a0: 7dbd 76be 5816 f9bd 71b2 2c3d 3f51 26be
000003b0: 3ba8 0f3e a5c3 16be 3465 9ebc 5af7 9b3d
000003c0: 7572 9f3d a2ca 2c3e ca6e 553e abe9 e5bd
000003d0: ff1d 813c 3eaf 9abd 99ea 543b c683 173d
000003e0: e7ad 05be 8c8f d53c f72a 4d3d ed91 e23d
000003f0: ffc4 0f3c 1618 a2bd 09d7 d53d 8c66 f5ba
0.016710568 -0.14002714 -0.11379834 -0.23393789 -0.08230935 0.08093155 0.016935045 0.18601134
0.005753295 -0.1589772 -0.03826899 -0.09516801 0.1735846 0.014853425 0.060417764 -0.1826088
-0.17755546 -0.13125089 0.023897197 0.018065637 0.12393827 0.19914135 0.09740472 0.13289048
0.036807552 0.035326786 -0.042192288 0.036985967 -0.08515637 0.016258355 -0.011484787 0.008607599
0.06276831 0.003271153 -0.10727266 -0.07994265 0.23292463 0.12397986 -0.069901705 -0.00198548
-0.096387476 -0.060620755 -0.019339861 -0.160713 0.07553491 -0.03413781 0.11336088 -0.21691734
-0.10731986 -0.016295247 -0.025161294 -0.024796242 0.22051667 0.13790283 -0.037498556 0.01963986
0.0031674278 0.055299193 -0.05931711 0.02457759 0.02539772 0.07666415 0.086501315 -0.13129017
0.124951534 -0.16109556 0.0047867447 -0.12099038 0.121439345 -0.019428711 -0.15357961 -0.10787733
0.12260699 0.074379876 0.065338746 -0.10832646 -0.16744043 -0.10738431 -0.0039375303 -0.24757835
-0.15485473 0.09853524 0.05222771 -0.019614315 -0.11950929 -0.19152567 -0.07822907 -0.12311642
-0.06511182 -0.10878393 -0.0003263153 0.03829439 0.12942483 -0.19034691 -0.14617622 0.12375784
-0.030178076 0.16143633 0.015096938 0.08921673 -0.15160231 0.096946724 0.1710891 -0.20213972
-0.05765031 -0.05577766 0.15806793 -0.1040302 0.019331245 0.20691797 -0.032354526 0.024552992
-0.019748332 0.18434341 0.011869919 0.22234364 0.10694416 0.07877161 0.18339007 -0.020137897
-0.096617304 0.044668257 0.13870168 -0.11508538 0.019411325 -0.0015706426 -0.11710184 -0.18010809
0.12352917 0.15515298 0.109011225 -0.045350585 0.03364743 -0.047077436 0.034048863 0.10503407
-0.09498644 -0.17751208 0.11299699 -0.19525212 -0.08556666 0.19940534 0.09850968 -0.19402832
0.013818202 -0.1013781 0.051132157 0.11844398 0.022909394 0.03355841 0.099662885 -0.04667342
-0.027143426 0.15093221 0.17263062 0.010959343 -0.06313654 0.022183454 0.00840628 -0.12513015
0.18120955 0.019705795 -0.096416436 0.20629606 -0.015645916 0.044275947 -0.07355201 0.0442392
-0.10706779 -0.026053725 -0.038184457 0.13494216 0.081981845 -0.06986471 0.14147748 -0.050682183
0.084464855 0.064485624 0.058862176 -0.16259901 0.0668271 -0.09538116 0.11354733 -0.02003121
0.052845445 -0.030047666 0.066345714 0.109042004 0.07970607 0.11739589 -0.073102914 0.056948576
-0.030643225 0.19294266 0.03956005 -0.042181537 0.04150636 0.019905454 -0.17288987 -0.20086224
-0.008229619 0.10606183 0.18025388 0.056958634 -0.18259257 0.1363676 -0.031897634 -0.040473282
0.049794894 0.07089474 0.04501964 0.17070863 0.13683127 -0.08924095 -0.19015615 0.08344712
-0.13060558 -0.11844212 0.15848057 0.02062314 -0.14438516 0.11098666 0.09371183 0.071962476
-0.12944059 0.15586211 0.10918241 -0.14594844 -0.013967809 0.20045447 0.059699673 -0.08755179
-0.24095722 -0.12162465 0.042162362 -0.1624193 0.14029019 -0.1472307 -0.019335367 0.07615538
0.07785503 0.16874173 0.20843044 -0.11226209 0.015761374 -0.07552956 0.0032488464 0.036990903
-0.1305462 0.026069425 0.050089803 0.110629894 0.008774995 -0.0791475 0.10441405 -0.0018722578

shared_gru.weight_hh_l0 f4 [96, 32]
00000000: 2069 733d bbce d63c fd58 aa3c 4174 35be
00000010: 4a2c a6bd 0adb 52be b687 1fbd 17c2 263e
00000020: a119 af3d cf39 a63d 1665 8e3c 7edb 0fbe
00000030: a492 cbbd d2e4 1c3d 0e6b 8e3c 154f e7bd
00000040: 711b 4abe 3060 253e 34a7 6d3a e1ea 1abb
00000050: 5649 c5bc 5a09 0e3e b22d a4bd dc24 1cbe
00000060: d168 f03b c597 423e 3ded a03d cfa5 52be
00000070: eda4 ac3d fbab 72bd a045 243e b9e1 623d
00000080: 9a79 b03c 6163 1dbc d6d3 523c d505 02be
00000090: 6128 e4bd 17f2 aabc 2437 3f3e 3302 9bbd
000000a0: 4c66 a73d 3e95 4abe b948 aebd abc6 39be
000000b0: 9266 d4bd 3a03 3dbe fbc7 15be f480 0d3e
000000c0: f3db 2dbe 36f2 c7bc 1a46 573c 202c fd3d
000000d0: 48fe 74bd d217 283d 41d8 44bb be6b 5cbe
000000e0: b173 df3d 421d 293e 967e 8dbd 2f2b 19be
000000f0: 0c9c 32be 55d7 603d 011c 11bd d687 e83d
00000100: b061 53bc b1ea d93c bf81 fb3d 5ba7 bbbd
00000110: 2755 5dbd 1d6d 85be dcf7 4fbc bda6 073e
00000120: 3e7c aebd 0f9d fcbd b53b 6ebd dc2f 4abe
00000130: e843 44bd c424 fd3d 4196 5c3d 14f2 203e
00000140: 1eb2 94bd 5d04 843d d8bf 8c3d 2e59 20be
00000150: 50e4 9b3d 313a 913e 1217 233e 98d2 07be
00000160: 820c 0c3e c75b 183e eb82 be3d ca68 2b3d
00000170: 4b79 be3d 9b29 713d 9b05 823e e169 833d
00000180: f524 d8bc c2e6 5a3e 6cd5 053e 9862 c8bd
00000190: e4a4 033c c2c7 22be 27d4 dfbc 4ddb e3bd
000001a0: 8e48 c2bd 9c1f 75be 5ecc f33d 1c33 9d3b
000001b0: 5398 19bd 2509 6c3e 4429 d83d 3671 003e
000001c0: a4b6 583d 50f8 ccbd 196e e93d 949e 79bd
000001d0: 1dec d2bd 41bf 283e 20f4 8b3c f69d 32bc
000001e0: 03ac 41bd 7fd0 983d 98c8 de3d 96ca 8cbd
000001f0: d693 ac3d 07c2 393e ef62 2c3e bc8f 7f3d
00000200: dd9b 7b3e 6e5d 99bd 36fd 2e3e 1c7a 8fbd
00000210: e9cf 033e cc2d 03be 2a19 003e 60f9 3b3d
00000220: ee66 133c 1a1e 6dbe 7002 7b3e 68ce 23be
00000230: 7281 193e c559 94bd 0d9f b0bd e25c 0d3e
00000240: b910 25be 5999 00be dc28 49bd 69e1 ab3d
00000250: dfa8 1dbe 7382 ec3d 123c d83d b62d bb3d
00000260: d184 af3d 88b4 173e 32b1 bbbd ff27 24be
00000270: 7459 64be 9820 d83d f8af c13d 7603 7abd
00000280: 73d4 173e 2532 543e 4f83 583e 56bc 70be
00000290: 19eb 163e 3903 64be 24e8 ecbc 7c92 833c
000002a0: 0f14 d33d fb0d 09be 37b8 693e dfdc 633c
000002b0: 2548 4cbe a2a5 ec3d 6c60 09be b267 d83d
000002c0: 50af f5bd a433 f13b ca3e 1b3d 1ca6 b7bd
000002d0: 89a3 843d b1c9 d93c b0f1 673e 9e6d b5bd
000002e0: 207d 23bd ef80 513e 09f8 f63d 3588 c3bd
000002f0: 0af7 00be 9d3f 533e 3085 bb3a 4fcd 1bbe
00000300: f693 083e 289f eb3d 5d29 0c3e 98b7 203d
00000310: ae20 963d 2396 963d d1fd 72bd 51ed 283e
00000320: 3872 293e 8e58 d03d 2691 d4bd cbdf 74bd
00000330: c940 873d 95a1 60bd 39e6 06be 65c2 05bd
00000340: ee2c 2cbe 5443 1c3d ef20 3cbd c488 97bd
00000350: 35c5 123e 0dce 3d3e adf7 efbc 31f9 56bc
00000360: fcfe 433d 0391 92bd 1781 163e c777 ddbd
00000370: b655 05be de87 ff3d e9d0 0b3d 8e07 7bbd
00000380: ed59 973d 7e61 43be 7cdc 833c 9774 16be
00000390: 78d8 053d cbc7 1c3e b253 003e feae 2ebe
000003a0: feb0 a1bd fb4f 833d b7d2 ad3c 30a1 f2bd
000003b0: c579 263d cbed 4abe 7290 a83d cc34 4bbe
000003c0: 3266 003d 0a14 e83c af98 5e3d 3a58 de3d
000003d0: 1315 0d3d 6cd5 c63c 864d 4b3d 941b 87bd
000003e0: 4292 3fbd 205d 24be e3ef 873d dbd2 febc
000003f0: d44e 5c3e ab50 68be d172 bd3c 5f93 a73d
0.059426427 0.026221624 0.020794386 -0.17720129 -0.08113916 -0.2059137 -0.038947783 0.16284977
0.0854981 0.08116495 0.017382186 -0.14048573 -0.09940079 0.038304158 0.017385032 -0.112943806
-0.1973703 0.16149974 0.0009065748 -0.0023638534 -0.02408282 0.13870755 -0.08016528 -0.15248436
0.007336714 0.19003208 0.078577496 -0.20571063 0.084298946 -0.059246045 0.16042185 0.055391047
0.02154236 -0.009606213 0.012867888 -0.12697537 -0.11140514 -0.02086739 0.18673378 -0.07568779
0.081738085 -0.19783494 -0.085099645 -0.18142192 -0.10371126 -0.18458262 -0.14627068 0.13818723
-0.16978435 -0.024407487 0.013139272 0.12361932 -0.059812814 0.04103834 -0.0030036124 -0.21525475
0.10910738 0.16515067 -0.0690891 -0.1495788 -0.1744234 0.054892857 -0.035427097 0.11354034
-0.0129017085 0.026601167 0.122806065 -0.0916278 -0.054036286 -0.2605981 -0.012693372 0.132472
-0.08519791 -0.12334644 -0.05816241 -0.1974482 -0.047916323 0.12360528 0.05385423 0.15717345
-0.07260536 0.06446145 0.06872529 -0.1565902 0.076119065 0.2836471 0.1592677 -0.13263929
0.13676646 0.1487876 0.09302314 0.04184798 0.093004785 0.05887757 0.25394902 0.06416679
-0.02638481 0.2137709 0.13069695 -0.0978443 0.008034918 -0.15896514 -0.027322842 -0.11125813
-0.09486495 -0.2393784 0.11904214 0.0047973525 -0.037498783 0.23050363 0.10554746 0.12543187
0.052908555 -0.10008299 0.113979526 -0.060942248 -0.10298941 0.16479208 0.017084181 -0.010901919
-0.047283184 0.074616425 0.10878104 -0.06874578 0.08426635 0.18140422 0.16834615 0.062392935
0.24571176 -0.074885234 0.1708878 -0.070057124 0.1287228 -0.12810439 0.125096 0.04589212
0.008996708 -0.23156014 0.24512649 -0.15996706 0.14990786 -0.07243685 -0.086240865 0.13804963
-0.1611966 -0.12558497 -0.049111232 0.08392603 -0.1539645 0.11548319 0.105583325 0.09139578
0.085702546 0.14814961 -0.09164657 -0.16030882 -0.22299749 0.10553092 0.094573915 -0.061038457
0.14827137 0.20722254 0.2114384 -0.23509344 0.1473812 -0.22266854 -0.028919287 0.01606106
0.1030656 -0.1338424 0.22824179 0.01390764 -0.19949396 0.115550295 -0.13415688 0.10566653
-0.11996329 0.0073608924 0.037901677 -0.0896723 0.06476504 0.026585432 0.2265079 -0.088587984
-0.03991425 0.2045934 0.12059028 -0.09547464 -0.12594238 0.20629735 0.0014306661 -0.15215038
0.13337693 0.11504966 0.13687654 0.03923759 0.07330452 0.07352855 -0.05932409 0.16496779
0.16547477 0.101731405 -0.10379247 -0.059783738 0.06604154 -0.054841597 -0.1317376 -0.032656092
-0.16814014 0.038150147 -0.045929845 -0.07399133 0.14333041 0.18535633 -0.029292906 -0.013120935
0.047850594 -0.07156565 0.14697681 -0.10813861 -0.13020977 0.124770865 0.03413478 -0.0612865
0.07390199 -0.19080159 0.016096346 -0.14692913 0.032677144 0.1531059 0.12531927 -0.17058942
-0.07895087 0.064117394 0.02121864 -0.1184715 0.040643472 -0.19817273 0.08230676 -0.19844359
0.03134746 0.028329868 0.05434483 0.10856672 0.034443926 0.02427169 0.04963448 -0.06597057
-0.04677034 -0.1605115 0.06637552 -0.031106403 0.21514446 -0.22687022 0.023126038 0.08182406

shared_gru.bias_ih_l0 f4 [96]
00000000: b1ff 863a 8bb4 7e3d f5a3 193e 730b 593d
00000010: 5a07 ab3c 06d0 b13c c07a d8bd 6436 6e3c
00000020: 9cab c33d cb91 3c3e 114a a6bd d7af 3f3e
00000030: 9f4f 513c 5a82 9d3d b2dc fcbd 3b96 1f3e
00000040: ed21 543d 017b edbc 7a34 3d3e 80cd 4b3e
00000050: 394e fdbc 400c 553e 94f1 a83d d35e 823d
00000060: 9ef6 863d 1e9e 9e3d 2110 ab3c 1307 b93d
00000070: 52e9 a63d c684 373e 67cf 6a3e ec1e fa3d
00000080: 0b92 d3bd 04d3 26be a397 a7bc 6a95 3fbe
00000090: bb00 1b3d da17 bf3d d0ec d3bd de83 be3d
000000a0: 0087 82bd 2a04 56be 078f 7bbc f4ab 0a3e
000000b0: 83e6 28be 9f5e a63d c37d d13d f8e9 a0bd
000000c0: 0d15 21bd 23d1 863d f0b2 513c 8b15 d7bc
000000d0: e846 5ebd 42bd 2fbe 7716 c13c 2fa1 dabc
000000e0: 9f30 1bbe 3dcd 2a3e 2e78 40be 1c98 aebd
000000f0: 827a 49bd 6403 13be 351a 23be 2561 c53d
00000100: 9e5a fa3d 4782 773e f677 363e 0eec 78bc
00000110: e7ab 8d3d af9e 463d a70e 0ebe 9def 233e
00000120: c6e0 813e 7304 59be 7c54 003d c2cc b7bd
00000130: 700c 75be 4216 f73d e842 7ebd d548 4abc
00000140: 1e4c 4a3e 4d0a 3b3e 8615 a33c a2cd 36be
00000150: 8847 253e a164 713e 5d0f 033e 8fb5 e63c
00000160: 61da 823e 9fab 84bc 10a0 c63c 2282 0b3d
00000170: 55b2 f23d 7c2c 243e e6f1 423e 95d6 55bc
0.0010299591 0.062183898 0.15003951 0.052989434 0.020877529 0.021705639 -0.10570288 0.014539335
0.09554216 0.1841499 -0.08119596 0.18719421 0.012775331 0.07690878 -0.12346782 0.15584652
0.051790167 -0.028989317 0.1847705 0.19902611 -0.030921089 0.20805454 0.08249202 0.063657425
0.06590007 0.07745002 0.020881714 0.090345524 0.08149971 0.17921743 0.2293068 0.12212929
-0.1033059 -0.16291434 -0.020458048 -0.1870934 0.037842494 0.09330721 -0.10347903 0.093024954
-0.063734055 -0.20900026 -0.015353925 0.13542157 -0.16494183 0.08123516 0.10229065 -0.07857126
-0.039326716 0.065828584 0.01279901 -0.02625539 -0.05426684 -0.1716204 0.023570282 -0.026688186
-0.15155266 0.16679855 -0.18795845 -0.08525106 -0.0491891 -0.14356762 -0.15927966 0.096376695
0.12224315 0.2417079 0.17819199 -0.015192999 0.069175534 0.048491176 -0.13872777 0.16009374
0.253668 -0.21193103 0.03133057 -0.08974601 -0.23930526 0.12064792 -0.062075526 -0.012346466
0.19755599 0.18265648 0.019907724 -0.1785188 0.16140568 0.23573543 0.1279883 0.028162746
0.25557235 -0.016195117 0.024246246 0.03405965 0.118504204 0.16032594 0.1903759 -0.013051649

shared_gru.bias_hh_l0 f4 [96]
00000000: 04d2 733e 0ed6 85bd 5414 793e 4cf7 363e
00000010: d810 9b3d 164f 7abc e912 f93d a1cf 40bd
00000020: 0496 2a3e 8901 043e 9e34 ca3c d91c 003d
00000030: f30f f63d 9ab0 293e 43bf e43d 3f50 1a3c
00000040: f60b 99bc d9da c13d 9a2e eebd a8f5 563e
00000050: b1f1 a3bd dffb 2a3e aa22 06bd 2388 09be
00000060: ff98 40bd bdb3 c13d f0a1 7f3d 42b4 18bd
00000070: b9c8 f0bd fab0 e93c b9c4 863e c2ff 383e
00000080: b956 693d 9900 06be 44e4 2abe 3db2 60bc
00000090: 9637 fdbc d032 883d 9a6c 3ebc 0aec 0d3d
000000a0: efc4 523d e4dc 31be dac8 4fbd b3d1 043e
000000b0: bcd6 ed3d d520 1fbd 8879 cebd 776a 1abe
000000c0: 2557 8dbd dd51 43be dd69 05bd 7a1f 983d
000000d0: 88a3 2bbe 2828 54be 920a ae3d 7b67 d5bd
000000e0: 7d7d efbd e9dd 01be f46b 3bbd 014b 8e3d
000000f0: e1a2 49be 4549 ccbd 9786 0dbe a1fc e93c
00000100: a128 653e 7c7d 023e 9c04 673e 97ef 6abe
00000110: aefd 723e c0e9 3fbe 16e3 003e 9e65 b0bd
00000120: 648b 1e3d d15a 27bd 8b03 0b3e 555b 48ba
00000130: c294 723d 19d7 013d 22bf 5e3e 9187 67be
00000140: f7e9 d6bc 859c 643e cfce c13d 1fb9 7abe
00000150: 459f 253e 7fb4 443e ab8e 123e 9ec7 293d
00000160: b0ae 7dbd 3142 963d 988c bb3d 02bf aebd
00000170: 75bf 0d3e 604c 6e3e 2613 343e 9b47 11be
0.23810583 -0.06534968 0.24324161 0.17867774 0.07571572 -0.015277645 0.1216181 -0.04707301
0.16658789 0.1289121 0.024683293 0.03127751 0.12014761 0.16571274 0.11169293 0.009418546
-0.018682461 0.0946557 -0.11629982 0.20992148 -0.08005083 0.16697644 -0.032747902 -0.13430838
-0.04702091 0.094581105 0.062410295 -0.037281282 -0.11757035 0.028526772 0.26321962 0.18066314
0.05696747 -0.13086165 -0.16688639 -0.01371437 -0.030910295 0.06650317 -0.011622572 0.034648933
0.05145734 -0.1736942 -0.050728656 0.12970619 0.11613223 -0.03884967 -0.10081774 -0.15079676
-0.06901387 -0.19074197 -0.032571662 0.07427879 -0.16761601 -0.20718443 0.0849811 -0.10420128
-0.11693857 -0.12682308 -0.04575725 0.069478996 -0.1969104 -0.099749126 -0.13820873 0.028562846
0.2237878 0.12743181 0.22560352 -0.22942959 0.23729584 -0.18741512 0.12586626 -0.08613132
0.038707152 -0.040858094 0.1357557 -0.0007643004 0.059223898 0.031699274 0.21752599 -0.22610308
-0.02623461 0.22325332 0.09463274 -0.2448468 0.16174038 0.19209479 0.14312236 0.041450135
-0.061934173 0.07336844 0.091576755 -0.085325256 0.13842566 0.23271322 0.1758543 -0.14187472

stock_specific_layers.AVAV.0.weight f4 [64, 32]
00000000: 0aab 83bd 58bb cfbd 6ac4 1e3d 5a71 61bd
00000010: 1283 6b3c 0a0d 653c ce06 5c3d 764b 0fbe
00000020: 4739 923d 5914 3ebd b2d3 d63c e428 843c
00000030: 090f 543c 0b55 6ebc 48d5 45bd 0523 c83d
00000040: 0d82 b5bd 781d 44be e02c 1dbb 316f 293d
00000050: 0c78 d43d 0e1d 643d 5a96 20bd b69b a9bd
00000060: 6010 09be f5c4 9ebd 7e87 c63d 4ff4 103e
00000070: c727 ad3d 6d68 0cbe 63e9 3cbe 564b cbbd
00000080: 8cd8 2abe 08da b7bd 2ac7 2c3e c066 a93d
00000090: 5e4d 3fbe 232a dc3d 15e6 eebd 1b6d ad3d
000000a0: 763d d03d 411a adbd ab7d abbd 6699 09bd
000000b0: 6fff 90bd 1276 3cbd 6cf9 373e 115e fabd
000000c0: bacf 40bd df42 fcbd 787a 5bbd ea32 e4bd
000000d0: db8a a63c ac41 33bd 8578 b6bd fce6 263e
000000e0: 1956 40bd 7693 8f39 e39f 4d3e 53b9 02be
000000f0: ed95 4b3e 9b75 f53d feaa b5bc 08ab 3f3d
00000100: 3c41 943d 843d 32bd 37db 8dbd c8ca 303e
00000110: 9818 b6bd 399e 26bc 4c84 713d 3c15 cfbd
00000120: 653c efbd 4952 8abb 6741 65bd 0c35 d0bd
00000130: 972d c03d 0c4a 36bd 5241 e03c 9bcd 213d
00000140: 000f fdbd 12cb 84bc ee56 13be 5c78 1e3d
00000150: b923 a7bc b099 48bd d0dd 32be 898c 923b
00000160: 0430 b43d 89b2 213e b2be 723c 0f88 013d
00000170: b392 4fbd a9d5 3abd ffa6 e13d 472b 0abe
00000180: 111d 2c3d 65df b9bd 84ae a33d 4984 a9bd
00000190: 197e 84bd 6b25 343d 1354 6cbc 09f4 2abe
000001a0: 6d1e 443e 8d43 30bd 6e0c f4bc d841 fe3d
000001b0: 0a59 68bd b26d b8bd 6022 a9bd d56d bbbd
000001c0: a405 04be a0b6 d93d ce7f c23c e4e0 44be
000001d0: b2fa 403d 3161 bfbd a0f9 2d3e abe0 a5bd
000001e0: 2bc3 d43c 602c 62bd fda4 023e a2ad 283e
000001f0: 2d14 363e 59f1 3a3c b459 99bc 1494 d9bd
00000200: 32dd 463e d0f8 3f3d c781 d0bd 8f96 b3bd
00000210: 4019 a73d 7f70 22bd c1a6 d13d e5a3 033e
00000220: 733b 7f3d 3fb0 63be 128a 223e 5125 563d
00000230: a656 0a3e ca03 8f3d 36f5 a6bc fd01 5dbd
00000240: 6ca7 20be 1e02 80bd 2803 f43d b7da e33d
00000250: 1de2 c7bd f44d c1bd 5bc8 dd3d d4b1 e0bd
00000260: 4a66 80bd b429 a6bd 3f23 52be 5326 843c
00000270: af40 1cbe e419 173a e114 79bd a28a 5cbe
00000280: 8cce 0e3a 7427 28be 2683 22be 7407 14be
00000290: 0413 f73c 44ac 5c3d af1e 633d 66c9 393e
000002a0: 8b97 193e 3cf6 323e ebcb e53d c267 223e
000002b0: 0913 0fbc 4e76 9ebd 4f8e 9c3a 0089 3d3d
000002c0: 9e96 23be 50f8 1d3e 6145 debd 786a 373e
000002d0: 80c7 f8bd a89e f23d cc2e b83d 1288 ddbd
000002e0: 5794 003e 753c 753d eb48 693d a50a 963c
000002f0: 9eff a7bd c0c1 a0bc 3226 873c 91fd 263d
00000300: f21d 323d 972f f23d a571 2fbe 6c03 493e
00000310: b506 513d a3c8 9c3d a34f 10be f97a ffbd
00000320: 54bb 18be f92a 0e3d 732c 3dbd d5bd 463c
00000330: 482d a4bc 32eb 36be 0f1c 143d b31d 0d3e
00000340: 3022 dfbd 782a 02be 212f 7bbc 4715 3abc
00000350: 88d2 023e ac13 43be 4378 3d3d 4633 a83c
00000360: 62fd 47be dde7 933d bfd3 4fbe f608 263e
00000370: e884 b83b c7b2 0abc 7abe ad3d 1028 c9bd
00000380: 8d59 3b3e 1da5 553e 73ad 353e 8276 1a3d
00000390: 47b2 483d c3c6 c73c 1775 0e3e ddfa fd3d
000003a0: 2cd3 e4bc 8ed4 afbd 6372 533d 4fda 6e3d
000003b0: 483f 05be 4466 4d3e 2701 06be bacd 05be
000003c0: ce48 7c3d 318c a13d ba84 b83d 29ae 1ebc
000003d0: 702f 453e f73b 3f3e 7b16 b7bc e6e7 9e3d
000003e0: 8cd6 423e 6824 af3d 00ad 0cbd 2c7a a7bd
000003f0: 5b0b af3d 2dc5 4b3d 7b55 1e3e 9e30 813d
-0.064291075 -0.10143155 0.038761534 -0.05503974 0.014374511 0.01398016 0.053717427 -0.1399363
0.07139831 -0.046406124 0.026223991 0.01613278 0.012943038 -0.014546643 -0.048299104 0.097723044
-0.08862696 -0.19151866 -0.0023983046 0.041365806 0.103744596 0.05569177 -0.039205886 -0.08281653
-0.13385153 -0.0775241 0.09693812 0.14155696 0.084548526 -0.1371171 -0.18448405 -0.099264786
-0.16684169 -0.08977133 0.1687285 0.08271551 -0.18681857 0.107502244 -0.116649784 0.08468076
0.10167973 -0.08452273 -0.08373579 -0.033593558 -0.0707997 -0.046011038 0.1796624 -0.12224973
-0.047073103 -0.12317442 -0.053583592 -0.111425236 0.020329883 -0.0437638 -0.08909706 0.16299051
-0.04695711 0.00027384952 0.20080523 -0.12766008 0.19881411 0.11985322 -0.022176262 0.046793967
0.07239005 -0.043515697 -0.069265775 0.17264855 -0.0889141 -0.010169559 0.05896406 -0.10111472
-0.11681441 -0.004221235 -0.055970576 -0.10166368 0.093836956 -0.04450421 0.027374897 0.03950272
-0.12356377 -0.016210113 -0.1438863 0.038689002 -0.020402776 -0.048974693 -0.17467427 0.0044723195
0.08798221 0.15790762 0.014815973 0.031623896 -0.050677013 -0.04561392 0.1101818 -0.13493071
0.042019907 -0.09075812 0.079922706 -0.082771845 -0.06469364 0.043980997 -0.014424342 -0.16694655
0.19152232 -0.04303317 -0.029791083 0.124149024 -0.05672554 -0.09005298 -0.0825851 -0.09151808
-0.12892777 0.10630536 0.023742583 -0.19226414 0.04711408 -0.0934471 0.16989756 -0.08099493
0.02597197 -0.0552181 0.1275825 0.16472486 0.17781134 0.011410081 -0.018719532 -0.10623947
0.19420317 0.046868145 -0.10181003 -0.08768951 0.08159113 -0.039658066 0.10236884 0.1285549
0.062312555 -0.22235201 0.15872982 0.05228168 0.13509616 0.069831446 -0.020380598 -0.053956974
-0.15688866 -0.06250404 0.119146645 0.11125701 -0.097599246 -0.094386965 0.108292304 -0.10971418
-0.0626951 -0.08113423 -0.20521258 0.016131556 -0.1525905 0.0005764051 -0.060810927 -0.21537259
0.0005447648 -0.164213 -0.15870342 -0.14455968 0.030160435 0.053875223 0.055449184 0.18143234
0.14999215 0.17476743 0.11220535 0.15859893 -0.008732566 -0.077374086 0.0011944267 0.04627323
-0.15975425 0.15426755 -0.10853077 0.17911708 -0.121474266 0.118466675 0.08993301 -0.10816969
0.12556587 0.05987211 0.056954306 0.018315623 -0.08203052 -0.019623637 0.016497705 0.040769164
0.04348559 0.11825483 -0.17133196 0.19630212 0.051031787 0.07655456 -0.14092879 -0.12474627
-0.1491521 0.03470895 -0.04618497 0.01213022 -0.020041123 -0.17863157 0.03615957 0.1378086
-0.108951926 -0.12711513 -0.015331061 -0.011357612 0.12775624 -0.19050473 0.04625727 0.020532262
-0.19530252 0.07221959 -0.20295618 0.16214356 0.005631078 -0.008465475 0.08483596 -0.098220944
0.1829588 0.20863767 0.17741947 0.037710674 0.048998144 0.02438677 0.13911854 0.12401364
-0.027932726 -0.085854635 0.05162276 0.058313664 -0.13012421 0.20058542 -0.13086377 -0.1306676
0.06159287 0.078880675 0.090096906 -0.009685078 0.19256377 0.18675219 -0.022349587 0.07759075
0.19027156 0.08551866 -0.034344673 -0.08177599 0.08547088 0.04974859 0.15462296 0.06308101

stock_specific_layers.AVAV.0.bias f4 [64]
00000000: 821d 36bb 96cc b0bb 4956 28be a9a6 6b3e
00000010: 08b2 f0bd 3719 30bd 93b0 d33d 0868 533e
00000020: c486 533d fb06 843d 4c34 353e 949a 29bd
00000030: 4467 07bd 1375 413d 122b 663e 8f82 2d3e
00000040: 736c 1a3d 6798 703e a0e7 553e 2a9c 15be
00000050: 10c7 053e c5ee 183e 0659 a9bd 03b6 ff3c
00000060: a601 10bb 70a3 273e 1eac 603d c084 ee3b
00000070: e3a8 35bd 75b3 423c 208e de3c e4ee 283e
00000080: dfe7 f43d 42ed a8bb 010b 49bd e4cb d13d
00000090: 0b64 edbd 3dfb d8bd 3b6c 34be 8ce5 f63c
000000a0: 22b0 c33c 773f 15be d4a2 eebd 9aef 393e
000000b0: 9a52 853d a921 9c3b 5f33 f7bd 461b 0b3e
000000c0: 85b7 56bd b3bf 8a3d 4267 f93d 277a e23d
000000d0: 72f1 adbd bb49 13be 960d 0c3e 8de0 edbd
000000e0: 1c1d 31bc 25f3 fbbd e90d b8bd c1ca 663d
000000f0: 813a 37bc db9f 4c3e fd77 323e 36dc ef3d
-0.0027788584 -0.0053954823 -0.16439165 0.23012795 -0.11752707 -0.042992797 0.10336413 0.20645154
0.051642194 0.06446644 0.17695731 -0.041407183 -0.033057466 0.04723079 0.22477368 0.16944335
0.03770108 0.23495637 0.20889139 -0.14610353 0.13064218 0.14934833 -0.08268933 0.03121472
-0.0021973639 0.1637094 0.054851644 0.0072790086 -0.044350516 0.011883606 0.02716738 0.1649738
0.119582884 -0.0051552365 -0.04908276 0.10243967 -0.11591347 -0.10594795 -0.17619412 0.030138753
0.023887698 -0.14574991 -0.11652151 0.18157807 0.065098956 0.004764755 -0.12070345 0.13584623
-0.05242111 0.06774845 0.12177898 0.11058455 -0.08493318 -0.14383595 0.13677058 -0.11615095
-0.010810163 -0.123022355 -0.08987028 0.056345705 -0.011183382 0.19982855 0.17428584 0.11711924

stock_specific_layers.AVAV.3.weight f4 [32, 64]
00000000: 0202 0abe 833c 00be f640 ddbd 10f5 e1bd
00000010: dd49 e5bd 40e8 0abe 86d6 213d 625b afbd
00000020: cf2d c93c 8294 a4b9 30f5 47bd 05af b23d
00000030: 0636 7b3d d999 d3bd cf6f 2dbd b0da dbbc
00000040: 0699 9539 66ba 11bd ec9e ae3c ff6d af3d
00000050: b753 00bc 651a 65bd 4683 5b3c bd28 ca3c
00000060: c389 39bb e0ce 08be 4efc c93c 95a6 733d
00000070: b0c4 6b3d bcf8 09bd e608 073d 94ec 88bd
00000080: a2fd 393d 928b bdbd 5ea8 da38 9b7d a3bd
00000090: fe96 973d aa00 bd3d 19f5 a33d 1ce2 cdbd
000000a0: 82b2 413c 69d7 9abd fefe cabc 7f18 b13d
000000b0: 5d9f eabd c29c 593c eb92 5d3d 20c5 cabd
000000c0: 8e09 0abe 2315 7f3d 6195 82bd e6a2 cebd
000000d0: 4ede 58bd 28f6 85bd d274 6a3d 4538 293d
000000e0: 59ba e7bd 7c77 9d3d 5999 dc3d cb2f 83bd
000000f0: 8251 16bd f5cd 583d 8bf1 0bbd fab7 9bbd
00000100: 13c4 88bc c0e6 a53d d0af 4fbc 00f2 433a
00000110: 3ca6 b73d baf1 613d e5fd c6bd 6d4f 14be
00000120: bba2 89bd 4ede d9bc 8a3e 85bd cee5 c2bd
00000130: d566 4f3d 9aaa 7dbd cb32 fbb9 93fd 7f3d
00000140: 5cf0 a2bc 37fa 34bd 76a9 823d ecb4 d5bd
00000150: 01ae f6bd 37de 06bd 8315 c33b f183 73bd
00000160: fcf8 47bd d57d 6d3d 3061 9b3d 4b56 5ebc
00000170: f23c 18bd ee87 b03d 85d4 e3bd 1855 17bd
00000180: 50da bf3c 84f1 95bd 1d2c 53bd 1a50 0cbe
00000190: 9ae7 76bd a54b f1bd 3420 4b3d b8d1 bd3d
000001a0: 7b99 443b 1951 26bd e893 873d 3953 af3d
000001b0: a1fa 32bd c557 99bd a5b4 91bd 137c bc3d
000001c0: 7db8 bbbd 10e5 c8bd 997e 8bbc 3f5c b1bc
000001d0: cadc 36bb 37bb 30bd d1ea 12bd dd19 a23c
000001e0: 5b0b a13d 4a2d cebd 4f4b 46bd 32e4 b9bd
000001f0: b522 00be 2b21 7e3d 6c4d 95bd 4a4b 86bd
00000200: 0536 78bc 5bc2 483d cc09 f93d d339 b23d
00000210: a3f9 afbc 398d 1ebd dff7 1d3e 5957 1d3e
00000220: 44c3 ef3d c77f af3d b9fb bc3d f1b5 b73c
00000230: 317d 113e f555 bdbc 1f70 333e f9e2 80bd
00000240: bf7b 733b ded2 3e3e 6bc1 d13d b4ab 86bd
00000250: e8f2 d9bc f8c7 4b3c 79ed 49bd b658 8bbc
00000260: d027 3a3e 630d 2c3e e6a8 013d fc45 adbc
00000270: f0c8 ae3d d1c1 28bd 13f5 e63c 387a a83d
00000280: 35b2 843d 324a 2dbd 80ea d0bc b2ec 733c
00000290: c156 bfbb b4a5 fc3d 2642 b93d 6eb5 1b3e
000002a0: 2841 d3b9 b5a2 7dbd 4cdd 813d 3629 763d
000002b0: 2c6a 1a3e 9cba 3fbd 4120 81bd 23c7 38bd
000002c0: f031 f73d a9f8 ddbc 3725 9cbc b87d da3c
000002d0: bb68 18bd d470 28bd 09d8 443d 51cf cb3c
000002e0: f3a8 cb3d cc7d 083e d4c8 1b3e 6edb eebc
000002f0: 5c36 76bd 260c a73d 520f 273e 5a14 913b
00000300: 6d5d 6b3d d3e6 e23c e6ef fabd 090f d73d
00000310: 9d80 043e b550 dbbd 4f73 453c 3796 053e
00000320: ac05 1ebd 0c8f 9c3d ab00 fa3d 752c dd3c
00000330: dc7e 313d fb3d 3c3d d3d1 243e e83c 133e
00000340: ec1d 713d ef38 573e 3007 ec3d 9abe ccbd
00000350: c714 963d 59a2 ce3d 93b7 b03d d93c 323e
00000360: b041 e23c b5e1 4a3c 230a 3f3e 333b a33d
00000370: e3ce 753d 5f75 1dbd 2507 bc3d 5b84 013e
00000380: e1fe 2f3e 6e16 263c f2f9 153e 7ba5 833d
00000390: a2cd 4a3d 562f a8bd 5454 f9bc edf2 4f3d
000003a0: cf58 ffbc 6d0a c7bd 8231 a43d 3e30 b73c
000003b0: c841 daba 7e5f 6c3d b3d7 433e a47b 993d
000003c0: c5db 613d e47e 163e 07c9 023e 69a9 1b3e
000003d0: 1d22 f73c 4681 e23d f685 9b3d ccd5 f73d
000003e0: 5f92 09bd dd20 d43c cf04 38bc 969b 5abd
000003f0: 2dae 253d 0c21 893d 69a0 373e 7dd7 db3d
-0.13477328 -0.12523083 -0.10803406 -0.1103307 -0.11195729 -0.13565159 0.039511226 -0.08562352
0.024557976 -0.00031391165 -0.048817813 0.087247886 0.061330818 -0.103320785 -0.042342957 -0.026837677
0.00028533506 -0.035578154 0.021316014 0.08565902 -0.007832459 -0.055933375 0.013397997 0.024677629
-0.0028310872 -0.13360167 0.024656441 0.059485037 0.057560623 -0.033684477 0.03296747 -0.06685749
0.0454079 -0.092551365 0.00010426411 -0.07982942 0.07401846 0.09228642 0.08005733 -0.100528926
0.011822345 -0.075606175 -0.024779793 0.086472504 -0.114561774 0.013282003 0.05409519 -0.0990088
-0.13480207 0.062276017 -0.06376148 -0.10089664 -0.05294638 -0.06541091 0.057240315 0.04131343
-0.1131484 0.076888055 0.10771436 -0.064056 -0.036698826 0.05293079 -0.0341659 -0.0760345
-0.016695058 0.08100653 -0.012676194 0.00074747205 0.089672536 0.05516217 -0.09716395 -0.14483424
-0.067204915 -0.026595261 -0.06506069 -0.09516488 0.050635178 -0.061930276 -0.00047912294 0.062497687
-0.019890003 -0.044183936 0.06379978 -0.10434899 -0.12044907 -0.032926764 0.005953492 -0.059452
-0.048821434 0.05798133 0.075868964 -0.013570379 -0.037167497 0.086196765 -0.11124519 -0.036946386
0.02341953 -0.07321456 -0.05155574 -0.13702431 -0.060279466 -0.11782006 0.04959126 0.09268516
0.0029998708 -0.040604685 0.06620008 0.08560795 -0.04369605 -0.07487444 -0.07114533 0.09203353
-0.09166048 -0.09809315 -0.01702814 -0.021650432 -0.0027902597 -0.043147292 -0.03586847 0.019787723
0.07863494 -0.10067232 -0.048411664 -0.09076728 -0.1251324 0.06204335 -0.07290158 -0.06557329
-0.015149598 0.049013477 0.12160072 0.08702435 -0.02148134 -0.0387089 0.15426587 0.15365352
0.11707166 0.085692935 0.092277 0.022425624 0.14207913 -0.023112277 0.1752324 -0.062932916
0.0037152616 0.18635127 0.1024197 -0.065757185 -0.026605085 0.012437813 -0.049298737 -0.017010074
0.1817925 0.16801982 0.031655215 -0.021151535 0.085344195 -0.041200463 0.028193032 0.082264364
0.06479303 -0.042307086 -0.025502443 0.0148879755 -0.0058391993 0.12336293 0.0904582 0.15205929
-0.000402936 -0.061922748 0.06341037 0.060097896 0.15079564 -0.046808824 -0.0630498 -0.045111787
0.12070072 -0.02709611 -0.019060714 0.026671275 -0.037209254 -0.041123226 0.04805759 0.02487913
0.09944334 0.13329238 0.15213329 -0.029157367 -0.060110435 0.08156614 0.16314438 0.004427475
0.057462145 0.027697956 -0.12252788 0.105009146 0.12939687 -0.10708753 0.0120514175 0.13045584
-0.038579628 0.076444715 0.12207159 0.026998738 0.043333873 0.045957547 0.16095667 0.14378703
0.058866426 0.21017812 0.115248084 -0.09997292 0.07328182 0.10089559 0.08628764 0.17406024
0.027619213 0.012382914 0.1865621 0.07970276 0.060011756 -0.038442012 0.0918105 0.12648146
0.17187072 0.010137184 0.14646128 0.06428047 0.049512513 -0.082121536 -0.030435719 0.05076878
-0.031170277 -0.097187854 0.08017255 0.02236187 -0.0016651684 0.057708256 0.19125251 0.07494286
0.05514123 0.14696842 0.12771998 0.15201344 0.030167634 0.11059813 0.075939104 0.121013254
-0.033586856 0.025894577 -0.011231615 -0.053371035 0.04044931 0.06695756 0.17932285 0.107344605

stock_specific_layers.AVAV.3.bias f4 [32]
00000000: 58fa 6d3d 35de 0cbe 2db7 233e 93da af3c
00000010: 5d0d 76bd c8ca 8c3c 5e85 11be 6050 bc3c
00000020: b69f 253e 7274 c13d eee4 783c 00a3 a23d
00000030: 3c3d c5bd 5b26 9ebd 9c4e eebc 45c8 d6bd
00000040: 0ef0 02be 7660 933d 5427 e1bd 662d 19bd
00000050: 9343 f63d bca1 bdbd e948 65bd cf8a 0c3e
00000060: a69f 413c bf7d 58bd 2893 513d e071 e8bd
00000070: b427 dcbd 3cad 353b b1c3 86bd e47d 83bd
0.058100075 -0.1375664 0.15987845 0.021466529 -0.060071338 0.017186537 -0.14211032 0.022987545
0.16174206 0.09446038 0.0151913 0.07941246 -0.0963082 -0.077221595 -0.029090218 -0.10487417
-0.12786886 0.07196133 -0.10993829 -0.03739681 0.120246075 -0.09259364 -0.055977736 0.13724826
0.011817848 -0.052854296 0.05116573 -0.11349845 -0.1074976 0.0027721664 -0.06580294 -0.06420496

stock_specific_layers.AVAV.6.weight f4 [2, 32]
00000000: dea8 5dbd 384a e43c 66bc 1ebd 60c1 9fba
00000010: a747 17be 64a1 fabd 600a 913d 915d db3d
00000020: 4db2 c63d abe9 46bc 6524 91bd 3b86 e03d
00000030: 1a59 8f3d 9c20 19bb b723 81bd a6f1 1abe
00000040: f91f 80bd e6fe f3bb 3c68 d83d 06eb c93d
00000050: 9c59 a93d e8c8 093e 73db 403d 621a 5f3c
00000060: 4d1d f1bd 551e 18be 77a4 043e 06e4 aa3d
00000070: d7ad 0bbc 174f 27bd 5dbc e0bd 6456 c3bc
00000080: b15c a73d f63f 383d 9fae f8bd 7a97 6ebe
00000090: 3775 8ebd 5568 e93d 377b 403c dba7 6c3d
000000a0: 0b34 7cbe 7347 83be 22da 99bc 183f 313d
000000b0: a6ff c83c 61ac c43d 46be 663d 96dd 77ba
000000c0: e0c6 463d 3c21 5bbe d445 ccbd 6d4c 9b3d
000000d0: ab59 08be 1a6f a63d ab47 60be 4ac5 ddbd
000000e0: ad27 e93c d283 f53d 3719 35bd fccc a13c
000000f0: 8469 0c3d 6387 55be 0cd3 e0bd 0f84 943d
-0.054116122 0.027867422 -0.03875389 -0.0012188368 -0.14773427 -0.12237814 0.07082057 0.10711206
0.09701977 -0.012140672 -0.0708702 0.109631024 0.06999417 -0.0023365384 -0.0630564 -0.15131244
-0.06256098 -0.0074461577 0.10566756 0.0985928 0.08269045 0.13455546 0.047084283 0.01361713
-0.11773167 -0.14855321 0.12953363 0.08344273 -0.008525333 -0.04084691 -0.109734274 -0.023844905
0.08171976 0.044982873 -0.12142681 -0.23299971 -0.06955951 0.11396853 0.011748127 0.057777267
-0.24629228 -0.2564045 -0.018780772 0.04327306 0.024535965 0.09603191 0.056333803 -0.0009455321
0.048529506 -0.21399397 -0.09974256 0.075829364 -0.13315456 0.0812666 -0.21902339 -0.108286455
0.028461302 0.11988033 -0.0442135 0.019751064 0.034280315 -0.20852427 -0.10977754 0.07251751

stock_specific_layers.AVAV.6.bias f4 [2]
00000000: 2bb9 cebc 9ffc ba3c
-0.02523478 0.022825537

default_layers.0.weight f4 [64, 32]
00000000: 2530 0f3e 8165 0dbc 344a 74bc c4e1 35bd
00000010: 17b7 0bbe c65c c23d 5980 2bbe 3d12 2c3e
00000020: 2ccb 7a3c 57c8 293e bf86 d33d 42ae 13be
00000030: 5e3c 70bd 4a18 cb3d 8e2b 013e 7e2b 77bd
00000040: df65 e93d 10da 0b3e b0da 1c3e 7356 00be
00000050: 5cd3 023d 21ec 1d3e de85 1f3e b48a 703d
00000060: dbb9 463b 4f7d 79bd 7402 7c3d db4a a43d
00000070: b712 0b3e 1122 1ebe 285d 4fbc 868b e5bd
00000080: 907b babc ba3f 103e 8625 80bd e30f 1bbe
00000090: a6ec 0abe be55 6fbd fb8f 253c ea99 443d
000000a0: 5254 02be 0268 e43d 7b5b 17be 9614 b2ba
000000b0: e292 c5bd 00ef 353b 4a79 96bd a798 5e3d
000000c0: eb2b e13d d3d3 13be 2f0e 1cbd ebb2 853d
000000d0: 4dd2 b0bd ad81 adbd c67e 1b3e 2f26 003e
000000e0: ff44 443d f72d 34bd ed14 87bd 05a2 a33d
000000f0: f8a9 b1bd c444 5f3d f0ba 3e3d 4331 1b3e
00000100: bf08 96bd 04b6 2ebe 54d2 2ebe 0ace 0a3d
00000110: 9097 b1bc 60c3 d63d 47ce 5639 2fde 893d
00000120: d979 863d a66c 073c 7de0 9dbd ad6f e4bc
00000130: 415a 2bbc 683a 733a 88fe 28be 73a4 5a3c
00000140: 535f 873d 1c58 dbbd b727 923d 1822 c4bd
00000150: f5af 1d3e 34af e43d a2e9 f23d c199 e9bd
00000160: f6d2 8dbd efa9 2a3e 29f9 8e3d 2b88 1fbd
00000170: 5f9d b6bd 4ae5 dbbd 50e4 45bd dc6c c03c
00000180: 37e2 1abc c96c b9bc 54d4 4f3d 3851 7ebd
00000190: 3cd2 e5bd 93d2 8dbb e495 d3bd 9b8e 2dbe
000001a0: 6d45 153e e808 8fbd 12af 963d 1ae4 c1bd
000001b0: 5784 11be a0d4 05be 29fa 243d 6aee 203e
000001c0: 6f6f 70bc 58cc 0c3e 4b74 753d d32c 3bbc
000001d0: 707b 173d 3279 0cbd 5861 16bd 9c7d 0d3e
000001e0: 15e9 e9bd 8015 f83a 8a3c d4bd 9cd0 1a3e
000001f0: c58f 2abe dfd3 1d3e 5af2 653d c7c6 0a3e
00000200: 37b2 febd bc19 2a3d 7862 c53d 047c 0e3e
00000210: 05c7 433d 2a56 12bb 6187 80bd 2e75 c23d
00000220: c8f5 3abd 81a2 283d 3bf4 3bbc 96a2 0fbe
00000230: b2a1 213e dbbf 2ebe d777 c0bd aa90 103d
00000240: f391 293d 0801 1fbe ddbc 70bd e122 093d
00000250: 96c0 1ebd 13a4 c9bd da3e 073e 158f eb3d
00000260: 402a 23be 267d 2b3e 88af bfbc 8fe7 043e
00000270: a0ac c53b 0651 06be 88be a4bd 2392 6a3d
00000280: f1c3 f1bd 0834 0a3e b0db 57bb 7d33 c53c
00000290: efe1 503d 25ec 17be c0f4 6bbd c6ac 11be
000002a0: fec0 163e c400 19bb 3877 26be b495 01be
000002b0: 06cd 173e b2b4 e6bd 1837 163e b24d f63d
000002c0: e92d 2e3e 6a73 13bd 6109 2bbd 8189 603c
000002d0: a3ea 98bd 6cef 5f3d 99fc 94bd c36c 353d
000002e0: a42e 2f3e 017b 0f3e 0100 efbc 4fe3 90bd
000002f0: bbd1 f73d 2ca2 acba 99df af3d bf54 c9bc
00000300: 7ab3 41bd 99a7 2f3e 9d18 173e 37bf 8dbc
00000310: 136c 1c3c 6467 323e 5f7e 57bd 99ac 46bd
00000320: c8c3 03be 5405 3dbd 6a2f 713c 93fd a23d
00000330: 0b8c a83d f37c 693d 1a98 0e3d 3b4f b53d
00000340: 5692 f03d dd81 10be d3b7 1ebe 019c 0cbe
00000350: f4b7 25bd 9add 003d f2f1 843d 6d01 f8bd
00000360: db42 aabd f087 25bd 5ed0 953d a084 07bd
00000370: d7c1 063d 48dd 63bd 13ff 2fbb 6ecf a13d
00000380: 18aa 003b d99c febd edfd d13d 47d4 bbbc
00000390: 988f abbd 132e 0ebe 1742 1c3c fa04 2e3e
000003a0: 9fdd 03be b9e6 243e b6c8 013e 9d1a eabd
000003b0: 066e 783d f80d 1abe 0af2 7fbd 04b9 a7bd
000003c0: 9994 32bd 4d6b 4fbc eeb5 c73d 9c5c f23d
000003d0: 1e97 36bd d821 e93c cecc c8bc e037 953d
000003e0: e347 12bd f9ce f63d 7165 123e a203 c2bd
000003f0: 41e4 003c 02da 053e ce4a b8bd bc50 00bd
0.1398321 -0.008630157 -0.0149102695 -0.04440476 -0.13644062 0.094903514 -0.1674818 0.16803832
0.015307229 0.1658033 0.10328435 -0.14421943 -0.05865132 0.09916742 0.12614271 -0.06034421
0.113963835 0.13657403 0.15317798 -0.12532978 0.03193985 0.15422107 0.1557841 0.058726028
0.003032318 -0.06091052 0.061525777 0.0802209 0.13581358 -0.15442683 -0.0126564875 -0.112082526
-0.022763997 0.1408681 -0.06257157 -0.15142779 -0.13566837 -0.05843138 0.010105128 0.047998346
-0.12727478 0.111526504 -0.14780991 -0.0013586457 -0.09647156 0.0027760863 -0.07347353 0.0543448
0.10994705 -0.14436273 -0.038099464 0.065282665 -0.08633862 -0.08471999 0.15185079 0.12514566
0.047917362 -0.043989148 -0.06595788 0.07989887 -0.08674997 0.05450894 0.046564996 0.1515551
-0.07325887 -0.17061621 -0.17072421 0.0338879 -0.021678716 0.104864836 0.00020485475 0.06731831
0.06566209 0.00826565 -0.07708833 -0.027885282 -0.01045853 0.00092784176 -0.16503346 0.013344872
0.066099785 -0.10710165 0.07136481 -0.09576815 0.15399154 0.1116623 0.11860968 -0.11406279
-0.06925003 0.16666387 0.06981117 -0.03894822 -0.08916735 -0.10737093 -0.04831344 0.023489408
-0.009453348 -0.02263488 0.0507396 -0.062089175 -0.1122174 -0.004328081 -0.10331324 -0.16948931
0.14577265 -0.069841206 0.07357611 -0.09467335 -0.1421064 -0.13069391 0.040277634 0.15715948
-0.014675005 0.13749826 0.05992536 -0.011424261 0.036982954 -0.03429527 -0.036713928 0.13817447
-0.1142141 0.0018927306 -0.103631094 0.1511864 -0.16656406 0.15412854 0.056139328 0.1355239
-0.124363355 0.04152845 0.09637922 0.13914496 0.04779722 -0.002232919 -0.062758215 0.094950065
-0.04564455 0.0411706 -0.011471803 -0.14026865 0.15784338 -0.17065375 -0.09397858 0.035294212
0.041398954 -0.15527737 -0.058773864 0.03348053 -0.038757883 -0.09845748 0.1320757 0.115019
-0.15934086 0.16746959 -0.02339913 0.12978958 0.0060325414 -0.13116845 -0.080441535 0.057268273
-0.11804951 0.13496411 -0.003293734 0.024072403 0.050996717 -0.14836176 -0.05760646 -0.14226064
0.14722058 -0.0023346404 -0.16256416 -0.12654763 0.14824304 -0.11264934 0.14669454 0.12026538
0.17009701 -0.03599874 -0.04175699 0.0137046585 -0.074666284 0.05467169 -0.07274742 0.044293176
0.17107636 0.14011766 -0.029174807 -0.07074606 0.1210055 -0.001317089 0.0858757 -0.024576543
-0.047290303 0.17153777 0.14755483 -0.017303092 0.009547251 0.17422253 -0.05261075 -0.048504446
-0.12867653 -0.04614766 0.014720777 0.07958522 0.08229836 0.057003926 0.034813024 0.08853003
0.11746661 -0.14112039 -0.15499811 -0.13731386 -0.040458634 0.031461336 0.0649146 -0.12109647
-0.08313533 -0.040412843 0.073151335 -0.033085465 0.032899704 -0.055630952 -0.0026854917 0.07900892
0.0019632634 -0.1243226 0.102535106 -0.02292837 -0.08376998 -0.13884763 0.009537241 0.16994086
-0.1287751 0.16103639 0.12674221 -0.11430857 0.0606518 -0.15044391 -0.062486686 -0.08189586
-0.043598745 -0.01265986 0.09751497 0.1183407 -0.04457771 0.02845852 -0.024511721 0.07286048
-0.035713088 0.12051196 0.1429651 -0.09473349 0.00786692 0.13071445 -0.08998643 -0.031326994

default_layers.0.bias f4 [64]
00000000: 7881 f83d 1f3a cbbd a6b8 45bc e221 123e
00000010: 1e81 73bd f1e4 0e3e 3cbb 0a3d bed2 d43d
00000020: 9411 503d 4b5e f7bd b397 093e dae1 0a3e
00000030: b7d4 813d aa45 c5bd 7da4 85bd 8a6d c13d
00000040: a94e 9dbc e17b b0bb 934f d4bd 0488 a73c
00000050: b053 38bd 94df 31bd b870 febd e1dd c13b
00000060: 62d1 3bbd c11a 29bc 8bcd 813d 6f05 ea3d
00000070: d426 fa3d ca53 fbbd 23bb 9cbc 2fee f0bc
00000080: 2b4e a63d 2835 e9bd 31e7 f63d 72ad 943d
00000090: af8d 83bc d4a3 f8bd 2363 55bd 9b02 0bbe
000000a0: 6a8d febc 1962 133e 451b e3bd 0d0c c4bd
000000b0: 977e 533d e812 3b3d 4c15 713d fe81 3a3d
000000c0: cee5 8cbd d933 263e 16d0 573d e065 6a3c
000000d0: d7b6 403c a3ca 513d b17c c6b9 788f 9b3d
000000e0: e40e 2bbe 4667 99bd 8ef9 e9bc e8c4 ddbd
000000f0: 3235 e6bd f3aa debd 9edc 1d3e 9fdb 33be
0.12134069 -0.09923195 -0.012067949 0.14270738 -0.059449308 0.13954522 0.033869967 0.103917584
0.050798014 -0.12078532 0.13436775 0.13562718 0.063394 -0.09632428 -0.06525514 0.09444721
-0.019202547 -0.0053858613 -0.1036674 0.0204506 -0.045001686 -0.04342611 -0.12423843 0.0059163426
-0.04585398 -0.01032132 0.06338032 0.114268176 0.12214437 -0.12271841 -0.019132202 -0.02941045
0.08120378 -0.11387092 0.12055815 0.072596446 -0.016058771 -0.12140623 -0.052096497 -0.13575213
-0.03107329 0.1439289 -0.110891856 -0.09572611 0.051634397 0.045672327 0.0588582 0.045534126
-0.06879769 0.16230716 0.05268868 0.014306515 0.011762342 0.05121864 -0.00037858405 0.07595724
-0.16704899 -0.07490401 -0.02856138 -0.108285725 -0.11240615 -0.1087245 0.1541619 -0.17564248

default_layers.3.weight f4 [32, 64]
00000000: 9850 83bc 14de 963d 582a 32bd c68c 863d
00000010: a21d c13d 3233 813d 5232 a03d 1cef 63bd
00000020: 40ba bf3d acfd ca3d 4c6d 72bd f8a1 ac3c
00000030: e0eb e9bc 20ac cdbb d4a3 e13d 806a b63c
00000040: 5a3b ad3d 6436 a7bd 54f5 fbbd aadb e7bd
00000050: 0cd7 cebd 08ff 3abd e20f f13d 7220 f73d
00000060: c2e6 d53d d014 a53d d876 cb3d aa7e cc3d
00000070: 9e0c e6bd 20a1 4bbd 802e 87bc d051 83bd
00000080: 002a 2b3d a6bd 943d 706a f73c 1823 69bd
00000090: a044 26bd e039 94bb a0bc 94bb b883 02bd
000000a0: 00d5 2dbd 808d 403c 96c8 a9bd 7290 b6bd
000000b0: 60b1 27bd 2419 fcbd 942a c4bd 561d a43d
000000c0: 58ae 07bd 4cdf 58bd cca6 5f3d 786c 8f3c
000000d0: 0800 f8bc b8f5 f63c 0e5f f73d d42e 44bd
000000e0: 74fc 71bd dc85 afbd f6ff 8d3d a844 953d
000000f0: 0080 b8bd f0c9 0ebd 00c6 fe3c 4c78 4a3d
00000100: d497 3d3d 80e9 09bb 205e c83d 0043 efbb
00000110: 44cc 29bd a4fb e63d 1e6f c03d da1a a4bd
00000120: 74fb 633d 5822 163d ac3e 5e3d d0a5 e6bc
00000130: ac72 6a3d 0e59 a33d 104b 3abc a650 ad3d
00000140: d432 493d 24c4 d0bd 8ee6 c5bd 7035 5abd
00000150: 3091 efbd 348f f4bd a667 92bd caf9 c1bd
00000160: d808 a9bd 60f3 cdbc 60e5 e03b f86b 7dbd
00000170: f604 c2bd 004f 5ebd 183b a83d aaad bfbd
00000180: c8f8 833c 3c96 ca3d a254 c9bd 683d 553d
00000190: 60c9 b43c c431 ccbd 7030 e83c a4ea 2c3d
000001a0: 262d 9c3d e664 dc3d 7a3a cabd 96a0 aa3d
000001b0: 36ac 883d 2693 b4bd bce1 44bd 801d 2c3c
000001c0: 4c28 c4bd 764f f4bd 5a65 d6bd c050 0c3c
000001d0: e818 423d 92ea d73d 1045 973c b49f b4bd
000001e0: 1032 64bc 9ec1 f63d 04f4 e43d 9aab 95bd
000001f0: 5085 473d 7424 503d 6a08 f83d 08b5 aabd
00000200: 8081 4abb 5ecf e4bd a615 c23d f801 adbd
00000210: 34a3 d4bd b020 a0bc 6cca a73d 0cba b3bd
00000220: 40f3 6dbd 7e7b a03d b4b9 30bd 9054 42bc
00000230: 40ac a9bb 60cd 283c 50f4 6ebd 3c9d ce3d
00000240: d2ee d8bd 7494 343d bc74 e9bd d27a aa3d
00000250: e080 483d ea40 f1bd c089 4d3b 74a6 8d3d
00000260: 107d 59bc 94d8 00bd dc29 dbbd 1080 d93c
00000270: 5e2e f0bd 604d 97bd 30f7 653c 78c7 ccbc
00000280: a85c 943c 9830 c6bd 72d8 e7bd 40a5 9d3c
00000290: c085 dc3b 689c 923c d049 22bd 1219 a63d
000002a0: a26e 9ebd b008 453c 9c44 83bd 10f0 6b3d
000002b0: a03c bc3d b037 db3c 6eba f13d e0bc c1bd
000002c0: 5c6e b43d 1038 c03d 582f 903d 08d2 febc
000002d0: e8ad cd3c 34a1 80bd 6e18 963d 7c61 393d
000002e0: 3806 3a3d 3064 333c 10f5 33bc f8dc 0f3d
000002f0: ac60 983d 6882 bb3d 1c87 26bd 20ab 16bc
00000300: 000e f739 70a2 b53d 00e0 78bb 6e51 e4bd
00000310: 1421 7dbd f8fd d0bd 4ef7 e2bd 1840 fc3d
00000320: 1adf b83d 5649 df3d 788f b83d de61 ebbd
00000330: b010 d0bd 687c 6f3d d8a7 99bc 6089 ca3c
00000340: f4ee 7e3d d085 60bc 525e 96bd 94e4 743d
00000350: 406a b1bb b0ef 3a3c b00a bbbd d09d 5cbd
00000360: 8837 e8bd fc9e dbbd 7cef e4bd 5651 e5bd
00000370: 40b3 e9bb 08de 103d 9ac9 f23d f093 303c
00000380: ceb7 88bd 0008 8e3b b6f6 823d 6062 873b
00000390: f26d d1bd 7c30 3c3d fc9a f83d 0089 823a
000003a0: a6f7 913d 8c06 5f3d 3696 dbbd c429 0c3d
000003b0: 98e2 d3bd 007a be3b 6c33 e5bd 5e9d c33d
000003c0: c8e2 e93c 4421 e53d 425f ea3d e2e3 97bd
000003d0: c4ff 1f3d 90f3 35bd 72d8 e73d 1c63 393d
000003e0: 8021 11bc f0c3 b5bc 3067 c93d 58a4 31bd
000003f0: 704c d83d 40e6 043c 50a9 703d c84b a1bd
-0.016029641 0.07366577 -0.043497413 0.06569819 0.0942948 0.06308593 0.07822098 -0.055647954
0.09361696 0.09911665 -0.059186265 0.021073326 -0.028554857 -0.0062766224 0.11017576 0.02226758
0.08458586 -0.08164671 -0.12302652 -0.113211945 -0.10099611 -0.045653373 0.117706075 0.12066735
0.10444404 0.0806061 0.09934777 0.09985097 -0.11232875 -0.049714208 -0.016501665 -0.06412089
0.0417881 0.07262735 0.03020212 -0.056918234 -0.04059279 -0.004523501 -0.0045390874 -0.031863898
-0.04243946 0.011752486 -0.08290212 -0.089142695 -0.040940642 -0.12309483 -0.09578434 0.08013408
-0.03312525 -0.052947327 0.05460243 0.017507777 -0.030273452 0.030146465 0.12078677 -0.04789622
-0.05907865 -0.085704535 0.06933586 0.07288486 -0.09008789 -0.03486055 0.031100273 0.04943113
0.046287373 -0.0021043718 0.09783578 -0.007301688 -0.04145457 0.112784654 0.09396194 -0.08012934
0.055659726 0.036653847 0.054258987 -0.028155237 0.057238266 0.0797597 -0.011370435 0.08462648
0.04912074 -0.10193661 -0.096631154 -0.05327362 -0.11697614 -0.11941376 -0.071486756 -0.094714716
-0.0825364 -0.025140464 0.006863281 -0.061870545 -0.094736025 -0.05427456 0.08214396 -0.09359296
0.01610984 0.09891936 -0.098305956 0.052060515 0.02206868 -0.099704295 0.02834341 0.04221596
0.07625799 0.10761432 -0.09874435 0.083314106 0.06673472 -0.08817129 -0.04806684 0.01050508
-0.095779985 -0.119292185 -0.1046855 0.008564174 0.047387034 0.105427876 0.018465549 -0.088195235
-0.013927951 0.12048648 0.11179355 -0.07308121 0.04871112 0.050816014 0.1211098 -0.0833531
-0.0030899942 -0.11172365 0.09476785 -0.08447641 -0.10382691 -0.019546837 0.08192906 -0.0877572
-0.05809331 0.07836054 -0.04314585 -0.011860982 -0.0051780045 0.0103028715 -0.058338463 0.10088584
-0.10592426 0.04408689 -0.113992184 0.08324207 0.04895103 -0.117799595 0.0031362623 0.06916514
-0.013274446 -0.031456545 -0.107013434 0.026550323 -0.11727594 -0.07387805 0.014035985 -0.024997458
0.018110588 -0.09677237 -0.113205805 0.019243836 0.0067298114 0.017896846 -0.039621174 0.081102505
-0.07735945 0.012025997 -0.064095706 0.05760199 0.09191251 0.026759952 0.11803137 -0.09459853
0.08810112 0.09385693 0.0704028 -0.03110601 0.025107339 -0.06280747 0.07328878 0.045258984
0.045416087 0.0109491795 -0.01098372 0.03512284 0.07440314 0.091557324 -0.040656194 -0.009196073
0.00047121942 0.08868873 -0.0037975311 -0.11148344 -0.061799124 -0.10204691 -0.11082326 0.123169124
0.09026928 0.109026596 0.090117395 -0.11493276 -0.10159433 0.058468252 -0.018756792 0.024723709
0.062239602 -0.013703778 -0.07342209 0.0597883 -0.0054142773 0.011409685 -0.09132898 -0.05386144
-0.11338717 -0.10723683 -0.111784905 -0.11197154 -0.007131964 0.035367996 0.11854859 0.010777459
-0.06675683 0.00433445 0.063947126 0.0041316003 -0.102260485 0.045944676 0.12138936 0.0009959042
0.07127313 0.054449603 -0.1072201 0.03421952 -0.10345954 0.0058128834 -0.111914486 0.095515
0.02855052 0.111879855 0.1144395 -0.07416512 0.039062276 -0.044421732 0.113205805 0.045260534
-0.008858085 -0.022188157 0.098341346 -0.04336962 0.10561454 0.0081115365 0.05875522 -0.07875782

default_layers.3.bias f4 [32]
00000000: 207c c43d 8a78 b4bd 4a5e bbbd 08c2 14bd
00000010: 68df 863c 50f6 0e3c 8c70 2fbd 0455 30bd
00000020: d6ee 833d 68c8 7d3d eeca b5bd 78e6 fdbc
00000030: 56a1 a63d b213 f93d c619 e4bd 7075 96bc
00000040: 04a6 67bd 385f c03d 0a62 d73d e8f7 033d
00000050: 6270 eb3d 6429 11bd 2007 e53d 7a6a d8bd
00000060: 1ab0 e0bd c02e 29bb 020e a83d b037 b0bd
00000070: e47f 73bd 48b9 afbc 6c46 4c3d 90d2 88bc
0.095939875 -0.088120535 -0.091488436 -0.036317855 0.01646395 0.008725718 -0.042831942 -0.043049827
0.06442039 0.0619587 -0.088765964 -0.030993685 0.08136241 0.1216196 -0.111377284 -0.018366545
-0.05655481 0.093931615 0.10516746 0.032218844 0.11496045 -0.035439864 0.111829996 -0.10567184
-0.10971089 -0.0025815219 0.08205797 -0.086043715 -0.059448138 -0.021450654 0.049871847 -0.016701967

default_layers.6.weight f4 [2, 32]
00000000: 2dfb 2fbe efa3 fdbc b9c6 093e 14b6 fb3d
00000010: 0a7b 2bbe 826d 14bd cd73 143e dc73 2c3d
00000020: cb7c 103e 0ebd 0c3d 20ac a2bd 1969 1fbe
00000030: 5f79 803d 15dc 113e 4a0e 7ebd 699e 2abe
00000040: 7803 253e 5068 d43d cc53 1abe 0291 0fbe
00000050: d0a6 f43d 7fb9 933d f3cd 6bbd 0610 f83b
00000060: e7f7 cd3d f78a 18be 43aa 34be 6acc 1dbd
00000070: 7155 823d 1184 193e 729d 013e 988c 913c
00000080: d76a b7bd 348d 453d 833a f2bd 6e4d a43d
00000090: 196a 07be 972e 33bd 1473 af3d 687f 293e
000000a0: e703 84bc 8f9e 8f3d 05a2 9bbc a593 f1bd
000000b0: 97e7 f23c c794 d53d 3f6c 2ebe 9ea9 1f3e
000000c0: 5253 013e 3b1e d43d 898a 093e b7c4 cbbd
000000d0: 4188 32be e147 beba c92b e13d bf82 683d
000000e0: 1f5b 1cbe 9e13 29bd d751 2d3e 695d bc3d
000000f0: 9ad8 963c 23b9 a3bd 27c1 56bd 1635 be3d
-0.1718566 -0.030961959 0.13454713 0.12290588 -0.16746154 -0.036237247 0.144973 0.04210268
0.14110105 0.034359984 -0.079429865 -0.15567435 0.0627315 0.14244111 -0.062025346 -0.16661991
0.16114604 0.103714585 -0.15071028 -0.1402016 0.119458795 0.07213115 -0.057569455 0.0075702695
0.10057049 -0.14896761 -0.17643075 -0.038525023 0.06363953 0.14991786 0.12657717 0.017767236
-0.08955925 0.048230365 -0.118275665 0.08022581 -0.13224067 -0.043745603 0.08566871 0.16552508
-0.016115142 0.070126645 -0.018998155 -0.11795739 0.029651446 0.10428768 -0.1703348 0.15592048
0.1262944 0.103573285 0.13431753 -0.0994963 -0.17434789 -0.0014517271 0.109946795 0.056765314
-0.15269135 -0.041278474 0.1692575 0.09197504 0.01841383 -0.079942964 -0.0524303 0.09287469

default_layers.6.bias f4 [2]
00000000: cd2b f5bd b463 163e
-0.11971245 0.14686471
