lightning_logs/version_10/checkpoints/epoch=49-step=400.ckpt (torch, 47499 bytes, 18 tensors)

network.0.weight f4 [64, 15]
00000000: 263a 96bd a0ea 32bd add6 5c3e 710d 4abd
00000010: 24f6 5138 35f2 223d bc9e 5dbd 6b4d 1c3e
00000020: ca11 153d 04d1 f8bc 6efe 57be 0582 03be
00000030: 9ad3 763e d717 48be fb0b cd3d 75cb e7bd
00000040: 3845 16be 4efd 403e 80fc 4dbe 219e 89bd
00000050: 2f6c f4bd 60dc 203d a69e d7bc 7cec 46be
00000060: b34a 31be 84c8 493e ca01 4a3e be46 093e
00000070: a609 0d3d 21fc 163d 5c5f 183e 479c a0bc
00000080: 7c45 423d f152 1e3d 4762 9f3b 291a 50be
00000090: f50f 083e 6e36 cdbc 13bd a4be 7080 5cbd
000000a0: 13e0 a7be 1823 d1bd ab54 303e 4153 06be
000000b0: 565d d8bd 9bf4 51bd d86b abbc c2e2 8d3e
000000c0: 3840 adbd c3c2 90be ff5a 9abb 562a 643d
000000d0: cebc c9bd 6b2f 3fbe f1fc f03e 0e9f e93d
000000e0: 8cef afbe 7ab7 e9bd a3e0 ebbc 2be0 ddbd
000000f0: faf9 a8bc c1d1 713d 89f2 293e 247b 8c3e
00000100: 2d85 063d 8b7a 17be ddf7 97be 44e5 2a3b
00000110: 9c7b 453e f685 96be fd54 5d3e e910 643c
00000120: c1e7 083d ebdd 7fbe 68c4 61bd 3c7d b13d
00000130: 2eab 31be 4d34 c13d 912b 11be 7762 f6bd
00000140: 8c7a 23be 91f9 5cbe 559d f3bd 5e7c 87be
00000150: 37a5 c43e 6b65 ee3d 3efd 97be 071d 793e
00000160: 4610 6bbe 38ab 3ebe d8fa 733e 0973 d53d
00000170: 19d1 1f3e 6a19 ae3e 20ba 0f3d a14d 0abe
00000180: b125 5ebe d677 a2be 1bdb 84be 8b4e 6fbe
00000190: 3386 babe c05d 3cbe 522b 463e 09a8 eabe
000001a0: 5fca c8be 637c 0abe 4e88 14be 8147 56be
000001b0: c994 9dbc d5ae 21be 8478 b6bd e010 aa3d
000001c0: 9900 623d 57ff e1bd dc2e af3d b1e9 0cbd
000001d0: 13eb cd3d 6e21 2f3d 4e78 11be 45b1 05be
000001e0: f878 5c3d e646 bebd 13c6 09bd 8746 9e3d
000001f0: d14e 98be b154 803e c38e 8cbd 1bdb 63be
00000200: d388 3cbd c3dd 2e3e 51c1 863d aef2 f33d
00000210: a8f8 5abe 3c02 233e 2bd0 e3bd aa03 5cbe
00000220: b240 9fbb 986e e0bd 9b5f 623e 7353 6abe
00000230: c8fc 56be fb48 a9bd ccf5 583e 2310 3dbe
00000240: 3ca5 443d 26e8 b33d 92b7 35be a945 cbbd
00000250: 9c7a 5e3e 5f81 55be d171 44be 3186 20be
00000260: 7af6 2abd fe24 5a3e 2bb2 b93d 0f18 653e
00000270: f732 973d 7984 4cbe ef5f aabd a0b8 c03e
00000280: 256a 12bd 370e 673e 4ad5 103e d0a5 0cbd
00000290: 6cdf 4abe 12ab 4bbe 596f 173e 93a4 afbd
000002a0: 43e9 88bd 0825 c5bd c9d4 f0bd dfa0 3b3e
000002b0: 4560 3f3e d676 753e 0705 14bd 92d4 edbd
000002c0: 3827 4e3e a80d d1bd 99b1 55be 726a f73d
000002d0: 586c d4bd 9c19 523d 9df7 19be 3cab 733e
000002e0: e388 08be 6f7d 343e 2aea 343e a1e9 bfbd
000002f0: fd88 52bd 579c e13e e053 ccbd da44 eb3d
00000300: 1ea0 4c3e d146 3e3e 8866 87bd a52a 0dbe
00000310: 27f1 61bd 8803 2abd 9621 103e 18ba 0e3e
00000320: 8a56 ba3c db1e 553e 59e8 213c acdb d1bd
00000330: 2fa4 fc3e f999 493e b2e5 34be 50bb 753e
00000340: b30d 2fbe 25ed 40be 98cd 4fbe 04bb 99bc
00000350: 4f1d 9bbe faf1 5fbe 1960 a2bd 454c a23c
00000360: e865 553d 63fd 7fbd d6ae 42bd e615 9bbe
00000370: 8a09 2bbe 4abc d5bc cf69 0d3e fcc6 b73d
00000380: 0724 2c3e 351d 423e b2b2 60be 4ca3 ba3d
00000390: 484b ccbc c535 c1bd efd4 cfbd 214f 053e
000003a0: 8684 d93d 4dd5 86be 064b 33be ca0b 61be
000003b0: ab5c 71be 8ffe 533e 6eb5 123e a55c ff3d
000003c0: 0ef2 64be ceed 1c3e e2d1 803e fbac edbd
000003d0: 74c1 50be e029 cf3d f29f 593e 71d3 92be
000003e0: fbca 52be a777 5abe bb6f 22be a9e1 073e
000003f0: 951f 263d 4a12 9fbe 4085 cb3d d65e b63d
-0.0733531 -0.043680787 0.21566267 -0.049329225 5.005872e-05 0.039781768 -0.05410646 0.15263908
0.036393918 -0.030373104 -0.21093151 -0.12842567 0.24104157 -0.19540344 0.10012051 -0.11318103
-0.14674842 0.18846628 -0.20115852 -0.06719614 -0.11934697 0.039272666 -0.026320767 -0.19426149
-0.17313652 0.19705397 0.19727245 0.13405892 0.03443303 0.036861543 0.14880127 -0.019605769
0.047429547 0.038653318 0.0048640105 -0.2032248 0.13287337 -0.025050368 -0.32175502 -0.053833425
-0.32788143 -0.10211772 0.17219798 -0.13117696 -0.105646774 -0.051258665 -0.020925447 0.27712065
-0.084595144 -0.2827359 -0.0047105546 0.055704437 -0.09850465 -0.18670432 0.4706798 0.114072904
-0.34362447 -0.114119485 -0.028793639 -0.10833772 -0.02062701 0.059037928 0.16596426 0.274377
0.03284185 -0.1479284 -0.29681292 0.0026076594 0.19285434 -0.2939908 0.21614452 0.013920047
0.033424143 -0.24986999 -0.05511895 0.08666465 -0.17350456 0.09433804 -0.14176776 -0.120304994
-0.15964717 -0.21579577 -0.11895243 -0.26462072 0.384073 0.11640438 -0.29685396 0.2432748
-0.22955427 -0.18620002 0.23826158 0.10422332 0.15607108 0.34003764 0.035089612 -0.13506176
-0.21694066 -0.31732053 -0.25948414 -0.23369806 -0.3643051 -0.18395138 0.19352463 -0.45831326
-0.39216897 -0.13524012 -0.14505121 -0.20925714 -0.019235985 -0.1578935 -0.08909705 0.08304
0.05517635 -0.1103503 0.085538596 -0.034402553 0.100546025 0.04275649 -0.14206049 -0.13055904
0.053826302 -0.092908666 -0.033636164 0.07728296 -0.29747632 0.25064614 -0.06863167 -0.22251551
-0.046028923 0.17076783 0.06579841 0.11911522 -0.21383917 0.15918821 -0.11123689 -0.21485773
-0.004860007 -0.10958594 0.22106783 -0.22883396 -0.20994866 -0.08265873 0.21187514 -0.18463187
0.048009142 0.08784513 -0.17745808 -0.09925396 0.2172646 -0.20850132 -0.19184043 -0.1567619
-0.041738965 0.21303174 0.09067186 0.22372459 0.07382768 -0.1997241 -0.08319079 0.37640858
-0.03574576 0.22564016 0.14143863 -0.03433782 -0.19811791 -0.19889477 0.1478857 -0.08576312
-0.06685116 -0.09626204 -0.117593355 0.18323086 0.18689068 0.23971114 -0.036137607 -0.1161281
0.20132148 -0.10207683 -0.2086853 0.1208085 -0.103722274 0.051293954 -0.15035863 0.2379579
-0.13333468 0.17625974 0.17667452 -0.09370733 -0.051400173 0.4406459 -0.099769354 0.11487742
0.19982955 0.18581702 -0.06611353 -0.13785799 -0.05516162 -0.041507274 0.14075312 0.13938177
0.022746343 0.20812552 0.009882056 -0.10246977 0.49344012 0.19687642 -0.17665747 0.23997235
-0.1709507 -0.18840463 -0.20293272 -0.018765934 -0.30295798 -0.2186965 -0.079284854 0.019811759
0.05209914 -0.062497508 -0.047530018 -0.30290145 -0.16702858 -0.02609076 0.13809894 0.089735
0.16810618 0.18956454 -0.21943167 0.09113178 -0.02493824 -0.09434084 -0.10148036 0.13018467
0.1062098 -0.2633461 -0.17509088 -0.21977153 -0.23570506 0.20702575 0.14327022 0.124688424
-0.22357962 0.1532509 0.25160128 -0.11605259 -0.20386297 0.10115409 0.2125242 -0.28676942
-0.20585243 -0.21334706 -0.15862934 0.13269676 0.040557463 -0.3106864 0.09937525 0.08904807

network.0.bias f4 [64]
00000000: 5b40 b73c 005c e8bd a6c3 843a 051b a03e
00000010: 219b c23e aa02 ad3e cfad 123e 509c ad3d
00000020: 5e96 513d 37db 903d 3446 193e 584b 973d
00000030: 39d2 133e 3897 203e b38f 433d 584b 9d3d
00000040: 4841 9c3e 9761 3b3d fcb8 9b3e cf31 c73e
00000050: f2fd a43d d91a 943d e50a 583e d273 f03d
00000060: ad3f dc3d 1ef7 563d 9a1c 083e f35e 36be
00000070: d977 b83e fe9b 603d 5d97 57bd 01e7 afbd
00000080: 155b 49be 567f b03e d2a4 06be 74fa 8bbc
00000090: 2f56 ba3a 993d 363e ac97 d03d 0281 cb3d
000000a0: 7985 ed3d 56f3 fdbd 7354 25be f6b2 32be
000000b0: 4f75 3ebe 22aa 35bd 69d9 5abd 4f9a ce3d
000000c0: 1db8 213e 05f2 ffbd 0436 9d3e c66c c43d
000000d0: 4c29 773e 0cad 81be 9c35 6cbe da91 6c3e
000000e0: f450 55bd 9c88 c1bc 657e 81bd da16 463e
000000f0: 8818 e03e b1d4 8f3e 47ed 833e 9023 64bc
0.022369554 -0.113456726 0.0010129109 0.31270614 0.3800898 0.33791095 0.14324115 0.0847708
0.051168792 0.07073062 0.14968187 0.073874176 0.14435662 0.15682685 0.047744464 0.07680386
0.30518556 0.045747366 0.3041457 0.38905188 0.08056249 0.07231683 0.21097906 0.11740841
0.10754333 0.052481763 0.1329216 -0.17809658 0.36028937 0.054836266 -0.052634586 -0.085889824
-0.19663651 0.3447215 -0.13148811 -0.017087199 0.0014216359 0.17796935 0.10185179 0.09936716
0.115977235 -0.12399928 -0.16145496 -0.1745108 -0.18599437 -0.044351704 -0.053429995 0.10088026
0.1579289 -0.124973334 0.30705273 0.095910594 0.24136847 -0.25327337 -0.23067325 0.23102513
-0.052079156 -0.02362471 -0.06322936 0.19344655 0.43768716 0.28091958 0.25766966 -0.013924494

network.3.weight f4 [32, 64]
00000000: 9ba7 b4bd 2e46 41bd e26c 193e 598e 793e
00000010: 9b05 c93d e101 183c 4082 a83c 891b 74bd
00000020: 4dd6 b93d 625c 403d b4a6 d43d a092 85bd
00000030: 89b1 483d bbf1 1e3e e4ef 48b9 1263 e23b
00000040: d4ef e33d 6d89 173d a1a0 0f3e 8756 303e
00000050: 36dc 613d 6801 b53c 0e3e 8e3d b23d 563e
00000060: 49c5 0f3e 3333 2a3d 4cc0 233e 6e94 5bbd
00000070: bbee 303e 3b1c e93d a880 d73d 58bf 343e
00000080: 7e0c 173d b973 533e cc20 00bd f6ae ce3d
00000090: 3b0a 543e 3f2a 543e 04c9 903d e76d 95bb
000000a0: cc13 2b3e 973c 79bc 1d7c 803d f197 033e
000000b0: 207c b1bd b033 c43c da8b d13d cb7d 113e
000000c0: 1dc4 8ebc 1e40 7b3e 386b 5f3d cf3a 233e
000000d0: 64d5 96bc 094e f3bd b731 60bd c6e4 5e3d
000000e0: ad99 edbc 24b0 5f3d 087c d53d 7bb3 9cbc
000000f0: 6b40 b83d 7ffa e03d 28b9 d03d 2747 253e
00000100: 514e f13d c8d6 aa3c c69b 963d bb1a 4ebd
00000110: 33f4 a2bc cedc cbbd 4f08 8e3c a6c9 943c
00000120: fe91 8abd 378e d83d f6ef 03bd e960 fabd
00000130: 615a 0cbd ed2b f83d b7d2 c0bd 8866 adbd
00000140: 0da5 c93d 8345 abbd 1d19 33bc 765c c83c
00000150: 2b5c e23d bef6 a0bd fec9 683c 2fc8 bdbc
00000160: e80d 653c b509 863d a3dc 68bd e235 ddbd
00000170: 7f8a 77bd 9ae8 56bd 7360 b53c b28d 07bd
00000180: a779 523d fc8a 02bd a120 7dbd 5f42 6cbd
00000190: 1573 833d 0136 a63d 00f2 ff3a 99b2 bbbd
000001a0: 8f7f c7bd b2b5 bebd d195 8bbd 32e9 a83c
000001b0: 4c0c 93bd f16f 2a3c 7ad7 263d 98be 80bc
000001c0: c114 8e3b 8287 2cbd 660e 9abd febc 863d
000001d0: eb32 293d daaf 73bd a3d0 32bd 7d81 203d
000001e0: 615d c03d 5e78 353d 56c4 87bd de6b d3bd
000001f0: e2ba e1bd cfce b9bd 3102 b13c 09cf 023b
00000200: 4e92 db3c bf3d d6bd 7426 733d ddd0 07bd
00000210: 1ab0 083d 2c7c 8fbd c114 72bd a6f2 f93a
00000220: fbf0 da3d 2e6a dcbd 33cc 02be 6906 c5bc
00000230: 5007 bb3d 3637 a0bd c368 ea39 3e3c 8e3d
00000240: d753 553d cec6 e3bd b9a4 e03c 7041 0fba
00000250: d1f6 a43d 2417 823d 8792 eabd 3f0b a1bd
00000260: c407 cabd fc4d ad3d f314 05bc f80c 23bb
00000270: be05 e23c a0cf cdbc e6dd 573d acb1 bfbb
00000280: 6bc1 c3bb eda7 453d f0f3 adbb ad88 73bd
00000290: fb30 d5bd a257 ad3c 8707 8d3d be64 863d
000002a0: 5244 95bd 4ea9 d8bd ce93 afbd 594b 8dbd
000002b0: 21cf 14bd 0684 933d f2df ac3d 9e2d c8bd
000002c0: 4cf2 09be 145c 8fbd c6f5 a9bd d552 e2bd
000002d0: 343f e83d de25 3e3d 7a9d 273c e8da 4dbd
000002e0: 8ba8 8dbd 50fc c3bd 494a e63c 917b f83d
000002f0: b11a b03d 83fc 893d 58e5 02be 7dd5 a0bd
00000300: 0959 fe3d cc5a 873d 7985 5c3c a931 373e
00000310: 6362 f73d f403 903d 9485 453c 301b b4bb
00000320: 8f1d cc3d 683e d93d 4d1e 2e3e d0eb 23bc
00000330: c60c f73b 6d8a 973c 2290 b6bd bc47 483d
00000340: fd2b 733e e1ba 833d b60d 733e a474 213e
00000350: 736d 803c 3e0c e1bc b03a 56bc 07c8 603d
00000360: 4ffc c23d b5a2 af3d 6c1a 473d fe4c 903d
00000370: c73f 613e 3ae4 c23d 11f9 b93c c51e 753e
00000380: f993 38bd 8df5 153e 3e0f a03d 6ed9 bebb
00000390: a38c 633d 9345 003e 47ba a6bd 6ad8 393e
000003a0: e2e9 d23d 45cc 7b3d 2d26 b4bd 1d2f 113e
000003b0: e349 913c bc04 203e eb96 9dbc c83e 7b3d
000003c0: 5fb2 073e 538a 8cbc 7fca 603d 8665 2dbc
000003d0: fa3c b73d 4e6a febc 337f 2bbe 6e2a 373d
000003e0: b797 02bc 3800 213e db89 53bb b4db 033d
000003f0: 253f 633e 3710 903e 7606 f23d 1db8 a53d
-0.08821031 -0.04718607 0.14982942 0.24370708 0.09815522 0.009277792 0.02056992 -0.059596572
0.09074078 0.046963103 0.103833586 -0.06522107 0.048997436 0.155219 -0.00019162853 0.0069087828
0.11129728 0.036996294 0.14026119 0.17220508 0.05514165 0.022095397 0.0694543 0.20921972
0.14040102 0.041552734 0.15991324 -0.05360835 0.17278568 0.11382338 0.10522586 0.17651117
0.036877148 0.20649613 -0.031281278 0.10091965 0.20707028 0.2071924 0.07069591 -0.0045602205
0.1670677 -0.0152122 0.06273673 0.1285093 -0.08666253 0.023950428 0.10231753 0.14208142
-0.017427498 0.24536178 0.05454561 0.15940402 -0.0184123 -0.118801184 -0.05473491 0.054417394
-0.029003942 0.05461134 0.10424048 -0.019128552 0.08996662 0.10985278 0.10191566 0.16140424
0.11782516 0.020854369 0.0735393 -0.05031846 -0.019891834 -0.099542245 0.017337946 0.01816256
-0.06766127 0.10574 -0.032211266 -0.122255154 -0.03426588 0.12117753 -0.09415191 -0.08466822
0.09845934 -0.08362868 -0.01093128 0.024458151 0.11052736 -0.07859562 0.014208315 -0.023166744
0.013980366 0.0654482 -0.05685104 -0.10801293 -0.060434815 -0.05246792 0.022140717 -0.033094116
0.051385548 -0.031870827 -0.061798695 -0.057680484 0.064184345 0.08115769 0.0019527078 -0.09164924
-0.09741127 -0.093119994 -0.068156846 0.020619009 -0.0718008 0.0104026655 0.04073284 -0.015715882
0.00433597 -0.042121418 -0.075222775 0.06579016 0.041308325 -0.059493877 -0.043656003 0.03918599
0.093928106 0.044304244 -0.06629245 -0.103233084 -0.11021973 -0.09072649 0.02160749 0.0019959828
0.026803162 -0.10460996 0.059362844 -0.033158172 0.03337107 -0.07006106 -0.059101824 0.0019069507
0.106904946 -0.1076244 -0.12773208 -0.024050908 0.09132254 -0.07823031 0.00044710012 0.06945084
0.05208191 -0.11121903 0.027422296 -0.0005464768 0.08054889 0.0635207 -0.11453729 -0.07863473
-0.098647624 0.0846214 -0.00812267 -0.0024879556 0.027590629 -0.025123417 0.052701853 -0.0058500376
-0.005973985 0.04825585 -0.0053086206 -0.059456516 -0.10409733 0.02115995 0.06886201 0.06562184
-0.07288422 -0.10579167 -0.085731134 -0.06899137 -0.036330346 0.07202916 0.08441152 -0.09774326
-0.13471335 -0.069999844 -0.08298831 -0.11050955 0.1134018 0.04642283 0.010230416 -0.050257593
-0.06916913 -0.09569609 0.028111594 0.121329434 0.08598841 0.06737616 -0.127828 -0.0785322
0.12419326 0.06609115 0.013459557 0.17890038 0.12079313 0.07032004 0.012055773 -0.005496405
0.09966575 0.10607606 0.17003746 -0.010004953 0.0075393645 0.018498624 -0.0891421 0.048896536
0.23747249 0.06432129 0.23735699 0.15767151 0.01567719 -0.027471658 -0.013075516 0.05487826
0.0952078 0.08575956 0.048609182 0.07045935 0.21996985 0.09516187 0.022701772 0.23937519
-0.045062993 0.14644451 0.07815407 -0.0058242595 0.055554044 0.1252654 -0.08140998 0.18148962
0.10298516 0.061474103 -0.08796344 0.14178129 0.017735427 0.15626806 -0.019237002 0.06133917
0.13251637 -0.017155802 0.054880615 -0.010583287 0.08947177 -0.03105655 -0.16747741 0.0447182
-0.007970742 0.1572274 -0.0032278213 0.032191947 0.22192056 0.2813737 0.118176386 0.080917574

network.3.bias f4 [32]
00000000: 709e 943e b447 d83d 6f06 1ebc f19b 773e
00000010: 3346 13be d2dd 9b3d c5ee b7bd 63d9 ea3d
00000020: ea29 e4bc 917d 1dbd 3335 ad3c 345a 3c3e
00000030: b420 e13c 18ff 07be 37da 433d 6d51 f43d
00000040: ee01 e73d 059c c4bd 4539 833e 39ef da3d
00000050: 2f69 2e3b fc6e 593e 7b3a 943d 775a 24bd
00000060: b0ce 1d3b 24db 8fbd d907 6bbd 651b 13be
00000070: e8cb 88bd 176d 693e de37 94bd ad0e 2cbd
0.29027128 0.10560551 -0.009645089 0.2418058 -0.14382248 0.07610668 -0.089810885 0.114672445
-0.027852017 -0.038449828 0.021143531 0.18393785 0.027481414 -0.13280904 0.047815528 0.11929593
0.11279665 -0.09600071 0.2562963 0.10690159 0.0026612987 0.21233743 0.07237717 -0.040125336
0.0024079494 -0.0702422 -0.05738053 -0.14365919 -0.06679517 0.2279552 -0.07237218 -0.042006183

network.6.weight f4 [2, 32]
00000000: 3d4b 95ba a2ea 97bd 255c b0bd bb35 29ba
00000010: 1c0a cdbd 5b25 0fba d985 c3bd f698 1dbb
00000020: 5b4c 0bbd feae 9ebd 3a7d d93d 91f5 b7b9
00000030: 3d47 ac3d 5fc6 d33d 9dc3 a63d e21f 45ba
00000040: 152e db3c da34 1c3e ca12 8bba e079 95ba
00000050: 4f10 e63d de8c 71ba 52e9 973d 9f51 46bd
00000060: 1906 1c3e a79e babd ee15 2bbd 4891 093e
00000070: e64c 0ebc 7fc1 b2ba 026e ce3c ad3c dd3d
00000080: 9914 53be 96f0 40be 7a49 7fbe 28aa 61be
00000090: 9148 823d 8a25 69be a96e 8e3d 753c 78be
000000a0: 1f8f 0e3e 087e f43c 5f54 183e d2e4 75be
000000b0: 66e3 d83d 0b19 bb3d c099 1dbd af3f 45be
000000c0: 5192 fabd b7cb 5d3c 8625 83be afe4 89be
000000d0: 5359 d6bd 4d22 6ebe 546d e23d 5f17 87be
000000e0: 211a 0b3e 283a dc3d 68d7 50bb e0f2 0d3e
000000f0: d98f db3d 1d2b 81be 4b20 313e 868e d63d
-0.0011390221 -0.074177995 -0.08611325 -0.0006454845 -0.10011694 -0.00054605835 -0.09547014 -0.002404747
-0.034008365 -0.07748221 0.10619588 -0.0003508744 0.08412025 0.10340571 0.08142779 -0.00075197045
0.026755372 0.15254536 -0.0010610458 -0.001140412 0.11233579 -0.0009214411 0.07417549 -0.048417684
0.15236701 -0.09112292 -0.04176896 0.13434327 -0.008685326 -0.0013637989 0.02519894 0.108025886
-0.20613326 -0.18841776 -0.24930373 -0.22037566 0.06361497 -0.22768226 0.069547005 -0.24241813
0.13921784 0.029845253 0.14875935 -0.2401307 0.10590248 0.09135636 -0.038476706 -0.19262575
-0.12234939 0.013537339 -0.25614566 -0.26932284 -0.10466256 -0.23255272 0.11056009 -0.26385018
0.13584186 0.1075328 -0.0031866673 0.1386218 0.10720796 -0.25228205 0.17297475 0.10476403

network.6.bias f4 [2]
00000000: bf28 743d 679c bbbe
0.05960917 -0.36642763

exp_avg f4 [64, 15]
00000000: 1d25 dcbb fbb9 dabb f837 dfbb a35c debb
00000010: 53b8 8dbb 960e ec3a 90b7 933a bf17 a639
00000020: c037 fe3a 57db 153c 836e 843a 98fa 8739
00000030: 0000 0000 bfa6 ac39 52de 9cb9 853e b2ba
00000040: 0228 b4ba b7d7 b3ba 5be1 b5ba ab9c 81ba
00000050: cbe4 11bb c14a 72bb ea6f 61bb 63f7 b9ba
00000060: 606b e5b7 0baa a4bb 5cfd b03a 0000 0000
00000070: eb68 14bb ed72 8439 6636 25ba 2a2d 9cb9
00000080: 84e3 5eba 29ba 42ba f25b 6f3c c58f ad3b
00000090: 997f 693a 6756 15ba 9c60 663b 6980 aa3b
000000a0: 4151 e93a eb6b ab3a 0000 0000 7499 b13a
000000b0: cdf2 393a d071 a9bc 29ad a9bc a226 a9bc
000000c0: c23f a9bc 6f0b 23bc c910 53bb da9f 4fbb
000000d0: 81e5 cbbb ecec 3b3c 90c2 9b3b 6f56 c8ba
000000e0: 0389 f2b9 0000 0000 448c e43a 588b 83b9
000000f0: 2482 a7bb 0ee7 9dbb d909 a9bb 6d08 a3bb
00000100: 4eaf be3b d378 fbbb 0e14 b9b9 3850 303a
00000110: 9657 ac3b 9ab6 9d3b 134c 9039 6eed aabb
00000120: 0000 0000 aa6b a43a 9519 4fba 052b debb
00000130: aabc dcbb 5cc6 ddbb 0b4d ddbb ca12 98bb
00000140: 8c00 06bc e81a 81bb 80e0 5bbb 6a54 603b
00000150: 9551 5b3b 8028 89bb c14c 8ab9 0000 0000
00000160: 40f4 96ba 1405 16b9 28ad 40bb 1f3f 25bb
00000170: e713 49bb aa36 39bb a4d8 383c 65a4 6bbb
00000180: 4237 943a 6f41 e73a c31f 253b daba dc3b
00000190: aeed 943a 4cab 713a 0000 0000 f460 7a3a
000001a0: 1613 033a fb7a 303a f6a9 2f3a b0f1 323a
000001b0: 6ac7 333a 3412 9e3a 8f44 7739 8323 0e3b
000001c0: e6a7 043b ce7f 73ba 0708 37ba abdb 6fba
000001d0: b2a9 5cb9 0000 0000 e5db 8735 4063 b8b9
000001e0: c0a6 83bb 6fb8 84bb c1de 82bb 3004 84bb
000001f0: ac1f 07bb e20a 38ba 87cc f5ba 09c0 37bb
00000200: eea9 c43b b9bb 83ba be66 cfb9 c797 b2ba
00000210: 0000 0000 aa7f d03b 05a7 6a3a 9a57 35bb
00000220: 078b 35bb 5dc1 33bb 5966 34bb 44bd edba
00000230: cff1 77bb cbe5 3fb8 3781 1139 36f9 79bb
00000240: 3352 5a39 58ad cdbb a13a e0b9 0000 0000
00000250: 211a eebb 6873 e0b8 a568 f1bb 5542 f2bb
00000260: 53f4 f0bb 99c3 f2bb 1ecd cebb 3806 ebba
00000270: a7e2 40bb 8274 91bb 3d19 9f3a eaab 2f3b
00000280: e4d1 d7bb 5df4 89bb 0000 0000 9880 35b8
00000290: 3acd e4ba 475e a9ba 5fd4 a7ba 7d3c aaba
000002a0: 150e a8ba 4094 a4ba 8706 97bb 53ff 95b9
000002b0: aaed 8c3a 6508 d43a 17a1 af3a 897a fa3a
000002c0: fd70 253b 0000 0000 fe4a fe3a 48fa d23a
000002d0: 83fe 69bb 8633 6cbb 7ca0 68bb d930 6cbb
000002e0: aeb1 f7b9 792f b1ba b2c9 363b 1718 c33a
000002f0: 89f0 fb3b afd4 70bb eb9c ee3b b0b0 b3b9
00000300: 0000 0000 2eb2 463c 4422 f0ba d891 83bb
00000310: e71f 80bb 5e0a 83bb 9352 80bb 5457 e7ba
00000320: c71e b3bb a1b1 8d3a 15e9 a339 2b91 80bb
00000330: f9f2 303b e161 9abb cafa 29ba 0000 0000
00000340: 0512 31bb ac6a 03ba 7ee4 c839 c9d4 b839
00000350: 84a3 c939 9b52 c239 9840 4b3a 3db0 0d3a
00000360: 21aa 6aba 22a3 4b3a a80e ddba 9daa 333b
00000370: 91bd 5d3b 47a2 c03b 0000 0000 4dc7 123b
00000380: d5ca 473b 4870 27bc 270c 22bc b8c5 2abc
00000390: e74d 28bc f325 8d3b 3229 68bb 6318 c3ba
000003a0: 2956 f1ba ac48 ee3a 7659 4f3c 88ee 8bba
000003b0: 45f4 8ab9 0000 0000 c465 1fbb db53 a939
000003c0: 280f 0dbc 7f1d 07bc 570a 0fbc 9704 0cbc
000003d0: 2cec 973b 8406 73bb 84e8 8d3b 189d 783b
000003e0: 7623 203b ebac 0a3c 18a7 0abb 8aeb 2dbb
000003f0: 0000 0000 28ae 493a 85a1 83ba daee 8ebb
-0.0067182914 -0.0066750026 -0.006812092 -0.0067859455 -0.0043249517 0.0018009718 0.0011269916 0.0003167968
0.0019395277 0.009146533 0.0010103736 0.00025935913 0.0 0.00032930632 -0.0002992028 -0.0013598955
-0.0013744833 -0.0013720904 -0.0013876365 -0.000988861 -0.0022261615 -0.0036970826 -0.0034398981 -0.0014188107
-2.7348928e-05 -0.0050251535 0.0013503241 0.0 -0.0022645544 0.00025262628 -0.00063023565 -0.00029788289
-0.00085025304 -0.0007428253 0.014609324 0.0052966797 0.0008907258 -0.0005696774 0.0035152799 0.005203296
0.0017800705 0.0013078427 0.0 0.0013549761 0.000709337 -0.020684153 -0.020712452 -0.020648304
-0.020660285 -0.009951456 -0.003220605 -0.0031680972 -0.0062224274 0.011470061 0.0047534183 -0.0015284548
-0.0004625992 0.0 0.0017436822 -0.00025090086 -0.0051119495 -0.0048188036 -0.0051586446 -0.0049753697
0.005819238 -0.0076743155 -0.00035300892 0.0006725821 0.0052594645 0.0048130276 0.000275225 -0.005216292
0.0 0.0012544293 -0.00079002354 -0.0067800307 -0.0067363577 -0.006768031 -0.006753569 -0.0046409117
-0.008178841 -0.003939975 -0.003355056 0.0034230002 0.0033465375 -0.004185736 -0.00026378597 0.0
-0.0011516884 -0.00014307006 -0.0029400084 -0.0025214625 -0.0030682029 -0.0028261342 0.01128212 -0.003595614
0.0011307972 0.0017643402 0.0025195933 0.0067361416 0.0011362338 0.00092189456 0.0 0.00095511903
0.00050000974 0.00067321927 0.00067010464 0.00068261754 0.0006858023 0.0012059868 0.00023581296 0.0021688647
0.0020241677 -0.0009288759 -0.0006982092 -0.00091498595 -0.00021044051 0.0 1.0122282e-06 -0.00035169162
-0.004017681 -0.0040503065 -0.0039938395 -0.0040288195 -0.0020618243 -0.00070206646 -0.001875297 -0.0028038046
0.0060017025 -0.0010050453 -0.00039558666 -0.0013625555 0.0 0.006362875 0.00089512795 -0.0027670623
-0.0027701275 -0.0027428486 -0.0027526824 -0.0018138071 -0.0037833338 -4.575196e-05 0.00013876414 -0.0038142926
0.00020820722 -0.0062767677 -0.0004276829 0.0 -0.0072662984 -0.000107026484 -0.007367211 -0.0073931613
-0.0073533445 -0.007408571 -0.006311073 -0.001793093 -0.002943197 -0.0044389376 0.0012138259 0.002680535
-0.0065863 -0.0042100386 0.0 -4.3273525e-05 -0.0017456182 -0.0012921774 -0.001280438 -0.0012987998
-0.001282158 -0.0012556389 -0.0046089324 -0.00028609726 0.0010751982 0.0016176818 0.0013399449 0.0019110005
0.0025244348 0.0 0.0019401012 0.0016096318 -0.003570468 -0.0036041453 -0.0035496047 -0.0036039858
-0.00047243893 -0.0013518176 0.0027891216 0.0014884499 0.007688586 -0.0036747863 0.0072818897 -0.00034273183
0.0 0.012127442 -0.0018320759 -0.0040151887 -0.003910053 -0.0039990386 -0.0039160936 -0.0017649927
-0.0054663154 0.0010810384 0.00031263442 -0.0039235554 0.0027000292 -0.004711375 -0.0006484209 0.0
-0.0027018797 -0.0005013149 0.00038317213 0.00035253752 0.00038459536 0.0003706411 0.00077534607 0.00054049847
-0.0008951743 0.0007768144 -0.001686533 0.0027414926 0.0033834914 0.00587872 0.0 0.0022396625
0.0030485888 -0.010219641 -0.009890593 -0.010423116 -0.01027248 0.0043075024 -0.0035424945 -0.0014884587
-0.0018412519 0.0018179617 0.0126556065 -0.0010675946 -0.00026503406 0.0 -0.0024322132 0.0003229667
-0.008609571 -0.0082467785 -0.008730493 -0.008546016 0.004636308 -0.003708274 0.0043306965 0.0037935432
0.00244352 0.008464078 -0.0021156725 -0.0026538097 0.0 0.0007693493 -0.0010042643 -0.0043619694

exp_avg_sq f4 [64, 15]
00000000: d1ad 1e39 aa7e 1f39 6725 1e39 edc2 1e39
00000010: 045d 6539 e8f6 a638 7bfe f038 3e7a cb38
00000020: 22e5 0039 4922 f438 4f2c b437 57af 2439
00000030: 0000 0000 e00e 8138 4066 023b 8742 0b3a
00000040: 604d 083a 3ab6 0a3a e9c8 083a 4171 de38
00000050: d1c0 613a 94ba ba3c 9e92 e03c 0b0a fd3c
00000060: eb76 053a cc4a 1e3e 1850 0d3a 0000 0000
00000070: 84d0 033d 19e3 433a d168 fc39 d2e7 003a
00000080: 175b fb39 fde5 fe39 0854 bd3a 1e08 d338
00000090: 74c2 4837 060c 9636 9d36 9c38 98eb a439
000000a0: 9829 9737 bd32 e036 0000 0000 40a6 f036
000000b0: 4fe7 0336 27a3 f739 8d22 f939 c3fb f639
000000c0: 9841 f839 28b3 3639 c330 443a 7364 a339
000000d0: 83bd 8f39 f500 4f39 6f1a 6039 881c 9439
000000e0: 974b b036 0000 0000 1b31 7038 f970 cf35
000000f0: 0fab 8039 8445 8239 7586 8039 6932 8139
00000100: f626 083a c0d1 4539 dd62 de3a 09e2 fd3a
00000110: f873 153b fe2f 4739 089a 553c 6810 4b3a
00000120: 0000 0000 4f62 103b d199 ce38 eb24 7e38
00000130: 78c6 7f38 bc25 7c38 8a08 7e38 4f3b 0438
00000140: f8ac 1d39 a1c8 3638 3116 0f38 7362 cb37
00000150: b292 1438 da3e 0138 dd53 7135 0000 0000
00000160: 828c 8536 e295 8734 a040 9a39 885e 9c39
00000170: 5de2 9939 fc30 9a39 1019 193a 4b58 4a38
00000180: a605 bd36 9ae1 6936 08ea 5638 f1eb 5439
00000190: 8d61 4937 bb5c 8936 0000 0000 f384 9336
000001a0: 88b9 a135 de10 2f38 21c5 2f38 184b 2d38
000001b0: 0d42 2e38 6bf1 a937 0d02 e138 b307 3039
000001c0: 9ffa 1739 e385 1239 e873 1838 fcaf e53a
000001d0: 7f42 cd39 0000 0000 b41e 7e38 6bee 4438
000001e0: da6e 4638 9fcc 4438 af5c 4538 cc86 4438
000001f0: acf5 8a37 f10e c438 55b1 983a 42d4 b63a
00000200: 2bd2 cf3a 7b0c 1a38 8294 fd3b 3487 9038
00000210: 0000 0000 74a3 db3a f88e aa37 ba34 d638
00000220: 9739 d538 65f2 d438 5bbd d438 ae94 2138
00000230: f682 1b39 5747 e13a 1091 053b 6459 163b
00000240: d7c0 7b38 3552 2f3c 613c 2b38 0000 0000
00000250: bceb 173b b346 b335 1111 1139 a645 1239
00000260: 8b10 0f39 0495 1139 0ef2 dd39 c8e1 8b39
00000270: e10b 9239 4997 7c39 1e8f 5339 c948 e738
00000280: a45c 253b e409 293a 0000 0000 0ee4 3439
00000290: 6397 9b38 cf85 9537 220e 9237 7402 9437
000002a0: 5eca 9137 9f6b fc36 dfe7 7538 f936 e039
000002b0: 0567 dd39 d595 e739 9647 0f38 7864 8d3b
000002c0: 9f2f 453a 0000 0000 237c b139 e305 2d3a
000002d0: 2d1c ab38 be43 ac38 3bfe a938 6d30 ab38
000002e0: 70ac 3a38 7b61 4d39 e006 e438 d1c8 c838
000002f0: f7aa ba38 7419 6838 76b1 7b38 65db bb38
00000300: 0000 0000 2ff8 8a39 8f21 9637 fa32 2a39
00000310: 0d56 2939 373f 2839 7362 2839 c8b9 9239
00000320: d73d 053a 16de d33a 6988 b53a 058c ad3a
00000330: 90b3 6f39 fa7f a33c 7d11 873b 0000 0000
00000340: 82b3 493a 1a33 033a 8c10 4938 6cd2 4938
00000350: 2ed9 4738 8b9f 4838 4ae5 ef37 8513 fc38
00000360: 0fe6 c938 d65a b038 22fe ca38 cdfd d637
00000370: b850 e137 9d03 f438 0000 0000 3032 3139
00000380: bd64 603a 7ec6 8239 d9a4 8439 c8a2 8239
00000390: 7057 8339 9767 ae39 ca9a c538 10bb 1f39
000003a0: 6f40 0a39 f140 3239 ec78 2739 9b3b 3538
000003b0: 582a 5039 0000 0000 8b0c 0a39 b7dd 243b
000003c0: 9427 493a 7bdc 4a3a 132e 493a 2b79 493a
000003d0: b9ae 383a cdaa f639 26d4 7a3a 3fb1 563a
000003e0: b8c9 673a 942e ed39 effb 2439 7e86 b63a
000003f0: 0000 0000 fd41 0b3a 65a4 923c 0449 2239
0.00015132806 0.00015210608 0.00015081988 0.0001514067 0.00021873793 7.961487e-05 0.000114914925 9.702564e-05
0.0001229239 0.00011641213 2.1478305e-05 0.00015705578 0.0 6.15397e-05 0.0019897372 0.00053123425
0.0005199518 0.0005291436 0.0005217926 0.0001060688 0.0008611801 0.022794046 0.027413663 0.030888578
0.00050912675 0.1545822 0.0005390658 0.0 0.032181278 0.00074725 0.0004814328 0.00049173564
0.00047942318 0.0004861801 0.0014444599 0.00010062776 1.1966204e-05 4.471748e-06 7.448832e-05 0.0003145605
1.8019971e-05 6.681627e-06 0.0 7.1719114e-06 1.965516e-06 0.0004723307 0.00047518723 0.00047108353
0.00047351117 0.00017423613 0.00074840727 0.00031164623 0.00027416283 0.00019741415 0.00021372152 0.00028250017
5.2540086e-06 0.0 5.7266192e-05 1.5455581e-06 0.0002454151 0.00024847325 0.0002451424 0.00024642356
0.0005193794 0.00018865522 0.0016966719 0.0019369732 0.0022804718 0.00018995997 0.013037212 0.000774628
0.0 0.0022031253 9.851496e-05 6.05927e-05 6.0981576e-05 6.0116625e-05 6.056627e-05 3.1526488e-05
0.00015037123 4.357903e-05 3.4114524e-05 2.424533e-05 3.542257e-05 3.081453e-05 8.9901533e-07 0.0
3.980066e-06 2.5254764e-07 0.00029421318 0.0002982507 0.00029351088 0.00029409665 0.00058402214 4.8242782e-05
5.6332965e-06 3.4851023e-06 5.1239535e-05 0.0002030579 1.2003246e-05 4.0937134e-06 0.0 4.3964187e-06
1.2049431e-06 4.173896e-05 4.1906842e-05 4.131635e-05 4.1546347e-05 2.0258789e-05 0.00010729218 0.00016787536
0.00014493846 0.00013973522 3.634757e-05 0.0017523761 0.0003915019 0.0 6.0586914e-05 4.6952086e-05
4.7310117e-05 4.692061e-05 4.705478e-05 4.685558e-05 1.6565282e-05 9.348791e-05 0.0011649529 0.0013948756
0.0015855482 3.6728085e-05 0.007738651 6.8916386e-05 0.0 0.0016757087 2.0332154e-05 0.00010214136
0.000101673584 0.00010154097 0.00010144218 3.852386e-05 0.00014830739 0.0017187399 0.0020380653 0.0022941465
6.002266e-05 0.010700752 4.082581e-05 0.0 0.002318128 1.3357115e-06 0.00013834635 0.00013949591
0.00013643705 0.0001388379 0.0004233275 0.00026680366 0.0002785614 0.00024088951 0.00020175843 0.00011028496
0.002523222 0.0006448312 0.0 0.00017251095 7.419174e-05 1.7824494e-05 1.7411137e-05 1.7644117e-05
1.7379582e-05 7.522714e-06 5.86285e-05 0.00042765567 0.0004222916 0.00044171387 3.4160526e-05 0.0043149553
0.000752205 0.0 0.0003385256 0.00066003035 8.1591636e-05 8.214217e-05 8.105902e-05 8.1629354e-05
4.450645e-05 0.00019586638 0.00010873168 9.574148e-05 8.901016e-05 5.5336815e-05 6.0008337e-05 8.95772e-05
0.0 0.00026506322 1.789702e-05 0.00016231454 0.00016149152 0.00016045278 0.00016058404 0.00027985708
0.0005082762 0.0016164209 0.0013849857 0.0013240582 0.00022859708 0.019958485 0.004121958 0.0
0.000769429 0.0005004868 4.7937545e-05 4.8118105e-05 4.764756e-05 4.78323e-05 2.8597791e-05 0.00012019932
9.6272786e-05 8.4092535e-05 9.6794465e-05 2.5628973e-05 2.6859678e-05 0.000116355 0.0 0.00016898732
0.0008559933 0.0002494342 0.00025299823 0.00024916814 0.00025051413 0.00033265047 9.422524e-05 0.00015233108
0.00013184709 0.00016999595 0.00015971408 4.3209275e-05 0.000198522 0.0 0.00013165378 0.0025156566
0.0007673439 0.00077385426 0.0007674407 0.0007685597 0.00070450787 0.00047048033 0.0009568356 0.0008189864
0.0008842009 0.00045238866 0.00015734111 0.001392558 0.0 0.0005312262 0.017900655 0.00015476724

exp_avg f4 [64]
00000000: 0e96 3bbb 5319 5d3a 19f5 16bc de94 553b
00000010: c0d8 47bb 5994 f33a a6d1 d4bb 234c cbba
00000020: ccb6 d43a b6a6 7a3a a213 bb3b 748f c73a
00000030: 9f4d 17ba 2edd e03b ed19 69b8 5cc8 1c3b
00000040: 8970 dabb 2172 5c3b 3bc6 d9bb 8868 2bbc
00000050: 75b3 e139 8342 85ba 2071 a1bb 6d3f d3bb
00000060: 25d4 753b 9d4f 7abb b4e6 44bb 5683 91ba
00000070: fdb2 17bc 668e 8fbb 247f a537 f0c6 29bc
00000080: 1374 abba 073f 90bb 8477 07bb ec93 953a
00000090: 97c6 e1bb ed3c 0abc 9c27 c43a 9519 a9b9
000000a0: 42eb 83bc b364 a939 9352 53ba c4cb 253b
000000b0: eb82 ac3b 5847 3a3b 89af 8dbb ac97 303c
000000c0: 4f3a 083c bf4e 0b3c 9189 eabb a072 ebbb
000000d0: 9bbd 4b3b 3f5e e139 9269 13bb 627c 0cbc
000000e0: 525e 033b b614 e339 5697 63bb 8379 c8ba
000000f0: 92af a3bb 4daa 03bb 02f4 a7ba d463 aabb
-0.0028623375 0.00084342546 -0.009213709 0.0032589952 -0.0030494183 0.001858364 -0.0064947186 -0.0015510361
0.0016228794 0.0009561585 0.0057091275 0.0015225247 -0.00057717593 0.006862304 -5.5575674e-05 0.0023923134
-0.0066662473 0.0033637362 -0.0066459454 -0.010461934 0.0004304905 -0.0010166917 -0.0049268156 -0.00644677
0.0037510481 -0.0038194426 -0.0030044736 -0.0011101763 -0.009258983 -0.004380989 1.9728737e-05 -0.010362372
-0.0013080857 -0.0044020447 -0.0020670602 0.0011411882 -0.006890129 -0.008437377 0.0014965418 -0.00032253252
-0.01610339 0.0003230922 -0.0008061316 0.0025298456 0.00526463 0.0028423872 -0.004323904 0.010778349
0.008314683 0.008502661 -0.0071575125 -0.007185295 0.0031088355 0.00042985563 -0.0022493345 -0.008574577
0.0020045233 0.00043312245 -0.0034727654 -0.0015295002 -0.004995295 -0.002009052 -0.0012813809 -0.0051998887

exp_avg_sq f4 [64]
00000000: d7ae 1439 f797 a639 44dd ad39 4bb7 8839
00000010: 0d69 3d39 4006 2938 0c2c 5539 f0a5 0938
00000020: 907f fb37 d54b 8038 f1a1 ee38 0a00 cf37
00000030: 8ac3 7338 94fb 5239 edf6 1a38 150b 2a39
00000040: 51ce 0a3a aef7 f938 78c0 ae39 6735 8f39
00000050: de5a 1039 fdc2 e237 03d2 2139 1858 7b39
00000060: 49ea 8638 b2dd e538 b096 7c39 48d5 6537
00000070: e36e 0f3a 4a97 b238 3a1b 7437 f259 1f3a
00000080: 2be7 2d37 d088 f639 e6bf 8d38 df64 5c37
00000090: 40ac c439 0b87 d839 0ba3 a137 3864 cc37
000000a0: cd48 0c3a 3f8d 8237 38c1 1c36 e525 aa38
000000b0: b608 ba37 c6b6 1438 75ea e239 1d4e 8439
000000c0: 8740 5b39 9729 6239 6307 4d39 fdc5 8539
000000d0: 748d 4939 d765 0a37 cb7e a638 9926 3839
000000e0: 8974 3d38 cc48 d038 6c45 1a39 8b8c 8338
000000f0: d7dd f939 9cbe 363a dd4d 7e38 bfb3 8f39
0.00014179513 0.0003177521 0.00033161987 0.00026076505 0.00018063579 4.029856e-05 0.00020329672 3.2817887e-05
2.9980933e-05 6.1176404e-05 0.00011378888 2.4676341e-05 5.8117825e-05 0.00020120881 3.694643e-05 0.00016216592
0.0005295026 0.00011919379 0.00033331267 0.00027314873 0.00013766761 2.7032098e-05 0.00015432392 0.00023970043
6.433257e-05 0.00010960865 0.00024088728 1.3699122e-05 0.00054715405 8.515881e-05 1.45498725e-05 0.00060787715
1.03654265e-05 0.0004702271 6.759148e-05 1.3136508e-05 0.0003751237 0.00041299345 1.9268618e-05 2.4365363e-05
0.00053514243 1.556298e-05 2.335828e-06 8.11329e-05 2.2176984e-05 3.545617e-05 0.00043280763 0.000252352
0.00020909506 0.00021568533 0.00019553075 0.0002551525 0.00019221549 8.249152e-06 7.939114e-05 0.00017561986
4.5169643e-05 9.9317724e-05 0.00014712446 6.272745e-05 0.00047658265 0.0006971152 6.0630835e-05 0.00027409007

exp_avg f4 [32, 64]
00000000: 3b7c daba 1bb9 6f39 a9dd 40bb bece 813b
00000010: 5d8c 9abb 5fa5 ad3b 1b4f eebb 4945 aa3b
00000020: 4619 b53a 01bd 18ba 4f0a 9a3a 9727 72ba
00000030: ea99 69ba b72d 933a 0071 023b 42e4 87bb
00000040: 408b b0bb 84f3 ed3a 4b89 1637 eb6c d1bb
00000050: 1ee9 833b 3928 6bbb bbd2 6f39 1e28 40bb
00000060: 26ee 173b e256 ccb9 1982 14b8 27df 40ba
00000070: a85f 70bb 545b 61bb e22d af3a 5927 22bb
00000080: 6fff 933a c111 a4bb 9ee4 353a a516 2a39
00000090: 342a 91bb 60e7 56bb eb6f 973a e056 0b3b
000000a0: cae8 3abc e523 123a 17fe 4eba 4c6c a03a
000000b0: 4118 ee37 b3db 4fba a641 c1ba b5f9 9e3a
000000c0: cad0 0f3b 4786 033b be34 a7b9 b8fc c7b9
000000d0: f94d c6b9 01c3 f2ba 2869 483b 1162 88bb
000000e0: 5813 123b 819d 083a eb15 67bb 5900 ddba
000000f0: 107c 82bb 50b4 37bb 8646 5f3b 578e 43bb
00000100: a656 6e38 b9b5 65b9 b003 f7ba 0964 983b
00000110: 6ecc 30bb ddfa 7cba 8cb3 9ebb 5ffe c23b
00000120: d8ce c2b9 c381 003b eff4 a83b 3202 84ba
00000130: d008 f83a 5bda c23a 83d2 8c39 b557 33ba
00000140: 6854 deb9 8997 ea3b 5128 a739 7a9f 01bb
00000150: 72f9 6c39 511f 15ba a1a4 33bb a512 0cbb
00000160: baa0 6538 b6f3 5ebb 2d62 25bb 186c f0ba
00000170: 8fb5 d5b9 b885 3fbb 63ec e939 d3db bdba
00000180: a1d1 57ba bf13 1bbb f9b9 743a eea9 3f3a
00000190: 245c 6ebb 291b 16bb 4428 4cba 2b94 813b
000001a0: 5e31 adba 82b7 7c3b 80a4 bcba 5075 a83a
000001b0: 23f2 9cb9 4f11 873a 7a1c e3ba 1b79 ec3b
000001c0: d6fc a33b 0c4f 943a cb62 30bb 1b5a 20bb
000001d0: 6b59 673b 54b1 c0b9 b733 063a 7908 26bb
000001e0: 11a3 7a3b 3d22 4b39 5c16 84ba e024 f9ba
000001f0: e7fb 1eb9 8060 50bb fc3d b13a 5ee6 1cbb
00000200: eef7 6a3b 7b23 bf3a cb78 353c f04f 0bbb
00000210: 9493 333c 5396 50ba 315a 643c cfd4 91ba
00000220: 93b8 6a3b 664d 203c ea6c 8d39 d08e 77b9
00000230: 2ce9 173c 74b9 58ba f6a3 5b3a 1ccb f93b
00000240: f583 b93b 93fb c2b8 d1c9 8e3c 5bb9 983c
00000250: 70c2 423c f811 013c 44d4 623a 2db2 a63c
00000260: 1cad b5b9 81cb 5b3c 9dcd b23c 5444 243c
00000270: a178 343c 4d6f 1e3d 2db9 41ba 373c 1c3c
00000280: f130 803b 384a a03c 165a 68ba 90be 673c
00000290: ef4a 033a 4474 2c3c b035 a23b 4654 253a
000002a0: 443b 6aba 01cb 2c3c 4c74 4b3c f30d a8b9
000002b0: 9cac 2439 f561 22ba fa10 483c 19b2 00bb
000002c0: 12f6 a2ba 2807 d9b9 59ca d93c a1d9 313c
000002d0: 28be 9e3a c7a8 953c 6561 8dba 7140 e73b
000002e0: 6a60 8338 1b30 c5b8 851a 943c 3572 7d3c
000002f0: a0b8 8f3c 406e 583c f013 3d3a 38ba cb3b
00000300: a67c a1ba 492a 9939 9df4 0dbb a4e8 2c3b
00000310: 9a95 9abb f65e 703b b368 d0bb 865c 9a3b
00000320: 97d4 393a d042 b23a 615f fdb9 443b 873a
00000330: 733c f0ba 1dea cdb9 41df 2339 a8fb 72bb
00000340: 5bc4 b3bb e5d7 c73a a1d0 883a 822b e5bb
00000350: 839c d73b 7fd0 88bb daae 42ba 2cb5 02bb
00000360: da05 6b3a f150 16ba f93e 6d3a eec7 c339
00000370: ecad 4dbb 03aa 6cbb 394a 033b e89c 0bbb
00000380: f59e 453a e69b 76bb 7e86 b53a 7905 303b
00000390: eec8 38bb e2f9 0bbb 3c65 803b 05c3 603b
000003a0: ff46 31bc a8a6 f53a 57c2 943a fb09 5bb9
000003b0: e8ab 06ba 7eee 45ba 558c 55ba efc4 0b3b
000003c0: b555 653a 98d8 823a 4b1c 6cba 4385 53ba
000003d0: f330 9b39 2a15 cbb9 63fe 723b 3cc7 88bb
000003e0: b874 b43a 9175 873a d455 07bb 5688 25ba
000003f0: 2ec3 42bb 9479 46bb 3705 443a bd34 07bb
-0.0016669104 0.00022861773 -0.0029428995 0.003961413 -0.0047164396 0.005299255 -0.0072726137 0.0051962477
0.0013816736 -0.00058265036 0.001175234 -0.0009237467 -0.00089111796 0.0011228834 0.001990378 -0.0041470835
-0.0053876936 0.0018154238 8.972663e-06 -0.006391158 0.0040255925 -0.003588213 0.0002287132 -0.0029320787
0.002318272 -0.00038974645 -3.5407113e-05 -0.0007357471 -0.003667811 -0.0034386711 0.0013365115 -0.0024742691
0.0011291335 -0.0050069992 0.00069386687 0.00016220899 -0.00443008 -0.003279172 0.001155374 0.0021261498
-0.01140804 0.0005574807 -0.00078961387 0.0012239306 2.8383105e-05 -0.0007929161 -0.0014744296 0.0012128862
0.0021944516 0.002006905 -0.00031892018 -0.00038144528 -0.00037823597 -0.001852125 0.0030580256 -0.004162081
0.0022289362 0.0005211458 -0.0035260867 -0.0016861066 -0.0039820746 -0.0028031059 0.0034069135 -0.002983948
5.682432e-05 -0.00021906839 -0.0018845703 0.004650597 -0.0026977318 -0.00096504187 -0.004843181 0.0059507336
-0.00037156674 0.0019608594 0.0051561515 -0.0010071455 0.0018923525 0.00148661 0.00026859724 -0.00068413775
-0.00042406027 0.0071591777 0.0003188276 -0.0019778893 0.0002259964 -0.00056885654 -0.002741136 -0.0021373418
5.4747543e-05 -0.0034019775 -0.002523552 -0.0018342761 -0.00040761798 -0.002922399 0.00044617345 -0.0014485068
-0.0008232836 -0.0023662893 0.00093355734 0.0007311393 -0.0036370838 -0.0022904372 -0.00077879825 0.0039544306
-0.0013213565 0.0038561528 -0.0014392287 0.0012852345 -0.00029935045 0.0010304841 -0.0017327212 0.0072165853
0.0050045056 0.0011315062 -0.0026914354 -0.002446777 0.00353011 -0.00036753213 0.00051194004 -0.002533464
0.0038244168 0.00019372343 -0.0010077464 -0.0019008182 -0.00015161895 -0.00317958 0.0013522501 -0.002394102
0.0035853344 0.0014582718 0.011076163 -0.0021257363 0.010960478 -0.00079569704 0.013937519 -0.0011126044
0.0035815581 0.009784078 0.00026974763 -0.00023608957 0.009271901 -0.0008267381 0.0008378619 0.0076230895
0.0056614825 -9.2975e-05 0.017430218 0.018643072 0.011887178 0.007877819 0.0008652846 0.020348633
-0.00034651987 0.013415218 0.02182656 0.010026056 0.011015088 0.038680363 -0.0007389959 0.009535841
0.0039120843 0.01956664 -0.00088635215 0.014144555 0.00050084194 0.010525767 0.0049502477 0.0006306808
-0.0008935223 0.010546447 0.012417864 -0.0003205385 0.00015704561 -0.00061944063 0.012211079 -0.0019637404
-0.0012432954 -0.00041394797 0.026585745 0.010855109 0.0012111114 0.018268956 -0.0010786472 0.0070572426
6.264525e-05 -9.402652e-05 0.018079052 0.015469124 0.01754409 0.013209879 0.0007212749 0.0062172674
-0.0012320473 0.0002921394 -0.0021660693 0.0026383782 -0.004717541 0.0036677695 -0.0063601374 0.0047107367
0.00070888683 0.0013600234 -0.00048326983 0.0010317345 -0.0018328562 -0.00039275075 0.0001562806 -0.0037076268
-0.005486054 0.0015246837 0.0010438153 -0.006993712 0.006579937 -0.0041752453 -0.00074265676 -0.0019944413
0.00089654105 -0.0005734107 0.0009050216 0.00037342258 -0.0031384183 -0.0036112077 0.0020033254 -0.002130324
0.000753864 -0.0037629544 0.0013849286 0.002685873 -0.0028195935 -0.0021358659 0.003918318 0.0034295928
-0.010820149 0.0018741684 0.0011349422 -0.00020889186 -0.00051373104 -0.0007550492 -0.0008146216 0.0021327098
0.0008748428 0.0009982763 -0.00090069015 -0.0008068869 0.00029600374 -0.00038734946 0.0037077896 -0.004174141
0.0013767695 0.001033472 -0.0020650523 -0.0006314566 -0.0029718387 -0.0030284869 0.0007477584 -0.00206308

exp_avg_sq f4 [32, 64]
00000000: d39f 4a38 540a 173a ffec be38 adc2 ec38
00000010: bdde ff39 67cd 1e39 e7c4 303a 0b1e 1839
00000020: 7175 2a39 dd74 af39 05d1 1939 87e0 a939
00000030: 970b c738 4df2 183a fbcb 1b39 0885 6938
00000040: deea 0339 063a 0c39 774f 2839 834e 8d39
00000050: 329c d03a cb6a b438 3e96 3d39 df98 073a
00000060: 18fe 2538 ceaa 6d39 c44a f639 b9c8 1d3a
00000070: 8e3f 2e39 7172 193a 9a25 d638 7a42 1439
00000080: 644f 3339 283b bc39 72f4 4537 1cfb 073b
00000090: 33b6 b439 59bc 8539 89a3 ec3a 10f8 df38
000000a0: 631e fa39 9b85 cd38 9462 4d38 7a82 fd38
000000b0: 6ad3 6237 b24c 7239 53b8 1c39 3ef1 c739
000000c0: 7ef8 4639 c966 2e38 911c bf39 e4b6 9d39
000000d0: 5941 9f39 b423 eb39 ed6b 1237 44db d139
000000e0: cd0e 8939 af94 2939 8281 0739 34c8 c939
000000f0: fd9d f038 0464 1c39 658f a739 af42 4f39
00000100: 8b04 c539 cf81 b93c 2dc0 4e3a caf6 f639
00000110: 9cfd 523c 0feb 3f3a 7769 893b 118f 813a
00000120: e45a 2e3b 8115 ab3c 1504 e03a 9a25 1a3b
00000130: 8da5 b039 fe89 0f3d 309f 753a e4f1 d639
00000140: 69f2 873a fd12 983a 9bc1 bd3a 4d5f 1b3b
00000150: 0f50 b03d e2f9 a539 f62b 9c3a 2401 523b
00000160: 4057 6239 69d0 b83b 2820 3b3b a57c 8f3c
00000170: c2ab 903a 8758 e23b 5beb 093c 3606 823a
00000180: 8857 c23b ab77 063b 9315 1a39 80cd 0f3d
00000190: d9fe 3b3b 53ed 0c3b 27c4 943d 0b4e 123a
000001a0: f6d8 3d3b efee a339 b073 be39 1284 013b
000001b0: e971 b638 733d c13b 34a9 183b 0301 263c
000001c0: e2a5 833b 5886 ee3a 6db7 ea3a b19d 253b
000001d0: 3a56 503c 32cb 1d3d ae69 4438 923c 3a3b
000001e0: ae9f 013b d9a9 833a 734e 003a 750f 3f3b
000001f0: 0db3 713a a916 5f3a cbbc b73b 2605 b73a
00000200: f2e6 013a 7091 7c3c 5bbc c63a 02ce 5537
00000210: 2a53 653c 9968 1638 e0bd ff3b f36e d537
00000220: 2f9c 583a c491 f63c bdf4 ae38 2020 ba3a
00000230: fcf2 fa38 b51f 2a3d f7ab 953a 00de 323a
00000240: a71d b93a 3124 9738 c450 153b ed2f 703b
00000250: b754 e53d 01f5 f239 6f3f a63a b854 8b3b
00000260: 8078 ad37 600e 0c3c eae9 c23b 8b68 883c
00000270: 9e5a f93a 6d80 0b3c a3ff 493c 797c e33a
00000280: dbbf f43b 8520 ad3b afe5 0e39 f18d 723c
00000290: 0fb0 753b 8698 5c3b dd9c 923d 5fa2 3039
000002a0: 57f7 d13b 9975 6e39 abdf 013a 09fd a638
000002b0: 97c2 a438 98b6 473b 9b5d 193b 3b94 ce37
000002c0: 596d 6e38 8fb6 1f3b 5cdc 363b 3134 4e3b
000002d0: ca86 5b3c 0912 653d 4464 9737 59f6 783b
000002e0: 87e0 203b f26c 633a 977f bd3a 4984 9d3b
000002f0: c0c5 f93a 2d55 0d3b e1b6 2b3b 96ad 3f3b
00000300: 5bf2 8937 0717 793b 4dd7 b538 9e29 b438
00000310: 5aa3 313b c5cb f038 6bd9 193a ddab cd38
00000320: 6af2 6b39 d597 de3b 9aef e338 7f1d 5339
00000330: 555e 9738 8d5c 233c c1ec 7438 10ca 1238
00000340: 52db bd38 7952 d138 dbab 1739 70ca 7a39
00000350: d1a0 ce3c f571 8638 4aa0 2c39 6c7e f139
00000360: 07a9 f937 13f4 c93a 81bb e339 1a4b 6b3b
00000370: dc2a d238 7c90 a73a 3fba 393b 788f 0639
00000380: 2d08 cf3a f176 a339 568d f937 70ac 8b3a
00000390: 9dab a239 61b8 3d39 11f1 833c e805 a738
000003a0: b156 d539 1f4c 9a38 20ad ee37 58a9 e338
000003b0: 18a6 4337 3a99 0f3a 4637 1c39 9676 a539
000003c0: f10d 1a39 3398 153a 0ba0 a739 374b 8839
000003d0: ce22 493b 0ab7 563c 1bb0 0337 88e3 5b39
000003e0: 6262 e638 c599 bd38 f74d e638 e6f9 9839
000003f0: d0d6 c838 039e 0c39 5f99 063a 00f9 3139
4.83094e-05 0.0005761732 9.10405e-05 0.00011289618 0.00048803343 0.00015144573 0.0006743208 0.00014507041
0.00016256214 0.0003346567 0.00014669083 0.00032401478 9.491218e-05 0.00058344455 0.0001485794 5.5675424e-05
0.00012580628 0.00013373056 0.00016051331 0.00026952112 0.001591569 8.6029606e-05 0.00018080414 0.0005172621
3.957571e-05 0.00022665711 0.0004697648 0.0006018985 0.00016617609 0.000585354 0.00010211319 0.00014139144
0.00017100346 0.0003590223 1.1799029e-05 0.0020749038 0.00034468024 0.00025508067 0.0018054108 0.00010679674
0.00047706356 9.800048e-05 4.8967617e-05 0.00012088283 1.3519873e-05 0.0002310749 0.00014945985 0.00038135977
0.00018975322 4.158056e-05 0.00036451643 0.00030081638 0.0003037553 0.00044849294 8.727407e-06 0.00040026952
0.00026141704 0.00016172485 0.00012922849 0.0003848687 0.000114735194 0.00014914578 0.0003195956 0.000197659
0.00037578153 0.022644905 0.0007886913 0.0004710465 0.012877848 0.0007321098 0.0041934806 0.0009884556
0.0026604468 0.020884277 0.001709106 0.0023520947 0.0003369268 0.03504371 0.0009369729 0.00040997483
0.0010371926 0.0011602339 0.0014477255 0.0023707927 0.0860902 0.0003165743 0.0011914957 0.0032044137
0.00021585543 0.005640079 0.0028553102 0.01751549 0.0011037516 0.006907526 0.0084179295 0.0009920064
0.0059308447 0.0020518105 0.00014694621 0.03510809 0.0028685837 0.002150376 0.072639756 0.00055810873
0.002896843 0.00031267802 0.00036325818 0.0019762558 8.699654e-05 0.005897218 0.0023294212 0.010132077
0.0040175775 0.0018197997 0.0017907448 0.0025270993 0.0127158705 0.03852386 4.6828463e-05 0.002841745
0.0019779014 0.0010045125 0.00048945023 0.00291535 0.0009220101 0.00085101515 0.0056072227 0.0013963326
0.0004955373 0.015415534 0.0015162335 1.2743754e-05 0.013996879 3.58602e-05 0.0078046173 2.5443243e-05
0.0008263019 0.030098803 8.3425526e-05 0.0014200248 0.00011966188 0.041534144 0.0011419047 0.0006823242
0.0014123217 7.206982e-05 0.0022783736 0.003664966 0.11197799 0.0004634038 0.00126837 0.0042520426
2.067932e-05 0.008548349 0.005948295 0.016651412 0.0019024198 0.008514506 0.012329015 0.0017355821
0.00746916 0.0052834176 0.00013627739 0.014804349 0.0037488972 0.0033660247 0.071588255 0.00016845156
0.006407659 0.00022741257 0.00049542886 7.962628e-05 7.8563746e-05 0.0030473825 0.002340174 2.4626139e-05
5.684546e-05 0.0024370288 0.002790234 0.0031464214 0.013398835 0.055925403 1.8047293e-05 0.0037988632
0.0024547891 0.0008675597 0.001445758 0.0048070294 0.0019056126 0.0021565661 0.0026201534 0.0029247752
1.6444528e-05 0.003800811 8.6708555e-05 8.590821e-05 0.0027105422 0.00011482047 0.00058688846 9.807174e-05
0.00022501653 0.006793002 0.00010868833 0.00020133516 7.217812e-05 0.009970796 5.8394628e-05 3.4997298e-05
9.053074e-05 9.981258e-05 0.00014464503 0.00023917272 0.025223168 6.410844e-05 0.0001646291 0.00046061294
2.9761823e-05 0.0015407823 0.00043436515 0.0035902918 0.000100215635 0.0012784149 0.002833977 0.00012832682
0.0015795283 0.000311784 2.9748928e-05 0.0010656249 0.0003102691 0.00018093131 0.01610616 7.964281e-05
0.00040691116 7.357471e-05 2.8452429e-05 0.00010855746 1.1661577e-05 0.00054778496 0.0001489791 0.00031559606
0.00014691778 0.00057065784 0.00031971963 0.0002599598 0.0030690911 0.013105163 7.849211e-06 0.0002097023
0.0001098558 9.040864e-05 0.00010981777 0.00029177888 9.576755e-05 0.00013410304 0.00051345484 0.00016972795

exp_avg f4 [32]
00000000: 6589 0abc 18fa 5d3a 0d46 843c b337 1bbc
00000010: 1b4f 95ba 148f e4bb 021e d539 58ce 6dbc
00000020: 13f4 8f34 168f 953b a23a dfba 249a ffbb
00000030: 5cae cfba cac7 7634 da0e 98bc a3cb 0bbc
00000040: 28bf 1dbc 22be 3032 d7b5 30bc 2548 5bbc
00000050: c0e8 d8bc 78df 04bc 5053 e1bb 654c 713c
00000060: 0e47 ff37 cd16 4b3a ef66 8ab8 87d1 c0ba
00000070: f583 c537 4131 60bc 021e 53b9 c28e 8fb9
-0.008455609 0.0008467748 0.016146684 -0.009473729 -0.0011391373 -0.006975064 0.00040648883 -0.014514528
2.6813413e-07 0.0045641763 -0.0017031024 -0.0078003574 -0.001584481 2.2983218e-07 -0.01856177 -0.0085324375
-0.009628095 1.02877795e-08 -0.0107855415 -0.0133839 -0.026478171 -0.00810992 -0.0068763867 0.0147276865
3.0431456e-05 0.0007747233 -6.599526e-05 -0.0014710882 2.3545677e-05 -0.013683618 -0.00020133707 -0.00027381448

exp_avg_sq f4 [32]
00000000: a100 c539 5e9d 443b 5281 4e3b d703 f239
00000010: 8b58 3d38 1a4e e339 a14c 4437 2f78 de39
00000020: dd25 9c33 01c0 aa37 31b7 7938 4f26 4c3a
00000030: 017c 2939 e30a d734 9a5b e439 eaa2 d139
00000040: 82d3 e53a 3de8 1932 d261 353a 2a30 e739
00000050: 9c3b 903b 4cba 043a f9de 5739 3710 e33b
00000060: 3676 1835 23b3 4438 9bc5 ba33 c8a5 0238
00000070: 63ea 2837 cc49 9b39 a32c ba36 a411 6038
0.00037575237 0.0030001025 0.0031510186 0.00046160698 4.5143574e-05 0.00043355004 1.1700352e-05 0.00042432683
7.2712034e-08 2.0354988e-05 5.9536836e-05 0.0007787691 0.00016163291 4.0054792e-07 0.00043555797 0.00039984967
0.0017534348 8.958577e-09 0.00069191784 0.00044095638 0.0044016372 0.0005063161 0.00020587062 0.006929423
5.679643e-07 4.6896876e-05 8.697244e-08 3.114881e-05 1.0068153e-05 0.00029618887 5.5484284e-06 5.342219e-05

exp_avg f4 [2, 32]
00000000: e4c1 e73d 52eb 33ba a148 21bd 814d 97bd
00000010: 6c0e 5d3b df5c 36bf 7ea1 d5ba e05e 4bbe
00000020: 1805 01b5 1921 a0ba 8f8b 98bb 6c04 4fbc
00000030: 6a22 323c e35f 0c34 b5b1 f6bc bae6 3abf
00000040: 3416 6dbe 7c53 c730 28b3 bdbf 786d 113f
00000050: 478f 3ebb dc4f 7bbe 934f 9abc e108 bfbd
00000060: 24ee ddb6 9959 d0ba 1b2e 8c3a 9c49 8f3a
00000070: 4cb8 a936 3230 fdbe 1bd5 34bb 7c47 ce39
00000080: 4b38 7f3d 53ff e539 ca21 3c3a 3524 5b3d
00000090: 2af5 a7b7 1d28 ed3b f15f 0538 f674 753d
000000a0: fc01 8733 a747 e03a e149 74b8 3075 823c
000000b0: 5162 bd39 38a7 4a32 1d36 26bb 3aa2 753d
000000c0: bb74 75bb 4182 1730 acf7 533d a3cc 3b3d
000000d0: 0314 56b9 53b2 153d 6fda 86bb da7c 57b9
000000e0: 07f3 2a37 4bfe aa39 243d 0839 21d0 e7b8
000000f0: 30d5 0737 6b0e 833d 8170 b7b8 868b eeb7
0.113162786 -0.00068633736 -0.039375905 -0.073878296 0.003373052 -0.7123546 -0.0016298739 -0.1986041
-4.806366e-07 -0.0012216895 -0.0046553086 -0.012635332 0.010872463 1.30734e-07 -0.030114034 -0.7300831
-0.23153001 1.4502883e-09 -1.4820299 0.5680766 -0.00290771 -0.24542183 -0.018836772 -0.093278654
-6.6140365e-06 -0.0015895843 0.0010694893 0.0010931971 5.0580475e-06 -0.49450833 -0.002759284 0.00039344642
0.062309545 0.00043868515 0.0007176666 0.053501327 -2.0022115e-05 0.007237448 3.1799023e-05 0.059925996
6.286788e-08 0.0017111198 -5.824294e-05 0.01592502 0.0003612214 1.1795969e-08 -0.0025361844 0.059969164
-0.003745361 5.511858e-10 0.05174987 0.045849454 -0.00020416085 0.036547016 -0.004115395 -0.00020550509
1.0189374e-05 0.0003261439 0.00012992747 -0.000110537054 8.096264e-06 0.063992344 -8.7470755e-05 -2.8436782e-05
