lightning_logs/version_3/checkpoints/epoch=49-step=150.ckpt (torch, 47499 bytes, 18 tensors)

network.0.weight f4 [64, 15]
0.21044908 0.29832733 -0.06351294 0.2521728 0.00743551 0.3059205 -0.082486205 0.037835587
0.0053568906 0.17085694 0.03458801 -0.07315653 0.2076278 -0.036121268 -0.12218938 0.1981115
0.2670323 0.20885377 0.16425611 -0.23502049 -0.01581068 -0.03332924 0.1749141 0.14355429
0.09883787 -0.15648367 -0.18680789 -0.10810642 -0.08717227 -0.022140013 0.17511696 0.102769114
0.21466105 -0.14612499 0.101476565 -0.17515378 0.20358492 -0.033767503 0.1401994 -0.2483527
-0.11791945 -0.2038886 0.11115768 0.15092784 -0.13878565 0.19280502 -0.20204747 -0.022741567
0.27182573 -0.15752642 -0.182334 0.2847569 -0.0009662916 -0.075648114 0.11738378 -0.07757063
-0.32875496 0.22726023 0.2304082 -0.31619573 0.052358452 -0.08648859 -0.13798119 -0.016485412
-0.19374272 0.08804147 0.085655846 0.15885648 0.18011527 0.23849726 -0.084831774 -0.32672817
0.20230968 0.20790802 -0.3054931 -0.19942224 -0.24342819 0.030046837 -0.04499553 -0.12917866
-0.14873922 -0.09335218 -0.16214666 -0.35281804 0.14862607 -0.17931536 -0.195448 -0.22793588
-0.18484455 -0.25160542 -0.1013747 -0.2992261 -0.032793336 -0.18608055 -0.12963155 0.21867363
0.0725299 -0.13093951 -0.14229037 -0.28902838 0.061211992 -0.23453888 -0.038220115 -0.2584609
0.17629415 -0.20960535 0.2106587 0.18236394 -0.14534396 -0.13137744 0.017797185 -0.20079677
-0.23193228 0.24326669 0.051372103 -0.15136853 0.16116114 0.09765551 -0.15315261 0.1686268
-0.030607445 0.22068188 0.24537799 0.29636863 -0.054453507 -0.105518766 0.16638093 -0.25494993
0.082701355 -0.23922804 0.06187621 -0.26669562 -0.16461599 0.042876117 -0.18639192 -0.30959237
0.05227681 -0.32041332 -0.1916854 0.17051512 -0.14910048 0.051568158 -0.0025511035 -0.26073688
0.2715203 -0.033345867 -0.0074806106 -0.032518327 0.039411783 -0.27510548 0.23056103 0.019372482
0.28453153 0.2452632 -0.024987677 -0.05442071 0.07485264 0.11038444 0.041272227 0.024574803
0.122506574 0.21293524 -0.0012593209 0.12762009 -0.004627042 0.14179559 0.17804731 0.14980035
-0.012476332 -0.10975843 -0.20984861 -0.081165634 0.29255614 -0.20635371 -0.23493071 -0.15732835
-0.05066394 0.098169595 -0.21143982 -0.30262512 -0.13181067 -0.12142236 -0.11775197 0.029148674
0.005050737 -0.01499301 0.00592245 0.14373386 -0.18439904 -0.01646706 0.06269174 0.025925035
-0.19528636 0.23900424 0.23214325 -0.18568543 0.09718024 0.12714249 0.13164611 0.16659373
-0.05827856 0.18901296 -0.054897744 0.23648408 -0.06860988 -0.095140636 0.05171821 0.052097917
-0.040045455 -0.037273195 -0.30749583 0.0634264 -0.07715098 -0.29801863 -0.25455415 0.08839952
0.094095536 0.06630764 0.15357319 -0.2936368 0.19001396 -0.14327051 -0.08412023 -0.18607105
-0.21149716 -0.07180465 0.034561507 -0.22095297 0.20267035 -0.30072773 0.009973869 -0.17496026
0.13948792 0.19851805 -0.16527793 -0.05881606 -0.19547948 -0.124369465 -0.24888277 -0.01667377
-0.16468756 -0.17995816 0.036110498 -0.08720239 -0.03326328 -0.22103678 0.18958613 0.19187205
-0.021339146 0.025598621 0.062786326 -0.0036334302 0.23308592 -0.2603329 0.005974033 -0.08791225
00000000: f77f 573e 5cbe 983e 1313 82bd cb1c 813e
00000010: 94a5 f33b 9da1 9c3e 87ee a8bd 7df9 1a3d
00000020: db88 af3b 1ff5 2e3e 28ac 0d3d 17d3 95bd
00000030: 629c 543e e5f3 13bd 6d3e fabd bedd 4a3e
00000040: 75b8 883e c3dd 553e c132 283e 36a9 70be
00000050: 6685 81bc 3e84 08bd af1c 333e e5ff 123e
00000060: 826b ca3d 413d 20be 914a 3fbe e666 ddbd
00000070: 6087 b2bd f95e b5bc dc51 333e 9d78 d23d
00000080: 1bd0 5b3e caa1 15be f2d2 cf3d 835b 33be
00000090: 9178 503e cb4f 0abd 6e90 0f3e 2c50 7ebe
000000a0: c17f f1bd 2cc8 50be a3a6 e33d d48c 1a3e
000000b0: d31d 0ebe ae6e 453e 88e5 4ebe 864c babc
000000c0: be2c 8b3e 9b4e 21be c4b5 3abe a8cb 913e
000000d0: bb4e 7dba 66ed 9abd e866 f03d 5add 9ebd
000000e0: 9252 a8be e8b6 683e 21f0 6b3e 68e4 a1be
000000f0: d175 563d ee20 b1bd f14a 0dbe 6a0c 87bc
00000100: 7e64 46be 164f b43d 556c af3d 46ab 223e
00000110: 2370 383e a038 743e 48bc adbd ea48 a7be
00000120: 452a 4f3e d7e5 543e 9769 9cbe 5835 4cbe
00000130: 3d45 79be c924 f63c 3c4d 38bd 6947 04be
00000140: 184f 18be 6e2f bfbd c609 26be 91a4 b4be
00000150: 6f31 183e 729e 37be 8523 48be 0668 69be
00000160: e447 3dbe 6dd2 80be 8a9d cfbd 2a34 99be
00000170: 4e52 06bd e68b 3ebe 22be 04be fbeb 5f3e
00000180: 8e8a 943d 0215 06be 91b4 11be 87fb 93be
00000190: 6db9 7a3d f62a 70be b28c 1cbd fd54 84be
000001a0: 7486 343e c9a2 56be eab6 573e 9dbd 3a3e
000001b0: 0cd5 14be cf87 06be 67cb 913c ab9d 4dbe
000001c0: a87f 6dbe e71a 793e 8e6b 523d 5a00 1bbe
000001d0: 6d07 253e 9dff c73d 0ad4 1cbe 81ac 2c3e
000001e0: 77bc fabc 6efa 613e 5e44 7b3e a1bd 973e
000001f0: a40a 5fbd 391a d8bd c35f 2a3e cc88 82be
00000200: 545f a93d 32f8 74be e971 7d3d 548c 88be
00000210: 1891 28be de9e 2f3d 86dd 3ebe e482 9ebe
00000220: 3520 563d 370d a4be 2d49 44be 849b 2e3e
00000230: ccad 18be 2239 533d 6a30 27bb 4e7f 85be
00000240: b504 8b3e ad95 08bd e91f f5bb f031 05bd
00000250: 406e 213d a0da 8cbe 3118 6c3e 0ab3 9e3c
00000260: 1eae 913e 4726 7b3e f5b2 ccbc 40e8 5ebd
00000270: 574c 993d 3d11 e23d 110d 293d 1951 c93c
00000280: bae4 fa3d b20b 5a3e cc0f a5ba d7ae 023e
00000290: 719e 97bb dd32 113e 0952 363e 4365 193e
000002a0: 8769 4cbc 07c9 e0bd 8ee2 56be 2b3a a6bd
000002b0: ebc9 953e 634e 53be ad91 70be af1a 21be
000002c0: fe84 4fbd 240d c93d ae83 58be aef1 9abe
000002d0: 60f9 06be 49ac f8bd f227 f1bd 33c9 ee3c
000002e0: a780 a53b 3ea5 75bc 1d11 c23b f82e 133e
000002f0: 1ad3 3cbe eee5 86bc 8764 803d bd60 d43c
00000300: 26f9 47be 87bd 743e f6b6 6d3e 5224 3ebe
00000310: 6f06 c73d a431 023e 3dce 063e 8c97 2a3e
00000320: 80b5 6ebd 9d8c 413e 75dc 60bd e228 723e
00000330: 5683 8cbd 18d9 c2bd 79d6 533d a064 553d
00000340: b406 24bd c7ab 18bd 1870 9dbe b3e5 813d
00000350: 5501 9ebd e695 98be ec54 82be cf0a b53d
00000360: 29b5 c03d 4dcc 873d 4a42 1d3e 9057 96be
00000370: 0593 423e 81b5 12be 3a47 acbd 6989 3ebe
00000380: b692 58be 510e 93bd 5e90 0d3d 7f41 62be
00000390: d188 4f3e fcf8 99be 7069 233c c828 33be
000003a0: ecd5 0e3e 5148 4b3e 9e3e 29be 1ce9 70bd
000003b0: c62b 48be 6bb5 febd 20db 7ebe 6e97 88bc
000003c0: dba3 28be f446 38be 9ae8 133d 2b97 b2bd
000003d0: 143f 08bd 7757 62be de22 423e 1b7a 443e
000003e0: 6fcf aebc 33b4 d13c 1e96 803d d81e 6ebb
000003f0: 13ae 6e3e 5b4a 85be d2c1 c33b 560b b4bd

network.0.bias f4 [64]
0.24375978 0.2660196 0.26811358 0.16677283 -0.11526153 0.31868634 0.23795311 -0.047756348
0.24898042 0.09869453 0.27550003 0.19486237 -0.064424135 -0.09570506 -0.158701 -0.08321606
-0.03161269 0.031934984 0.08555313 0.2837524 0.03982211 -0.031918894 -0.10063129 -0.12257357
0.31657586 0.16548488 -0.079551354 0.020582855 -0.106218114 -0.08881533 0.26601076 -0.116181515
0.11728039 0.01876769 -0.053083666 0.1562011 0.065408364 -0.2138777 -0.08527768 -0.17653088
0.12727498 0.3127256 -0.011263814 -0.1295568 0.085917056 -0.1393713 -0.16890474 0.17167012
0.24172573 0.22344342 -0.15762968 0.24672663 0.25854525 0.14305519 0.07178539 0.03990858
0.2729884 0.13724896 -0.1540088 0.08937996 0.18623927 0.14106928 -0.10945967 -0.05752167
00000000: 2a9c 793e b933 883e 2f46 893e 7fc6 2a3e
00000010: 3d0e ecbd db2a a33e fba9 733e 299c 43bd
00000020: b9f4 7e3e 5c20 ca3d 570e 8d3e 008a 473e
00000030: cdf0 83bd 0401 c4bd 8482 22be 2f6d aabd
00000040: 4f7c 01bd 42ce 023d 7b36 af3d ff47 913e
00000050: 821c 233d 63bd 02bd c717 cebd da07 fbbd
00000060: 3b16 a23e de74 293e d2eb a2bd 609d a83c
00000070: e288 d9bd d0e4 b5bd 9032 883e 93f0 edbd
00000080: b330 f03d b3be 993c 426e 59bd 2ef3 1f3e
00000090: d2f4 853d c102 5bbe 10a6 aebd 83c4 34be
000000a0: 5f54 023e 921d a03e dc8b 38bc 8aaa 04be
000000b0: 48f5 af3d 5ab7 0ebe 5df5 2cbe 4bca 2f3e
000000c0: f386 773e 5ace 643e ad69 21be e8a5 7c3e
000000d0: 0b60 843e 0f7d 123e 3804 933d 2e77 233d
000000e0: 23c5 8b3e fe8a 0c3e 7cb4 1dbe d70c b73d
000000f0: 82b5 3e3e 7774 103e 642c e0bd d89b 6bbd

network.3.weight f4 [32, 64]
0.038211424 -0.007960841 -0.113251165 -0.03350487 -0.10350255 -0.10340314 -0.12652709 -0.037250042
-0.14729312 0.040986348 0.00771674 -0.05568292 -0.09263787 -0.010344154 0.009500844 0.10815296
-0.10766716 -0.11154446 0.0010514127 0.08671193 -0.1406925 0.074343555 -0.07071626 -0.005249226
0.04989507 -0.07366532 -0.05099924 -0.04596212 -0.11331295 -0.030895459 0.07306704 0.0911398
-0.13316321 -0.05639852 -0.113288425 0.091118015 -0.06719629 0.0209634 -0.05503258 -0.022031097
0.021913072 0.067955375 -0.11683341 0.05452226 0.04592989 -0.042127326 -0.12046129 0.035741795
-0.14138149 -0.00404688 -0.051256984 -0.0863369 -0.018461041 0.041998263 0.05081982 -0.093299605
0.09322508 0.004871199 -0.037934694 0.034941025 -0.037377693 0.035729308 0.038151965 -0.12847936
-0.13288504 -0.09447088 0.016350716 -0.09931934 0.057788208 0.070745505 0.049847268 0.053924765
0.00683873 0.054025006 -0.10628081 -0.14280537 0.05046276 -0.13262857 -0.012613372 -0.01810202
0.071242906 -0.021156779 -0.13765503 -0.058065612 0.044917066 -0.13601828 0.07043083 -0.027215282
0.042827956 -0.0242695 -0.01794849 0.05605602 -0.11405004 -0.03592483 -0.011120213 0.01110599
0.024807017 0.06144286 -0.07721621 -0.053852946 0.001720347 0.058643594 0.04346208 -0.017881256
-0.124603055 0.06478454 0.0076230797 -0.14419436 -0.021532817 0.017839447 -0.0601195 0.0369874
0.047961343 -0.09484344 0.00796176 -0.029805848 0.001747286 -0.111570716 -0.13578123 -0.15209146
-0.08483833 0.020058786 0.086086795 0.020769037 -0.14100118 0.0013158432 -0.061902635 0.013176162
0.16797282 0.07879248 0.12968177 0.12164352 0.055924337 0.21523374 0.15308669 -0.050370384
0.14822549 -0.00094883714 0.06421815 0.04610633 -0.00844175 -0.08982294 0.09093102 0.100917526
0.08385317 0.07344915 -0.045367748 0.051367562 0.080453515 0.15992555 0.11661579 0.020018745
0.21631446 0.20867442 0.08700012 0.021250844 0.13058002 0.063199505 0.20446162 0.16459467
-0.056458425 0.05833977 0.1688432 0.085119635 0.057429746 -0.122673884 0.016540641 0.050345432
0.20425656 0.1958334 0.12609376 0.07769036 0.05791464 -0.05397379 0.009539213 -0.009562404
-0.0016277072 0.11287346 0.12017432 0.057315145 0.10893921 0.2087056 0.042120416 0.10243773
0.12154353 0.08499364 0.024625704 -0.024774184 0.07408064 -0.090229735 0.074418336 0.040026948
0.08822122 0.07028173 0.022768138 -0.0046944395 0.011401362 -0.033744942 -0.11677941 0.050114732
-0.0042891125 -0.09636034 -0.00818832 -0.015320553 -0.008671787 -0.10696467 0.05823294 -0.025329668
-0.07255082 -0.050001334 0.0033044477 -0.06657044 -0.10284686 -0.062019832 0.061559662 0.04735868
-0.024656475 -0.07180383 -0.14840057 -0.116885066 -0.07249311 -0.015618548 -0.025819171 -0.14122212
-0.10734258 0.029815646 -0.0027747357 -0.043615002 -0.04683609 0.03745009 0.07147679 -0.045502417
-0.12796813 0.046059273 -0.11047762 0.042076785 0.027917558 0.06867388 0.08738599 -0.035254378
-0.14370789 -0.08660983 0.058318138 0.017145317 -0.10838494 -0.12146028 0.020281496 -0.059978236
-0.12199327 0.004399041 -0.12234813 0.049665384 -0.08270722 -0.045658287 0.07554625 -0.10676098
00000000: 9583 1c3d 306e 02bc 3af0 e7bd 673c 09bd
00000010: 25f9 d3bd 07c5 d3bd 5190 01be 8093 18bd
00000020: 02d4 16be 4de1 273d b5dc fc3b c613 64bd
00000030: ecb8 bdbd 877a 29bc 6ea9 1b3c 4d7f dd3d
00000040: 9a80 dcbd 6c71 e4bd 8ecf 893a 0696 b13d
00000050: b211 10be 6f41 983d b0d3 90bd b301 acbb
00000060: c65e 4c3d d8dd 96bd 94e4 50bd c742 3cbd
00000070: 9f10 e8bd 7918 fdbc 2ca4 953d 81a7 ba3d
00000080: f05b 08be 2202 67bd c303 e8bd 159c ba3d
00000090: 359e 89bd 70bb ab3c d869 61bd 8f7a b4bc
000000a0: 0b83 b33c 302c 8b3d 5b46 efbd bc52 5f3d
000000b0: fb20 3c3d b48d 2cbd 69b4 f6bd fd65 123d
000000c0: 4fc6 10be b19b 84bb d8f2 51bd 67d1 b0bd
000000d0: 9c3b 97bc 5f06 2c3d 7228 503d dd13 bfbd
000000e0: caec be3d 949e 9f3b 6961 1bbd 521e 0f3d
000000f0: 5a19 19bd e558 123d 3c45 1c3d 1890 03be
00000100: 0413 08be f379 c1bd f0f1 853c f067 cbbd
00000110: 54b3 6c3d 05e3 903d a62c 4c3d 37e0 5c3d
00000120: 6d17 e03b 5349 5d3d c1a9 d9bd 923b 12be
00000130: 0ab2 4e3d c9cf 07be 51a8 4ebc b04a 94bc
00000140: cde7 913d fb50 adbc 71f5 0cbe 35d6 6dbd
00000150: f5fa 373d 6048 0bbe 0a3e 903d 95f2 debc
00000160: 5e6c 2f3d d5d0 c6bc b608 93bc ff9a 653d
00000170: 1193 e9bd ea25 13bd 8e31 36bc e6f5 353c
00000180: 1638 cb3c 82ab 7b3d 8823 9ebd e894 5cbd
00000190: 447d e13a 4434 703d 4b05 323d b67b 92bc
000001a0: e32f ffbd c2ad 843d 07cb f93b b0a7 13be
000001b0: 9765 b0bc 0824 923c dd3f 76bd 1a80 173d
000001c0: 1d73 443d 473d c2bd 0b72 023c 652b f4bc
000001d0: 3005 e53a 307f e4bd 3c0a 0bbe ddbd 1bbe
000001e0: b8bf adbd 5352 a43c 464e b03d d423 aa3c
000001f0: 9d62 10be 5f78 ac3a 9e8d 7dbd d4e0 573c
00000200: 1101 2c3e f45d a13d 4ccb 043e 3d20 f93d
00000210: eb10 653d 3c66 5c3e c2c2 1c3e 2d51 4ebd
00000220: 6cc8 173e 62bb 78ba ce84 833d fed9 3c3d
00000230: 444f 0abc 17f5 b7bd 0b3a ba3d d9ad ce3d
00000240: 36bb ab3d 826c 963d 88d3 39bd cb66 523d
00000250: d0c4 a43d 86c3 233e 42d4 ee3d 5afe a33c
00000260: 8a81 5d3e bfae 553e 1e2d b23d 4016 ae3c
00000270: c5b6 053e be6e 813d 635e 513e 818b 283e
00000280: f340 67bd aff5 6e3d 3be5 2c3e 3453 ae3d
00000290: 743b 6b3d 723c fbbd 3d80 873c 0337 4e3d
000002a0: a228 513e 8d88 483e b91e 013e 201c 9f3d
000002b0: e737 6d3d 9f13 5dbd 5c4a 1c3c a1ab 1cbc
000002c0: ca58 d5ba 332a e73d f41d f63d 49c3 6a3d
000002d0: 851b df3d ecb6 553e 7586 2c3d dfca d13d
000002e0: d0eb f83d 2511 ae3d d8bb c93c 3bf3 cabc
000002f0: 97b7 973d 5eca b8bd a468 983d 4cf3 233d
00000300: 54ad b43d deef 8f3d 3f84 ba3c d0d3 99bb
00000310: c7cc 3a3c 2338 0abd 0b2a efbd 1b45 4d3d
00000320: af8b 8cbb 9258 c5bd 4e28 06bc 0f03 7bbc
00000330: 1c14 0ebc 4b10 dbbd aa85 6e3d 2a80 cfbc
00000340: 8695 94bd 33ce 4cbd 6f8f 583b 1556 88bd
00000350: 60a1 d2bd 8208 7ebd fc25 7c3d 2dfb 413d
00000360: 60fc c9bc e30d 93bd 52f6 17be 7061 efbd
00000370: 4577 94bd f0e4 7fbc ba82 d3bc 889c 10be
00000380: 6dd6 dbbd f13f f43c 57d8 35bb a5a5 32bd
00000390: 33d7 3fbd 4465 193d 6c62 923d be60 3abd
000003a0: 140a 03be a6a8 3c3d 1742 e2bd b558 2c3d
000003b0: 5db3 e43c e4a4 8c3d 6df7 b23d e566 10bd
000003c0: 2928 13be 7f60 b1bd 00df 6e3d 5674 8c3c
000003d0: ecf8 ddbd 2bc0 f8bd 6125 a63c bdab 75bd
000003e0: 9cd7 f9bd d525 903b a891 fabd ee6d 4b3d
000003f0: 6762 a9bd 2f04 3bbd feb7 9a3d 80a5 dabd

network.3.bias f4 [32]
-0.080346234 -0.123304375 0.015474907 0.054515395 0.09515716 0.07599345 -0.044536337 0.06856646
0.10169566 0.065200515 0.11468451 0.01955092 -0.0069854986 -0.033917297 0.13371168 -0.1440636
0.024197461 0.08858707 0.10845259 -0.044603504 0.088981 0.072046585 0.00949556 -0.048607755
-0.08444008 0.12391199 0.016874792 -0.08153782 0.059774205 0.14006214 0.13351823 0.079156205
00000000: 918c a4bd 0187 fcbd 778a 7d3c 894b 5f3d
00000010: c2e1 c23d 74a2 9b3d bc6b 36bd 926c 8c3d
00000020: d045 d03d d987 853d b6df ea3d 4029 a03c
00000030: 9ce6 e4bb ddec 0abd b7eb 083e 6985 13be
00000040: c139 c63c 236d b53d 641c de3d 2ab2 36bd
00000050: ac3b b63d 298d 933d 4493 1b3c ed18 47bd
00000060: ecee acbd 92c5 fd3d 013d 8a3c 4dfd a6bd
00000070: ccd5 743d 736c 0f3e 01b9 083e a61c a23d

network.6.weight f4 [2, 32]
-0.12897971 -0.017229058 0.01548833 -0.01086522 -0.09848707 -0.07761186 0.16158427 0.12353518
0.0016693887 -0.007912668 -0.06147492 -0.114336535 -0.0010135438 0.07546394 0.0066944114 -0.13058674
0.14497459 -0.02695577 0.00932487 -0.092959 0.036116578 -0.049430214 -0.035919797 -0.082598574
-0.0795173 -0.064866625 -0.059786703 0.07926309 -0.07920797 0.020158643 0.009662629 0.121623464
0.06971537 0.018217368 -0.22784472 0.13258806 0.1331741 0.11882733 0.051845074 0.13787806
-0.11639035 0.08503188 -0.14539425 0.08444932 -0.17696287 0.063855596 -0.18192679 0.11501555
0.0014112741 -0.1423065 -0.15686017 0.018761702 -0.22017573 -0.17200689 -0.20335197 -0.26330474
0.00626407 -0.13476576 0.080834016 -0.14381036 -0.19775492 -0.1065717 -0.18025242 -0.09258406
00000000: 4213 04be f423 8dbc c4c2 7d3c 0904 32bc
00000010: 97b3 c9bd f8f2 9ebd 5976 253e 0300 fd3d
00000020: 64cf da3a 23a4 01bc 20cd 7bbd 4629 eabd
00000030: e3d8 84ba d78c 9a3d cb5c db3b 88b8 05be
00000040: 3874 143e 59d2 dcbc 57c7 183c 4a61 bebd
00000050: faee 133d 5677 4abd a320 13bd 7129 a9bd
00000060: f7d9 a2bd cbd8 84bd e7e2 74bd b054 a23d
00000070: ca37 a2bd bd23 a53c 0150 1e3c b915 f93d
00000080: efc6 8e3d 973c 953c 2050 69be 2ac5 073e
00000090: cb5e 083e be5b f33d 805b 543d e82f 0d3e
000000a0: 105e eebd 3225 ae3d 3be2 14be c4f3 ac3d
000000b0: c135 35be b9c6 823d 044b 3abe 468d eb3d
000000c0: 80fa b83a ccb8 11be f49f 20be 24b2 993c
000000d0: bf75 61be 9322 30be 803b 50be e1cf 86be
000000e0: d442 cd3b 0900 0abe 4e8c a53d 0643 13be
000000f0: 4480 4abe 4342 dabd 1794 38be b69c bdbd

network.6.bias f4 [2]
0.18553692 -0.14385524
00000000: 64fd 3d3e ca4e 13be

exp_avg f4 [64, 15]
0.0040882993 0.0041297604 0.003903678 0.0036417784 -0.00044551003 -0.007435005 -0.0026184223 -0.0012439725
0.002413065 0.008699071 0.0025499307 -0.004477997 0.0 0.0039226077 0.0005559561 0.0048191026
0.0049111177 0.0045122006 0.0044597876 0.002281208 -0.007478652 -0.0005605905 0.0008666344 0.007000919
0.012290681 0.0035881253 -0.00051606103 0.0 0.004062769 0.00017693029 0.0021817514 0.0023204368
0.0021969292 0.002224016 0.002392436 -0.006978464 0.0025234583 0.0039903615 0.0014193185 0.004598808
0.0022669353 6.1280516e-05 0.0 0.003501416 2.4474886e-05 0.0030354534 0.0033116555 0.0029841533
0.0028780962 0.0011117379 -0.008802572 -0.002406979 -0.0007763463 0.005410613 0.0023146379 0.0033200516
0.0013958035 0.0 0.005711714 0.0008680441 0.0010454445 0.0010464663 0.0009651288 0.0009685484
0.0009726265 -0.0010852339 0.0013981377 0.0016422792 0.0043587233 -0.0057994165 0.004566984 0.0009773244
0.0 0.0043768487 0.00060779374 -0.0086333975 -0.008655677 -0.008959894 -0.00919032 -0.0067265076
0.003628306 -0.010436306 -0.011615013 0.0030780036 -0.017130656 -0.00076288986 0.00040064217 0.0
0.00050660386 0.00024915749 -0.008610765 -0.00865239 -0.00868993 -0.008729267 -0.0125845065 0.0038506906
-0.0060662096 -0.0072029466 0.0018293047 -0.02364023 -0.0028928558 0.0015900355 0.0 0.0029007061
0.006619385 -0.00025876865 -0.00029216523 2.853745e-05 -9.139915e-05 -0.0043448117 -0.00083398964 0.0006133859
0.0007717621 -0.004621697 0.002545916 -0.0023098849 -0.005461143 0.0 -0.0033073311 -0.00784071
-0.005147904 -0.0051640742 -0.0053309905 -0.0055607925 0.010992259 -0.014767718 0.0023770349 0.0052759736
0.013793722 0.010684347 0.019717641 -0.003481138 0.0 0.01636268 -0.0007335642 0.0012547713
0.0013057917 0.0013325488 0.00136236 -0.009309859 0.0067384616 0.003084706 0.0016758776 -0.0013245598
-0.027973289 0.008277778 -0.0046013016 0.0 0.0074612815 -0.0001122053 -0.0048313313 -0.004727268
-0.004904781 -0.00485102 0.006114342 0.0014259071 0.0041530193 0.0039698523 0.005096943 -0.00046903116
0.0060911532 0.0016408717 0.0 0.0018139824 0.006028551 -0.0077267415 -0.0076341177 -0.007863521
-0.0080156075 0.003268067 -0.0118537005 -0.0054365825 -0.00335585 0.0042004553 0.005957924 0.0021569543
0.0016107326 0.0 0.0038193406 0.0011211969 -0.00083520456 -0.0009033196 -0.0008290199 -0.00088157586
-0.0113335205 -0.0016106354 -0.0066717663 -0.006491952 -0.010194302 0.00569395 -0.014138397 -0.00379062
0.0 -0.013159816 -0.007122331 -0.000636197 -0.00043024728 -0.0006452369 -0.00052865816 0.009824617
-0.005191879 0.007759492 0.008997193 0.010852529 0.002438246 0.013607623 0.0037637542 0.0
0.012012063 0.0083574625 -0.0038864824 -0.0038766228 -0.0038964362 -0.0038909062 -0.001100133 -0.00061999174
-0.0042128065 -0.004208405 -0.0030440765 -0.0030961144 -0.0005809602 -0.00077774265 0.0 -0.0046504377
-0.00048367472 -0.0094797695 -0.009559127 -0.009720079 -0.009693325 0.0026467552 0.0034816735 -0.005010719
-0.0059170476 0.0014224402 -0.0074982266 -0.0004613948 -0.0015200258 0.0 -0.0019205025 -0.00094529736
0.0004985784 0.0005817442 0.00052763824 0.00059379335 0.003971108 -0.0028177605 0.0041711233 0.004872465
0.007468513 -0.0039678053 0.0104910415 -0.00046115447 0.0 0.012326325 0.00063079013 -0.0005059479
00000000: 24f7 853b f152 873b d9d4 7f3b e7aa 6e3b
00000010: 5893 e9b9 58a1 f3bb d699 2bbb ca0c a3ba
00000020: 8324 1e3b 8c86 0e3c bd1c 273b 29bc 92bb
00000030: 0000 0000 3889 803b 95bd 113a 90e9 9d3b
00000040: 71ed a03b 15db 933b 6923 923b 5280 153b
00000050: 7b0f f5bb 97f4 12ba da2e 633a f767 e53b
00000060: da5e 493c c126 6b3b 4548 07ba 0000 0000
00000070: fa20 853b 5d86 3939 b7fb 0e3b 7812 183b
00000080: 5bfa 0f3b ccc0 113b 6aca 1c3b 99ab e4bb
00000090: 9b60 253b 94c1 823b 6d08 ba3a 99b1 963b
000000a0: dd90 143b ba83 8038 0000 0000 0378 653b
000000b0: 6b4f cd37 75ee 463b 5c08 593b c991 433b
000000c0: 719e 3c3b bcb7 913a aa38 10bc 68be 1dbb
000000d0: b883 4bba 834b b13b 2eb1 173b 3995 593b
000000e0: 65f3 b63a 0000 0000 5429 bb3b 748d 633a
000000f0: 4c07 893a 9529 893a b300 7d3a 2fe6 7d3a
00000100: dcf7 7e3a 683e 8eba b741 b73a bf41 d73a
00000110: 9fd3 8e3b 0809 bebb a3a6 953b 9119 803a
00000120: 0000 0000 ab6b 8f3b 5954 1f3a 1873 0dbc
00000130: 8ad0 0dbc 85cc 12bc ff92 16bc 096a dcbb
00000140: e0c8 6d3b 0afd 2abc e54c 3ebc 55b8 493b
00000150: 9755 8cbc acfc 47ba 480d d239 0000 0000
00000160: 9ccd 043a 5aa1 8239 2b14 0dbc c1c2 0dbc
00000170: 3560 0ebc 3305 0fbc 3f2f 4ebc de5b 7c3b
00000180: 0ec7 c6bb b206 ecbb 48c5 ef3a 28a9 c1bc
00000190: 1196 3dbb bd68 d03a 0000 0000 c619 3e3b
000001a0: 6de7 d83b 57ab 87b9 c12d 99b9 b563 ef37
000001b0: 8cad bfb8 ec5e 8ebb 19a0 5aba a2cb 203a
000001c0: 1450 4a3a 9b71 97bb 62d9 263b 7061 17bb
000001d0: 63f3 b2bb 0000 0000 cfbf 58bb 5276 00bc
000001e0: c0af a8bb 6537 a9bb 97af aebb 4f37 b6bb
000001f0: e018 343c 4cf4 71bc 07c8 1b3b 13e2 ac3b
00000200: 10ff 613c 660d 2f3c e486 a13c ce23 64bb
00000210: 0000 0000 070b 863c a94c 40ba 2377 a43a
00000220: 1927 ab3a eba8 ae3a 3791 b23a 6188 18bc
00000230: 50ce dc3b c728 4a3b 1fa9 db3a da9c adba
00000240: 3d28 e5bc 849f 073c 84c6 96bb 0000 0000
00000250: c47d f43b c34f ebb8 2550 9ebb 33e7 9abb
00000260: 49b8 a0bb 4ef5 9ebb d15a c83b 81e5 ba3a
00000270: 0d16 883b 8915 823b 4204 a73b 4ce8 f5b9
00000280: 4c98 c73b 8512 d73a 0000 0000 26c3 ed3a
00000290: 278b c53b 9b30 fdbb 9f27 fabb ffd5 00bc
000002a0: e553 03bc 112d 563b 0636 42bc 5c25 b2bb
000002b0: d2ed 5bbb f9a3 893b b03a c33b b05b 0d3b
000002c0: 381f d33a 0000 0000 e74d 7a3b 20f5 923a
000002d0: a1f1 5aba c1cc 6cba 9552 59ba 8e19 67ba
000002e0: 3bb0 39bc f51b d3ba d59e dabb 71ba d4bb
000002f0: 0006 27bc 5194 ba3b bca4 67bc 0d6c 78bb
00000300: 0000 0000 459c 57bc 7162 e9bb 75c6 26ba
00000310: d092 e1b9 1e25 29ba a695 0aba 6ef7 203c
00000320: a320 aabb 5643 fe3b f668 133c cece 313c
00000330: fbca 1f3b 82f2 5e3c 51a9 763b 0000 0000
00000340: 3ece 443c bded 083c 5bb4 7ebb f00e 7ebb
00000350: 5a5b 7fbb 93fe 7ebb 5732 90ba f186 22ba
00000360: 950b 8abb a9e6 89bb 217f 47bb 2ee8 4abb
00000370: 944b 18ba 6de1 4bba 0000 0000 b362 98bb
00000380: b995 fdb9 0951 1bbc e29d 1cbc f740 1fbc
00000390: c0d0 1ebc 2f75 2d3b ca2c 643b f530 a4bb
000003a0: cbe3 c1bb 2c71 ba3a afb3 f5bb 5de7 f1b9
000003b0: 9a3b c7ba 0000 0000 5fb9 fbba d5cd 77ba
000003c0: 08b3 023a 3180 183a 3451 0a3a cca8 1b3a
000003d0: 1120 823b 2daa 38bb ebad 883b 33a9 9f3b
000003e0: 6eba f43b 5d04 82bb 9ee2 2b3c 1bc7 f1b9
000003f0: 0000 0000 5bf4 493c 9c5b 253a 97a1 04ba

exp_avg_sq f4 [64, 15]
0.00014885276 0.0001517682 0.00014965136 0.00015095722 0.009002436 0.00020555459 0.0024495306 0.002841577
0.0037681472 0.0001392991 0.019407215 1.46992315e-05 0.0 0.0024713282 2.4862002e-06 2.95401e-05
3.265942e-05 2.9867399e-05 3.175878e-05 2.9450814e-05 3.0865245e-05 0.00027373782 0.00030965175 0.00041311298
3.5631743e-05 0.00013785862 4.7017406e-06 0.0 0.00016432357 3.464538e-07 1.0401034e-05 1.1418747e-05
1.06811995e-05 1.1313861e-05 0.0001240578 1.2336372e-05 0.00013251297 0.00015129083 0.0002043579 1.1778755e-05
0.0002929085 1.1155937e-06 0.0 0.000105028004 8.2822424e-07 1.830502e-05 2.0537656e-05 1.9015803e-05
2.0271544e-05 3.103941e-05 2.1844528e-05 0.0002042967 0.00023069073 0.00030937328 2.0640711e-05 0.00011553077
9.5349424e-07 0.0 0.0001282661 3.6876781e-07 4.4102144e-06 4.4177523e-06 4.4680623e-06 4.4688923e-06
0.00014348804 4.599374e-06 4.87676e-05 5.5072305e-05 7.245471e-05 7.2140456e-06 0.00031113334 2.0903084e-07
0.0 6.3214124e-05 8.084354e-08 5.9782276e-05 6.106372e-05 6.131267e-05 6.0031056e-05 1.3832774e-05
4.946565e-05 2.3935097e-05 2.0859083e-05 2.3888575e-05 6.2669846e-05 4.145548e-06 3.176459e-06 0.0
5.133406e-06 1.2285088e-06 4.8740298e-05 4.894325e-05 4.8695623e-05 4.8914757e-05 2.6711345e-05 4.0921983e-05
2.8923761e-05 2.8629056e-05 1.7226936e-05 5.3090283e-05 8.355084e-06 1.4060448e-05 0.0 8.701355e-06
6.0417067e-05 2.06247e-05 2.039926e-05 1.9913075e-05 1.9818637e-05 1.0631816e-05 2.0082995e-05 1.1112876e-05
1.1116708e-05 1.1862489e-05 1.6131127e-05 5.851632e-06 3.3534e-05 0.0 1.8302273e-05 4.1309457e-05
9.6379605e-05 0.000103517166 9.658469e-05 0.000102675695 0.0033584146 0.00015117945 0.0017513309 0.0020041629
0.0026864544 0.00011551211 0.0075034206 7.2658645e-06 0.0 0.0014995873 1.19768e-06 4.7654532e-05
4.7910715e-05 4.7622176e-05 4.8008646e-05 5.3448446e-05 7.459877e-05 3.3694003e-05 2.9217648e-05 2.6966482e-05
9.130579e-05 2.8962746e-05 1.6039543e-05 0.0 4.3280626e-05 8.3930087e-07 6.3606334e-05 6.0853203e-05
6.418709e-05 6.1808125e-05 0.004505394 6.624894e-05 0.0009208112 0.00107171 0.0014105084 3.933557e-05
0.009555456 3.7999973e-05 0.0 0.0010824364 8.137149e-05 3.7707963e-05 3.8320777e-05 3.8484162e-05
3.8347178e-05 6.696098e-06 2.7981006e-05 7.400274e-06 5.80673e-06 7.759595e-06 2.9198569e-05 2.1182507e-06
1.6454069e-06 0.0 5.7105644e-06 5.9130963e-07 1.4308863e-05 1.44123815e-05 1.4417267e-05 1.4504454e-05
0.0009511051 2.9857303e-05 0.00029349214 0.00033691348 0.00043938874 2.6217906e-05 0.0020134738 3.864667e-05
0.0 0.0003282964 3.392764e-05 3.314136e-06 3.7025845e-06 3.229873e-06 3.4880748e-06 2.2830789e-05
3.894758e-06 3.756365e-05 4.285703e-05 5.700467e-05 2.630438e-06 4.9529466e-05 1.5588672e-05 0.0
4.5394052e-05 4.379698e-05 9.780462e-05 9.219058e-05 9.820787e-05 9.413478e-05 0.010830338 0.00015005084
0.002163894 0.0025199857 0.0032867526 9.740694e-05 0.023255492 3.4106074e-06 0.0 0.0024975196
1.3190671e-06 1.921087e-05 1.9304605e-05 1.8890572e-05 1.8853332e-05 3.916868e-06 2.5409008e-05 1.8534618e-05
1.701474e-05 9.472597e-06 2.0462374e-05 1.5473792e-06 8.2301784e-07 0.0 1.3620113e-06 3.1830558e-07
4.9938303e-06 4.925204e-06 5.0086937e-06 4.956655e-06 0.0003254126 7.916147e-06 8.426515e-05 9.665231e-05
0.00012977002 6.9160233e-06 0.00071358524 5.4054035e-06 0.0 0.00012144261 2.049689e-05 2.420092e-05
00000000: 5c15 1c39 f723 1f39 bbeb 1c39 454a 1e39
00000010: f47e 133c 248a 5739 4e88 203b c039 3a3b
00000020: 05f3 763b d110 1239 e1fb 9e3c b89c 7637
00000030: 0000 0000 02f6 213b 98d8 2636 e2cc f737
00000040: c9fb 0838 c08b fa37 bb34 0538 240d f737
00000050: 4e75 0138 7884 8f39 c158 a239 1697 d839
00000060: 4b73 1538 248e 1039 a5c3 9d36 0000 0000
00000070: 464e 2c39 3f00 ba34 1a80 2e37 2593 3f37
00000080: 6733 3337 aad0 3d37 8315 0239 50f8 4e37
00000090: 2ef3 0a39 d3a3 1e39 e848 5639 5e9d 4537
000000a0: 8391 9939 82bb 9535 0000 0000 7b42 dc38
000000b0: 2353 5e35 bb8d 9937 4848 ac37 2084 9f37
000000c0: cf0c aa37 5030 0238 c43e b737 7a38 5639
000000d0: 92e5 7139 6133 a239 9725 ad37 1c49 f238
000000e0: a0f3 7f35 0000 0000 2b7f 0639 10fb c534
000000f0: 74fb 9336 343c 9436 5dec 9536 7ef3 9536
00000100: 4775 1639 5254 9a36 d08b 4c38 70fd 6638
00000110: d4f2 9738 2e10 f236 9c1f a339 f671 6034
00000120: 0000 0000 d391 8438 359c ad33 bbbe 7a38
00000130: 560f 8038 fd94 8038 dbc9 7b38 5013 6837
00000140: 5679 4f38 3bc8 c837 8afa ae37 5364 c837
00000150: 9e6d 8338 fc19 8b36 262b 5536 0000 0000
00000160: 9f3f ac36 3ee3 a435 7f6e 4c38 6a48 4d38
00000170: 873e 4c38 d229 4d38 2d12 e037 a5a3 2b38
00000180: 4ea1 f237 6e28 f037 9082 9037 42ad 5e38
00000190: d02c 0c37 2ae5 6b37 0000 0000 09fc 1137
000001a0: 5568 7d38 3503 ad37 141f ab37 010b a737
000001b0: 3340 a637 4d5f 3237 e777 a837 7071 3a37
000001c0: e681 3a37 0105 4737 5551 8737 2359 c436
000001d0: dca6 0c38 0000 0000 d587 9937 b143 2d38
000001e0: 681f ca38 5b17 d938 838d ca38 9853 d738
000001f0: d918 5c3b ed85 1e39 ea8c e53a 4658 033b
00000200: 3a0f 303b 183f f238 41df f53b 4dcd f336
00000210: 0000 0000 cd8d c43a f9bf a035 aae0 4738
00000220: bdf3 4838 ecbd 4738 e45c 4938 d52d 6038
00000230: e971 9c38 a952 0d38 6c18 f537 1436 e237
00000240: 6c7b bf38 06f5 f237 a88c 8637 0000 0000
00000250: 3888 3538 514c 6135 6464 8538 a13c 7f38
00000260: 2e9c 8638 fc9e 8138 fca1 933b 21ef 8a38
00000270: 9862 713a 9f78 8c3a cfe0 b83a 3ffc 2438
00000280: 7d8e 1c3c 2962 1f38 0000 0000 8ae0 8d3a
00000290: fca5 aa38 9e28 1e38 9fba 2038 0e6a 2138
000002a0: f8d6 2038 0baf e036 c1b8 ea37 df4f f836
000002b0: 6ed7 c236 352f 0237 73ef f437 4527 0e36
000002c0: c0d7 dc35 0000 0000 609d bf36 7dba 1e35
000002d0: 1910 7037 b5cc 7137 b1e1 7137 2858 7337
000002e0: 9553 793a 1276 fa37 d9df 9939 c3a3 b039
000002f0: c25d e639 86ee db37 7cf4 033b 8c18 2238
00000300: 0000 0000 321f ac39 874d 0e38 6c68 5e36
00000310: eb79 7836 ccc0 5836 ab14 6a36 bf84 bf37
00000320: b7af 8236 a98d 1d38 63c1 3338 4c18 6f38
00000330: 9586 3036 dcbd 4f38 6bc4 8237 0000 0000
00000340: 7e65 3e38 a6b2 3738 751c cd38 7156 c138
00000350: f3f4 cd38 3a6a c538 bb71 313c f756 1d39
00000360: 1ed0 0d3b 5826 253b 8f66 573b f446 cc38
00000370: 4d82 be3c cae1 6436 0000 0000 6dad 233b
00000380: cd0a b135 0727 a137 53f0 a137 3277 9e37
00000390: 3927 9e37 a46d 8336 6e25 d537 ca7a 9b37
000003a0: e0ba 8e37 7fec 1e37 9da6 ab37 8baf cf35
000003b0: 5bed 5c35 0000 0000 5ace b635 96e3 aa34
000003c0: ad90 a736 2e43 a536 5a10 a836 5851 a636
000003d0: 249c aa39 98cf 0437 82b7 b038 d0b1 ca38
000003e0: e012 0839 3010 e836 e50f 3b3a 1060 b536
000003f0: 0000 0000 01af fe38 bcf0 ab37 1403 cb37

exp_avg f4 [64]
-0.007882547 -0.0015929773 -0.00022045402 -0.00781562 -0.0054724007 -0.002243343 -0.0035397504 -0.0016801482
0.0019183333 -0.0010684282 -0.005872962 -0.0100949425 0.0014182469 0.0029246423 0.004354869 0.008511186
-0.00050059427 0.004091283 -0.0026085281 -0.0018605713 -0.0005649944 -0.005607846 -0.0046902355 -0.0008439975
-0.006374162 -0.001832667 -0.0019674674 -0.0025637245 0.00075599406 0.0030180074 -0.0052254256 -0.0015317837
-0.0035744573 0.0013392926 -0.0058130086 -0.009166188 0.0028052086 -0.0012076005 -0.006241986 0.002221433
-0.0014544183 -0.00853282 -0.0024715315 0.00051210873 -0.0067044757 0.0023960976 0.00050624606 -0.008333945
-0.0033683942 0.00050440175 0.011965693 -0.007369102 -0.0009657036 -0.007256907 -0.0018164018 -0.0023136416
-0.0066488977 -0.000968591 -0.0046027564 -0.00047631917 -0.0018614643 0.0013638526 -0.0018299768 -0.0047545177
00000000: cc25 01bc 73cb d0ba ad29 67b9 160d 00bc
00000010: d351 b3bb 0d05 13bb 28fb 67bb 6b38 dcba
00000020: 9670 fb3a 800a 8cba fa71 c0bb 4265 25bc
00000030: 78e4 b93a 5bab 3f3b 4ab3 8e3b 8072 0b3c
00000040: 503a 03ba 2b10 863b d7f3 2abb 6ade f3ba
00000050: 221c 14ba 06c2 b7bb 8cb0 99bb b73f 5dba
00000060: 59de d0bb 1a36 f0ba a0f0 00bb 2904 28bb
00000070: e72d 463a c3c9 453b 0c3a abbb 22c6 c8ba
00000080: 7141 6abb 348b af3a 0d7b bebb c72d 16bc
00000090: 97d7 373b 5948 9eba 9389 ccbb 7695 113b
000000a0: 2ea2 beba 3ecd 0bbc 6bf9 21bb 093f 063a
000000b0: 38b1 dbbb d907 1d3b 99b5 043a 198b 08bc
000000c0: 47c0 5cbb d439 043a c10b 443c 8278 f1bb
000000d0: 4627 7dba 59cb edbb 5514 eeba 77a0 17bb
000000e0: ffde d9bb 0be9 7dba b8d2 96bb 7aba f9b9
000000f0: 61fc f3ba 4dc3 b23a d5db efba c9cb 9bbb

exp_avg_sq f4 [64]
0.00013238858 2.3884208e-05 1.2385677e-05 2.989484e-05 6.553733e-06 9.959133e-05 8.843511e-05 1.0893002e-05
9.4484545e-05 5.8413792e-05 5.414498e-05 4.8234047e-05 1.7649387e-05 3.0382298e-06 0.00010693264 2.5804024e-05
5.9847166e-06 3.6641602e-05 5.335258e-06 3.862122e-05 3.743951e-05 3.6282727e-05 5.1819547e-06 1.0658849e-05
5.1285497e-05 2.2371933e-05 1.6292533e-05 2.4447054e-05 7.805282e-06 2.8152897e-05 3.025399e-05 1.3211377e-05
5.469207e-05 1.5951468e-05 1.0391535e-05 4.8593774e-05 3.055774e-05 2.8581483e-06 5.4559246e-06 4.7195554e-05
5.421979e-05 8.748324e-05 1.9843941e-05 3.0013385e-05 4.685158e-05 2.8713983e-05 5.1703264e-06 3.2596003e-05
4.0923598e-05 1.4795402e-05 5.1885254e-05 1.8379804e-05 3.0505826e-05 2.9190545e-05 2.1618638e-05 4.3791835e-05
4.812275e-05 2.1046166e-05 2.144578e-05 2.5312189e-05 1.6951093e-05 9.621901e-06 2.7040618e-05 7.1216778e-06
00000000: cad1 0a39 f25a c837 14cc 4f37 aec6 fa37
00000010: 23e8 db36 b0db d038 3d76 b938 16c1 3637
00000020: 0126 c638 5501 7538 bb19 6338 ea4e 4a38
00000030: c50d 9437 64e4 4b36 0641 e038 b875 d837
00000040: 53d0 c836 9faf 1938 8405 b336 38fd 2138
00000050: 5e08 1d38 482e 1838 a7e0 ad36 68d3 3237
00000060: 621b 5738 5cab bb37 f3ab 8837 a613 cd37
00000070: 6ef3 0237 e329 ec37 f3c9 fd37 6fa6 5d37
00000080: 2a65 6538 84cf 8537 4e57 2e37 2bd1 4b38
00000090: 202b 0038 9dce 3f36 0912 b736 d7f3 4538
000000a0: 0e6a 6338 3577 b738 8a76 a637 41c5 fb37
000000b0: 8082 4438 cfde f037 c47c ad36 b1b7 0838
000000c0: 61a5 2b38 c539 7837 5e9f 5938 542e 9a37
000000d0: c3e6 ff37 38de f437 ac59 b537 20ad 3738
000000e0: 69d7 4938 4c8c b037 76e6 b337 8355 d437
000000f0: 3232 8e37 c06d 2137 49d5 e237 bff6 ee36

exp_avg f4 [32, 64]
-0.0010203224 -0.0016776262 -0.00013546199 -0.00024935813 6.319174e-06 -0.0005322164 4.092713e-05 -7.001576e-05
-0.00035904968 0.00017953292 -0.0009768985 -0.00053224375 -7.4120067e-06 -7.933958e-06 1.23728205e-05 4.4616313e-06
6.56661e-05 5.744314e-05 5.767429e-05 0.00020558889 4.3863365e-05 -0.0009502593 -9.169904e-05 3.5712128e-05
-0.0007624407 -0.0015888858 -5.8162877e-05 4.4310982e-05 6.742949e-05 -0.00012526805 -2.0029469e-05 -0.00023289282
6.0312108e-05 -4.153394e-05 6.761451e-05 -0.00022079622 1.3126317e-05 7.508799e-05 1.8471594e-05 2.9355776e-06
-0.0003910292 -0.00047637965 0.00023294849 -0.00045836475 -0.000149806 8.18868e-05 2.621992e-05 -0.0008789994
0.00047563645 4.1043233e-05 -9.3952345e-05 0.00016352032 -0.0012615183 -0.0006173578 8.4313986e-05 4.8200013e-06
-0.0004720646 0.00019593656 0.00015215509 -0.0007482518 0.00010299727 9.92184e-05 -0.00039606713 -0.0004803287
8.532207e-08 -1.4712036e-07 -3.1258565e-05 1.6788812e-05 1.592832e-05 -9.7747354e-05 -6.6262575e-05 7.513985e-05
4.381688e-06 -9.060432e-06 1.775131e-06 -2.550017e-05 -4.361429e-06 9.01668e-07 -5.502314e-05 8.983182e-06
-4.5435725e-05 5.095159e-06 1.0268591e-05 -5.5692828e-05 5.453123e-05 -9.068921e-07 -1.1807489e-06 -1.8733495e-05
3.225948e-05 5.5406867e-06 7.460318e-05 -2.7991275e-05 -0.00010170267 -2.192931e-06 -8.021849e-06 -1.9035876e-07
4.7572074e-05 6.725771e-05 -2.6158232e-06 2.7520302e-06 -2.1898555e-05 -6.4486867e-06 -5.733573e-05 9.798844e-05
-2.9190636e-05 5.2495972e-05 4.144333e-09 4.4026812e-05 6.245847e-05 -7.263035e-05 3.211281e-05 -3.0653155e-06
-1.5570907e-07 1.9405239e-05 1.8307452e-05 -5.0560462e-05 1.0962453e-06 -8.043381e-09 -1.4480928e-07 4.465225e-05
-8.689651e-06 -1.7044507e-05 4.4615495e-05 7.120408e-05 -4.9407165e-05 -5.045052e-05 -4.980598e-06 4.2914267e-10
0.0019615793 -0.0015122414 -0.0077235843 -0.007317063 -0.0034986713 -0.0035800687 0.008173427 -0.00041040705
-0.007256601 -0.0052516907 -0.0066028144 -0.008698898 -0.0061899996 -0.0036634328 0.0040477514 0.0017374228
-0.0053731906 -0.0059475475 -0.004173139 -0.005417184 -0.0012743773 -0.0014886615 -0.002246398 -0.004207695
-0.003691561 -0.008008745 -0.0032874593 0.0006058805 -0.001991411 -0.0057034274 -0.0061833076 -0.0017480759
-0.008947435 -0.0050600837 -0.004012734 -0.004070853 0.00079885294 -0.0011646259 -0.0025406023 -0.00045775995
-0.00724721 -0.007421182 0.0049303984 -0.0050070593 -0.0042805476 -0.004693679 -0.005484465 -0.0036869466
-0.006591475 -0.004604095 0.0007847441 -0.0054189693 -0.005418427 -0.0044866945 -0.0028407322 -0.000855428
-0.0051863133 -0.015312063 -0.004868332 -0.006996587 -0.007065267 -0.0076295324 -0.002841216 0.0010795662
4.6950783e-05 6.606087e-05 1.173427e-05 3.184281e-05 1.1836192e-05 1.3352363e-06 2.5330155e-07 6.232594e-06
3.0525112e-05 1.1334455e-07 1.6674425e-05 2.0330403e-05 8.911251e-07 4.4779504e-06 1.0454392e-07 5.8559245e-08
2.5808495e-06 7.4832165e-06 1.9031897e-06 3.0415658e-06 1.554795e-06 -1.7390984e-06 1.5694319e-05 4.6172698e-07
3.4326204e-05 2.9017141e-05 1.9732772e-08 1.02587876e-07 1.0078456e-07 1.8178947e-05 2.0852623e-08 2.2479122e-05
2.874714e-06 1.0520114e-05 6.7547703e-06 1.9094898e-05 3.3446536e-06 1.10503315e-07 1.5797602e-07 4.011975e-07
8.7235854e-08 5.5788405e-06 4.7205604e-06 2.3066634e-05 1.2329805e-06 2.8798188e-06 1.4327558e-05 3.2097545e-05
7.5239255e-09 1.6115657e-05 3.0910937e-06 4.7048024e-06 6.6371676e-06 4.48096e-06 1.18992875e-05 3.1967694e-08
1.8495347e-06 7.649634e-06 1.2144811e-07 2.4375888e-05 3.4983134e-06 1.09993856e-07 2.3308872e-05 8.724344e-06
00000000: 57bc 85ba cbe3 dbba cd0a 0eb9 48bc 82b9
00000010: 4b09 d436 7084 0bba 2ca9 2b38 6dd5 92b8
00000020: d53e bcb9 0041 3c39 460b 80ba 4686 0bba
00000030: a7b4 f8b6 171c 05b7 dc94 4f37 1fb5 9536
00000040: 38b6 8938 1aef 7038 4ce7 7138 5993 5739
00000050: eef9 3738 d21a 79ba 8c4e c0b8 9bc9 1538
00000060: 87de 47ba 2942 d0ba eaf3 73b8 8eda 3938
00000070: ef68 8d38 635a 03b9 f504 a8b7 b134 74b9
00000080: a2f7 7c38 ba34 2eb8 43cc 8d38 8985 67b9
00000090: 1a39 5c37 8f78 9d38 72f3 9a37 d700 4536
000000a0: 0d03 cdb9 98c2 f9b9 a243 7439 ad50 f0b9
000000b0: 3e15 1db9 a4ba ab38 d9f2 db37 a76c 66ba
000000c0: d85e f939 d625 2c38 4808 c5b8 a776 2b39
000000d0: 8859 a5ba 2ed6 21ba bad1 b038 7fbb a136
000000e0: 707f f7b9 5274 4d39 d28b 1f39 5426 44ba
000000f0: 3d00 d838 7913 d038 3ba7 cfb9 a0d4 fbb9
00000100: 4e3a b733 23f8 1db4 a11b 03b8 b3d5 8c37
00000110: cf9d 8537 b6fd ccb8 73f6 8ab8 6694 9d38
00000120: 6a06 9336 4202 18b7 0941 ee35 33e9 d5b7
00000130: 6458 92b6 270a 7235 a6c8 66b8 79b6 1637
00000140: 3d92 3eb8 15f7 aa36 4347 2c37 b897 69b8
00000150: 76b8 6438 2771 73b5 397a 9eb5 e025 9db7
00000160: 5a4e 0738 23ea b936 4774 9c38 cece eab7
00000170: 3549 d5b8 452a 13b6 9495 06b7 6b65 4cb4
00000180: 2088 4738 b50c 8d38 808b 2fb6 85af 3836
00000190: cab2 b7b7 cc61 d8b6 c57b 70b8 257f cd38
000001a0: 6ade f4b7 1f2f 5c38 f065 8e31 6ea9 3838
000001b0: 23fc 8238 1f51 98b8 deb0 0638 b8b5 4db6
000001c0: fc30 27b4 6fc8 a237 f492 9937 e210 54b8
000001d0: b422 9335 2a2f 0ab2 df7c 1bb4 fd48 3b38
000001e0: c4c9 11b7 cdfa 8eb7 8621 3b38 6653 9538
000001f0: 8a3a 4fb8 d59a 53b8 031f a7b6 76ec eb2f
00000200: d78d 003b 6736 c6ba 1f16 fdbb f9c3 efbb
00000210: f749 65bb 969f 6abb d6e9 053c e72b d7b9
00000220: c8c8 edbb 6016 acbb 6c5c d8bb d385 0ebc
00000230: 7bd5 cabb 3416 70bb 00a3 843b 3cba e33a
00000240: 9711 b0bb a5e3 c2bb d4be 88bb a282 b1bb
00000250: 0209 a7ba 311f c3ba 4e38 13bb b4e0 89bb
00000260: 1eee 71bb 1c37 03bc 6a72 57bb f4d3 1e3a
00000270: 5582 02bb d1e3 babb 589d cabb b21f e5ba
00000280: 4398 12bc 0fcf a5bb 417d 83bb ca64 85bb
00000290: 1d6a 513a 5ca6 98ba 3c80 26bb 80ff efb9
000002a0: 017a edbb 632d f3bb 2e8f a13b 4212 a4bb
000002b0: d643 8cbb 6fcd 99bb 07b7 b3bb b3a0 71bb
000002c0: 4dfd d7bb f3dd 96bb 49b7 4d3a 9c91 b1bb
000002d0: 0f8d b1bb 1f05 93bb 942b 3abb cd3e 60ba
000002e0: f3f1 a9bb 72df 7abc 8786 9fbb a043 e5bb
000002f0: c183 e7bb 2801 fabb b233 3abb 3b80 8d3a
00000300: 05ed 4438 298a 8a38 4ede 4437 f58e 0538
00000310: 0f94 4637 5f36 b335 80fd 8734 9321 d136
00000320: 1708 0038 d367 f333 0ee0 8b37 358b aa37
00000330: a735 6f35 4d41 9636 a181 e033 9282 7b33
00000340: a832 2d36 5718 fb36 1a71 ff35 b41d 4c36
00000350: 59ae d035 f76a e9b5 4ba7 8337 46e3 f734
00000360: 7bf9 0f38 d669 f337 d380 a932 484e dc33
00000370: e66e d833 fe7e 9837 671f b332 8c91 bc37
00000380: 36eb 4036 8c7f 3037 09a7 e236 fb2d a037
00000390: b674 6036 d74d ed33 1ea0 2934 2a64 d734
000003a0: 6b56 bb33 e031 bb36 4e65 9e36 387f c137
000003b0: e37c a535 e942 4136 6560 7037 7aa0 0638
000003c0: 9342 0132 1c30 8737 9670 4f36 f2dd 9d36
000003d0: d6b4 de36 275b 9636 0da3 4737 da4c 0933
000003e0: 873d f835 ee56 0037 6767 0234 d27a cc37
000003f0: 91c4 6a36 c335 ec33 6c87 c337 c65e 1237

exp_avg_sq f4 [32, 64]
8.41222e-06 1.17732e-05 2.7742546e-05 1.2786522e-05 1.6984271e-06 4.274889e-07 6.540864e-08 1.3023542e-07
1.9466363e-06 4.851895e-07 5.078415e-05 1.6056215e-06 6.4158354e-07 1.18378e-05 2.0538143e-06 7.022389e-10
5.0698463e-06 7.508667e-05 4.8028014e-06 1.5888034e-05 5.018695e-09 5.8546498e-06 8.637952e-06 1.4392873e-05
4.2161673e-06 2.354533e-06 6.7871454e-08 6.38378e-09 1.1946452e-08 0.00012920884 4.782664e-07 6.337153e-06
8.710144e-06 5.173166e-07 7.6806884e-08 0.00011085869 1.2941082e-06 5.8987385e-05 4.4842878e-07 2.4182788e-07
1.430852e-06 7.7556535e-07 3.8729192e-07 1.8160117e-06 5.0935614e-07 1.8940285e-05 1.4076553e-05 4.5554957e-06
1.0272674e-05 4.007944e-05 9.143913e-08 1.5021068e-07 3.2357442e-05 4.6985588e-06 8.324081e-05 1.5699811e-07
1.5803339e-06 0.0001865422 1.6971337e-05 7.979392e-06 3.2883308e-06 6.177745e-05 2.3613127e-06 1.3821237e-06
3.1535845e-09 3.78063e-11 2.969648e-08 1.0653939e-09 4.9473914e-09 2.8644695e-07 2.1461797e-07 3.170583e-08
2.7809794e-09 1.7317369e-07 3.2948293e-09 1.0242118e-08 8.4123556e-08 7.1181233e-10 3.102791e-08 1.23733015e-08
7.241815e-08 1.556425e-08 4.5410708e-08 7.9077665e-08 5.5901577e-08 5.5860698e-11 1.6043288e-08 6.6537273e-09
1.2370435e-08 8.48979e-10 1.3601027e-08 1.1523215e-08 2.1179044e-08 4.382839e-08 2.2360331e-07 7.241976e-09
7.6689545e-08 1.7594976e-07 1.0206114e-09 5.2218173e-08 1.3444591e-08 1.0504739e-08 7.676364e-09 2.1004803e-08
2.0778668e-08 9.1755474e-08 1.0829196e-09 4.2960466e-09 4.5347004e-08 8.515674e-08 1.0937518e-08 1.3563725e-09
7.189803e-09 2.4470237e-08 4.9581467e-10 1.3122019e-07 6.180039e-09 9.56487e-10 8.38015e-09 2.4950598e-08
4.931609e-08 8.074069e-08 7.251992e-08 3.7351615e-08 9.785611e-08 2.3650476e-07 6.7409993e-09 9.0233426e-10
0.00013121631 0.00019264163 0.0010121939 4.644109e-05 2.364244e-05 7.585043e-05 8.3840976e-05 1.4611659e-05
0.0001643946 3.0383357e-05 0.0027650306 4.2106258e-05 0.001259783 2.6495636e-05 0.00045023471 4.1456437e-06
0.0009332151 0.0040625506 0.00088623416 0.0012062069 9.629222e-06 6.576103e-05 7.498476e-05 0.00052942475
8.7491426e-05 8.434607e-05 5.690081e-06 8.325349e-06 1.3199234e-05 0.0044858754 2.9241619e-05 5.0556864e-05
0.00010209108 0.0023608962 8.366122e-06 0.0070744343 1.8619501e-05 0.0036540069 1.3123437e-05 0.00015611232
4.6341018e-05 4.6846504e-05 2.4608753e-05 4.376981e-05 1.9807363e-05 0.0013317956 0.00028464998 5.9098984e-05
0.0015273684 0.0017515101 6.058751e-06 2.6881347e-05 0.00027592573 5.0172832e-05 0.00691229 1.9744903e-05
3.1786774e-05 0.007877892 0.0014664972 0.0012308321 0.0006155954 0.0042054476 4.473502e-05 1.4102364e-05
2.1749047e-06 6.8752493e-06 1.7097582e-06 4.5534046e-07 1.0491531e-07 6.884872e-07 1.920878e-07 2.9649476e-07
1.9673025e-06 1.1842612e-07 1.7549597e-06 7.779916e-07 4.0851762e-07 7.689677e-08 3.521765e-07 5.2895444e-09
5.1596317e-07 4.5437423e-07 7.824813e-07 5.491018e-07 5.2354736e-08 5.214018e-07 2.9838068e-07 7.891704e-08
1.1662518e-06 1.0056596e-06 3.9667697e-10 6.4352626e-08 4.4730166e-09 5.508174e-07 1.6892533e-07 4.0644483e-07
1.0053251e-07 8.63e-07 2.3526583e-08 9.887686e-07 2.1319248e-07 1.644165e-07 3.4976058e-08 1.5813644e-08
4.1637895e-07 5.650186e-07 4.8609174e-08 4.201516e-07 2.0975799e-07 4.7654834e-07 5.7977746e-07 1.3842376e-06
1.3009753e-06 4.811997e-07 3.6307623e-07 4.0295484e-07 2.222268e-06 4.9606723e-07 5.05048e-07 2.0388203e-08
2.6657258e-07 1.1300597e-06 1.6088931e-07 2.6501564e-07 1.0135034e-06 9.1524026e-07 2.9044247e-07 1.2537491e-07
00000000: 3622 0d37 8285 4537 aab8 e837 b285 5637
00000010: 83f5 e335 a181 e534 c876 8c33 d7d6 0b34
00000020: f5a2 0236 f83d 0235 1101 5538 bc80 d735
00000030: 4939 2c35 f79a 4637 43d4 0936 ab07 4130
00000040: a61d aa36 d977 9d38 c027 a136 4b47 8537
00000050: e870 ac31 0f73 c436 b9eb 1037 eb78 7137
00000060: 9a78 8d36 9202 1e36 bac0 9133 5358 db31
00000070: 0d3d 4d32 3c7c 0739 3762 0035 bba3 d436
00000080: c921 1237 badd 0a35 08f1 a433 ce7c e838
00000090: 38b1 ad35 3969 7738 95bf f034 92d4 8134
000000a0: b30b c035 7230 5035 ffec cf34 b0bd f335
000000b0: b0ba 0835 f4e1 9e37 562a 6c37 69db 9836
000000c0: cd58 2c37 f91a 2838 315d c433 9949 2134
000000d0: 8ab7 0738 50a8 9d36 9291 ae38 5093 2834
000000e0: dc1b d435 8a9a 4339 ab5d 8e37 3adf 0537
000000f0: 18ad 5c36 848e 8138 0b77 1e36 6981 b935
00000100: 72b6 5831 1c46 262e 4017 ff32 376d 9230
00000110: b7fd a931 f8c8 9934 bd71 6634 ee2c 0833
00000120: 821b 3f31 9ff1 3934 406b 6231 50f5 2f32
00000130: 6aa7 b433 57a9 4330 8c43 0533 5b92 5432
00000140: 4d84 9b33 26b2 8532 9a09 4333 68d1 a933
00000150: 6f18 7033 8ead 752e 90cf 8932 ce9e e431
00000160: c085 5432 965d 6930 f3a9 6932 a3f7 4532
00000170: 36ed b532 d33d 3c33 9c17 7034 18d5 f831
00000180: 86b0 a433 b4ec 3c34 9245 8c30 7d46 6033
00000190: f0f9 6632 5578 3432 02e1 0332 0d6e b432
000001a0: c67c b232 1b0b c533 d9d5 9430 6d9c 9331
000001b0: 8fc3 4233 6adf b633 b6e7 3b32 1d6b ba30
000001c0: 2d0a f731 9f32 d232 db49 0830 88e5 0c34
000001d0: 3358 d431 6575 8330 4af8 0f32 f252 d632
000001e0: 9dcf 5333 aa63 ad33 3fbc 9b33 896c 2033
000001f0: f724 d233 eff1 7d34 759e e731 2108 7830
00000200: 1c97 0939 d8ff 4939 97ab 843a bec9 4238
00000210: c153 c637 e411 9f38 c8d3 af38 9924 7537
00000220: 5761 2c39 c3df fe37 8435 353b 409b 3038
00000230: 4e1f a53a f242 de37 7b0d ec39 cf1a 8b36
00000240: 01a3 743a 251f 853b 2b52 683a 9619 9e3a
00000250: 328d 2137 2fe9 8938 2341 9d38 18c9 0a3a
00000260: 9a7b b738 f4e2 b038 6ced be36 1aad 0b37
00000270: 4772 5d37 40fe 923b e64b f537 050d 5438
00000280: bb19 d638 44b9 1a3b 385c 0c37 a8d0 e73b
00000290: 1331 9c37 1078 6f3b bc2c 5c37 15b2 2339
000002a0: 4a5e 4238 0d7d 4438 e56e ce37 7a95 3738
000002b0: fd27 a637 a58f ae3a 133d 9539 0de1 7738
000002c0: fb31 c83a ed92 e53a 464c cb36 417f e137
000002d0: 20aa 9039 ab70 5238 7e80 e23b dba1 a537
000002e0: ca52 0538 4612 013c 7b37 c03a df53 a13a
000002f0: e85f 213a dacd 893b dda1 3b38 3199 6c37
00000300: 94f4 1136 f1b1 e636 d87a e535 8475 f434
00000310: cd4d e133 7bd0 3835 b140 4e34 ee2d 9f34
00000320: 0006 0436 7351 fe33 f58b eb35 2dd7 5035
00000330: 3c52 db34 7222 a533 c512 bd34 53bf b531
00000340: b880 0a35 b8f0 f334 b50b 5235 fd65 1335
00000350: a4dc 6033 75f6 0b35 2131 a034 1a79 a933
00000360: 1b88 9c35 33fa 8635 5213 da2f 3b32 8a33
00000370: 12b1 9931 e2db 1335 d761 3534 5a35 da34
00000380: 55e4 d733 e9a8 6735 8117 ca32 d5b5 8435
00000390: e7e9 6434 778a 3034 9538 1633 92d6 8732
000003a0: b08a df34 c8ab 1735 5ac6 5033 3291 e134
000003b0: d639 6134 4ed8 ff34 01a2 1b35 0bca b935
000003c0: 2c9d ae35 cb2b 0135 d1ec c234 b155 d834
000003d0: 4622 1536 7b29 0535 a292 0735 2222 af32
000003e0: 751d 8f34 8eac 9735 ebc0 2c34 7947 8e34
000003f0: b607 8835 d5ae 7535 1cee 9b34 cb9e 0634

exp_avg f4 [32]
-0.00038754396 -1.018908e-06 -0.017671878 3.4272514e-05 7.919916e-05 6.3179345e-05 0.005593658 -3.2655473e-06
-0.011210566 0.00013577119 -0.012727093 -0.0013043851 -0.017188983 0.0013869639 -0.017359324 0.0007223317
0.016213397 -0.012304154 -0.013879465 -0.0062059215 -0.0052285735 -0.0040725125 -0.0065625007 -0.010366217
0.0064874534 -0.0018613719 0.006779669 0.028558755 0.001530644 -0.008248572 -0.015808133 0.015448108
00000000: 452f cbb9 6ac1 88b5 9dc4 90bc d5bf 0f38
00000010: ba17 a638 277f 8438 014b b73b ad25 5bb6
00000020: 86ac 37bc cd5d 0e39 4c85 50bc e7f7 aaba
00000030: e9cf 8cbc c9ca b53a 2435 8ebc dc5a 3d3a
00000040: f5d1 843c 5d97 49bc b266 63bc 0b5b cbbb
00000050: 7454 abbb b672 85bb 3f0a d7bb 11d7 29bc
00000060: b494 d43b 47f9 f3ba fc27 de3b 0df4 e93c
00000070: e49f c83a 0525 07bc 0f80 81bc 101a 7d3c

exp_avg_sq f4 [32]
6.7942083e-06 4.4089492e-07 0.0004465334 9.629555e-06 1.2298499e-05 4.9824043e-06 8.642426e-05 4.9453996e-05
6.350864e-05 2.093986e-05 0.0003482925 6.244138e-05 0.00021369317 8.575101e-06 0.00027866263 0.00039382884
7.199801e-05 0.00010940529 0.000121212106 0.00014692445 0.0005786896 0.00035012505 0.00033904696 0.00069611747
0.00014398787 0.00039597822 0.00012085561 0.0007715973 0.0006127692 9.687215e-05 0.00013616403 0.00065593165
00000000: cef9 e336 23b4 ec34 b31c ea39 a08e 2137
00000010: a755 4e37 872e a736 ac3e b538 d36c 4f38
00000020: f12f 8538 02a8 af37 079b b639 f6f2 8238
00000030: d312 6039 c7dd 0f37 7719 9239 d07a ce39
00000040: a3fd 9638 8570 e538 4133 fe38 bb0f 1a39
00000050: 34b3 173a fd90 b739 1dc2 b139 a77b 363a
00000060: 73fb 1639 4c9b cf39 dd73 fd38 0545 4a3a
00000070: 3fa2 203a d727 cb38 41c7 0e39 d4f2 2b3a

exp_avg f4 [2, 32]
0.00060537946 -0.0003594556 0.5994615 0.00010832552 -0.00018912504 -2.4452649e-05 0.0011368049 0.00072076655
-0.03893876 -8.792633e-05 -0.045071438 0.006595294 -0.043471012 0.010074855 0.04700977 -0.005666607
-0.0020841232 -0.070426285 0.36853275 0.0017669072 0.862622 -0.22936867 -0.7466805 -0.1875444
-0.09249004 -0.23211296 -0.13393928 0.40762585 -0.22588013 0.22099227 0.13235548 0.071331844
0.00024812634 0.00034824177 0.1269049 3.44397e-05 2.0716747e-05 5.249176e-06 0.000868337 0.00014030401
0.10219246 9.448385e-05 0.044915907 0.0014442536 0.11240971 -0.0005958892 0.11733012 0.00040847866
-0.0019059841 0.09261099 0.11747746 0.005769754 0.10426928 0.07055404 0.11201246 0.06715138
0.005115882 0.0637615 -0.0015236001 0.024824603 0.052479837 0.07968237 0.088529706 0.0090535525
00000000: 54b2 1e3a 5075 bcb9 4f76 193f d22c e338
00000010: de4f 46b9 aa1f cdb7 d800 953a d3f1 3c3a
00000020: 407e 1fbd 1765 b8b8 d49c 38bd 561d d83b
00000030: a90e 32bd 0111 253c 518d 403d f2ae b9bb
00000040: c995 08bb a83b 90bd 53b0 bc3e 9197 e73a
00000050: ccd4 5c3f 9fdf 6abe 7426 3fbf a40b 40be
00000060: 6b6b bdbd 05af 6dbe 6127 09be 56b4 d03e
00000070: 1f4d 67be cc4b 623e 3288 073e 6e16 923d
00000080: f416 8239 3894 b639 5cf3 013e 5973 1038
00000090: e0c8 ad37 1422 b036 1ca1 633a 921e 1339
000000a0: 484a d13d a125 c638 bef9 373d 1c4d bd3a
000000b0: 1037 e63d 7335 1cba c64a f03d 1429 d639
000000c0: 37d2 f9ba d5aa bd3d 0698 f03d 3410 bd3b
000000d0: 228b d53d a37e 903d ca66 e53d aa86 893d
000000e0: 21a3 a73b 6495 823d 89b3 c7ba f75c cb3c
000000f0: 19f5 563d 8330 a33d 104f b53d 5a55 143c
