lightning_logs/version_46/checkpoints/epoch=29-step=60.ckpt (torch, 121499 bytes, 30 tensors)

gru.weight_ih_l0 f4 [96, 15]
000000 68 5c 53 3d b2 28 29 be af 8b 17 be 12 7a 36 bd
       0.051601797 -0.1651943 -0.14799379 -0.04455001
000010 fa 85 c5 bd 9f c4 8a 3b d2 91 be 3c 92 5d 14 be
       -0.096446946 0.004234865 0.023262892 -0.14488819
000020 f9 b0 13 3e c7 cd 07 be 9e 27 1e 3e 51 c8 8e 3d
       0.14422978 -0.13262092 0.154448 0.06971801
000030 2c 82 a9 3c 8c 01 cf 3d 8a 12 92 3d c5 3d a0 3b
       0.020691954 0.10107717 0.07132442 0.004890176
000040 60 df b3 3c f2 53 b3 bc b8 bb 01 3d f5 2e 4e bd
       0.0219571 -0.021890614 0.031673163 -0.05033775
000050 a4 e4 43 3a e3 b6 1e 3e a7 97 f5 bd e8 35 0f bd
       0.000747273 0.15499453 -0.11991816 -0.03496352
000060 b1 fe 6d bd 1b ef 80 3d 50 87 1c 3e 68 04 28 3e
       -0.05810422 0.06295606 0.15285993 0.16407931
000070 0a 68 86 bc 53 92 e9 3d b9 6b 0b 3e 62 b6 8c bd
       -0.016407032 0.11404862 0.13615312 -0.06870724
000080 11 8d a7 bd 02 30 36 3d 41 67 0b be a2 c9 22 3d
       -0.08181203 0.044479378 -0.13613607 0.039743073
000090 1a c3 06 be 99 21 14 3e 76 fa 10 3e 09 4a cd 3d
       -0.13160363 0.14465941 0.14158043 0.10023887
0000a0 d0 c1 71 bc 97 7c 4f bd 07 59 3e bd 75 6b 44 bb
       -0.014755681 -0.050655928 -0.04647162 -0.0029971276
0000b0 46 ac 30 be c4 cb 02 be de c4 12 3e 0a 13 c5 3c
       -0.17253217 -0.12773043 0.14332911 0.02405693
0000c0 98 e2 fa 3d 52 80 26 3e ce c8 a4 3d 55 7d 1b 3c
       0.122502506 0.16259888 0.08046113 0.009490331
0000d0 5b 98 e9 3d 4e b0 a9 bd bc 7c f6 bd 59 d5 23 be
       0.114060126 -0.082855806 -0.1203551 -0.15999354
0000e0 b0 96 9b 3c 5c 25 08 3d 71 4c 07 3c 3d 77 09 be
       0.018992752 0.033238754 0.008257971 -0.13424392
0000f0 df 7a 0e 3d 30 e6 88 3d 0e ee a7 bd ca 13 d3 3b
       0.034785148 0.0668453 -0.08199702 0.006441568
000100 be cf 1d be 01 87 fe bd 04 89 db bd a4 79 03 be
       -0.15411279 -0.12428094 -0.10719493 -0.12839371
000110 3d 1b 14 bc f6 5e ec 3d 85 15 00 3e 9e 64 6c bd
       -0.009039697 0.1154155 0.12508209 -0.057713144
000120 f3 e9 cb bd 27 e9 15 be ad a3 6c bd ab f2 15 3d
       -0.09956732 -0.14639722 -0.05777328 0.03660838
000130 be df 04 be 55 3d 40 3d dd f2 15 3e 41 e0 c2 bc
       -0.12975976 0.04693349 0.14643426 -0.023788573
000140 38 d7 78 3d ab 14 de 3d 28 fa 01 3e bc 53 19 be
       0.060752124 0.10843786 0.12693083 -0.14973348
000150 1d 93 04 be d2 a2 98 bd 41 92 8a bc be f6 c7 bd
       -0.12946744 -0.074529305 -0.016915442 -0.09763859
000160 1f 40 85 3d 52 cc 30 3e 8b 43 2b 3d 26 de 72 bb
       0.06506371 0.17265442 0.04181246 -0.003705868
000170 f6 78 12 3e 1f 4e 6c 3d a9 20 9e 3d 17 f5 99 3c
       0.14303955 0.05769169 0.07721073 0.018793626
000180 d8 78 10 3d 08 ca f8 bd dc 56 11 be b0 c3 11 3e
       0.035271496 -0.121479094 -0.1419329 0.14234805
000190 36 ce 30 be df 51 ae bd 53 f6 d7 bd c8 f4 4e 3d
       -0.17266163 -0.085117094 -0.105450295 0.05052641
0001a0 96 9a 01 be e3 1e d8 bd 3b b9 1e be 34 7f 66 bb
       -0.12656626 -0.10552766 -0.15500347 -0.0035171034
0001b0 c0 a3 15 be b4 03 33 3e d0 80 2d 3e 48 b0 28 be
       -0.14613247 0.17481881 0.1694367 -0.16473496
0001c0 a2 ad a7 3d 44 fa 2b 3e 3c 0a 33 bc ae 62 f6 bb
       0.08187415 0.16794688 -0.010927733 -0.0075190878
0001d0 68 d9 63 3d fc 52 c4 bc 97 08 82 bc 5e d7 8d bc
       0.055627257 -0.023965351 -0.015873237 -0.01731461
0001e0 78 03 53 3d d8 4f 44 3c 11 dc 1c be 1a 28 02 3e
       0.05151698 0.011981927 -0.15318324 0.1271061
0001f0 3b a2 f9 3d 12 a5 29 3d 84 a7 c7 bd 40 fa 32 3d
       0.12189146 0.04141719 -0.09748748 0.04369569
000200 26 7d f6 bd 48 b2 92 3c 1c cb b7 3d df 55 18 3e
       -0.12035589 0.017907277 0.08974287 0.14876507
000210 cf 06 1b bd fa 82 67 bd b7 a9 31 bd a8 a7 18 3a
       -0.03784829 -0.056521393 -0.043374743 0.00058233226
000220 8e 06 cc 3d b2 f3 10 bd ea 28 28 bc bf 2e 03 3e
       0.09962188 -0.035388656 -0.010263661 0.12810801
000230 b0 33 ac bd ed 5d e6 bd 70 68 8d bd c5 2c ff bd
       -0.08408296 -0.11248384 -0.069046855 -0.12459711
000240 cc 18 b7 3d 30 b7 ce bd 2a b7 3e bd 54 3f 07 be
       0.089402765 -0.10093534 -0.046561398 -0.13207752
000250 c1 f0 7c bd 03 31 d0 bb 16 3c a7 bd 08 f6 89 3d
       -0.06175304 -0.006353499 -0.08165757 0.0673638
000260 eb 90 cf 3b 55 2f 1a be a0 75 9a bd 3d ad bc 3d
       0.0063344142 -0.15057118 -0.075419664 0.0921273
000270 9c 4e b1 bd a9 9c 8f bc bf 49 73 bd ab 6c ce 3d
       -0.08657572 -0.017530756 -0.0593965 0.100793205
000280 70 f3 1f 3e 39 4c 05 3e fd 4b e2 bd 5f 01 dc bd
       0.15620208 0.13017358 -0.1104965 -0.10742449
000290 39 cb 26 be b0 33 28 3d 19 0c b6 bd f0 88 05 bc
       -0.16288461 0.041064918 -0.08889026 -0.008150324
0002a0 e3 7d e3 3d d5 e6 d5 bd fd 17 ed 3d d4 ab 2a be
       0.11107995 -0.10444418 0.11576841 -0.1666711
0002b0 9e 46 8d 3d 97 ad 1e 3e 78 f2 60 bd d3 bf 93 3c
       0.06898235 0.15495907 -0.054918736 0.018035805
0002c0 80 b2 f1 bd 0f 2a 12 bd 50 e1 6b bc 12 a7 ea bd
       -0.11801624 -0.03568464 -0.01439698 -0.114576474
0002d0 ac f6 2e be eb 89 4b 3d 49 64 b0 3d d7 3f cf bd
       -0.17086285 0.049692076 0.08612878 -0.10119598
0002e0 b6 c8 7f bd d6 40 ea bd e1 8a 12 bd d3 66 2e 3e
       -0.062447272 -0.11438148 -0.035776976 0.17031412
0002f0 de 87 9f bd f0 7d e5 bd df 8a 02 bc d4 95 70 bd
       -0.077895865 -0.11205661 -0.00796768 -0.058736637
000300 c7 b5 27 be 7b 1c e4 3d a3 95 0f be 2c 10 93 bd
       -0.16377936 0.11138245 -0.14021926 -0.07180819
000310 58 ce 04 3e 58 62 13 bc c5 ba ab 3d 46 e0 d9 3d
       0.12969339 -0.008995615 0.08385233 0.1063848
000320 db e0 20 bd 0e 53 2a be bb 37 94 bd b4 2f 31 3d
       -0.03927694 -0.16633245 -0.07237192 0.043258384
000330 ee 4f 17 3d 72 11 fe bd b5 49 04 3e 1e 97 a3 3d
       0.03694146 -0.12405671 0.12918742 0.07987808
000340 80 06 ad bd 6b e1 c7 bd c8 fb 9a bc 07 e8 84 bc
       -0.084485054 -0.09759792 -0.018918887 -0.01622392
000350 3b b5 02 3d 30 1c 1d be 1f 06 ac 3d f5 72 fe 3d
       0.031911116 -0.15342784 0.08399605 0.1242427
000360 ba f8 42 3d 5a 71 d1 bd 32 34 79 bd 43 e3 34 3e
       0.047600485 -0.10226698 -0.060840793 0.17664818
000370 74 a7 e4 3d ce 19 e0 3c 43 3f a9 bd bc 18 9b bc
       0.11164752 0.027356055 -0.08264019 -0.018932693
000380 73 cc 4d bd 57 84 d2 bc 14 88 28 be 8a c3 13 3e
       -0.050243806 -0.02569787 -0.1645816 0.14430061
000390 ea 08 2d be f3 87 07 be 54 54 38 3e f2 1b c5 bd
       -0.16897932 -0.13235454 0.18000919 -0.09624471
0003a0 b0 8e af 3c 81 44 5e bc 2d 58 10 be c5 b9 13 be
       0.021430343 -0.013566137 -0.14096136 -0.14426334
0003b0 36 ab fe bd f8 c2 5e 3d 23 3f 04 3e 6a 99 16 be
       -0.12435 0.054385155 0.1291471 -0.1470696
0003c0 a9 b2 57 3d bc 4e 94 bd fc 9c 05 3d 88 eb 34 be
       0.052660618 -0.0724158 0.032620415 -0.17667973
0003d0 be 4e 4c be b9 ce d6 bd 84 92 e3 bc 88 97 1f be
       -0.19951913 -0.10488648 -0.027779825 -0.15585148
0003e0 b8 68 62 bd 86 c9 df bd f4 6e 0e be 89 e6 b3 3d
       -0.05527565 -0.109271094 -0.13909513 0.087842055
0003f0 65 a6 1f 3d 2a a4 fc bd c2 f5 e2 bd d3 f1 f2 bd
       0.038977046 -0.12335999 -0.11082031 -0.118625306

gru.weight_hh_l0 f4 [96, 32]
000000 d3 2e 3a be 29 94 83 3d 76 02 b3 3c 55 7a 67 bd
       -0.18181925 0.06424744 0.02185176 -0.05651315
000010 4a dc ac bd da 62 30 bd b3 bd 7f bd b8 cc 18 be
       -0.08440454 -0.043063022 -0.06243677 -0.14921844
000020 55 ed 2b 3e cf 0f e7 3b dc 45 8b 3d bb 29 2c 3d
       0.16789754 0.007051445 0.06800434 0.042031985
000030 0a ad 22 3e 24 04 b3 3c c3 55 b4 3d 69 72 b0 3c
       0.15886322 0.02185256 0.0880542 0.02153893
000040 5e 01 f8 3c f1 c4 7b bd 9a f2 99 bd 60 d8 fc 3c
       0.03027409 -0.061467115 -0.07516976 0.030864894
000050 f0 4e d0 bc 98 ff de 3d 56 27 d1 3d c4 5b 4f 3d
       -0.025428265 0.108885944 0.10212581 0.050624624
000060 c2 aa 3b bc 74 f2 0d 3e 50 20 98 bc 50 cc 08 bd
       -0.011454286 0.1386202 -0.018570095 -0.033397973
000070 26 7e 89 3c a1 09 d1 3d 27 8e e8 bd 19 f9 d1 3d
       0.016783785 0.10206915 -0.113552384 0.1025259
000080 ac 29 7d 3d d3 69 16 bd af 2d 5f bd 9e 7e 07 be
       0.06180732 -0.036722016 -0.054486927 -0.13231894
000090 1c 21 4e bd 42 3f a5 3d 2a 86 21 be 70 eb 29 3d
       -0.050324544 0.08068706 -0.15773836 0.041484296
0000a0 c7 ac 28 bd 94 9e 49 3e fd 70 24 3e 93 f9 aa bd
       -0.0411804 0.19689399 0.16058727 -0.08348384
0000b0 66 17 ab bb e1 1c 88 3d f2 00 1c 3d 08 86 96 bb
       -0.005221295 0.06646133 0.03808684 -0.0045936145
0000c0 78 27 cb 3d 69 64 05 3c fe 7a 88 bd 20 8e 14 3d
       0.099196374 0.008141615 -0.06664084 0.036268353
0000d0 77 f3 92 3d 5e 31 2d 3e 70 2a b5 3d 9c 43 af 3d
       0.071753435 0.16913363 0.08845985 0.08557817
0000e0 cd c8 88 bd ff 3b 70 3d d5 d2 e1 3d 36 02 c1 3d
       -0.06678925 0.058650967 0.11026541 0.0942425
0000f0 1b 52 15 be 12 c4 b9 bc cb 4b dc 3d 1f e6 01 3e
       -0.14582102 -0.022676501 0.10756644 0.1268544
000100 87 72 87 3d c3 bf 0b bd 2c b9 c1 bd 13 d5 dc bd
       0.06613641 -0.034118425 -0.09459147 -0.10782828
000110 23 d6 1d be 9b f4 34 be 4a a6 36 3c b8 8f 4f 3d
       -0.15413718 -0.17671435 0.011148045 0.05067417
000120 da d6 df bd e0 56 76 bc cf b0 e9 bd 34 1b 2b 3e
       -0.109296516 -0.015035361 -0.11410677 0.16709596
000130 90 47 5f 3d ce 1a 20 be 4a bd 0e 3c bb fa 51 3d
       0.054511607 -0.15635225 0.008712122 0.051264506
000140 08 5c d7 3c 4f 84 02 bd 94 16 1f bd 08 3d 28 be
       0.026289001 -0.03186446 -0.03883989 -0.16429532
000150 fe fa 99 3d ce 42 fe 3c fd c4 19 3e 71 64 04 be
       0.07518576 0.031037714 0.15016551 -0.1292894
000160 6e f2 4d be c6 ef 32 3e 78 ec 5a be d9 ab a1 bd
       -0.20112011 0.17474279 -0.21379268 -0.078941055
000170 cc 94 ef bc 71 ed 9a 3d 27 88 a3 bd 4e 7e 63 3d
       -0.029245757 0.075648196 -0.079849534 0.055540375
000180 cf 97 0b 3e 81 d0 25 3d f3 37 f4 3d cd 59 1e be
       0.13632129 0.040482048 0.11924734 -0.15463944
000190 17 2b 98 bc 5b a3 62 3d 2c f5 0a 3e ba 42 29 3e
       -0.018575234 0.05533157 0.13570088 0.1652936
0001a0 17 8d 69 bd cd d7 2c bd a0 d5 f5 3d 24 c2 14 3e
       -0.05701932 -0.04219799 0.12003636 0.14527184
0001b0 4a 2f 11 bc fa 8c 3d 3e 1a 9d 29 3e c3 7e 1d 3e
       -0.008861372 0.1851081 0.16563836 0.15380387
0001c0 23 30 06 3e 91 6d 8a bb dc d6 bc bd 88 98 d8 3c
       0.131043 -0.004224487 -0.09220669 0.02643992
0001d0 f9 1d 76 3d 98 13 bf 3d b9 13 5e bd 4e 31 14 3e
       0.060087178 0.09329909 -0.054218028 0.14471933
0001e0 bd 68 25 3e 34 d0 11 3e 06 95 06 3e 91 5b b2 bd
       0.16153236 0.1423958 0.13142785 -0.08708871
0001f0 f9 6a 09 3e 87 0d 9c bd cb bf 20 be a1 b4 24 3e
       0.13419713 -0.07619768 -0.15698163 0.1608453
000200 3b ad 18 be 73 43 97 3d d2 a8 a6 3d 86 e2 a2 3d
       -0.14909832 0.07385912 0.08137669 0.07953362
000210 b9 e4 08 be 29 e6 37 3c 47 6d a5 bc dc 31 b3 bb
       -0.13368501 0.011224308 -0.020193709 -0.00546859
000220 93 fc 95 3d e6 1b b5 bd ef 8f ac bc fb e2 ef bd
       0.07323565 -0.08843212 -0.021064727 -0.11713215
000230 0a 44 5c bd 28 0e 19 be c8 d4 f5 3d 74 b9 8a bd
       -0.053775825 -0.14946806 0.120034754 -0.067736536
000240 20 50 d6 bd 11 3b e8 bd df ce 03 3e 90 c3 36 be
       -0.104645014 -0.11339391 0.12871884 -0.17848039
000250 ed f6 05 3d d2 a1 9e 3d c6 45 12 3e 20 a8 ac ba
       0.03270619 0.077457085 0.14284429 -0.0013172664
000260 10 85 1f 3e cc 4e 3b bd 01 63 b8 3c 83 56 23 3e
       0.15578103 -0.045729443 0.022508146 0.1595097
000270 73 0d 78 3d 30 94 f9 3d 0a 8a 31 be 47 8b 10 3e
       0.0605597 0.12186468 -0.17337814 0.1411563
000280 46 14 c3 bc c8 65 67 bc 25 3a 09 bd 67 68 f9 bd
       -0.023813378 -0.014123388 -0.033502717 -0.12178116
000290 5e 7a b0 3d 5b 7e fe 3d 9c 56 0f 3e c7 d4 f7 3c
       0.0861709 0.12426444 0.13997883 0.030252827
0002a0 e6 23 01 be 9f e5 1b 3e 6c f4 10 3e 8b 44 13 be
       -0.1261135 0.15224312 0.1415574 -0.14381616
0002b0 9c da bd 3d 4a dd 37 be 21 bc 0d be f3 fc 0c 3e
       0.09270212 -0.17955509 -0.13841297 0.13768367
0002c0 2a e0 6c bd f5 c2 4e bd aa f2 8f bd 80 04 05 be
       -0.057830967 -0.050478894 -0.07028706 -0.12989998
0002d0 6d fe 82 bd 51 d2 2a be db aa 21 be 49 b5 10 3d
       -0.06396184 -0.16681792 -0.15787832 0.035329137
0002e0 68 f0 1d 3e ef 60 29 3e 4f 0a 2a be 00 a1 2e 3e
       0.15423739 0.16540883 -0.16605495 0.17053604
0002f0 d9 60 76 3c e3 f1 09 be 2b 42 0c 3e 37 13 33 be
       0.015037739 -0.13471179 0.13697116 -0.17487799
000300 85 42 c7 bd 18 d9 37 3c 7f 8f 98 bd a9 49 94 3d
       -0.097294845 0.011221193 -0.07449245 0.07240612
000310 17 8b bc bd d7 03 20 3e 3a 3c 4f bd 8e 57 a6 3d
       -0.09206217 0.15626465 -0.050594546 0.081221685
000320 1d c6 fc 3d 8d f9 a0 3d 0b 2b d8 bd 25 8c 8f 3c
       0.123424746 0.07860098 -0.10555085 0.01752288
000330 98 34 ef 3d 86 7d c1 3c d1 30 48 bd b6 64 d3 3d
       0.11679953 0.023619425 -0.04887468 0.103219435
000340 08 ab 0b be ca 75 ec 3d d0 b5 57 3d f9 4f fd 3d
       -0.13639462 0.11545904 0.052663624 0.12368769
000350 b2 b7 27 be c7 1e 89 bc f1 60 3b 3d 91 6f cd bd
       -0.16378668 -0.016738309 0.045746747 -0.10031045
000360 6c 2b 08 3e c5 f1 c5 bd 11 a0 de bd cf 03 0e 3e
       0.13297814 -0.096652545 -0.10870374 0.1386864
000370 64 c1 fe 3b 0e 5e dd 3b 89 48 2f bd 37 e9 87 bd
       0.007774519 0.006755597 -0.042793784 -0.06636279
000380 4f 8b fc bd 8d 19 73 3c 2a a0 0f be f5 bb 01 3e
       -0.123312585 0.014837635 -0.14025941 0.12669356
000390 d8 cb 87 bd e7 b8 cc 3d d8 73 8e bd b5 56 1d be
       -0.06630677 0.09996205 -0.06955689 -0.15365107
0003a0 43 33 2a bd 91 2f d6 bc 26 dd 15 be 40 09 af 3d
       -0.041552793 -0.026145728 -0.14635143 0.08546686
0003b0 fd 98 ee bd 5f 54 cb bd 3c 64 f2 bd 77 00 fd bd
       -0.11650274 -0.09928202 -0.118355244 -0.12353604
0003c0 e8 7f 62 bd 29 bc 32 bd ae 13 37 be df f8 08 3d
       -0.055297762 -0.043636475 -0.17878601 0.033440467
0003d0 1f 2a 18 bd 6c e8 ea 3d 5d 95 87 3d 18 5b 22 be
       -0.037149545 0.11470112 0.06620286 -0.15855062
0003e0 c5 8b 06 3e 4e fc 5e bc 18 10 13 bd ec c2 1a be
       0.13139255 -0.013609959 -0.03590402 -0.1511342
0003f0 2d d3 a5 bd e8 2f 26 3e 77 ab 30 3e 0c d7 93 bd
       -0.08096919 0.16229212 0.17252909 -0.07218751

gru.bias_ih_l0 f4 [96]
000000 b1 84 57 bd 4c ba 08 3d 54 1c 4d bd 1d 0a 1e 3d
       -0.05261678 0.03338079 -0.050075844 0.038583864
000010 be ba d3 bc 3d e0 dc bc 79 1d 1f be 51 ab df bd
       -0.025845882 -0.026962394 -0.15538587 -0.10921348
000020 e3 92 50 bd f8 36 a1 3c cf 49 bb 3d b4 69 ac 3d
       -0.050921332 0.019679531 0.09144937 0.08418599
000030 7c 61 09 3e ed bb 85 bd 82 e8 d9 bd 9b 37 af bd
       0.13416094 -0.065299846 -0.106400505 -0.08555528
000040 8e 5a 16 3e 65 35 0b be e9 b8 fb 3d 47 e5 88 3d
       0.14682981 -0.13594587 0.12291128 0.06684356
000050 00 96 dd bd d1 fb ae 3c 51 5e 13 bd 71 73 fa 3d
       -0.10819626 0.02136031 -0.03597862 0.1222905
000060 0a 34 08 be 6b c4 98 bb 5b fd 13 be bb b5 ee bd
       -0.13301101 -0.0046620867 -0.14452116 -0.11655756
000070 91 c2 3b be e1 a1 48 3e 51 a3 8a bd 27 1c 2f be
       -0.1833594 0.19593002 -0.067694314 -0.17100583
000080 8a 72 21 be 1f 2a 00 3e 4d 56 f4 3d 0f f1 b3 bd
       -0.1576635 0.12516068 0.11930523 -0.08786213
000090 94 49 c7 3d d6 bc fa bc 68 a8 08 be be c2 eb 3d
       0.09730831 -0.030607622 -0.13345492 0.115117535
0000a0 90 04 21 3e be 50 97 bd ac 5e 83 3c 12 80 7c bd
       0.15724397 -0.07388447 0.016036354 -0.061645575
0000b0 d5 44 14 be 6b 86 0c 3e 9a 0c 43 bd dd 36 f6 bd
       -0.14479382 0.13723151 -0.04761944 -0.12022183
0000c0 9d 1c 56 3d d2 ce fd bd e1 b8 ae 3c 6b 90 16 be
       0.05227338 -0.123929635 0.021328392 -0.14703529
0000d0 b5 63 6c bd 73 9c 2b 3e a3 d2 29 be 11 bc c2 3d
       -0.057712276 0.167589 -0.16584258 0.09508527
0000e0 e5 ac 3d 3e 87 67 2f be 00 fe 90 bd be 2c f5 bc
       0.18522985 -0.17129336 -0.07079697 -0.029928561
0000f0 7e 43 03 bc 2a 93 12 be 66 9e da bc 47 66 10 3e
       -0.008011697 -0.14313951 -0.026686858 0.14101516
000100 66 a4 17 be 27 bf 02 3e bc c7 1f 3e 89 50 34 3e
       -0.14808807 0.12768231 0.15603536 0.17608847
000110 24 88 35 be 62 49 dc bd 10 11 3b be 34 d0 bf 3c
       -0.17727715 -0.10756184 -0.18268228 0.023414709
000120 39 9c 26 bc 6f 65 01 3e 21 a4 19 3e 5c 47 4a bd
       -0.010169082 0.1263635 0.15004016 -0.04938446
000130 fa 3a 8d 3d 67 00 37 3e 90 97 e2 3c 6b 46 ca 3d
       0.068960145 0.17871247 0.027660161 0.098767124
000140 b2 96 4a bd 53 73 e2 3b 8e 01 ec 3d 8a da 24 be
       -0.04946012 0.0069107204 0.11523734 -0.16098991
000150 cf eb 68 bd 05 b1 64 3d 55 52 7b 3d 87 9e b8 3d
       -0.05686551 0.05583288 0.061357815 0.09014612
000160 aa e7 56 bd d6 8c bd ba 78 9e 2a 3b 73 05 84 3d
       -0.052467026 -0.0014461528 0.0026034396 0.06446352
000170 38 44 08 3e ec a0 2a bd e2 35 20 be 0e 7c 0b 3e
       0.13307273 -0.041657373 -0.15645555 0.13621542

gru.bias_hh_l0 f4 [96]
000000 dd 1a 1b 3d 61 e9 dd 3d 3e 2e 07 be 58 da 23 3e
       0.037867416 0.10835529 -0.13201234 0.1600126
000010 01 dc ff bd 10 92 35 bc 74 b1 5a bd a7 bf 69 bd
       -0.12493134 -0.011082187 -0.05339189 -0.05706754
000020 f6 67 e9 bd 01 60 ff bd 4b f9 6d 3d 4c cc f6 bd
       -0.11396782 -0.12469483 0.058099072 -0.12050685
000030 0e 29 53 3d 0b cb f3 bd 9c 35 2c 3e b2 c1 07 3e
       0.051552825 -0.11903962 0.16817325 0.13257483
000040 fb b9 95 3d 48 c3 75 bd 20 a8 a4 3d b5 c5 34 be
       0.073108636 -0.060000688 0.0803988 -0.17653544
000050 8e 2d 95 bc b8 f8 0c be 42 da 3f be d2 db 81 bd
       -0.018210199 -0.13766754 -0.18735602 -0.063407555
000060 f2 41 39 bd 4a f4 1f 3e 9b ec 23 be 84 b8 f8 bd
       -0.045228906 0.15620533 -0.16008227 -0.121445686
000070 f9 d3 01 bd e8 78 ba 3d 7f 7f 41 bd ee 97 a8 bd
       -0.031696294 0.09105092 -0.04724073 -0.08232103
000080 f3 cb dc bb 61 c0 cc 3d 38 f5 c2 3c 81 c8 c3 bd
       -0.00673818 0.09997631 0.02379857 -0.095597275
000090 e7 7b 85 3c 22 4b 22 be 47 16 1d 3e 8c 60 27 bd
       0.016294433 -0.15848973 0.1534053 -0.04086356
0000a0 db 52 13 be c9 d3 e2 3c 20 02 8f bd ad 64 0e bd
       -0.14387076 0.027688878 -0.06982827 -0.03476398
0000b0 cb f5 91 bd 34 49 d0 bd ed 3d 1b be 47 bc 09 3e
       -0.071269594 -0.101702124 -0.15160342 0.13450728
0000c0 70 b6 2b 3e cf 47 c0 3d 29 89 0c 3e 95 c4 0a be
       0.16768813 0.093886964 0.13724197 -0.13551553
0000d0 8d a5 a1 3d 19 f3 11 3d 11 a7 6e 3d df 4e 0f 3e
       0.078929044 0.035632227 0.058264796 0.1399493
0000e0 4a e4 9e 3d 62 22 ec 3d 4d dd 18 3e 8c 16 e4 3c
       0.077583864 0.115299955 0.1492817 0.027842782
0000f0 d0 7b e8 3d c3 41 9e 3c 27 39 b1 3d 11 5c ba 3d
       0.1135174 0.019318467 0.08653479 0.090995915
000100 0f 1d b5 bd 20 4b 07 be d7 20 9e bd a8 15 46 3e
       -0.08843433 -0.13212252 -0.077211075 0.19344199
000110 1b c9 88 bd 22 4a 0c be eb e5 01 be cd 66 87 bd
       -0.06678983 -0.13700154 -0.12685363 -0.066114046
000120 ec d1 9c bd 6f 05 26 3c 9f cf 0f 3d d5 24 1d 3c
       -0.07657227 0.010133131 0.035110112 0.009591301
000130 9e 6c 33 be 70 0c be 3d f1 26 94 bc 82 3b a3 3d
       -0.17521903 0.09279716 -0.018084975 0.079703346
000140 4c 0a fd bc 17 be 33 3c f4 bd d0 3c 54 5b a9 3d
       -0.030888699 0.010970614 0.025481202 0.082693726
000150 8d b0 25 be cd 22 22 be 3c 30 ca bd c3 8a 86 3b
       -0.1618063 -0.15833588 -0.09872481 0.004105897
000160 51 86 b7 3d 2f 9b 17 be 98 03 11 be f8 0b cf 3d
       0.08961166 -0.14805292 -0.14161527 0.10109705
000170 75 01 53 3b 52 0c a3 3d 38 5a c2 bd 3e 28 12 3e
       0.0032196913 0.07961334 -0.09489864 0.14273164

output_layers.0.weight f4 [64, 32]
000000 fe 74 3a 3e 44 2b e0 3d 41 4c e7 bd 7a 70 03 be
       0.18208691 0.10945752 -0.11293841 -0.12835875
000010 37 bb 36 3d 38 2e c2 3d de f1 28 3e 8a ef 48 3b
       0.044612136 0.09481472 0.16498515 0.0030660355
000020 6e af 00 be 62 1e ee 3d 22 8f cc bc 9e ec 8f bd
       -0.12566921 0.11626889 -0.024970595 -0.07027553
000030 c8 ba 61 3d 06 b4 25 be 2f 25 1c 3e bf 2d c4 bd
       0.05510977 -0.16181955 0.1524856 -0.09579038
000040 e7 a7 20 3e f0 3f f1 3c 35 5d 0f be 11 4f f2 3d
       0.1568905 0.029449433 -0.140004 0.11831487
000050 43 c9 b7 bd cd 4e f1 bc 88 4f f3 bd 05 93 a0 3d
       -0.089739345 -0.02945652 -0.11880404 0.07840542
000060 c1 fc fc bc 1d ac 74 bd b3 86 ae bc 9b 22 dd 3d
       -0.030882241 -0.059734453 -0.021304464 0.10797616
000070 8c 32 1b be 64 01 80 bd a5 75 15 be fc 7e 7d 3d
       -0.15156001 -0.06250265 -0.14595659 0.06188868
000080 3e 28 e0 3d 0b 9b 05 be f3 72 3f 3e 00 f1 97 3d
       0.109451756 -0.13047425 0.18696193 0.07419014
000090 96 f4 b3 3b 4b db 79 3d 38 d8 c9 bc 6a 3e ca bd
       0.0054918034 0.06100015 -0.024639234 -0.09875186
0000a0 29 c9 9a 3d 2f fa 9b 3d 04 b5 04 3e 6a 96 d8 3b
       0.075578995 0.07616078 0.12959677 0.0066097276
0000b0 56 1c 83 bd 95 41 be 3d 52 a0 3b bd cb f0 9e 3d
       -0.06401889 0.092898525 -0.04580719 0.07760771
0000c0 57 49 e7 bd 86 6a e7 bd 35 b5 f4 bd 2a dd b0 bd
       -0.11293285 -0.112996146 -0.11948625 -0.08635934
0000d0 ae 78 f0 3a 42 b9 a8 bc ef fa 6a 3d 89 41 19 be
       0.0018346512 -0.02059615 0.057368215 -0.14966406
0000e0 09 44 f8 bc 58 f1 a9 3d 00 6f c5 bd 32 61 de bc
       -0.03030588 0.08297986 -0.09640312 -0.027145956
0000f0 ab b8 07 3e 30 39 09 3d f0 a2 8b bd a1 bf cf bd
       0.13254039 0.033501804 -0.06818187 -0.10143972
000100 56 19 20 be 6a 79 8c 3d b7 9e ce bd ed f4 36 bd
       -0.15634665 0.068590954 -0.10088866 -0.044667173
000110 bb 8a 20 3e 48 44 3f bc 49 cc cc bd c0 f0 0d 3e
       0.15677921 -0.011673994 -0.09999902 0.1386137
000120 9c e4 1d ba c2 8d 21 3e 3d 29 eb bd c3 e8 1f 3d
       -0.000602314 0.15776733 -0.11482475 0.03904034
000130 a6 dd 05 3e a6 73 e7 bd e3 18 31 3e 32 51 08 3a
       0.13072833 -0.11301355 0.1729465 0.00052000873
000140 34 a0 47 3c 4c cd 26 3d d9 75 f0 3a e5 1f 31 3e
       0.0121841915 0.04072313 0.0018345668 0.17297323
000150 b7 8f 75 3d 7d f3 9b bd b5 c5 0a be 1c 24 02 3d
       0.05995151 -0.07614801 -0.13551982 0.031772718
000160 82 b3 86 bd 18 73 2d be 73 2b a9 3d e8 bd aa bc
       -0.06577207 -0.16938436 0.082602404 -0.020842507
000170 33 93 c6 bd d3 52 df bd 80 04 0f bd 7d d3 dc bd
       -0.09696045 -0.10904469 -0.0349164 -0.10782526
000180 ad a2 c9 3b 14 08 fe bd 84 b1 b4 bd cc 97 9c 3d
       0.0061534257 -0.124038845 -0.08822921 0.076461405
000190 b1 65 91 bd cc 2e 2f 3e 9c be 2e 3d 58 05 ab 3d
       -0.07099474 0.17107695 0.042662248 0.083506286
0001a0 75 19 91 3d 6c 3b d4 3c c9 9b f3 3c f9 4a 9d bd
       0.07084934 0.02590724 0.02973737 -0.076803155
0001b0 94 aa dc 3d e7 14 34 3d 77 0e b7 3d ea 92 62 bc
       0.10774723 0.043965247 0.08938306 -0.013828972
0001c0 ab 62 a3 3d 8d 08 0c bc 28 29 ee 3c 4f 65 b9 3d
       0.07977804 -0.008546961 0.02907236 0.09052526
0001d0 83 86 cd bd c7 ac 22 bd c1 da e4 3d ac 10 b5 3d
       -0.10035422 -0.039715555 0.111745365 0.088410705
0001e0 7b b9 09 3d 4b 86 be 3d cc 67 d5 bd f4 b8 72 3c
       0.033624154 0.09302958 -0.10420188 0.014814604
0001f0 58 be d7 3d a3 e4 1e be 75 b6 53 bd 40 45 a7 bc
       0.10534352 -0.15516905 -0.051687676 -0.020418763
000200 fd 87 23 3d 03 5f 15 3e 67 62 c4 3d 63 11 bb bb
       0.03992461 0.14587025 0.09589081 -0.00570886
000210 97 8b 91 3d 0c c4 c2 3d 33 78 43 bd 3d 8e 04 be
       0.07106703 0.09510049 -0.047722053 -0.12944885
000220 26 30 1f 3e d2 0a 44 bd 42 a7 98 39 6d 4f a5 bd
       0.15545711 -0.04786188 0.00029116316 -0.0807179
000230 d9 ff c3 bd 09 64 77 3c 7c ae 13 be cc c4 d5 bd
       -0.095702834 0.015099534 -0.1442203 -0.10437927
000240 d9 fd 06 be 9c 37 e1 bd 34 15 28 3e d6 cb dc 3d
       -0.13182773 -0.10996935 0.16414338 0.10781066
000250 c0 eb f3 3d eb 91 8c 3d 23 11 ce bd 8a 5a c6 3c
       0.119102 0.06863769 -0.10061862 0.024213094
000260 96 79 f3 3d 0a 37 dc 3d fc ba 27 be 8d 7d ca 3c
       0.11888425 0.10752685 -0.16379923 0.02471807
000270 20 5c 26 3d 32 d2 5f 3d 8f 84 e1 3d 8d ba 8e 3d
       0.0406152 0.054643817 0.11011612 0.069691755
000280 8e 9f 0a 3e 46 6e a6 bd 26 df f4 3c fb a6 4a bd
       0.13537428 -0.08126502 0.029891562 -0.04947565
000290 d5 58 05 3e 46 3d e9 bd cc 29 e9 3d 79 bb 03 3e
       0.13022168 -0.1138864 0.11384925 0.12864484
0002a0 c7 0e d9 bd de 19 39 3d 4d 30 1a be 2f 69 28 3e
       -0.10598522 0.045190684 -0.15057488 0.16446374
0002b0 9f 11 20 be 8a 62 0e 3e 06 34 35 3e 27 98 04 bd
       -0.15631722 0.13904777 0.17695627 -0.032371666
0002c0 98 f1 1d 3e 33 59 ec 39 25 4e 0e 3c 9a b5 b3 3d
       0.15424192 0.00045079886 0.008685623 0.08774872
0002d0 b0 89 39 be 27 df 0a 3e 42 9c e1 bd 4f ce 1b be
       -0.1811893 0.13561688 -0.11016132 -0.15215419
0002e0 7d 8f d3 3d c3 5d 68 bd 19 9f fe bd 1f fd 16 bd
       0.103301026 -0.056730043 -0.12432689 -0.03686249
0002f0 8c 9c d4 bd 2e 22 23 3e b0 ab 9a 3b d1 82 b0 bd
       -0.103814214 0.15931007 0.004720174 -0.08618701
000300 2a 83 f6 bd 99 f6 6f 3d 9c 29 8c 3c 88 bc 00 3e
       -0.12036736 0.058584783 0.017109685 0.12571919
000310 88 1b eb bd e4 89 ff 3c c1 22 7b 3c 2e d7 92 bc
       -0.114798605 0.031193681 0.01532811 -0.017924871
000320 f4 aa b5 3d ad e9 8e 3d 39 c8 99 3c 5d 83 40 be
       0.08870497 0.06978164 0.018772231 -0.18800111
000330 2d a2 19 3d 85 f6 43 be 9a f2 1a 3e f7 95 15 be
       0.03750818 -0.19137008 0.15131608 -0.14607988
000340 1a 0b 00 3e 48 1b dc 3d 97 cc 20 be 99 05 e9 3d
       0.12504235 0.10747391 -0.15703045 0.11378021
000350 9b 12 18 3e ef 15 d0 bb 9f 6d 8c bc 12 0b 01 3e
       0.14850847 -0.006350271 -0.017142115 0.12601879
000360 83 28 f7 3d ae 93 13 3e 20 2a e1 3b 19 91 23 be
       0.12068274 0.14411804 0.006871477 -0.15973319
000370 11 0c 81 bd a2 6f 72 3d e1 09 54 3d 0c db 86 3d
       -0.063011296 0.059188493 0.051767234 0.065847486
000380 c7 82 54 3d 97 ce d7 3d f1 2d c9 3d cf dd 4f 3d
       0.05188253 0.10537451 0.09823216 0.050748643
000390 84 f6 31 3e c7 a6 1b 3e 6f a3 22 3e ae 8a 1a 3d
       0.17379194 0.1520034 0.15882657 0.03772991
0003a0 d8 32 b8 bd cd 32 e7 3b 9a 22 1a be 28 cd c1 bd
       -0.08994073 0.0070556165 -0.15052262 -0.094629586
0003b0 5a aa b1 bc 51 d3 cc bc fd 3c d1 3d 64 14 f7 3d
       -0.021687675 -0.025003107 0.10216711 0.12064436
0003c0 51 54 f7 bd b1 0e f3 bc 6c 3b c9 3d 42 93 22 be
       -0.12076629 -0.029670091 0.09825787 -0.15876487
0003d0 b5 97 5e 3c 04 b3 e6 3d 9f 45 ba bd c1 0b 54 3c
       0.013585974 0.11264613 -0.090953104 0.0129422555
0003e0 b3 f7 0b bd 33 56 2b 3d 6d 0c 1f 3e 17 1b 0f 3c
       -0.03417177 0.041830253 0.15532084 0.008734486
0003f0 3b b4 8a 3d ec c5 a1 3c fa 55 cd 3d 30 92 8d 3d
       0.067726575 0.019747697 0.10026164 0.06912649

output_layers.0.bias f4 [64]
000000 da b1 35 be 37 47 a0 3d 8b a4 67 bd bf cf ed bd
       -0.17743626 0.07826083 -0.056553405 -0.1161189
000010 44 ba 87 3d 41 8d 27 3e aa 13 eb bd 5a cd 1d be
       0.06627324 0.16362478 -0.1147836 -0.15410367
000020 18 cc a9 bd f6 b5 31 3e 18 b2 7d 3d 41 6c e6 bd
       -0.08290881 0.17354569 0.06193742 -0.112511165
000030 5f 3b 6f 3d 79 78 93 bd e2 66 e9 bd 10 7d a2 bd
       0.05840623 -0.07200713 -0.113965765 -0.0793401
000040 35 68 16 3e 5f d2 a2 bd e6 b1 97 bd 82 2d 8a 3d
       0.1468819 -0.07950281 -0.07406978 0.06746961
000050 9c a5 eb 3c 60 85 0a be 62 7d ed 3d 77 9f 35 3e
       0.028765492 -0.13527441 0.115961805 0.17736612
000060 cf 46 d3 bc bd a4 bf 3c e6 87 a3 3d c7 2e 09 3e
       -0.0257906 0.023393983 0.07984905 0.1339675
000070 11 82 30 3e cc 5e 6f bc 0b 6a d4 3d a2 1c bf 3d
       0.17237116 -0.014610004 0.103717886 0.09331633
000080 4d 42 6c 3c 04 59 9f bc 5a b5 2f be 02 95 f1 bc
       0.014420104 -0.019451626 -0.17159024 -0.029489998
000090 0f 24 95 bd 09 16 fb bd 9a ae 61 3c 5c 70 ee 3a
       -0.07282268 -0.12260062 0.013774538 0.0018191445
0000a0 4b be c8 ba b8 9b ef bd b1 08 c5 bd 1c b8 33 be
       -0.0015315501 -0.11699623 -0.096207984 -0.17550701
0000b0 a5 7c 1c 3e 6c 40 cc 3d 17 54 35 bd 85 27 22 3e
       0.15281923 0.09973225 -0.044269647 0.15835388
0000c0 25 8c 19 be d1 4d 7f bc 11 02 55 bd 77 53 d0 bd
       -0.14994867 -0.015582518 -0.052003924 -0.1017217
0000d0 60 0e b8 bd 31 7f 41 bd 99 3d d0 3d 2b a1 0e bb
       -0.08987117 -0.04724044 0.10167999 -0.0021763544
0000e0 65 97 09 be b0 41 10 3e be ec c0 3d 7d e2 ba 3c
       -0.13436659 0.14087558 0.09420155 0.022813076
0000f0 f0 9d fd bd 10 68 09 be ec 1e 18 3e 7c af e5 3c
       -0.1238364 -0.13418603 0.14855546 0.028037779

output_layers.3.weight f4 [32, 64]
000000 1d 6b 9e bd 11 e1 0c 3d 72 f4 50 3d da 9d 1b 3d
       -0.07735274 0.034394328 0.05101437 0.037992336
000010 5b 9c 8b 3d 72 52 b5 bd 32 8a d9 3c cc 89 a4 3d
       0.06816932 -0.08853616 0.026555154 0.08034095
000020 34 78 78 3c 50 0c 0b be fa 5b cc 3d 2a 1a 9b 3d
       0.015165377 -0.13578916 0.09978481 0.0757335
000030 84 f2 8c bd 6d 5c cf 3d c0 47 ec 3c 75 27 28 3d
       -0.06882194 0.10125051 0.028842807 0.041053254
000040 58 68 ee bc cc 33 aa bd 97 61 87 bd 15 80 08 bb
       -0.02910249 -0.08310661 -0.06610411 -0.0020828296
000050 ea c9 1b 3d 1f 15 6e 3d a5 71 a6 3d 89 4e 0c be
       0.038034357 0.05812561 0.08127145 -0.13701834
000060 d1 5a d6 bd 58 41 f8 3c c0 59 a6 bd c8 80 9c bd
       -0.104665406 0.030304596 -0.08122587 -0.076417506
000070 24 ae e8 3c d9 62 14 bd 8d 21 ef 3c d7 34 7a bd
       0.02840335 -0.03622708 0.029190803 -0.06108555
000080 a0 d1 1e bd af b3 90 3d 12 c1 20 bc ee 2e de 3d
       -0.038774133 0.07065522 -0.009811657 0.10848795
000090 38 06 e7 bc e1 f4 f2 3c 0e cf 24 bc 4d 72 c3 3d
       -0.028201208 0.029657783 -0.010059131 0.095432855
0000a0 89 eb ef bd 51 89 73 bd 41 7f 08 be f4 06 e7 3c
       -0.11714847 -0.059457127 -0.13329794 0.028201558
0000b0 91 90 a3 3d 17 40 b9 bc ce 86 d9 3c b7 22 f2 bd
       0.07986558 -0.022613568 0.026553538 -0.118230276
0000c0 f4 3b c8 3d 57 e5 b6 bd 69 de 24 bd 03 1a b9 bd
       0.0977706 -0.08930462 -0.04025117 -0.090381645
0000d0 7f 42 12 3d 95 af 5e bd e7 e3 f7 bd 91 6f e8 3a
       0.035707947 -0.054366667 -0.12104016 0.0017733445
0000e0 cd 02 74 bd e8 6b 7f bd 22 0b 56 3c 92 e6 20 bd
       -0.059572984 -0.062358767 0.013064178 -0.03928239
0000f0 01 05 7b bd 2e 39 16 3d 61 11 e7 3b e3 d4 cf 3d
       -0.06128407 0.036675625 0.0070516323 0.10148027
000100 7f 55 ce 3d dd 3a f6 bd 5a 2b d7 bd 40 d0 f5 bd
       0.10074901 -0.12022946 -0.105063155 -0.12002611
000110 96 d9 06 3d 1c 6c a1 3d ca 90 b0 3d 1f 73 c2 3b
       0.03292235 0.07881948 0.08621366 0.0059341337
000120 69 d5 0f be 6a 03 b5 bd 00 03 aa 3c 4f de 90 bc
       -0.14046253 -0.08838542 0.020753384 -0.01768413
000130 cf e6 6f 3d f2 b6 b9 3c ce 76 cc bd 0f 14 18 bd
       0.058569726 0.022670243 -0.09983598 -0.037128504
000140 7d 8c 00 be f5 ae 8e bd c5 3e 09 bd 34 43 a7 bc
       -0.12553592 -0.06966964 -0.033507127 -0.020417787
000150 19 eb 74 bd 4b 86 66 3d e3 ff fa 3a 23 38 d5 3d
       -0.05979452 0.056280416 0.0019149747 0.10411098
000160 f4 bf ca bd 8f a7 59 bc f3 fd ca 3d 2a 30 57 bd
       -0.098998934 -0.013284578 0.09911718 -0.052536167
000170 9d 9d 81 bc f9 39 46 bd 76 dd a9 3d 1a e6 79 bc
       -0.015822226 -0.04839513 0.082941934 -0.015252614
000180 1a 52 00 be 63 44 95 3c eb 12 70 bd 1e 92 ef bd
       -0.1253132 0.018221086 -0.05861179 -0.116977915
000190 61 6b 34 bd fc c8 18 bd b0 f7 9e bd f7 1b 1d bd
       -0.044047717 -0.03730105 -0.077620864 -0.038356747
0001a0 22 af cd 3d 42 ef 02 be b6 f6 91 3c f1 b5 da bd
       0.100431696 -0.12786582 0.017817836 -0.10679234
0001b0 02 2f 45 3d a6 a8 bc bd 66 65 8d bd f2 63 06 be
       0.048140533 -0.09211855 -0.06904106 -0.13124064
0001c0 ec cf af bc f7 61 9d 3d 9a 3b fa bd 31 eb cd 3d
       -0.02146145 0.07684701 -0.12218399 0.10054625
0001d0 62 db 44 3d 0b 6e 96 bd bb 1f a1 bd 32 25 10 bb
       0.048060782 -0.07345208 -0.0786738 -0.0021994826
0001e0 4b 82 2b bd d5 b4 a6 bd c3 fa 17 bd b5 90 6c 3c
       -0.041872304 -0.0813996 -0.03710438 0.014438798
0001f0 91 b8 ed bc 4c f1 b0 3d ca 53 85 bd 31 2a c3 bd
       -0.029018672 0.08639774 -0.06510122 -0.09529532
000200 05 aa a0 3d 5d 86 a8 bd 2e dc 02 bd b8 49 ce bc
       0.07844929 -0.08228753 -0.03194826 -0.025181636
000210 cd 67 a5 3d e7 46 0b be 36 72 d7 3d 6a f3 e7 bd
       0.08076439 -0.13601266 0.10519831 -0.113257244
000220 84 8b 98 3d d8 a7 de bd c5 8b bb 3d 45 47 34 3d
       0.074484855 -0.108718574 0.09157518 0.04401328
000230 f6 53 06 be 87 a4 e4 3d a6 1f 03 3d 30 e9 05 bd
       -0.13117966 0.111641936 0.032012604 -0.032693088
000240 54 1e e4 bd 31 8a c2 3d fc da 92 bd fc 57 9d bd
       -0.11138597 0.09499014 -0.07170674 -0.07682797
000250 bd cb ee 3c 09 4f a4 bd 3e 44 7b bd 9d 6c aa 3c
       0.029149884 -0.08022887 -0.061344378 0.020803744
000260 76 e0 d9 bd 75 4e 6c 3d b0 4f 7b 3d 65 73 b5 bd
       -0.10638516 0.05769201 0.061355293 -0.088599004
000270 c4 1c 0b be a7 98 1d bd e4 7f 54 bc 0c 30 0b 3d
       -0.13585192 -0.03847566 -0.012969945 0.033981368
000280 ff 31 a8 bd 19 43 5f bd c3 ac 1d 3c 25 e0 8a 3d
       -0.08212661 -0.05450735 0.009623709 0.067810334
000290 81 24 97 3c 68 4d 72 3d bf b6 df 3c a0 ed fb bd
       0.018450024 0.05915585 0.02730882 -0.12301183
0002a0 f1 b4 50 bd 20 c1 0a bd 86 a7 c1 3d d2 3d 70 3c
       -0.05095381 -0.033875585 0.09455781 0.014663177
0002b0 77 35 d3 3d db 99 9e bd 11 1f 9a bc 81 aa a7 bd
       0.10312932 -0.07744189 -0.018813642 -0.08186818
0002c0 98 77 60 bd 23 b0 d1 3d 66 fa a0 bc 23 87 9e bd
       -0.054801553 0.102386735 -0.01965065 -0.07740619
0002d0 71 03 ab bd 2d 1c 33 bd 71 b0 0a be 79 62 89 3d
       -0.08350266 -0.043728042 -0.1354387 0.06708235
0002e0 ee e0 dc 3c 68 97 d7 bd 28 1d f2 bd a0 ec b5 bc
       0.026962724 -0.10526925 -0.11821967 -0.022207558
0002f0 82 62 9a 3c 0f b3 e0 bd 14 66 06 3d ac 8c 07 3b
       0.0188458 -0.10971653 0.032812193 0.0020683212
000300 09 66 5f 3d e9 fd a8 3d 66 d9 9d 3d 22 a4 9c 3d
       0.054540668 0.082515545 0.07707481 0.07648493
000310 2c b9 22 3d 2a 06 28 3d 63 89 8c 3d 70 dc 04 be
       0.039727375 0.041021504 0.06862142 -0.12974715
000320 82 91 a3 3c ef 92 ff 3d 47 52 d0 3d 0d 97 93 3d
       0.019966844 0.12479197 0.10171943 0.07206545
000330 c6 6c bc 3c 49 08 4a 3b 94 f7 ba 3d a7 43 53 bd
       0.023001086 0.0030827692 0.09129253 -0.05157819
000340 79 9e 50 bc 05 28 82 3d 7d d8 a0 3c 7b c3 a9 bd
       -0.012733095 0.06355289 0.01963448 -0.08289238
000350 0a cd 0b 3e b5 bd 70 bd 76 4a 0a ba d5 dc 53 3d
       0.13652435 -0.05877467 -0.0005275378 0.051724274
000360 21 9d 81 3b 3f a4 9c bd 7d 91 02 3e dd e7 57 3c
       0.003955499 -0.07648515 0.12750812 0.013177839
000370 79 71 b2 3c 58 e0 61 3d 6c 50 dd 3d 1c 2c 62 3c
       0.021782624 0.05514559 0.10806355 0.013804462
000380 9d dd 69 bd 88 61 13 bd f4 0b 80 3d 1f eb 37 bc
       -0.057096113 -0.035981685 0.0625228 -0.011225491
000390 a6 4c 60 bc f7 62 b0 bd f0 ee 04 bc ff 11 c5 3d
       -0.013690149 -0.08612626 -0.008113608 0.09622573
0003a0 29 a8 17 bc 65 3e da 3d 01 13 6a bd 2d 9b 38 bd
       -0.009256401 0.10656432 -0.05714703 -0.045069862
0003b0 68 bb ff bc f0 af 27 3d 22 d2 12 3d 20 60 f1 3d
       -0.031217292 0.04093927 0.03584493 0.117859125
0003c0 85 4b e4 3d e0 25 a6 3d 7e 47 a7 3d fe 18 15 3d
       0.11147217 0.08112693 0.08167933 0.036400788
0003d0 57 2c 26 3d 99 2e a8 3d b4 47 62 3c 6b 64 48 bd
       0.04056963 0.08212013 0.013811041 -0.04892389
0003e0 d0 da d1 bd 8f 68 31 bd f0 07 19 3d 11 c2 93 bd
       -0.10246813 -0.043312605 0.037361085 -0.072147496
0003f0 b9 cd 5f 3d f5 16 3a 3d d0 3f b4 bd 8b c9 af 3c
       0.05463955 0.04543205 -0.08801234 0.021458408

output_layers.3.bias f4 [32]
000000 3a 89 36 3c be 17 67 3d 14 ba c9 3d db fb 21 3c
       0.011141116 0.056419127 0.09849945 0.009886707
000010 bf fc bb 3d 03 59 c5 3d 24 65 08 be 52 62 06 3c
       0.09179067 0.09636118 -0.13319832 0.008202152
000020 a6 61 fd 3c 9b 63 03 3c e9 a2 28 3c 2f 74 03 be
       0.030930351 0.008019353 0.010292747 -0.1283729
000030 52 20 a8 3c 84 7c 5b bd b9 d7 3c bc d2 3e 57 bd
       0.020523224 -0.053585544 -0.011526042 -0.052550144
000040 b0 53 8f bd 4c 06 f7 3d 5d 21 6e 3d fe f0 65 3c
       -0.06998384 0.12061748 0.058137286 0.014034508
000050 7f dd dc bd ac eb a9 bd af a0 04 be 20 3c 02 3c
       -0.107844345 -0.08296904 -0.12951921 0.007948905
000060 ab 1a 47 3d c2 c4 dc 3d 3d 78 e6 3d 9f 33 1e bd
       0.048609417 0.10779716 0.112534024 -0.03862345
000070 05 10 b9 bd 96 7d cf bd 75 39 bb 3d 7b 37 6f 3d
       -0.090362586 -0.101313755 0.091418184 0.05840252

output_layers.6.weight f4 [2, 32]
000000 d9 e4 01 3d 43 05 b1 3d d1 88 fb ba 28 04 2c be
       0.031712387 0.08643582 -0.0019190555 -0.1679846
000010 11 36 21 be 9e 45 1b be 4b 17 01 3e 72 89 26 be
       -0.15743281 -0.15163276 0.12606542 -0.16263369
000020 6d 70 91 3d a4 fb 4b 3d 1c 30 b6 3c 72 22 82 3d
       0.07101522 0.04980053 0.022239737 0.06354226
000030 d8 4b 05 3e 7d 41 9e bd 99 8a 79 bd 17 77 80 3d
       0.13017213 -0.07727335 -0.060923193 0.062727146
000040 c1 29 58 3d 11 5a 34 bd aa 6e 95 3d a8 d4 4b 3d
       0.052774195 -0.044031207 0.07296498 0.04976335
000050 16 8b d8 bc 6c 39 fe bd fb c1 97 3d 5d 87 1e bd
       -0.026433509 -0.12413296 0.07410046 -0.03870331
000060 7f bc 0e be 85 b3 0c 3b 10 b2 bf bd 3b c0 f7 3d
       -0.13939093 0.0021469307 -0.093601346 0.12097212
000070 b2 e9 f6 3d 2a b9 24 be 90 c5 b2 3d 74 b8 3c 3c
       0.120562926 -0.1608626 0.08729088 0.011518586
000080 91 95 f2 bb ec d8 70 3d 3d 29 0d be 00 37 38 3e
       -0.0074030836 0.058800623 -0.13785262 0.17989731
000090 48 5e 15 bd 6e 4a 9e bc 37 dd e7 bc 95 0e 17 3e
       -0.036466867 -0.0193226 -0.028303726 0.14751656
0000a0 3f 15 c2 3d 87 ba 10 be bf ea 5a 3d d7 9e 28 3d
       0.094767086 -0.14133655 0.053446528 0.041167106
0000b0 1b 89 bf 3d 46 50 96 bd 31 7c 38 3e 4a 10 05 be
       0.09352323 -0.0733953 0.18016125 -0.12994495
0000c0 48 f3 27 3d 24 66 5b 3d 11 fb d5 3d ca e5 ee bd
       0.041003495 0.053564206 0.10448278 -0.116649225
0000d0 ab 63 77 bd 36 ff 18 be 1c 77 9e bd 7d 55 22 3e
       -0.060397785 -0.14941105 -0.07737562 0.15852924
0000e0 d4 33 c4 3d 54 96 a4 3d 05 9c eb 3d 0f 52 1a be
       0.09580198 0.08036485 0.11504368 -0.15070365
0000f0 99 45 15 3e 5e c4 88 bd c2 c0 13 be 93 21 93 3d
       0.1457733 -0.06678079 -0.14429 0.07184138

output_layers.6.bias f4 [2]
000000 8c 97 0e 3e 0c 00 03 be
       0.13924998 -0.12792987

exp_avg f4 [96, 15]
000000 88 c3 db b6 8b 67 e1 b6 95 a5 dd b6 3f a8 e1 b6
       -6.5494714e-06 -6.7175765e-06 -6.6055895e-06 -6.725109e-06
000010 28 73 18 b6 bc e2 98 35 65 31 05 b6 a2 6a 1e b6
       -2.2716795e-06 1.1390871e-06 -1.9847296e-06 -2.3605903e-06
000020 87 88 92 b5 bf 89 a9 b6 97 44 ad b4 5f 85 3f 36
       -1.0917582e-06 -5.0526282e-06 -3.2273667e-07 2.853885e-06
000030 00 00 00 00 50 23 dd 35 91 fc 07 35 3e 10 14 b6
       0.0 1.647606e-06 5.065895e-07 -2.2063173e-06
000040 a6 63 22 b6 7e f5 27 b6 39 3e 23 b6 79 75 ab b5
       -2.4197884e-06 -2.5027834e-06 -2.432511e-06 -1.2774682e-06
000050 a9 65 59 34 64 ab 51 b6 75 b5 5c b6 9d d3 29 b6
       2.0246684e-07 -3.124319e-06 -3.2888177e-06 -2.5306138e-06
000060 18 f3 2b b6 a0 e5 9f b5 fb 9f 12 36 00 00 00 00
       -2.5622485e-06 -1.1913253e-06 2.1848816e-06 0.0
000070 74 50 0d 36 41 d2 89 b5 0e 8d 74 36 bc 3e 73 36
       2.1057467e-06 -1.0268487e-06 3.6440938e-06 3.6246338e-06
000080 ae dd 7c 36 ca 40 7d 36 39 24 30 36 ba 02 70 36
       3.767996e-06 3.773765e-06 2.6247128e-06 3.5764374e-06
000090 04 50 82 35 78 0f 3f 33 5f e3 96 35 f7 54 ec b5
       9.709042e-07 4.448472e-08 1.1242045e-06 -1.7608098e-06
0000a0 94 0f 25 36 0c e6 40 36 00 00 00 00 c6 6a f4 35
       2.4595984e-06 2.8744134e-06 0.0 1.8210492e-06
0000b0 6e ab 16 b4 3c bb 65 37 3b 40 73 37 c4 7f 6a 37
       -1.4032204e-07 1.3693058e-05 1.44988835e-05 1.3977235e-05
0000c0 cc 0a 76 37 f8 b2 c5 36 a9 14 9d b4 96 72 45 36
       1.46652565e-05 5.891892e-06 -2.925856e-07 2.9421985e-06
0000d0 81 ac 51 36 d5 4d b3 35 2e 23 3b 37 db 82 62 36
       3.1243837e-06 1.3359191e-06 1.11542595e-05 3.3752792e-06
0000e0 ec d3 9c 35 00 00 00 00 ab 66 39 37 2c 49 3d 35
       1.1684583e-06 0.0 1.10507635e-05 7.0514466e-07
0000f0 83 04 78 b4 2d dc e5 b4 99 55 4c b4 90 93 af b4
       -2.3098441e-07 -4.2814773e-07 -1.9030121e-07 -3.2703656e-07
000100 f9 19 9a b5 a4 36 07 35 fa ec af b5 e4 48 c8 b5
       -1.1481453e-06 5.037093e-07 -1.3107485e-06 -1.4922375e-06
000110 7c ba da b5 39 58 3c 34 9d c8 19 b5 b7 b9 38 35
       -1.629654e-06 1.754096e-07 -5.728887e-07 6.881559e-07
000120 00 00 00 00 b0 7f 9e 34 53 da ac 34 1a b1 87 b6
       0.0 2.9522698e-07 3.2196348e-07 -4.043931e-06
000130 f6 00 8c b6 76 c3 85 b6 3b a4 87 b6 e2 e9 2a b6
       -4.172437e-06 -3.9864635e-06 -4.0424325e-06 -2.5468112e-06
000140 3b 06 1a 34 c5 31 18 b5 01 e4 27 b5 9a 51 82 b4
       1.4344634e-07 -5.6696837e-07 -6.254414e-07 -2.427376e-07
000150 3f 0d 11 b5 5d f2 1f b5 b7 1f 3e b4 00 00 00 00
       -5.4035985e-07 -5.95848e-07 -1.7706667e-07 0.0
000160 91 f1 38 b5 15 ea c8 b4 88 59 5c 37 ba ed 58 37
       -6.8896867e-07 -3.742322e-07 1.31338675e-05 1.2929953e-05
000170 74 4e 5c 37 a6 44 55 37 d5 6c 33 36 bf a0 a9 b5
       1.3131288e-05 1.2711773e-05 2.6736427e-06 -1.2638264e-06
000180 cb c1 0b b6 67 d3 f3 b5 62 aa 5e b6 fd 73 df b5
       -2.0825416e-06 -1.8166437e-06 -3.3179754e-06 -1.6648552e-06
000190 76 b0 71 b5 cc 57 b6 b5 00 00 00 00 ad c7 a8 b3
       -9.003628e-07 -1.3585609e-06 0.0 -7.8594304e-08
0001a0 89 f6 50 b5 28 16 a0 35 88 71 ad 35 f6 af a6 35
       -7.7844794e-07 1.1927377e-06 1.2922546e-06 1.2419175e-06
0001b0 0d 99 aa 35 01 0d 0e b5 69 fc 0c 34 35 56 e9 b4
       1.2710531e-06 -5.2918045e-07 1.3130342e-07 -4.3462356e-07
0001c0 90 45 02 b5 1d f5 9c b5 49 94 d1 36 6e 06 73 b5
       -4.853e-07 -1.1694243e-06 6.245948e-06 -9.053391e-07
0001d0 aa 97 63 b5 00 00 00 00 bc 35 86 b5 8e 61 2e b5
       -8.478479e-07 0.0 -9.999417e-07 -6.496201e-07
0001e0 d7 eb a4 35 00 b1 98 35 2d e7 a2 35 4b 4d 9f 35
       1.2287591e-06 1.1376396e-06 1.2137222e-06 1.1868918e-06
0001f0 d4 51 5f 32 71 23 8e b4 4d cb 12 b4 48 36 97 b3
       1.2998914e-08 -2.6475348e-07 -1.367127e-07 -7.041359e-08
000200 28 80 07 35 de b5 62 35 80 d3 2b 34 25 6b 6d 35
       5.047791e-07 8.445621e-07 1.6002559e-07 8.8445296e-07
000210 00 00 00 00 32 ef 2e 35 65 44 1d b3 76 4a 5e 34
       0.0 6.5168126e-07 -3.6616616e-08 2.070245e-07
000220 09 bc a1 34 4e cd 2b 34 a5 c8 80 34 c6 df 56 35
       3.01254e-07 1.6000305e-07 2.3987846e-07 8.0046846e-07
000230 2e e6 33 b5 e5 fb 94 33 49 31 87 34 a6 ab 64 35
       -6.701765e-07 6.9376064e-08 2.518157e-07 8.51864e-07
000240 c8 61 4c b5 66 2f 8e 34 c9 38 23 34 00 00 00 00
       -7.613821e-07 2.6484048e-07 1.5201216e-07 0.0
000250 d4 a6 a3 b3 d1 de e5 b1 4e b0 7b b6 76 28 7f b6
       -7.620625e-08 -6.6901085e-09 -3.7504537e-06 -3.8021512e-06
000260 fe c2 6f b6 a0 79 71 b6 df 3f 24 b6 74 aa 1b 34
       -3.5727276e-06 -3.5982594e-06 -2.4475082e-06 1.449751e-07
000270 90 ef 8d b5 52 2d 98 b5 bd 96 53 b6 00 9c 93 b6
       -1.057504e-06 -1.1338072e-06 -3.1529191e-06 -4.399102e-06
000280 7b 62 ed b5 5e b2 4d b5 00 00 00 00 e6 ef 61 b5
       -1.7686538e-06 -7.662801e-07 0.0 -8.416813e-07
000290 e5 26 03 b5 85 f4 89 36 53 85 90 36 63 f6 8c 36
       -4.88579e-07 4.111384e-06 4.3070554e-06 4.2010083e-06
0002a0 ce 04 90 36 e2 58 ea 35 fb 84 ab 34 ac 66 8d 35
       4.2920938e-06 1.7460227e-06 3.1947988e-07 1.05352e-06
0002b0 1e dc 86 35 dc 8b fc b4 8a 47 30 35 3e 7b c1 34
       1.004784e-06 -4.704042e-07 6.566921e-07 3.6038722e-07
0002c0 a4 74 0f b5 00 00 00 00 16 78 25 35 f5 2f a8 b4
       -5.3441386e-07 0.0 6.164204e-07 -3.1327332e-07
0002d0 bd 8a 38 36 24 c2 3e 36 9a 90 59 36 a7 23 5b 36
       2.7498893e-06 2.842521e-06 3.241969e-06 3.2654295e-06
0002e0 a8 f7 47 33 34 ae c0 35 3f ee 26 36 09 f0 12 36
       4.655854e-08 1.4355815e-06 2.4874605e-06 2.1895414e-06
0002f0 48 25 14 b6 13 7c cf 35 c7 70 4e b5 0d 0a 93 b6
       -2.207542e-06 1.5458812e-06 -7.690509e-07 -4.3821115e-06
000300 00 00 00 00 55 e9 55 b6 25 d1 ce b3 79 a3 07 36
       0.0 -3.187529e-06 -9.630666e-08 2.0211721e-06
000310 78 e8 03 36 99 b0 05 36 57 cd 04 36 f4 4e 80 b1
       1.9655836e-06 1.9921338e-06 1.9789056e-06 -3.7342662e-09
000320 69 41 52 b4 4e 94 b4 b5 29 e5 b3 b5 9d 05 87 b6
       -1.958157e-07 -1.3454207e-06 -1.3403234e-06 -4.023967e-06
000330 1a 67 b5 b5 c1 e6 ba b5 80 8d bc b5 00 00 00 00
       -1.3515557e-06 -1.3925238e-06 -1.4048273e-06 0.0
000340 7e a5 79 b4 30 a3 5b b5 9f 69 fc 35 10 cd 0f 36
       -2.3250138e-07 -8.1821327e-07 1.8806203e-06 2.1428023e-06
000350 a0 91 06 36 28 74 0f 36 91 84 5d b5 55 4d 26 b5
       2.005232e-06 2.1376272e-06 -8.2521825e-07 -6.195235e-07
000360 0f 46 e9 b3 cf 10 67 33 67 c8 24 b5 1a 89 62 37
       -1.08626516e-07 5.3799166e-08 -6.1386385e-07 1.3502571e-05
000370 7a 4c 9b b5 9f d9 d7 b5 00 00 00 00 77 aa fc b5
       -1.1570658e-06 -1.6082084e-06 0.0 -1.8825075e-06
000380 d4 89 99 b5 00 34 6f 36 02 90 73 36 e2 47 7a 36
       -1.1439502e-06 3.5644043e-06 3.6293645e-06 3.7294744e-06
000390 71 2c 80 36 9d d2 80 35 10 c9 44 b5 f8 bd 75 34
       3.819871e-06 9.59804e-07 -7.3308274e-07 2.2886513e-07
0003a0 8f e8 e8 34 33 b0 3c b5 58 45 e9 35 74 24 63 b4
       4.3382576e-07 -7.029186e-07 1.7380034e-06 -2.1154284e-07
0003b0 a8 00 19 b4 00 00 00 00 7f 6b e1 33 3d 9e 65 33
       -1.4249474e-07 0.0 1.04969324e-07 5.3462134e-08
0003c0 5e 01 23 36 15 3a 2c 36 cf 18 30 36 c5 2d 37 36
       2.4289689e-06 2.5663805e-06 2.6240484e-06 2.7295766e-06
0003d0 a6 01 bc 35 b1 b3 9c 35 47 87 c0 35 98 39 9d 35
       1.4007571e-06 1.1675203e-06 1.4344486e-06 1.1714174e-06
0003e0 ea 30 b5 b4 4f 83 5c 35 72 ca 93 34 f9 c3 96 34
       -3.3749467e-07 8.2147466e-07 2.7528182e-07 2.8082266e-07
0003f0 00 00 00 00 72 f4 ca 34 ae 5b a4 33 36 44 1a 36
       0.0 3.780329e-07 7.6535215e-08 2.2987492e-06
