lightning_logs/version_2/checkpoints/epoch=49-step=150.ckpt (torch, 47499 bytes, 18 tensors)

network.0.weight f4 [64, 15]
0	0xbe9cf3d5	-0.3065478
1	0xbe7623cc	-0.24037093
2	0xbe7f00c9	-0.24902643
3	0xbe3ab6df	-0.18233822
4	0xbc97c96c	-0.018528663
5	0x3e372498	0.17885053
6	0x3e0ad355	0.1355718
7	0x3e5f1d20	0.21788454
8	0xbd10c4f7	-0.03534409
9	0x3e8ca553	0.27469882
10	0xbc07c1ad	-0.008285922
11	0xbdcbe3ce	-0.0995556
12	0x3cd68442	0.026186112
13	0x3e3e515d	0.18585725
14	0x3dcc787d	0.09983919
15	0xbe437815	-0.19088776
16	0xbcde5601	-0.02714062
17	0xbd1b40c7	-0.037903573
18	0x3ddb2d40	0.1070199
19	0xbe929004	-0.286255
20	0x3e18d66d	0.14925547
21	0x3ce2216f	0.027603833
22	0xbe3bbe51	-0.18334319
23	0x3b951193	0.004549214
24	0xbd982c95	-0.07430378
25	0x3d6af217	0.05735978
26	0xbe0fec7c	-0.14055055
27	0x3d62403d	0.055237044
28	0x3e1e23b8	0.15443313
29	0xbe97652a	-0.2956937
30	0x3cafd970	0.021465987
31	0xbdd82880	-0.105546
32	0x3e3da8e3	0.18521456
33	0xbdb16bef	-0.08663165
34	0x3e1e9301	0.15485765
35	0x3dbd9adb	0.09258052
36	0x3e01a9f3	0.12662487
37	0x3c45c4d4	0.012070853
38	0xbe5ccc6a	-0.21562353
39	0xbbb52501	-0.005528093
40	0xbce3ce1d	-0.027808243
41	0x3e4c74e7	0.1996647
42	0x3d113506	0.035450958
43	0x3e6d20ad	0.23156996
44	0x3e23699c	0.15958256
45	0xbe64366b	-0.22286384
46	0x3e80a1d3	0.25123462
47	0xbe1360c9	-0.1439239
48	0xbe65cf6c	-0.22442406
49	0xbd9e6f6b	-0.07736095
50	0xbe67950c	-0.2261545
51	0x3e29d8c7	0.165866
52	0xbcdf81c4	-0.027283557
53	0x3de5ed5e	0.11226915
54	0xbe466fc4	-0.19378573
55	0x3e6d4207	0.23169719
56	0xbdd01fe3	-0.10162332
57	0x3d815c76	0.06316464
58	0x3d487db2	0.048947997
59	0x3d4c6de2	0.04990948
60	0xbe952063	-0.29126272
61	0xbccf053a	-0.025271047
62	0xbe06437b	-0.1311168
63	0xbc7eac25	-0.015543972
64	0xbe13c0eb	-0.14429061
65	0xbe63bce2	-0.22240022
66	0xbe2287da	-0.15872136
67	0xbe472ba7	-0.19450246
68	0x3c7196a0	0.014745384
69	0xbe23a346	-0.15980253
70	0xbd1988ae	-0.037483864
71	0x3d46ac62	0.04850424
72	0xbe2b7ace	-0.16746065
73	0xbc8c659f	-0.0171383
74	0xbe83eb1e	-0.25765318
75	0xbd4c46c1	-0.049872164
76	0xbdc3cb6f	-0.09560286
77	0x3e237600	0.15962982
78	0xbd64efdb	-0.055892807
79	0x3e2661c1	0.16248228
80	0xbda10a1c	-0.07863256
81	0xbe1ec062	-0.15503076
82	0xbe9fa4cf	-0.31180426
83	0x3e69a246	0.22815809
84	0xbe70f995	-0.23532708
85	0xbc859123	-0.016304558
86	0x3ce571c9	0.028008359
87	0x3e78298c	0.24234599
88	0x3e4d4a9d	0.20047994
89	0x3d0dbb0d	0.034602214
90	0x3db77693	0.08958163
91	0x3e741513	0.23836164
92	0x3d8e24fc	0.06940648
93	0xbe6f0ef3	-0.23345546
94	0x3e337b09	0.17527403
95	0xbe77041a	-0.24122658
96	0xbdea5e24	-0.11443737
97	0xbe1bedd5	-0.15227444
98	0x3e3371a9	0.17523827
99	0x3bfe7ba5	0.0077662044
100	0x3e05e501	0.1307564
101	0x3e2df59b	0.16988222
102	0xbc9a86d8	-0.018863127
103	0xbd75501a	-0.059890844
104	0xbdbcb378	-0.092139184
105	0x3e0e3571	0.13887574
106	0x3e6adbe3	0.22935443
107	0x3d0a428e	0.033754878
108	0x3ea610d5	0.32434717
109	0xbe59afc1	-0.21258451
110	0xbe53df6a	-0.20690694
111	0x3e2a2cde	0.16618678
112	0xbe0b550a	-0.13606659
113	0xbe2e69e6	-0.17032585
114	0xbcbb60a4	-0.02287323
115	0xbe1aa294	-0.15101081
116	0xbe785c59	-0.24253978
117	0xbdff51b5	-0.12466756
118	0xbd60d142	-0.054887064
119	0xbe85c391	-0.26125768
120	0x3e0a0248	0.13477433
121	0xbe42ac1b	-0.19010966
122	0x3e1454d9	0.14485492
123	0xbe3e62dc	-0.185924
124	0x3d547035	0.05186482
125	0xbce56366	-0.028001498
126	0xbe04122b	-0.12897556
127	0xbd02c6ed	-0.03192799
128	0x3dd47618	0.10374087
129	0x3d9080ce	0.070558175
130	0xbcecc15a	-0.028900791
131	0xbb94db10	-0.004542716
132	0xbe01588e	-0.12631437
133	0xba923a99	-0.001115638
134	0xbe5e04ce	-0.2168152
135	0x3e8fa914	0.28058684
136	0xbc04df5d	-0.008109895
137	0xbc13d313	-0.009022492
138	0x3defd697	0.11710852
139	0xbb2e800c	-0.0026626615
140	0x3c91b589	0.017786758
141	0x3da6c36d	0.08142743
142	0xbe491b55	-0.19639333
143	0xbc141513	-0.009038228
144	0x3db4a6fa	0.08820911
145	0x3df91ee5	0.12164096
146	0xbe0ce7bd	-0.13760276
147	0xbe3c6e1d	-0.1840138
148	0x3dd79c6f	0.10527884
149	0x3e042d22	0.12907842
150	0x3e387278	0.18012416
151	0xbe29994e	-0.16562387
152	0xbd4c220f	-0.04983717
153	0xbd69d8fc	-0.057091698
154	0xbe7175f9	-0.23580159
155	0xbe27d590	-0.16390061
156	0xbdd33dc0	-0.10314512
157	0xbe5d18e5	-0.21591528
158	0xbe005a1c	-0.12534374
159	0x3c0710a2	0.008243712
160	0xbe2eb58f	-0.17061447
161	0x3e4cd7d8	0.20004213
162	0x3e82f0b7	0.25574276
163	0x3d1550bb	0.036453944
164	0xbd9db0f2	-0.07699765
165	0x3e5d7060	0.21624899
166	0xbdc97474	-0.09836665
167	0x3e0e7840	0.13913059
168	0xbd9e2892	-0.07722582
169	0x3e5150b2	0.20440939
170	0x3e50d2e1	0.20392944
171	0x3ddbcc48	0.10732323
172	0xbd57e89e	-0.052712075
173	0xbe1869a9	-0.14884056
174	0x3e66abab	0.22526424
175	0xbdd4bf4c	-0.103880495
176	0xbe5acc1b	-0.21366923
177	0x3e56701e	0.20941207
178	0x3e6d0e3d	0.23149963
179	0x3e128c54	0.14311343
180	0xbd0b4af9	-0.034007046
181	0x3d9f4000	0.07775879
182	0x3be5f43a	0.0070176395
183	0x3e870368	0.26369786
184	0xbdf076b3	-0.1174139
185	0x3d93370a	0.07188232
186	0xbc03efc9	-0.008052775
187	0x3e1a7dad	0.15087004
188	0xbd4b4532	-0.049626537
189	0x3d55ff46	0.0522454
190	0x3e53c2e1	0.20679809
191	0x3e54b241	0.20771123
192	0x3d1ce318	0.03830251
193	0xbe4a042d	-0.19728155
194	0xbe80d215	-0.2516028
195	0xbdde0689	-0.1084109
196	0x3e34c90c	0.17654818
197	0xbc738789	-0.014863857
198	0x3abfdd26	0.0014638051
199	0xbe8d3623	-0.27580366
200	0x3b991516	0.004671703
201	0x3e4300ec	0.1904332
202	0xbe888121	-0.26661018
203	0xbe508ef9	-0.2036704
204	0x3e3f2dd9	0.18669833
205	0xbea57767	-0.3231766
206	0x3e3cf599	0.18453063
207	0xbe6df563	-0.23238139
208	0xbdedd369	-0.11612589
209	0xbe9725dc	-0.29521072
210	0x3e1edfe4	0.15515095
211	0xbe6a8bf7	-0.22904955
212	0xbe5677e3	-0.2094417
213	0x3d8627d7	0.065505676
214	0x3e161b55	0.14658864
215	0xbd67e987	-0.056619193
216	0xbe14f33e	-0.14545915
217	0xbd1a1e78	-0.037626714
218	0xbe8f44fc	-0.27982318
219	0xbd39804b	-0.045288365
220	0x3e309c8a	0.17247215
221	0xbe26aa6d	-0.1627595
222	0xbd63564a	-0.055502214
223	0xbe933435	-0.28750768
224	0xbdb4457e	-0.08802317
225	0xbe14802d	-0.1450202
226	0xbd3b966d	-0.045797754
227	0xbe28304d	-0.16424675
228	0xbe3946e1	-0.18093444
229	0x3e66b750	0.22530866
230	0x3e3069a9	0.17227806
231	0x3e884f65	0.26623073
232	0xbe0c7e94	-0.1372016
233	0xbe5371a6	-0.20648822
234	0x3e0d631d	0.1380734
235	0xbe83b62a	-0.25724918
236	0xbe4b4f5f	-0.19854496
237	0xbe3f1d59	-0.18663539
238	0x3cb6380b	0.02224352
239	0x3e4bea45	0.19913585
240	0xbe58a835	-0.21157916
241	0x3e25d0a7	0.16192876
242	0xbcab7d55	-0.020933786
243	0x3e3aa967	0.18228684
244	0xbc746473	-0.014916527
245	0x3d7e6bc7	0.062114503
246	0x3e550d17	0.20805775
247	0x3abf2e7d	0.0014585998
248	0x3c0f8fc5	0.008762305
249	0x3e1c4c2c	0.15263432
250	0xbda3d0e6	-0.079988286
251	0xbad0eca2	-0.0015939663
252	0xbe4ec76b	-0.2019326
253	0x3e099770	0.13436675
254	0xbd31db79	-0.043422196
255	0xbe779ce5	-0.24180944

network.0.bias f4 [64]
0	0x3e069f77	0.13146769
1	0x3dd7f6d7	0.10545128
2	0xbe6f7656	-0.23384985
3	0xbc84aa92	-0.016194616
4	0x3d75acb0	0.05997914
5	0x3e153dac	0.14574307
6	0xbda5d4e9	-0.0809725
7	0x3e37a222	0.17932943
8	0x3c8c9abb	0.017163625
9	0xbd309c27	-0.04311767
10	0x3dcaa7bf	0.09895276
11	0x3d351c91	0.044216696
12	0x3e39573b	0.18099682
13	0x3d1c14b2	0.038105674
14	0x3e859d40	0.26096535
15	0x3e649343	0.22321801
16	0x3bb70738	0.0055855773
17	0xbcba1384	-0.022714384
18	0x3b6dba50	0.003627438
19	0x3eb7efca	0.35925132
20	0xbde774c9	-0.11301572
21	0xbddc097e	-0.10743998
22	0xbd7329c0	-0.059365988
23	0xbe255ae0	-0.16147947
24	0xbe04b669	-0.12960209
25	0x3cb16db8	0.021658763
26	0xbe105bfb	-0.14097588
27	0x3e019d8f	0.1265776
28	0xbe014d93	-0.12627248
29	0x3dc2d99d	0.09514163
30	0xbc867e1c	-0.016417556
31	0x3e3f4989	0.18680395
32	0xbe6fecf7	-0.23430239
33	0xbdaba073	-0.08380213
34	0x3e23d3bb	0.15998738
35	0xbe3ef60f	-0.18648551
36	0xbddba421	-0.107246645
37	0x3cfde18a	0.030991334
38	0xbc64158c	-0.013921153
39	0x3e40879e	0.18801734
40	0x3e8578a0	0.26068592
41	0xbc3043b6	-0.010758331
42	0x3e0cfc8e	0.13768217
43	0xbe80c4d2	-0.25150162
44	0x3e955a04	0.2917024
45	0x3ea0878b	0.3135341
46	0x3e9d68ff	0.30744168
47	0x3e6a49c5	0.22879703
48	0xbda038a0	-0.078233
49	0xbe25a79e	-0.16177222
50	0xbc192f6b	-0.009349684
51	0xbdb8f21a	-0.09030552
52	0x3eb34b8e	0.3501858
53	0xbd9f0b1e	-0.07765792
54	0x3eb49854	0.35272467
55	0x3d081784	0.03322555
56	0xbe1f9d5a	-0.15587369
57	0x3e209c98	0.15684736
58	0xbdcb7f44	-0.09936383
59	0x3eb82d87	0.35972235
60	0x3d372e64	0.044721976
61	0x3d9feda4	0.07808998
62	0x3d5d25b7	0.053991046
63	0x3ea43eab	0.32079062

network.3.weight f4 [32, 64]
0	0x3db4e6cf	0.08833086
1	0x3d8a823a	0.0676312
2	0xbd837ee6	-0.06420688
3	0xbcdbbe76	-0.026824217
4	0x3e1d5968	0.15366137
5	0x3e2bf81d	0.16793866
6	0xbd9fb103	-0.07797434
7	0x3e2d6237	0.16931997
8	0x3d825fc2	0.063659206
9	0x3d666181	0.05624533
10	0x3d76eaf1	0.06028265
11	0x3e336cc2	0.17521957
12	0x3d7e00b3	0.062012386
13	0x3dd1c1e9	0.102420636
14	0x3d8a9f56	0.06768672
15	0x3e1e308a	0.15448204
16	0x3dae4a5e	0.08510278
17	0x3d51cee1	0.051222686
18	0xbce4bb78	-0.027921423
19	0x3e284c72	0.16435412
20	0x3e038029	0.12841858
21	0x3da9b03e	0.08285569
22	0xbc778a6d	-0.015108687
23	0x3dd92c5f	0.10604166
24	0x3dd387c9	0.10328633
25	0xbd73caee	-0.0595197
26	0x3d52132e	0.051287822
27	0x3de1eaa9	0.11031086
28	0x3d3e8596	0.046514116
29	0x3d83aa56	0.064289734
30	0x3b83863e	0.0040138057
31	0x3daf7872	0.08567895
32	0x3d1ceefb	0.038313847
33	0x3dcf30c2	0.10116722
34	0x3d68ec87	0.056866195
35	0x3defbb0d	0.11705599
36	0x3d94a66b	0.07258304
37	0x3dcc28a0	0.09968686
38	0x3e11f635	0.14254077
39	0xbca7d611	-0.020487817
40	0x3e0af498	0.13569868
41	0x3e34dd13	0.17662458
42	0x3e1d7276	0.15375695
43	0xbd444962	-0.047921546
44	0x3d1545fa	0.036443688
45	0xbd33bbad	-0.043880153
46	0xbc40e592	-0.011773484
47	0x3de52883	0.111893676
48	0x3c624926	0.013811385
49	0x3d7347c2	0.059394605
50	0x3e0db232	0.13837507
51	0x3e0f2f14	0.13982803
52	0x3d20d0c6	0.039261602
53	0x3e3cddc0	0.18443966
54	0x3e31c4b8	0.17360198
55	0x3d2be032	0.041961856
56	0x3d3c874b	0.046027463
57	0x3b5602a3	0.003265538
58	0x3e23d3bd	0.1599874
59	0x3d804974	0.0626401
60	0x3e2b5bcc	0.16734236
61	0x3db65f8a	0.089049414
62	0x3e043a0e	0.12912771
63	0x3e6f9249	0.23395647
64	0xbdd56bae	-0.10420929
65	0xbd10e439	-0.0353739
66	0xbd8ff086	-0.07028298
67	0xbdb37078	-0.08761686
68	0xbde77bc5	-0.11302904
69	0xbd03f557	-0.032216396
70	0xbd9b0cbc	-0.07570788
71	0xbdbd4ff5	-0.09243766
72	0xbdab24b7	-0.08356612
73	0xbdd77b18	-0.10521525
74	0xbdce6864	-0.10078505
75	0x3db3feae	0.08788811
76	0xbc45858b	-0.012055765
77	0x3d511028	0.0510408
78	0x3d2e2312	0.042513914
79	0xbe020215	-0.12696107
80	0x3d3b43d7	0.045718994
81	0xbd82a31f	-0.06378769
82	0xbd5652dd	-0.05232512
83	0xbd89d91b	-0.06730863
84	0xbe081175	-0.1328791
85	0xbd7005fd	-0.05859946
86	0x3da84468	0.082161725
87	0x3d8deeb4	0.06930295
88	0x3d03763d	0.032095183
89	0xbe1cb4b6	-0.15303311
90	0x3c02bcdc	0.007979598
91	0x390cf539	0.00013442793
92	0x3d01a019	0.03164682
93	0x3be289bf	0.0069133933
94	0xbe0675bf	-0.13130854
95	0x3d3effc8	0.04663065
96	0xbdbe5dc7	-0.0929523
97	0xbd46dd3f	-0.04855084
98	0x3d6d0870	0.057869375
99	0xbd045cdc	-0.03231512
100	0xbded445e	-0.11585306
101	0xbd419699	-0.04726276
102	0x3d6fac3f	0.058513876
103	0xbde43f34	-0.111448675
104	0xbb1a001b	-0.0023498598
105	0xbdc3b203	-0.095554374
106	0xbda38e4e	-0.07986127
107	0xbdc1efe8	-0.094695866
108	0xbd323f98	-0.04351768
109	0xbe047382	-0.12934688
110	0xba7f19c9	-0.00097313203
111	0x3ce954d3	0.02848283
112	0x3d87ee89	0.06637294
113	0x3bc3808a	0.005966251
114	0x3d834a56	0.06410663
115	0x3db57dbf	0.08861875
116	0x3c8a1fed	0.016860927
117	0xbe10eb26	-0.14152202
118	0x3d88d903	0.06682017
119	0x3d793815	0.0608445
120	0x3d2a2e47	0.04154804
121	0xbd6e6c0c	-0.05820851
122	0xbc33aa4b	-0.010965894
123	0xbd855df1	-0.065120585
124	0xbdd5d928	-0.1044181
125	0x3d291a20	0.04128468
126	0xbd773e55	-0.06036218
127	0xbd1a1446	-0.03761699
128	0xbd9eb606	-0.07749562
129	0xbdb2d138	-0.087313116
130	0x3d201915	0.03908642
131	0xbd9756e7	-0.07389622
132	0x3dd77cf6	0.10521881
133	0xbdf11f1a	-0.1177351
134	0x3d2fb8d4	0.042900875
135	0xbe127885	-0.14303787
136	0x3ccfa3d6	0.025346678
137	0x3a035c33	0.0005010992
138	0x3db6f769	0.089339085
139	0xbcd48067	-0.025940133
140	0xbde0994b	-0.10966738
141	0x3c14ad36	0.0090745
142	0xbe0a0ffa	-0.13482657
143	0xbd4c6ccb	-0.04990844
144	0x3d48f3a1	0.049060468
145	0x3d301d84	0.0429969
146	0xbc7c4ccd	-0.01539917
147	0x3d3f9980	0.04677725
148	0xbd2726a2	-0.040808327
149	0x3deb5d48	0.11492401
150	0xbe087dad	-0.13329192
151	0x3d192c31	0.03739566
152	0x3d531c26	0.051540516
153	0xbdccb6b8	-0.09995788
154	0xbc34cbce	-0.011034919
155	0xbd1421b3	-0.03616495
156	0x3c9c4014	0.019073524
157	0x3d68b2e9	0.056811247
158	0x3bd470c1	0.006483168
159	0xbe075b8b	-0.13218515
160	0xbbca5e91	-0.006175824
161	0xbde9e17e	-0.11419962
162	0xbdb5ede6	-0.08883266
163	0xbdb1693f	-0.08662652
164	0x3d155043	0.036453497
165	0xbd05a4a6	-0.032627724
166	0x3dd8b5ce	0.105815515
167	0xbdd81b39	-0.10552067
168	0x3dac6564	0.08417776
169	0xbd56c96a	-0.052438177
170	0xbe06e740	-0.13174152
171	0xbd792674	-0.060827687
172	0x3d78eecf	0.06077462
173	0xbe0ce0df	-0.13757657
174	0xbd5f26cb	-0.054480355
175	0xbe07a042	-0.13244727
176	0x3d9cd3e7	0.07657605
177	0xbdddfe32	-0.108394995
178	0xbdfedc51	-0.12444366
179	0x3d9b1415	0.0757219
180	0x3d01b595	0.03166731
181	0x3dcdc4db	0.10047313
182	0xbdf70968	-0.12062341
183	0x3cfd73d4	0.03093902
184	0x3d3ff2ab	0.046862286
185	0x3db6088a	0.088883474
186	0xbd0b21dc	-0.033967838
187	0xbdff4519	-0.12464351
188	0x3a3df543	0.00072463247
189	0xbdc70a31	-0.09718741
190	0x3d074bdc	0.03303133
191	0xbdce7f61	-0.10082889
192	0xbc2cfbcf	-0.010558083
193	0x3dc905be	0.09815548
194	0x3d9707ca	0.073745325
195	0x3c74384f	0.014906003
196	0x3d5b7c92	0.053585596
197	0xbdccb663	-0.09995725
198	0x3da066aa	0.078320816
199	0x3deab2e2	0.114599004
200	0xbde3bd34	-0.11120072
201	0x3c5b9d61	0.013404221
202	0x3d2c855f	0.04211938
203	0x3cc586ae	0.024112072
204	0xbd007b4f	-0.031367596
205	0xbdcdfbf6	-0.10057823
206	0xbdb53f78	-0.08849996
207	0x3dba8ac9	0.091085024
208	0x3d691bbf	0.056911226
209	0xbdb25ec2	-0.0870948
210	0x3dca7a33	0.09886589
211	0xbde56b93	-0.11202159
212	0x3d38ba2a	0.045099415
213	0xbdc04c63	-0.093895696
214	0x3d2a6472	0.0415997
215	0xbd9253c6	-0.07144885
216	0xbd21dc65	-0.039516825
217	0xbe00e121	-0.1258588
218	0xbde5c7d3	-0.11219754
219	0xbccb60b3	-0.024826383
220	0xbd390406	-0.045169853
221	0xbd895a9c	-0.067067355
222	0x3d96f577	0.073710375
223	0xbdb04c19	-0.086082645
224	0xbb706370	-0.0036680363
225	0x3ccc72ea	0.024957139
226	0xbd60be7e	-0.054869168
227	0xbcd6ede3	-0.02623648
228	0xbe054d5f	-0.13017796
229	0xbdff9650	-0.12479842
230	0xbe05d749	-0.13070406
231	0xbce2a50b	-0.02766659
232	0xbdff1b9a	-0.124564365
233	0x3dcabb1d	0.0989897
234	0x3d92b7d5	0.071639694
235	0xbd568c38	-0.052379817
236	0xbdca961e	-0.09891914
237	0x3d6d46d7	0.057928886
238	0xbda9547e	-0.08268069
239	0x3d40198f	0.046899375
240	0xbdb883b3	-0.09009495
241	0xbd8995aa	-0.06717999
242	0xbcfe57bc	-0.031047694
243	0xbc5d6942	-0.013513865
244	0x3d6027f3	0.0547256
245	0x3db7e36d	0.08978925
246	0xbda694e1	-0.08133865
247	0x3d97d3af	0.07413422
248	0xbe032e84	-0.12810713
249	0x3cf69a10	0.03010276
250	0xbd898591	-0.06714929
251	0xbdae81cf	-0.08520853
252	0xbd88f397	-0.06687086
253	0xbded0bb1	-0.115744956
254	0xbd9470e5	-0.072480954
255	0xbe0c4903	-0.13699727

network.3.bias f4 [32]
0	0x3d8470ce	0.06466828
1	0xbd60ab4c	-0.05485086
2	0xbd92ff98	-0.07177657
3	0xbe1f8190	-0.15576768
4	0xbd1e7063	-0.0386814
5	0x3d66346b	0.056202333
6	0x3d031c17	0.03200921
7	0xbe01ee85	-0.12688644
8	0x3dfbb078	0.12289518
9	0xbce88c22	-0.028387133
10	0x3d3a5385	0.045489807
11	0x3d17a403	0.03702165
12	0x3daf6f5d	0.08566163
13	0xbd4c26c6	-0.049841665
14	0xbc510966	-0.012758588
15	0x3cb3fba0	0.02197057
16	0xbd60ca9e	-0.05488073
17	0xbe1ba08c	-0.15197963
18	0x3d8a83a1	0.067633875
19	0x3c62cfac	0.013843458
20	0xbdf923a2	-0.121649995
21	0x3dd33d2b	0.10314401
22	0xbc311efb	-0.010810609
23	0x3c0c172e	0.008550448
24	0x3d9864cb	0.074411
25	0x3da0051a	0.07813473
26	0x3e1857b0	0.148772
27	0x3d92b9de	0.071643576
28	0x39d15e8c	0.0003993403
29	0xbdb0b723	-0.086286806
30	0xbd48f98c	-0.04906611
31	0xbc94d4c0	-0.018167853

network.6.weight f4 [2, 32]
0	0x3b142578	0.002260534
1	0x3aa21300	0.0012365282
2	0x3d0601a9	0.032716427
3	0x3daa34f3	0.083108805
4	0x3e069171	0.13141419
5	0x3bf92931	0.0076037874
6	0xbe15ec2d	-0.14640875
7	0x3e06bb08	0.13157284
8	0xbd3988be	-0.045296423
9	0x3e1a97c2	0.15096954
10	0xbb82e49c	-0.0039945375
11	0xbdeafa6b	-0.11473545
12	0x3cae667c	0.021289103
13	0x3df38c44	0.11891988
14	0xbc74b5a3	-0.014935884
15	0x3dd8d689	0.10587794
16	0x3d817e38	0.063229024
17	0xbe0e1b75	-0.13877662
18	0xbd048408	-0.032352477
19	0x3d6b4668	0.05744019
20	0x3e271f37	0.16320501
21	0xbd991406	-0.07474522
22	0xbc9ee4b8	-0.019396171
23	0x3da787b8	0.08180183
24	0xbda3eceb	-0.08004173
25	0xbcf95e71	-0.030440541
26	0x3c0707cd	0.008241606
27	0x3de16ec0	0.11007452
28	0x3d230e1f	0.03980839
29	0x3e10fd7d	0.14159198
30	0xbd2d8e34	-0.042371944
31	0x3d295432	0.04134006
32	0xbe61ddfb	-0.22057335
33	0x3dc6d308	0.0970822
34	0x3d59be68	0.0531601
35	0x3cf45885	0.029827366
36	0xbd753b6d	-0.059871126
37	0xbe15479f	-0.14578103
38	0x3e1ad10f	0.15118812
39	0x3d692d9e	0.05692827
40	0xbe9b9b5c	-0.30391967
41	0xbe236b54	-0.15958911
42	0xbe28e8ac	-0.16495007
43	0xbd778051	-0.060425106
44	0xbe7ce2c5	-0.2469588
45	0xbdb6e595	-0.08930508
46	0x3dd98e36	0.10622828
47	0x3c870c1f	0.016485272
48	0xbde02480	-0.10944462
49	0x3cb3f7c5	0.021968732
50	0xbe520ee4	-0.20513493
51	0xbe1faa47	-0.155923
52	0x3de3cbc5	0.1112285
53	0xb9d428be	-0.00040466146
54	0xbe3fd67f	-0.18734168
55	0xbe793af2	-0.24338892
56	0xbe1596ea	-0.1460835
57	0xbdf818a8	-0.12114078
58	0xbe5cb4ab	-0.21553294
59	0xbc9acfab	-0.018897852
60	0xbe8e22ec	-0.27761018
61	0xbda279c2	-0.0793338
62	0x3dbf0e3b	0.09328886
63	0xbe764660	-0.24050283

network.6.bias f4 [2]
0	0xbd7ae193	-0.06125028
1	0x3c1ffdfa	0.009765143

exp_avg f4 [64, 15]
0	0x38f7fbdc	0.0001182479
1	0x388010a9	6.106619e-05
2	0x3913db95	0.00014100813
3	0x38bc1f66	8.970387e-05
4	0xba8faa62	-0.0010960812
5	0x38cff940	9.9169556e-05
6	0x3bd59727	0.006518263
7	0x3bda0ae6	0.006654131
8	0x3ac308eb	0.0014879977
9	0xbc381de0	-0.0112375915
10	0x3c022421	0.007943184
11	0x3bb8fff3	0.005645746
12	0x00000000	0.0
13	0x3b8f8a21	0.00438048
14	0x3c8ea6ea	0.017413575
15	0xbc8763b8	-0.016527042
16	0xbc892808	-0.016742721
17	0xbc8a5091	-0.01688412
18	0xbc89b7de	-0.016811308
19	0x3c5eb28f	0.013592376
20	0x3abf3205	0.001458705
21	0xba14a94c	-0.0005670979
22	0xba89b1ee	-0.0010505298
23	0x3b212ae5	0.0024592218
24	0xbc1ea147	-0.009682006
25	0x3b8122be	0.003940909
26	0x3badab56	0.005299966
27	0x00000000	0.0
28	0x3ba32c3f	0.00497964
29	0x3afa1c90	0.0019081999
30	0x39088c99	0.00013022347
31	0x38fd7653	0.0001208602
32	0x3946ecd2	0.00018970974
33	0x395050a4	0.00019866467
34	0xbb69babb	-0.0035664279
35	0x39db9afc	0.00041886407
36	0x3a2ae32f	0.00065188383
37	0x3a19e96e	0.00058712706
38	0xbace1a6a	-0.0015724425
39	0xba1b652a	-0.00059278554
40	0xbb2175c8	-0.0024636853
41	0xbb2be6df	-0.002623014
42	0x00000000	0.0
43	0xbaaa393a	-0.0012987026
44	0xbb34c180	-0.0027581155
45	0x3b34b63e	0.0027574445
46	0x3b37929b	0.0028010968
47	0x3b353e4e	0.0027655545
48	0x3b38483a	0.0028119222
49	0xb8426a82	-4.6352397e-05
50	0x3a66d8b5	0.00088060956
51	0xbb1a7032	-0.0023565409
52	0xbb2af1ba	-0.0026084022
53	0xb995ebac	-0.00028595084
54	0x3b88bbd0	0.0041727796
55	0xbb04ee6d	-0.0020283714
56	0xbaae548b	-0.0013300342
57	0x00000000	0.0
58	0xb959d5f2	-0.00020774434
59	0xbb998b8e	-0.0046858257
60	0xba92aed5	-0.001119102
61	0xba94f385	-0.0011364078
62	0xbab4a784	-0.0013782834
63	0xbac23fc3	-0.0014820028
64	0xbbb80c39	-0.0056166914
65	0xbb1240f8	-0.0022316556
66	0xba430da0	-0.000744069
67	0xb9a24635	-0.00030951356
68	0xb9ce1404	-0.00039306295
69	0xbbcb869b	-0.0062111146
70	0xbae27bef	-0.0017279367
71	0x3ad6bd40	0.0016383305
72	0x00000000	0.0
73	0x3ae37377	0.0017353137
74	0xb9be4227	-0.0003628891
75	0xbbffed3a	-0.007810262
76	0xbbff7ae1	-0.0077966307
77	0xbbfd2b0b	-0.0077260784
78	0xbbfe835f	-0.0077671255
79	0xbb0e2e34	-0.002169502
80	0x3b9333c3	0.0044922545
81	0x3b28cc0d	0.002575639
82	0x3adb85db	0.0016748266
83	0xbae608ab	-0.0017550191
84	0xbb8e0a3f	-0.0043347175
85	0x3ab2b6da	0.0013634816
86	0xbb82cfe3	-0.003992067
87	0x00000000	0.0
88	0xbb6c835f	-0.0036089045
89	0xba4053e6	-0.00073367206
90	0x3ac15422	0.0014749805
91	0x3ac69fd2	0.0015153831
92	0x3ac1129d	0.0014730279
93	0x3abea232	0.0014544188
94	0x391c8a40	0.00014928821
95	0xbb1ab56d	-0.0023606673
96	0x3bd636ff	0.0065373178
97	0x3bea88de	0.007157429
98	0x3ab4f174	0.0013804869
99	0xb90cdd82	-0.00013433959
100	0x3afe3b18	0.0019396273
101	0x3bb01dbe	0.0053746393
102	0x00000000	0.0
103	0x3b93128f	0.0044882963
104	0x3c8a87af	0.016910402
105	0xbb920161	-0.004455731
106	0xbb953561	-0.0045534824
107	0xbb94131e	-0.0045188805
108	0xbba02f1a	-0.0048884274
109	0x3b9605aa	0.004578312
110	0xbb940381	-0.0045170193
111	0xbb680b15	-0.0035406996
112	0xbb39a288	-0.0028325636
113	0x387188c9	5.758627e-05
114	0x3bfa8bd0	0.0076460615
115	0x3b03ff9c	0.0020141369
116	0x3afb00fd	0.0019150075
117	0x00000000	0.0
118	0xba9508d9	-0.0011370435
119	0x3a9c1923	0.0011909347
120	0x3a6cfedd	0.0009040663
121	0x3a69bcd5	0.0008916383
122	0x3a610df3	0.00085851474
123	0x3a544458	0.0008097342
124	0xbb6eccb7	-0.0036437938
125	0xba791de9	-0.0009503053
126	0x3a15b640	0.00057110563
127	0x3a47121b	0.00075939455
128	0xbaa9fc08	-0.0012968788
129	0xbb994719	-0.004677665
130	0x3ab71b27	0.0013969884
131	0xba79dab5	-0.0009531186
132	0x00000000	0.0
133	0xb88631e5	-6.3989115e-05
134	0xb898e2e0	-7.2901836e-05
135	0xbbe1e75e	-0.006894036
136	0xbbe361b1	-0.006939136
137	0xbbdf3740	-0.0068120062
138	0xbbdc289c	-0.006718708
139	0x3a4106a6	0.00073633564
140	0xbb13e61d	-0.0022567578
141	0x3b9aa7a7	0.0047196927
142	0x3bad228f	0.0052836607
143	0x3a8a1277	0.0010534067
144	0x3acc4386	0.0015584088
145	0x39bd5107	0.0003610926
146	0x3b9b7291	0.004743882
147	0x00000000	0.0
148	0x3ac4aad1	0.001500452
149	0x3c5fc300	0.0136573315
150	0x3af87fe1	0.0018959009
151	0x3af84e4e	0.0018944235
152	0x3ad8558e	0.001650499
153	0x3abb9b4d	0.0014313251
154	0xba837f4c	-0.0010032444
155	0xbbfc94a4	-0.007708149
156	0xbafe6090	-0.001940744
157	0xb9c59c29	-0.00037691116
158	0xba17c107	-0.0005788956
159	0xbb40608a	-0.0029354417
160	0x3811b718	3.4741213e-05
161	0x3b141191	0.0022593478
162	0x00000000	0.0
163	0x3b33f981	0.0027461948
164	0xba239d62	-0.00062414084
165	0x3b8bb103	0.004263045
166	0x3b8a2fc8	0.0042171218
167	0x3b8fab09	0.0043844027
168	0x3b89dfa2	0.0042075673
169	0xbb19107b	-0.002335577
170	0xbb2c8268	-0.0026322845
171	0xba34567b	-0.00068793417
172	0xb93dc078	-0.00018096145
173	0xbb62789a	-0.0034556747
174	0xb9371167	-0.00017458723
175	0xba1f733c	-0.000608254
176	0x3b4cefbd	0.0031270825
177	0x00000000	0.0
178	0xbab478e3	-0.0013768937
179	0x3bf3b09f	0.0074368264
180	0xbb2bb040	-0.0026197582
181	0xbb3d24a9	-0.0028860962
182	0xbb2d4f25	-0.002644488
183	0xbb428f78	-0.0029687565
184	0x3a4672ce	0.0007570208
185	0xbb1fa1ca	-0.0024357908
186	0xbafc742a	-0.0019260694
187	0xbacb9511	-0.0015532096
188	0xbb27db86	-0.0025613024
189	0x3b984d74	0.004647905
190	0x3b80f8d1	0.003935911
191	0xb9c8cbd9	-0.0003829885
192	0x00000000	0.0
193	0x3a57f3de	0.0008237938
194	0x38c092d0	9.1826194e-05
195	0xbb3fee17	-0.00292862
196	0xbb433248	-0.0029784609
197	0xbb451b0d	-0.0030075938
198	0xbb594199	-0.0033150672
199	0xbb55651b	-0.0032561484
200	0xbaf3b379	-0.0018592916
201	0xbb004f7e	-0.001957863
202	0xbae7baca	-0.0017679569
203	0x39df18d5	0.00042552376
204	0xbba5e1c9	-0.005062316
205	0x39e8d3c1	0.00044408257
206	0xba785851	-0.00094736094
207	0x00000000	0.0
208	0x3ad79dbb	0.0016450206
209	0x39d1242d	0.0003989054
210	0x39ada2f4	0.0003311854
211	0x39aef5f1	0.00033371107
212	0x38930eac	7.012239e-05
213	0xb909de6c	-0.00013148197
214	0x3b43fdd8	0.0029905941
215	0xbbb28668	-0.0054481514
216	0xb934efed	-0.00017255517
217	0x3a821ad2	0.0009926206
218	0x3a1726f1	0.00057659956
219	0xbb392d0f	-0.0028255617
220	0x3c379833	0.011205721
221	0xba224c96	-0.0006191222
222	0x00000000	0.0
223	0x3ba8ee51	0.0051553627
224	0xbad38c25	-0.0016139789
225	0xbaead10e	-0.0017915086
226	0xbaf9d7b2	-0.0019061475
227	0xbaed856b	-0.0018121427
228	0xbb00172c	-0.0019545062
229	0xbc4a411c	-0.012344625
230	0x3b5ca35f	0.0033666713
231	0xbb58fa9f	-0.0033108366
232	0xbb8a0320	-0.0042117983
233	0xbb8b25ce	-0.00424645
234	0xbc836dc5	-0.016043553
235	0xbb21e0ef	-0.0024700721
236	0x3a0c0195	0.0005340812
237	0x00000000	0.0
238	0x3a0963e8	0.00052410224
239	0x3aa292ac	0.0012403331
240	0x3b021fb0	0.0019855313
241	0x3b00588c	0.0019584028
242	0x3b09202c	0.0020923717
243	0x3b0681aa	0.0020524063
244	0xbbbc4459	-0.0057454524
245	0xbba16cff	-0.0049263234
246	0xbb396d7f	-0.0028294025
247	0xbafbf051	-0.00192214
248	0xbb96b047	-0.0045986506
249	0xba5bc4dc	-0.00083835213
250	0xbb77a5f8	-0.0037788134
251	0x37a01dda	1.9087387e-05
252	0x00000000	0.0
253	0xbb5b6489	-0.0033476672
254	0x3a6a7078	0.0008943151
255	0xbb845e8b	-0.0040395907

exp_avg_sq f4 [64, 15]
0	0x379f02af	1.8955527e-05
1	0x379b61db	1.8523007e-05
2	0x379e4599	1.8867477e-05
3	0x379b94e8	1.854678e-05
4	0x397f97e9	0.00024375286
5	0x376ea083	1.42232775e-05
6	0x38d7015b	0.000102522514
7	0x38e4d1e2	0.00010910981
8	0x39065e80	0.0001281444
9	0x37ecb294	2.821655e-05
10	0x3a0863d3	0.0005202863
11	0x3819c9ff	3.6666166e-05
12	0x00000000	0.0
13	0x3925e02b	0.00015819135
14	0x394a07d2	0.00019267134
15	0x397a5d8c	0.00023876707
16	0x3978e680	0.00023736991
17	0x39795754	0.00023779023
18	0x39796e7b	0.00023787648
19	0x39429823	0.00018557957
20	0x392daada	0.00016562213
21	0x3975dc5e	0.00023447114
22	0x396b1050	0.00022417423
23	0x397ceebb	0.00024121527
24	0x392b70a5	0.00016349794
25	0x3983767f	0.00025074554
26	0x38a6bd24	7.950727e-05
27	0x00000000	0.0
28	0x39e3e1ce	0.00043465052
29	0x36290077	2.5183233e-06
30	0x36a32a78	4.8627226e-06
31	0x369bfbab	4.648658e-06
32	0x36a352bc	4.86741e-06
33	0x369db30b	4.699808e-06
34	0x39edff15	0.00045394214
35	0x37091438	8.170544e-06
36	0x38f079b5	0.000114667615
37	0x390a0703	0.00013163318
38	0x39322fff	0.00016993283
39	0x36960a28	4.4715307e-06
40	0x3a7a2555	0.0009542306
41	0x381b1810	3.697729e-05
42	0x00000000	0.0
43	0x391caf78	0.00014942687
44	0x391b9f69	0.00014841337
45	0x364adbdb	3.0228318e-06
46	0x3647f31a	2.9794815e-06
47	0x364a8794	3.0179262e-06
48	0x364872e0	2.9869188e-06
49	0x3860b2ea	5.357239e-05
50	0x36c82f48	5.9659687e-06
51	0x378bc549	1.666196e-05
52	0x379c2396	1.861322e-05
53	0x37b9f137	2.2166043e-05
54	0x366bb7ec	3.5124785e-06
55	0x38eaad62	0.000111902846
56	0x369329fc	4.385829e-06
57	0x00000000	0.0
58	0x3790c893	1.7259537e-05
59	0x37a72f6c	1.9930034e-05
60	0x37fae00a	2.9906649e-05
61	0x37fbb352	3.0005034e-05
62	0x37f36e36	2.9019178e-05
63	0x37f3ff68	2.908679e-05
64	0x3733e737	1.0723065e-05
65	0x383b4f46	4.4658103e-05
66	0x37d0c07d	2.4885167e-05
67	0x37be9ce0	2.2722816e-05
68	0x37b85c59	2.1977512e-05
69	0x380ef6a8	3.4085155e-05
70	0x372db5f6	1.035397e-05
71	0x38003194	3.056375e-05
72	0x00000000	0.0
73	0x37df6f70	2.6635564e-05
74	0x3500012d	4.7685427e-07
75	0x3767a046	1.38059895e-05
76	0x3766cc35	1.3756614e-05
77	0x3763922a	1.3564286e-05
78	0x37632910	1.3539815e-05
79	0x383bdd27	4.479024e-05
80	0x37482ffc	1.1932101e-05
81	0x37ed3b5c	2.8280243e-05
82	0x37e7e1bb	2.764246e-05
83	0x37ccd0c1	2.4415904e-05
84	0x374fabef	1.2378193e-05
85	0x38b44e30	8.5976324e-05
86	0x37e6fdbb	2.7536289e-05
87	0x00000000	0.0
88	0x383f8fd6	4.5671906e-05
89	0x38377c3e	4.374631e-05
90	0x374639c4	1.1815169e-05
91	0x3740a975	1.1483547e-05
92	0x373c0b0e	1.1208247e-05
93	0x3735d029	1.0836907e-05
94	0x39cca53d	0.00039033024
95	0x3774be64	1.4587862e-05
96	0x3910de20	0.00013815658
97	0x391dd299	0.0001505114
98	0x3946ee9c	0.0001897164
99	0x3722c0fa	9.700883e-06
100	0x3a55ffad	0.0008163404
101	0x387e48d7	6.0626156e-05
102	0x00000000	0.0
103	0x395e5bf5	0.00021205826
104	0x39093a20	0.00013086991
105	0x38a57f7b	7.891558e-05
106	0x38a4f678	7.866038e-05
107	0x38a88b4d	8.036811e-05
108	0x38a64d06	7.9298436e-05
109	0x37881bd7	1.6225427e-05
110	0x37bb21c3	2.2307859e-05
111	0x36da4cc3	6.5058425e-06
112	0x36d08d7b	6.2153536e-06
113	0x37854f96	1.5891896e-05
114	0x387088f6	5.7348014e-05
115	0x3657e10c	3.216849e-06
116	0x35f2f888	1.8102737e-06
117	0x00000000	0.0
118	0x36677c78	3.4494133e-06
119	0x353bf0a1	7.001309e-07
120	0x374dee14	1.2274384e-05
121	0x374858f8	1.1941644e-05
122	0x3740fabc	1.150247e-05
123	0x373c15fd	1.1210793e-05
124	0x38b7acec	8.758329e-05
125	0x3722e9fa	9.710429e-06
126	0x37efc253	2.858151e-05
127	0x37faab71	2.9882156e-05
128	0x38125340	3.4886645e-05
129	0x37489cbd	1.1957422e-05
130	0x3936b696	0.00017424891
131	0x3821e615	3.8599672e-05
132	0x00000000	0.0
133	0x3852b3aa	5.0235227e-05
134	0x34121d07	1.360787e-07
135	0x3848b17d	4.7849015e-05
136	0x38424278	4.631511e-05
137	0x383f56b9	4.5618715e-05
138	0x38399bd2	4.4252556e-05
139	0x3a406608	0.00073394226
140	0x3819e162	3.6687947e-05
141	0x395a108b	0.00020796263
142	0x396e4df2	0.00022726486
143	0x398d4355	0.00026943782
144	0x382784ee	3.9939703e-05
145	0x3ac95871	0.0015361441
146	0x39047373	0.00012631509
147	0x00000000	0.0
148	0x39a6eb10	0.00031837123
149	0x38a5dd77	7.909064e-05
150	0x38227766	3.873501e-05
151	0x3821c299	3.8566624e-05
152	0x381f94ae	3.8047023e-05
153	0x381dcf0b	3.762454e-05
154	0x370c700c	8.370738e-06
155	0x3816e4b9	3.59758e-05
156	0x37acf38c	2.0617408e-05
157	0x3790a95c	1.7245002e-05
158	0x3799e24c	1.8344399e-05
159	0x37edbb3d	2.8339791e-05
160	0x36685295	3.4618763e-06
161	0x383638cf	4.344509e-05
162	0x00000000	0.0
163	0x37f7e205	2.9549943e-05
164	0x35954727	1.1122073e-06
165	0x37c3ae90	2.3327098e-05
166	0x37c2e76e	2.323437e-05
167	0x37c863b6	2.388829e-05
168	0x37c45331	2.340376e-05
169	0x38f272c4	0.00011560836
170	0x37343f79	1.0743614e-05
171	0x380a5e72	3.2989723e-05
172	0x381e6362	3.7762693e-05
173	0x3861b72e	5.381478e-05
174	0x378fdb6c	1.7149105e-05
175	0x3970ab7f	0.00022952071
176	0x3809cfd8	3.2856915e-05
177	0x00000000	0.0
178	0x388095b8	6.131403e-05
179	0x38eb7958	0.00011228275
180	0x3813b2a4	3.5213903e-05
181	0x3812904f	3.494351e-05
182	0x3815dc2d	3.5729423e-05
183	0x3812fb3a	3.5043086e-05
184	0x396dacad	0.00022666408
185	0x37ac1e1c	2.0518019e-05
186	0x387827f8	5.916503e-05
187	0x388bfada	6.674761e-05
188	0x38bdd29a	9.05145e-05
189	0x37dd2394	2.636182e-05
190	0x39f61360	0.00046935212
191	0x37d76c0a	2.5680307e-05
192	0x00000000	0.0
193	0x38a989eb	8.084237e-05
194	0x34bae885	3.481438e-07
195	0x389d83e6	7.5109114e-05
196	0x389bca1c	7.428622e-05
197	0x389c3d2c	7.450054e-05
198	0x389a02e0	7.343828e-05
199	0x379aabb4	1.8438186e-05
200	0x3823fdfa	3.9098762e-05
201	0x37350f7a	1.0792044e-05
202	0x3736befe	1.0892514e-05
203	0x37b67d67	2.1754486e-05
204	0x385cd0ba	5.264648e-05
205	0x3689f017	4.1108683e-06
206	0x3896781b	7.174929e-05
207	0x00000000	0.0
208	0x380deb1a	3.3835975e-05
209	0x35772b02	9.2077255e-07
210	0x39068a5d	0.0001283078
211	0x3903d7f7	0.00012573587
212	0x39067575	0.00012822992
213	0x39046c73	0.00012628901
214	0x3b0f696f	0.0021882912
215	0x392ef9d4	0.00016687001
216	0x39f02a4f	0.0004580789
217	0x3a088072	0.0005207128
218	0x3a3250e3	0.0006802214
219	0x38dad3f5	0.0001043453
220	0x3b95bdcf	0.004569746
221	0x36d05578	6.208833e-06
222	0x00000000	0.0
223	0x39fb877f	0.00047975403
224	0x36b44f49	5.373648e-06
225	0x3792c92e	1.7498238e-05
226	0x3792dc5f	1.7507175e-05
227	0x379282ef	1.7465527e-05
228	0x3792b528	1.7488914e-05
229	0x37ab8eff	2.0451376e-05
230	0x37acb0e2	2.0586365e-05
231	0x3796d80f	1.7982004e-05
232	0x379c577f	1.8637393e-05
233	0x378e7b87	1.6985241e-05
234	0x380c3fa0	3.3437856e-05
235	0x376dea76	1.41808905e-05
236	0x380afa34	3.3134784e-05
237	0x00000000	0.0
238	0x37f618d6	2.933705e-05
239	0x392bbba1	0.00016377728
240	0x379ab625	1.8443048e-05
241	0x37988755	1.818283e-05
242	0x379be657	1.85847e-05
243	0x37990fd0	1.8246385e-05
244	0x39436717	0.00018635053
245	0x376c2cdd	1.4077142e-05
246	0x38430f2d	4.6505756e-05
247	0x385d8d9f	5.28224e-05
248	0x389a49cc	7.357038e-05
249	0x37479961	1.1897036e-05
250	0x39c7fb4e	0.00038143474
251	0x37ad9310	2.0691688e-05
252	0x00000000	0.0
253	0x38841748	6.298587e-05
254	0x387f1a6b	6.082134e-05
255	0x379f116a	1.8962386e-05

exp_avg f4 [64]
0	0xbaf6b9ff	-0.0018823742
1	0xbc9680e1	-0.018372001
2	0xba1b9fc7	-0.00059365894
3	0xbabb3231	-0.0014281926
4	0xba157183	-0.00057008135
5	0xba935f7f	-0.001124367
6	0xb95ce703	-0.00021066894
7	0xbc2faed3	-0.010722834
8	0x39d3a618	0.00040368806
9	0xba375b6e	-0.000699452
10	0xbbc4f061	-0.0060101007
11	0xbb60281e	-0.00342036
12	0xbb34238b	-0.0027487006
13	0xbbba954e	-0.005694068
14	0xbc011c79	-0.007880324
15	0xbbcc76a4	-0.006239729
16	0xb909131e	-0.0001307246
17	0x3b6064bf	0.0034239737
18	0xbbedeb84	-0.0072607417
19	0xbc53b746	-0.012922114
20	0xbb40ae96	-0.0029400936
21	0x3b342a0f	0.002749089
22	0xbbc5599e	-0.006022646
23	0xbbff645e	-0.007793947
24	0xbac6b0f5	-0.0015158938
25	0x3b03aae6	0.0020090877
26	0x3b19ffa4	0.002349832
27	0xbb631feb	-0.0034656476
28	0x3a9933a4	0.0011688364
29	0x39f5ece4	0.0004690654
30	0xbc11e9e3	-0.008905861
31	0xbbd1e6ba	-0.0064056786
32	0x3aaa2c0a	0.0012983095
33	0xbb77d5c4	-0.0037816623
34	0x394f01df	0.00019741755
35	0x3abe9db6	0.0014542851
36	0xbb2605f0	-0.002533313
37	0x3bf81ce8	0.0075718053
38	0xb94be07d	-0.00019443217
39	0xbb444c5e	-0.0029952745
40	0xbbd4873e	-0.0064858487
41	0xbc37e783	-0.01122463
42	0xbbad4acf	-0.005288459
43	0xbb5512ab	-0.0032512348
44	0xbc229183	-0.009922388
45	0xbc53613d	-0.012901601
46	0xbc153cbb	-0.009108718
47	0x3aede500	0.0018149912
48	0xbb3a07d3	-0.0028386011
49	0xb8835fd4	-6.264416e-05
50	0x3a0d6478	0.0005393694
51	0xbc607d1a	-0.013701702
52	0xbc73892f	-0.01486425
53	0xbc6dd71d	-0.014516619
54	0xbc02a468	-0.007973768
55	0x3b29e62b	0.0025924544
56	0xbc0f2248	-0.008736201
57	0xbabecbf1	-0.0014556629
58	0xbb8bf7be	-0.0042714765
59	0xbc281841	-0.010259689
60	0x3a886a8a	0.0010407728
61	0xbb90879f	-0.0044106985
62	0xbc7c287e	-0.015390513
63	0xbc36fb33	-0.011168289

exp_avg_sq f4 [64]
0	0x37c8ad30	2.3922505e-05
1	0x3957fcec	0.00020598219
2	0x36cde040	6.135582e-06
3	0x3689ab72	4.102877e-06
4	0x37ff4d6d	3.0434423e-05
5	0x378dc9dc	1.6902508e-05
6	0x3721df19	9.648292e-06
7	0x386e0ec6	5.675738e-05
8	0x370acfa5	8.273787e-06
9	0x380e30fd	3.3901062e-05
10	0x380273c6	3.1102238e-05
11	0x37a27e0b	1.9370598e-05
12	0x37ff689b	3.044708e-05
13	0x38a24cae	7.739045e-05
14	0x3908ebf5	0.00013057872
15	0x37ed3dd5	2.8281394e-05
16	0x37407e51	1.1473502e-05
17	0x379f4879	1.8988025e-05
18	0x37a3448a	1.946303e-05
19	0x38f2ed7e	0.000115836956
20	0x370c6ce1	8.370001e-06
21	0x37fa15a7	2.9812405e-05
22	0x378a6657	1.6498538e-05
23	0x382191b2	3.852108e-05
24	0x36d77ad8	6.4218e-06
25	0x373cd6d0	1.1255688e-05
26	0x37aa26c5	2.0283633e-05
27	0x373cdd9a	1.1257269e-05
28	0x3801207a	3.0786243e-05
29	0x37ad4248	2.0654072e-05
30	0x385903aa	5.1740244e-05
31	0x37d59e51	2.54653e-05
32	0x36b67d9a	5.4386446e-06
33	0x38b104aa	8.4408864e-05
34	0x36a86141	5.018112e-06
35	0x374769c1	1.1885947e-05
36	0x37ca43e8	2.4111898e-05
37	0x37752f33	1.4614127e-05
38	0x378cf151	1.6801672e-05
39	0x3750f6fa	1.245527e-05
40	0x38f1bb25	0.00011526634
41	0x3827fc8e	4.0051113e-05
42	0x386ee10c	5.6953213e-05
43	0x374860da	1.1943479e-05
44	0x38a44a64	7.833986e-05
45	0x388cff6d	6.723297e-05
46	0x38a040ba	7.641451e-05
47	0x37726788	1.4448429e-05
48	0x37d3ed68	2.5263711e-05
49	0x360a0bcf	2.0570476e-06
50	0x37a65ecc	1.9832885e-05
51	0x389982be	7.319961e-05
52	0x38bb68c4	8.936369e-05
53	0x38d9bf83	0.00010383038
54	0x38d2dffc	0.00010055301
55	0x37971350	1.8009596e-05
56	0x3856c88b	5.1208346e-05
57	0x379a3f88	1.8387815e-05
58	0x374a7b20	1.20688055e-05
59	0x38410d6d	4.602729e-05
60	0x381e8a27	3.77988e-05
61	0x38870c88	6.439636e-05
62	0x38e270d8	0.000107975386
63	0x38b9bd01	8.856692e-05

exp_avg f4 [32, 64]
0	0xbb0c54ec	-0.0021412922
1	0x3add3360	0.0016876273
2	0xbb2266bb	-0.002478047
3	0x3b9e9edb	0.0048407144
4	0x3b9b79c5	0.0047447407
5	0xbb81df77	-0.0039634067
6	0xbbb08cf7	-0.005387898
7	0xbc6ef3f8	-0.014584534
8	0xbb33c8f5	-0.0027433012
9	0xbb56d02f	-0.0032777896
10	0xba8e20e8	-0.0010843547
11	0xbbaf79bd	-0.0053550885
12	0xbc0f6a8f	-0.008753433
13	0xbbe08e50	-0.0068529025
14	0xba4db093	-0.0007846441
15	0xbb682046	-0.0035419627
16	0xbbb68795	-0.005570362
17	0x3b84de16	0.004054795
18	0x3b0ec03f	0.0021782068
19	0xbc73500b	-0.014850627
20	0xb91a055d	-0.00014688582
21	0x3a504c96	0.00079459825
22	0xba87a065	-0.0010347484
23	0x3ac0f8a2	0.0014722536
24	0xbbc51f7d	-0.0060157166
25	0x3b0873b4	0.0020820918
26	0xbb293c86	-0.0025823428
27	0xbc69992b	-0.0142577095
28	0x3bca3e49	0.0061719758
29	0xbbc23dc6	-0.005927774
30	0xbbbdf487	-0.005796972
31	0xbc643168	-0.013927795
32	0xba080a37	-0.00051895104
33	0xbb8156f9	-0.0039471355
34	0xbbdedcb3	-0.0068012117
35	0x3b33915d	0.0027399876
36	0xb9f8d27a	-0.00047459063
37	0xbb12cf84	-0.002240152
38	0xb8bc975c	-8.9927315e-05
39	0xbbb99f92	-0.005664774
40	0xbb8bce2c	-0.004266521
41	0xbc0135f2	-0.007886397
42	0xbad3354e	-0.0016113908
43	0x3ac41885	0.0014960921
44	0xbc3393ae	-0.010960503
45	0xb999dfdd	-0.00029349225
46	0xbbb021dc	-0.00537513
47	0x3acc4a07	0.0015586027
48	0x3b0ce788	0.0021500308
49	0xbacd95f7	-0.0015684952
50	0x3772e442	1.4477469e-05
51	0x3afdf115	0.0019374216
52	0xbc38841f	-0.011261969
53	0xbbfab35c	-0.007650776
54	0xbc1ddca8	-0.009635128
55	0xbbd7f45c	-0.006590409
56	0xbbca6f2d	-0.006177804
57	0xbbb72828	-0.005589504
58	0xbb6f0d3b	-0.0036476392
59	0xbbf72e9b	-0.0075433976
60	0x3b23a1fc	0.0024968376
61	0xbbf6f699	-0.007536721
62	0x3aacb417	0.001317623
63	0xbc171f31	-0.009223745
64	0x3593c6de	1.1010231e-06
65	0x360b8371	2.0789123e-06
66	0x34c803eb	3.7255754e-07
67	0x35ba92b9	1.3900782e-06
68	0x3565fe92	8.5679596e-07
69	0x36cdff9e	6.139234e-06
70	0x35af71c6	1.3071628e-06
71	0x2f21ab69	1.4703762e-10
72	0x3419e27e	1.4331633e-07
73	0x333de8fb	4.4216886e-08
74	0x35b55ea6	1.3513097e-06
75	0x353ec2d3	7.106402e-07
76	0xb2e4a279	-2.6616577e-08
77	0x33866b0c	6.259333e-08
78	0x35f50eab	1.8258191e-06
79	0xb3b5d3f0	-8.4670205e-08
80	0x3296d3e1	1.755865e-08
81	0x36969961	4.488204e-06
82	0x33d1c4fb	9.7681514e-08
83	0x3250759e	1.21339365e-08
84	0x351b40aa	5.78361e-07
85	0x35be4fb4	1.41793e-06
86	0x372d4e0f	1.0329778e-05
87	0x36904599	4.2996367e-06
88	0x351962d9	5.7140784e-07
89	0x35ddbb62	1.6520319e-06
90	0x330e8238	3.3180385e-08
91	0xb464595f	-2.1266668e-07
92	0x369c7a75	4.663418e-06
93	0x35230a26	6.0737e-07
94	0x327484ac	1.4232835e-08
95	0x36e72820	6.8890076e-06
96	0x34590522	2.0211567e-07
97	0x33984f93	7.092526e-08
98	0x36b7c55b	5.4768e-06
99	0x36776242	3.6863062e-06
100	0x365ef441	3.3222752e-06
101	0x36514544	3.1183745e-06
102	0x36ffd70c	7.624627e-06
103	0x348a62b9	2.5776333e-07
104	0x357a0a33	9.31471e-07
105	0x34232f70	1.5197816e-07
106	0x3593dd8f	1.1016836e-06
107	0x348110ed	2.4040438e-07
108	0x34b1d423	3.312317e-07
109	0x359ca3cb	1.1670576e-06
110	0x36138393	2.1981293e-06
111	0x374f3b6a	1.2351995e-05
112	0x35082085	5.071127e-07
113	0x340891b7	1.2718998e-07
114	0x3612d9bb	2.1882431e-06
115	0x369c4be4	4.657997e-06
116	0x350a650c	5.155605e-07
117	0x30d26f71	1.5311185e-09
118	0x35da347f	1.6257544e-06
119	0x36ba081a	5.544175e-06
120	0x348d475e	2.6315223e-07
121	0x35ba5e75	1.388557e-06
122	0x32b6a604	2.1263084e-08
123	0x3622fb9e	2.4286342e-06
124	0xb485eb0c	-2.49442e-07
125	0x34e1c129	4.2050058e-07
126	0x35c84afc	1.4922985e-06
127	0x3355c12c	4.9768616e-08
128	0xb6ce95a2	-6.156698e-06
129	0xb64abc44	-3.020993e-06
130	0x36daac29	6.5169484e-06
131	0x3611a2c0	2.1701417e-06
132	0xb68d4a8b	-4.2108054e-06
133	0xb5d92a5e	-1.618009e-06
134	0x374c847f	1.2190197e-05
135	0x2fbf9598	3.484899e-10
136	0x3685818d	3.9787906e-06
137	0xb5c68ce4	-1.4793154e-06
138	0x36dea829	6.635692e-06
139	0xb64b60a5	-3.0305612e-06
140	0x354cdd60	7.6318065e-07
141	0xb6831001	-3.9059673e-06
142	0xb3a1b84f	-7.530672e-08
143	0xb6f51f3e	-7.305206e-06
144	0x3511e869	5.435491e-07
145	0xb6afc3af	-5.238187e-06
146	0x358aae90	1.0332606e-06
147	0xb5a7d96d	-1.2505749e-06
148	0x365c2231	3.2802457e-06
149	0xb64836a3	-2.9834125e-06
150	0x3721e3ab	9.649356e-06
151	0xb6393605	-2.7598592e-06
152	0x362c09ad	2.563563e-06
153	0xb5c03231	-1.4319722e-06
154	0x3518c069	5.6904406e-07
155	0x362af6c2	2.5475606e-06
156	0x36a22b5c	4.833024e-06
157	0x373dd1d6	1.1314134e-05
158	0x35b9f62b	1.3855218e-06
159	0x35ad3fd9	1.2908087e-06
160	0x3608dade	2.0392977e-06
161	0x355f516a	8.3192447e-07
162	0x36f80956	7.392063e-06
163	0xb61b8409	-2.3173654e-06
164	0xb5104fbc	-5.376021e-07
165	0x35ab50db	1.2764025e-06
166	0x361ead45	2.364469e-06
167	0x33e593c2	1.06905205e-07
168	0xb6b7ee28	-5.48155e-06
169	0xb69f1298	-4.740734e-06
170	0x357bda42	9.3822393e-07
171	0x357d98d5	9.4472244e-07
172	0xb57e045e	-9.462873e-07
173	0x35bb5898	1.395837e-06
174	0x36769057	3.6740873e-06
175	0x35fae9c1	1.8694483e-06
176	0xb621b577	-2.4096496e-06
177	0x36441fc1	2.922476e-06
178	0xb6158e45	-2.2285542e-06
179	0xb6945d00	-4.4215703e-06
180	0xb5dbd28c	-1.6378049e-06
181	0xb6607d8d	-3.3451681e-06
182	0xb5bc74cf	-1.4041087e-06
183	0xb5b4d36b	-1.3472576e-06
184	0x368b8b81	4.158763e-06
185	0x36afeb67	5.242811e-06
186	0x3647a3eb	2.9748724e-06
187	0xb4dfe569	-4.1703905e-07
188	0xb6ae41ea	-5.1932775e-06
189	0xb5be46af	-1.4176675e-06
190	0x34bd5f56	3.527336e-07
191	0x35a75de0	1.2469791e-06
192	0xb862781d	-5.3994463e-05
193	0x368e9029	4.2487122e-06
194	0xb8327c82	-4.2554464e-05
195	0xb801c354	-3.093791e-05
196	0x375c9440	1.3147539e-05
197	0xb6fd82af	-7.555201e-06
198	0xb710aecb	-8.623766e-06
199	0xb3ac33e2	-8.0188116e-08
200	0x342b7014	1.596639e-07
201	0x36057123	1.9884399e-06
202	0x3730f3ba	1.05471645e-05
203	0xb58bce93	-1.0416428e-06
204	0xb3ab3fcb	-7.974412e-08
205	0x34a0c726	2.9947222e-07
206	0x324b3466	1.1828069e-08
207	0x372bc80e	1.0238973e-05
208	0x362db421	2.5883858e-06
209	0xb6370656	-2.7272813e-06
210	0xb706b4df	-8.029135e-06
211	0x3039e558	6.7628525e-10
212	0x37070c5b	8.049504e-06
213	0x35ba61c8	1.3886538e-06
214	0xb815cf07	-3.5717178e-05
215	0x35b111f5	1.3192754e-06
216	0xb681a0f0	-3.863235e-06
217	0x363e8a4d	2.8392708e-06
218	0xb530908c	-6.577545e-07
219	0xb3245780	-3.8263806e-08
220	0x3750f414	1.2454595e-05
221	0xb89e0d84	-7.5365446e-05
222	0xb338caed	-4.30254e-08
223	0xb81f2f9b	-3.795289e-05
224	0x361bbc4b	2.32064e-06
225	0x36788613	3.7032921e-06
226	0x36c14706	5.7601164e-06
227	0x34f7344f	4.6045395e-07
228	0x3704ae3a	7.908378e-06
229	0xb82f51a4	-4.1799285e-05
230	0x377b0f2e	1.49643e-05
231	0xb84c919c	-4.8773e-05
232	0x35207b26	5.978385e-07
233	0xb43704ad	-1.7044904e-07
234	0xb84778c0	-4.7557754e-05
235	0xb3fe2b97	-1.18357256e-07
236	0x370a2a33	8.235266e-06
237	0xb798bab4	-1.8206752e-05
238	0x34ab608e	3.1921485e-07
239	0x36ba23a0	5.5473793e-06
240	0x33362553	4.2409123e-08
241	0x35e507cd	1.70641e-06
242	0x37426eb2	1.1589074e-05
243	0xb337e1ef	-4.2813493e-08
244	0x35c8ec92	1.4970012e-06
245	0xb3c82393	-9.319697e-08
246	0xb20bbda0	-8.133981e-09
247	0xb802d853	-3.1195883e-05
248	0x32dde50a	2.5831941e-08
249	0xb7accb28	-2.05986e-05
250	0x32776fa9	1.4402681e-08
251	0xb549940f	-7.509379e-07
252	0xb6cddd77	-6.135258e-06
253	0x35b61ced	1.3568475e-06
254	0x347d3645	2.3582204e-07
255	0x355bd289	8.1890227e-07

exp_avg_sq f4 [32, 64]
0	0x38d42864	0.00010116471
1	0x3708d698	8.156196e-06
2	0x37d5e880	2.5499845e-05
3	0x386479a1	5.447271e-05
4	0x37e582cb	2.7359833e-05
5	0x380491b5	3.1606953e-05
6	0x37b7002d	2.1815382e-05
7	0x3894c87b	7.094532e-05
8	0x3641deca	2.8888921e-06
9	0x37050244	7.927945e-06
10	0x3750198d	1.2403715e-05
11	0x37a743f9	1.9939604e-05
12	0x37d00ead	2.4802366e-05
13	0x37a89ce8	2.0100226e-05
14	0x37f7f41e	2.955837e-05
15	0x37c7f2ae	2.3835655e-05
16	0x37319180	1.0583899e-05
17	0x37f322ee	2.8984123e-05
18	0x35a04a82	1.1942614e-06
19	0x38a41031	7.823145e-05
20	0x375bbefe	1.3097886e-05
21	0x36e20175	6.7354945e-06
22	0x3833bfd9	4.2855598e-05
23	0x363e3683	2.8343936e-06
24	0x37d21710	2.504469e-05
25	0x37ebcae9	2.810867e-05
26	0x36c99052	6.007068e-06
27	0x382823b3	4.008757e-05
28	0x37588ded	1.2907648e-05
29	0x38a35e39	7.789996e-05
30	0x37836cb6	1.566704e-05
31	0x38869372	6.417082e-05
32	0x3529c2ee	6.3241066e-07
33	0x36e657d8	6.8647605e-06
34	0x37b0c518	2.1072614e-05
35	0x3785b105	1.5937267e-05
36	0x37b83d3c	2.1963024e-05
37	0x386eb61e	5.691323e-05
38	0x386836c2	5.5364108e-05
39	0x38064e41	3.202097e-05
40	0x3797fd83	1.8118653e-05
41	0x37de74a4	2.6518777e-05
42	0x37df609e	2.6628662e-05
43	0x37e62afe	2.7438156e-05
44	0x380fda35	3.4297078e-05
45	0x3788eb7e	1.6322123e-05
46	0x380e717a	3.396112e-05
47	0x3865f824	5.4828954e-05
48	0x366650b3	3.4319644e-06
49	0x36be5f1e	5.6735144e-06
50	0x38a0585c	7.645853e-05
51	0x3715ea56	8.935653e-06
52	0x3847898d	4.75734e-05
53	0x37a8538c	2.0066065e-05
54	0x388860e3	6.503032e-05
55	0x383a6c44	4.4446686e-05
56	0x37b738d8	2.184177e-05
57	0x3834682a	4.3012355e-05
58	0x374f7b05	1.2366804e-05
59	0x38149efa	3.5434008e-05
60	0x37e6f227	2.7530898e-05
61	0x37d96a75	2.5917989e-05
62	0x36c31eda	5.8150445e-06
63	0x3889ba3e	6.5673594e-05
64	0x333867bd	4.2935188e-08
65	0x3269a386	1.3599566e-08
66	0x3339cf64	4.326229e-08
67	0x31ab7bc1	4.990824e-09
68	0x3150badd	3.0374203e-09
69	0x3431c06f	1.6554417e-07
70	0x3407968e	1.2627626e-07
71	0x322cf59a	1.0067561e-08
72	0x321fead4	9.308412e-09
73	0x31f8bfe9	7.2395676e-09
74	0x310ed155	2.078271e-09
75	0x328dbadd	1.6499536e-08
76	0x3292fde5	1.7112095e-08
77	0x31bbad62	5.4621276e-09
78	0x332352e6	3.802679e-08
79	0x3192ddd2	4.2743773e-09
80	0x310359f0	1.9114132e-09
81	0x31af59e5	5.10339e-09
82	0x2fa13357	2.9322209e-10
83	0x330357a4	3.0580523e-08
84	0x30a18025	1.1750713e-09
85	0x323708a1	1.0653964e-08
86	0x343a5ffd	1.735752e-07
87	0x324ab1f1	1.1798407e-08
88	0x32e0a9a1	2.615417e-08
89	0x31cec5b1	6.017864e-09
90	0x31d0527c	6.062974e-09
91	0x333872e8	4.2945345e-08
92	0x320ffd90	8.381349e-09
93	0x327423d3	1.4210815e-08
94	0x30cc14c6	1.4848858e-09
95	0x348f5fcc	2.6705527e-07
96	0x301fc4f0	5.812373e-10
97	0x312e1ab2	2.5335507e-09
98	0x33bdef91	8.844575e-08
99	0x339d4ee5	7.325233e-08
100	0x328664de	1.5645522e-08
101	0x33172af9	3.519651e-08
102	0x33fbfedd	1.1734458e-07
103	0x3370b287	5.6041724e-08
104	0x3267b392	1.3486799e-08
105	0x3284d26a	1.5462508e-08
106	0x311bc0ba	2.266502e-09
107	0x30608650	8.1681595e-10
108	0x33326dbe	4.1543665e-08
109	0x32e1ad64	2.6272296e-08
110	0x3282d8a5	1.523251e-08
111	0x33b67c17	8.497607e-08
112	0x31ac1a62	5.008858e-09
113	0x322cb0b3	1.0051894e-08
114	0x33f622c8	1.1461594e-07
115	0x322e739e	1.0154421e-08
116	0x3351263e	4.8696386e-08
117	0x301996d1	5.58754e-10
118	0x33149a66	3.459936e-08
119	0x341a4d34	1.4370454e-07
120	0x31e590ac	6.6812245e-09
121	0x327f7910	1.487048e-08
122	0x32d93561	2.5286399e-08
123	0x332d4e6b	4.0351022e-08
124	0x30692386	8.481539e-10
125	0x32b23f0d	2.07506e-08
126	0x3046bf34	7.2303696e-10
127	0x32ce45ab	2.4013238e-08
128	0x30f2db12	1.7670081e-09
129	0x2f811c4f	2.3485078e-10
130	0x31229ccc	2.3663231e-09
131	0x30b9464b	1.34805e-09
132	0x3047dca6	7.270934e-10
133	0x308a2d61	1.0053719e-09
134	0x31164633	2.1867776e-09
135	0x2df96f4c	2.8357448e-11
136	0x2f4370cd	1.7775222e-10
137	0x2f95f3ab	2.727608e-10
138	0x308e058a	1.0333434e-09
139	0x30f6d8dd	1.7960492e-09
140	0x2fbc2899	3.4225847e-10
141	0x2fa95840	3.0803626e-10
142	0x2cc57972	5.61256e-12
143	0x2fe57f96	4.1745513e-10
144	0x3099c029	1.118683e-09
145	0x2faeca23	3.1794042e-10
146	0x2ef2562a	1.1020192e-10
147	0x31d0c730	6.0762417e-09
148	0x2f238e8d	1.4875408e-10
149	0x2eeb5c47	1.07029545e-10
150	0x308460dc	9.631793e-10
151	0x2e97cb7a	6.90283e-11
152	0x30fe2454	1.8491257e-09
153	0x2fdb63ad	3.9906692e-10
154	0x2fe8c145	4.233788e-10
155	0x30bde12d	1.3815559e-09
156	0x30a05477	1.1665539e-09
157	0x32121a33	8.5042755e-09
158	0x2ea14892	7.3343234e-11
159	0x30ca5788	1.4722312e-09
160	0x2ea4e52e	7.498567e-11
161	0x3001331c	4.700256e-10
162	0x302c7dde	6.2752104e-10
163	0x2f8ec9e3	2.59731e-10
164	0x31545a81	3.0901506e-09
165	0x2fdac7e3	3.9795997e-10
166	0x3125a6e7	2.4105533e-09
167	0x30a8f961	1.2294487e-09
168	0x30385997	6.7066125e-10
169	0x312363fa	2.3776452e-09
170	0x30ad99c3	1.2631108e-09
171	0x2ed4f42f	9.6840196e-11
172	0x30b3cb77	1.3081792e-09
173	0x304b9293	7.4059264e-10
174	0x2f398e09	1.6876113e-10
175	0x2f2a0ddd	1.5466335e-10
176	0x2f244407	1.4939881e-10
177	0x2fcf97d0	3.776095e-10
178	0x309317eb	1.0702456e-09
179	0x2faa4e42	3.0978425e-10
180	0x308c38ac	1.0202448e-09
181	0x308771e7	9.854916e-10
182	0x2efd1995	1.1509652e-10
183	0x31e834a6	6.758074e-09
184	0x3081ad9f	9.435331e-10
185	0x31734525	3.5400458e-09
186	0x308a7d01	1.007635e-09
187	0x2f247868	1.495849e-10
188	0x2fc05195	3.4982564e-10
189	0x301a17c4	5.6058647e-10
190	0x2f212ec3	1.4659478e-10
191	0x2f1bf399	1.4183711e-10
192	0x367f333c	3.8027783e-06
193	0x34de5a0b	4.1416237e-07
194	0x36a7e884	5.004056e-06
195	0x353a44f8	6.939076e-07
196	0x36ce7839	6.153274e-06
197	0x375b9044	1.3087007e-05
198	0x370f780e	8.551417e-06
199	0x30fe05ba	1.848256e-09
200	0x35153ed9	5.559828e-07
201	0x3486c1d8	2.5100485e-07
202	0x36c19045	5.7686434e-06
203	0x351b8cfd	5.7947165e-07
204	0x32a52ea0	1.922973e-08
205	0x3031b058	6.4642824e-10
206	0x32edd84e	2.7688795e-08
207	0x35129f0a	5.462067e-07
208	0x349a578b	2.874843e-07
209	0x33a31368	7.593809e-08
210	0x33bb2684	8.714872e-08
211	0x31c71fe1	5.7952865e-09
212	0x3582bb74	9.740311e-07
213	0x32ef23cf	2.7839546e-08
214	0x3709c02f	8.210583e-06
215	0x32b03a45	2.0515595e-08
216	0x3420f0b6	1.4988731e-07
217	0x362ba3e0	2.5576373e-06
218	0x328056d7	1.4940651e-08
219	0x33fcf2c7	1.17788254e-07
220	0x36d3c364	6.3110365e-06
221	0x36547dfc	3.1663794e-06
222	0x2f09574a	1.2491089e-10
223	0x3684b83c	3.9553543e-06
224	0x3506d3bb	5.0227e-07
225	0x336c58fe	5.502897e-08
226	0x3650f885	3.1139073e-06
227	0x33dc8f3e	1.0270604e-07
228	0x346a807f	2.1839695e-07
229	0x34784e57	2.31253e-07
230	0x36340443	2.682457e-06
231	0x358851fd	1.0156651e-06
232	0x31c99292	5.866533e-09
233	0x33019374	3.016926e-08
234	0x36040b8e	1.9676258e-06
235	0x3172c7ff	3.532932e-09
236	0x346cc03e	2.204915e-07
237	0x36ebe94d	7.0307055e-06
238	0x30be9a03	1.3868092e-09
239	0x3429bd18	1.5808143e-07
240	0x3245e244	1.1518356e-08
241	0x348ad112	2.5856622e-07
242	0x3573a793	9.0768407e-07
243	0x328375d3	1.5303987e-08
244	0x31677851	3.3683316e-09
245	0x30cff0fa	1.5129722e-09
246	0x2fb79085	3.3390193e-10
247	0x37379fee	1.09448865e-05
248	0x3485d85f	2.493061e-07
249	0x34ca36ab	3.7665208e-07
250	0x3320e74d	3.746327e-08
251	0x325c3c02	1.281933e-08
252	0x32693c9c	1.3576166e-08
253	0x309e7fc3	1.1532325e-09
254	0x3384b158	6.1789876e-08
255	0x30793705	9.066386e-10
