lightning_logs/version_22/checkpoints/epoch=49-step=150.ckpt (torch, 121435 bytes, 30 tensors)

gru.weight_ih_l0 f4 [96, 15]
0	0xbe6a16ec	-0.22860307
1	0xbd1bbce1	-0.038021926
2	0x3c924ea6	0.017859768
3	0xbe5cc30f	-0.21558784
4	0x3bf26e52	0.007398405
5	0xbdbc0ddd	-0.09182332
6	0x3e60c56b	0.21950309
7	0x3e52556b	0.20540397
8	0xbe0a7256	-0.13520178
9	0xbc81968a	-0.015818853
10	0xbda7fcae	-0.08202492
11	0x3a2e2f2d	0.0006644603
12	0xbe1ca968	-0.15298998
13	0xbd237a3e	-0.0399115
14	0x3dacec9c	0.08443567
15	0x3e14e640	0.14540958
16	0x3cd913df	0.026498733
17	0xbdd72aae	-0.105061874
18	0x3e13dbbd	0.14439292
19	0xbbcf5def	-0.0063283364
20	0xbdb003ca	-0.08594473
21	0xbcc2b1cd	-0.023766423
22	0xbd6fbc0e	-0.058528952
23	0x3df92ece	0.121671304
24	0x3dcc00ec	0.09961113
25	0xbe1b3914	-0.15158492
26	0xbcb48f99	-0.022041129
27	0x3d78614b	0.06063966
28	0xbe4660eb	-0.19372909
29	0xbd032cf0	-0.032025278
30	0xbd9b6de6	-0.07589321
31	0x3d53f436	0.05174657
32	0x3c8b6ed5	0.017020622
33	0x3d891a86	0.06694512
34	0xbc5b236b	-0.0133751435
35	0x3e3c5aba	0.18393984
36	0xbda8e787	-0.08247285
37	0xbd510ab7	-0.05103561
38	0xbde27d38	-0.1105904
39	0xbe0ed223	-0.13947348
40	0xbdfaf1e9	-0.12253172
41	0xbdb73409	-0.08945472
42	0xbe24d63b	-0.16097347
43	0xba0e9b62	-0.0005440024
44	0xbe4dae6d	-0.2008607
45	0xbc2b63d8	-0.010460816
46	0x3c1918a3	0.009344253
47	0xbe315bea	-0.17320219
48	0x3cacabc5	0.021078
49	0xbd64c548	-0.055852205
50	0x3e09fc1a	0.13475075
51	0x3e0c60c4	0.13708788
52	0x3dbb64e5	0.091501035
53	0xbd9f8029	-0.077881165
54	0x3d312caa	0.043255486
55	0xbd2a50f7	-0.04158112
56	0xbc0083f2	-0.007843958
57	0x3d448947	0.04798248
58	0xbd74eedb	-0.059798103
59	0xbe585469	-0.2112595
60	0xbe47b53f	-0.19502734
61	0xbd4255ee	-0.04744523
62	0xbe0906f5	-0.1338156
63	0xbc1b269e	-0.009469656
64	0x3e4d7847	0.20065413
65	0x3dc55bdb	0.09636661
66	0x3d30b239	0.043138716
67	0xbd182f32	-0.037154384
68	0xbd35cdcc	-0.044385716
69	0x3d8f5a6a	0.06999667
70	0x3d747014	0.0596772
71	0xbafb338d	-0.0019165144
72	0xbc674339	-0.014115148
73	0x3daddce6	0.08489399
74	0x3e18d309	0.14924254
75	0x3db50095	0.08838002
76	0x3e27e5f1	0.1639631
77	0xbd82797e	-0.06370829
78	0xbdc1fb43	-0.094717525
79	0x3da65a3d	0.0812268
80	0xbdb7868d	-0.089612104
81	0x3cb00f38	0.021491632
82	0xbe29dfe0	-0.16589308
83	0xbd9fbe9d	-0.078000285
84	0xbe2dae36	-0.16960987
85	0xbd83eae4	-0.06441286
86	0x3e31f100	0.1737709
87	0x3c9c755b	0.019098928
88	0xbe10077a	-0.14065352
89	0xbdfc64be	-0.123239025
90	0x3da06879	0.078324266
91	0xbe344294	-0.17603523
92	0x3caf4a5c	0.021397762
93	0xbc8965c8	-0.016772166
94	0xbb6d73d8	-0.0036232378
95	0xbcd2734f	-0.025689749
96	0xbe420cfb	-0.18950264
97	0xbe1dac79	-0.15397824
98	0xbce86109	-0.028366582
99	0xbe4ddbb1	-0.20103337
100	0x3e27e2b8	0.1639508
101	0xbe0f384d	-0.13986321
102	0x3dda9a16	0.10673921
103	0xbd95101e	-0.07278465
104	0x3dad26f8	0.08454698
105	0xbde1265a	-0.10993643
106	0xbc63b10f	-0.0138971945
107	0x3e6e65d3	0.2328103
108	0x3d817e5d	0.0632293
109	0xbe878162	-0.264659
110	0x3d9568a5	0.0729535
111	0x3e2624b1	0.16224934
112	0x3daeb5be	0.08530758
113	0xbb5df8ed	-0.0033870295
114	0x3e20a128	0.15686476
115	0x3d74c732	0.05976028
116	0x3d773fc5	0.06036355
117	0xbe2113c7	-0.157302
118	0xbcb1f12e	-0.021721449
119	0x3e136cbb	0.14396946
120	0xbdd89925	-0.10576085
121	0x3e2bc4ff	0.16774367
122	0xbd3c6003	-0.04599
123	0x3cc8ef45	0.024528155
124	0xbd1ea5ee	-0.03873246
125	0xbd5d957a	-0.05409763
126	0xbdf5d482	-0.12003423
127	0x3dd20609	0.10255057
128	0x3e0a294b	0.13492315
129	0x3e55671c	0.20840114
130	0x3dd6a2c4	0.10480264
131	0x3e36c31d	0.17847867
132	0xbdc8b16b	-0.09799465
133	0xbd98a7de	-0.07453893
134	0x3d0a0d5f	0.033704158
135	0x3cea701f	0.028617917
136	0xbdd3cd62	-0.10341908
137	0xbdcc25f9	-0.0996818
138	0xbad41db5	-0.001618317
139	0x3e67eaa2	0.22648099
140	0x3e64b718	0.2233547
141	0xbd7f8093	-0.062378477
142	0xbe307afa	-0.17234412
143	0xbe31c4f1	-0.17360283
144	0x3e0ee88a	0.13955894
145	0xbc574360	-0.013138622
146	0xbcf84368	-0.03030558
147	0xbddf495d	-0.10902665
148	0xbd7939d7	-0.060846176
149	0x3e255f01	0.16149522
150	0xbd9be2d7	-0.07611626
151	0xbe08a92c	-0.13345784
152	0xbe18245c	-0.1485762
153	0x3d62c0a4	0.055359498
154	0x3dba0d47	0.09084564
155	0xbdb72246	-0.08942084
156	0xbd6ae3ec	-0.05734627
157	0xbcba5eaa	-0.022750217
158	0x3d9aadcb	0.0755268
159	0xbe5f5fbe	-0.21813866
160	0xbcedd9b2	-0.02903447
161	0x3d2eb38d	0.0426517
162	0xbdf7d873	-0.12101831
163	0x3d88b031	0.06674231
164	0xbd806707	-0.06269651
165	0xbdb2f106	-0.08737378
166	0x3e51d797	0.20492397
167	0x3d819a8f	0.06328308
168	0x3dcdb750	0.1004473
169	0x3de737b8	0.112899244
170	0x3da39335	0.07987062
171	0x3e2fde80	0.17174721
172	0x3d57afaa	0.05265776
173	0x3e239346	0.15974149
174	0x3e2bd1d8	0.16779268
175	0x3e425e01	0.18981172
176	0x3d4277d3	0.047477555
177	0xbd7c76e8	-0.061636835
178	0x3d09882d	0.033577133
179	0x3e30448c	0.17213649
180	0xbd16d796	-0.036826693
181	0x3ce758c3	0.028240567
182	0xbd87ff6e	-0.06640516
183	0x3e21ad93	0.1578887
184	0xbdefaf67	-0.11703377
185	0x3ddaf098	0.10690421
186	0x3cdda9a8	0.027058437
187	0xbdfbe32b	-0.12299188
188	0xbc8ecddd	-0.017432148
189	0xbcbbe6c6	-0.02293719
190	0x3d97e4a1	0.074166544
191	0x3e1d878b	0.15383737
192	0x3df1cec4	0.118070155
193	0x3e175fde	0.14782664
194	0x3e375c6e	0.17906353
195	0xbe880c56	-0.26571912
196	0xbe9b50b4	-0.3033501
197	0xbe66724c	-0.22504538
198	0xbd599026	-0.053115986
199	0xbd6dcdbc	-0.05805753
200	0x3c7b28af	0.015329524
201	0xbd913fe4	-0.07092264
202	0x3dd80bfb	0.1054916
203	0x3e025a2a	0.12729707
204	0x3cc21432	0.02369127
205	0xbe030720	-0.12795687
206	0xbc75fd69	-0.015014031
207	0xba915f07	-0.0011090942
208	0xbbc24a3a	-0.0059292587
209	0xbe8a558f	-0.270184
210	0xbadbb90c	-0.0016763522
211	0xbe07c903	-0.13260274
212	0xbe6cbac4	-0.2311812
213	0xbddd3da7	-0.10802775
214	0xbd9974af	-0.07492959
215	0x3dba4005	0.09094242
216	0x3d86002f	0.06543004
217	0x3c160bd5	0.009158094
218	0x3df87cb7	0.121331625
219	0xbe102ad4	-0.14078838
220	0x3dbe838d	0.09302435
221	0x3bceaa7e	0.0063069453
222	0x3c54916f	0.012974127
223	0x3e261ce9	0.16221966
224	0x3cd642a7	0.02615483
225	0x3c74d9ad	0.014944476
226	0x3dffc014	0.12487808
227	0xbe0cfa25	-0.13767298
228	0x3cb19ffa	0.021682728
229	0xbe01f7ec	-0.12692231
230	0x3d2e1282	0.04249812
231	0xbdd3be2f	-0.10339009
232	0x3d144915	0.03620251
233	0xbe19af69	-0.1500832
234	0xbd8b5ce5	-0.068048276
235	0xbdb5007f	-0.08837985
236	0x3dd20c07	0.102562
237	0xbbb01176	-0.0053731753
238	0xbd1cfff9	-0.038330052
239	0xbd8d809a	-0.069092944
240	0xbd1691f2	-0.036760278
241	0x3e011866	0.12606964
242	0xbd0fa2e5	-0.035067458
243	0x3c87e740	0.01658976
244	0x3d8cd160	0.068758726
245	0x3e09bfcd	0.13452072
246	0x3d0e370c	0.034720466
247	0x3dc74ae5	0.09731082
248	0x3e7f3bf8	0.2492522
249	0x3e28f2bc	0.16498846
250	0x3e51b99f	0.20480965
251	0x39713b0e	0.0002300555
252	0xbdb4c404	-0.088264495
253	0x3cbcc937	0.023045165
254	0xbc887dfc	-0.016661637
255	0xbd3980c7	-0.045288827

gru.weight_hh_l0 f4 [96, 32]
0	0xbe05dc21	-0.13072254
1	0x3d971275	0.07376567
2	0x3c4d0e66	0.01251564
3	0x3db921ae	0.09039627
4	0xbde2e28d	-0.110783674
5	0xbcab4ceb	-0.0209107
6	0xbd7162b4	-0.05893202
7	0x3b4c63a4	0.003118732
8	0xbe56588a	-0.20932212
9	0x3d3b62d7	0.045748558
10	0x3c9ac5d0	0.018893152
11	0xbdb24796	-0.0870506
12	0x3c8e40f3	0.017364955
13	0xbe519f8e	-0.20471022
14	0xbdcb02b7	-0.09912627
15	0x3e63b225	0.22235925
16	0x3e68cd02	0.22734454
17	0x3da51be5	0.08061961
18	0xbe283809	-0.16427626
19	0xbe4f32b8	-0.20234191
20	0xbdd0e17b	-0.10199257
21	0x3e2cfe5f	0.1689391
22	0x3da75945	0.08171324
23	0x3e27d875	0.16391166
24	0xbd87ae15	-0.066250004
25	0xbe4d4359	-0.20045222
26	0x3d0e9275	0.03480764
27	0xbde6eb01	-0.11275292
28	0x3e1ddd9d	0.1541657
29	0xbd10a120	-0.03530991
30	0xbead4cdf	-0.3384771
31	0x3e17c713	0.14822035
32	0xbdf26915	-0.11836449
33	0xbd99c1fc	-0.07507703
34	0x3e05c9e9	0.13065304
35	0x3d8ecf6a	0.06973155
36	0xbe5dcef8	-0.21660984
37	0xbd7c7772	-0.06163735
38	0xbd6063b1	-0.054782573
39	0x3d84fb0a	0.064931944
40	0x3c924259	0.017853903
41	0xbce872af	-0.028374998
42	0xbe06746a	-0.13130346
43	0xbd3ea954	-0.046548203
44	0x3e3a0502	0.18165973
45	0x3e12aa2e	0.14322731
46	0x3d0a5fba	0.0337827
47	0x3dc07c5f	0.09398722
48	0x3e1c2e4c	0.15252036
49	0x3e077ad0	0.13230443
50	0x3cb750ac	0.022377335
51	0x3da0bc9f	0.078484766
52	0x3d8e4f80	0.06948757
53	0x3cfc97a9	0.030834036
54	0x3da8e889	0.082474776
55	0x3e27113c	0.16315168
56	0x3df4231e	0.119207606
57	0x3e044308	0.12916195
58	0x3d8d7347	0.06906753
59	0x3e3ba48a	0.18324485
60	0x3e5b053a	0.21388713
61	0x3e38a39e	0.18031165
62	0xbd725cce	-0.059170537
63	0x3e012a2f	0.12613748
64	0xbda5db3a	-0.08098455
65	0xbdc94db9	-0.098292775
66	0xbd224042	-0.039612062
67	0x3e328a5b	0.17435591
68	0xbd91976f	-0.07108962
69	0x3e201bdd	0.15635629
70	0x3c76aabf	0.0150553575
71	0xbda1ca0a	-0.07899864
72	0xbd09f5da	-0.033681728
73	0x3da2741b	0.079323016
74	0x3dd72dc8	0.10506779
75	0xbd934346	-0.07190566
76	0x3aca61f1	0.0015440566
77	0x3d198d0a	0.03748802
78	0xbc350bb3	-0.011050153
79	0x3dce16c2	0.100629345
80	0x3ca9e00e	0.02073672
81	0xbdb56d87	-0.08858781
82	0x3d0d607a	0.034515835
83	0x3c0f9e9c	0.008765843
84	0xbbd4ccba	-0.006494132
85	0x3dac2f71	0.08407486
86	0xbdcb98f8	-0.09941286
87	0x3c3632e8	0.011120535
88	0xbe4811db	-0.19538061
89	0x3ded4183	0.11584761
90	0xbd2a547c	-0.041584477
91	0x3dede946	0.11616759
92	0x3df9936e	0.12186323
93	0xbdfbec1b	-0.12300893
94	0x3e47f5dd	0.19527383
95	0x3dc3a879	0.09553618
96	0x3d5d785a	0.054069854
97	0xbde92457	-0.113838844
98	0xbd8e8ed4	-0.06960836
99	0x3d54df4b	0.05197076
100	0xbe52e7af	-0.20596193
101	0xbd8acd76	-0.0677747
102	0xbdc55f9a	-0.09637375
103	0x3e465d69	0.1937157
104	0x3d4b5c58	0.049648613
105	0x3e2ca10c	0.1685831
106	0x3df4e569	0.11957819
107	0x3d13b1bc	0.036058173
108	0x3e885c98	0.26633143
109	0xbc8b2527	-0.016985489
110	0x3b9140c7	0.004432771
111	0x3c698c3d	0.014254627
112	0x3e20347e	0.15645024
113	0xbd8d3dbd	-0.06896541
114	0xbdaafa89	-0.08348567
115	0xbe4625c1	-0.1935034
116	0xbdb255aa	-0.087077454
117	0x3d970e11	0.0737573
118	0x3c5c826f	0.013458832
119	0x3cd44d9d	0.025915915
120	0x3e0d7021	0.13812305
121	0x3ce2bfe8	0.027679399
122	0x3e6bef38	0.23040473
123	0xbd33f99b	-0.043939214
124	0xbe140df3	-0.14458446
125	0x3e307d18	0.1723522
126	0xbe026b90	-0.12736344
127	0xbe3370a8	-0.17523444
128	0xbc9cc383	-0.019136196
129	0xbe4561f1	-0.19275643
130	0xbe31a38e	-0.17347547
131	0xbd845889	-0.06462199
132	0x3d58742d	0.05284517
133	0x3dd34c4e	0.10317288
134	0xbcfa7d1f	-0.03057724
135	0x3e80d248	0.25160432
136	0xbde880a2	-0.1135266
137	0x3d3e167e	0.04640817
138	0xbdf24f6f	-0.11831557
139	0xbb6cddd0	-0.0036142953
140	0x3de7ec5e	0.1132438
141	0xbdc38667	-0.095471196
142	0x3d59697f	0.053079125
143	0xbd30b61c	-0.043142423
144	0x3e2e13ef	0.16999792
145	0xbcf1b2dc	-0.029504232
146	0x3da82289	0.08209712
147	0xbb8e1384	-0.0043358225
148	0x3c0f735c	0.008755531
149	0xbc99781b	-0.018734029
150	0xbe099991	-0.13437487
151	0xbcea15f5	-0.028574923
152	0x3e0baf21	0.13641025
153	0xbda28b99	-0.079367824
154	0x3c237bad	0.009978217
155	0xbe15b428	-0.14619505
156	0xbe507cd3	-0.20360117
157	0x3e3d6dd0	0.18498921
158	0x3def8418	0.11695117
159	0xbe0548dc	-0.13016075
160	0xbe2b09a2	-0.16702893
161	0xbe169c77	-0.14708124
162	0x3e02b801	0.12765504
163	0x3daa85a1	0.08326269
164	0xbde6bff2	-0.112670794
165	0x3dd4ebf9	0.10396571
166	0x3ddc3442	0.10752155
167	0xbe15783b	-0.14596646
168	0xbe287c02	-0.16453555
169	0x3cd3fa0d	0.02587607
170	0xbe566f55	-0.20940907
171	0xbda14aad	-0.078755714
172	0x3bc24164	0.0059282053
173	0xbdeba142	-0.11505367
174	0xbd4f14bc	-0.050556883
175	0xbde41c28	-0.11138183
176	0xbd8662fd	-0.06561849
177	0x3e16de22	0.14733174
178	0xbe454ddb	-0.19267981
179	0xbd7a34d2	-0.06108553
180	0x3de373f6	0.11106102
181	0x399660cd	0.00028682352
182	0xbdc0f175	-0.09421054
183	0xbe0c6925	-0.13711984
184	0x3db7636c	0.0895451
185	0xbd6264ce	-0.055271916
186	0x3de10aa3	0.10988357
187	0xbe13b245	-0.14423473
188	0x3e3816da	0.17977467
189	0x3de5ab91	0.11214364
190	0xbdaa8c00	-0.08327484
191	0x3e668e6c	0.22515267
192	0xbd45c0fe	-0.048279755
193	0xbe73eecb	-0.23821561
194	0xbd2c786e	-0.04210704
195	0x3d219c09	0.039455447
196	0x3c838b5f	0.016057668
197	0xbe018beb	-0.1265103
198	0x3e3f3165	0.18671186
199	0x3c54c0d1	0.012985424
200	0x3db12d02	0.08651163
201	0xbdb0c5e8	-0.086314976
202	0xbe2d4b9d	-0.16923375
203	0x3db8cf7e	0.09023951
204	0x3d0ccd0d	0.03437524
205	0xbe1d6f4f	-0.15374492
206	0x3de8fbe5	0.1137617
207	0x3daccce8	0.0843752
208	0x3e184806	0.14871225
209	0xbe6b6668	-0.22988284
210	0xbdfe0b5f	-0.124045126
211	0x3e1d961a	0.1538929
212	0xbd4e851d	-0.050419915
213	0x3e13b0d9	0.14422931
214	0xbe512516	-0.20424303
215	0x3e1dfa30	0.1542747
216	0x3d1cda5e	0.03829419
217	0xbddabc7e	-0.10680483
218	0xbd617744	-0.05504538
219	0xbe414e2e	-0.1887748
220	0xbda0de03	-0.078548454
221	0x3b460a15	0.0030218412
222	0x3d2fa6b2	0.042883582
223	0xbd959279	-0.07303328
224	0x3d2f391e	0.04277908
225	0x3e3e5ef7	0.18590914
226	0xbdcb6932	-0.09932174
227	0xbd493ae1	-0.049128417
228	0xbe18069f	-0.14846276
229	0xbe33505f	-0.17511128
230	0x3d81beca	0.06335218
231	0x3d021079	0.03175399
232	0xbd8fc941	-0.07020808
233	0x3db8a462	0.090157285
234	0x3e4977d8	0.19674623
235	0x3dbc8ece	0.09206925
236	0xbd827807	-0.0637055
237	0x3b8d1548	0.0043055154
238	0xbe01981b	-0.1265568
239	0x3e8683b0	0.26272345
240	0x3d06b669	0.032888804
241	0x3e549c77	0.20762812
242	0xbe58932c	-0.21149892
243	0x3d7b4fe3	0.061355483
244	0x3d82e523	0.063913606
245	0x3c7985a4	0.015229616
246	0xbc8b4d72	-0.017004702
247	0xbd756090	-0.059906542
248	0xbe3c458c	-0.18385905
249	0x3baedd27	0.005336422
250	0x3d79cbf0	0.060985506
251	0x3e878754	0.26470435
252	0x3df9a5a1	0.12189794
253	0xbc9ce705	-0.019153127
254	0x3e09ae01	0.13445283
255	0x3c8ee82f	0.017444698

gru.bias_ih_l0 f4 [96]
0	0x3defad3a	0.11702962
1	0x3da5fc05	0.081047095
2	0xbd982bbf	-0.07430219
3	0x3e8870fa	0.26648694
4	0xbbfdab8e	-0.007741398
5	0x3cb8c26a	0.022553641
6	0xbda04231	-0.07825125
7	0x3e4d2814	0.2003482
8	0xbb9f4d8b	-0.0048615388
9	0xbb202aea	-0.0024439641
10	0xbdc686be	-0.09693669
11	0xbe44cba8	-0.19218314
12	0xbd79ee55	-0.061018307
13	0x3e564eb1	0.20928456
14	0x3d542db6	0.051801406
15	0x3da8be72	0.082394496
16	0x3cd37d45	0.02581657
17	0xbe2759e5	-0.16342886
18	0x3ca5c6bd	0.020236367
19	0xbcc9b900	-0.024624348
20	0x3b85ab37	0.0040792483
21	0xbe1d30ba	-0.15350619
22	0xbd63ec30	-0.055645168
23	0x3e11c5f3	0.14235668
24	0x3cd7dbfe	0.026350018
25	0x3d90c77f	0.07069301
26	0xbcef8862	-0.029239837
27	0xbdf9a9c9	-0.12190587
28	0x3d6a8e73	0.057264756
29	0x3e22ac72	0.15886095
30	0x3e3848a4	0.1799646
31	0x3e08a224	0.13343102
32	0xbd2182b5	-0.039431293
33	0x3e830db0	0.2559638
34	0x3da18b2f	0.07887875
35	0xbdb19931	-0.08671797
36	0x3c64b507	0.013959176
37	0x3e30f233	0.17279892
38	0xbdb7d7ec	-0.08976731
39	0x3e0ca91e	0.13736388
40	0x3e646d2f	0.22307275
41	0xba598a18	-0.00082984706
42	0xbe28d81b	-0.16488688
43	0xbe265dd7	-0.16246735
44	0xbdbed3ca	-0.09317739
45	0x3e33bdce	0.17552873
46	0x3e05cbf4	0.13066083
47	0xbd6b221c	-0.057405576
48	0x3eb50e04	0.35362256
49	0xbd7a2ad8	-0.061076015
50	0x3e2c219a	0.16809693
51	0xbdf5cdfd	-0.1200218
52	0xbe0a2b37	-0.13493048
53	0xbdccb52e	-0.09995495
54	0x3e14bc1b	0.14524882
55	0xbd4f244f	-0.050571736
56	0xbcb19cfe	-0.021681305
57	0xbd16e96c	-0.036843702
58	0x3e5ce772	0.21572664
59	0x3e2c5357	0.16828667
60	0x3e6f9491	0.23396517
61	0xbda9355c	-0.082621306
62	0xbd263f88	-0.040587932
63	0x3d365412	0.04451377
64	0xbd73f385	-0.05955841
65	0xbe290454	-0.16505557
66	0xbd98da54	-0.07463518
67	0x3ca9f157	0.020744963
68	0xbe349683	-0.1763554
69	0x3cc5c397	0.024141116
70	0xbdb69c0c	-0.08916482
71	0xbdc24817	-0.09486406
72	0xbd63ddbb	-0.05563138
73	0x3dbbad79	0.09163947
74	0x3e46281b	0.19351237
75	0xbd772bb8	-0.060344428
76	0x3d091131	0.03346366
77	0x3dedca24	0.11610821
78	0xbd4d8a54	-0.050180748
79	0x3e47e10e	0.19519445
80	0x3d8b9af3	0.068166636
81	0xbb19f1f3	-0.002349016
82	0xbe0d3da1	-0.13793041
83	0xbe46ff3b	-0.194333
84	0xbe20aa8e	-0.15690061
85	0xbd29efbd	-0.041488398
86	0xbdfba5f7	-0.12287515
87	0x3dca19a6	0.09868173
88	0x3db6de3f	0.08929109
89	0x3dd5b80d	0.104354955
90	0x3db7aa25	0.08967999
91	0x3e39fb61	0.181623
92	0x3b9093a1	0.00441213
93	0x3d11a95a	0.035561897
94	0xbdccedda	-0.10006304
95	0x3e2e36c5	0.1701308

gru.bias_hh_l0 f4 [96]
0	0x3d63993f	0.05556607
1	0x3d9ddaad	0.07707725
2	0xbe1de1db	-0.15418188
3	0x3e17d239	0.14826287
4	0x3e0f46de	0.13991877
5	0xbdfd837f	-0.123785965
6	0xbd8d6654	-0.06904283
7	0x3e0cfe2e	0.13768837
8	0xbdf2d0ef	-0.11856257
9	0x3e66b08b	0.22528283
10	0xbe2ba1bf	-0.1676092
11	0xbe1df923	-0.1542707
12	0x3c919b8e	0.01777437
13	0x3cb00004	0.021484382
14	0xbce64ff6	-0.0281143
15	0x3e4f7a7e	0.20261571
16	0x3dadbacf	0.084828965
17	0x3e01e638	0.12685478
18	0x3e098bd8	0.13432252
19	0xbdf664de	-0.12030958
20	0xbda8b649	-0.08237893
21	0x3dee31c8	0.11630589
22	0x3e5c72fc	0.21528238
23	0x3c116346	0.008873766
24	0x3e2880a7	0.16455327
25	0xbd96370b	-0.07334717
26	0x3d462b7d	0.048381317
27	0xbce94361	-0.028474512
28	0x3e6f6209	0.23377241
29	0x3e1eb08d	0.15497036
30	0x3d4ea1ba	0.050447203
31	0x3d615c66	0.05501976
32	0xbd31f75b	-0.043448787
33	0xbd0b2fbd	-0.033981074
34	0x3e42e448	0.19032395
35	0xbdcc9786	-0.09989838
36	0xbce84e18	-0.02835755
37	0xbb8ed1b7	-0.004358496
38	0x3e290702	0.1650658
39	0x3d06286b	0.03275339
40	0xbc987338	-0.018609628
41	0x3dd6d99c	0.104907244
42	0xbd0d7830	-0.034538448
43	0xbc7e4294	-0.015518803
44	0xbd2bcead	-0.04194515
45	0x3e13a483	0.14418225
46	0x3c851882	0.016247038
47	0xbd25935c	-0.040423736
48	0x3e442a98	0.19156873
49	0xbe417ac2	-0.18894485
50	0x3c607ceb	0.013701658
51	0x3e02ac1b	0.12760966
52	0x3dae7ae8	0.08519536
53	0x3e116bc7	0.1420127
54	0x3e1abb46	0.15110502
55	0x3e1c3a79	0.1525668
56	0x3e23ac3b	0.1598367
57	0x3e19f7d5	0.15035947
58	0x3d2e2eb5	0.042525012
59	0x3d800df6	0.06252663
60	0x3d39282a	0.04520432
61	0x3df43cfe	0.11925696
62	0x3d589b24	0.05288233
63	0x3e5424a8	0.20717108
64	0xbc9cf0ff	-0.019157885
65	0xbe1be328	-0.15223372
66	0x3c609cff	0.013709306
67	0xbe030622	-0.12795308
68	0x3d877585	0.06614212
69	0xbdbb2344	-0.09137586
70	0x3d48c5ee	0.049016885
71	0xbe336e0c	-0.17522448
72	0x3cee6e5c	0.029105358
73	0x3e6aa874	0.22915822
74	0xbdd83598	-0.10557097
75	0x3d392a30	0.04520625
76	0x3d3d3969	0.04619733
77	0xbdecd2f8	-0.115636766
78	0xbd9686dd	-0.07349942
79	0x3e4a1877	0.19735895
80	0x3d8142c5	0.063115634
81	0xbe00b87b	-0.12570374
82	0x3de1698c	0.110064596
83	0x3d035262	0.03206099
84	0x3dd05233	0.10171928
85	0xbd36ae8b	-0.04460005
86	0xbdf8886d	-0.12135396
87	0x3dd8c925	0.1058524
88	0xbdbc095e	-0.09181474
89	0xbd506100	-0.050873756
90	0xbde86277	-0.11346906
91	0xbd8b83e2	-0.06812264
92	0x3e5c987c	0.21542543
93	0x3e00c85f	0.12576436
94	0x3dce0eec	0.1006144
95	0x3e039cbd	0.1285276

output_layers.0.weight f4 [64, 32]
0	0x3df793d3	0.12088742
1	0x3e06796c	0.13132256
2	0xbe3dea33	-0.18546371
3	0xbe0cbf28	-0.13744795
4	0xbbdfb856	-0.0068273945
5	0xbdcf3fe6	-0.101196095
6	0x3d80b282	0.06284048
7	0xbde53ad0	-0.11192858
8	0x3bb4f1fa	0.00552201
9	0xbdaee726	-0.08540182
10	0x3c9771a3	0.018486803
11	0xbdedc5e6	-0.11610012
12	0x3cfbd7d9	0.030742573
13	0x3d6e13fe	0.058124535
14	0x3d08d87f	0.03340959
15	0x3e3f2d89	0.18669714
16	0xbae424fd	-0.0017406043
17	0x3e1cbb15	0.15305741
18	0xbd919b20	-0.07109666
19	0xbc86ea32	-0.016469095
20	0xbe1c53e5	-0.15266378
21	0xbd90d989	-0.070727415
22	0xbd9e1e49	-0.0772062
23	0xbe32dfd3	-0.17468195
24	0xbe0f0db4	-0.13970071
25	0x3cb0e333	0.021592712
26	0xbde0fb25	-0.10985402
27	0x3e290a55	0.16507848
28	0x3e1a4319	0.15064658
29	0x3c40d79b	0.011770154
30	0xbcf13e15	-0.029448548
31	0xbd1ed58c	-0.038777873
32	0xbe268acf	-0.16263889
33	0xbd7a1432	-0.061054416
34	0xbc6ce3c7	-0.014458603
35	0x3dbd8b07	0.09255033
36	0xbc94468c	-0.018100046
37	0x3dc10721	0.09425188
38	0xbdfeb0e7	-0.12436085
39	0x3d901841	0.07035876
40	0xbde0f63c	-0.109844655
41	0xbd8beb33	-0.0683197
42	0xbde70775	-0.11280719
43	0xbde21acd	-0.11040268
44	0x3ddd64bd	0.1081023
45	0x3d334770	0.0437693
46	0xbe13f052	-0.14447144
47	0x3daf1864	0.08549574
48	0x3d3b01c5	0.045655984
49	0x3d8c4caa	0.0685056
50	0x3c74d0a5	0.014942323
51	0xbe10c2ac	-0.14136761
52	0x3d1b7ef5	0.037962873
53	0x3d9cb4cc	0.07651672
54	0xbc8ba6a9	-0.017047243
55	0x3d2b9bb7	0.041896548
56	0x3dad18e6	0.084520146
57	0xba6ce700	-0.0009037107
58	0xbd32c2cd	-0.043642808
59	0xbe28d2f8	-0.16486728
60	0xbd978117	-0.07397669
61	0x3baae45b	0.0052152104
62	0x3e0b6aca	0.13614956
63	0xbdda170c	-0.10648927
64	0x3d2b75b8	0.041860312
65	0x3d7df56b	0.062001627
66	0xbd0b9159	-0.03407416
67	0x3c8c31b1	0.017113538
68	0x3db87b0a	0.09007843
69	0x3c3fb7e4	0.011701558
70	0xbe0047a5	-0.1252733
71	0xbc991ac1	-0.018689515
72	0xbdccc765	-0.09998969
73	0x3e173e8f	0.14769958
74	0xbe08caf5	-0.13358672
75	0xbdaa32e7	-0.0831049
76	0x3dc64f4f	0.09683096
77	0x3ddd0876	0.107926294
78	0x3e172069	0.14758457
79	0xbd4048f3	-0.04694457
80	0x3cb329b1	0.021870466
81	0x3c800313	0.015626466
82	0xbd661c53	-0.056179356
83	0xbd81a48f	-0.06330215
84	0x3dce5460	0.10074687
85	0xbe2c52db	-0.16828482
86	0xbe0e5912	-0.13901165
87	0xbdf1fc6e	-0.11815725
88	0xbd52557e	-0.051351063
89	0x3d3096fd	0.043112744
90	0x3d99bf2e	0.07507168
91	0xbdbc82b6	-0.09204619
92	0xbe41324a	-0.1886684
93	0x3dc7aa28	0.097492516
94	0x3e5b8b36	0.21439824
95	0xbdc2fe7c	-0.09521195
96	0x3c8a44a6	0.016878437
97	0x3db500bb	0.0883803
98	0xbcb4cd26	-0.022070479
99	0x3d7cd150	0.061723053
100	0xbe3163b7	-0.17323194
101	0x3d2fba52	0.0429023
102	0x3e20845e	0.15675494
103	0xbd84faf2	-0.064931765
104	0xbe2fa69b	-0.17153399
105	0xbccb8542	-0.024843816
106	0xbcd725ad	-0.026263082
107	0x3daed950	0.08537543
108	0xbd8bd8ab	-0.068284355
109	0x3d5cd2ec	0.05391209
110	0xbd39643c	-0.045261607
111	0xbbce1491	-0.006289073
112	0x3e1813cd	0.14851303
113	0xbe517148	-0.2045337
114	0xbdae6ad8	-0.085164726
115	0x3df86cce	0.12130128
116	0x3deb437c	0.11487481
117	0xbd65361b	-0.055959802
118	0x3bd308e1	0.0064402674
119	0x3dc920e9	0.0982073
120	0x3e342e91	0.17595889
121	0x3cde9f8a	0.027175684
122	0x3e245196	0.16046748
123	0x3b835ee8	0.0040091164
124	0xbe3d7a02	-0.18503574
125	0x3e51e5d0	0.20497823
126	0x3df4d75c	0.11955139
127	0xbd2d3595	-0.042287428
128	0xbe096634	-0.13417894
129	0xbe16278a	-0.1466352
130	0x3d05b774	0.032645658
131	0xbdf9bdcb	-0.12194403
132	0xbd1c7238	-0.038194865
133	0xbd75bd63	-0.059995066
134	0x3d31a2cb	0.043368142
135	0x3d4a63f3	0.049411725
136	0x3d34e722	0.044165738
137	0x3d1ac677	0.037786927
138	0x3e0b79b8	0.13620651
139	0x3e062c3b	0.1310281
140	0xbd83d2db	-0.06436702
141	0x3e061ea2	0.13097623
142	0xbc127a9d	-0.008940366
143	0x3d52d132	0.051469035
144	0x3d3a1eb6	0.045439444
145	0x3dfa76ed	0.122297145
146	0x3a4b02e6	0.00077442674
147	0xbd5d786b	-0.054069918
148	0xbe1b84df	-0.15187405
149	0xbe2c692f	-0.16837
150	0xbbc43c82	-0.0059886584
151	0xbc5e4773	-0.0135668395
152	0xbe2e8f35	-0.17046817
153	0x3c8a3b95	0.016874114
154	0xbdd59259	-0.10428304
155	0x3d809493	0.06278338
156	0xbd0ff3c6	-0.03514459
157	0xbe2410fb	-0.16022103
158	0x3c62c8e4	0.013841841
159	0xbdbe601c	-0.09295675
160	0xbe0694af	-0.13142656
161	0xbd9c64d6	-0.076364204
162	0xbdb62006	-0.08892827
163	0x3e0f95cd	0.14021988
164	0x3e19f30f	0.15034126
165	0xbe065c7c	-0.13121217
166	0x3d047d52	0.032346077
167	0x3e0a83f3	0.13526897
168	0xbdab0e49	-0.08352334
169	0x3e1d07c7	0.15334998
170	0xbc66db7f	-0.014090418
171	0xbdff7c45	-0.124748744
172	0x3e1eac07	0.1549531
173	0x3df559ca	0.119800165
174	0xbcc48276	-0.02398799
175	0xbcdc4ab4	-0.02689109
176	0x3d0dd0cf	0.034622964
177	0xbe2f96ed	-0.17147417
178	0xbe1e4734	-0.1545685
179	0xbdf01080	-0.11721897
180	0xbcc3950a	-0.023874778
181	0xbd8db6b8	-0.069196165
182	0x3da34e87	0.07973962
183	0xbe0839d0	-0.13303304
184	0x3dcb7172	0.09933747
185	0x3c50eccf	0.012751772
186	0xbd276db2	-0.040876098
187	0xbd857fbc	-0.06518504
188	0xbdc29c0b	-0.09502419
189	0xbda0306b	-0.07821735
190	0x3cd5bcf1	0.02609107
191	0xbe302b9d	-0.17204137
192	0x3e3ce46e	0.18446514
193	0x3dda5327	0.10660391
194	0x3ddfd91c	0.10930082
195	0xbdfe43cc	-0.12415275
196	0xbb982ff1	-0.004644387
197	0x3e10e73e	0.14150712
198	0xbd96c26f	-0.07361304
199	0x3e19d24e	0.15021631
200	0xbe27e63a	-0.16396418
201	0x3e237e7d	0.1596622
202	0x3ddeaa55	0.10872332
203	0xbd164845	-0.036690015
204	0x3dffa525	0.12482671
205	0x3e1ea963	0.15494303
206	0xbd26f068	-0.040756613
207	0xbdad314b	-0.084566675
208	0x3dab2626	0.083568856
209	0x3d3768e8	0.04477778
210	0x3c3c50b7	0.011493853
211	0xbde99f4f	-0.11407339
212	0xbdb03ece	-0.08605729
213	0x3dd2a609	0.10285575
214	0x3cbe7542	0.023249272
215	0x3df04ca9	0.11733372
216	0xbdcef188	-0.10104662
217	0x3e1cfe85	0.15331466
218	0x3d85d95a	0.06535597
219	0x3ccd107d	0.025032276
220	0x3da405b4	0.080089
221	0x3de88987	0.11354356
222	0x3d6acd44	0.057324663
223	0x3bc80627	0.006104249
224	0xbe19fff4	-0.15039045
225	0x3dce1f79	0.10064597
226	0x3dabedbc	0.083949536
227	0x3ddc58e0	0.10759139
228	0x3e04509e	0.12921378
229	0x3c2b1faa	0.010444561
230	0xbdf40cf2	-0.119165316
231	0xbe32dd35	-0.17467196
232	0xbd4f6e9a	-0.050642587
233	0x3cb1c6dc	0.021701269
234	0x3d6d10c7	0.05787733
235	0xbd70cb46	-0.058787607
236	0xbe19869c	-0.14992756
237	0xbcda1562	-0.026621524
238	0xbc88e18c	-0.016709112
239	0x3e3b1e2e	0.18273231
240	0xbd900aff	-0.07033347
241	0xbe5e697e	-0.2171993
242	0xbd9c6966	-0.07637291
243	0xbb1d8833	-0.002403748
244	0xbe061fad	-0.13098021
245	0x3dcbb0ee	0.09945856
246	0xbe3033c8	-0.17207253
247	0x3da7ff05	0.08202938
248	0xbdd22a14	-0.10261932
249	0x3d4fd55f	0.050740596
250	0xbd5e9107	-0.054337528
251	0xbd5bb6c6	-0.053641103
252	0x3e0bbeb4	0.13646966
253	0x3dc89706	0.097944304
254	0xbdf025b4	-0.11725941
255	0xbe06d3ce	-0.13166735

output_layers.0.bias f4 [64]
0	0x3ce28ea8	0.027655914
1	0x3c9099ad	0.017651403
2	0x3b832507	0.0040022167
3	0xbe1b3a8c	-0.15159053
4	0x3e3f3dca	0.18675914
5	0x3da837e1	0.08213783
6	0xbd2f6e43	-0.042829763
7	0x3e379deb	0.17931335
8	0xbd2618b8	-0.040550917
9	0x3d352b43	0.04423071
10	0x3d0da9bb	0.034585696
11	0x3d10d687	0.03536084
12	0x3d9fdaf4	0.07805434
13	0xbd311ea0	-0.043242097
14	0x3ca78bd3	0.020452416
15	0xbd241488	-0.040058643
16	0x3dbe0ac1	0.09279395
17	0x3d703119	0.058640573
18	0xbdf77344	-0.12082532
19	0x3e615f78	0.22009075
20	0x3e49fa21	0.19724323
21	0x3cad54f2	0.02115867
22	0x3da2db62	0.07952
23	0x3e13d300	0.14435959
24	0xbdea124e	-0.114292726
25	0x3e319064	0.17340237
26	0xba4f11e4	-0.0007899089
27	0xbd0ab11f	-0.033860322
28	0x3e5c925b	0.21540205
29	0x3dda5f13	0.10662665
30	0xbd7faa56	-0.062418304
31	0xbd8b9e0e	-0.06817256
32	0x3d115a5c	0.035486564
33	0x3e05e2a4	0.13074738
34	0x3d3565ca	0.044286527
35	0x3e2514cd	0.16121216
36	0x3e3630b9	0.17792024
37	0xbbf729a5	-0.007542806
38	0xbda4a1e6	-0.08038692
39	0x3d48c08f	0.049011763
40	0xbccefdb5	-0.025267461
41	0xbd99a9db	-0.075031005
42	0xbd995cbe	-0.07488392
43	0x3d54791a	0.051873304
44	0xbc6bc299	-0.014389657
45	0xbcecd31b	-0.028909257
46	0xbd07f8fb	-0.03319643
47	0xbd3ec3dc	-0.046573505
48	0xbda6ce8c	-0.081448644
49	0x3e26cf61	0.16290046
50	0x3e38bcf5	0.18040831
51	0x3e078d7e	0.13237569
52	0xbc5edbe6	-0.013602233
53	0x3daa9dc3	0.08330872
54	0xbdc02aeb	-0.09383186
55	0x3caf6028	0.021408156
56	0x3da843e2	0.082160726
57	0x3d8ffda8	0.07030803
58	0x3e5ae798	0.21377409
59	0x3e6361f0	0.22205329
60	0x3e3dc58f	0.18532394
61	0x3caaf388	0.020868078
62	0x3e3d6474	0.18495351
63	0xbdd472b7	-0.103734426

output_layers.3.weight f4 [32, 64]
0	0x3e44a5da	0.19203892
1	0xbd255af2	-0.040369935
2	0x3e136d81	0.14397241
3	0x3cae2ba9	0.021261053
4	0xb93fdb2e	-0.0001829683
5	0x3b72a97b	0.0037027288
6	0x3dc87314	0.097875744
7	0x3dbba637	0.09162562
8	0x3d2e9c4b	0.04262952
9	0x3cee134e	0.02906194
10	0x3c050870	0.008119687
11	0x3d7cab93	0.061687063
12	0x3d71f549	0.059071813
13	0x3dc5996c	0.096484035
14	0x3c621723	0.013799462
15	0xbc8d46ef	-0.017245738
16	0x3d832613	0.064037465
17	0xbdb145e4	-0.08655909
18	0x3dbd786e	0.09251486
19	0x3def73bf	0.11691999
20	0x3e2d0e49	0.1689998
21	0x3e514537	0.2043656
22	0x3e24295c	0.16031402
23	0x3e0738ee	0.1320531
24	0x3dd10eb6	0.10207884
25	0x3cd96d26	0.026541304
26	0x3dfec6d1	0.12440265
27	0x3e441bbb	0.19151203
28	0x3e5c64e6	0.21522865
29	0x3e57c730	0.21072078
30	0x3ddecd55	0.10879008
31	0x3d12f0cb	0.03587417
32	0x3e5219b7	0.20517622
33	0x3e2b417b	0.16724198
34	0x3df70ac7	0.120626025
35	0xbc9caeba	-0.019126285
36	0xbb399177	-0.0028315464
37	0xbccd482d	-0.02505883
38	0x3d53e13d	0.051728476
39	0x3e19dd66	0.15025863
40	0x3bf4c2eb	0.007469525
41	0x3dd8fbfc	0.10594937
42	0x3e0bcb2d	0.13651724
43	0x3dea7949	0.114489146
44	0x3e3c18a2	0.18368772
45	0x3e11950d	0.14217015
46	0x3df01e9e	0.1172459
47	0x3e031bf0	0.12803626
48	0x3dd7fcf0	0.10546291
49	0x3dffce84	0.124905616
50	0x3d725b52	0.05916912
51	0xbd21f7a3	-0.039542805
52	0xbc1f1fb3	-0.0097121475
53	0x3db00a67	0.08595734
54	0xbc2d3249	-0.010571071
55	0x3b53b728	0.0032305215
56	0x3ddf7669	0.10911257
57	0xbc9024f6	-0.01759575
58	0x3e225ee7	0.15856515
59	0x3dc9a95f	0.09846758
60	0x3dbd6b7e	0.09249018
61	0x3e23bc75	0.1598986
62	0x3e0443ef	0.1291654
63	0x3dca1806	0.09867863
64	0xbd7b90b6	-0.061417304
65	0x3d920709	0.07130248
66	0xbdbc0d72	-0.09182252
67	0x3d2c7136	0.042100154
68	0xbc686948	-0.014185257
69	0xbbf1782c	-0.007369062
70	0x3d89885d	0.06715462
71	0x3cfbdc76	0.030744772
72	0xbd125322	-0.035723813
73	0xbda1de02	-0.07903673
74	0x3cabe233	0.020981884
75	0x3da5f554	0.08103433
76	0x3dbaa79d	0.09114001
77	0xbcebb06b	-0.028770646
78	0x3d19da94	0.037561968
79	0xbd4be05f	-0.049774524
80	0x3d960040	0.073242664
81	0xbe078a25	-0.13236292
82	0x3d92b9a0	0.071643114
83	0x3d9b12f7	0.07571977
84	0x3def890c	0.116960615
85	0xbcca2626	-0.024676394
86	0x3d4ed9ee	0.050500803
87	0xbda9b0ab	-0.0828565
88	0xbdcb6d21	-0.09932924
89	0x3957c087	0.0002057572
90	0xbd9e630e	-0.07733737
91	0x3db2a8c3	0.08723595
92	0x3d72e92f	0.059304412
93	0xbd52a975	-0.051431138
94	0xbcf38fd3	-0.029731667
95	0xbdd81635	-0.10551111
96	0x3e027518	0.1273998
97	0xbdddeec0	-0.108365536
98	0x3cb13d80	0.02163577
99	0x3da9540b	0.08267983
100	0x3e066f6d	0.13128443
101	0x3d0c01c3	0.034181368
102	0x3e09a13b	0.13440411
103	0xbcf74203	-0.030182844
104	0xbcfa7d6e	-0.030577388
105	0xbc5b45e0	-0.013383359
106	0x3c4c8b61	0.012484402
107	0xbb733945	-0.0037112993
108	0xbc2ff8b5	-0.010740449
109	0x3d66edec	0.056379244
110	0x3d326ee6	0.043562792
111	0x3e2d308d	0.16913052
112	0xbdedab66	-0.11604957
113	0xbb053549	-0.002032595
114	0xbd95eb16	-0.0732023
115	0x3d17dc6b	0.03707544
116	0xbda2e2d3	-0.079534195
117	0xbbecfd65	-0.0072323554
118	0xbccd0f7d	-0.0250318
119	0xbcb2fea6	-0.021849941
120	0xbd09990c	-0.033593222
121	0x3ddd8def	0.10818087
122	0x3e00d93f	0.12582873
123	0x3df2aefe	0.11849783
124	0xbd5d4630	-0.054022014
125	0x3d95cbfd	0.07314298
126	0xbd97156d	-0.073771335
127	0xbdcd77f2	-0.100326434
128	0x3dba9405	0.09110264
129	0x3def4002	0.116821304
130	0xbce2f2d4	-0.02770368
131	0xbd5f481a	-0.05451212
132	0x3e240442	0.16017249
133	0x3e09b496	0.13447794
134	0x3e2234f8	0.15840518
135	0xbc9c5433	-0.019083118
136	0x3e462f7e	0.19354054
137	0x3e102ec3	0.14080338
138	0x3e32c3da	0.17457524
139	0x3d6c0489	0.057621513
140	0x3e62ec17	0.22160374
141	0xbd9c67d0	-0.07636988
142	0xbc8f3898	-0.01748304
143	0x3dcdb3ea	0.100440815
144	0x3d792e32	0.06083507
145	0xbde45e07	-0.11150747
146	0x3e409f27	0.18810712
147	0x3e257295	0.16156991
148	0x3e066bbc	0.13127035
149	0x3e29c057	0.16577278
150	0x3dcd869c	0.1003544
151	0x3e386977	0.18008982
152	0x3dda62d2	0.1066338
153	0x3cfd3e63	0.030913537
154	0x3d94a363	0.07257726
155	0x3da42b43	0.08016064
156	0xbc565140	-0.013080895
157	0xbd332add	-0.04374205
158	0x3e193e2e	0.14965126
159	0xbcffd829	-0.031231003
160	0x3d91b24f	0.07114088
161	0xbd5691a8	-0.052385002
162	0x3dfca734	0.12336579
163	0x3e362357	0.17786919
164	0x3e1894e9	0.14900555
165	0x3e1a9f90	0.15099931
166	0x3df30e00	0.11867905
167	0x3dbdff26	0.09277181
168	0x3d97a63c	0.074047536
169	0x3bce15df	0.0062892283
170	0x3dbe9fd2	0.09307827
171	0x3e548bff	0.2075653
172	0xbc9a58b3	-0.018841123
173	0x3c7de756	0.015497049
174	0xbc7d8cf3	-0.015475499
175	0x3d0ef30e	0.034899764
176	0x3d9f99ec	0.0779303
177	0x3dddf121	0.10837007
178	0x3db89324	0.0901244
179	0x3de846ef	0.113416545
180	0x3dfbe82e	0.12300144
181	0x3c31a622	0.010842832
182	0x3e45f57e	0.19331929
183	0x3d03f3a7	0.032214787
184	0x3e370994	0.17874748
185	0x3dd65155	0.104647316
186	0xb8a5de38	-7.9092046e-05
187	0x3d04c215	0.032411654
188	0x3dc428ed	0.095781185
189	0x3e39845b	0.18116896
190	0x3e1e12b5	0.15436824
191	0x3d2c0c75	0.042004067
192	0x3ddc05ff	0.10743331
193	0x3dc2475f	0.09486269
194	0x3c92a190	0.017899305
195	0xbdd29a20	-0.10283303
196	0x3d7e5806	0.062095664
197	0x3d8b89dc	0.06813404
198	0x3c8f942e	0.017526712
199	0xbd4d1e80	-0.050077915
200	0x3d52af1e	0.051436536
201	0xbdd5ec91	-0.10445512
202	0xbe3e1d2f	-0.1856582
203	0xbe0b7dec	-0.13622254
204	0x3dab1ef4	0.08355513
205	0x3d296686	0.04135754
206	0xbe01793e	-0.12643906
207	0x3d5524e9	0.052037153
208	0xbcb02cde	-0.02150577
209	0x3d0867fd	0.033302296
210	0x3d50d9af	0.05098885
211	0xbd7177ae	-0.058952026
212	0x3d55e3f2	0.05221934
213	0x3c0cf9de	0.008604495
214	0x3d415a55	0.047205288
215	0xbdb0fd42	-0.08642055
216	0xbceaa130	-0.028641313
217	0x3bfc681d	0.007702841
218	0xbc7f51f5	-0.015583505
219	0xbc936664	-0.01799316
220	0xbd4a618d	-0.049409438
221	0xbdd19df5	-0.10235206
222	0xbbce199f	-0.0062896754
223	0x3dc507dd	0.096206404
224	0x3d202125	0.03909411
225	0x3d46d32a	0.048541225
226	0x3c612093	0.013740676
227	0xbc6f28c2	-0.01459712
228	0x3a7d3d1c	0.000966029
229	0xbd45927b	-0.048235398
230	0xbd98f7e8	-0.07469159
231	0xbda7e067	-0.08197098
232	0xbd93b27d	-0.07211778
233	0xbd8b4e57	-0.068020515
234	0x3c9cf921	0.019161763
235	0x3dd3912b	0.10330423
236	0x3cbc4ffa	0.022987355
237	0xbc87688f	-0.01652935
238	0xbdcc9adf	-0.09990477
239	0xbd72647b	-0.059177857
240	0xbd3659b8	-0.044519156
241	0xbaffc718	-0.0019514291
242	0xbdb482b8	-0.08813995
243	0xbd782a74	-0.06058736
244	0x3cb4ecaf	0.022085516
245	0xbdad4645	-0.084606685
246	0xbd4a7a9a	-0.04943333
247	0x3d2d07b8	0.04224369
248	0x3a868ea7	0.0010265902
249	0xbdbab919	-0.09117336
250	0xbdcb464d	-0.09925518
251	0xbd856d92	-0.065150395
252	0x3d1459dd	0.036218513
253	0xbdc057bb	-0.09391733
254	0x3dc757f3	0.09733572
255	0xbd1f00b2	-0.038819022

output_layers.3.bias f4 [32]
0	0x3bbafb9e	0.0057062646
1	0xbdb94082	-0.09045507
2	0x3d9af232	0.07565726
3	0x3d083d6f	0.033261713
4	0xbd9b47ed	-0.07582078
5	0x3db53f1f	0.0884993
6	0x3dddc406	0.10828404
7	0xbd9f0686	-0.07764916
8	0x3c5484c1	0.012971104
9	0xbdf3ed8c	-0.11910543
10	0x3dbc1a44	0.09184697
11	0xbd8a6516	-0.06757562
12	0x3d80c0da	0.062867835
13	0x3e1e5e64	0.15465695
14	0x3d4714a5	0.048603673
15	0x3db2e8dd	0.087358214
16	0x3dc74729	0.097303696
17	0x3e0fef4f	0.14056133
18	0xbc4c283b	-0.012460764
19	0x3db93809	0.09043891
20	0x3df48f8b	0.11941441
21	0xbd8d0266	-0.06885223
22	0xbc217a0e	-0.00985576
23	0xbdcf21d5	-0.10113875
24	0x3daed28d	0.08536253
25	0x3d8e35eb	0.06943878
26	0x3d61251d	0.054967035
27	0x3d101999	0.03518066
28	0x3d85c7e1	0.065322645
29	0xbc8b2289	-0.016984241
30	0x3d883362	0.066504255
31	0xbe0f4c05	-0.13993843

output_layers.6.weight f4 [2, 32]
0	0x3b186593	0.0023253902
1	0xbd7ba5d5	-0.061437447
2	0x3add089f	0.0016863531
3	0xbda0074b	-0.07813891
4	0x3e149226	0.14508876
5	0x3baa4e74	0.0051973406
6	0x3c713011	0.014720933
7	0xbd53f2ce	-0.05174523
8	0x3e10bc5d	0.14134355
9	0xbdbaf13a	-0.091280416
10	0x3e806e29	0.25084046
11	0xbb28db86	-0.0025765612
12	0xbb70fdd7	-0.0036772394
13	0x3b5c4648	0.0033611227
14	0x3d933e3e	0.07189606
15	0x3baca803	0.005269052
16	0x3e260898	0.16214216
17	0x3c64a496	0.013955256
18	0xbd3d6144	-0.046235338
19	0x3b1be2f4	0.0023786398
20	0x3e120693	0.1426032
21	0x3d4f965c	0.050680503
22	0xbdd0ca6b	-0.10194858
23	0xbdceb2b1	-0.100926764
24	0x3d20aeeb	0.039229315
25	0x3c8de6c0	0.017321944
26	0x3e0c9bf5	0.13731368
27	0xbd6a3dc9	-0.05718783
28	0xbe03f560	-0.12886572
29	0x3daadbb2	0.08342685
30	0xbc4ba1b9	-0.012428694
31	0xbe1c90ff	-0.15289687
32	0xbe690ba2	-0.22758344
33	0xbe5b2ec8	-0.21404564
34	0xbe753afa	-0.23948279
35	0xbc8a590d	-0.016888166
36	0xbd8c1354	-0.06839624
37	0xbe7110f3	-0.23541622
38	0xbe74b223	-0.23896079
39	0xbe9a83fe	-0.30178827
40	0xbe5a5481	-0.21321298
41	0x3dc653f2	0.0968398
42	0x3dee19ca	0.116260126
43	0x3d8cd2c8	0.06876141
44	0xbe8c5a5b	-0.27412686
45	0xbe358277	-0.1772555
46	0xbe6ac26d	-0.2292573
47	0xbe170a16	-0.14749941
48	0x3da665b5	0.08124868
49	0xbe7cd4ab	-0.24690501
50	0x3ccd08b6	0.025028568
51	0xbe539e0b	-0.20665757
52	0xbdc95592	-0.09830774
53	0xbe427c5d	-0.18992753
54	0xbe7e431f	-0.24830292
55	0x3e18cf4c	0.14922827
56	0x3d739ce9	0.059475813
57	0xbe8cdd4b	-0.27512583
58	0x3d7fe1f3	0.06247134
59	0x3e0bc590	0.13649583
60	0x3c72cd1c	0.01481941
61	0xbe8161a1	-0.25269797
62	0x3d3a799b	0.04552613
63	0x3d86ac6e	0.06575857

output_layers.6.bias f4 [2]
0	0x3c20260c	0.009774696
1	0xbd9e7495	-0.0773708

exp_avg f4 [96, 15]
0	0x3b566ac4	0.0032717446
1	0x3b56036b	0.0032655846
2	0x3b538f16	0.003228133
3	0x3b5710a9	0.0032816327
4	0x3acb3255	0.0015502671
5	0xba4910c5	-0.00076700404
6	0xb9970506	-0.00028804707
7	0xb8b50326	-8.631339e-05
8	0x3a8b86cd	0.0010645032
9	0xbbdb6c6f	-0.006696276
10	0x39dfd881	0.00042695182
11	0x3961821f	0.00021506146
12	0x00000000	0.0
13	0x393b2944	0.00017849082
14	0xba312c0f	-0.00067585794
15	0xbaa209d0	-0.0012362543
16	0xbaa15cf3	-0.0012311026
17	0xbaa0dd7a	-0.0012273036
18	0xbaa05c13	-0.0012234472
19	0xb8cb0ada	-9.6818156e-05
20	0xb900587d	-0.00012239996
21	0x3947491c	0.00019005354
22	0x397e436d	0.00024248446
23	0xb8a4270a	-7.827401e-05
24	0xba52b0d9	-0.00080372166
25	0xb87bf5f8	-6.007214e-05
26	0xb99056f4	-0.00027530605
27	0x00000000	0.0
28	0xb9196291	-0.00014627936
29	0xb921dd52	-0.00015436605
30	0xbac6ef38	-0.0015177494
31	0xbac3901e	-0.001492027
32	0xbac2db9b	-0.0014866473
33	0xbac1c4e5	-0.0014783411
34	0xb8df4ade	-0.00010647414
35	0xba371bd3	-0.0006985042
36	0x39cf6009	0.00039553668
37	0x3a1c33f8	0.00059586717
38	0x39deeb36	0.00042518385
39	0x3a554eac	0.0008137028
40	0x3947d074	0.00019055774
41	0xba20c8d0	-0.0006133439
42	0x00000000	0.0
43	0xb90c4553	-0.00013377266
44	0x39479070	0.00019031926
45	0x3a0cd3ed	0.00053721556
46	0x3a0f0bed	0.0005456794
47	0x3a0c3e6c	0.0005349878
48	0x3a0d647d	0.0005393697
49	0x3a815a01	0.0009868742
50	0x3994c7a4	0.00028377504
51	0x3a29a1de	0.00064709585
52	0x3a1ca1e0	0.0005975049
53	0x3a659d85	0.0008759129
54	0xbb45b199	-0.003016567
55	0x3a32af68	0.00068162987
56	0x3a62aa61	0.0008646604
57	0x00000000	0.0
58	0x393977b9	0.00017687575
59	0x39a01613	0.00030534025
60	0x3a811c8e	0.0009850429
61	0x3a8054f0	0.0009790938
62	0x3a80ba25	0.00098211
63	0x3a80977e	0.0009810773
64	0xba01c24e	-0.0004949913
65	0x39af4f58	0.00033437717
66	0x3922b475	0.0001551675
67	0x388e2857	6.7786015e-05
68	0xb68bd6b5	-4.167518e-06
69	0x3a098a3d	0.00052467344
70	0xb835da3c	-4.335701e-05
71	0x39473b5f	0.00019000236
72	0x00000000	0.0
73	0xb79c2abc	-1.8616549e-05
74	0x38df9d19	0.0001066273
75	0xba111cac	-0.00055355835
76	0xba0f9676	-0.00054774375
77	0xba11c498	-0.0005560606
78	0xba1309d2	-0.00056090683
79	0xb9cf7d9f	-0.00039575712
80	0xb9bbb576	-0.00035802618
81	0x380aeba1	3.312121e-05
82	0x3904022a	0.00012589307
83	0xb884b79e	-6.328452e-05
84	0x3a99428d	0.0011692807
85	0xb9eeefd4	-0.00045573583
86	0xba0bc76f	-0.0005332147
87	0x00000000	0.0
88	0xb89c9463	-7.466299e-05
89	0xb9b8772f	-0.00035184014
90	0xb7913fd1	-1.7315064e-05
91	0xb7b85257	-2.1972852e-05
92	0xb7d17f9e	-2.4974168e-05
93	0xb7e9cfba	-2.7872495e-05
94	0x3a764b9e	0.0009395423
95	0xba612ac2	-0.000858944
96	0xb9bddec5	-0.00036214865
97	0xb921d55d	-0.0001543364
98	0x39d34d64	0.00040302717
99	0xb84713a9	-4.7463607e-05
100	0x39eaec18	0.00044807862
101	0xb96fdcba	-0.00022875043
102	0x00000000	0.0
103	0xb90a196c	-0.00013170176
104	0xb965ad7d	-0.00021903771
105	0xb9b0a890	-0.00033694925
106	0xb9b73ae7	-0.00034948366
107	0xb9b76eb9	-0.00034986975
108	0xb9afe23d	-0.00033547162
109	0x3a93523d	0.0011239719
110	0xb9f6ee1a	-0.00047098176
111	0xb958663e	-0.00020637453
112	0xb8e7423c	-0.000110272755
113	0x3a33b300	0.0006854981
114	0xbb261c3d	-0.0025346421
115	0x39d6bbf5	0.000409573
116	0x398080a2	0.000245099
117	0x00000000	0.0
118	0xb82740a2	-3.9876097e-05
119	0x39654d97	0.00021868046
120	0xba602c39	-0.00085515116
121	0xba61e2e6	-0.00086168793
122	0xba60080a	-0.000854612
123	0xba62809f	-0.0008640382
124	0xba35a874	-0.00069297035
125	0xba747c77	-0.0009326408
126	0xb942c3b1	-0.00018574182
127	0x384817c8	4.7705864e-05
128	0xba279892	-0.0006393279
129	0xbaaa29e7	-0.0012982459
130	0xba6b0027	-0.0008964561
131	0xb9b7e407	-0.00035074374
132	0x00000000	0.0
133	0xba94d3e9	-0.0011354658
134	0x39479d02	0.00019036609
135	0xb968a08d	-0.00022185054
136	0xb97af6c2	-0.00023933782
137	0xb9581046	-0.00020605428
138	0xb95712cb	-0.00020510999
139	0xba1ff76a	-0.0006102236
140	0xbb22a7c3	-0.0024819232
141	0x398b7405	0.00026598587
142	0x3a6ebcd9	0.000910712
143	0xba7e9d69	-0.0009712787
144	0xbb867a30	-0.0041039214
145	0xb9c1f5ed	-0.00036995058
146	0xb9d5bd9c	-0.00040767796
147	0x00000000	0.0
148	0xbaa41a1d	-0.0012519989
149	0xb9c9f21a	-0.00038518087
150	0xba4b30b5	-0.00077510934
151	0xba4c19f5	-0.00077858503
152	0xba4c47ff	-0.00077927107
153	0xba4ba367	-0.00077681843
154	0x3a2a183a	0.00064885954
155	0xba834dac	-0.0010017655
156	0x3a88ac3d	0.0010427308
157	0x3ab13c8f	0.0013522076
158	0xb9b71ad3	-0.00034924466
159	0xbb664a14	-0.003513937
160	0xb938cfde	-0.00017625044
161	0xb8cfe313	-9.912825e-05
162	0x00000000	0.0
163	0xb98df32a	-0.00027074787
164	0xb8948247	-7.081456e-05
165	0xb994ac5e	-0.00028357183
166	0xb992002a	-0.00027847412
167	0xb98fde81	-0.00027440864
168	0xb990ac40	-0.00027594157
169	0x3969599b	0.00022253992
170	0x398767e3	0.00025826608
171	0xb88b4e0f	-6.642576e-05
172	0xb909388e	-0.00013086406
173	0x37efbfaf	2.858028e-05
174	0xba1481e3	-0.00056651066
175	0x39139b52	0.00014076874
176	0x398e6f80	0.00027167425
177	0x00000000	0.0
178	0xb80853fc	-3.2503143e-05
179	0x37b9992e	2.2125048e-05
180	0xb9b24857	-0.00034004703
181	0xb9b4ceab	-0.00034486255
182	0xb9b22fa5	-0.00033986304
183	0xb9b1ec50	-0.00033936137
184	0x382b2bd9	4.0810413e-05
185	0x3a8c5fbe	0.0010709686
186	0x39f293bd	0.0004626791
187	0x39558f19	0.00020366571
188	0x39a2b0d5	0.00031030798
189	0xbb07bc5a	-0.0020711632
190	0x3908b469	0.00013037179
191	0x391c5b0e	0.0001491124
192	0x00000000	0.0
193	0xb8f735f0	-0.000117879244
194	0x3722e8aa	9.710124e-06
195	0x39837bc2	0.00025078474
196	0x398552d7	0.00025429457
197	0x3979dca0	0.0002382868
198	0x3981df84	0.0002477133
199	0x3a5cfa6d	0.00084296503
200	0x3ae23884	0.0017259275
201	0x3a4ec2d6	0.0007887309
202	0x39cfba32	0.00039620843
203	0x3a9c760c	0.0011937036
204	0xbb7492c8	-0.0037318934
205	0x3a0307df	0.00049984263
206	0x3a0e18ea	0.00054205826
207	0x00000000	0.0
208	0x39e45abd	0.00043555154
209	0x394136dd	0.00018426352
210	0x3aa000c2	0.0012207257
211	0x3aa03322	0.001222227
212	0x3a9f70e3	0.001216438
213	0x3a9fa396	0.001217949
214	0x3a4b1d8d	0.0007748239
215	0xba28db2b	-0.000644135
216	0xb9b86459	-0.0003516998
217	0xb9504f55	-0.00019865979
218	0x3a2743da	0.0006380655
219	0xbb86b9e1	-0.004111514
220	0x3a22892b	0.0006200249
221	0x3a6d28fc	0.00090469397
222	0x00000000	0.0
223	0x39ed12fb	0.00045218304
224	0x39d100ce	0.00039864186
225	0xb98c9e93	-0.00026821028
226	0xb99198f7	-0.00027770523
227	0xb9929956	-0.00027961534
228	0xb9873a95	-0.00025792854
229	0x39cb2c4b	0.00038752178
230	0xbb5e0576	-0.0033877767
231	0x37a81531	2.0037029e-05
232	0x3a6303c5	0.00086599245
233	0x3915beab	0.00014280777
234	0xbba2cfca	-0.004968618
235	0x3a0cd311	0.00053720275
236	0x39c20e52	0.00037013233
237	0x00000000	0.0
238	0xb93cc1ff	-0.00018001346
239	0xb9270337	-0.00015927559
240	0x3ae6c989	0.001760767
241	0x3ae6a469	0.0017596605
242	0x3ae3a1a2	0.0017366896
243	0x3ae67864	0.0017583487
244	0xba614cda	-0.00085945206
245	0x39561207	0.00020415346
246	0x39647011	0.00021785522
247	0x3926a81b	0.00015893618
248	0xba0f08a1	-0.0005456303
249	0x39b9d582	0.00035445025
250	0xba6b2229	-0.0008969629
251	0xb8d63b60	-0.00010215375
252	0x00000000	0.0
253	0xb87e2516	-6.0592858e-05
254	0xb9ff320a	-0.00048674672
255	0xb9e02c63	-0.0004275768
