lightning_logs/version_16/checkpoints/epoch=49-step=200.ckpt (torch, 47499 bytes, 18 tensors)

network.0.weight f4 [64, 15]
000000 2f f7 48 be f8 2d a4 3d 22 be c8 bc 69 32 cf 3d
       -0.19625543 0.0801658 -0.024504725 0.10117037
000010 91 93 f1 3c 93 99 d7 3c 82 1d 6b bd 2a 87 04 3d
       0.02948931 0.026318347 -0.057401188 0.032355465
000020 26 bc e4 3d 9b 3c 1b be e9 e9 bf 3d 6f af 9a bd
       0.11168699 -0.15159838 0.09370787 -0.075529926
000030 c7 1d e4 3d d8 38 6b 3e 99 0f e4 3c 38 d1 28 be
       0.11138492 0.22970903 0.027839469 -0.1648606
000040 61 00 52 3e d2 8e bb bc 82 ba 03 3e fd cb bf bd
       0.20507957 -0.02289525 0.12864116 -0.093650796
000050 29 fc 48 be 1d 7c 1c be f6 26 b8 3d 8c 71 ca be
       -0.19627441 -0.1528172 0.08991806 -0.39539754
000060 7c 37 74 be e3 2e 73 be 56 59 a8 bd 2b 20 42 be
       -0.2384929 -0.23748355 -0.082201645 -0.18957584
000070 e2 7f 83 be 26 a9 9d be 61 62 e9 bd 9f 62 c3 3e
       -0.25683504 -0.30793113 -0.113957174 0.3816118
000080 95 8c 92 3e 51 cb 84 3e cb b8 1f 3d f1 97 dc 3d
       0.2862288 0.25936368 0.03899459 0.10771168
000090 74 83 6c be 00 a9 7d 3e 99 27 a9 3d 54 0f 81 3e
       -0.2309702 0.247715 0.08259506 0.25207007
0000a0 f4 0e 2d be 12 03 ad 3b 45 62 24 be 81 cd 11 3e
       -0.16900235 0.005279907 -0.16053112 0.1423855
0000b0 87 ea ee bd be 03 2c 3e 0d 91 e7 3c 9e 46 75 3e
       -0.11665826 0.16798303 0.028267408 0.2395272
0000c0 e8 ad 59 3c 71 28 5b be 45 77 92 3e c0 a6 d9 3d
       0.013286091 -0.21402146 0.2860662 0.10627508
0000d0 d8 07 61 3e 28 29 f1 bd af 10 5f 3d cc f8 74 3c
       0.21975648 -0.11775428 0.05445927 0.014951896
0000e0 3f 68 4d be f6 4b 77 be 22 a7 eb 3c 68 31 5b 3e
       -0.20059298 -0.2415007 0.028766219 0.21405566
0000f0 21 04 86 be 93 9c 12 3e eb ca 2d be b4 91 7c be
       -0.26175025 0.14317541 -0.16971938 -0.24664956
000100 13 cd 38 be fe 04 0c 3c b7 59 3a 3d f3 23 cd 3d
       -0.1804698 0.008546112 0.045495715 0.100166224
000110 e0 80 79 3e 43 b7 da 3d cc 1b f0 3d 1f 91 80 be
       0.24365568 0.10679486 0.11724052 -0.2511072
000120 61 3c 56 bd fd de c2 3d a7 b0 75 bd f6 ed 15 be
       -0.052303676 0.09515188 -0.059982922 -0.14641556
000130 11 76 0c 3e 6b 4d 45 3e 38 17 9f 3e ac 39 ae 3d
       0.13716914 0.19267814 0.31072402 0.08507094
000140 02 c9 04 be 72 b4 90 3c a2 3a 66 be dc 05 33 bd
       -0.12967303 0.017664168 -0.22483304 -0.04370676
000150 89 f8 93 bd 0e 9a 0c be 7e c9 e0 be b8 25 3e be
       -0.07225139 -0.13730642 -0.43903726 -0.18569076
000160 7b 70 56 be 94 a6 46 be da 4b 37 3e 30 be 10 be
       -0.20941345 -0.19399482 0.17900029 -0.14135051
000170 2d e3 21 be 8c 8c 24 3e 69 8d 44 be 1d 85 b2 3d
       -0.15809317 0.1606924 -0.19194569 0.087167956
000180 6e ab 64 3e 11 d8 a2 3d 11 bd 14 3e 66 e4 ca be
       0.2233102 0.07951368 0.14525248 -0.3962738
000190 14 b6 50 be c3 f9 67 3d e3 c5 41 be 45 30 55 3e
       -0.20381957 0.056634676 -0.18923144 0.20819195
0001a0 f4 8d 3c 3e 6d fb b0 3c 7a 69 b4 3c 8b 8e a2 bd
       0.18413526 0.021604264 0.022022951 -0.07937344
0001b0 5a 3a ca bd 03 01 5c be f2 c0 95 3e fd 1a 36 3e
       -0.09874411 -0.21484761 0.29248768 0.17783733
0001c0 e4 79 57 be c3 b4 1e be fa 0e 5d bc 60 17 ee be
       -0.21042591 -0.15498643 -0.01349234 -0.4650221
0001d0 25 d0 a0 be e2 d6 62 be 8c 68 e9 3c 12 48 64 be
       -0.31408802 -0.22152284 0.028492235 -0.22293118
0001e0 47 b3 6b be 85 d7 a0 bd b2 dd 49 3e 29 1e 07 3d
       -0.23017608 -0.07853607 0.19713476 0.032987747
0001f0 cd 67 05 3c b1 84 11 bc b2 ee 07 bd 30 c6 2d be
       0.008142424 -0.008881734 -0.033186622 -0.16970134
000200 13 6d d9 bd dc 79 6c be b8 88 53 bd c5 a6 32 bd
       -0.106165074 -0.2309336 -0.051644057 -0.043616075
000210 dd c7 05 be 2f 18 dd 3d 33 13 3d 3d 7c ba fc 3d
       -0.13064523 0.10795628 0.046160888 0.123402566
000220 9d 2e 45 be bc 67 4a be d9 ff 26 3e ca 86 45 bd
       -0.19256063 -0.19766134 0.16308536 -0.048224248
000230 a5 38 fd 3d 43 1d 56 3c 6f 1a bd 3d 10 92 91 3c
       0.1236432 0.0130685 0.092335574 0.017769843
000240 d2 70 8e be 42 00 73 3e 36 7f d2 3c d3 1a 7f bd
       -0.2782045 0.23730567 0.025695425 -0.06228144
000250 d3 53 a0 bd 42 0a 15 be 43 39 08 3e 48 45 4c 3e
       -0.07828488 -0.14554694 0.13303094 0.19948304
000260 4b bd 82 bd 54 02 37 be 7c a6 46 3e 47 42 9c 3d
       -0.06383761 -0.17871982 0.19399446 0.07629829
000270 eb 3f 33 3e 79 5d 32 be f9 b1 2f 3e ff 3d bb 3b
       0.17504852 -0.1741847 0.17157735 0.0057141776
000280 d5 24 0e 3e 24 35 14 be 51 0c 0b 3e 68 fc 4e bc
       0.13881238 -0.14473397 0.13578917 -0.0126334205
000290 7b ac 2c 3e 70 3a 0e be be 4e 23 3e 7e 7c c9 3d
       0.16862671 -0.1388948 0.15948007 0.09838198
0002a0 f6 a3 d8 3d 1e 3b 9d 3c e6 60 2b be ee a0 85 bd
       0.10578148 0.019193228 -0.16736183 -0.065248355
0002b0 b8 31 f2 3d e4 53 08 3e 51 33 81 3e 12 79 7f be
       0.11825889 0.13313252 0.25234464 -0.24948528
0002c0 1c e7 df bd ef 19 8b 3d 7d e0 f3 3d 51 d4 cb bd
       -0.109327525 0.06792056 0.11908052 -0.099526055
0002d0 9a 0e 5f 3d 81 56 a2 3d ee f3 9a 3d 7f 0d ec 3d
       0.054457285 0.079266556 0.07566057 0.11526012
0002e0 48 e8 42 3e e0 fe 1b 3e c8 0c 7a bd 3c d8 9a be
       0.19033921 0.15233946 -0.061047345 -0.302431
0002f0 1d 49 9a be 41 d0 a4 3e b2 ca 16 be c0 14 d2 ba
       -0.30133906 0.32190135 -0.1472576 -0.0016027912
000300 09 5c 1d 3e 10 31 6c bc d0 f2 8c be 70 f2 66 be
       0.1536714 -0.014415994 -0.27529 -0.2255342
000310 7c 81 5f 3e ee 33 6f 3d b1 3e 58 be 09 2d 91 3e
       0.21826738 0.058399133 -0.21117665 0.28354672
000320 13 fb 09 3d 71 f4 96 3d 83 c3 e2 bc 55 74 34 3e
       0.03368671 0.07370842 -0.027681118 0.17622502
000330 80 13 a4 bd 73 14 51 be cc 50 14 bd 4a e7 1c bd
       -0.08011532 -0.20417957 -0.036209866 -0.038306512
000340 2b 61 05 3e 7c ea 84 3d ed 94 4e be 01 10 51 be
       0.13025348 0.06490037 -0.20173998 -0.20416261
000350 f4 e5 64 be 02 3d cd 3d 8a b3 cf be eb aa 65 3e
       -0.22353345 0.10021402 -0.40566665 0.22428481
000360 2a 6a 03 3e 50 4b d3 bd 20 1e 33 be 53 92 95 3e
       0.12833467 -0.10317099 -0.1749196 0.292132
000370 89 56 30 bc 84 46 be bd 6f 51 53 3e e3 1f 87 be
       -0.010762819 -0.092907935 0.20636533 -0.26391515
000380 2e 8b 87 3d 50 04 e9 38 94 4b 6b bc 21 97 c4 bd
       0.06618343 0.00011111109 -0.014361281 -0.09599138
000390 9c f4 03 be 22 b1 43 3e fd b6 a6 bc ad 70 65 be
       -0.1288628 0.1911054 -0.020350927 -0.22406264
0003a0 05 da c4 3c 08 a9 4d be c7 0c 8d bd 10 a8 76 3e
       0.024029741 -0.20084012 -0.06887203 0.24087548
0003b0 6f 00 18 3e 83 4f b5 3d de eb 1e 3e a3 7e d0 3d
       0.14843915 0.08853056 0.15519664 0.10180404
0003c0 b3 04 99 3e f3 77 22 bd 90 3e 15 be 6e cb 86 3e
       0.29886398 -0.039665174 -0.14574647 0.2632708
0003d0 bf a0 16 3c cf 18 86 bd 7d cf 2b be 6a 30 6f 3d
       0.009193598 -0.065477006 -0.16778369 0.05839578
0003e0 de c7 a7 3d 6a ba 66 3e d3 e0 91 be f2 ad 96 3e
       0.081924185 0.22532049 -0.2849184 0.29429585
0003f0 b5 af 13 be 74 32 9f be b8 a6 4a 3e 9e 50 04 be
       -0.14422496 -0.3109318 0.1979016 -0.12921378

network.0.bias f4 [64]
000000 bd 9a cf 3c a4 88 42 3e ea f8 07 3e 8e d7 5c 3d
       0.02534234 0.18997437 0.13278547 0.053916506
000010 f8 0e e2 bd 27 b2 90 3e af 68 9d bd 75 61 8c 3e
       -0.11038011 0.2826092 -0.076859824 0.27418104
000020 cd f5 f8 bd 46 03 eb bd 80 be 8e 3e 33 39 3d 3d
       -0.12156258 -0.11475234 0.27879715 0.046197128
000030 c3 47 44 bd 6b fe ad bd 15 9d 50 3d d8 a8 ce 3d
       -0.04792 -0.08495792 0.050931055 0.10090798
000040 c8 58 11 3e 9f 1f b5 bd 9f 69 bc 3e 4e c0 ad bd
       0.14194024 -0.08843922 0.36799332 -0.08483945
000050 51 36 8d 3e dd 91 94 3e 82 96 7a bc 9e ea e8 3d
       0.27580503 0.29017535 -0.015294673 0.11372875
000060 f6 d2 43 3e c5 ce 80 bc 3c c4 a2 3e 9a 68 a8 bc
       0.19123444 -0.015723595 0.3179034 -0.02055769
000070 01 66 e7 3d 32 c7 74 3b d3 8a e5 bd c8 c5 45 3e
       0.112987526 0.0037350175 -0.11208119 0.19313729
000080 02 66 b6 3d ea 5d 4f bb 4f d9 32 be b8 74 f9 bd
       0.08906175 -0.003164167 -0.17465709 -0.121804655
000090 f7 3b 0b be 18 a0 b4 3c 59 e9 8f be 9d f4 53 bd
       -0.13597094 0.022048995 -0.28107718 -0.051746953
0000a0 e4 49 19 3d 5f bb 3f bd ca 50 21 bd 36 85 26 be
       0.037423983 -0.04680955 -0.039383687 -0.16261753
0000b0 e7 22 74 3d cb ec 1d 3e 7d 24 c9 3e 2e d9 96 3c
       0.059603598 0.1542236 0.3928565 0.018414106
0000c0 a0 fa 38 3e 10 8b cb 3e 09 fe 8a be 5b 12 af bd
       0.18064356 0.39754534 -0.27146938 -0.08548423
0000d0 b1 7c 38 bd 15 b3 cf bd bc 40 b1 3e 63 63 92 3e
       -0.04504079 -0.10141579 0.346197 0.2859145
0000e0 e8 f0 ae 3e 76 1e 3d 3e 2d f6 ab 3e 00 9f 37 3e
       0.34168172 0.18468651 0.33586255 0.17931747
0000f0 88 22 92 3e 48 89 69 3e 75 77 94 bd bf c3 b9 3e
       0.2854197 0.22806275 -0.07249347 0.36282155

network.3.weight f4 [32, 64]
000000 08 12 b7 3c 19 b0 a2 bd cb e9 1a bd d0 b8 48 3d
       0.022347465 -0.07943744 -0.03782062 0.049004376
000010 b9 ab 40 3d 6f e5 92 3d 4a 13 58 3c 1e 5f 5e bc
       0.047038767 0.07172667 0.013188193 -0.013572482
000020 de 46 42 3c 12 0c 06 3e ef 05 32 bd 49 15 96 3d
       0.011857716 0.13090542 -0.04346269 0.073282786
000030 5a 3c 0a be c7 00 cd 3b 69 d7 50 3c b4 b1 25 bd
       -0.13499585 0.006256196 0.01274667 -0.040452674
000040 3a d2 23 be 67 8b ff bc 71 91 41 bd 82 7b be bd
       -0.15998164 -0.031194402 -0.047257844 -0.09300901
000050 12 96 ef bd db 7e 06 be 3d 0f 9d 3d 5a 80 90 3d
       -0.116985455 -0.13134329 0.07668922 0.07055731
000060 71 6c 42 3d 6f 36 57 ba 13 27 8c bd 13 48 b0 3d
       0.0474667 -0.00082097104 -0.0684339 0.08607497
000070 14 41 6e 3d 1a 4c 8e 3d 0e 4d 02 bd ab 3a 1a 3c
       0.058167532 0.06948109 -0.031811766 0.009413402
000080 ed 1f 60 3d f7 8b cd bc a9 01 09 3b 73 f2 c6 3d
       0.054717947 -0.025091155 0.002090553 0.09714212
000090 8f ab cb bd a0 78 eb 3b 1d 15 4c bd cc 5c 11 bd
       -0.099448316 0.0071860105 -0.049824823 -0.03548889
0000a0 9c d0 90 3a 66 bc ae bd 75 24 45 bc 77 c3 37 bc
       0.0011048499 -0.08532028 -0.012032618 -0.011216036
0000b0 83 ac c7 bd 2e 02 ae 3d 34 d4 65 bd d0 72 96 3d
       -0.09749701 0.084965095 -0.056110576 0.073461175
0000c0 50 ad b6 3c fd 53 0f be 85 5f f4 3c 76 98 8a 3d
       0.022299439 -0.13996883 0.029830704 0.06767361
0000d0 5e fa d1 bd 9d 6e ce 3c 1f 34 be ba c5 49 ad bd
       -0.10252832 0.025199229 -0.0014511383 -0.08461336
0000e0 5b 93 5e 3d 2c ec c3 bd 3b c8 2d 3d 0a b0 8a 3d
       0.054339748 -0.095665306 0.042427283 0.06771858
0000f0 51 fd 35 3d da d6 05 be 56 a6 ff bd 82 7a 88 bd
       0.044431034 -0.1307024 -0.12482898 -0.066639915
000100 fd ad c0 bc dc 68 40 bc 26 2e b9 bd d6 d4 cb 3d
       -0.023520464 -0.01174375 -0.09042005 0.099527046
000110 7a da fb 3d f3 93 98 bd 7e 6b e5 bd 79 5a d1 3c
       0.122975305 -0.07450094 -0.11202143 0.025555836
000120 78 1f 86 bd d9 48 d8 3d 21 b1 59 bd 71 3c 98 3d
       -0.06548971 0.105607696 -0.05314744 0.07433403
000130 03 9e 8f bc 0c fb 54 bd 8d d2 11 be 26 3d f3 3d
       -0.0175314 -0.05199723 -0.14240475 0.118768975
000140 ff 8e 5c bd 65 71 b0 3c 8b 8d 8b bd 67 9c eb bd
       -0.05384731 0.021538446 -0.068141066 -0.11504441
000150 10 e3 95 3c a6 f5 0e 3d 86 c0 89 bd 02 8e 0e 3e
       0.018296748 0.034902237 -0.06726174 0.13921359
000160 13 73 e1 bc c0 c4 b0 3d 9b fe ab bd ea 16 eb bd
       -0.027520692 0.08631277 -0.083981715 -0.1147898
000170 13 7e c7 bd e6 67 ab bd ff 0c bd bd 38 27 bb bd
       -0.097408436 -0.083694264 -0.092309944 -0.0913834
000180 7b 73 48 bc 1f a3 b1 3b 49 0b 62 3d 18 06 39 3e
       -0.012234564 0.005421057 0.055186544 0.18068731
000190 89 3c be bd 5c 02 48 bd a8 59 9a bd 3a 6b 96 3c
       -0.0928889 -0.048830375 -0.07536632 0.018361676
0001a0 a9 1f ce 3d 77 88 d6 bd 4d 81 92 bc c9 ec 6d bd
       0.100646324 -0.10475247 -0.017883921 -0.058087144
0001b0 0b f8 56 bd b1 4d 05 3e 46 e1 69 3d 1b ba 37 bd
       -0.052482646 0.13017918 0.057099603 -0.04485522
0001c0 43 6b 01 bd b0 b6 8d bb 7a 81 17 3e 0c a8 72 bd
       -0.031596433 -0.0043247566 0.14795485 -0.059242293
0001d0 d1 a8 ab 3d 0c 14 83 3c d7 8f de 3d c0 e7 b1 bd
       0.083818085 0.01600077 0.10867279 -0.08686781
0001e0 3b 94 df 3d d0 ef 52 3d b7 e2 f5 3d 86 55 ca 3d
       0.109169446 0.051498234 0.12006133 0.098795936
0001f0 31 85 4a bd 76 f7 ee bc 4a ea 30 3d ef 99 1e 3b
       -0.049443427 -0.029170733 0.043192185 0.0024200638
000200 3a e4 9f 3d ab 55 43 3d 16 54 2e 3d 4f 03 68 bb
       0.07807203 0.04768912 0.04256066 -0.0035402363
000210 a6 76 5c bd eb a9 94 bd 03 30 41 3e ab 4f 2e 3d
       -0.05382409 -0.07258972 0.18865971 0.042556446
000220 45 a4 d9 3c 52 46 49 3e 60 90 12 be e1 b9 a5 3c
       0.026567588 0.19655731 -0.14312887 0.020230236
000230 5c 75 04 3d ca 08 a1 bd 23 5f db bd c1 af 50 3d
       0.032338485 -0.078630045 -0.10711505 0.050948862
000240 d2 0a 16 be 61 b3 71 bd dd 33 16 bd 46 fb 25 3e
       -0.14652565 -0.05900896 -0.036670554 0.16209134
000250 b0 70 1b be a3 f0 17 be 30 3a e0 bc fe 60 93 3d
       -0.15179706 -0.1483789 -0.027371496 0.07196234
000260 d4 8b 7a 3c ed 7f 5e bd d5 aa b3 3d 56 8b f6 bd
       0.015292127 -0.05432122 0.08772818 -0.12038295
000270 2e 23 92 bd d7 0f a7 3d 0d df f5 bd a8 87 cd bd
       -0.07135616 0.08157318 -0.12005434 -0.1003564
000280 49 70 8d 3d 40 a7 28 3e 11 1d 4d 3d 5d 83 d7 3d
       0.06906182 0.16470051 0.050076548 0.105231024
000290 f5 68 2e 3e a1 28 3e be 58 34 b5 3d 27 64 20 bd
       0.17032225 -0.18570186 0.088478744 -0.039158013
0002a0 44 15 4a bd da b0 cc 3c 96 9a 5c 3c b0 bc 0f be
       -0.049336687 0.024986673 0.013464591 -0.14036822
0002b0 b8 96 0b be 39 fb 9c bd d2 d6 36 3c 36 ea fd 3d
       -0.13631713 -0.076651044 0.011159616 0.12398188
0002c0 76 0f 4e 3e d5 cf ca bd 66 1c 5f 3e af d2 0f 3c
       0.20123085 -0.09902922 0.21788177 0.008778258
0002d0 f9 e1 8a 3d 71 5a 57 3e 13 3f 88 bd 02 03 f0 3d
       0.06781382 0.21030594 -0.066526555 0.11719324
0002e0 89 13 33 bd c0 b6 a5 bd 1e 5f 09 3d df 1c 38 bd
       -0.043719802 -0.080914974 0.033537976 -0.04494941
0002f0 29 fc 20 bc 1c d2 00 be 58 9f 3f 3e 9f 42 80 3c
       -0.009825745 -0.1258015 0.18713129 0.015656767
000300 fd e9 c0 3d 4b cf 40 3d cf a0 c9 bb 47 dd a4 bb
       0.0941963 0.04707269 -0.006153203 -0.005031261
000310 d3 d4 cf 3d d9 62 a3 3d 80 36 1a 3e d5 63 8b bd
       0.10148015 0.07977838 0.15059853 -0.06806151
000320 d5 eb 9e 3a c8 37 88 3d b7 9c b5 3d 82 ca 0b bd
       0.0012124727 0.066512644 0.088677816 -0.034128673
000330 25 18 55 be c7 20 c4 3c 1f 41 ad bd ab d3 0f 3d
       -0.20809992 0.02394141 -0.084596865 0.03511397
000340 41 01 2b be f2 a8 c7 3c 66 7c 93 3a 0d ed 72 3b
       -0.16699697 0.024372552 0.0011252284 0.0037067563
000350 df 69 e7 3c b4 db 97 bd cf a6 f0 bd d6 5a 00 be
       0.028248725 -0.07414952 -0.11750566 -0.12534651
000360 50 e1 63 bc 11 90 47 3d d2 1d 0b 3d 19 f3 b6 bd
       -0.013908699 0.048721377 0.033963986 -0.08933086
000370 83 70 ba 3c d1 b8 10 3e 5b f0 49 3d 8a 58 9f bd
       0.022758728 0.14133002 0.049301486 -0.07780559
000380 c8 f0 cc ba 10 49 66 bd 85 30 0d 3e dc 1a 44 ba
       -0.0015635723 -0.05622202 0.1378804 -0.0007480809
000390 af b6 1f 3e 79 d6 22 3d 77 95 c4 3d 80 cd 43 bd
       0.15597032 0.03975532 0.09598821 -0.047803402
0003a0 72 12 77 bd 85 f2 20 3e d8 a6 02 3e 97 51 fd bd
       -0.060320325 0.15717514 0.12758958 -0.12369078
0003b0 e6 8b 67 3d a3 a7 44 be d2 2c b8 3d 17 35 22 3e
       0.056529902 -0.19204573 0.08992924 0.15840565
0003c0 d9 3f 8a 3d c6 2e aa bd ad 37 c2 bc bc 18 97 3d
       0.06750459 -0.083097026 -0.023708189 0.073777646
0003d0 34 39 27 be 21 1c 39 3d e9 af 7b bd 89 bf 1f bd
       -0.16330415 0.04519284 -0.061447058 -0.03900102
0003e0 28 c6 6f 3d 68 96 0f bd 6c 41 63 3d 77 5a 03 be
       0.058538586 -0.035055548 0.055482313 -0.12827478
0003f0 5f 78 25 3d b5 1c af bc f5 ec 9d 3d 97 9f b3 bc
       0.040397998 -0.021375993 0.077112116 -0.021926684

network.3.bias f4 [32]
000000 50 e0 fe bd e7 b5 c4 bd 27 f2 b7 bd 2e c1 1a bc
       -0.12445128 -0.096050076 -0.08981734 -0.009445472
000010 4d d5 08 bd da b9 77 3e 14 81 6e bd b3 96 a2 bd
       -0.033406544 0.2419199 -0.058228567 -0.079389
000020 c1 72 18 bd 48 fd 87 3e 7a 56 cb 3c 09 af 4e 3d
       -0.037218813 0.26560426 0.024821509 0.050459895
000030 ce 2f 96 3d 8f b3 d1 bd 0f 24 b5 3d 1a 51 91 bd
       0.07333337 -0.10239326 0.08844768 -0.07095547
000040 61 60 a8 bd 2d 35 40 bc a1 9a 96 bd ea 50 9f bd
       -0.08221508 -0.011731428 -0.07353712 -0.07779105
000050 6c 56 82 3e bd bf d3 bd 54 b0 c9 3d f9 ba 86 3e
       0.2545656 -0.103393055 0.09848085 0.26314524
000060 5b 02 06 bd 90 a7 ae 3d 8e a7 16 bd b5 39 60 3d
       -0.03271709 0.08528054 -0.036780886 0.054742534
000070 00 f7 af 3d bc bf 6d 3e 74 53 a0 bd ee cf df 3c
       0.085920334 0.23217672 -0.078284174 0.027320828

network.6.weight f4 [2, 32]
000000 30 4a a9 bd 51 a7 10 be 3a 4e a6 3c c4 6a 61 3d
       -0.08266103 -0.14126326 0.020300973 0.05503346
000010 1d d0 45 3e 49 93 17 bb 71 c2 06 be 91 ab 2c bd
       0.1931767 -0.002312856 -0.13160111 -0.042155806
000020 ef 2f f6 bd 13 4f dc ba 90 a6 01 3d 07 fa 11 3c
       -0.12020861 -0.0016808234 0.031652987 0.008909709
000030 d9 eb 93 bd 3c e3 be 3d b5 94 28 3d 69 e4 2c 3e
       -0.07222719 0.09320685 0.041157443 0.16884007
000040 d5 bf 5f bd 53 d1 9b 3d 36 be c4 3d 48 22 cf bb
       -0.054626305 0.07608285 0.09606592 -0.0063212253
000050 c9 cd 01 3a 10 ff df bd be 9b 9f ba d2 08 d1 ba
       0.0004951624 -0.10937321 -0.0012177152 -0.0015948063
000060 dc d3 41 3e 3f 54 83 bd da 10 91 bd fa 43 08 3e
       0.18928474 -0.06412553 -0.07083292 0.13307181
000070 23 bd 92 ba 3e 69 ef 3a 05 8b 59 3e ff df 50 bd
       -0.0011195283 0.0018265618 0.21244438 -0.05099487
000080 bb 8c af 3d 0e 22 9e bb 31 0c 30 3e 08 82 d2 3d
       0.08571764 -0.004825837 0.1719215 0.10278708
000090 c7 35 79 3e 01 62 5c be c3 3e 1a 3e 2a a1 ae 3d
       0.2433692 -0.2152176 0.15063004 0.08526833
0000a0 55 8a ca 3d 6d 60 9f be cd e6 1e 3e af 57 04 3e
       0.09889666 -0.31128255 0.15517731 0.12924074
0000b0 71 d8 7a 3d 1b 6e 0b 3e 81 7c 8f be 37 7f 33 3e
       0.06124157 0.1361622 -0.28024676 0.17528997
0000c0 fd ab c1 bd f9 c9 24 3e 51 03 44 3d 6d 07 61 3e
       -0.09456632 0.16092671 0.047854725 0.21975489
0000d0 dd 91 76 be 2f 85 65 3e 59 dd 04 be d0 4d 9c be
       -0.2407908 0.22414087 -0.12975062 -0.30528116
0000e0 b1 2e 8a 3e 7a 02 c0 bd 2f de 10 be 42 77 8f bc
       0.26988748 -0.09375472 -0.14147256 -0.017512921
0000f0 1f d9 9d be c6 a6 10 be cd 0e 49 3e d6 8d f0 bd
       -0.30829713 -0.14126119 0.19634552 -0.11745803

network.6.bias f4 [2]
000000 a7 71 b2 3d 49 72 b4 be
       0.08713084 -0.35243443

exp_avg f4 [64, 15]
000000 d1 e9 4d bb 55 22 4d bb 6d 51 50 bb 8f 4d 50 bb
       -0.0031419883 -0.003130098 -0.0031786815 -0.003178451
000010 9f 04 58 bb ff 26 07 3b df dd d0 bb b2 33 c9 bb
       -0.0032961739 0.0020622609 -0.0063741053 -0.0061401958
000020 73 18 98 bb af a7 c3 3b 5d ee e0 bb 0c ff 79 bb
       -0.0046415864 0.005970917 -0.0068643526 -0.0038146405
000030 00 00 00 00 c7 03 ba bb 71 2f 85 bb f7 b9 a2 3c
       0.0 -0.00567672 -0.0040644933 0.019864066
000040 5e 3a a3 3c 73 33 a1 3c c1 32 a1 3c 61 ff 78 3c
       0.019925293 0.019677853 0.019677522 0.015197606
000050 f9 66 0e 3a b8 89 57 3a 72 c6 67 39 d9 47 70 3b
       0.0005432214 0.0008222121 0.00022103803 0.0036663918
000060 b3 31 18 3b 86 76 74 3a 76 00 96 3b 00 00 00 00
       0.0023222982 0.00093255227 0.0045776917 0.0
000070 c7 b1 18 3b c9 eb fe 3a da 85 18 3c e0 73 19 3c
       0.0023299323 0.0019448932 0.009309256 0.009366006
000080 6a e8 17 3c 88 9d 17 3c 43 12 c0 3b b3 bd a5 3a
       0.00927172 0.009253867 0.005861552 0.0012645036
000090 2f d3 db b8 3c 9e 08 ba 3b b7 9f b9 59 12 d4 3a
       -0.0001048207 -0.0005211567 -0.0003046336 0.0016179784
0000a0 76 17 49 39 2e ee 37 ba 00 00 00 00 26 7b 23 39
       0.00019177594 -0.00070163875 0.0 0.00015590768
0000b0 f9 18 5a ba 4d 8f b4 3b ef 81 b4 3b ba 45 b0 3b
       -0.0008319761 0.005510247 0.0055086534 0.005379406
0000c0 d7 05 b1 3b c7 e8 65 3b 0c 13 07 bb 64 75 f9 ba
       0.0054023075 0.0035081373 -0.0020610718 -0.0019032178
0000d0 a5 b2 f6 ba 54 00 e3 ba c3 6c a2 ba b4 3b d2 ba
       -0.0018821551 -0.0017318823 -0.0012392033 -0.0016039521
0000e0 80 7f b7 39 00 00 00 00 cc fd d6 ba 59 65 6a 3a
       0.00034999475 0.0 -0.0016402542 0.00089414936
0000f0 20 20 d8 b9 e4 c7 d7 b9 44 f8 e2 b9 37 16 dd b9
       -0.00041222665 -0.00041156926 -0.0004329105 -0.00042168956
000100 d3 e5 0d b9 aa 14 c7 b9 8d 97 9d 39 07 5f 75 39
       -0.00013532424 -0.00037971634 0.00030058288 0.00023400421
000110 be 6c 88 b9 a4 86 5e bb b6 d9 b2 38 7f d0 56 37
       -0.0002602096 -0.0033954764 8.528253e-05 1.2803938e-05
000120 00 00 00 00 ef 70 09 b9 a4 af 2a 38 d3 de 8a 3c
       0.0 -0.00013107409 4.0694737e-05 0.016951954
000130 c3 d4 8a 3c d4 ca 89 3c a8 5e 89 3c db f8 0a 3c
       0.016947156 0.016820349 0.016768768 0.008482183
000140 af 72 50 3b 8a 69 9d 3a 86 d5 45 3a ea e0 b6 ba
       0.0031806638 0.0012009603 0.0007546771 -0.0013952528
000150 19 65 a8 3b e0 a4 73 39 50 18 63 3a 00 00 00 00
       0.005139005 0.00023235707 0.00086629856 0.0
000160 9e 6d 5e 3a 02 89 00 3a 9c c5 82 bb 52 e2 80 bb
       0.0008484962 0.0004903228 -0.003990842 -0.0039332295
000170 77 f1 83 bb 85 3a 82 bb 52 9a 3d 3b c7 b5 bd 3b
       -0.0040265876 -0.003974261 0.0028931093 0.005789492
000180 4a 19 a2 3b 00 af 95 3b c7 64 0c 3c d7 e7 3b 3b
       0.0049468623 0.0045679808 0.008568949 0.0028672123
000190 40 f6 97 3b 9e d5 d2 3b 00 00 00 00 41 b6 d2 3b
       0.0046375096 0.0064341566 0.0 0.0064304178
0001a0 52 ee 0e 3c a3 b3 61 3c f4 dc 61 3c 93 05 5f 3c
       0.008723812 0.013775739 0.0137855895 0.013612169
0001b0 8a 2e 61 3c cc cc b3 3b ea f7 46 3b 64 7a 26 39
       0.013744006 0.00548706 0.003036017 0.00015876588
0001c0 df 1d 94 ba 0f d1 0e 3b 61 76 8c bc 47 b0 85 3a
       -0.0011300406 0.002179209 -0.017146291 0.001019963
0001d0 f3 bd a3 3b 00 00 00 00 30 7b 89 3a 73 b7 4d 3b
       0.004997009 0.0 0.0010488983 0.0031389862
0001e0 4c b0 1f bb c6 f0 1f bb de b0 21 bb 93 aa 22 bb
       -0.0024366556 -0.0024404987 -0.0024672071 -0.0024820908
0001f0 17 a8 e9 b9 b8 6c 94 3b a8 bf 3d bb fb d9 48 bb
       -0.0004456646 0.004529562 -0.0028953347 -0.0030647505
000200 27 b1 3f 3b ec db 72 3c 16 1e d3 b8 86 f7 96 bb
       0.0029249878 0.014822941 -0.00010066868 -0.004607144
000210 00 00 00 00 68 39 07 39 9c cd 11 bc ba 82 3c ba
       0.0 0.00012895989 -0.008899119 -0.00071911106
000220 b1 e1 33 ba c1 3d 46 ba e0 d9 3c ba 2c 65 bf 3a
       -0.0006861939 -0.00075623026 -0.0007204097 0.0014602295
000230 1d 21 e0 3a aa 0a 11 3b b7 59 14 3b c9 c0 c3 3b
       0.0017099712 0.00221316 0.0022636482 0.0059739095
000240 2b 35 bd 3b 34 8b 4e 3b 8d a5 9d b9 00 00 00 00
       0.0057741604 0.0031516077 -0.00030068718 0.0
000250 7d a2 9a 3b c3 86 b9 3a 4d 61 9c 3a c5 35 9f 3a
       0.004719077 0.0014154542 0.0011930853 0.0012146762
000260 7c 43 9d 3a dc 66 a0 3a db 68 63 3b 39 68 e9 3a
       0.0011998261 0.0012237686 0.003469995 0.001780755
000270 44 f2 57 3b d1 52 3e 3b 28 ee 1b 3b 51 0f 44 bb
       0.0032950798 0.0029041062 0.0023793075 -0.0029916356
000280 2b 1e 5b 3b 55 5e 1a 3a 00 00 00 00 9d d3 28 3b
       0.003343473 0.00058886904 0.0 0.0025760897
000290 44 b0 55 39 e7 de 87 3b 0c 10 8b 3b e2 15 86 3b
       0.00020378927 0.004146445 0.0042438563 0.004091964
0002a0 6c af 88 3b 69 a9 dc 3b 7b 00 5a ba 34 12 a2 3b
       0.0041713025 0.0067340625 -0.00083161116 0.0049460176
0002b0 aa e6 a5 3b 61 07 94 3b b7 33 3f bb 56 59 be 3b
       0.0050628977 0.004517481 -0.0029175112 0.0058089895
0002c0 f7 69 37 3b 00 00 00 00 60 37 a7 3b a5 78 e8 3a
       0.0027986744 0.0 0.0051030368 0.001773615
0002d0 b0 e4 00 3c 00 49 01 3c df 01 ff 3b 82 d9 fe 3b
       0.007867023 0.00789094 0.0077822055 0.007777394
0002e0 a5 ab 69 3b 3c 52 cd 39 c7 ae d0 39 1e 21 95 38
       0.0035655287 0.00039161916 0.0003980307 7.111042e-05
0002f0 3b 85 d0 b9 3b 25 ab ba 01 2d 2f 39 42 61 ca b8
       -0.00039772116 -0.001305736 0.00016706066 -9.650226e-05
000300 00 00 00 00 60 2e 7a 39 e9 75 24 3a 9c b6 1e bb
       0.0 0.00023859134 0.00062736735 -0.002421773
000310 58 92 1b bb f0 c2 1a bb e5 2f 18 bb 72 a2 e6 39
       -0.002373835 -0.0023614727 -0.0023221907 0.0004399005
000320 4e e0 57 3b 2b 57 1a 3b db 2b 13 3b 01 06 a4 3b
       0.0032940092 0.0023550491 0.002245656 0.0050055985
000330 a7 2c 02 b9 21 00 45 3b 5b 7e 32 3b 00 00 00 00
       -0.000124144 0.0030059891 0.0027235958 0.0
000340 69 6d 5f 3b ca 11 9d 3b 9e b4 82 bc b7 74 81 bc
       0.0034092313 0.0047933804 -0.015955266 -0.015802724
000350 a0 d8 85 bc 2d ee 83 bc db 5e 38 bb 9f b8 1e 3c
       -0.016338646 -0.016104782 -0.002813271 0.009687572
000360 3d 9b 6b 3a c4 94 8e ba 20 71 93 3a 18 a4 1b bd
       0.0008987671 -0.0010878076 0.0011248924 -0.03799829
000370 8d cc 92 3a c3 ff 5f 3b 00 00 00 00 62 55 06 3b
       0.0011199877 0.0034179545 0.0 0.002049767
000380 44 97 87 3c 66 0c 1a bc 8e 77 1a bc a0 f8 19 bc
       0.016551621 -0.00940237 -0.009427918 -0.009397656
000390 77 ea 19 bc c2 fa d1 bb a3 d2 da ba 5b 35 6e 3a
       -0.00939428 -0.0064080665 -0.0016694855 0.000908693
0003a0 ac 55 9d 3a e1 d8 41 38 0b 20 8f 3a 35 ba d2 3a
       0.0012003682 4.621677e-05 0.0010919584 0.0016077223
0003b0 e9 82 e9 ba 00 00 00 00 ae ab 97 3a d1 57 58 ba
       -0.0017815504 0.0 0.001157155 -0.0008252832
0003c0 4c f8 79 3c 61 3a 7d 3c 09 2e 7a 3c 29 3d 7b 3c
       0.0152569525 0.015455813 0.015269765 0.015334406
0003d0 b0 fd f6 3b 70 cc 9a 3b 48 42 ab 3a b5 5e f1 39
       0.007537566 0.004724078 0.0013066018 0.00046037664
0003e0 82 c6 35 ba 19 c6 8b 3b c6 50 55 39 6a 26 a3 bb
       -0.0006934182 0.0042655584 0.00020343353 -0.0049789445
0003f0 00 00 00 00 dc f7 28 3a 8e d0 8e 3b ad 52 89 3b
       0.0 0.00064456253 0.0043583577 0.004190764

exp_avg_sq f4 [64, 15]
000000 aa d4 d3 37 7d 5f c7 37 3d 64 d4 37 28 8f c9 37
       2.525219e-05 2.3767114e-05 2.5319046e-05 2.402773e-05
000010 90 ba f9 3a c9 f9 29 37 4f 70 9a 3b b8 9d 9b 3b
       0.0019052792 1.0131343e-05 0.0047130953 0.004749026
000020 58 79 a5 3b c9 44 ad 38 ad af d1 3b b7 a1 14 39
       0.0050498657 8.262095e-05 0.006399116 0.00014174623
000030 00 00 00 00 49 ab c0 3b 17 72 16 3a f8 7c 0b 39
       0.0 0.005879794 0.00057390466 0.00013302627
000040 c5 41 0d 39 12 ea 0c 39 4a 7e 0b 39 3d a6 24 39
       0.00013471309 0.00013438638 0.0001330312 0.00015702187
000050 dd 97 dc 37 fc 22 2b 36 d5 40 0d 36 27 4c 48 36
       2.629676e-05 2.550135e-06 2.1048374e-06 2.984665e-06
000060 8f af 3c 38 fe 74 1e 34 03 ff fa 36 00 00 00 00
       4.4986195e-05 1.4757458e-07 7.480268e-06 0.0
000070 bd e7 81 35 20 22 b5 35 cd 12 35 38 1e e1 34 38
       9.678694e-07 1.3495483e-06 4.3171272e-05 4.3125e-05
000080 9d 32 35 38 96 f3 33 38 2a 33 46 39 be 88 29 37
       4.32009e-05 4.2903783e-05 0.00018901812 1.0105023e-05
000090 20 3b e8 39 e3 0c ea 39 18 30 fa 39 fa 83 a3 37
       0.0004429454 0.0004464156 0.00047719548 1.949257e-05
0000a0 0f a0 1d 3a 15 8a 96 37 00 00 00 00 c9 33 11 3a
       0.00060129253 1.7945693e-05 0.0 0.00055390276
0000b0 b5 91 5f 38 49 f0 da 38 1b 8d da 38 cd 2d dc 38
       5.3303043e-05 0.00010439807 0.00010421333 0.000104989485
0000c0 0a 11 db 38 a7 ce ab 3a 7d 21 cb 37 96 ab 4a 3b
       0.000104459075 0.0013107852 2.421508e-05 0.0030925027
0000d0 6e 4a 4c 3b 05 08 59 3b 0c 0d 3b 38 ea 07 89 3b
       0.0031172293 0.0033116352 4.4596425e-05 0.0041818516
0000e0 2a c6 16 39 00 00 00 00 6d 5c 7c 3b ea b6 5e 3a
       0.00014378937 0.0 0.0038507238 0.0008495884
0000f0 f6 2f 2a 37 92 3b 28 37 78 36 2b 37 a8 29 29 37
       1.0143956e-05 1.002745e-05 1.0205076e-05 1.0082884e-05
000100 a0 6b e3 38 a8 43 7c 36 c2 8e 8d 39 84 ad 8e 39
       0.0001084425 3.7590307e-06 0.0002699998 0.0002721363
000110 2b c0 96 39 18 3d 4e 38 a7 b9 bd 39 c1 57 00 37
       0.00028753406 4.9171125e-05 0.0003618721 7.649826e-06
000120 00 00 00 00 77 b0 ae 39 23 f3 02 38 a5 52 8f 38
       0.0 0.00033319343 3.1220854e-05 6.834165e-05
000130 f5 c7 8f 38 7d cf 8e 38 4d 01 8f 38 56 53 e3 37
       6.856016e-05 6.809735e-05 6.819014e-05 2.7099315e-05
000140 0e f8 48 38 4f 35 0e 36 5b 13 d9 35 4a 1d 1f 36
       4.7914735e-05 2.1190679e-06 1.6173393e-06 2.3709895e-06
000150 68 5b 57 38 7b e4 ff 33 f4 d2 5b 36 00 00 00 00
       5.1345123e-05 1.1915923e-07 3.2756334e-06 0.0
000160 f9 cf 1d 35 5e fa 89 35 3d e7 db 37 96 3c d8 37
       5.87897e-07 1.0280162e-06 2.6214513e-05 2.5777419e-05
000170 35 64 dc 37 83 ff d8 37 23 70 16 3a b3 1a 17 38
       2.6272706e-05 2.5868188e-05 0.00057387556 3.602607e-05
000180 7e 9f b3 3a 2c 1c b5 3a 00 45 c0 3a c9 40 f2 38
       0.0013704149 0.00138176 0.0014669001 0.000115515264
000190 ae 29 f2 3a fa ab 8c 38 00 00 00 00 90 48 df 3a
       0.0018475556 6.707753e-05 0.0 0.0017035175
0001a0 6f 6a 91 39 24 ad 08 39 da 5b 08 39 96 a9 08 39
       0.00027735854 0.0001303447 0.00013004188 0.00013033146
0001b0 28 b6 09 39 88 34 0c 38 e2 72 9c 38 6a 9a 90 36
       0.00013133197 3.3427525e-05 7.460058e-05 4.3095106e-06
0001c0 0c 44 a1 36 4c d1 f0 36 ec ae 10 39 eb 9a 94 34
       4.8060956e-06 7.1769227e-06 0.00013798074 2.7679866e-07
0001d0 16 6d ed 36 00 00 00 00 4d 46 52 35 8c 19 1c 36
       7.0758497e-06 0.0 7.83334e-07 2.3260682e-06
0001e0 61 8a e0 37 a2 00 e0 37 69 46 e1 37 51 8f e0 37
       2.6767319e-05 2.6703176e-05 2.6854877e-05 2.6769618e-05
0001f0 b5 9d 01 37 36 c7 4f 38 a1 44 87 36 a8 f7 87 36
       7.725718e-06 4.9538176e-05 4.031303e-06 4.0521445e-06
000200 e8 b8 74 36 bd f7 f9 38 33 1a 26 33 24 34 2a 38
       3.6466463e-06 0.0001191939 3.8673715e-08 4.057972e-05
000210 00 00 00 00 47 86 1e 35 e3 22 8a 39 6c 94 64 37
       0.0 5.9054986e-07 0.00026347404 1.3624416e-05
000220 7c b0 61 37 b8 93 65 37 a0 c7 62 37 14 cb 51 39
       1.3452136e-05 1.3683857e-05 1.35171285e-05 0.00020007446
000230 28 bb 3b 37 25 74 f9 39 a9 96 fb 39 86 68 06 3a
       1.1189644e-05 0.00047579515 0.000479867 0.00051272695
000240 bb 7b 8c 38 5a 40 28 3a c3 6e ab 37 00 00 00 00
       6.698767e-05 0.00064182805 2.0436366e-05 0.0
000250 75 b4 1b 3a 84 21 6a 38 cb 72 82 38 f6 02 81 38
       0.0005939671 5.582116e-05 6.220265e-05 6.151751e-05
000260 9b f8 82 38 4e 7c 81 38 ba 4a a2 3a cf b5 2d 37
       6.2451894e-05 6.174353e-05 0.0012381889 1.0353934e-05
000270 db e8 45 3b cf 62 47 3b 6a d2 53 3b ab 01 ca 38
       0.0030198607 0.0030423885 0.0032321461 9.632421e-05
000280 8d 5f 85 3b 4c 70 e5 38 00 00 00 00 1b df 75 3b
       0.0040702284 0.00010940488 0.0 0.0037517014
000290 2b f4 16 3a fd e8 67 38 94 28 66 38 1c d9 69 38
       0.000575843 5.529168e-05 5.4874065e-05 5.5753728e-05
0002a0 57 43 67 38 ec 80 8d 3a 7b 4b 59 37 bd e8 2b 3b
       5.5137407e-05 0.0010795868 1.2951782e-05 0.0026231252
0002b0 34 44 2d 3b 9c 99 37 3b b3 63 0f 38 09 86 68 3b
       0.0026438357 0.0028015142 3.418671e-05 0.0035480282
0002c0 10 6d 9e 38 00 00 00 00 9a f2 55 3b 87 43 a2 39
       7.5543416e-05 0.0 0.0032645823 0.0003094936
0002d0 52 b5 47 38 d4 57 4a 38 d7 2d 4a 38 1e c6 4a 38
       4.7614165e-05 4.824235e-05 4.8203245e-05 4.8345064e-05
0002e0 03 86 f1 37 bb 88 c9 37 5b 25 80 35 1d eb 10 35
       2.8791843e-05 2.4024737e-05 9.547615e-07 5.3986315e-07
0002f0 66 ed 9e 35 68 d7 99 37 c1 f7 ca 33 27 d4 72 36
       1.1841009e-06 1.8339328e-05 9.451424e-08 3.61843e-06
000300 00 00 00 00 5e b3 c4 34 8d 4b 62 35 bd b8 c9 37
       0.0 3.6638352e-07 8.43015e-07 2.4047093e-05
000310 a8 bf cb 37 79 1b ce 37 b9 67 c9 37 4d f5 26 39
       2.4288733e-05 2.4569907e-05 2.4009367e-05 0.00015922375
000320 92 aa 20 36 ed a3 9c 39 07 6e 9d 39 b2 9f a9 39
       2.3941143e-06 0.00029876773 0.0003002735 0.00032353174
000330 86 d2 ab 37 cf b9 d5 39 2a be bb 37 00 00 00 00
       2.0482821e-05 0.00040764964 2.238069e-05 0.0
000340 90 0d c4 39 4e 9c c0 38 d6 1a d2 38 c0 d1 d1 38
       0.00037394138 9.1843875e-05 0.00010018579 0.000100049656
000350 4b 0e d3 38 51 76 d2 38 f4 2e 19 38 89 38 9d 38
       0.00010063926 0.000100356185 3.652177e-05 7.496874e-05
000360 9d 93 26 37 7e 71 80 37 99 cd a0 37 19 db ff 39
       9.92874e-06 1.5311638e-05 1.9169225e-05 0.0004880063
000370 a1 7b de 34 b3 c8 5a 38 00 00 00 00 f5 5b 8f 35
       4.1440674e-07 5.2162166e-05 0.0 1.0681093e-06
000380 4d 47 94 39 29 30 a3 37 3d d0 9f 37 b6 96 a2 37
       0.00028281883 1.945354e-05 1.9051246e-05 1.9382085e-05
000390 eb 79 9f 37 f4 bf a4 39 ef ed 0d 37 de 5a 59 3a
       1.901105e-05 0.00031423534 8.459653e-06 0.00082914333
0003a0 2d fb 59 3a bc e3 63 3a 78 8c 56 38 0c a4 90 3a
       0.0008315321 0.0008693298 5.1152398e-05 0.0011035218
0003b0 48 94 e2 37 00 00 00 00 94 e7 84 3a 01 d4 d6 38
       2.7010348e-05 0.0 0.0010139816 0.00010243804
0003c0 d9 d7 03 39 65 a7 04 39 28 8f 04 39 64 ab 03 39
       0.00012573543 0.0001265086 0.00012641831 0.00012556982
0003d0 cf 5f b8 38 d6 fb 06 38 cb af 44 36 19 59 20 36
       8.7916495e-05 3.218263e-05 2.93086e-06 2.389372e-06
0003e0 0b 47 28 36 1f 59 2a 38 b5 0c 21 34 9d 61 9f 38
       2.5075303e-06 4.061416e-05 1.4998916e-07 7.599893e-05
0003f0 00 00 00 00 ff ce 61 35 2a a7 94 39 f5 6d c7 37
       0.0 8.412025e-07 0.00028353307 2.3773851e-05

exp_avg f4 [64]
000000 45 93 2c 3c cb 6f 72 bc 1b 23 15 bb 45 bb 62 bb
       0.010533159 -0.014797161 -0.002275652 -0.0034596485
000010 45 03 09 b9 c5 ee 74 bb e6 9d bf 3b ed 00 c4 bc
       -0.00013066556 -0.0037373763 0.0058476804 -0.023926223
000020 29 3f a3 3b 66 c1 fc 3a 06 05 cd ba cd a2 a3 b9
       0.0049818945 0.0019283711 -0.0015641756 -0.0003121108
000030 1c ee c7 bb 7b ac c1 3a 72 c7 e0 bc 47 b9 02 3c
       -0.006101383 0.0014776135 -0.027438853 0.007978744
000040 8b aa 1a bc 4c 4b c4 36 b7 e2 81 bc cd 81 72 3b
       -0.009440075 5.850021e-06 -0.015855176 0.0037003637
000050 9f 1d 8b bc a1 d7 22 bc 86 43 44 bb 1d ab 51 bc
       -0.016981898 -0.009939105 -0.0029947474 -0.012797144
000060 4f e2 18 bc 91 df 80 3b 33 0a 38 bb a9 fb 2c bd
       -0.0093313 0.003932901 -0.002808225 -0.04223219
000070 b3 c9 11 bc fd 54 13 bb 20 f5 19 ba 42 98 fa bb
       -0.0088981865 -0.0022481077 -0.0005873013 -0.007647545
000080 8f 40 9d bb 7e 65 9b 3b 15 a0 11 3b 04 30 df 3b
       -0.0047989557 0.0047423234 0.002222066 0.006811144
000090 c7 96 1a 3c 98 b4 c6 bb bd f7 a1 3b fb 35 dc bb
       0.009435362 -0.006064009 0.004942863 -0.006720302
0000a0 c0 13 b9 39 00 1b 42 3b 2d 87 16 ba 3a 48 b7 ba
       0.00035300665 0.0029618144 -0.00057421887 -0.0013983317
0000b0 25 4d 17 bb b1 cd 03 bc 1e 33 1b bc eb 8d d4 3a
       -0.0023086753 -0.008044646 -0.0094726365 0.0016216611
0000c0 d4 9d ae b9 d3 8b a4 bc 19 f5 db 3a 47 e9 9d 3b
       -0.00033305457 -0.020086205 0.0016781419 0.0048190686
0000d0 3d 0c 00 bc f7 11 92 3b 05 38 89 bb 35 da da bc
       -0.007815418 0.004457708 -0.0041875863 -0.026715377
0000e0 2b b3 aa ba 10 b4 37 ba 0a 81 4a bc fb d7 8f bc
       -0.0013023367 -0.00070077274 -0.012359867 -0.017559042
0000f0 1b d9 e2 bc ea 82 44 ba 6e 33 ff 3b cf 6d 6f bc
       -0.027691415 -0.00074963144 0.0077881133 -0.014613583

exp_avg_sq f4 [64]
000000 a9 c5 06 38 f7 7b a3 38 7d af 51 38 29 22 3c 38
       3.2132175e-05 7.795536e-05 4.999292e-05 4.4854507e-05
000010 ea 6b c7 36 2f 83 7a 38 45 86 89 37 b9 44 0d 39
       5.943225e-06 5.972682e-05 1.6394197e-05 0.00013472409
000020 eb 90 99 37 5e 93 1c 37 e0 11 af 37 e6 cc e3 37
       1.8306504e-05 9.332636e-06 2.086995e-05 2.7155922e-05
000030 8e a5 59 38 99 01 ef 36 4b 30 46 39 0a c6 47 37
       5.1891016e-05 7.122941e-06 0.00018900742 1.1907434e-05
000040 02 1d d3 38 69 97 4d 37 e5 3d a0 38 4f 7c 91 37
       0.00010066667 1.2254205e-05 7.640923e-05 1.7343233e-05
000050 40 0e e6 38 d8 65 ef 38 97 56 16 38 14 5f 79 38
       0.00010969909 0.00011415378 3.584343e-05 5.9454775e-05
000060 72 eb ae 38 2a 71 3f 37 ad 50 89 38 c0 4e a5 39
       8.340822e-05 1.1410835e-05 6.547696e-05 0.00031529926
000070 c3 50 64 38 7d 90 33 37 ea b8 ad 37 58 d2 f9 38
       5.443465e-05 1.0702873e-05 2.0709314e-05 0.00011912425
000080 74 d1 39 38 71 7b 1b 37 40 92 7c 37 8d 74 c1 37
       4.4302506e-05 9.267461e-06 1.5054422e-05 2.3061666e-05
000090 3c ff 38 38 8f 03 0e 37 ae 91 c6 37 6d 7c 82 38
       4.4106724e-05 8.464688e-06 2.3671277e-05 6.222059e-05
0000a0 c3 7f 5b 37 34 0f 04 38 4d 9f 63 37 45 9f 4b 38
       1.3083164e-05 3.148541e-05 1.35673445e-05 4.8547303e-05
0000b0 aa e4 e7 37 9c c8 30 38 5b 30 ac 38 e5 a9 0a 37
       2.7643826e-05 4.2148502e-05 8.210606e-05 8.264998e-06
0000c0 d4 c1 e0 36 5b 5e 69 39 be b1 1a 37 9d f1 d3 37
       6.698285e-06 0.00022255762 9.220499e-06 2.526567e-05
0000d0 80 ee a1 38 ed 41 ac 37 28 b2 68 38 d5 35 31 39
       7.721502e-05 2.0534697e-05 5.547903e-05 0.0001690009
0000e0 2c 4a 06 38 9a 1b 72 37 d0 db 76 38 94 ea 5e 39
       3.2017168e-05 1.44307505e-05 5.8855687e-05 0.00021258957
0000f0 ed 20 92 39 3d ea 72 37 e1 b9 06 38 ff e8 5b 38
       0.00027871822 1.4478862e-05 3.2121203e-05 5.2430663e-05

exp_avg f4 [32, 64]
000000 3d 7f e6 b8 25 a2 04 b9 84 3d 25 39 7c aa 57 38
       -0.000109909546 -0.00012648905 0.00015758543 5.141877e-05
000010 7d e1 fa b9 f4 1f 8c b8 2b 24 2d 39 89 b2 d9 b8
       -0.00047851718 -6.681672e-05 0.0001651204 -0.00010380621
000020 3e 64 40 b8 9b 5d 5c 37 2c af 65 39 1b 1f 7a b8
       -4.5869725e-05 1.3134816e-05 0.00021904398 -5.9633614e-05
000030 cb bb 91 b3 58 d6 55 38 49 b5 14 b8 19 4a 67 39
       -6.786248e-08 5.098278e-05 -3.5454785e-05 0.0002205748
000040 98 9a a2 35 5a f5 5c 39 e8 29 9d b8 38 4b 83 b9
       1.2114933e-06 0.00021072236 -7.494149e-05 -0.0002504231
000050 2f bd cd b8 c8 ab 93 b8 69 fd 59 39 6e 3f 02 b9
       -9.8104e-05 -7.041503e-05 0.00020789135 -0.00012421396
000060 8f 1f 79 38 3d a8 e5 b8 88 42 1d 39 86 5f 86 b8
       5.9395617e-05 -0.00010950908 0.00014997472 -6.4074105e-05
000070 50 e4 19 b9 ff 28 cc b9 1c ca 08 ba 0b 0f 3b 38
       -0.0001467627 -0.00038940457 -0.0005218105 4.4598284e-05
000080 4e 5e c5 38 54 f1 0d b9 92 0b 07 b9 7c 31 53 b9
       9.4112576e-05 -0.0001353671 -0.00012878914 -0.00020140962
000090 4f c8 8b b8 27 08 9d 39 74 cf 97 b8 e5 ab 0b b9
       -6.665347e-05 0.00029951448 -7.238882e-05 -0.00013320109
0000a0 f5 c7 cc 38 8b 3c c0 b6 b3 4a c9 36 b1 72 11 b9
       9.764723e-05 -5.729094e-06 5.998963e-06 -0.00013871003
0000b0 43 92 87 b8 5d bb e3 38 97 8f d1 b9 a9 a7 00 39
       -6.464545e-05 0.000108591026 -0.0003997057 0.0001226949
0000c0 bc 52 51 b8 d7 19 b2 38 f4 07 20 b8 c0 f4 d3 b9
       -4.9906535e-05 8.4925145e-05 -3.815438e-05 -0.0004042741
0000d0 5b fa 8c 37 4f ae 77 38 ed 18 15 39 75 d3 f7 38
       1.6805881e-05 5.9051727e-05 0.00014219033 0.00011817265
0000e0 c3 30 4b ba 6a 59 06 b8 f8 71 21 b8 d8 1d 87 b8
       -0.00077511015 -3.2031363e-05 -3.8491533e-05 -6.4428605e-05
0000f0 cd 54 bf b9 70 ac 1b 39 d3 1a c2 37 b9 da 81 b9
       -0.0003649354 0.0001484619 2.3139093e-05 -0.00024767758
000100 82 60 fa b9 2c 54 34 3b a2 ca 87 bb fc a8 92 bb
       -0.0004775562 0.002751599 -0.0041440288 -0.004475711
000110 e7 1e a4 3a c8 61 a3 bb 8d 66 fd ba 78 7f 72 bb
       0.0012521417 -0.0049860217 -0.0019332931 -0.0037002247
000120 f5 7f b0 39 b6 e8 11 b9 0e 9b 5a bb ad 58 f4 ba
       0.0003366467 -0.00013914969 -0.003335658 -0.001864215
000130 4e 4d 37 bb bd fe 9a ba ec b2 f6 b9 32 b7 b7 39
       -0.0027969661 -0.0011825186 -0.00047054084 0.0003504097
000140 ad 7d 9c bb 9a 24 9c bb 35 c3 87 bb 7f f4 56 38
       -0.004775724 -0.0047651054 -0.0041431435 5.124928e-05
000150 6f b3 46 bb 85 8e d9 b9 da c8 c6 3a 41 21 97 3b
       -0.0030319353 -0.0004149565 0.001516606 0.0046121185
000160 35 01 1b bb fb bc 43 3a 2f bc a3 bb 55 e8 a3 3b
       -0.0023651842 0.000746682 -0.0049967985 0.0050020614
000170 f2 dd 6a ba aa 12 ba b8 7c 21 2d ba 6a 19 0b bb
       -0.0008959464 -8.8726476e-05 -0.0006604416 -0.0021224865
000180 75 73 cf bb 87 00 67 b9 39 31 4a b9 a0 fd 09 3a
       -0.006330902 -0.00022030073 -0.00019282558 0.00052639283
000190 21 8a 9b 39 66 f9 de b9 bc 44 47 39 68 e7 35 3c
       0.00029666818 -0.00042528956 0.00019003724 0.011102535
0001a0 13 83 8a bb 85 e4 18 39 d1 f4 a5 b8 56 8a 9f b8
       -0.004227051 0.0001458098 -7.913414e-05 -7.607478e-05
0001b0 ce 1b 82 bb 00 13 a4 bb 4b 35 9a bb 61 c7 ad 38
       -0.0039705997 -0.005007148 -0.00470606 8.28642e-05
0001c0 10 52 43 39 11 54 8e 3b 76 4a 33 ba 6a 74 da 3a
       0.0001862722 0.0043435176 -0.00068394036 0.0016666774
0001d0 4e 47 47 bb 3f f4 09 39 58 f7 70 3b 26 5e 69 bb
       -0.003040749 0.00013156327 0.0036768522 -0.0035609095
0001e0 04 6f 9a 3b 75 1a 07 bb ba 61 c7 bb 7c 20 01 bc
       0.004712941 -0.0020615135 -0.006084648 -0.00788128
0001f0 3f 24 36 3b 22 a2 cd bb f3 35 9e b9 53 f0 9a 3a
       0.00277926 -0.0062754313 -0.00030176304 0.001182089
000200 6c dc 92 b9 2e ad a6 ba c3 56 79 36 1b fd 82 39
       -0.00028011517 -0.0012716406 3.7154393e-06 0.0002498411
000210 b9 bd ea 38 e5 1e a2 38 18 02 b0 b9 9d 2b e9 ba
       0.00011193328 7.7305165e-05 -0.00033570896 -0.0017789487
000220 8f 7d ba ba ed 1d 0f bb 55 04 09 3a c5 ad e7 37
       -0.0014228093 -0.0021837906 0.0005226781 2.7618264e-05
000230 3e a7 02 38 43 75 08 3a da c1 29 ba 2f 9a da b9
       3.115017e-05 0.00052054616 -0.00064757245 -0.00041695076
000240 66 13 ee 38 8e 45 66 39 ba 93 53 ba 41 b8 14 ba
       0.000113523376 0.0002196042 -0.0008071024 -0.0005673208
000250 d7 94 9e 39 7f df 5d 3a 49 67 b2 37 0c 43 11 bb
       0.00030247003 0.00084637845 2.126735e-05 -0.0022165207
000260 46 4e d2 39 e7 b9 64 b9 41 6e 81 38 dc aa 7c 38
       0.0004011264 -0.00021813028 6.171736e-05 6.0240607e-05
000270 91 c1 1d ba c8 a0 26 ba a3 f5 33 b9 95 74 61 37
       -0.00060179183 -0.0006356356 -0.00017162277 1.3438189e-05
000280 02 09 d0 36 a8 ed 22 ba e8 46 4f ba 7f aa f5 b9
       6.1999317e-06 -0.0006215223 -0.0007906989 -0.0004685707
000290 0d ce 9b ba ca b6 a3 39 82 af 58 b9 55 0f ce b9
       -0.001188697 0.0003122597 -0.00020664747 -0.00039302805
0002a0 7f b1 70 39 e3 6d fa ba 89 00 89 ba 46 cf 18 b9
       0.00022954306 -0.0019106235 -0.001045243 -0.00014573065
0002b0 c0 f8 27 39 ed 4f 5b 39 f6 7b 3a ba 2b c0 c1 ba
       0.00016019028 0.00020915242 -0.00071138085 -0.0014782002
0002c0 28 0e 31 bb c4 ba 0f ba 97 f4 ea ba 5c d6 21 ba
       -0.0027016494 -0.00054828473 -0.0017925677 -0.00061736046
0002d0 99 1e 02 38 74 44 91 ba b3 99 37 38 aa 18 47 ba
       3.102291e-05 -0.0011083023 4.3773744e-05 -0.0007594923
0002e0 a9 66 1e 39 94 08 e8 b6 48 fe ce 37 05 21 59 39
       0.00015106298 -6.9151374e-06 2.4675523e-05 0.00020707033
0002f0 44 e5 e4 b9 7c 77 ef 39 a0 14 03 bb de c0 88 b6
       -0.00043658365 0.00045674655 -0.0020001307 -4.0755685e-06
000300 e7 a0 52 bb 17 d6 96 ba ee 26 ea 39 55 3f 17 3a
       -0.0032139362 -0.0011507896 0.00044660963 0.000576963
000310 47 d3 a6 3a a7 12 db 39 ec 4f 4c 3a 57 b3 0f ba
       0.001272776 0.00041784832 0.0007793892 -0.0005481741
000320 e5 7f 68 ba 03 12 a6 b9 6a 42 4b bb a9 0b 22 b9
       -0.00088691554 -0.00031675407 -0.0031014928 -0.00015453868
000330 76 10 6b 39 db 76 fc ba 1d 03 04 b9 86 db 08 bb
       0.00022417479 -0.0019261496 -0.00012589661 -0.00208828
000340 31 52 aa 39 9c e6 3d 3a dc 62 99 39 22 7d cd 39
       0.00032486164 0.00072441413 0.0002925609 0.00039193878
000350 7d 5a 59 3a 37 b0 1e bb a4 f5 88 3a 9a 11 b3 ba
       0.0008291377 -0.002421392 0.0010449183 -0.0013661862
000360 cf 40 e6 39 ab 2e 97 bb 5a ab 85 38 33 b7 22 ba
       0.00043917305 -0.0046137176 6.373851e-05 -0.00062071084
000370 7a e9 ad b9 dc be ab b9 81 ac 5c ba 51 fb 6a 3a
       -0.00033171085 -0.00032757863 -0.0008418039 0.00089638407
000380 54 68 29 39 82 b9 8f ba 52 77 b5 3a dd ff 23 b9
       0.00016155961 -0.001096532 0.0013844764 -0.00015640208
000390 c6 c1 c4 ba d7 fd f3 39 6f 1f 58 3a ed c6 cd ba
       -0.0015011362 0.00046537697 0.000824443 -0.0015699543
0003a0 1a 90 2e bb 37 3b f9 ba d7 58 7e ba c6 d1 a6 ba
       -0.0026636184 -0.001901484 -0.0009702569 -0.0012727312
0003b0 65 ac 61 ba f0 da 32 3a 8b 4a bc 39 e6 95 27 b9
       -0.00086087576 0.00068227854 0.00035913693 -0.00015982203
0003c0 cc 1e 6f b9 cf 5b 0c ba 2c 21 92 b9 28 e5 35 ba
       -0.00022804289 -0.0005354257 -0.00027872005 -0.0006938749
0003d0 d6 71 f0 38 f5 56 55 ba fb a5 71 ba 2f 4c 16 3a
       0.000114652954 -0.0008138263 -0.00092181534 0.0005733398
0003e0 ff e1 33 bb 5d bc f2 ba af 39 0d ba 25 ab 8d 39
       -0.0027447937 -0.0018519271 -0.00053873187 0.00027021128
0003f0 25 8f 03 37 86 00 a5 ba 8f b5 3e bb 12 3c f1 38
       7.841537e-06 -0.0012588657 -0.0029099917 0.000115029645
