logs/bandit_training/version_17/checkpoints/epoch=34-step=35.ckpt (torch, 121179 bytes, 30 tensors)

gru.weight_ih_l0 f4 [96, 15]
00000000: c7f8 813d 1823 5a3d be4f 2bbd f18d 023e
00000010: 6f5e 7f3d 115a be3d 09e5 cebd 5065 1b3e
00000020: 001d 293e ab26 febd f49b 1f3e 6c12 22bc
00000030: 4686 223d 8917 2abe 2803 babc 1c79 e03d
00000040: 4a9f 04be 0265 4bbb a588 d0bd b2be e83d
00000050: 7de9 893d 7b92 233e fbcb 463d c65e 4d3d
00000060: d3cd fa3d f9d2 c33d 94fc eb3d fddb a8bd
00000070: dc09 d1bc 0ce5 36be 3794 6f3d 6d85 e0ba
00000080: 5622 843d 1b99 42be 10fc 063e 2010 09be
00000090: 9ee4 e73d 168f bebc 8719 b4bd bfd0 593d
000000a0: 83a6 8a3c e8ea 0fbd f9ab d4bd 0f8e f8bd
000000b0: 162b 8a3d ee4d 4a3e e292 323e a18d e33c
000000c0: 9238 193e e8e1 07be 7b88 33be d0eb 24bd
000000d0: c7bb d53c e996 29be ffad 433e 7688 e03d
000000e0: 3b54 90bd 414e 593d 0ad6 22be b68d b83d
000000f0: 05e1 15be c2de 4ebe a4fe 0dbe 77fc 42be
00000100: 7b7a e6bd 44e6 e8bd 0ff0 abbd ab60 c1bc
00000110: d5e8 ecbd 9c08 79bc f4aa 2cbe 2edf 24bd
00000120: 6dcb a03d 47e5 7bbd 1637 12bc d8e0 fbbd
00000130: 4286 a23d 5e9a 9fbd 8648 3a3c b28f e93d
00000140: 7573 bb3b b9a0 943d 39e7 d7bc 44bc b63d
00000150: 7956 2f3e 8c5e 44be 9068 c93d f458 13be
00000160: 4ec6 f9bd e6ae d3bd 2789 a8bc dc82 393e
00000170: f6bd eebc 2619 cfbc eb05 91bc 3a8f 04bd
00000180: 2474 0fbe ae4c eabd fe7a 55bb f34e 8e3c
00000190: 82eb eb3d 8ecb 843c 1711 943d 4e0a 223e
000001a0: 8ea5 fbbc f87c 073c 1202 2fbe e6df 42be
000001b0: e8ed e9bc e75b 0a3e 0e7c 9dbc ee88 f33c
000001c0: 91f4 883d 22e3 153e 65db 0bbe 0e8e 88bc
000001d0: 4f62 20bd ba78 8d3c 9b5c d33c 94b8 ecbd
000001e0: 6465 f7bc 4279 e23c 57ec b7bd 5665 473e
000001f0: d5ef 0dbd ba24 4a3c b5bc e1bd d3c4 3b3e
00000200: cf5b 6ebd e6e1 103e 1001 f83c 7b4d 0a3d
00000210: 50b5 e43d 6db8 10bd 0e97 c83d 01d9 473e
00000220: c08d 7dbd e8c5 f03c cbe1 893d 158f 0b3e
00000230: e866 eb3b b8eb fdbd 4a8f e9bd 854d 673c
00000240: d345 f73d 7912 a9bd d1a4 f0bd 6483 a63d
00000250: 8869 b6bb 0b6f 1cbe 8ef0 db3c bd3b 89bd
00000260: a58d d63c 2da9 c7bd daa0 83bc 2986 0f3e
00000270: 4e56 b8bd a8a2 193e 4a53 fa3d 0d79 b9bc
00000280: 8fe4 e93d 9766 6fbd ec5b 30be 1fe7 c8bd
00000290: 6455 843d d1a6 bdbd b091 033e ac96 423e
000002a0: 7f61 ce3c 8119 5f3c 1976 8c3d 1349 d7bd
000002b0: 22cf a2bd f625 253e 8dc4 773d c0fd 30bd
000002c0: 4748 6cbd 02f4 02be f3ee c23d c5f8 253e
000002d0: ef18 19bc e04f 1fba b3b7 f13c 9f5b 423e
000002e0: 554e fe3d e35e edbd 3ed9 0e3e b7c8 97bc
000002f0: f969 10be e1dd 6e3d b7bc 70bd 5885 7e3c
00000300: d7d5 4dbd 814b 5ebd bed1 0bbb 8a57 543d
00000310: dcaa d23d e7f2 8a3d 720a f73d ea9d c03d
00000320: 6cd9 63bc 3fd2 cd3c 3672 003e f12c 6dbd
00000330: c24f e13c 85f1 893d 856a 113e 037d 2f3d
00000340: 917e d6bc 3478 de3d 370a eabd 1eff 473b
00000350: 03bb ffbd 10e7 2a3e bcc2 4bbe fd51 b63d
00000360: 4551 14bd d3b7 1e3e 9eaf c9bd 31ad a03d
00000370: c820 1b3d ad64 0bbe e77a d93d 2d98 33be
00000380: 8c32 0ebe 04f6 5cbd 0d69 c83d f1f6 583e
00000390: ece8 db3d 1a39 12be 8e36 50be f4fb 01be
000003a0: 581d e1bd f483 afbd 9496 8f3d 636a 4a3c
000003b0: 34bb b2bd b9d3 f8bd 2bfd 6a3d 6557 3ebe
000003c0: a85a 183e 929c 25be 7576 ebbd 3332 153e
000003d0: b840 acbd 01b0 febd 7321 013e c826 d5bd
000003e0: d579 9a3d 46c8 003d 1b86 cabd 562a 9fbd
000003f0: 3641 03be f505 2b3d ee73 a3bd 03b5 603d
0.06346279 0.053256124 -0.041824095 0.12749459 0.06234592 0.092945226 -0.10102279 0.15175366
0.16514969 -0.12409719 0.15586835 -0.009892087 0.039678834 -0.1661054 -0.022706583 0.109606
-0.12951389 -0.0031035547 -0.10182313 0.11364497 0.067339875 0.15973847 0.048534375 0.05013921
0.12246289 0.09561724 0.11522785 -0.082450844 -0.025517397 -0.17860812 0.058490958 -0.0017129608
0.064518616 -0.19003718 0.13182092 -0.13385057 0.11322902 -0.023261588 -0.087939315 0.05317759
0.016925102 -0.035136133 -0.10384364 -0.121364705 0.06746499 0.1975629 0.17438844 0.027777495
0.14962986 -0.1326977 -0.17532532 -0.04026395 0.026090516 -0.16561474 0.19109343 0.10963528
-0.07047316 0.053053144 -0.15901962 0.09011404 -0.1463662 -0.20202163 -0.13866669 -0.1904162
-0.1125383 -0.11372045 -0.08395397 -0.023605665 -0.11567847 -0.015199807 -0.16862088 -0.040251903
0.078513004 -0.061497953 -0.008924266 -0.12298745 0.07935764 -0.07793115 0.01136983 0.11404361
0.0057205507 0.07257218 -0.026355373 0.089226276 0.1712283 -0.19176692 0.09834397 -0.14389402
-0.12196027 -0.103360936 -0.020573212 0.18116325 -0.029143315 -0.025280546 -0.017703017 -0.032363154
-0.14009148 -0.11440407 -0.003257453 0.01737163 0.11519529 0.016210344 0.07229822 0.15824243
-0.030718591 0.008269541 -0.17090634 -0.19030723 -0.028555825 0.1351162 -0.019224193 0.02972838
0.06687272 0.14637426 -0.13657911 -0.0166693 -0.039156254 0.017269481 0.025800994 -0.11558643
-0.030199714 0.02764571 -0.08980625 0.1947225 -0.03465255 0.012337858 -0.11022321 0.18336801
-0.058193024 0.14148673 0.030273944 0.033765297 0.11167395 -0.035332132 0.097944364 0.19516374
-0.06190276 0.029391244 0.0673252 0.136288 0.0071838982 -0.123984754 -0.11404283 0.014117603
0.12073865 -0.082554765 -0.11750186 0.081305295 -0.0055667795 -0.15276735 0.026848104 -0.06700847
0.026190588 -0.097490646 -0.016067911 0.14016022 -0.09000836 0.15003455 0.122229174 -0.02264073
0.11420547 -0.058447447 -0.17222565 -0.09809708 0.064615995 -0.09260333 0.12848544 0.1900279
0.025192974 0.01361692 0.06858463 -0.10511985 -0.07949664 0.16127762 0.06049018 -0.043210745
-0.057686117 -0.12788394 0.09518232 0.1620818 -0.009344324 -0.0006077271 0.02950654 0.18980263
0.124172844 -0.11590364 0.13950059 -0.018528325 -0.14102925 0.05831707 -0.058773722 0.015534721
-0.05025276 -0.054271225 -0.0021334733 0.051841296 0.10286495 0.06784611 0.12062539 0.0940512
-0.013906818 0.025124667 0.12543568 -0.057904188 0.027503852 0.06735519 0.1420079 0.04284383
-0.026183398 0.10862771 -0.114277296 0.0030517052 -0.124868415 0.16689706 -0.19898504 0.08902357
-0.036210317 0.15499811 -0.098479494 0.07845534 0.03787306 -0.13612624 0.10619145 -0.17538519
-0.1388647 -0.053945556 0.09785662 0.2118795 0.10737786 -0.14279595 -0.20333311 -0.12693769
-0.10991925 -0.0857009 0.070111424 0.012354466 -0.087271124 -0.12149758 0.057370346 -0.18588026
0.14878333 -0.16173008 -0.11497203 0.1456993 -0.084107816 -0.12435914 0.12610416 -0.104077876
0.07542769 0.031440996 -0.0988886 -0.07771747 -0.12817845 0.041753728 -0.07981096 0.054860126

gru.weight_hh_l0 f4 [96, 32]
00000000: 1925 febd ac51 13be f556 0c3d 3743 f73d
00000010: a324 2e3e f11a 8ebc 55e8 213e bf3e a23d
00000020: 2d58 92bc d735 3e3e 8d82 3abe fd12 1d3e
00000030: c93c c3bd a5bf fbbd acd7 4e3d bd76 eb3d
00000040: 5546 fb3d 59a5 e63d 116f 0abe 5186 943d
00000050: b64f c6bd 26e2 bdbc d33d 48bc 172e 5c3d
00000060: 4cf5 fa3d 485d dcbc c02f 183d cd16 37be
00000070: 31f8 ee3d 5272 84bc 5fae 1dbe ac86 f33d
00000080: 4ec0 19bd 3858 94bd 5c76 cd3d aba2 e33d
00000090: 1283 f13d 7e28 b03c f946 dcbd c9d2 e8ba
000000a0: 14ee e53c 0c26 2d3e 8fc4 d2bd 9fa5 3dbd
000000b0: 7a2b f93d dbc8 5c3d 48d7 ecbd 8680 8e3c
000000c0: 4271 78bd 805d 3dbe a4c2 a73d 3d3b e53d
000000d0: 4154 133e 29dc bb3d 249f 46bd 1b72 083c
000000e0: 9528 b4bd 25f5 9e3c 7582 2bbe c18f 35be
000000f0: 2be6 833d 0b19 993d e530 f63d ddf2 80bd
00000100: 07a8 0b3d 5205 703d 4fc1 fcbd 7fe8 133e
00000110: f264 073e d0a9 91bc 31bf 433e b707 02bc
00000120: 9f0a 163e 617b 0d3e f884 2fba bce5 403e
00000130: 5b8b 28bd 665d 013e 31f3 02be 0977 57bd
00000140: 457a cbbd b0de 1c3e 397e 3c3e 6ff3 68bd
00000150: 5234 263d 860a ebbc 3c5a 833c 51f0 48be
00000160: 6ad1 ca3c e70a 963d 52c0 c8bd 8f9e c03d
00000170: 0b01 a9bb 6386 3a3c de07 e9bd d4c1 81bd
00000180: 747e 15be 21af 0dbe 43d3 cfbd feff b43d
00000190: 0f82 d23d e0ef ddbd a129 0fbd dabb 45be
000001a0: d1d0 aebd f7da 0f3e bd07 033d e8c3 9ebd
000001b0: 6f34 2cbe 2ee7 f4bd b779 0b3e 18b2 163e
000001c0: 8685 e6bd d51a f93d 8318 26bd 941d c1bd
000001d0: 1e43 b33b 14af ddbc 2277 753d 91be a7bd
000001e0: 894c 4dbe 076f 99bd 2333 82bd 5e00 013e
000001f0: 8e9a 8a3d 6dbf af3d c59b c93d efbd b3bd
00000200: ed59 bfbd 4a4b 09be 809f cdbd d45e 09bd
00000210: 5319 01be e883 dcbd 979e 82bc 5861 0d3d
00000220: 8a66 193e f883 e8bb 0a4f 9abd 77e4 76bd
00000230: dbaa 223d 71a0 e03d 41e7 863d 521a 723d
00000240: a12a 323d f6f8 27be 28f4 b2bd da44 56bd
00000250: 5db6 da3d b9cf 3f3e 3734 3d3e ae1a 933d
00000260: 18dd f93c 29f3 03be d224 ffbd c66e 963d
00000270: 1878 55bd 08c8 823d 7039 c0bd 44d0 1cbd
00000280: a212 eebd 03df 9a3d 5ce5 363e b35a 423e
00000290: a76f 6bbd 9615 9cbd 94b4 28bd 7cb9 bd39
000002a0: 21d7 203d 230d 543e 5849 cc3c d87f c53d
000002b0: d62d 98bd c6ef 15be 8a01 333d 49f6 ba3d
000002c0: 0944 27be 542e cdbd a545 043e 34e4 d0bd
000002d0: 5bb4 2cbd 6528 983c 026a 563c ca7b 4b3e
000002e0: 290e 2cbe 0a97 debb 28d3 03be e467 afbc
000002f0: be63 25be 0ebd 413d e9ea a8bd 69b4 133e
00000300: 4273 4a3d 10a0 15be fc0f 0cbe cf55 17be
00000310: a35a f5bc cbd1 09bd 7a38 a93d ec52 cabd
00000320: 9611 c13d 9d69 4a3b d9b5 573d 3c6f 51be
00000330: a92c 603c 369a 643d c007 3c3e 3579 143d
00000340: b5e2 063e 40d0 0fbe 556f 6d3d 91cb f4bd
00000350: afea e43d f3a4 2d3e 6ed0 823d 2a3c f83d
00000360: 4162 b2bd 8b6d 1e3e d3b8 d13d 784a fa3d
00000370: c24d bbbc 5450 0abd 9903 003d a226 283d
00000380: 308f e43d 328b 7abd d1c9 fe3c 32c0 dc3d
00000390: 3818 33bb 1b30 283e 877a c03d da80 18be
000003a0: b75e 2cbe cf81 efbd c2e0 043e 0799 373e
000003b0: ca50 0b3e 3621 fb3b a724 2e3e 88b1 c3bd
000003c0: 1e47 013e 3d27 95bd 440e 843c e989 ebbd
000003d0: edd0 88bd 478b 63bd b92f cbbd c4af 72bd
000003e0: e543 0ebe f0f4 9b3d 1030 583d 30c9 c43d
000003f0: 17e8 6a3d 190b 43be ec35 e83d c0ec 31be
-0.124094196 -0.14386624 0.034262616 0.12073367 0.17006163 -0.017346831 0.15811284 0.07922124
-0.017864311 0.18575226 -0.18213864 0.15339275 -0.09533078 -0.12292413 0.05049865 0.11497257
0.12269274 0.11262006 -0.13518931 0.07252181 -0.096831724 -0.023179125 -0.012221771 0.053754892
0.12253818 -0.026899949 0.037154913 -0.17879792 0.116684325 -0.016167793 -0.15398549 0.11890921
-0.03753691 -0.07243389 0.10032341 0.11115011 0.11792578 0.021503683 -0.107557245 -0.0017763014
0.028067626 0.16909045 -0.10291397 -0.046300527 0.121664956 0.05390249 -0.11564499 0.01739527
-0.060654886 -0.18492699 0.08191422 0.111929394 0.14387609 0.091728516 -0.048491612 0.008327986
-0.08796803 0.019404003 -0.16748984 -0.17730619 0.064403854 0.0747548 0.12021045 -0.062963225
0.03409579 0.058598824 -0.12341558 0.14444159 0.13222101 -0.017781168 0.19115902 -0.00793641
0.14652489 0.13816597 -0.0006695534 0.18837637 -0.041148525 0.12633285 -0.12788083 -0.052603755
-0.099354304 0.15319324 0.18407525 -0.05687278 0.04057724 -0.028691541 0.016034238 -0.19622923
0.02475806 0.07326298 -0.09802307 0.09405243 -0.005157595 0.011384579 -0.11378454 -0.06335798
-0.1459902 -0.13836338 -0.10147717 0.08837889 0.10278713 -0.10836768 -0.03495181 -0.19309941
-0.08535922 0.14048372 0.0319898 -0.0775221 -0.16816877 -0.119581565 0.1362065 0.14716375
-0.11255936 0.12163321 -0.04055072 -0.0942947 0.0054706475 -0.027061023 0.059928067 -0.081906445
-0.20048727 -0.0749188 -0.0635741 0.12597796 0.0676776 0.085814334 0.09844164 -0.08776461
-0.09343324 -0.13407627 -0.10040188 -0.0335377 -0.12607317 -0.107673466 -0.015944762 0.034516662
0.14980522 -0.00709581 -0.07534607 -0.060276475 0.03971372 0.10968102 0.06587077 0.059107132
0.043497685 -0.16403565 -0.08737975 -0.052311756 0.10679314 0.18731584 0.1847695 0.07182823
0.030500934 -0.12885727 -0.12458195 0.07345347 -0.052116483 0.06385809 -0.09385955 -0.038284555
-0.11624648 0.07562067 0.17860931 0.18979912 -0.057479527 -0.07621305 -0.041187838 0.00036187086
0.039267663 0.20708136 0.024937317 0.09643525 -0.074306175 -0.14642248 0.04370264 0.091290064
-0.16334547 -0.10018602 0.12917192 -0.10199776 -0.042164188 0.01857395 0.013086798 0.1987144
-0.16802277 -0.0067929076 -0.12873518 -0.021411844 -0.1615133 0.047299437 -0.082479306 0.1442429
0.049426325 -0.1461184 -0.13677973 -0.14778827 -0.029950446 -0.03364734 0.08262725 -0.09879097
0.094271824 0.0030885704 0.052663658 -0.20452589 0.013682523 0.05581113 0.18362331 0.036248405
0.1317242 -0.14044285 0.057967503 -0.1195289 0.11177575 0.16957454 0.06387411 0.121208504
-0.08710147 0.15471475 0.102403305 0.12221235 -0.022864226 -0.033768013 0.03125343 0.041052468
0.11160123 -0.061167903 0.031102093 0.10778846 -0.0027327668 0.16424601 0.0939837 -0.14892903
-0.16833006 -0.11694681 0.12976363 0.17929469 0.13605037 0.007663871 0.1700617 -0.09555346
0.12624785 -0.07282875 0.016120084 -0.11500914 -0.066804744 -0.055552747 -0.09921212 -0.059249654
-0.13893087 0.076150775 0.05278021 0.09608686 0.057350244 -0.19047202 0.1133841 -0.17375469

gru.bias_ih_l0 f4 [96]
00000000: cbe7 51bd 1afe 39bc 9f5b 68bc 4a86 2e3e
00000010: ef08 d83d ad07 5a3e df6e 0ebe 2dc6 c13d
00000020: 8741 17bc 5789 1a3e 133a 07bc 7371 0a3e
00000030: 0f42 163e 605f 2b3e e469 3c3e 7897 223e
00000040: 0ea9 353c cc55 273e 1a6a b73d e94a 2c3d
00000050: e772 1e3e 0966 103e 0f41 efbc c52c ef3d
00000060: d0e1 83bd 278f 26bd 4f8e 12bd cb5a b3bd
00000070: 32e6 0f3e 23ea d8bd 03fd 063d e068 c8bd
00000080: e799 cfbd b86b 87bd 69fe 1bbe 420a 36bd
00000090: 8b6e 75bd fd36 473d 17e0 d23c 177f d53d
000000a0: a580 b9bd 466e 84bd f649 e13d a234 e2bc
000000b0: 2d87 ac3d cf3e b1bd 9273 0d3e a3fd 573d
000000c0: d9f6 1bbe aa68 29be 9420 363c cd66 d4bc
000000d0: e208 593e 8981 003e 19f1 673d 97ea 8e3d
000000e0: 3665 24bd ff95 093e 1522 9d3d 8aca 493d
000000f0: b36f c43d a769 f73c 3980 ee3d fc93 4d3c
00000100: 60e4 b43d 054b 26be 5040 4b3c 1f62 ce3d
00000110: 4310 383e 693c da3c 9e89 43be 7c8e 3dbe
00000120: 3893 2cbc e38f c03d 987f 333e 57e4 cf3c
00000130: f2b3 07be fced 9cbd 3688 15be 3f07 383e
00000140: 880b 2cbe 3c42 c3bd 58d3 743d f482 2ebe
00000150: 5adb 3d3e aada 063e 0dd8 823d 6569 82bd
00000160: e7d6 04be 8450 c8bd d506 33be f190 37be
00000170: d5e2 8b3d bb1b c9bc f01e e5bd a51e 4d3e
-0.051246446 -0.011352086 -0.014182 0.17043415 0.10548579 0.2129199 -0.13909481 0.09461627
-0.0092319315 0.15091453 -0.008253592 0.1351984 0.14673637 0.16735601 0.18399769 0.15878093
0.011087669 0.16341323 0.08955784 0.042063627 0.1547352 0.14101423 -0.029205827 0.11678461
-0.06439555 -0.040663864 -0.035780247 -0.08757552 0.14052656 -0.10591533 0.032956135 -0.09785628
-0.101367764 -0.066123426 -0.15233769 -0.044443376 -0.059919875 0.048636425 0.02574162 0.10424631
-0.0905774 -0.064663455 0.11000435 -0.027612988 0.0842422 -0.08654558 0.13813618 0.05273212
-0.15230884 -0.16543832 0.011116166 -0.025927925 0.21194795 0.12549414 0.056626413 0.06978338
-0.040135585 0.13436125 0.07672516 0.049265422 0.095916174 0.030201746 0.1164555 0.012547489
0.088326216 -0.16239555 0.01240547 0.10077309 0.17974953 0.026640134 -0.19095466 -0.18511385
-0.010533147 0.09402444 0.17529142 0.025377436 -0.13252237 -0.076625794 -0.14602742 0.17971514
-0.16801274 -0.095341176 0.059771866 -0.17042142 0.18540707 0.13169351 0.06388865 -0.06367759
-0.12972604 -0.09780982 -0.17483075 -0.17926385 0.06830374 -0.024549356 -0.111875415 0.20031221

gru.bias_hh_l0 f4 [96]
00000000: 40d1 06be 6437 f23d 7a59 23be dbaf a5bd
00000010: 667d 103d 202f 18bc 46aa 043e 08dc 5abd
00000020: 2c6a e3bd 1dd0 74bd aaa0 ae3d e269 0dbe
00000030: d496 b8bc 2a1c 7dbd 0cba e93d 77ba 3a3e
00000040: f2ec 60bd 7608 4a3d 0f29 c33b f6d7 2f3d
00000050: eced 8dbd 677d c9bd 650b 9bbd 33c7 083e
00000060: 2373 42bc 52ae 863b 7d03 fdbc 498e debd
00000070: 62a8 2a3d 9213 e53d 140f b63d b547 513d
00000080: 169f e43d 0133 3bbe f104 553c bf10 c7bd
00000090: 2939 23be 1a73 f63c 98c0 a9bd 72c7 913d
000000a0: d156 0ebe dcbe b43d 9898 6b3d fe5d 9c3c
000000b0: 849c c93d 8d07 813d 04b9 223e ac9e a1bd
000000c0: c9b5 edbc aaa8 7b3d 2756 bcbd 866c 11be
000000d0: c33d ddbd ac55 5bbd df2c 3e3e b12c 7b3d
000000e0: 973e 0a3e ba2a 613d fdc2 2c3d f5d6 95bc
000000f0: 5de6 5abd 974d 8dbd 9a9c b8bb de1a f63d
00000100: 6050 973d 3cc0 1cbe 2f45 5dbb 2c7f 1d3e
00000110: d52a 2c3e 6363 24be a7d8 a4bd c7e2 543d
00000120: 5820 b0bc 5ef8 ae3d 326e 433e 2e0f 49bd
00000130: b0f1 85bd 00f6 f13c ef2b 59be ec32 97bd
00000140: 8020 2fbe db76 2cbe 7b95 0f3e 1065 493d
00000150: 3eda 943d c13f cdbd 83a0 bcbd 64cc fcbd
00000160: 8698 b3bd fa5a 97bd ccbf 89bd 08ef ac3d
00000170: 07b0 5a3d e585 b9bd e471 4b3e 374a 853d
-0.1316576 0.11826971 -0.15952101 -0.080901824 0.03527584 -0.009288579 0.12955579 -0.053432494
-0.11104235 -0.059768785 0.08526738 -0.13809922 -0.022532858 -0.061794437 0.11412439 0.18235193
-0.05491347 0.049324475 0.0059558223 0.042930566 -0.069301456 -0.09838372 -0.07570533 0.13357238
-0.011868271 0.004110136 -0.030885452 -0.108669825 0.04166449 0.11185373 0.08889595 0.051093776
0.11163156 -0.18281175 0.013001666 -0.09719991 -0.15939774 0.030084182 -0.082886875 0.07118119
-0.13900305 0.08825466 0.05751857 0.019087788 0.09844306 0.06300268 0.1589089 -0.078915924
-0.029017346 0.061440147 -0.0919612 -0.14201555 -0.10802796 -0.0535485 0.18571804 0.061321918
0.13500439 0.054972388 0.042178143 -0.018290976 -0.053442348 -0.06899565 -0.0056339027 0.12016843
0.07388377 -0.15307707 -0.003376316 0.15380543 0.16813214 -0.16053538 -0.08049136 0.051974084
-0.021499798 0.08543466 0.19085005 -0.049086742 -0.06540239 0.029536247 -0.21208166 -0.073827595
-0.17102242 -0.16842215 0.14021866 0.049168646 0.07268189 -0.10021926 -0.09210303 -0.12343672
-0.08769326 -0.07390399 -0.067260355 0.08444029 0.05339053 -0.090587415 0.19867665 0.06508296

output_layers.0.weight f4 [64, 32]
00000000: e7d4 d5bc ed1f ac3d 17f3 303e 3fb3 babc
00000010: 1220 19be ecf4 0c3e 8645 d9ba 2a89 86bd
00000020: 2d1f df3d 7ef1 6dbc 6258 f9bd 1c8b 1a3e
00000030: 0402 3fbd 4349 ba3d bb1e 9f3c c590 d83d
00000040: 52ec 8cbc 6173 7cbb ae7a 75bc 6912 09be
00000050: 5fe6 c0bc 0a3a febd 27a7 33be 9c35 4f3b
00000060: 6a7a f83d 754a 33be 1120 ffbd 6b36 b9bd
00000070: 18c2 0abe c03b 833d e332 d4bc 4533 81bd
00000080: 0030 35be ef80 b63d ba77 4bba a757 db3d
00000090: 1b7a 6cbd fde9 4e3c 36dc a4bd 24f5 ad3d
000000a0: 9930 c83c 9496 0abe ba0c 22bd 3c29 23bc
000000b0: 9284 d73d 3c27 acbd 0391 f3bd 8ec5 08bc
000000c0: f6c5 a63d 893a 093d 6c76 77bc 0984 09be
000000d0: 6f49 263e 037d f4bd c4bf 52bc 4e9b fabd
000000e0: 4ffb a6bd b33f 073e bed3 21be 8200 fa3d
000000f0: 56d2 f03d 391d c0bc 9fb8 dd3d f174 573d
00000100: 03bd 063e 2501 eebb 25b7 053e a03e 6e3d
00000110: 5780 163e cef2 113e 806f 8f3d ed38 dc3d
00000120: 55a4 0b3b 404e 9bbc 42a5 16be 3a08 7cbd
00000130: ad28 e13d 361a 0ebd 25b2 c3bb 1300 d6bd
00000140: 0e86 993d 9d05 fd3d 5da5 06be a503 e8bd
00000150: 2e80 073a 1695 a4ba 75bb 39be 9a81 6bbd
00000160: 34b6 3f3e 10a5 0b3e c96e 9abc a3c9 c93c
00000170: 9ca3 b03d 97d5 9abd 94e6 b63d 1a72 ddbc
00000180: 7655 093e 965d b0bd 2ab4 1cbc f735 13be
00000190: 43ec 1b3e 602c c73d 9161 f6bd 33ee 89bd
000001a0: 0c4d 283e 1423 373e f027 083e 14da 013d
000001b0: e9c1 c23d 67a4 f43d 9318 e5bd 527a aebd
000001c0: 3f35 363d 5550 073e c21d a6bd 6aba 0b3e
000001d0: 1d71 763c 298c b2bc 13ce 403e 9cd2 95bd
000001e0: 6316 97bd 9b0b 5b3d 70a7 31bd 4df2 9abd
000001f0: e47e 513d be4c 06bd 17ad 093e 952b c2bc
00000200: a01e 793d 9f6d 04be 997e 22bd 9261 493d
00000210: f070 313c bc7b 15be 610c bb3d 2724 f83d
00000220: fb26 7d3d 4e5e a43d 2ae5 44bd 8e4a 81bd
00000230: 5d42 c4bc c119 0d3d 49c5 cabd fb84 dabd
00000240: d898 1f3e 7645 e43d 8231 513d 67ea 06be
00000250: d2ae 203e 95db 0b3e ecdb da3b ba65 253e
00000260: 76e5 fabd 2248 953d 9061 c03d 870b d4bd
00000270: 3c8c 7c3c 6f3a f2bd 34bd 1ebe 877c 993d
00000280: a2e5 ad3d fbeb 1cbe 2984 cdbd 40e5 d7bd
00000290: 9cf3 29be 5cf1 26be dcb9 0abe 775e 1cbe
000002a0: 11a6 04be 2d21 c63d 0501 bfbd 345d 04be
000002b0: b3ef 99bd f2af 603d 6232 c6ba 13b0 5f3d
000002c0: d95d 17be 56d5 b7bb 42cb 14be bb96 1bbe
000002d0: 1223 933c 1de6 dcbc 63fa 9dbd f946 41bd
000002e0: fb49 293e 9dd9 9ebd d6c6 3c3d 8660 38be
000002f0: dc15 1bbe 54c0 c6bd dbdf c2bd 5bdf 9d3d
00000300: 770c 013d d8c8 903d a2f7 033e 1d76 c8bd
00000310: 01dd 2fbe acd4 23be 8ebd 6dbd 3c56 493d
00000320: a135 5e3d 6a6f 22be ca3b 13be d5c3 a33d
00000330: 452d b5bd d01c 0f3e 7277 003d 7990 c93d
00000340: 281e e5bd 0f0c e23d 445c 3b3c 844e 253e
00000350: c602 c73d 6df4 353d 2985 27be a4ca 123d
00000360: 6769 6ebd 9808 273e 2e2b 023e 4a2f fe3d
00000370: 14a7 253e 78d1 04bc 9702 aabd 5d62 113e
00000380: 0c73 edb9 a98f 033e 281c bdbd 1f23 2dbe
00000390: ab6d 013e d27b fdbd a6a3 3b3e bb71 3abd
000003a0: ee45 613d 44ee 5f3d 130a 543e b3d0 05bc
000003b0: f2d1 ed3d 153d e83d f04f 2ebe 6601 e9bb
000003c0: 274c 523c d85f 033e e24e 3e3e 3141 653a
000003d0: ab1c 4dbc 23d2 50bd 1a0d 213e 2aa3 92bd
000003e0: 4ca0 99bc a40c 893d 6e1a 82bc ea61 b1bd
000003f0: 30b2 443e 4344 f03a 5bb3 d83d bd2d aebd
-0.026102496 0.08404527 0.17280231 -0.02279055 -0.1495364 0.13765305 -0.0016576506 -0.06569131
0.10894618 -0.014522908 -0.12175061 0.15092129 -0.04663278 0.09096005 0.019423833 0.105744876
-0.01720253 -0.003852092 -0.014982862 -0.13385929 -0.02354735 -0.12413414 -0.17544232 0.0031617647
0.12132724 -0.17508872 -0.12457288 -0.090435825 -0.13550603 0.06407881 -0.02590317 -0.06308607
-0.17694092 0.08911311 -0.0007761676 0.10710078 -0.057733636 0.012629029 -0.080498144 0.084940225
0.024437236 -0.13534003 -0.03956292 -0.0099585615 0.10523333 -0.08405921 -0.11892893 -0.008347882
0.08143227 0.03350309 -0.015103918 -0.13429274 0.1623895 -0.119379066 -0.012863103 -0.12236653
-0.08153402 0.13207893 -0.1580343 0.12207128 0.117588684 -0.023451434 0.10826229 0.05260176
0.1315804 -0.00726332 0.13058145 0.058165193 0.14697395 0.14252779 0.07003689 0.10753045
0.0021307666 -0.018958211 -0.14711478 -0.061531283 0.109940864 -0.034692965 -0.005972164 -0.10449233
0.07496272 0.12354586 -0.13149019 -0.1132882 0.00051689416 -0.0012556638 -0.18137915 -0.057496645
0.18721849 0.13637185 -0.018851655 0.02463228 0.08624956 -0.0756027 0.08930698 -0.027031947
0.13411507 -0.086116 -0.009564439 -0.14376055 0.15226845 0.09725261 -0.12030328 -0.06734886
0.16435641 0.17884475 0.13296485 0.031702116 0.09509642 0.1194542 -0.11186328 -0.085194245
0.044484373 0.13214238 -0.081111446 0.1364533 0.015041617 -0.02179535 0.18828611 -0.07315561
-0.07377317 0.053477865 -0.04337257 -0.075657465 0.051146403 -0.03278803 0.13444935 -0.023702422
0.060820222 -0.12932442 -0.039671514 0.049165316 0.010830149 -0.14597982 0.091332205 0.121162705
0.061804753 0.080258 -0.04807011 -0.06313048 -0.023957426 0.03444839 -0.099009104 -0.10669895
0.15585649 0.11146061 0.051072605 -0.13175355 0.15691689 0.13657983 0.0066790488 0.16152087
-0.122507975 0.07289149 0.093936086 -0.10353761 0.015414294 -0.118275516 -0.15501863 0.07494455
0.084910646 -0.15324394 -0.10034973 -0.10541773 -0.16596836 -0.16303009 -0.13547462 -0.1527041
-0.12953974 0.096742965 -0.09326366 -0.12926179 -0.07516422 0.054855295 -0.0015121216 0.054611277
-0.14781894 -0.0056101484 -0.14530662 -0.15194218 0.017961059 -0.026965195 -0.07713773 -0.047186825
0.16532128 -0.0775635 0.046088062 -0.18005571 -0.15145057 -0.097046524 -0.09515353 0.07708617
0.031506028 0.07069558 0.12887433 -0.09788153 -0.1717415 -0.15999097 -0.0580421 0.049154505
0.054250363 -0.15862814 -0.14378276 0.07996336 -0.08846525 0.13975835 0.031363912 0.09842009
-0.111873925 0.11037456 0.011435572 0.16143233 0.09717326 0.044422556 -0.1635939 0.035837784
-0.05820599 0.16311872 0.12711784 0.124113634 0.16177016 -0.008106582 -0.08301275 0.14197679
-0.0004528988 0.12847771 -0.09233886 -0.16907929 0.12639491 -0.123771325 0.18324146 -0.045518618
0.05499833 0.054670587 0.20706968 -0.008167434 0.116123095 0.113397755 -0.17022681 -0.0071107624
0.012835539 0.1282953 0.18584779 0.0008745371 -0.012519042 -0.050981652 0.15727654 -0.07160027
-0.018753193 0.06691864 -0.015881743 -0.08661254 0.19208598 0.001833089 0.10581084 -0.08504818

output_layers.0.bias f4 [64]
00000000: cee1 10be f03d bebd f43c 1d3d 2837 c73c
00000010: e319 363e 78ce c13d b35b 1fbe cdf5 33bc
00000020: c6b4 073e 8dd4 f33d 6ff8 5a3e 64d9 d2bc
00000030: 6a2b 04be 84b5 09be a05b 0bbc 01b0 bbbd
00000040: cfc0 323c 9f78 8bbb 6d51 383e 87f6 eebb
00000050: 4cef fdbb ded0 0bbe ac56 2cbb 2475 20be
00000060: 3179 953d 23bc 0a3e 9f7c 493e c607 013e
00000070: 233d e43d 298b e4bb 17dd e93d 0fad 02be
00000080: ac16 833c 48ed 6b3d c541 443e 505c 5ebb
00000090: 8232 203e 1110 b43d f959 063d 8394 a83d
000000a0: 2ee3 1ebd 8401 35bd a200 363b 509f 09be
000000b0: 57cf 3b3e efe5 94bc dbd0 273e 7fab 0d3e
000000c0: 95ab a9bc e243 e9ba ae15 dd3d 039f ab3d
000000d0: cd88 02be 9dbe 453d 9c96 79bd 2b8c c4bd
000000e0: d774 553c f15d 04bc a9bc 4abd cdc5 743d
000000f0: 3818 7c3d d058 54bd 9716 843d 4d0b 863d
-0.14148638 -0.092891574 0.038388208 0.024318293 0.17783312 0.09463209 -0.15562324 -0.010983896
0.13252553 0.11905775 0.21383832 -0.025738426 -0.12907186 -0.13448149 -0.008505732 -0.091644295
0.010910227 -0.0042563225 0.17999811 -0.007292572 -0.0077494737 -0.13653895 -0.0026296778 -0.15669686
0.07298506 0.13548331 0.19676445 0.12600622 0.111444734 -0.006974597 0.11419123 -0.12761329
0.016002022 0.057599336 0.19165714 -0.0033929534 0.15644267 0.08792127 0.03280065 0.08231451
-0.038790874 -0.0441909 0.0027771373 -0.13439679 0.18340813 -0.018176047 0.16388266 0.13834952
-0.0207117 -0.001779672 0.10795151 0.083799385 -0.12747498 0.048277486 -0.060934648 -0.095970474
0.013028345 -0.008079038 -0.049496327 0.05975895 0.061546534 -0.05184251 0.06449621 0.06545124

output_layers.3.weight f4 [32, 64]
00000000: fd23 0bbd bc94 8cbd 74f7 04be 760d 62bd
00000010: b4d2 5f3d 6f8d 03be 5af1 0fbb fc9e ed3b
00000020: 9785 bbbd 1f5b 02be 3ee4 23bd d681 c8bd
00000030: 1998 373d c6e0 6639 c9d0 433d df71 a83c
00000040: 3eb0 883c 296e 11be 0b60 be3b 28c6 403d
00000050: 75de a53d 0972 e7ba 5e0e 0ebe 4075 ad3d
00000060: 293d 84bc fd39 06be 3b15 eb3c f8b9 babd
00000070: 4759 4fbc 1749 b2bd caf0 7b3c 307a aebc
00000080: 67c8 4cbb c382 a3bd 1a02 e0bd cf30 26bd
00000090: 7360 82bc 6afd 66bd 9af8 d8bd 6b5f 1d3d
000000a0: fcb9 fabd 14fd bb3c 8796 57bd de79 ac3c
000000b0: 4791 9c3c ee9e aa3c 2bcf 4abd eebe 6c3d
000000c0: 25a8 3abb 2752 c5bd baf9 3bbc 0c36 efbc
000000d0: a48d b53d 7027 743d 41b6 9cbd 7b13 8dbd
000000e0: 7217 d83d ce4f 98bc 27b4 04be 0f64 b03d
000000f0: cf5b ec3c 7787 ac3d d1ac 09be dff5 89bd
00000100: ca73 3cbc 5706 3abd fddf d23d 91fc 023d
00000110: 2f41 bfbd 1b49 adbc aa87 d3bc 81de b0bd
00000120: b1f4 82bd dfd8 a4bd 4c3e f73c b09b 1d3b
00000130: 2654 203d 7375 e33d 2df8 7c3d 7a1e 4cbd
00000140: 430a c33d e2f2 3e3d 0a7d fbbd bab2 e5bd
00000150: 017c ebbd abdc f33c 6e1b 4abc af97 1fba
00000160: 1051 753c bb7a f1bd 4034 9dbd 1d27 27bd
00000170: ef10 673d 37df dd3c 5f48 863b 6f08 70bd
00000180: aa65 753c 0a80 c83d 998b a5bb 7393 90bd
00000190: 3937 14be 21b9 cbbd fbd9 96bd f271 b43d
000001a0: 7839 593c 7e2c 88bd 9c21 9f3c 564f 66bc
000001b0: 0f6c 4abd 0c8c babd cc5d d33d b94b 453d
000001c0: ce3c c2bd 0ff8 513d 4a56 09be d4ec fbbc
000001d0: 99a4 dbba 00ad 6ebd dd5b e3bd 6ea7 e83d
000001e0: 3647 a0bd 7503 a53c e69f b13c fa1a 243d
000001f0: 9d8a 363d 6e9c 71bd 3c9f 2e3d c306 e1bd
00000200: 7256 67bc c353 ea3b 08ee 01bd aee2 e83b
00000210: 9f78 c13d 03a3 87bc e7f2 53bd 0beb d1bd
00000220: 7612 b6bb 2508 f5bd 2c1f 123d f770 bcbd
00000230: 64fd cabd e07a 71bd 8d5f 3c3d 9e38 bc3d
00000240: 0f6b 60bd f591 a03d 73ce d3bd a776 abbd
00000250: f7f1 bfbd ea30 e3bd eae0 423d da64 a2bd
00000260: e83b a53d faa6 47bd ce1f 393d 6706 3dbd
00000270: 5fc2 31bd 2547 80bd 0f74 5abd 67c2 0abe
00000280: 86a7 efbd a2ec 88bd 1691 64bd 5899 81bd
00000290: d4c9 cf3b a722 583d f752 86bd 9f56 b1bc
000002a0: c7a9 81bd a395 f3bd 74c0 2b3d 911c cf3c
000002b0: d202 d13c fb24 5f3d dfab 63bd 2448 d23c
000002c0: 0659 c33d a606 d7bd e34d 0bbe 42cb ce3d
000002d0: e28a cc3d 9b22 4c3c a8f8 03be d73c d83c
000002e0: c112 993d ca18 dbbd 1aff 503a c239 f2bb
000002f0: 8d95 d5bd 8a7e a7bd 0aa0 45bd f26e bcbd
00000300: e4d1 9ebd 6e64 e43d dbea 83bd b27d 95bb
00000310: cb0b 1fbd f814 bbbd 17df 36bd ab34 17ba
00000320: 85cb 563d b700 4c3d d81d 573d b871 56bd
00000330: 6f6e f43d 4a89 143e 18dd b2bd c02f ecbc
00000340: a70e bb3d 83f6 1e3e 0743 33bd c4d0 bbbc
00000350: b822 1b3e 6d0a edbc 2611 4f3d 71da b7bd
00000360: 112a 353d 4d0b 903d 8598 aebd 2d54 1f3e
00000370: b6d1 153d b98b 103e 6ac9 78bd ed46 603d
00000380: 7407 95bd 3e57 c23d 0385 21bc 48ce 043e
00000390: c699 afbd 5bb7 003e 4157 b13d 1525 1d3c
000003a0: a059 7e3d 749a 0f3e b5a3 81bd 44f2 98bd
000003b0: 7690 dc3d 9004 86bd 313b c23d fe1d 083e
000003c0: f2a9 1a3e 2eef c93b 60af b6bc 6aee 093e
000003d0: a21c e73d b93a c73d 8233 7d3d d40c 1a3e
000003e0: 5856 0f3e c953 173d 47e8 073d 6dcb 733d
000003f0: 921a 203d 9117 5cbd 8671 1b3e 5073 43bd
-0.033969868 -0.06864306 -0.12985021 -0.05518862 0.0546443 -0.12846921 -0.0021963925 0.0072516184
-0.091563396 -0.12730072 -0.04001259 -0.09790389 0.044822786 0.00022018244 0.047806535 0.02056211
0.016685601 -0.14202179 0.005809789 0.047063977 0.08099071 -0.0017657886 -0.13872668 0.08469629
-0.016142445 -0.13108058 0.028696647 -0.09117502 -0.012655563 -0.08705347 0.015377233 -0.021298498
-0.0031247379 -0.07983925 -0.10937901 -0.04057389 -0.015915131 -0.05639402 -0.10594292 0.038421076
-0.12242505 0.022947825 -0.05263379 0.021054205 0.019112242 0.020827737 -0.049513977 0.057799272
-0.002848157 -0.0963481 -0.011473114 -0.029200576 0.088649064 0.059607923 -0.0765195 -0.06888481
0.10551347 -0.018592741 -0.12959348 0.08612835 0.028852371 0.08424275 -0.1344483 -0.06736349
-0.011502216 -0.045416202 0.102966286 0.031979147 -0.09338605 -0.021153023 -0.025821526 -0.08636189
-0.063943274 -0.080491774 0.030181073 0.0024049096 0.03914275 0.11106386 0.061760116 -0.049833752
0.09523442 0.04661835 -0.12279709 -0.1121573 -0.11498261 0.029768309 -0.012335641 -0.0006087971
0.01497294 -0.11790987 -0.076759815 -0.040808786 0.056412634 0.027083976 0.004097983 -0.058601793
0.014977852 0.097900465 -0.0050520417 -0.07059374 -0.14474191 -0.0994742 -0.07365795 0.08810796
0.0132583305 -0.06649111 0.019425206 -0.014057001 -0.04941946 -0.09108743 0.10320625 0.048167918
-0.09484254 0.051261958 -0.13411823 -0.030752577 -0.0016757428 -0.058270454 -0.11101506 0.1136006
-0.078260824 0.02014325 0.02168269 0.04006479 0.044565786 -0.058987074 0.042632326 -0.10987618
-0.014119731 0.0071510985 -0.031721145 0.0071071004 0.09446835 -0.016557222 -0.05174532 -0.10249909
-0.0055564 -0.11964444 0.03567426 -0.09201234 -0.09911612 -0.058955073 0.04598956 0.09190486
-0.0547896 0.07840339 -0.103421114 -0.083722405 -0.09372323 -0.11093314 0.047577776 -0.07929392
0.08068067 -0.048743226 0.045196347 -0.046148684 -0.043398257 -0.0626357 -0.05333334 -0.13550721
-0.117018744 -0.06685759 -0.055802427 -0.06328076 0.0063411985 0.052767422 -0.06558793 -0.02164775
-0.063312106 -0.11893775 0.041931584 0.025282176 0.02551404 0.054478627 -0.05558383 0.025669165
0.09538464 -0.10499315 -0.1360393 0.10097362 0.09987427 0.012459422 -0.12887824 0.026396198
0.0747428 -0.106980875 0.00079725834 -0.007392139 -0.10428915 -0.08178432 -0.04824833 -0.09200849
-0.07754877 0.11151968 -0.064412795 -0.004562103 -0.038829606 -0.09134859 -0.04464635 -0.0005768041
0.052440185 0.04980537 0.052518696 -0.052354544 0.11935126 0.14505497 -0.087335765 -0.028831363
0.09133654 0.15523724 -0.043765094 -0.022926696 0.15149963 -0.028935635 0.050553463 -0.08977211
0.04422957 0.070334055 -0.085251845 0.15559454 0.03657695 0.141158 -0.06073896 0.05475514
-0.07276812 0.094892964 -0.009858373 0.12969315 -0.08574252 0.12569945 0.086592205 0.009591361
0.06209719 0.14023763 -0.06330053 -0.074680835 0.10769741 -0.06543839 0.09483946 0.13292691
0.15103891 0.0061625456 -0.022300422 0.13469854 0.11284758 0.09727997 0.0618167 0.15043956
0.13997781 0.036945138 0.0331805 0.059520174 0.03908784 -0.053733412 0.15180025 -0.047717392

output_layers.3.bias f4 [32]
00000000: b4d6 26bd b422 f0bc 18ec c63d f8e7 0fbd
00000010: b040 60bd c919 543d d4be 07ba 23df f9bd
00000020: ce5c a03d ac55 89bd 52e3 473d 08be f9bd
00000030: 8003 e93d baea c0bd ec6d 73bd 0cd9 02bd
00000040: 365e 173e a1f4 a3bd aa8e e8bd 7a50 1d3e
00000050: 4e8f 0abe 247a 803d 9bb1 e93c ca28 fcbc
00000060: 7dba d13d c7e9 4dbd ad21 8dbd 489e f6bc
00000070: b17b 63bd f4ab 7bbd 2427 f6bc 86f3 f63d
-0.0407321 -0.029313423 0.09713 -0.035133332 -0.05474919 0.051782403 -0.0005178277 -0.12200763
0.07830201 -0.06705794 0.048800774 -0.12194449 0.11377621 -0.094197705 -0.059431 -0.031945273
0.14782032 -0.08005644 -0.11355336 0.1536273 -0.13531229 0.062732965 0.028527072 -0.030781168
0.10240648 -0.050271776 -0.06891189 -0.030104771 -0.055537883 -0.061443284 -0.03004796 0.12058167

output_layers.6.weight f4 [2, 32]
00000000: 63c6 bb3d f147 a23d b28b fe3d 05ef 13be
00000010: 3ae8 013e 55be 48bb c17b 3cbe bc7b 0f3e
00000020: 4454 ab3d 0835 92bd 7d7e e83d 4632 963d
00000030: bb4e bd3d 8159 363c ee63 743c 1e79 afbc
00000040: bc4c 90bc 31cd 74bc 74ef 1ebe eee0 1abd
00000050: 6eeb 05be 3404 e83d 2e00 d1bd e9dd 1fbc
00000060: a291 3bbe 7e34 3cbe 62d9 96bc 55f1 36bd
00000070: c239 ec3d 4031 053e 8559 9c3c e3fa d9bd
00000080: 27a7 013e c8ea 44bd 3429 5a3d d52f 30bd
00000090: 4625 f7bc ceea a93d f536 203d a9e1 a4bc
000000a0: 3664 a4bd 152a 983d 4801 2abe a32b 243e
000000b0: a7fb 59be f671 673c 6922 1e3e 4473 e0bd
000000c0: 0314 50be 9a14 8c3d ad23 bd3c 8694 45be
000000d0: 6ac5 813d 3ba8 49be 5fd8 393d 8d49 52be
000000e0: 1c63 40be dd9c 103d 5188 fa3d b35d 7d3d
000000f0: 82ae 5f3d 89ba 38be 7f13 163e e4c6 2cbe
0.09168699 0.07923878 0.124289885 -0.14446647 0.12686244 -0.0030631025 -0.18406583 0.14012045
0.08365682 -0.07139021 0.11352251 0.07333808 0.09243532 0.011129738 0.014916403 -0.021420058
-0.017614715 -0.0149415 -0.15521032 -0.037812166 -0.1307809 0.11328927 -0.102051124 -0.009757497
-0.18317273 -0.18379399 -0.018414203 -0.044663746 0.11534454 0.13007069 0.019085655 -0.10643556
0.1266142 -0.048075467 0.05326195 -0.043014366 -0.03016914 0.082967386 0.03911491 -0.020127134
-0.08026926 0.074299015 -0.16602051 0.16032271 -0.21287404 0.0141262915 0.15442814 -0.10959485
-0.20320134 0.06839867 0.0230883 -0.19294938 0.06336482 -0.19693081 0.045372363 -0.2053587
-0.18787807 0.035305846 0.122330315 0.061856937 0.054609783 -0.18039908 0.14655875 -0.16872746

output_layers.6.bias f4 [2]
00000000: 900b f33d 282d b73d
0.1186744 0.0894416

exp_avg f4 [96, 15]
00000000: b618 893a e251 893a a079 893a 32a6 893a
00000010: feb3 ebb9 fee5 7937 01e5 cfb8 31b8 deb8
00000020: 5b12 83b9 db6f 593a 7d61 e1b8 668b d5b8
00000030: 0000 0000 16d6 1ab9 c293 80b8 f002 49ba
00000040: 40ba 48ba 7d28 49ba f960 48ba e6b8 e039
00000050: 9043 3639 53d2 3cb7 4a53 7ab8 69a7 4839
00000060: 73ef 46ba df3d 4339 c476 5339 0000 0000
00000070: f35e 8439 ddad 2239 1105 5b3a bb53 5c3a
00000080: 8631 5d3a 7c8f 5d3a bf77 a8b9 2540 2239
00000090: b074 82b8 f51a e0b8 0b2e 51b9 ce65 243a
000000a0: 52e9 47b8 f138 bb38 0000 0000 5f34 0b37
000000b0: bdce 8238 247b 20ba fd33 22ba 76b3 22ba
000000c0: 7f0f 23ba 0710 e239 9acd eeb7 9faa 21b9
000000d0: e63a 1eb9 b832 6439 df0b 09ba a29d 4039
000000e0: badc 6939 0000 0000 814b 8639 c2ab 4039
000000f0: 3646 883a aa8e 873a 7fb8 853a 7b12 863a
00000100: bd7b 6237 c86a 2639 742c f7b9 71c6 0aba
00000110: 625e a039 64e3 583a 435e 8e39 8deb c739
00000120: 0000 0000 b542 e339 939d b939 2659 eaba
00000130: a7b8 e6ba e517 e9ba 5aa1 e5ba 1bc8 893a
00000140: badc 0c3a c89c c239 f1e8 7439 a508 183a
00000150: 6ebf f6ba 5d02 ec39 c0ab d439 0000 0000
00000160: bd08 1b3a 2119 c239 d3b9 f9b8 7280 f9b8
00000170: d4a9 fdb8 18bd fbb8 0b24 9e38 5b88 9035
00000180: a89b 10b7 40ee 19b7 af69 0338 e299 d6b8
00000190: 8470 d037 f8b8 d737 0000 0000 5147 1738
000001a0: f453 cd37 0a20 e33a 46e8 e23a 03e2 e13a
000001b0: 6acd e13a 0348 e0b9 4405 24b8 3978 9db8
000001c0: 057e 8bb8 9737 ac38 7c79 b43a c91d 5338
000001d0: b56f 0338 0000 0000 b930 6938 493f 5738
000001e0: c7f1 9139 6396 9239 781a 9439 ecef 9439
000001f0: ee07 10b8 3f48 4e39 b11a b737 c1fb 05b8
00000200: b35d fbb7 1c75 bf38 19d7 3838 b41f c638
00000210: 0000 0000 29fc 9c38 47de b038 0f77 58ba
00000220: 33aa 54ba fb30 56ba 357b 52ba bee9 0e3a
00000230: 04a4 b839 9cb8 8739 0d59 3139 0c1c a739
00000240: b675 3aba f4d9 8039 7f49 8b39 0000 0000
00000250: a76b b439 3324 7b39 adaa 673a aca1 6a3a
00000260: 897d 653a d0ba 683a b98e 3039 34e5 da39
00000270: f149 4538 60aa 8cb8 0f3b dc39 4da6 093a
00000280: c0a6 9139 40f8 b639 0000 0000 c2d6 d639
00000290: c52b 9a39 5a90 2539 dc87 2739 8247 2739
000002a0: a527 2839 c1c9 15b8 0f42 7338 e659 6137
000002b0: ae6f 14b6 6979 e2b7 0616 3938 a023 85b5
000002c0: 67b6 9537 0000 0000 a292 1337 7146 5c37
000002d0: decf 28b9 bdf0 20b9 f7a2 26b9 1c32 21b9
000002e0: 713c 0e39 2504 3f38 d587 5438 01fc 2538
000002f0: ee93 d838 6373 50b9 d047 9638 f8b9 a938
00000300: 0000 0000 28e8 f138 0d95 c238 51ce 6539
00000310: 237a 6539 f541 6439 e93b 6439 08a6 83b8
00000320: 8f03 ce37 c968 ecb7 753b 16b8 ffb2 beb6
00000330: 10d8 3339 2abf 6cb7 c3a7 2338 0000 0000
00000340: ef23 1238 51db af37 fdc2 83ba 7a56 82ba
00000350: 9db5 81ba ee87 80ba 536e 1b3a 5dca 543a
00000360: 404c a939 4767 e238 2a6f 8739 19b1 96ba
00000370: 10f0 a939 a9d9 d739 0000 0000 718c 0c3a
00000380: 50a9 c539 7b31 f6b9 3e8c edb9 34e4 f2b9
00000390: febb ecb9 17d2 b639 6cbf 5539 f8c1 6139
000003a0: c854 2d39 da69 3539 44a7 27ba 0118 3f39
000003b0: b843 5639 0000 0000 f5d6 7639 ca27 0639
000003c0: 5184 0a39 b51a 1639 e00d 0d39 4c69 1839
000003d0: 0bf3 1b39 6df3 4039 c46a 0c39 1369 b638
000003e0: bdf9 0a39 cb60 48b9 b159 0239 de09 fa38
000003f0: 0000 0000 6be6 2739 7282 a438 dd83 c1ba
0.0010459635 0.0010476673 0.0010488518 0.00105018 -0.00044956798 1.4895106e-05 -9.9131845e-05 -0.00010620093
-0.00024999943 0.0008294561 -0.00010746995 -0.000101825965 0.0 -0.00014766338 -6.131038e-05 -0.0007667979
-0.0007657148 -0.0007673575 -0.00076438446 0.0004286237 0.00017382042 -1.1254643e-05 -5.9682214e-05 0.00019135851
-0.00075887813 0.00018619698 0.00020166772 0.0 0.00025247745 0.00015514293 0.0008354942 0.0008404811
0.00084378605 0.0008451862 -0.00032132675 0.0001547342 -6.220618e-05 -0.000106861735 -0.00019948946 0.00062712736
-4.7662594e-05 8.927461e-05 0.0 8.297239e-06 6.237391e-05 -0.0006121865 -0.00061875564 -0.00062065513
-0.00062202656 0.0004311802 -2.8467552e-05 -0.00015417718 -0.00015089996 0.00021762669 -0.0005227904 0.0001836927
0.00022302839 0.0 0.00025614726 0.00018374532 0.0010396901 0.00103422 0.0010202079 0.0010228896
1.349946e-05 0.00015870773 -0.0004714463 -0.00052938523 0.000305879 0.000827363 0.0002715458 0.00038131737
0.0 0.00043346515 0.00035403352 -0.0017879352 -0.0017602638 -0.001778361 -0.00175194 0.0010511907
0.0005373467 0.00037119375 0.00023356431 0.0005799628 -0.0018825361 0.00045015189 0.00040563755 0.0
0.0005914083 0.00037021286 -0.00011907858 -0.0001189717 -0.00012095613 -0.00012003834 7.5407406e-05 1.0768521e-06
-8.61931e-06 -9.174983e-06 3.133126e-05 -0.00010232978 2.4847926e-05 2.571613e-05 0.0 3.6067624e-05
2.4476998e-05 0.0017328274 0.0017311655 0.0017233494 0.0017227356 -0.00042778262 -3.910555e-05 -7.5087366e-05
-6.6515095e-05 8.2119535e-05 0.0013769115 5.033406e-05 3.133687e-05 0.0 5.5596905e-05 5.1318933e-05
0.00027836693 0.00027959337 0.0002824848 0.00028407515 -3.433966e-05 0.00019672605 2.182773e-05 -3.1944135e-05
-2.9965164e-05 9.129403e-05 4.4069344e-05 9.447281e-05 0.0 7.485628e-05 8.4337364e-05 -0.0008257487
-0.000811252 -0.0008170751 -0.00080292235 0.00054517004 0.00035217416 0.0002588675 0.0001691321 0.0003187362
-0.0007112877 0.0002457645 0.00026566905 0.0 0.00034412483 0.0002395071 0.00088373834 0.00089504826
0.0008754363 0.0008877935 0.00016837836 0.0004175097 4.7037323e-05 -6.707455e-05 0.00042005672 0.0005250916
0.00027780794 0.00034898706 0.0 0.00040977268 0.0002940578 0.00015789401 0.00015976973 0.00015953
0.00016036497 -3.5712266e-05 5.7997237e-05 1.3431976e-05 -2.2118725e-06 -2.6997835e-05 4.4127948e-05 -9.91964e-07
1.7847122e-05 0.0 8.796023e-06 1.3129423e-05 -0.00016099165 -0.00015348471 -0.00015891703 -0.00015372824
0.00013564691 4.554181e-05 5.0671242e-05 3.9573762e-05 0.00010327237 -0.0001987941 7.1659335e-05 8.093187e-05
0.0 0.00011535018 9.278404e-05 0.00021916 0.00021884641 0.00021768345 0.00021766093 -6.2774925e-05
2.455877e-05 -2.8182187e-05 -3.581816e-05 -5.683279e-06 0.0001715126 -1.4111205e-05 3.901847e-05 0.0
3.484258e-05 2.0963753e-05 -0.0010052618 -0.0009943985 -0.0009896044 -0.0009806135 0.00059292204 0.00081173127
0.00032291003 0.00010795757 0.0002583203 -0.0011496871 0.00032413052 0.00041170165 0.0 0.00053615036
0.00037700916 -0.00046957642 -0.0004530865 -0.00046327861 -0.00045153493 0.00034870274 0.00020384573 0.00021529931
0.00016530149 0.00017300938 -0.0006395469 0.00018224122 0.00020433858 0.0 0.00023540466 0.00012794058
0.00013209997 0.00014315064 0.00013451977 0.00014535076 0.00014872492 0.0001840123 0.00013391214 8.698008e-05
0.0001325374 -0.00019109545 0.00012431179 0.00011922767 0.0 0.00016012198 7.844427e-05 -0.001476403

exp_avg_sq f4 [96, 15]
00000000: dac3 e332 701e e432 0cc9 e432 371b e532
00000010: 2edf a431 b639 072f f255 eb2f c4a2 0030
00000020: 5f2e cf30 c0d1 9832 f7b3 a32f dece a12f
00000030: 0000 0000 47d6 1630 487f 192f 88c9 7932
00000040: b0c5 7932 db15 7b32 8191 7932 5991 9831
00000050: 571f 4c30 af9f 542f 851f 782f 282e 7230
00000060: a13d 7732 585c 4f30 1634 6f30 0000 0000
00000070: 7d99 bc30 9eae 1b30 9492 7432 7743 7732
00000080: 8390 7832 2a78 7932 0153 0d31 29f1 0530
00000090: 01dd 032f 6305 972f dc17 5c30 49c9 1032
000000a0: 9c6b 9b2e 29ad 3c2f 0000 0000 6662 ad2e
000000b0: 135b b82e e961 2232 0148 2532 c085 2632
000000c0: b03f 2732 4dce 8e31 33cf bc2f 9594 2530
000000d0: 194b 1030 268f 9e30 f4bb ff31 c0e3 3d30
000000e0: dc94 8430 0000 0000 6ca8 b230 a915 3830
000000f0: 0972 b632 5272 b432 f9a6 af32 9f8a b032
00000100: 584e 052f e1c9 3330 18cd 9631 2449 bb31
00000110: bb49 0531 5fbf 7e32 647a c930 83c2 4031
00000120: 0000 0000 19c4 7b31 7070 2431 d705 0034
00000130: b12c fc33 bdd8 ff33 b07d fb33 4ace 1633
00000140: 4a83 de31 d883 4a31 fd8f a130 9657 2f32
00000150: db10 f633 c18b b831 6236 a531 0000 0000
00000160: ad76 2032 6805 9231 63d8 d52f bac4 d42f
00000170: 0b41 da2f e5a7 d62f 1eb8 312f 778d dc2d
00000180: 01e9 362d 9c5e e02c c2ee 192e 9595 a42f
00000190: 8a92 d02d 04a6 eb2d 0000 0000 77dd 582e
000001a0: a852 d92d eddf 8d33 da89 8d33 8190 8c33
000001b0: ef71 8c33 75bf b731 13e6 7a2e 72e6 242f
000001c0: 67a5 192f 32cd 2d30 afdf 4533 31fa 662f
000001d0: cc1d 912f 0000 0000 b31f 832f ec88 502f
000001e0: 9202 5031 f84c 5331 18de 5331 551c 5731
000001f0: bb9c 282f 1a66 8a30 621b 672f 69c9 1b2f
00000200: 7208 042f f534 9530 54c2 932e 37c4 952f
00000210: 0000 0000 b7f8 452f b658 492f f62b 9e32
00000220: 9547 9a32 1b0e 9c32 bc2d 9832 c340 f431
00000230: 409c 2531 668e b230 418b 1a30 3667 1a31
00000240: e1c0 5832 f114 b630 d3b6 d130 0000 0000
00000250: adc1 3031 fb51 ac30 c2d6 8532 86fd 8832
00000260: 0c5e 8332 e8ee 8632 3c96 2d30 88d1 6531
00000270: ddd9 c32e 891a 042f 2bc2 6a31 9ce4 dc31
00000280: 70a4 ce30 f034 2131 0000 0000 940a 5e31
00000290: a135 e430 4e23 4431 1c60 4531 b20c 4431
000002a0: aeb4 4531 5f61 182f ad32 f52e 29dc 062e
000002b0: 19af 152e e5e3 b42d 5c38 ce30 9ccd fe2c
000002c0: 3afb 862e 0000 0000 09b9 3e2e 57ff 5a2e
000002d0: 5519 8d30 3d03 8730 a4d7 8b30 ff1e 8830
000002e0: 4ac5 f22f 7399 c02e 0136 b02e 22d0 4e2e
000002f0: d829 7a2f e93d 8830 a594 f92e 0aff 202f
00000300: 0000 0000 c77e 9b2f f776 4b2f c143 8930
00000310: 7170 8930 bd12 8830 a750 8830 9f5d f02e
00000320: 01e4 1e2e 26a3 4b2e 3663 4b2e 7532 d02d
00000330: 7fb9 2a30 c53e a82d 3451 3c2e 0000 0000
00000340: 6d3d 132e cf7d 8c2d 42a3 3133 87a8 2f33
00000350: da68 2e33 7689 2c33 9f03 5632 cad9 6032
00000360: 59fa 1631 dfad 0130 fe2b 0e31 50e2 3333
00000370: 3752 4431 1cc9 9431 0000 0000 b8bc fc31
00000380: aaa6 7a31 52fb 4832 8a68 4332 4ad0 4632
00000390: 11b4 4232 01c4 9431 bc07 9030 b9ab 7e30
000003a0: 8e89 1f30 8b7b 8e30 812a 5a32 b9d5 7e30
000003b0: 217d 8f30 0000 0000 fb4a cc30 c212 0630
000003c0: c419 e530 0e57 ef30 d337 eb30 efdb f530
000003d0: dce1 4930 b36c 9930 ee18 f92f 15ee 4c2f
000003e0: e589 0230 af4d d130 9110 be2f ae41 ab2f
000003f0: 0000 0000 003a 2130 0a44 452f 31fd 9a33
2.6515341e-08 2.6556535e-08 2.6634119e-08 2.6671485e-08 4.798401e-09 1.2298682e-10 4.280732e-10 4.679743e-10
1.5074412e-09 1.7790512e-08 2.97774e-10 2.9432717e-10 0.0 5.487419e-10 1.3960488e-10 1.45395305e-08
1.45386565e-08 1.4615092e-08 1.4526791e-08 4.4403063e-09 7.4259304e-10 1.9338019e-10 2.2566667e-10 8.810468e-10
1.4391305e-08 7.543739e-10 8.702171e-10 0.0 1.3722424e-09 5.663682e-10 1.4235997e-08 1.4392632e-08
1.4468358e-08 1.452103e-08 2.0565383e-09 4.872783e-10 1.1992897e-10 2.7470567e-10 8.006944e-10 8.42767e-09
7.067699e-11 1.7160019e-10 0.0 7.884608e-11 8.383529e-11 9.451903e-09 9.620636e-09 9.692883e-09
9.73516e-09 4.1561976e-09 3.4344225e-10 6.02378e-10 5.2493615e-10 1.1536698e-09 7.4428446e-09 6.908145e-10
9.646572e-10 0.0 1.2999073e-09 6.696959e-10 2.1239446e-08 2.1006745e-08 2.0448612e-08 2.0552134e-08
1.2124113e-10 6.540671e-10 4.388891e-09 5.4507314e-09 1.9395958e-09 1.4828259e-08 1.465946e-09 2.8050244e-09
0.0 3.6636776e-09 2.3929054e-09 1.1923053e-07 1.1742794e-07 1.1913787e-07 1.1710961e-07 3.5112215e-08
6.475976e-09 2.9469813e-09 1.1755216e-09 1.0206255e-08 1.1458334e-07 5.370993e-09 4.8083146e-09 0.0
9.3402095e-09 4.249774e-09 3.8898226e-10 3.8702358e-10 3.9700185e-10 3.904567e-10 1.6163468e-10 2.5073927e-11
1.03972395e-11 6.3769667e-12 3.5000232e-11 2.993771e-10 2.3711939e-11 2.6790133e-11 0.0 4.9309414e-11
2.470675e-11 6.606556e-08 6.590899e-08 6.545543e-08 6.5399824e-08 5.347767e-09 5.7047766e-11 1.4997584e-10
1.3974032e-10 6.3228633e-10 4.6071076e-08 2.1007264e-10 2.6396518e-10 0.0 2.3851285e-10 1.8966134e-10
3.0269445e-09 3.0748293e-09 3.0830787e-09 3.1302723e-09 1.5335193e-10 1.006984e-09 2.1019056e-10 1.4168723e-10
1.200833e-10 1.0856228e-09 6.719306e-11 2.724236e-10 0.0 1.8005407e-10 1.831236e-10 1.8413612e-08
1.7960511e-08 1.8167205e-08 1.7715927e-08 7.108697e-09 2.4099478e-09 1.2991677e-09 5.6222765e-10 2.2468618e-09
1.261671e-08 1.3248195e-09 1.5258713e-09 0.0 2.5721463e-09 1.2537947e-09 1.5580898e-08 1.5947773e-08
1.5293175e-08 1.5708295e-08 6.315053e-10 3.344299e-09 8.9062736e-11 1.2014757e-10 3.4161853e-09 6.4288326e-09
1.5035209e-09 2.3458675e-09 0.0 3.2311265e-09 1.6604426e-09 2.8541822e-09 2.8721905e-09 2.852897e-09
2.8769978e-09 1.3858913e-10 1.1150312e-10 3.0663614e-11 3.4034196e-11 2.0564836e-11 1.5004491e-09 7.2419414e-12
6.138241e-11 0.0 4.3365343e-11 4.979425e-11 1.02663e-09 9.823463e-10 1.017487e-09 9.904112e-10
4.4159726e-10 8.758407e-11 8.0131464e-11 4.7023836e-11 2.2752233e-10 9.912898e-10 1.13496136e-10 1.4642523e-10
0.0 2.8284416e-10 1.8505007e-10 9.987319e-10 1.000002e-09 9.900628e-10 9.918225e-10 1.0930567e-10
3.612755e-11 4.630176e-11 4.6244973e-11 2.366927e-11 6.2109246e-10 1.9127264e-11 4.2818374e-11 0.0
3.3478487e-11 1.5972028e-11 4.1359506e-08 4.0898637e-08 4.0607894e-08 4.017189e-08 1.2457263e-08 1.30880355e-08
2.197018e-09 4.717701e-10 2.0688726e-09 4.1882515e-08 2.8568488e-09 4.3302304e-09 0.0 7.35562e-09
3.6474526e-09 1.1698676e-08 1.1374263e-08 1.1572476e-08 1.1333229e-08 4.32965e-09 1.0479577e-09 9.2648694e-10
5.803934e-10 1.0366973e-09 1.2698934e-08 9.270838e-10 1.0440183e-09 0.0 1.4864264e-09 4.877557e-10
1.6669266e-09 1.7414281e-09 1.7114367e-09 1.7888605e-09 7.344434e-10 1.1163109e-09 4.531055e-10 1.8638276e-10
4.7489684e-10 1.522883e-09 3.457257e-10 3.1151387e-10 0.0 5.865388e-10 1.7941218e-10 7.217239e-08
