logs/bandit_training/version_2/checkpoints/epoch=199-step=400.ckpt (torch, 121243 bytes, 30 tensors)

gru.weight_ih_l0 f4 [96, 15]
00000000: 94aa 3abe a3bb a2bd fe04 823c c4cf 953d
00000010: 1b66 12be 433c 923a 95d0 bebc 2826 583c
00000020: 044a 843d b21a cebd 23d7 5a3c 19c1 14be
00000030: f56a 27be 6c51 cf3d 26cb 2bbe 764d 3cbd
00000040: b47e 2f3d 9ccc 413e 30aa 533e 2c9f d9bc
00000050: 4876 1c3e 1bb1 9fbc 48ae 1a3a 1087 473e
00000060: 9ee6 14be 9682 8c3d 6dd4 b93d 2e8e e43d
00000070: 937e 9ebd cc64 1c3e 4b38 8b3d 34e0 a63d
00000080: 017e 03bd 1db2 4e3e 486d 48bc 951d 2b3e
00000090: ca8d 143d 0bfe 8ebc 5826 d03d 35a1 74bd
000000a0: e8df 493e 7d1a 79be 5258 b13c 3ec6 32be
000000b0: 95ee a0bd fd6f 073e 0601 8c3d fa2c b53c
000000c0: 3f1f f2bd aae8 b9bc 1391 023e a22e bd3d
000000d0: 26f3 063e 8e38 77bd b697 c8bd 763b b7bd
000000e0: bc29 40bc 1a0b 06be cf48 a53d 2ec0 03be
000000f0: 4faa b73c 03a6 02be 0f4c 04be 94e8 63bb
00000100: 69c2 ad3d d0ae b2bd 93f4 ce3c 6694 853c
00000110: 99dc 3dbe fb5a c1be cbe2 303d 2209 233d
00000120: af59 2fbe c83a 8e3d ed5a e93d fde1 053c
00000130: fe03 313e a9aa 223d ae93 1d3e 9101 ad3d
00000140: 2982 5a3e 7fdf db3d a8bd 8e3b 39ba e93d
00000150: 82ce a6be d2fa 4abe 04ef 763d a1bf ebbd
00000160: e9e8 353e 4c14 463d 0ad4 adbd fab6 cb3c
00000170: a6f5 04be 13d3 813d d481 2dbb 98c4 59bd
00000180: f10c b43d 8f19 0fbd e32b dc3d 1dc9 fdbd
00000190: 4868 9bbd f3e6 233e b957 eebd a876 febd
000001a0: 0c00 493c 8dcc 263e 73c5 b33c cb43 edbc
000001b0: d9f9 3dbd aa21 aebd 00cf f13d 5184 b13e
000001c0: abda a63e 7469 1ebd fdc1 c4bd 005f 33be
000001d0: 2ab2 563d 76b0 903d bbf9 69be 57e8 56bd
000001e0: 0822 89bd f55e 6fbd fdf7 0dbd 8f73 3e3d
000001f0: 1646 6e3d d9c2 fabc 478a 2b3e c10b f83d
00000200: 21f7 83bd a0a3 b2bc 5bee 7e3d a681 0b3e
00000210: f170 a8bd 6d71 c1bd c93d 1b3c 6a96 39bc
00000220: 0bc1 863d 96c1 243e caab 873e 4523 2ebd
00000230: 242b 873e 53e7 de3d 946e 66be 39e3 d5bd
00000240: 075e 9e3e 9af2 d7bc ed56 63be 3c7e cd3d
00000250: cd5e 46be 48ae cfbc cd67 0f3e 4c26 e33d
00000260: f7b2 05be ff51 523d cd42 f83d 1066 86bd
00000270: 71fe 7c3d d122 9abc 7a7d ad3b bf65 12be
00000280: 2fd6 783d af6c 06be 2e19 f0bd 1f60 1f3e
00000290: 8565 d7bd c156 513e 1e6f ebbd 8fef 2b3e
000002a0: 8736 3f3e 5c09 02be a419 613c a720 cb3d
000002b0: 2852 55bd 7e7b 86be 058a ab3e f78e c2bd
000002c0: c29c 3ebe f94e 013e b329 113d eaed 1dbe
000002d0: 1005 9e3d 6767 43bc db4e 81bc b31e 3a3e
000002e0: e301 da3c 4e9b 943e 0b28 833e 5df2 333e
000002f0: 90e0 6c3e 6ff6 5d3e b53e 8dbd 87aa 0c3e
00000300: 277f 8a3d be02 0abd b86e 0ebe 2c13 713d
00000310: 7454 b1bd f410 d5bc 9d16 a23b 5268 2c3e
00000320: 60af 44be 9657 f4bd 46f7 efbd dd13 2b3e
00000330: 847b 093e 13d6 c53d 9b1c 143e 335f 77bd
00000340: 62b6 ec3d 1770 bfbd 42c0 583e 59ed 353e
00000350: e29a 613e 5731 033e 1133 ae3e 9ab0 223e
00000360: 0352 aa3b 4761 4cbe c1d2 273e 794f 4a3d
00000370: d202 d43d ae42 123e 66cd 9f3c 4245 7b3d
00000380: e984 f1bd 27be e4bd b28a 8c3d 6b72 b1bc
00000390: de8d 1a3d d25e cdbd e281 143e 3571 873e
000003a0: 8222 ac3d adb2 81bb 099b af3d 7a7f 8a3d
000003b0: e3ae e43d e3f4 be3d 8eba c13d 8a34 353e
000003c0: 7bfa 81bc 2597 77bd bffa 85bb 7d18 ebbc
000003d0: c4ec 2c3c 2a2b 2a3e b829 a73d 6af1 09bd
000003e0: c068 d8ba fb3a aebb 8bd5 163e 58ed d63c
000003f0: 5a3a 5c3d f307 663d c46b 92bd 4ac3 1abe
-0.18229133 -0.07945945 0.015871521 0.07315019 -0.14296763 0.0011156875 -0.023292819 0.013192691
0.0645943 -0.100636855 0.013356957 -0.14526786 -0.16349395 0.10122952 -0.16776714 -0.04597231
0.042845443 0.18925709 0.2067039 -0.026565157 0.15279496 -0.01949363 0.0005900604 0.19485116
-0.14541098 0.06860845 0.0907372 0.11159931 -0.07738986 0.15272826 0.067978464 0.08148232
-0.03210259 0.20185132 -0.012233086 0.16710503 0.036268033 -0.017455122 0.101635635 -0.05972405
0.1971432 -0.2432651 0.02164856 -0.17458436 -0.07858006 0.13226314 0.06836133 0.022116173
-0.11822366 -0.02269395 0.12750654 0.0923741 0.13178691 -0.06035667 -0.097945616 -0.08946888
-0.0117287 -0.13090172 0.08070528 -0.1286628 0.022420077 -0.12758641 -0.12919639 -0.0034776079
0.084843464 -0.08724749 0.025263106 0.016306113 -0.18541183 -0.37764725 0.043185037 0.03980363
-0.17124055 0.069448054 0.11394296 0.008171556 0.17286679 0.039713535 0.15388367 0.084475644
0.21338715 0.10735988 0.004356105 0.11412472 -0.32579428 -0.19822243 0.060286537 -0.1151116
0.1776463 0.0483592 -0.08487709 0.024867523 -0.12984332 0.06339087 -0.0026475089 -0.053166002
0.08791531 -0.034936484 0.10750558 -0.12391875 -0.075882494 0.16006069 -0.116378255 -0.12424976
0.012268078 0.16288967 0.021944737 -0.02896299 -0.04638085 -0.08502515 0.1180706 0.34671262
0.32588705 -0.038674787 -0.09607313 -0.17516708 0.052416004 0.07064907 -0.22849171 -0.05246767
-0.06695944 -0.058440167 -0.03466033 0.046496924 0.058172308 -0.030610489 0.16751967 0.12111617
-0.064436205 -0.021806538 0.062239032 0.13623676 -0.08224667 -0.094454624 0.00947518 -0.011327365
0.06579789 0.16089472 0.26498252 -0.042514104 0.264001 0.10883965 -0.2250312 -0.1044373
0.30931112 -0.026360799 -0.22201128 0.10033843 -0.19372101 -0.025351658 0.1400444 0.11091289
-0.13056551 0.05134773 0.12122116 -0.065624356 0.06176609 -0.01881543 0.005294499 -0.14296626
0.060751136 -0.13127397 -0.11723553 0.15564011 -0.1051741 0.2044325 -0.11495803 0.16790603
0.18673144 -0.12698883 0.013739023 0.09918337 -0.052080303 -0.26266092 0.33503738 -0.09499925
-0.18614486 0.12627782 0.035440158 -0.15422788 0.07715809 -0.0119265085 -0.015784672 0.18175773
0.026612228 0.29024738 0.25616488 0.17572923 0.23132539 0.21676038 -0.06896726 0.13736926
0.06762534 -0.03369402 -0.13909423 0.058856174 -0.08658686 -0.02600906 0.0049465434 0.1683667
-0.19207525 -0.11930768 -0.117170855 0.16706796 0.13426024 0.09659972 0.14464037 -0.060393523
0.11558224 -0.09347551 0.2116709 0.17766322 0.2203174 0.1281179 0.34023336 0.1588768
0.005197765 -0.19958983 0.1638899 0.049392197 0.103521004 0.14283249 0.019507121 0.061345346
-0.11792929 -0.11169081 0.068623915 -0.021661004 0.03773295 -0.10027851 0.14502671 0.26453558
0.08405019 -0.0039580674 0.085744925 0.067625955 0.111661695 0.09324052 0.094594106 0.17695823
-0.015866509 -0.060446877 -0.004088729 -0.0286982 0.010554496 0.16618028 0.08162254 -0.033677496
-0.001651071 -0.0053170896 0.14729898 0.026236221 0.053766586 0.056159925 -0.07149461 -0.1511356

gru.weight_hh_l0 f4 [96, 32]
00000000: 3bac 833e a162 2d3e 850b 9e3d 7d42 383e
00000010: af1a a3bd 52fa c2bd 12de 06be eae1 953e
00000020: 52e3 3e3d fb79 f6bd e428 59be 3bfb 863d
00000030: 0caa b8bd 9ca9 663d 2f79 8bbd 3470 43be
00000040: efa6 633e eca9 1a3c 14d9 4b3e 2723 bebd
00000050: 55f6 5e3d be57 6cbe 9d85 463e f8c9 41be
00000060: 1677 46be c649 0f3b 830a 9bbc 40ac 383c
00000070: 644f 073e 7ada 243d 0849 033e 4bb4 493d
00000080: 177c b6bd 1210 6b3e 27eb 0a3e 0c2e 433e
00000090: 527f 103e ef6a 95bd e0f4 b9bd 05f6 b23c
000000a0: a8ed 3c3e 07ba 853e 605e 783d 2750 0abe
000000b0: 9d73 5a3d b13a 5a3e b967 63bd 424b 113d
000000c0: 42aa 5e3e 956b 69be 1932 333e 6da2 76bd
000000d0: 4252 54be c95e 69bd d39a fe3d 2f09 b2bc
000000e0: f147 043e a952 98bd 7871 ef3d 49f4 553e
000000f0: 2cf9 06be 3f3b 133e 87a1 b4bd 9e82 063e
00000100: 6a9a 533e a7d9 7b3e a228 42bd 0fde 19bc
00000110: 3b17 d73c 3185 f63d 9ef4 a4bd 057d 5b3e
00000120: 6dc3 483e bebe 233c 1240 7f3d 12f3 ec3d
00000130: baa9 7ebe dd47 1cbe 3c66 ec3c d00d e63c
00000140: 8f35 04bd 6804 50bd ab4a 393d 2e56 a63d
00000150: 8539 0a3d a370 41be 7f95 4b3e f52d 69be
00000160: 35e1 983d ed17 01bc 02ab b1bd f1d9 94bc
00000170: c0db d0bd c345 17be 07dd 843d 0472 0f3e
00000180: c116 80bd fa54 04be c99b 3f3e 3f74 97bc
00000190: 318d 08be d5e0 debd dc7b c43d 8b25 033d
000001a0: 6d7d df3d 3e32 a6bd 2f4a 2ebb 0b03 563e
000001b0: 9498 11be 7e36 11be b77a 29be 406e 50bd
000001c0: dcb4 403e 29fa bebd db81 a0bd b1d6 5c3d
000001d0: 97bb 40be 8430 353e cddc 09be 93b4 a13d
000001e0: c9a4 b73d 571d c53b 63d1 c3bc e82e 313e
000001f0: 423c 4fbd 8dfb 73bd 90ee 283d 2656 5d3d
00000200: a423 e63d 73ee 383d 5110 843c 9fd0 8b3d
00000210: 74df abbe 9001 98be 9aa2 7ebd c688 78bd
00000220: 0cf0 0bbc 746f b9bd 40a2 023d 7028 fd3d
00000230: 62c9 dbbb 3d08 213e cf8a d83d 6588 e1bd
00000240: 3e9f 033d 7c8f edbc 0273 2dbe c635 3b3e
00000250: 040d 633d 1a7a 9b3e f251 44bc 576b 64be
00000260: ad21 0c3e 6b31 14be 078f 03bd e89e 993d
00000270: f5d9 0f3c fe8b efbc 42c1 57bd ef54 2b3d
00000280: bc58 33be 73bd 803e ecf2 07be 697f 153d
00000290: 25c8 14bd cc91 75bd 3519 2e3c 3e36 1b3e
000002a0: b4f5 393e db62 2a3e a0de 083e aa92 acbc
000002b0: 707d 48ba b660 37bd ac18 343e ab1a e03d
000002c0: b603 af3d bb89 af3d 960a 293e 80f5 2c3e
000002d0: f3d3 8fbd 89de 1e3e 9c47 183e 33f6 033e
000002e0: 364c 50bd c1c8 ea3c c8d6 2ebe 618e d4ba
000002f0: c4f0 053e dd8e ff3b a92b fd3d 2628 cc3e
00000300: ba8e 56bd e7ad 2f3d 4394 7e3d 94ff 543e
00000310: 7915 ca3b 4020 27be 94eb 5d3c 64ff c33d
00000320: 147d dc3d 1fdc 7f3d 891d fdbd ca6a a8be
00000330: 0e60 b0ba b2d9 12bd 4515 d6bc 8a06 09be
00000340: aab1 f63d b08f 6dbe aa37 843e 2b7b 4e3e
00000350: e3dd b7bc 004b 833c 4a02 0c3e 3609 803d
00000360: 8ede 16be f6b5 2c3c 671c a5bd 8696 343e
00000370: fc14 8abd 8ab8 59bd 2e85 213e 0b5b 2c3d
00000380: 067c a23e dd90 133e e147 013e 1379 b53d
00000390: bb45 febd 1905 2dbe 38e3 563e 95ab f83c
000003a0: 93f1 0eba 9a87 ef3d c374 4e3c 7dfd f8bc
000003b0: 826b c1bd d435 5a3e 8601 e8bc 7b4c 5bbc
000003c0: b81c 9f3e 48f7 16be aff6 e93c 8af0 083e
000003d0: 476b f23d 0a5b 67be 3ef3 a03d 8db4 c4bc
000003e0: 53f8 4e3e eeeb 9dbe a649 c4bd a725 52bc
000003f0: 15b1 21be b58d 13bd 4c1a 163e dbe1 463e
0.2571734 0.16932155 0.07717041 0.17994113 -0.07964074 -0.09520401 -0.1317065 0.2927392
0.04660351 -0.12034985 -0.21207005 0.06590887 -0.09016809 0.056314096 -0.06810223 -0.19085771
0.22231649 0.009439927 0.19907027 -0.092840485 0.05443414 -0.23080346 0.19386907 -0.18924701
-0.19381365 0.002186404 -0.01892591 0.011271536 0.13213879 0.040247418 0.12820828 0.049244206
-0.08910387 0.22955349 0.13566266 0.19060534 0.14111069 -0.072957866 -0.09079909 0.021845827
0.18450034 0.2611849 0.060636878 -0.13507138 0.053332914 0.21311451 -0.05551884 0.035472162
0.21744636 -0.22794946 0.1749958 -0.060213495 -0.20734504 -0.05697516 0.12431874 -0.021732895
0.12918068 -0.07437641 0.11691564 0.20893969 -0.13180989 0.1437807 -0.088198714 0.13135764
0.20664373 0.24594747 -0.04740203 -0.009391322 0.026256194 0.12037123 -0.080544695 0.2143441
0.19605799 0.009994207 0.06231696 0.115697995 -0.24869433 -0.15261789 0.028857343 0.028082758
-0.03227764 -0.050785452 0.045237225 0.08121906 0.03374626 -0.18890624 0.19881247 -0.22771437
0.0746483 -0.0078792395 -0.08675195 -0.018170329 -0.10198164 -0.14772706 0.0648747 0.14008337
-0.0625434 -0.12923041 0.18711771 -0.018488048 -0.1333511 -0.10882727 0.09593937 0.032018226
0.10912595 -0.08115052 -0.002659451 0.20899598 -0.1421836 -0.14180943 -0.16550718 -0.050886393
0.18818992 -0.09325058 -0.07837268 0.053915683 -0.1882156 0.17694288 -0.13463135 0.0789577
0.08966977 0.0060154605 -0.023903554 0.1730305 -0.050594576 -0.05956607 0.041243136 0.054037236
0.11237267 0.045149278 0.016121062 0.06826901 -0.3356892 -0.29688692 -0.062166788 -0.060677312
-0.008541118 -0.09054461 0.031893015 0.123612285 -0.0067073563 0.15725799 0.10573351 -0.11012343
0.032134287 -0.028999083 -0.16938403 0.18282232 0.055432335 0.30366594 -0.011982428 -0.22306572
0.13684721 -0.14471976 -0.032118823 0.07501012 0.008779992 -0.029241558 -0.05267454 0.041829046
-0.17514318 0.25144538 -0.13276261 0.03649846 -0.036323685 -0.059953496 0.010626127 0.1515741
0.18160135 0.16639273 0.13366175 -0.021066029 -0.0007648086 -0.044769965 0.17587537 0.109425865
0.0854563 0.08571192 0.16507944 0.16890526 -0.07022848 0.15514578 0.14871067 0.12886886
-0.05085393 0.02866018 -0.1707412 -0.0016216749 0.13080126 0.007799013 0.12361843 0.3987438
-0.05238221 0.042890456 0.062153112 0.2080062 0.0061671105 -0.16320896 0.013544936 0.09570196
0.10766044 0.062465783 -0.12359149 -0.32893974 -0.0013456361 -0.03585214 -0.026133189 -0.133814
0.120456055 -0.23199344 0.25823718 0.20164172 -0.022444671 0.016026974 0.13672748 0.06251757
-0.14733335 0.01054143 -0.08062058 0.17635545 -0.06742284 -0.053154506 0.1577346 0.042079013
0.31735247 0.1441073 0.12625076 0.08860984 -0.12415644 -0.16896476 0.20985115 0.030355254
-0.00054528675 0.11695786 0.01260108 -0.03039431 -0.094443336 0.21309596 -0.028321039 -0.013384934
0.31076598 -0.14742768 0.02856001 0.13373008 0.11836868 -0.22593322 0.07858895 -0.024011875
0.20211916 -0.30844063 -0.0958436 -0.01282636 -0.15790208 -0.036023814 0.14658469 0.19422095

gru.bias_ih_l0 f4 [96]
00000000: 40a5 7fbc f486 f0bb 2a95 4abd d41b e5bd
00000010: 6cc4 25bd 2f14 4f3c 2e34 de3d 8609 4d3c
00000020: b0df a43d 5cc8 61bd 47e0 2a3e 5155 a1bd
00000030: 9af5 2fbe 3699 973d 8eba 0e3d 9e54 993d
00000040: 731a dcbc 20e2 c0bd dc8b a1bd 5f25 833d
00000050: 4910 393e 73d0 e53d a45d 3b3e 694c 5e3e
00000060: c3ac a73d cd66 89bd dff6 963c 0935 003e
00000070: 2aae ccbd b443 b13c 676e c03d c506 6d3e
00000080: 88a0 513e 7b6c fc3d 150d 063e dd9a 1a3e
00000090: f7f2 6f3d 036f 693e 65a1 d2bd 785a b23e
000000a0: 33d6 7f3e dccb 5c3e 21f5 05be d9f3 423e
000000b0: 6bf7 adbd fd2f ce3d 3dd0 1bbe bad9 8e3c
000000c0: 166c 083e d796 0cbe aeba ee3d 6af1 553d
000000d0: d2c5 3f3d 8419 41bd fa1d ec3a 65bc 9c3e
000000e0: f388 153d 5f12 a53d 9ad6 083e 983c 313e
000000f0: e39a 7e3d e419 a93d b6d2 503e af77 073e
00000100: 44dc 583d fcb4 fd3d ff28 703e 6514 1e3e
00000110: 0c0e 983c 7773 d8bd c333 533a f918 433d
00000120: ffb9 103e 7371 a83d 7a03 8dbc edfb ec3d
00000130: a81b 2cbe bfc2 413e d6f5 4bbe 0b82 0ebe
00000140: 0831 263e 7e3e a1bd 646f adbc a2c9 1f3e
00000150: 8382 e73d 0b93 7ebd 2e78 3a3e d697 79be
00000160: 2ad2 e03d 665b 59be f65f c0bd 62b5 8bbd
00000170: b318 433d 779b 683d 472f c03d d90e 2a3d
-0.0156033635 -0.0073403064 -0.04945866 -0.111869484 -0.040470526 0.0126390895 0.10849796 0.012514478
0.080504775 -0.05512272 0.16687118 -0.07877601 -0.17183533 0.074022695 0.03484588 0.074868426
-0.02686808 -0.0941813 -0.07888004 0.06403612 0.18072619 0.11221399 0.1829744 0.21708836
0.081872486 -0.06709061 0.018428264 0.12520231 -0.09994157 0.021638729 0.093960576 0.23147114
0.20471394 0.123253785 0.13090928 0.15098138 0.05858132 0.22796254 -0.1028469 0.34834647
0.24984054 0.21562141 -0.1308179 0.19038333 -0.08494457 0.10067747 -0.15216155 0.017437804
0.13322482 -0.13729416 0.116567 0.052232184 0.046819516 -0.047143474 0.0018014305 0.30612484
0.036507558 0.08060145 0.13363114 0.17308271 0.06215943 0.08256891 0.2039288 0.1322925
0.052944437 0.12388036 0.23453139 0.15437467 0.018561386 -0.10568898 0.00080567243 0.047631238
0.14133452 0.08224764 -0.017213572 0.115714885 -0.16807425 0.18921946 -0.19917998 -0.13916795
0.16229641 -0.078732476 -0.02117128 0.1560426 0.1130419 -0.06215195 0.18209907 -0.24374327
0.109775856 -0.21226272 -0.09393303 -0.068217054 0.047630977 0.056788888 0.093840174 0.041518066

gru.bias_hh_l0 f4 [96]
00000000: 10c0 d3bd 6ccd 093c 52e9 223e 0b6c cfbd
00000010: b483 033e ceae 04be 6731 2cbd 1f74 4c3e
00000020: b29a 1abc 2722 3b3d c264 3a3e 721d 4e3e
00000030: 298e 87bd 4516 6abd 9788 5e3e 6cfb 493d
00000040: e1d8 093d 44ef 533d ff43 92bc 272a 353e
00000050: 16e7 8f3d 2abe 943d 3346 843e ef40 bfbd
00000060: 3264 3e3c 572e 773d 0691 aa3b 6a7c 2e3d
00000070: 9f72 2abd a58f 0e3e 8f02 223e 7398 3e3e
00000080: fd2d 703e 6be7 f03d 49cf e93d 2ffa 3e3e
00000090: 63be c13d 36a3 8d3e 1eee 8c3d ceca 5e3e
000000a0: 74c3 ea3d bfec 853e 5011 c8bc 0138 443e
000000b0: b278 a03d b524 d93d 7a33 38be 7009 073e
000000c0: 5af6 863e 6077 743d 7f61 ce3c c6ec 753d
000000d0: c008 5e3d 782e 8e3e f0d2 073e 5784 6e3e
000000e0: b952 273e 40a5 653e d9cf 6c3d 8478 693d
000000f0: 10b1 6a3c d204 373e 4595 b8bc d7cc 8f3e
00000100: 1572 3f3e 2b35 f23d c976 803e 3283 2c3e
00000110: 6c34 a53c 2187 9ebd e4d0 183e a899 3f3e
00000120: c836 01be 19a1 f03d ed8e af3d 3312 023e
00000130: 2660 123e 6b19 fbbd 0720 2a3c 9000 c23d
00000140: c854 8ebd b8ee 043e 32a8 84bd 026a 353d
00000150: 6290 0ebe 4a94 683d d927 f33d 3b00 133d
00000160: fc87 9b3d 892d 1bbe 0c4c 11be 405e 8b3d
00000170: eccb 33be 71d8 293e 997f b8bc a252 36bd
-0.103393674 0.008410793 0.15909317 -0.101280294 0.1284321 -0.12957308 -0.0420393 0.19966172
-0.009436296 0.045686867 0.18202499 0.2012842 -0.06618912 -0.057150144 0.21731792 0.04931204
0.033654097 0.051741853 -0.017854689 0.17691861 0.07026498 0.072628334 0.25834808 -0.09338557
0.011620568 0.060346927 0.0052052764 0.04259912 -0.041613217 0.13921984 0.15821289 0.18612842
0.23455043 0.117628895 0.1141649 0.18650125 0.094601415 0.27663583 0.06881355 0.21757051
0.11463061 0.26157185 -0.024422318 0.19161989 0.07835521 0.106027044 -0.17988387 0.13187194
0.26359826 0.059684157 0.025192974 0.060040258 0.054207563 0.27769828 0.1326406 0.23292671
0.1634015 0.22426319 0.057815406 0.0569997 0.014324442 0.17872933 -0.022532115 0.28085968
0.18695863 0.11826547 0.25090626 0.16846922 0.020166598 -0.077406175 0.14923435 0.18710959
-0.12618554 0.11749477 0.08572183 0.12702255 0.1429449 -0.122607075 0.0103836125 0.094727635
-0.069497645 0.12981689 -0.06477393 0.04429055 -0.13922265 0.056782044 0.11872835 0.03588889
0.07594296 -0.15154089 -0.14189166 0.06805086 -0.17558259 0.16586472 -0.02252178 -0.0445124

output_layers.0.weight f4 [64, 32]
00000000: 9aa6 18bd 5a83 28be e31b d339 d384 1abe
00000010: 9128 633e d2a8 b03c 2bf0 273b e861 e03a
00000020: 1582 2f3e 237d 9bbe f396 023e 4123 653e
00000030: d3e6 0f3e 9e80 e33d 329f 6cbd 7aaa 0dbc
00000040: de94 23bd 8611 813c ad1b 0abe 54b4 1d3e
00000050: b01d d1bb a340 5fbe 37cd 65be d682 c93d
00000060: c3a3 833d a617 8cbe 437b 823e 1da9 313e
00000070: 17f8 71bd e51a 533e bc63 c9bd 946a 8cbe
00000080: 3506 213e d767 113e 30f3 6c3e 45fb 613e
00000090: 0c38 123e 0ac1 f13d 1d86 5c3d 3d8a a33d
000000a0: ffcf 0ebd 2722 dcbd f7bd 083e 65c0 ffbd
000000b0: b07b b4bd 9425 4f3e cc21 8e3d d089 40be
000000c0: 9b96 643e 09e1 8e3e 137c babd d6ae bcbb
000000d0: adfd 183e c47c b3bd 6a65 223e 14d0 2fbe
000000e0: fa0d 3ebd 2aee 1abe 7e55 44bd 34f2 403d
000000f0: 5713 cfbd 48e5 b63c 4fb6 763d 702f 163e
00000100: 31a9 193e 4205 053e 2438 0a3d a08a f43d
00000110: 255e d93d d578 ebbc 37e5 95bd c5a7 ee3d
00000120: 39ef fb3d adfa 31bd 4250 f73d 6676 8b3d
00000130: b985 0e3d 2cfc 723e 9aa3 adbd 51fc 47bc
00000140: beeb 633e b554 d23d bba8 603d 5aa5 b3bd
00000150: cfc4 583d 140a b9bd 29d5 15bc 509d 62be
00000160: e12a 533c ce24 d0bd 834c 1c3d cf88 aabc
00000170: f3ff 19bc b75f aa3c f666 0c3e 952b 803e
00000180: e023 053d 4bdb 653c 1d52 2d3e 20a4 b63b
00000190: 0db4 81bd 3f06 6fbd 9080 e83d 2174 70bc
000001a0: 2538 d4bc 00ff c93d 1e2c 653e 2b02 0d3e
000001b0: 3fd3 1e3e d1f7 873c bc30 7fbe 48dd 41be
000001c0: db84 ee3c a99c cf3d eac5 20be 4eeb 623c
000001d0: b5e2 debc bc4c 9c3e 703c bfbc 7211 42be
000001e0: cd8c 0e3e cc75 1ebe 1f25 403d 9157 acbd
000001f0: e1f1 b53c 1515 453d 17fb 25bc befb 89bd
00000200: 4afc 22be a688 a7bd 8bfa 18bd 158c 1a3e
00000210: 454a ff3d dffd a1bd afef 473c 81f2 183e
00000220: 1a87 d43d 9bd2 133d 426e af3c 6638 59bd
00000230: 9a27 4abe 7f89 743d a778 4b3d 3c1a 53be
00000240: 756e 343e 0d6d dbbc 30b3 3e3c 9566 643d
00000250: 1dc1 153e 33cb 10be 0bce e3bd 0307 29be
00000260: dc3f cbbd ea79 343c aa3e 22bd 59eb dd3d
00000270: b89d 86bd e62a f43d 3794 82bc 5558 243b
00000280: 8fd9 2a3e 119a 583d a1b1 01be f128 9fbc
00000290: 1d40 403d 28bc e13d bb63 f73d cb7e 3b3e
000002a0: 0c93 d5bb 41d1 d63d 82fd 1ebe 39a3 703d
000002b0: 4302 88bd ef20 cebd 3526 513e 9c95 8fbd
000002c0: 0771 8a3d 69b6 94be 0147 2d3e 3c85 e63c
000002d0: 3d4d 26be bd19 57be e425 2d3e 310d d5bc
000002e0: 4f72 62bd 8750 653d 6a66 133e 1cc6 0dbd
000002f0: bbb1 433e 51c8 813d 35ef 013e 9cbf 10bd
00000300: 862b b03d 5392 8ebd 092b 533e 9b00 5d3e
00000310: aa60 fa3d b9cd 083b c838 2f3c 7f17 e73d
00000320: 2f3d 023e 4610 bcbd c246 ab3d f7a5 bbbd
00000330: 4739 0abe 8760 afbd 0653 9e3d 64e5 71bd
00000340: cdb5 c5bd ed8b 37bd 662d 95bb 2c0a 78bd
00000350: b0b2 d9bd 3137 333e 3255 8f3d fb47 85be
00000360: 1798 77bd 7933 e6bd 538c 023e ab65 323e
00000370: 67e6 833d cf85 063e c2da 55be 7858 bc3d
00000380: 9ff9 5e3c e7c5 c8bd acc4 0a3d 5a70 603e
00000390: 848e 71be 2b85 c3bc 58da ef3d d506 04be
000003a0: f342 76bd d386 39bc 514f 6f3e 3e40 3ebe
000003b0: 39fb ad3c 5886 3e3d a467 43be e719 083e
000003c0: 1ec1 ecbb 1a94 823e 3ebf 123e 3c87 9ebd
000003d0: 2cbc cabd 145d 623e d651 ad3d 80c9 e9bd
000003e0: 867c 0d3e 8485 8a3d 7d5e 59be d4d7 b13d
000003f0: ea6e c4bd 6f7f 973c 288c 36bd 1d62 973c
-0.03726826 -0.16456357 0.00040265833 -0.15089731 0.22183444 0.021564875 0.002562533 0.0017119022
0.17139466 -0.3036891 0.12752895 0.2237673 0.14052896 0.11108516 -0.057769008 -0.008646602
-0.039936893 0.015755426 -0.1348712 0.15400821 -0.006381713 -0.21802 -0.22441565 0.09839408
0.064277194 -0.27361792 0.25484666 0.17349668 -0.059074488 0.20615728 -0.09833476 -0.27425063
0.15725024 0.14199768 0.23139644 0.22068508 0.14279193 0.118043974 0.053838838 0.07985351
-0.03486633 -0.107487015 0.13353716 -0.12487868 -0.08812654 0.20229179 0.0694004 -0.18802571
0.22323076 0.27906063 -0.091056965 -0.0057581468 0.1494052 -0.087640315 0.15858999 -0.1716922
-0.046400048 -0.15129915 -0.047933094 0.047105983 -0.10111111 0.022326127 0.060232457 0.14666533
0.15005948 0.12990287 0.033744946 0.11940503 0.1061366 -0.02874414 -0.0731911 0.11653093
0.123014875 -0.043451954 0.12075855 0.06809692 0.034795497 0.23729008 -0.0847847 -0.012206153
0.22257897 0.10270063 0.054848414 -0.08771773 0.052922066 -0.090351254 -0.00914506 -0.22130322
0.012888641 -0.1016327 0.038158905 -0.020817189 -0.009399402 0.020797594 0.13711151 0.2503325
0.032504916 0.014029334 0.16925855 0.0055737644 -0.0633317 -0.058355566 0.11352646 -0.014676125
-0.025905678 0.098630905 0.2238011 0.13770358 0.15510271 0.01659766 -0.24920934 -0.18932068
0.029116085 0.101373024 -0.15700498 0.013850046 -0.027207712 0.30527294 -0.023344249 -0.18951967
0.13920899 -0.15474623 0.0469104 -0.084151395 0.022210063 0.04811581 -0.010130665 -0.06737469
-0.15916553 -0.081803605 -0.03734831 0.150925 0.12465338 -0.0790975 0.012203141 0.14936258
0.10377331 0.03608952 0.02141488 -0.0530323 -0.1974167 0.05970144 0.04967561 -0.20615476
0.17620261 -0.026785398 0.011639401 0.055761892 0.14624448 -0.14140014 -0.11123284 -0.16506581
-0.099242896 0.011015395 -0.039610542 0.10835905 -0.06573051 0.11922245 -0.015939815 0.0025077064
0.16684555 0.052881304 -0.12665416 -0.019428702 0.046936143 0.11022216 0.12079569 0.18310086
-0.0065177735 0.10489131 -0.15526393 0.05874941 -0.066410564 -0.10064875 0.20424731 -0.070109576
0.067598395 -0.29045418 0.16921617 0.028139703 -0.16240402 -0.21005912 0.16908985 -0.026007267
-0.055284794 0.055985 0.14394537 -0.03461276 0.19110768 0.063370354 0.12688906 -0.035338983
0.086020514 -0.06961503 0.20621885 0.21582262 0.122254685 0.0020874573 0.01069469 0.112837784
0.12718652 -0.091827914 0.08363105 -0.09162515 -0.13498412 -0.08563333 0.07730679 -0.059056655
-0.09653816 -0.044811178 -0.004552531 -0.060556576 -0.10629785 0.17501523 0.069986716 -0.2603148
-0.06044778 -0.112402864 0.12748842 0.17421596 0.0644043 0.13136981 -0.2088423 0.091965616
0.013609319 -0.09803372 0.033878967 0.21917859 -0.23589522 -0.02386721 0.11711568 -0.12893231
-0.06012244 -0.0113236485 0.233701 -0.18579194 0.021237956 0.04651484 -0.19082505 0.13291131
-0.00722517 0.25503618 0.14330766 -0.07740638 -0.09899172 0.22105819 0.084628746 -0.11415386
0.13817033 0.06763747 -0.2122745 0.08683744 -0.09591468 0.018493382 -0.044567257 0.018479401

output_layers.0.bias f4 [64]
00000000: 7ccc 6b3d c812 f53d 9605 543e c09e 493e
00000010: a7b8 133e e9f1 29bd fec7 ad3d 3418 8d3c
00000020: 2784 eebc 8f6c 8d3d 2c0a 89bd 9385 873d
00000030: c492 4c3e 0551 603d d9ca d2bd 8777 f23c
00000040: aa07 7b3d 89bc d23d eddd 9f3d 0935 313e
00000050: 2372 e13c 1d10 90bd 7122 22be 6096 423b
00000060: a744 b43c b750 343e aa1e b73d 31a2 cdbd
00000070: 1d16 26be ec66 c23d 2b40 173e 321d 043c
00000080: 8eaa 913c 545a 8abd 16f6 d83d 825b 9ebd
00000090: d29c 47be 790b 943d 5920 be3c 501e 8a3d
000000a0: 94dc b83d 6c5b f1bd be56 85bd 09cf 25be
000000b0: bee3 97bd 7001 fabd b0fc c93c 39c1 903d
000000c0: 9b57 11be 0e26 323e 5f35 c7bd 3b2e c93c
000000d0: eb14 01be a386 8cbd 3814 3b3d d113 073e
000000e0: df8e 993c 097e 5c3d 427a d43d e764 73bc
000000f0: 760d 08be 9c84 f6bc 503e 253e f6f4 2fbb
0.05756806 0.11966473 0.20705256 0.19689465 0.14425908 -0.04149047 0.08485411 0.017223455
-0.02911575 0.069054715 -0.06691393 0.06617274 0.19977862 0.054764766 -0.10292596 0.02959801
0.061286606 0.102898665 0.07806001 0.17305388 0.027520245 -0.07034323 -0.15833451 0.0029691681
0.022005392 0.17608915 0.089413956 -0.10040701 -0.16219373 0.09492287 0.14770572 0.008063601
0.017781522 -0.0675551 0.10593812 -0.077322975 -0.19493416 0.07228751 0.023208784 0.06744063
0.09026447 -0.117850155 -0.065106854 -0.16192259 -0.07416485 -0.122073054 0.024656624 0.07068104
-0.14193575 0.17397329 -0.097269766 0.024558177 -0.12605636 -0.068616174 0.04567358 0.13191153
0.018744884 0.053831134 0.10374881 -0.0148556 -0.13286385 -0.03009253 0.16137052 -0.002684889

output_layers.3.weight f4 [32, 64]
00000000: 2224 1d3e e2a0 2ebd c70f 3ebd f0de 8c3d
00000010: 2a49 d63c 492f 28be 77ac 49bd e824 c03d
00000020: a9c1 adbc e192 9ebd c0cb 5d3d 95df cfbd
00000030: 9509 aabc e642 60bc 364f d3bd 5b84 7a3d
00000040: fd9d 95bd 8240 edbc 058d 10bd 2589 22bb
00000050: ce3d 163d c39e 12be bc0e 1c3e f31b 473d
00000060: a29a a93d 2801 9bbd da73 ff3c c3d3 de3d
00000070: 0586 2cbe 9941 87bd dea9 923d fb13 87bd
00000080: 4908 8d3d 2419 763e f158 833d 1099 843d
00000090: 670a cbbd ee01 a23d 61ec 0b3d 42e6 333e
000000a0: 3a2b 3abd 5288 e53d 2f2c 843d 986a 863d
000000b0: dee1 9f3c 5f62 e23d a6e9 ff3d 02d6 aebd
000000c0: 0dcc f2bd 79c8 eb3d 3428 cfb8 fe2f c8bc
000000d0: 3db6 15be 8f32 d13d 38c8 b33d 2d59 f4bd
000000e0: c2fc 283d 2329 86bd 64d5 dbbd d68d dcbb
000000f0: fe02 c5bd 075b 9fbd f44b cd3d 25b8 66bd
00000100: d50f d53d 35cc c3bd 0578 67bc 4f59 9ebd
00000110: 1a8a 6f3d 1415 c1bd 1b6e 253d ae69 063d
00000120: 995b 573d 980c 0dbe 5ff5 8abd 9f4c 1cbe
00000130: faae ebbb d7f7 8bbc 9c7e 0dbd db31 41bd
00000140: 17f3 783d aa40 723d 882d aa3d 4848 863c
00000150: 8124 da3d bd59 f3bd 51c0 ecbd d195 a23c
00000160: bdc9 133e 1169 4abd b668 473c 88d0 0b3e
00000170: b8d8 02be fc2b 30bc 703c 9d3c a5af bd3d
00000180: 59c5 7fbd 9415 fb3d 868a 2bbd 2fcf fdbd
00000190: f466 efbd ecc0 f3bd 03a8 283d 6ade 8e3e
000001a0: 7e94 833a 5feb 8b3d a6c2 95bc 2b86 aebd
000001b0: 3c9b 14bd f849 bbbc e9c0 733d cd1c 66bd
000001c0: 6478 b8bd e050 823d 6672 bf3d 44e7 9dbc
000001d0: 05c5 42be f9f2 863d 9a43 cbbd 43fe 88bd
000001e0: b01b c83d 692f 243d a309 c9bd c303 923d
000001f0: b81d 9ebd d579 1c3d ca08 9e3d 3eed c6bc
00000200: 1906 e2bd 8210 cbbd 1e7f 81bc d0f0 a13d
00000210: 6783 27bb b155 ecbd 2587 4d3a 1b3b 293e
00000220: 31db d33d 5216 9e3c 02ee 9cbc 137e acbd
00000230: 0fd2 1cbd e3bc ae3d cb85 223d 5f22 8b3d
00000240: 6af2 1f3c 895c e73d 888b dfbc 8b68 3c3d
00000250: 4d3c b53c b351 8d3b 231c 843c b54b 6a3d
00000260: 6dd5 cfbc c201 1fbe 0072 fb3a 6ea7 a43d
00000270: a4c0 82bd 68ae bfbd dcfe e9bd 32d1 eebc
00000280: 1e81 95bd 9210 edbd a6ec dcbd 36b3 0cbc
00000290: f0cd 31bd c4d2 4d3d 7b64 aebd d3f3 9d3d
000002a0: 92fb fb3d 8619 a9bd 1114 fcbc b6d1 61bd
000002b0: f507 b2bc e5ac 173d ad9d 103e 6bef a4bd
000002c0: 5f3d e0bd ff3a 43bc 6674 68bd d3a5 ccbc
000002d0: fe68 b3bd 56db d73c b1c7 c7bd 9e33 06be
000002e0: daa7 b83d 0a08 71bd 76ff 8abd 909b cbbc
000002f0: c0b8 8f3d fd92 21bd 14b7 13bd c33f 9dbc
00000300: 614a ad3d 0be6 873d ac0f 043e 4bfb 6a3d
00000310: d8de 5a3e f5f1 03be 7e9d d83d efa4 563e
00000320: 9c32 763d 00d8 87bc a472 e2bd 0e75 963d
00000330: 7d70 11bd dfbe fd3d a0ff 533e 4904 933d
00000340: 4d18 ac3d 7f5d 3c3d 188e f63d ab68 dc3d
00000350: b5f3 1a3e 0527 173d 69e3 18be a616 db3d
00000360: 8fdd 0c3e afe4 5c3e 097e 3f3e b7a3 b7bb
00000370: 8053 1f3d 7e62 2c3e e397 e63d f0d2 493d
00000380: 892a bd3d 9129 e53d 1a38 253e fe6b 91bc
00000390: d65d 553e 13f4 383e 501b aa3d 6992 043d
000003a0: 8f3b 583d c78b 093e 064e 853d c56a b73c
000003b0: 4d3b 653b bb66 2a3e 0290 813d bf5c 8d3d
000003c0: 2146 003e d287 8d3d c860 053d a276 c53c
000003d0: d96c f93d 5eb1 853c 4183 b43c dbdb d73b
000003e0: 0bd0 ea3d 89af b63d a1cb 1a3d b9bf 273e
000003f0: e089 6d3c 9dcc c03d 65ed 813d 131e 2b3e
0.15345815 -0.0426339 -0.046401765 0.068784595 0.026157934 -0.16424288 -0.04923674 0.09382039
-0.021210508 -0.07742859 0.05414939 -0.10150067 -0.020756522 -0.013687825 -0.10317843 0.06116138
-0.073055245 -0.028961424 -0.035290737 -0.0024800983 0.036680035 -0.14318375 0.15239996 0.04861064
0.08281447 -0.0756858 0.031183172 0.10880234 -0.16848 -0.06604309 0.07161306 -0.06595608
0.06886346 0.24033028 0.064134486 0.06474507 -0.099140935 0.07910524 0.034160975 0.17568305
-0.04545138 0.11207642 0.0645374 0.065633 0.019516882 0.11053919 0.12495737 -0.085369125
-0.11855326 0.115128465 -9.8780176e-05 -0.024436947 -0.146203 0.102147214 0.08778423 -0.119310714
0.041256674 -0.06550815 -0.107340604 -0.0067307753 -0.09619711 -0.07781034 0.100242525 -0.056327958
0.1040341 -0.09560434 -0.014127736 -0.07731878 0.058481313 -0.094278485 0.040388208 0.032815628
0.05257759 -0.13774335 -0.06785082 -0.15263604 -0.0071924897 -0.017085953 -0.034544572 -0.047166687
0.060778704 0.0591437 0.08309466 0.016391888 0.10651494 -0.118823506 -0.11560119 0.019846829
0.14432426 -0.049416605 0.012170961 0.13653767 -0.12777984 -0.010752674 0.019193858 0.09262017
-0.062444065 0.12259975 -0.041880153 -0.12393033 -0.116895586 -0.11902031 0.041175853 0.27904063
0.0010038761 0.06832003 -0.018281292 -0.08521684 -0.036280856 -0.02286242 0.059510145 -0.05617981
-0.09007338 0.06363082 0.09347992 -0.019275315 -0.1902047 0.06589312 -0.09925003 -0.066891216
0.09770906 0.040084276 -0.09816291 0.07129624 -0.07720512 0.038202126 0.0771652 -0.024283048
-0.11036319 -0.09915258 -0.015807685 0.079072595 -0.00255605 -0.11539782 0.00078402675 0.16526453
0.10344542 0.019297753 -0.01915646 -0.08422484 -0.038286265 0.08532121 0.039678376 0.06793665
0.009762386 0.112969466 -0.027288213 0.045998137 0.02212348 0.004312718 0.016126698 0.057201106
-0.025370324 -0.15528014 0.0019183755 0.08039747 -0.063843995 -0.09359437 -0.11425564 -0.029152486
-0.07300018 -0.11575426 -0.107873246 -0.008587649 -0.043409288 0.05024983 -0.08515259 0.077125214
0.123038426 -0.08256821 -0.030771287 -0.055131637 -0.02173231 0.03703012 0.14122649 -0.08053478
-0.109492056 -0.011915921 -0.05675163 -0.024981415 -0.0876026 0.026349705 -0.09754885 -0.13105628
0.0901639 -0.058845557 -0.067870066 -0.024854451 0.0701766 -0.03944682 -0.03606327 -0.019195443
0.08461452 0.06635674 0.12896603 0.057368558 0.2137407 -0.12885268 0.10576914 0.20961355
0.06010686 -0.016582489 -0.11057022 0.07346545 -0.035507668 0.123899214 0.20702982 0.07178552
0.084030725 0.045987602 0.12038821 0.10762151 0.1513203 0.036902446 -0.149305 0.10697679
0.13756393 0.21571611 0.18700422 -0.005604233 0.03889799 0.16834447 0.11259439 0.04927343
0.092366286 0.11189569 0.16134682 -0.01775169 0.20836577 0.18061857 0.08305991 0.03236619
0.052791175 0.13432227 0.065090224 0.022389779 0.0034977973 0.16640751 0.063262954 0.069024555
0.12526752 0.06910671 0.032563 0.02410442 0.12178964 0.016319927 0.022035243 0.006587488
0.11465462 0.089201994 0.037791852 0.1638173 0.014498204 0.09414027 0.063441075 0.16710691

output_layers.3.bias f4 [32]
00000000: b0b8 8b3d 62a4 9c3d 99ee e23d 9e9f fe3d
00000010: 9972 67bb e693 043e a51b 073c b0f5 e93c
00000020: 7cac 553e 39c2 2cbe 0591 b83d 6b4d 893d
00000030: 67d3 b73d 5ee1 a1bd d4b0 19bd 4099 c83d
00000040: 92d0 0d3e a8d2 94bc 65be e43d f6e0 87bd
00000050: 21fe 563e 4957 9f3d fac1 6f3c ad21 ab3c
00000060: fdd0 66bd c912 bebd 4898 203e c9f9 553d
00000070: be59 143d 1a3e 443d d355 89bd 1bf2 5b3d
0.06822336 0.07648541 0.11080665 0.12432788 -0.0035316108 0.12947044 0.008246337 0.028559536
0.20866579 -0.16870965 0.09012035 0.067042194 0.08975869 -0.079043135 -0.037522152 0.09794855
0.13849095 -0.018166855 0.111691274 -0.06634705 0.2099538 0.0778032 0.01463365 0.020890081
-0.05635165 -0.09280927 0.1568309 0.052240167 0.036218397 0.047910787 -0.06705823 0.053697687

output_layers.6.weight f4 [2, 32]
00000000: e295 633d e9a5 823d 4591 273d 0b7e f23a
00000010: af97 523d 4f30 703a 59a9 4d3e dc91 0fbd
00000020: fc72 b23a 1236 d23d a529 873d a13a f4bd
00000030: 3a2b 833a 523b 00bd bdf2 6cbd 6e2c 2c3d
00000040: 03ea 053a cf9a 82bd 80ac 4fba 492a 02bc
00000050: fa45 cb39 c06a 273e b234 e43d fa76 153e
00000060: d02b 0cbd 62d1 72bd a754 cdba 6069 f4bd
00000070: fbb6 0dbb 068a 66ba 29c1 ccbc 98ce d138
00000080: 4154 0abe a33e 45be f3bd 8b3d 03a7 8cbe
00000090: 7b93 f0bc e11e 3cbe 09df 123e b922 b03d
000000a0: 9bf4 53be 5044 7238 f66b 09be 3bc3 d0bd
000000b0: 6f40 4fbe d29a 13be cf21 ff3d bab0 2cbe
000000c0: d6bb 3fbe 4425 0dbd 5d59 42be 2332 033d
000000d0: e173 7abe 9120 173e 1589 043c 7eab 023e
000000e0: d6b6 30be 9838 123e f383 43be 7112 77bc
000000f0: abf3 52be 8a63 8abe e7c1 1ebe 9680 7bbe
0.05556286 0.06379301 0.040910024 0.0018500698 0.051414188 0.0009162472 0.20084132 -0.03505121
0.001361459 0.10264219 0.0659974 -0.11925245 0.0010007389 -0.031306572 -0.05784868 0.04203456
0.0005108418 -0.06377184 -0.0007922128 -0.007944652 0.00038771314 0.16349316 0.11142863 0.14596167
-0.03422147 -0.059281714 -0.0015665487 -0.11934161 -0.0021623957 -0.0008794371 -0.02499445 0.00010004378
-0.13508703 -0.19262175 0.06823339 -0.2747117 -0.0293672 -0.18371154 0.14342894 0.08600373
-0.20698778 5.7760917e-05 -0.1342009 -0.10193487 -0.20239423 -0.14414528 0.1245762 -0.16864291
-0.18723997 -0.034459367 -0.18979402 0.032030236 -0.24458267 0.14758517 0.0080893235 0.12760732
-0.17257246 0.14279401 -0.19093303 -0.01508008 -0.20600764 -0.27029067 -0.15503655 -0.2456077

output_layers.6.bias f4 [2]
00000000: ee76 8ebd 333b 8dbe
-0.06956278 -0.27584228

exp_avg f4 [96, 15]
00000000: 41c5 4eb9 9a7d 45b9 b304 49b9 a8e1 46b9
00000010: 5f7a a8b9 7cbc 6cb9 f45f ed39 8f10 123a
00000020: 411a 3239 cfa9 e239 7d8e 1539 2f96 b7b8
00000030: 0000 0000 2e06 8539 9967 223a 0527 bdb8
00000040: c753 acb8 f739 10b8 9f75 88b8 849b beb9
00000050: 9ec6 10b9 1ca1 683a 5f0b 853a e900 1a39
00000060: 7a69 9eba 8ea9 d539 91d6 6138 0000 0000
00000070: d40c c939 3086 7438 f613 4c3a 9103 4d3a
00000080: 6f1d 4b3a 7432 4b3a 2cd8 2c3a 8574 88ba
00000090: a1bd ef37 2373 f539 b8b0 8c39 f947 383a
000000a0: 3f2f d039 94df 5538 0000 0000 d89c 703a
000000b0: 3384 643a cfb9 303a 3ac8 413a 3839 3b3a
000000c0: 4279 403a 5863 973a acc7 12bb a842 cab9
000000d0: b2e3 a93a 0d95 74b9 87bc f73a 003d 7838
000000e0: fa44 dab6 0000 0000 e798 6037 2695 3e39
000000f0: 6ece 59ba 4f94 54ba f233 60ba 9733 56ba
00000100: 963d 8fba 28c7 533a 1089 bf3a 2b8a aa3a
00000110: 8ea6 8d39 5ed1 853b 4421 f7b9 a27f 20bb
00000120: 0000 0000 8097 5cba 1407 edb9 61e6 95b9
00000130: c67f 93b9 e04e 9ab9 8b90 93b9 74c9 ee39
00000140: b6f1 2139 0e04 cb39 c279 9239 9a5d 313a
00000150: b1f3 273b a877 c03a 96fa 54b9 0000 0000
00000160: 7869 173a b7b0 6b3a 34c3 5cb9 a72a 56b9
00000170: 441f 5db9 8893 5eb9 5ea9 81b9 1531 5cba
00000180: cc85 bab8 d35d 9e39 b042 13b9 1d91 d0b9
00000190: 9024 24b9 4da3 83b9 0000 0000 ca57 da38
000001a0: d0f5 f336 1ddb 0b3a fba1 083a 8f8f 0c3a
000001b0: 155c 0c3a 8e2a 03ba 786d fb38 1602 8738
000001c0: f919 6038 66c8 0c3a bc88 0d39 27a7 6539
000001d0: 46ed a936 0000 0000 029a 40b9 1530 0bb9
000001e0: a2e6 a23a 7f6d a43a 82b8 a33a 53ac a33a
000001f0: 37f1 943a 42ed 6eba 8b95 38ba 3fa3 96b9
00000200: 1fbb d3b8 d05a 3a3a 2f24 fc39 9c6b 1039
00000210: 0000 0000 3fd0 093a dfcb 393a 8a80 0f3a
00000220: 4026 103a 6100 173a 00e8 113a 0228 ab39
00000230: 1716 88ba e35f 0537 11fb 403a 7fc6 d0b8
00000240: fcb0 dcba db1c 9339 fbae 4338 0000 0000
00000250: df1e 1738 e8ba fab7 3db8 0b3b 8782 103b
00000260: 321a 0f3b 558b 113b 670e ac3a 253b 8eba
00000270: 298c b539 b644 a73a 00d5 403a 07aa 103b
00000280: 9417 583a 883c 8bb9 0000 0000 a7e6 c2b8
00000290: 9b07 f938 316d bf39 9472 d239 94ad c439
000002a0: 5718 d239 dbf6 3c39 6784 4aba 1634 073a
000002b0: dac7 8c3a ef70 ba39 a8ad 75b9 f361 7939
000002c0: 20ee 98b8 0000 0000 c1be 1038 8197 1137
000002d0: 94c2 8b3a 5c12 8f3a 3a5c 8f3a aa47 8e3a
000002e0: ec05 733a 8976 9eba 120f 62ba 80fd d2b9
000002f0: 1f5f 6db9 478c 2fba fb55 003a 5817 0338
00000300: 0000 0000 7bf5 cb39 7175 c338 82ee 8739
00000310: bfe7 8b39 4bd3 8739 15b6 8539 2976 93b9
00000320: d82d 8fba 8329 87b9 5751 f239 116a 6739
00000330: 3fc4 9c3a 2be9 e1b6 3a09 35b8 0000 0000
00000340: 0779 a638 187e 5339 492a b9b9 d596 b4b9
00000350: d500 bab9 4893 b3b9 bc6b 3ab9 2be1 bf39
00000360: ffa5 bb39 40c4 aa39 931b 113a 5560 0d3a
00000370: bda0 8939 bcf6 2238 0000 0000 c0d7 083a
00000380: 8565 533a 9f7c ac39 80cc ad39 050a b139
00000390: a782 af39 af2d 8739 e8be b2b9 9ef7 55b7
000003a0: df40 4539 cef3 e4b8 a5fc eab9 8fee 08b7
000003b0: 8244 3e37 0000 0000 fef6 6738 9eeb 0a37
000003c0: 6a10 563a 8295 5b3a 311b 5b3a 126d 5c3a
000003d0: adfc 793a 4e39 94ba b933 8839 b7f7 323a
000003e0: 35e4 67b9 0d5c 32b9 7673 ad39 5633 ddba
000003f0: 0000 0000 3ff6 6dba e4ff caba 5435 113a
-0.00019719174 -0.00018834174 -0.00019170604 -0.00018966815 -0.0003213463 -0.0002257693 0.00045275653 0.00055719254
0.00016985183 0.00043232596 0.00014262828 -8.754094e-05 0.0 0.0002537234 0.0006195247 -9.01949e-05
-8.217204e-05 -3.438626e-05 -6.506894e-05 -0.00036355492 -0.00013806901 0.0008874105 0.0010150484 0.00014686924
-0.0012085878 0.00040752854 5.384401e-05 0.0 0.00038347265 5.8299105e-05 0.0007784957 0.0007820661
0.00077482214 0.00077513536 0.00065934914 -0.0010410702 2.8579323e-05 0.00046815825 0.00026834547 0.0007029768
0.00039708053 5.099138e-05 0.0 0.0009178645 0.0008717209 0.0006741555 0.0007392202 0.000714201
0.00073422876 0.0011549992 -0.0022396846 -0.00038578105 0.0012961535 -0.00023325179 0.001890079 5.918462e-05
-6.504936e-06 0.0 1.3387041e-05 0.00018175374 -0.00083086535 -0.0008109258 -0.00085526623 -0.00081711396
-0.0010928388 0.0008078688 0.0014612991 0.0013011148 0.0002701771 0.0040837964 -0.00047136296 -0.0024490138
0.0 -0.0008414909 -0.00045209436 -0.0002859114 -0.00028133224 -0.00029431935 -0.00028145718 0.00045544992
0.00015444201 0.00038722198 0.00027938007 0.0006765962 0.002562743 0.0014684098 -0.00020311246 0.0
0.0005775909 0.0008990871 -0.00021053554 -0.0002042452 -0.0002108785 -0.0002122653 -0.00024730986 -0.0008399648
-8.894093e-05 0.00030206013 -0.00014043855 -0.0003978097 -0.0001565388 -0.00025107936 0.0 0.00010411402
7.2705807e-06 0.00053350796 0.0005212125 0.0005361968 0.00053542975 -0.00050035946 0.00011989003 6.43769e-05
5.342995e-05 0.0005370438 0.00013497745 0.00021901411 5.0642147e-06 0.0 -0.00018367919 -0.00013273985
0.0012428353 0.0012544839 0.0012490901 0.001248727 0.0011363392 -0.00091143337 -0.00070413266 -0.00028731857
-0.00010096118 0.0007108869 0.00048092144 0.00013772998 0.0 0.00052571663 0.0007087569 0.0005474171
0.0005498864 0.00057602493 0.0005565882 0.0003264547 -0.001038256 7.949743e-06 0.00073616306 -9.955186e-05
-0.0016837413 0.00028059524 4.6654586e-05 0.0 3.6029956e-05 -2.9889357e-05 0.0021319531 0.0022050457
0.0021835682 0.0022208293 0.0013126851 -0.0010851367 0.00034627438 0.0012761566 0.0007355958 0.0022074
0.00082432595 -0.00026557245 0.0 -9.293603e-05 0.00011874662 0.00036511713 0.0004013969 0.0003751336
0.00040072456 0.00018021038 -0.0007725418 0.0005157603 0.0010740713 0.00035560827 -0.00023429713 0.0002378298
-7.292279e-05 0.0 3.450993e-05 8.677948e-06 0.0010662847 0.0010915506 0.001093752 0.0010855098
0.0009270597 -0.001208977 -0.00086234615 -0.00040243194 -0.00022637517 -0.0006696623 0.00048956246 3.1254574e-05
0.0 0.00038902074 9.3202e-05 0.0002592691 0.0002668481 0.00025906632 0.00025503399 -0.0002812606
-0.0010923697 -0.00025780135 0.0004621844 0.0002206939 0.0011960341 -6.732667e-06 -4.3162356e-05 0.0
7.93804e-05 0.00020169502 -0.00035317455 -0.00034444654 -0.00035477304 -0.00034251274 -0.00017778476 0.00036598122
0.00035791096 0.00032571144 0.000553542 0.0005393078 0.00026250436 3.88536e-05 0.0 0.00052201375
0.0008064139 0.00032899246 0.00033149496 0.00033767536 0.00033475945 0.00025783243 -0.00034093042 -1.2753442e-05
0.0001881155 -0.000109172994 -0.00044820193 -8.161775e-06 1.1340833e-05 0.0 5.530472e-05 8.2803e-06
0.0008165898 0.00083764654 0.0008358239 0.0008408587 0.0009536248 -0.0011308582 0.00025978478 0.00068270735
-0.0002211489 -0.00017009694 0.00033083156 -0.0016876261 0.0 -0.0009077526 -0.0015487638 0.00055392575

exp_avg_sq f4 [96, 15]
00000000: 9c52 1436 857c 1436 1caa 1436 a9a3 1436
00000010: 0f69 c335 dda5 0034 4a6a 2a34 0577 7834
00000020: 0c50 1f34 18fa 1736 932a a334 d130 2234
00000030: 0000 0000 60ac d633 61cd 9635 f513 cc37
00000040: eae0 ca37 d595 cc37 ff49 cb37 51ff 4b37
00000050: 78bc 3c36 9c7c 8435 415b 3535 8a60 4a36
00000060: 964c 6337 292d 6835 ce44 2c35 0000 0000
00000070: 9726 9e35 e9c3 b534 a883 1836 666c 1836
00000080: e0c1 1936 5776 1936 902e 8635 9624 9e34
00000090: 05c5 a034 bb3c ca34 e55a cd34 f2d8 0136
000000a0: 9df8 cd33 4edd f933 0000 0000 f667 4e35
000000b0: a19e e235 2928 b137 e819 b237 cdfa b137
000000c0: 1012 b237 3ca9 8537 ba57 1137 8163 3736
000000d0: e83f d335 e226 3b36 c303 4837 1292 c535
000000e0: c05d 2335 0000 0000 7d2f 9e35 3bff eb34
000000f0: 1af8 f937 6254 fb37 03dc f937 d4dc f937
00000100: 3d14 e937 6a12 7b35 fd4d b035 3f57 d635
00000110: 8853 e635 08b4 9937 8082 ef36 c8ca a736
00000120: 0000 0000 ed1e a736 a703 3235 4101 6238
00000130: e559 5e38 401d 5f38 3182 5b38 a8b6 0438
00000140: 488d ed36 8b90 2e37 ed9a bf36 a064 1d36
00000150: 649d 8b38 2e76 5136 f930 9a35 0000 0000
00000160: 1a6d 4836 583d ca36 3081 0a36 36af 0a36
00000170: c4ce 0a36 27dc 0a36 d23e b135 f85a 7134
00000180: 29b9 cf34 4694 e234 ed3d 0b35 13bb 1936
00000190: 0262 9634 1188 6a35 0000 0000 ad6a a535
000001a0: 4386 d033 5ad6 8e36 99b8 8e36 fe04 8f36
000001b0: 17eb 8e36 3b1e 3536 a76d 0735 3b03 cc34
000001c0: f400 b134 bba2 3b35 5cbf bb36 bb96 1435
000001d0: 8ed1 c533 0000 0000 6372 4a35 84b7 1835
000001e0: 3896 4a36 ab01 4a36 d0b3 4a36 43aa 4936
000001f0: cb44 bf35 7921 5f35 a8ef 4635 7a5e 8135
00000200: 84bf 3d35 bf19 8436 181b 5634 09ed b933
00000210: 0000 0000 d19d 1436 8c5f 3536 8e76 af36
00000220: 9e26 ae36 9a0c af36 c2a8 ac36 946b 4336
00000230: 6390 1e36 1efd 4835 d20e 7b34 74bf 2135
00000240: 8577 2d36 2809 1234 82ab 1e34 0000 0000
00000250: 2102 a334 763a a333 f424 b336 b739 b436
00000260: 46b8 b336 a031 b436 efb9 8536 c6e9 4d36
00000270: 89c5 e135 2404 fd35 bfd4 6935 43c9 8036
00000280: ff42 8235 9aec 4834 0000 0000 bea8 9835
00000290: 63cb 1e36 4e72 8f36 fe4c 9036 7ecb 8f36
000002a0: d655 9036 0657 4c36 fcee da34 b872 b434
000002b0: c7b6 ec34 c52c 5534 5875 1436 6b4e 0b35
000002c0: f783 d933 0000 0000 1bc3 8534 108d 9133
000002d0: eed8 9536 ede1 9436 f0e5 9536 a21e 9436
000002e0: daf4 2836 277c 9035 8735 f034 55b6 ab34
000002f0: 3375 2d35 e43b 6436 6a32 6534 8efb 0334
00000300: 0000 0000 c68f da34 a21a a134 367b 0d36
00000310: 3060 0e36 77be 0e36 9f88 0f36 f79c d635
00000320: cb2d d434 5fe5 e634 ecf8 a234 c5dd ca34
00000330: d315 3b36 d199 a534 95c3 7e33 0000 0000
00000340: 908a 1d34 5f2a 0934 e5ef dc35 9e52 da35
00000350: 0446 dc35 db9d d935 d360 4735 e4d7 9934
00000360: 421d f134 32c7 d634 0e24 f634 d30a 0336
00000370: 9ea2 d633 7b2f 2d33 0000 0000 3520 5e35
00000380: 5e39 8035 f22d fe34 535e fd34 0f2c fe34
00000390: a1b0 fb34 b927 b734 c262 6534 60d7 1134
000003a0: 7232 1234 11bf a933 4911 d434 49d6 2f33
000003b0: dadc 8e32 0000 0000 5572 3533 f4a9 da32
000003c0: 8557 9536 6c86 9536 0107 9636 fde8 9536
000003d0: a270 5c36 c567 6935 aac5 f034 75f6 0f35
000003e0: c21c 5d35 af2b e335 d2ea ac34 0ddb e035
000003f0: 0000 0000 d777 6635 214d 0836 2541 a537
2.2101804e-06 2.2126198e-06 2.2152735e-06 2.2148981e-06 1.4559208e-06 1.198127e-07 1.5871152e-07 2.3140099e-07
1.483715e-07 2.2646327e-06 3.0392093e-07 1.5105185e-07 0.0 9.9965064e-08 1.1235644e-06 2.4327988e-05
2.418501e-05 2.4388466e-05 2.4233943e-05 1.2159188e-05 2.8123886e-06 9.871032e-07 6.7560546e-07 3.0156539e-06
1.3548086e-05 8.649245e-07 6.4175117e-07 0.0 1.1783148e-06 3.385642e-07 2.27264e-06 2.2712861e-06
2.2911627e-06 2.286766e-06 9.99733e-07 2.9456413e-07 2.9945673e-07 3.766962e-07 3.825036e-07 1.9348777e-06
9.591279e-08 1.1635221e-07 0.0 7.6892263e-07 1.6884479e-06 2.1118745e-05 2.1231317e-05 2.1216832e-05
2.1227665e-05 1.5933641e-05 8.663099e-06 2.7327044e-06 1.5739324e-06 2.7887804e-06 1.1921805e-05 1.4720156e-06
6.0858656e-07 0.0 1.1785738e-06 4.3957866e-07 2.9798644e-05 2.9960825e-05 2.9785564e-05 2.9785944e-05
2.7785189e-05 9.353158e-07 1.3135719e-06 1.5969634e-06 1.7160646e-06 1.8322855e-05 7.1379473e-06 5.0005947e-06
0.0 4.980588e-06 6.631548e-07 5.3883767e-05 5.3012645e-05 5.3194584e-05 5.233492e-05 3.1641364e-05
7.0795977e-06 1.0404862e-05 5.7102793e-06 2.3453395e-06 6.657353e-05 3.1212217e-06 1.1488147e-06 0.0
2.9865828e-06 6.0272105e-06 2.06388e-06 2.0665589e-06 2.0683956e-06 2.0691748e-06 1.3205811e-06 2.2477968e-07
3.8691476e-07 4.2203663e-07 5.187165e-07 2.2907668e-06 2.8010987e-07 8.7369796e-07 0.0 1.2324505e-06
9.710177e-08 4.2568836e-06 4.25342e-06 4.2623133e-06 4.259298e-06 2.6988698e-06 5.0450984e-07 3.8000312e-07
3.2969513e-07 6.989973e-07 5.5953114e-06 5.535364e-07 9.211645e-08 0.0 7.541732e-07 5.6891463e-07
3.0187784e-06 3.0101316e-06 3.020501e-06 3.005044e-06 1.425063e-06 8.312268e-07 7.4109494e-07 9.638745e-07
7.068668e-07 3.936904e-06 1.994016e-07 8.65785e-08 0.0 2.214558e-06 2.7026717e-06 5.229208e-06
5.1900997e-06 5.2168734e-06 5.1456454e-06 2.9119883e-06 2.3627879e-06 7.487414e-07 2.3381588e-07 6.0255775e-07
2.5848578e-06 1.360064e-07 1.4777291e-07 0.0 3.0362665e-07 7.600913e-08 5.3389176e-06 5.371137e-06
5.356068e-06 5.370195e-06 3.9853544e-06 3.0683454e-06 1.6821297e-06 1.8851174e-06 8.710885e-07 3.838127e-06
9.705253e-07 1.8712527e-07 0.0 1.1373993e-06 2.3662221e-06 4.275039e-06 4.3004975e-06 4.2854217e-06
4.301527e-06 3.0449023e-06 4.0779548e-07 3.3611082e-07 4.4091414e-07 1.9853458e-07 2.2122022e-06 5.189565e-07
1.0128854e-07 0.0 2.4915138e-07 6.777748e-08 4.4658e-06 4.437045e-06 4.4673143e-06 4.41431e-06
2.5176473e-06 1.0764969e-06 4.474243e-07 3.1983896e-07 6.461807e-07 3.4009508e-06 2.1345627e-07 1.2291841e-07
0.0 4.0710273e-07 3.0007965e-07 2.1082355e-06 2.1215637e-06 2.1270514e-06 2.1388184e-06 1.5989925e-06
3.9521396e-07 4.3007728e-07 3.0355966e-07 3.778679e-07 2.7877875e-06 3.084556e-07 5.9316864e-08 0.0
1.4672173e-07 1.2774534e-07 1.6461096e-06 1.626631e-06 1.6411655e-06 1.6213702e-06 7.4274175e-07 2.8655552e-07
4.4911036e-07 4.000554e-07 4.5847304e-07 1.9526822e-06 9.9947314e-08 4.0322885e-08 0.0 8.274831e-07
9.553439e-07 4.7344616e-07 4.7193552e-07 4.7343244e-07 4.6880908e-07 3.4115308e-07 2.1363215e-07 1.358253e-07
1.3615661e-07 7.9044305e-08 3.9500654e-07 4.0940254e-08 1.6631407e-08 0.0 4.224633e-08 2.5455826e-08
4.4507347e-06 4.456195e-06 4.4711637e-06 4.4676694e-06 3.2848116e-06 8.695027e-07 4.4847303e-07 5.3630293e-07
8.2370764e-07 1.6925532e-06 3.220835e-07 1.6753053e-06 0.0 8.5856067e-07 2.0310474e-06 1.9699868e-05
