lightning_logs/version_76/checkpoints/epoch=49-step=150.ckpt (torch, 121691 bytes, 30 tensors)

shared_gru.weight_ih_l0 f4 [96, 15]
0	0x3d5f275d	0.0544809
1	0xbd6e693e	-0.058205836
2	0x3bfabe3c	0.0076520722
3	0xbd807cf2	-0.062738314
4	0xbe258989	-0.16165747
5	0xbdbb837f	-0.0915594
6	0x3ca58011	0.020202668
7	0x3c53cbd7	0.012927017
8	0xbe7e1dfc	-0.24816126
9	0x3e33c4a0	0.17555475
10	0xbe72ba65	-0.23703916
11	0xbe23135a	-0.15925351
12	0xbdcafba1	-0.09911276
13	0xbd3d381c	-0.04619609
14	0xbdeff1e9	-0.117160626
15	0xbd65b422	-0.05607999
16	0xbd74a3ed	-0.059726644
17	0xbdd9e846	-0.10640006
18	0x3c6d8c6d	0.014498812
19	0xbdc92760	-0.09821963
20	0xbdefc6cb	-0.117078386
21	0xbe3b2fb1	-0.18279912
22	0x3e15d215	0.14630921
23	0xbdc63e4a	-0.096798494
24	0x3c9286ec	0.017886601
25	0xbe5a381f	-0.21310471
26	0xbddd48bd	-0.10804889
27	0x3e20dc46	0.15709028
28	0x3e0ceadb	0.13761465
29	0xbe0b891f	-0.13626526
30	0x3d6a77e4	0.057243243
31	0xbcc87427	-0.024469448
32	0xbe23533a	-0.15949717
33	0xbd8a87f9	-0.06764216
34	0x3cb96b67	0.022634221
35	0xba9b9569	-0.0011870089
36	0xbe25626e	-0.16150829
37	0xbd337d6d	-0.043820787
38	0x3d988c67	0.074486546
39	0x3cfea50e	0.031084564
40	0x3e1b6b79	0.15177716
41	0xbe2fc932	-0.17166594
42	0xbe1e2719	-0.15444602
43	0xbcdc74ff	-0.026911257
44	0xbdfe651a	-0.12421627
45	0x3dd4a7a5	0.10383538
46	0xbd9cbc56	-0.0765311
47	0x3c44ce9b	0.012012149
48	0x3dc6e995	0.09712521
49	0xbdb7b09f	-0.08969235
50	0xbdd4c42a	-0.10388978
51	0x3cd830c7	0.026390446
52	0x3d4901ba	0.049073912
53	0xbddcd211	-0.107822545
54	0x3ca0871e	0.019595679
55	0x3e62ec86	0.22160539
56	0xbde476af	-0.111554496
57	0x3da8eeed	0.082486965
58	0xbd089c4f	-0.033352192
59	0xbd8c83b1	-0.06861056
60	0xbe284c8e	-0.16435453
61	0x3ba125b2	0.0049178237
62	0xbd5e286b	-0.054237764
63	0xbc3d90b4	-0.011570144
64	0xbdfac26d	-0.12244115
65	0x3dd0f198	0.1020233
66	0xbc0b694b	-0.0085089905
67	0x3e31fba7	0.17381154
68	0x3c9cb100	0.019127369
69	0x3df35558	0.118815124
70	0x3e4cb102	0.19989398
71	0x3ba4bca8	0.0050273724
72	0x3e00c189	0.12573828
73	0xbd3029d3	-0.043008637
74	0x3dae8a39	0.08522458
75	0x3dc51ffe	0.09625243
76	0xbe297058	-0.16546762
77	0xbe43cb12	-0.19120434
78	0x3ca6d772	0.020366404
79	0xbe422afe	-0.18961713
80	0x3ded4de8	0.11587125
81	0xbca31505	-0.019907484
82	0x3d4804e4	0.04883279
83	0x3e3ce1e0	0.1844554
84	0x3c598eee	0.013278706
85	0xbd37fb4f	-0.0449174
86	0x3de405c1	0.1113391
87	0x3b962cb0	0.004582964
88	0xbc1f7cc3	-0.009734335
89	0xbda4a1f7	-0.08038705
90	0xbe0f7ab4	-0.14011651
91	0x3cec48fc	0.028843395
92	0xbddde063	-0.10833814
93	0x3ddd3551	0.10801185
94	0xbd326ffd	-0.04356383
95	0xbd652bbc	-0.05594991
96	0x3e0da7e3	0.13833575
97	0x3cd0f49e	0.025507268
98	0xbcbbd5db	-0.022929123
99	0xbe073a09	-0.13205732
100	0xbe0f01f9	-0.13965596
101	0xbe1f666f	-0.15566419
102	0xbe2e686c	-0.17032021
103	0xbd739ee0	-0.059477687
104	0x3bb33a71	0.0054696132
105	0xbb6f0ce9	-0.00364762
106	0xbde02575	-0.10944644
107	0x3dd4cecd	0.103910066
108	0x3e00dcf2	0.12584284
109	0x3dba67df	0.09101843
110	0x3e1731da	0.1476511
111	0x3c99bb30	0.018766016
112	0xbdd5cfe6	-0.10440044
113	0x3d8c2021	0.068420656
114	0x3d534d33	0.051587295
115	0xbe3f888e	-0.18704435
116	0xbd10c8cf	-0.035347756
117	0xbe2353f5	-0.15949996
118	0x3daa9e48	0.08330971
119	0xbda6cecf	-0.08144914
120	0x3bfcf29a	0.00771935
121	0x3e2add29	0.16685928
122	0x3c68f58c	0.014218699
123	0xbcc44a85	-0.023961315
124	0xbdb173ae	-0.08664642
125	0x3de231f6	0.110446855
126	0xbda2ff16	-0.0795881
127	0x3d4de638	0.05026838
128	0xbe2ef95a	-0.17087308
129	0x3d5b5530	0.053548038
130	0xbdd6602c	-0.10467562
131	0xbe4eb184	-0.20184904
132	0xbe2436bc	-0.16036505
133	0xbe40121a	-0.18756905
134	0xbe343672	-0.17598894
135	0x3cdc2cb1	0.02687678
136	0x3db63b7c	0.088980645
137	0x3d863864	0.065537244
138	0x3db0cde1	0.08633018
139	0x3dac2d30	0.08407056
140	0x3e11afad	0.14227171
141	0x3de24760	0.1104877
142	0xbcd77c35	-0.026304344
143	0xbd029898	-0.031883806
144	0xbe10635f	-0.14100407
145	0x3e261afd	0.16221233
146	0xbc832270	-0.016007632
147	0x3e309b8c	0.17246836
148	0x3e780a5e	0.24222705
149	0x3db4fec3	0.088376544
150	0x3d8e53b4	0.06949559
151	0xbd73dd28	-0.059537083
152	0x3d8fd01d	0.07022116
153	0x3e00cbbd	0.1257772
154	0xbe13f936	-0.14450535
155	0x3e16aa8f	0.147135
156	0xbd08d123	-0.033402573
157	0x3e1794a5	0.14802797
158	0xbda0e2e0	-0.07855773
159	0x3d4c0044	0.04980494
160	0xbe182bb4	-0.14860421
161	0xbe3eeebc	-0.18645757
162	0xbdeefad8	-0.116689384
163	0xbd7ccb94	-0.061717585
164	0xbd2413e7	-0.040058043
165	0x3df13b01	0.11778832
166	0x3e03ce73	0.12871723
167	0xbe09415f	-0.13403843
168	0x3d267ba8	0.04064527
169	0xbdea59bc	-0.11442897
170	0xbc713a5c	-0.014723387
171	0xbe2ed182	-0.17072108
172	0xbdfb79fd	-0.12279127
173	0x3d297586	0.041371845
174	0xbdecf431	-0.11570013
175	0x3dd4a352	0.103827134
176	0x3d9cfe36	0.076656744
177	0xbcaa3fc3	-0.020782357
178	0x3dbde1e9	0.092716046
179	0x3dbd8af6	0.0925502
180	0x3da54c8d	0.080712415
181	0xbcad3310	-0.021142513
182	0xbd053c24	-0.032528058
183	0x3dac9bb8	0.084281385
184	0x3d8fc2de	0.0701959
185	0x3e147120	0.14496279
186	0xbbc1206e	-0.0058937585
187	0xbe45d876	-0.19320855
188	0x3e4c7e00	0.1996994
189	0xbd11f72d	-0.035636116
190	0x3cea95dc	0.028635912
191	0xbdc700f5	-0.097169794
192	0x3c27b9a5	0.010237132
193	0x3da1c814	0.0789949
194	0x3e44cb47	0.19218169
195	0x3d511820	0.051048398
196	0xbe5bbcaa	-0.21458688
197	0x3dd6f43a	0.10495801
198	0xbda77caf	-0.081780784
199	0xbdef9047	-0.116974406
200	0x3b500fcf	0.0031747704
201	0xbda82005	-0.08209232
202	0x3e141987	0.14462863
203	0xbda56107	-0.08075147
204	0x3e672784	0.22573668
205	0x3d856553	0.06513467
206	0x3d8b7596	0.06809537
207	0xbd04c87b	-0.032417756
208	0xbe172ed9	-0.14763965
209	0x3dccdaff	0.10002708
210	0xbd06a594	-0.03287275
211	0x3d82dbdb	0.0638959
212	0x3e2e0d57	0.16997276
213	0x3ddb468f	0.10706817
214	0x3b936aef	0.0044988315
215	0x3d9a6763	0.07539251
216	0xbe3f0403	-0.18653874
217	0xbe68463b	-0.22683041
218	0xbc5edf86	-0.013603097
219	0xbe32180d	-0.17391987
220	0xbe02974d	-0.12753029
221	0x3d92ac10	0.071617246
222	0x3d911d4a	0.070856646
223	0xbe0a7078	-0.13519466
224	0xbdca7be0	-0.098869085
225	0x3dd2d6bd	0.10294864
226	0x3dce2993	0.100665234
227	0xbe5a0086	-0.21289262
228	0xbdcac214	-0.09900299
229	0x3cae5f7c	0.021285765
230	0x3dd02f7e	0.101653084
231	0xbcc0ce44	-0.023535855
232	0xbe0d9675	-0.13826926
233	0xbd180974	-0.03711839
234	0xbd4902f1	-0.04907507
235	0xbe1ba940	-0.15201283
236	0xbd9e7859	-0.07737798
237	0xbd80b5b5	-0.06284658
238	0xbc40386a	-0.0117322
239	0x3e2031dc	0.1564402
240	0xbd8a085f	-0.06739878
241	0x3e5e6d29	0.21721329
242	0xbdf0848b	-0.117440306
243	0x3e4a32de	0.19745967
244	0xbe24a572	-0.16078737
245	0xbd96468d	-0.07337675
246	0xbe43c4ad	-0.19117995
247	0xbce6d9d0	-0.028180033
248	0xbc6b8aba	-0.014376337
249	0x3d91e6cc	0.07124099
250	0xbda229a9	-0.07918102
251	0x3dd7002a	0.10498078
252	0xbe0797b6	-0.13241467
253	0xbdd1fe07	-0.1025353
254	0xbd70cd53	-0.058789562
255	0xbd106281	-0.03525019

shared_gru.weight_hh_l0 f4 [96, 32]
0	0xbd3bc751	-0.04584438
1	0xbe12c2b9	-0.14332093
2	0xbd24d95a	-0.040246345
3	0x3dc53645	0.09629492
4	0xbd9de2e7	-0.07709294
5	0xbde805b5	-0.113292135
6	0xbdce0d14	-0.10061088
7	0x3c40420c	0.011734497
8	0x3d9e0184	0.07715133
9	0x3d90e782	0.070754066
10	0x3d88dfff	0.06683349
11	0xbdedf21e	-0.11618446
12	0x3db46bfd	0.0880966
13	0x3dc087b6	0.09400885
14	0x3bd3262a	0.0064437585
15	0x3de2c066	0.11071853
16	0x3e012139	0.1261033
17	0xbd8804c8	-0.06641537
18	0xbe173718	-0.1476711
19	0xbc11e556	-0.008904776
20	0xbca45e25	-0.020064423
21	0x3de6c50a	0.11268051
22	0x3d5a5c6e	0.053310804
23	0x3d85631e	0.06513046
24	0xbe2ffcf9	-0.17186345
25	0x3e773a38	0.24143302
26	0xbddfbfff	-0.10925292
27	0x3e373117	0.1788982
28	0xbdc1994c	-0.09453067
29	0x3e24fda1	0.16112377
30	0xbe136def	-0.14397405
31	0xbe21c4d7	-0.15797745
32	0x3e32008d	0.17383023
33	0xbde0778f	-0.10960304
34	0x3dc26f9c	0.09493944
35	0xbce47282	-0.027886633
36	0xbd2f7d14	-0.042843893
37	0x3df9497c	0.12172219
38	0xbc795f23	-0.015220436
39	0x3d7462a2	0.059664376
40	0xbe2a8bff	-0.16654967
41	0x3e192978	0.14957225
42	0x3ba6f12e	0.005094669
43	0x3b01be18	0.0019797143
44	0xbd718e31	-0.058973495
45	0x3e6a23cf	0.22865222
46	0xbd4ac1b1	-0.049501125
47	0x3e033bd1	0.12815787
48	0xbdb81725	-0.089887895
49	0x3dcfe8a8	0.101517975
50	0xbcbb9787	-0.022899402
51	0x3cc2d107	0.023781313
52	0x3e25a629	0.16176666
53	0x3e2b6146	0.16736326
54	0xbbb664cf	-0.0055662165
55	0x3dbc4c31	0.0919422
56	0xbda7a278	-0.08185285
57	0x3d886c4d	0.06661282
58	0xbe66135c	-0.22468323
59	0x3dd722da	0.10504694
60	0xbbb60ecf	-0.0055559645
61	0xbd155b6e	-0.036464147
62	0x3da10385	0.078619994
63	0xbe4f8a96	-0.2026771
64	0xbdbd5a32	-0.09245719
65	0xbcbe9ebc	-0.02326905
66	0xbd7a0cd2	-0.061047383
67	0xbddc44eb	-0.107553326
68	0x3da2fff2	0.07958974
69	0x3da9eb89	0.08296878
70	0xbbb8cf86	-0.005639973
71	0xbe2c3d42	-0.16820243
72	0x3c30644b	0.010766099
73	0x3e0f317e	0.13983724
74	0x3d80e7e0	0.06294227
75	0x3c550682	0.01300204
76	0xbe0e6e78	-0.13909328
77	0xbc9f0701	-0.01941252
78	0xbe09b2d6	-0.13447127
79	0x3db5e145	0.088808574
80	0xbda78660	-0.08179927
81	0x3e4eaed1	0.20183875
82	0xbca5b99e	-0.02023011
83	0xbdf29e78	-0.11846632
84	0x3d1af690	0.037832797
85	0xbd4e90ff	-0.050431248
86	0x3d802717	0.06257456
87	0x3ce064d3	0.027391827
88	0xbdcce345	-0.10004286
89	0xbda74a29	-0.08168442
90	0xbe4864ff	-0.19569777
91	0x3dcdb326	0.100439355
92	0xbd829e06	-0.06377797
93	0xbe114b8d	-0.14188977
94	0x3e082033	0.13293533
95	0xbd54b50d	-0.051930476
96	0xbca5be91	-0.02023247
97	0xbd36392b	-0.044488113
98	0x3d24740c	0.040149733
99	0xbdb4507d	-0.088044144
100	0x3c609bb8	0.013709001
101	0xbe62f079	-0.22162046
102	0xbd8871a0	-0.06662297
103	0x3df0f587	0.117655806
104	0x3da2ce57	0.079495125
105	0xbd57a5bb	-0.052648287
106	0xbc87511b	-0.016518166
107	0xbe643003	-0.2228394
108	0x3e215495	0.15754922
109	0xbda1a635	-0.078930296
110	0xbdd037db	-0.101669036
111	0x3db8857e	0.090098366
112	0x3dc497cb	0.09599265
113	0xbce04c0d	-0.027380014
114	0xbcabeed6	-0.02098791
115	0x3e17448a	0.1477224
116	0x3d104b3d	0.035228003
117	0xbdd8b4ad	-0.10581336
118	0x3ca2c1c6	0.019867789
119	0x3df7e58e	0.12104331
120	0xbe0a3e8a	-0.1350042
121	0xbe36b315	-0.17841752
122	0x3dafb71c	0.08579847
123	0xbd8da4cc	-0.06916198
124	0xbe33defe	-0.17565534
125	0xbd81e8c5	-0.063432254
126	0xbdf851ae	-0.12124954
127	0xbd9fe940	-0.07808161
128	0x3cb4fda7	0.022093607
129	0x3caaf34e	0.02086797
130	0xbdd56d8d	-0.10421286
131	0x3e243067	0.16034089
132	0xbe37eabe	-0.17960641
133	0xbcf3b916	-0.029751342
134	0x3e20c635	0.1570061
135	0x3c545d0e	0.012961639
136	0x3d6702b4	0.056399062
137	0x3c27f1ba	0.010250503
138	0xbe040203	-0.12891392
139	0xbe16db52	-0.14732102
140	0xbd38dd9e	-0.045133226
141	0x3d229284	0.03969051
142	0xbd35c002	-0.044372566
143	0x3da1ec16	0.07906358
144	0xbd551a1a	-0.052026846
145	0x3dc19346	0.09451918
146	0xbd073f18	-0.033019155
147	0xbe2fa7fc	-0.17153925
148	0xbd26a709	-0.04068664
149	0xbc86650b	-0.016405603
150	0x3d5a8d2d	0.053357292
151	0x3d98a359	0.07453031
152	0xbe0381cd	-0.12842484
153	0x3d12c18a	0.035829104
154	0x3e2a5405	0.16633613
155	0x3d9b35cd	0.07578621
156	0x3cd61b9f	0.026136218
157	0x3d9f2100	0.07769966
158	0x3d807493	0.06272235
159	0xbe3eca28	-0.18631804
160	0x3dd0ba58	0.10191792
161	0x3dd8cec5	0.10586313
162	0x3e55532a	0.20832506
163	0x3e51dfe8	0.2049557
164	0x3d5e908b	0.054337066
165	0x3d54bd9e	0.051938646
166	0x3d74c77a	0.05976055
167	0xbdce2a5d	-0.10066674
168	0xbdcc8f02	-0.09988214
169	0x3d949be5	0.07256297
170	0xbd2dc240	-0.04242158
171	0xbcf654e5	-0.030069778
172	0xbdd96319	-0.106146045
173	0x3cbc08f7	0.022953494
174	0xbc8f6f05	-0.017508993
175	0x3d940a09	0.072284766
176	0x3e17a340	0.14808369
177	0x3e425a57	0.18979774
178	0xbd0f0195	-0.034913618
179	0xbe1a1c4e	-0.1504986
180	0x3dbe0b06	0.09279446
181	0x3dcdb250	0.10043776
182	0x3b9e218b	0.004825776
183	0x3bdd839a	0.006760073
184	0xbe0a001b	-0.13476603
185	0x3e405d19	0.18785514
186	0x3d0d4663	0.034490954
187	0xbd8a1502	-0.06742288
188	0xbd98297f	-0.0742979
189	0xbd3bc0b5	-0.045838077
190	0x3d9e05b1	0.07715929
191	0xbdd31ecd	-0.10308609
192	0x3d8d12de	0.06888364
193	0xbcb101fb	-0.02160739
194	0x3de07778	0.10960287
195	0xbd97c72e	-0.074110374
196	0x3dd1cbd1	0.10243953
197	0x3debb825	0.11509732
198	0x3e3f06be	0.18654916
199	0xbe472455	-0.19447453
200	0x3d9e1bf0	0.077201724
201	0x3c28ddb7	0.010306767
202	0xbd791ff0	-0.060821474
203	0x3b0f4389	0.0021860322
204	0xbe16d664	-0.14730221
205	0x3d8be109	0.068300314
206	0xbdc8373b	-0.097761594
207	0x3e551fbd	0.20812888
208	0xbd1c08a1	-0.038094167
209	0x3e3940cf	0.18091129
210	0xbdc41652	-0.0957457
211	0xbdcfe699	-0.10151405
212	0x3e7c3e17	0.2463306
213	0xbe104289	-0.14087881
214	0x3db02acb	0.08601912
215	0xbe46e801	-0.1942444
216	0xbd94094b	-0.07228335
217	0xbbe36c6c	-0.006940415
218	0x3da55e45	0.08074621
219	0x3e0bfe79	0.13671292
220	0xbc5b3a89	-0.013380655
221	0xbd9d475e	-0.07679628
222	0xbc3d0dad	-0.011538905
223	0xbe32d2d7	-0.17463242
224	0xbd0b31cb	-0.033983033
225	0xbc40b6b0	-0.011762306
226	0x3dfe1fb8	0.124083936
227	0xbd95cfd4	-0.07315031
228	0xbba3397c	-0.004981218
229	0x3de0e5e8	0.10981351
230	0xbdcf3516	-0.10117547
231	0xbcfe15e1	-0.031016292
232	0x3dce8918	0.10084742
233	0xbe11d7e9	-0.1424252
234	0xbde03517	-0.10947626
235	0x3d7d1472	0.061787076
236	0x3d74405c	0.05963169
237	0x3ca53530	0.020166963
238	0x3ccafb89	0.024778144
239	0xbce86ba4	-0.02837164
240	0xbd6db997	-0.05803832
241	0x3c4630c7	0.01209659
242	0xbcce11e7	-0.02515502
243	0x3cb85b0d	0.022504354
244	0xbdaa1a08	-0.08305746
245	0x3d3129a1	0.04325259
246	0x3d20fc29	0.03930298
247	0x3e057b8d	0.13035412
248	0x3da89a4d	0.082325555
249	0x3caeb0bf	0.021324513
250	0x3ce58826	0.028019022
251	0x3e46bf3d	0.19408889
252	0xbe215261	-0.15754081
253	0x3e1e5ec2	0.15465835
254	0xbdb6999a	-0.08916016
255	0x3d489bc6	0.048976682

shared_gru.bias_ih_l0 f4 [96]
0	0xbcd1da26	-0.025616717
1	0x3d86d59c	0.065837115
2	0xbd4cb643	-0.049978506
3	0x3e540155	0.20703633
4	0x3dbb61b9	0.091494985
5	0xbdd8f3c6	-0.10593371
6	0x3d0d26e0	0.034460902
7	0x3dbdbc3f	0.09264421
8	0x3e30ea7a	0.17276946
9	0x3e300b4d	0.17191811
10	0x3c6d786a	0.014494041
11	0x3e38b3b0	0.18037295
12	0x3dea575a	0.11442442
13	0x3dea1d8f	0.11431419
14	0xbdbb0613	-0.09132018
15	0xbdc7b602	-0.09751512
16	0x3c7da542	0.015481295
17	0x3dbde9a4	0.09273079
18	0x3d99b6d5	0.075055756
19	0x3e0a8985	0.13529022
20	0x3dca6424	0.098823816
21	0x3d3857f4	0.045005754
22	0x3e2bf763	0.1679359
23	0x3ce3b1c7	0.027794732
24	0x3e636936	0.22208104
25	0xbd362f84	-0.04447891
26	0xbd86cf8d	-0.06582556
27	0x3dbea681	0.09309102
28	0xbc2aae66	-0.010417556
29	0x3d8de6ee	0.06928812
30	0x3c39a29d	0.011330274
31	0xbdd44384	-0.1036444
32	0x3d65a1ff	0.056062695
33	0xbdc74128	-0.097292244
34	0xbe7907a1	-0.24319316
35	0xbdbf7c97	-0.093499355
36	0xbd9a98af	-0.07548653
37	0xbcf60ff8	-0.030036911
38	0xbdbc6384	-0.091986686
39	0x3d4595f0	0.048238695
40	0xbdaf9f1e	-0.08575271
41	0x3e04d0b2	0.12970236
42	0xbdb69ce3	-0.089166425
43	0x3d95cf33	0.07314911
44	0x3bf56bd4	0.0074896608
45	0x3c2e5cb6	0.010642221
46	0x3e2adb28	0.16685164
47	0xbe27d907	-0.16391383
48	0xbd471f14	-0.048613623
49	0x3dffdde3	0.124934934
50	0xbde9c730	-0.11414945
51	0xbd23df5a	-0.040007927
52	0xbcf6482c	-0.030063711
53	0xbd4a81eb	-0.049440306
54	0xbe035f82	-0.12829402
55	0x3e1c318b	0.15253274
56	0x3c4a5714	0.012349863
57	0xbcf4e8f0	-0.02989623
58	0x3d01d610	0.031698287
59	0x3d4c2ca3	0.049847256
60	0xbe73bbe5	-0.23802145
61	0xbd70eeb9	-0.058821414
62	0xbd56e8a8	-0.052467972
63	0x3caff2a5	0.021478007
64	0xbde847ae	-0.11341797
65	0xbd34ab83	-0.04410888
66	0x3e593d92	0.21214893
67	0x3e44bae2	0.19211915
68	0xbe3843cc	-0.17994612
69	0x3e06503f	0.13116549
70	0xbdf6229f	-0.12018322
71	0x3e4b09c5	0.19827946
72	0x3e061f7b	0.13097946
73	0xbe06015c	-0.13086456
74	0xbd290d4d	-0.04127245
75	0xbe00a420	-0.12562609
76	0xbcfad6b2	-0.030619953
77	0x3e007e1b	0.12548105
78	0xbdeea32c	-0.11652216
79	0x3dab11b8	0.08352989
80	0xbe39fd08	-0.1816293
81	0x3d8c08f7	0.068376474
82	0xbda590a2	-0.08084227
83	0xbdbbd24d	-0.09170971
84	0xbd37e4da	-0.044895984
85	0x3d2bfe81	0.04199076
86	0xbd8b3c1c	-0.06798574
87	0x3e572a74	0.21012288
88	0xbe3b1a96	-0.1827186
89	0xbd7f6491	-0.062351767
90	0x3e75bc04	0.23997504
91	0x3dca4bbb	0.09877726
92	0xbd1a67fc	-0.037696823
93	0x3e20233a	0.15638438
94	0xbdcd861f	-0.10035347
95	0xbddafd76	-0.10692875

shared_gru.bias_hh_l0 f4 [96]
0	0x3e0bef8d	0.136656
1	0x3d9e1f0e	0.07720767
2	0xbccfe9a8	-0.02537997
3	0x3dbff4d0	0.09372866
4	0xbde13ca6	-0.10997896
5	0xbdc4cee7	-0.09609776
6	0x3e50ac1e	0.20378157
7	0xbddfc3b4	-0.10925999
8	0xbdd9bbee	-0.10631548
9	0xbd5ae40b	-0.053440135
10	0xbc9224dd	-0.017839843
11	0x3e530436	0.20607075
12	0x3e2a077f	0.16604422
13	0x3e13900a	0.14410415
14	0x3dfc929e	0.123326525
15	0xbca65238	-0.020302877
16	0xbdd88cd9	-0.105737396
17	0x3dcc218c	0.09967336
18	0x3d7adacd	0.06124382
19	0xbb2a7082	-0.0026007001
20	0x3d8734f9	0.066019006
21	0x3e39c709	0.18142332
22	0xbe0ae20a	-0.1356279
23	0xbdf0987a	-0.117478326
24	0x3df078dd	0.11741803
25	0x3d0fe100	0.035126686
26	0xbc5925d0	-0.013253644
27	0x3cae450b	0.021273157
28	0x3d8aa985	0.067706145
29	0x3df0b867	0.11753922
30	0xbdb2f01a	-0.08737202
31	0x3d4a8e89	0.04945234
32	0xbd90f111	-0.0707723
33	0xbdf6ab7b	-0.12044426
34	0x3ceef5dd	0.029169971
35	0xbe046256	-0.12928137
36	0x3d756f43	0.05992056
37	0x3e68ff68	0.2275368
38	0xbdf9a68a	-0.12189968
39	0x3d5e82fc	0.054324135
40	0x3e084a2a	0.13309541
41	0xbd9f01ad	-0.077639915
42	0xbdc0c577	-0.094126634
43	0x3dc47b40	0.095938206
44	0xbc8e11e3	-0.017342513
45	0x3e0319a9	0.12802757
46	0x3ddf5e72	0.10906686
47	0x3d6d2d66	0.057904623
48	0xbe13debc	-0.14440435
49	0x3e2ed679	0.17074002
50	0xbd784efb	-0.060622197
51	0xbd5b8a6b	-0.053598803
52	0xbdea19e0	-0.114307165
53	0xbe125ae7	-0.14292489
54	0x3d7a70c4	0.061142698
55	0x3d56a2d7	0.05240139
56	0xbda03daa	-0.078242615
57	0xbdfdf554	-0.12400308
58	0x3e69528a	0.22785392
59	0x3d6c3f59	0.0576776
60	0xbe192001	-0.14953615
61	0xbe1a5b56	-0.15073904
62	0x3d519ee9	0.05117694
63	0x3ce721f9	0.028214442
64	0xbda4869f	-0.080334894
65	0x3e24170c	0.16024417
66	0x3d8ef0d0	0.06979525
67	0x3d1cffa8	0.03832975
68	0xbce279f2	-0.027646039
69	0x3e119699	0.14217605
70	0x3ca42c56	0.020040672
71	0x3e39fbef	0.18162511
72	0xbdf4dd74	-0.11956301
73	0xbe0a9dd4	-0.13536769
74	0x3decf0ff	0.11569404
75	0xbda0d513	-0.07853141
76	0x3ddc39d2	0.10753216
77	0x3e467868	0.19381869
78	0xbe15fc94	-0.14647132
79	0xbdb52b7e	-0.08846186
80	0xbe4ca355	-0.19984181
81	0x3aa1092f	0.0012286062
82	0xbe2cdf53	-0.16882066
83	0xbe0ed415	-0.1394809
84	0x3e39be98	0.18139112
85	0xbe109a17	-0.1412128
86	0x3da6d9d6	0.08147018
87	0x3d0518c9	0.03249434
88	0xbe557897	-0.20846783
89	0x3e491292	0.1963599
90	0xbcd920ca	-0.026504893
91	0x3ca00556	0.019533794
92	0xbe6a0cbb	-0.22856419
93	0x3df2f9ff	0.11864089
94	0xbdc5ad97	-0.0965225
95	0x3ddb0cee	0.106958255

shared_output_layers.0.weight f4 [64, 32]
0	0x3dd9878d	0.106215574
1	0xbdb3acfb	-0.08773228
2	0x3e432161	0.19055702
3	0x3e5b4098	0.2141136
4	0x3e3203ba	0.17384234
5	0x3e233359	0.15937556
6	0xbc86cf18	-0.016456172
7	0x3bc6d9e2	0.006068454
8	0xbe035062	-0.12823632
9	0xbdfd9a0b	-0.12382897
10	0xbd971fe0	-0.073791265
11	0xbdcf9cde	-0.10137342
12	0xbd7b7341	-0.06138921
13	0x3e6a94d3	0.22908334
14	0xbdf91ab8	-0.12163299
15	0x3e5cd982	0.21567348
16	0xbdc13b31	-0.09435118
17	0xbdbf6246	-0.09344916
18	0xbdc918e9	-0.09819204
19	0x3b43716c	0.0029822243
20	0x3c606707	0.013696439
21	0x3d0b8aeb	0.03406803
22	0x3e0aeae6	0.13566169
23	0xbe637359	-0.2221197
24	0xbcab2347	-0.020890845
25	0xbd5b6418	-0.053562254
26	0xbdd2befd	-0.102903344
27	0x3dc56c09	0.09639747
28	0x3e742231	0.23841168
29	0x3cce6b09	0.025197523
30	0x3db32257	0.08746784
31	0xbde2a5e0	-0.110667944
32	0xbdca7298	-0.09885138
33	0xbd8d4b68	-0.06899148
34	0xbd85e49a	-0.06537743
35	0x3d9d01d1	0.07666362
36	0xbd3c9eef	-0.04605001
37	0x3e466ce9	0.19377483
38	0xbdc86656	-0.09785144
39	0x3de90757	0.11378353
40	0x3da41503	0.0801182
41	0xbe318fb8	-0.1733998
42	0xbddad1bc	-0.10684535
43	0xbe28a3f2	-0.1646879
44	0x3e16318a	0.14667335
45	0xbe363a61	-0.17795707
46	0xbdd54682	-0.10413839
47	0x3debcc05	0.11513523
48	0xba5b0ad3	-0.00083558
49	0x3b4f6f27	0.0031651945
50	0xbbab0544	-0.0052191336
51	0x3dc9545a	0.09830542
52	0xbe09a8f3	-0.13443355
53	0x3dda1bae	0.10649811
54	0x3c41d627	0.011830843
55	0xbca14299	-0.019685077
56	0x3d9ab206	0.075534865
57	0xbda07498	-0.078347385
58	0xbe062109	-0.1309854
59	0x3df36f82	0.11886503
60	0xbe4ced86	-0.20012483
61	0x3bc0a55b	0.005879087
62	0xbe25b82f	-0.16183542
63	0xbdf41401	-0.11917878
64	0x3ba40b26	0.005006212
65	0x3d1fee67	0.039045718
66	0x3e2a97c9	0.16659464
67	0x3d72718e	0.059190325
68	0x3de15f09	0.11004455
69	0xbda9803d	-0.08276413
70	0x3d90a67e	0.07063006
71	0xbe50ceb3	-0.2039135
72	0xbd0d9543	-0.034566175
73	0x3d12c281	0.035830025
74	0x3e36aaf5	0.17838652
75	0x3ca9aae5	0.020711372
76	0x3decf002	0.11569215
77	0xbd1693d8	-0.03676209
78	0xbd0c4658	-0.034246773
79	0x3e2987b0	0.16555667
80	0x3dd2ede7	0.102992825
81	0x3d80ec1b	0.062950335
82	0xbda182fa	-0.0788631
83	0x3c933746	0.017970692
84	0x3db25e26	0.08709364
85	0x3e30080b	0.17190568
86	0xbe111740	-0.14169025
87	0xbda1897d	-0.07887552
88	0xbd8e450e	-0.06946765
89	0x3da8e4a2	0.08246733
90	0xbe1eb9dd	-0.15500589
91	0xbd8ebf67	-0.06970101
92	0x3d5005c6	0.050786756
93	0xbe27ceb8	-0.1638745
94	0x3d58401f	0.052795526
95	0xbdf8852f	-0.12134778
96	0xbd36d343	-0.04463507
97	0xbc334412	-0.010941522
98	0xbda5c038	-0.080933034
99	0xbe1435f9	-0.14473714
100	0xbd177af5	-0.036982495
101	0x3de919cf	0.11381876
102	0xbe1c7b31	-0.15281369
103	0x3e1118ac	0.14169568
104	0xbdd365be	-0.1032214
105	0x3e0d62c8	0.13807213
106	0x3e4707bc	0.19436544
107	0x3de13182	0.10995771
108	0xbe22ce3d	-0.15898986
109	0x3e3b3029	0.1828009
110	0x3e001f5b	0.12511961
111	0x3e0d4769	0.13796772
112	0x3dd91d38	0.10601276
113	0x3e4b6c21	0.19865467
114	0x3e05a140	0.13049793
115	0xbdf6816b	-0.12036403
116	0x3d949456	0.07254855
117	0x3da4ecf6	0.08053009
118	0x3e05a1cd	0.13050003
119	0xbc8d65a1	-0.017260375
120	0xbe044d79	-0.12920178
121	0x3d9485cb	0.072520815
122	0xbcfcd3a9	-0.030862646
123	0xbb98c991	-0.0046627005
124	0xbd9efde2	-0.07763268
125	0xbe09a27a	-0.13440886
126	0xbd9ada9e	-0.07561229
127	0x3d9e7f19	0.07739086
128	0xbdbf5649	-0.093426295
129	0x3d1ec0dd	0.038758148
130	0x3d19d1d0	0.03755361
131	0xbd514706	-0.051093124
132	0xbe04057d	-0.12892719
133	0x3e1d6c47	0.15373336
134	0xbb283a1f	-0.0025669408
135	0xbda48b12	-0.08034338
136	0x3ce8468f	0.028353957
137	0x3da56778	0.08076376
138	0xbe528a8d	-0.20560665
139	0xbe0378dc	-0.12839073
140	0x3e33cf2d	0.175595
141	0x3de695c3	0.112590335
142	0xbe1f72fe	-0.1557121
143	0xbdedf4ba	-0.116189435
144	0xbe64d871	-0.22348191
145	0x3c8b84c1	0.017031075
146	0xbdb849ab	-0.08998426
147	0x3d67d62e	0.056600742
148	0x3dd2667e	0.10273455
149	0x3da031d1	0.07822002
150	0xbdad6d8d	-0.08468161
151	0x3c116306	0.008873707
152	0x3deb2a0b	0.114826284
153	0xbe106489	-0.14100851
154	0xbddea68c	-0.1087161
155	0x3ccef247	0.025262011
156	0x3e16319f	0.14667366
157	0x3e3b0de1	0.18267013
158	0x3daced5f	0.084437124
159	0x3e03e2c9	0.1287948
160	0x3c841e7e	0.016127821
161	0x3e3429f8	0.17594135
162	0x3cec32c1	0.028832795
163	0xbcf2d3e8	-0.02964206
164	0x3de06f10	0.109586835
165	0xbdc790d0	-0.09744418
166	0xbe0cd55b	-0.13753264
167	0x3db0b669	0.08628542
168	0x3dedb230	0.11606252
169	0x3e229a69	0.15879215
170	0xbcaa76f9	-0.020808684
171	0x3d70776f	0.05870765
172	0x3df0e6ed	0.117627956
173	0x3df58df4	0.11989966
174	0x3da0d468	0.07853013
175	0xbcdcb933	-0.026943779
176	0x3ca8431c	0.020539813
177	0xbd6f123f	-0.05836701
178	0x3e5f4f16	0.21807513
179	0xbcae3512	-0.02126554
180	0xbcca61c8	-0.024704829
181	0x3d341f16	0.04397496
182	0x3dd19a81	0.102345474
183	0xbdd6b974	-0.10484591
184	0xbdeac645	-0.11463598
185	0x3e19c3de	0.15016124
186	0xbe2964df	-0.16542386
187	0xbe2604aa	-0.16212717
188	0x3df746e1	0.12074066
189	0x3e03ada5	0.12859209
190	0x3e912c59	0.28354147
191	0x3e0a9cd4	0.13536388
192	0x3e0e83e3	0.13917498
193	0x3b0c5ba6	0.0021416931
194	0x3dcb79a7	0.09935313
195	0xbd01a2a4	-0.031649247
196	0x3ca875e2	0.020564023
197	0xbe000470	-0.12501693
198	0xbe2639a6	-0.16232929
199	0xbe361889	-0.17782797
200	0x3bd7f776	0.006590779
201	0xbc4a0d95	-0.01233234
202	0xbdb21a13	-0.086963795
203	0x3e61c197	0.22046505
204	0xbc854ae3	-0.01627106
205	0x3df20345	0.1181703
206	0x3d03e1d4	0.03219779
207	0x3ddbd62e	0.10734211
208	0x3c23f50e	0.010007156
209	0x3d9fe11f	0.0780661
210	0x3cb1db4d	0.021711016
211	0x3e0b70f2	0.13617304
212	0x3e39fb21	0.18162204
213	0x3d9706aa	0.07374318
214	0x3d358bd9	0.044322822
215	0x3e032b3d	0.12809463
216	0xb96fd6f0	-0.00022872887
217	0x3df60826	0.12013273
218	0xbe60c3fc	-0.21949762
219	0xbd0956ae	-0.03352993
220	0x3e2769e7	0.16348992
221	0xbd503538	-0.050832003
222	0xbd4ab59f	-0.049489614
223	0x3e3576e4	0.17721134
224	0x3d51d1cb	0.051225465
225	0xbdde5dbf	-0.108577244
226	0x3dde7d59	0.10863752
227	0x3c220242	0.009888234
228	0xbe35cd5f	-0.17754124
229	0xbd0cabc1	-0.034343485
230	0x3e1ca82f	0.15298532
231	0xbdb58e9c	-0.08865091
232	0xbd7dc2ec	-0.06195347
233	0xbe5c5854	-0.2151807
234	0xbe57e16d	-0.21082087
235	0xbe651110	-0.2236979
236	0x3d9f75a2	0.077861086
237	0x3e101bd1	0.14073111
238	0x3d8c7d4f	0.06859838
239	0xbd8c851e	-0.068613276
240	0xbda5c6e3	-0.08094575
241	0xbc4ea0ab	-0.012611548
242	0xbe1d03b0	-0.15333438
243	0xbe43c252	-0.19117096
244	0xbe58fae8	-0.21189463
245	0x3cf61efb	0.03004407
246	0x3dec8cda	0.11550303
247	0xbd4b4201	-0.049623493
248	0x3dc4509b	0.09585687
249	0xbe02fc55	-0.1279157
250	0x3e5973f7	0.21235643
251	0xbd872cad	-0.06600318
252	0xbd9094c1	-0.070596226
253	0x3e406180	0.18787193
254	0x3de13404	0.10996249
255	0xbc39d3ff	-0.011342048

shared_output_layers.0.bias f4 [64]
0	0xbddde84f	-0.10835325
1	0xbd9eff27	-0.0776351
2	0xbd0e6cb5	-0.03477164
3	0xbdaab1c1	-0.08334685
4	0xbdc3bf43	-0.09557965
5	0xbda3a207	-0.07989889
6	0xbd89fbc2	-0.06737472
7	0xbdad88b0	-0.08473337
8	0x3e2dc511	0.16969706
9	0x3deba86a	0.11506732
10	0x3c926dcf	0.017874626
11	0x3c9e6e3a	0.01933967
12	0xbd063d2b	-0.032773178
13	0xbe1000a4	-0.14062744
14	0x3cb1d693	0.021708762
15	0x3d20a78b	0.03922228
16	0x3cc801e7	0.02441497
17	0xbe326ac0	-0.17423534
18	0x3dbc68e9	0.091996975
19	0x3ba6313e	0.005071788
20	0xbc33e3d5	-0.010979612
21	0x3d7f615a	0.0623487
22	0xbbf20f00	-0.007387042
23	0x3e0a41f6	0.13501725
24	0x3d1d4aab	0.038401287
25	0xbdb7d0ff	-0.0897541
26	0xbdd71748	-0.105024874
27	0x3da42f3e	0.08016823
28	0x3dc3435a	0.09534331
29	0x3e0c46b0	0.1369884
30	0xbdcd6591	-0.10029138
31	0x3b699714	0.0035643028
32	0x3d6d39d6	0.057916485
33	0xbc71013c	-0.014709767
34	0x3e2d4288	0.16919911
35	0xbe316c0f	-0.17326377
36	0x3dbb97f9	0.09159846
37	0x3e121f62	0.14269784
38	0x3df31fc7	0.118712954
39	0x3e273f9d	0.1633286
40	0x3e01da3b	0.12680905
41	0xbdc98b26	-0.098409936
42	0x3d868bf0	0.0656966
43	0x3dc914af	0.09818398
44	0x3d3ca7bd	0.046058405
45	0x3b7a7738	0.0038218033
46	0x3e2d86bc	0.16945928
47	0x3de0d113	0.10977378
48	0x3daccedc	0.08437893
49	0x3e1995d4	0.14998561
50	0x3d847158	0.06466931
51	0xbdf955c6	-0.12174563
52	0x3d5c0dc9	0.053724084
53	0xbd0304cd	-0.031987
54	0xbd7a3776	-0.061088048
55	0x3d2cbbbf	0.042171236
56	0x3bfa016c	0.007629564
57	0xbe00bf03	-0.12572865
58	0xbdaf1d4f	-0.08550512
59	0xbda3729f	-0.079808466
60	0x3e2e2b81	0.17008783
61	0xbe2d535e	-0.16926333
62	0xbd6b702b	-0.05748002
63	0xbc24d662	-0.0100608785

shared_output_layers.3.weight f4 [32, 64]
0	0x3e247a69	0.16062321
1	0x3a957c3e	0.0011404825
2	0x3e5018c6	0.2032195
3	0x3d0af456	0.033924423
4	0x3d911f44	0.070860416
5	0x3d5e759b	0.054311376
6	0x3d41056b	0.047124308
7	0x3dcf4058	0.101196945
8	0x3e5433f5	0.20722945
9	0x3b782dc0	0.0037869066
10	0x3da66860	0.08125377
11	0x3e4e0ca8	0.20122015
12	0x3e4c5c43	0.1995707
13	0x3d994694	0.07484165
14	0x3e31e183	0.17371182
15	0x3d651626	0.055929326
16	0x3e290734	0.16506654
17	0x3de2ca54	0.11073747
18	0x3e3c9590	0.18416429
19	0x3dde3c8c	0.10851392
20	0xb8e13e28	-0.000107404136
21	0x3d76b858	0.060234398
22	0x3e1655ef	0.14681219
23	0xbcce593e	-0.025189038
24	0x3db400e4	0.087892324
25	0x3db78d18	0.08962458
26	0x3debbc02	0.11510469
27	0x3d5df5b5	0.054189403
28	0x3e279cae	0.16368362
29	0x3c93c8ae	0.018040027
30	0x3d977c9d	0.07396815
31	0x3e50c37c	0.20387071
32	0x3d68f2ad	0.05687206
33	0xbde465eb	-0.11152252
34	0x3cb81576	0.02247117
35	0x3c945ea7	0.01811154
36	0x3ae45ac6	0.0017422072
37	0x3b7f6c62	0.0038974513
38	0x3e2250b4	0.15851098
39	0x3e321361	0.17390205
40	0x3d91b18d	0.07113943
41	0x3d516d5a	0.051129676
42	0x3d134e9b	0.035963636
43	0x3e01ffac	0.12695187
44	0x3c8396f0	0.016063184
45	0x3d84d5c0	0.06486082
46	0x3e2fe261	0.171762
47	0x3d2232dd	0.03959929
48	0x3b0e915a	0.0021754117
49	0x3db22d90	0.087000966
50	0x3e13e6d0	0.14443517
51	0x3de6cb86	0.11269288
52	0x3cfd15d0	0.03089419
53	0x3b5624f3	0.0032675832
54	0x3d26c000	0.04071045
55	0x3e4de95e	0.20108554
56	0x3cf13544	0.029444344
57	0x3dca65e2	0.09882714
58	0x3bc381d7	0.005966406
59	0x3dd5f5a1	0.104472406
60	0x3de9a3d7	0.11408203
61	0x3d1992dd	0.037493575
62	0x3d47bac1	0.048762087
63	0x3beb11f5	0.0071737715
64	0xbd253b06	-0.040339492
65	0x3d9dadd0	0.07699168
66	0xbd9a333f	-0.07529306
67	0xbdd06794	-0.10176006
68	0xbd82893e	-0.06373833
69	0xbd97536f	-0.073889606
70	0xbdbdadbc	-0.09261653
71	0xbdffadb4	-0.12484303
72	0xbc815199	-0.01578598
73	0x3d297d67	0.04137936
74	0x3cd67e3e	0.026183244
75	0x3d36e59b	0.044652563
76	0x3da7a7a1	0.081862696
77	0xbd218020	-0.03942883
78	0x3c694297	0.014237068
79	0xbdaab1b8	-0.083346784
80	0xbd48c150	-0.049012482
81	0x3d18e7d0	0.03733045
82	0xbdf1d8df	-0.11808943
83	0x3d576c31	0.052593414
84	0xbddd693e	-0.10811089
85	0xbd6486dc	-0.055792674
86	0x3c94585d	0.018108541
87	0x3d821507	0.06351667
88	0xbe10b2b9	-0.14130677
89	0xbcf8699f	-0.030323802
90	0x3db3e33f	0.08783578
91	0xbdf2b2b3	-0.118504904
92	0x3d1e078b	0.038581412
93	0xbe1cec6c	-0.15324563
94	0x3d1b6647	0.037939336
95	0x3d133c74	0.035946324
96	0x3c74938b	0.014927755
97	0xbd0cc54c	-0.034367844
98	0x3bd7ff09	0.006591682
99	0x3d7dc592	0.061955996
100	0xbbe40ff2	-0.0069599086
101	0x3da00734	0.07813874
102	0x3da8c27b	0.08240219
103	0xbe0b6247	-0.13611709
104	0xbd01c4e8	-0.031681925
105	0xbcd84130	-0.026398271
106	0x3d3bffac	0.045898125
107	0xbd519eed	-0.051176954
108	0xbe0d71ef	-0.13812993
109	0xbdc7414a	-0.0972925
110	0x3daee47f	0.08539676
111	0x3c1f73e8	0.009732224
112	0x3da14ea0	0.07876325
113	0x3ceacb07	0.028661264
114	0x3d9bff53	0.076170586
115	0x3dc64535	0.09681169
116	0x3d61d451	0.05513412
117	0xbd9390ea	-0.072053745
118	0xbc99e694	-0.018786706
119	0x3d874e5d	0.066067435
120	0xbdc4bbbb	-0.09606119
121	0xbd8e257d	-0.06940744
122	0x3d193113	0.037400316
123	0xbe179490	-0.14802766
124	0xbdb9b6fc	-0.090681046
125	0x3d8d568f	0.06901275
126	0x3b762818	0.0037560519
127	0x3dc01823	0.09379604
128	0xbd3a53d9	-0.04549012
129	0x3d35a177	0.044343438
130	0xbd76b4eb	-0.06023113
131	0x3d265a3e	0.040613405
132	0xbc94c1f2	-0.018158887
133	0xbd691497	-0.0569044
134	0xbdde3e4e	-0.108517274
135	0x3d1906e8	0.037360102
136	0xbe02566e	-0.12728283
137	0x3d54b958	0.05193457
138	0xbd41a4c3	-0.04727627
139	0xbda23521	-0.0792029
140	0xbdc34b40	-0.09535837
141	0x3dc4ab29	0.09602959
142	0x3db48668	0.088146985
143	0xbd4efb66	-0.05053272
144	0xbccce687	-0.025012268
145	0xbdb813a5	-0.08988122
146	0xbdd42c22	-0.1035998
147	0x3d7ae1e3	0.06125058
148	0xbc774e67	-0.015094376
149	0xbdb507ee	-0.08839403
150	0xbd12a977	-0.035806146
151	0xbca3f41c	-0.020013861
152	0xbd323c0d	-0.0435143
153	0xbe0f982a	-0.1402289
154	0xbcf2b6a2	-0.029628102
155	0xbc3e55b2	-0.011617111
156	0x3ca10faa	0.01966079
157	0x3d8f22b7	0.06989043
158	0xbd627128	-0.055283695
159	0x3d4474f6	0.047963105
160	0xbdbad44a	-0.09122522
161	0xbe01cd60	-0.12676
162	0x3d0fc41a	0.035099126
163	0xbd5c122a	-0.05372826
164	0x3bb19533	0.0054193973
165	0xbe1840a2	-0.14868405
166	0xbd2bfaf5	-0.04198738
167	0xbde65033	-0.112457655
168	0x3d4140da	0.047180988
169	0xbde46a50	-0.1115309
170	0xbd858939	-0.06520314
171	0xbe061dfb	-0.13097374
172	0xbcecf63d	-0.02892601
173	0x3d76dcc3	0.06026913
174	0xbdd88a6e	-0.10573278
175	0x3d992b72	0.0747899
176	0x3d73b218	0.059496015
177	0xbcb59b5c	-0.022168808
178	0x3bf76308	0.0075496472
179	0x3d0a0ce6	0.033703707
180	0xbce2f58d	-0.027704978
181	0x3dac23f8	0.08405298
182	0x3bcf92ae	0.0063346243
183	0xbd3f2d0c	-0.04667382
184	0xbe0f5ce8	-0.14000285
185	0xbcfad40f	-0.030618696
186	0xbdcbd857	-0.09953373
187	0x3d321a02	0.043481834
188	0xbdc60227	-0.09668379
189	0xbe08da29	-0.13364471
190	0xbd9c5940	-0.076342106
191	0x3cb62346	0.022233617
192	0x3c80441e	0.01565748
193	0xbdfd1f8d	-0.123595335
194	0x3d9c7d33	0.07641067
195	0x3b379d7d	0.0028017454
196	0xbd8020f2	-0.06256284
197	0xbdbf2b07	-0.09334379
198	0xbd83802e	-0.06420933
199	0x3d5563ac	0.052097008
200	0xbdc6c222	-0.09704997
201	0xbc7ee19f	-0.015556722
202	0xbcc45d51	-0.023970278
203	0xbd0227f3	-0.03177638
204	0x3d1dc59c	0.038518533
205	0x3d59d005	0.0531769
206	0xbe05baa7	-0.13059483
207	0x3b567028	0.003272066
208	0xbcfcffda	-0.030883718
209	0xbd416bcd	-0.047221947
210	0x3dc9855b	0.09839889
211	0x3ce3d1ab	0.027809938
212	0xbd637494	-0.0555311
213	0x3da6634b	0.081244074
214	0x3af50358	0.0018693013
215	0xbcff02ab	-0.031129202
216	0xbdbfddbb	-0.093684636
217	0x3da59236	0.08084528
218	0xbc6e9f40	-0.014564335
219	0x3d631465	0.05543937
220	0xbd216a36	-0.03940793
221	0x3db0e03f	0.086365215
222	0xbd55e6c1	-0.052222017
223	0xbde27cd1	-0.11058963
224	0xbdb35a05	-0.08757404
225	0x3c8161c0	0.015793681
226	0xbdd018d8	-0.101609886
227	0xbdf1bb36	-0.11803286
228	0xbdb06d4a	-0.08614595
229	0xbd27d2c5	-0.04097249
230	0xbc8e9579	-0.017405258
231	0x3c1839ac	0.009291094
232	0xbd889513	-0.06669059
233	0xbbd7042c	-0.0065617766
234	0xbe191a5e	-0.14951465
235	0xbe0fdf93	-0.1405013
236	0x3ca2a9ae	0.0198563
237	0xbd8a4cf7	-0.06752961
238	0x3c192b60	0.00934872
239	0xbd00785d	-0.031364787
240	0x3d50c8c6	0.050972722
241	0xbdef1bf6	-0.11675255
242	0xbd6e373a	-0.058158137
243	0xbd880096	-0.06640737
244	0xbd929e1b	-0.071590625
245	0xbdfc5ce8	-0.12322408
246	0xbd96e81d	-0.07368491
247	0xbd956997	-0.0729553
248	0x3d897e9a	0.067136005
249	0x3d95cdce	0.07314645
250	0xbc9f98e7	-0.01948209
251	0x3dc503d2	0.09619869
252	0xbd4d46f4	-0.050116494
253	0xbd999304	-0.07498744
254	0xbdcdfe8e	-0.10058318
255	0xbde72907	-0.11287122

shared_output_layers.3.bias f4 [32]
0	0x3d767e11	0.06017882
1	0x3da671b2	0.081271544
2	0x3d9d02df	0.07666563
3	0x3c2fb15f	0.010723441
4	0x3dfba33b	0.12286993
5	0xbb758b15	-0.0037466933
6	0x3d499b2c	0.04922025
7	0x3e2811a0	0.16412973
8	0xba934bdb	-0.0011237817
9	0xbb968119	-0.0045930264
10	0x3d9cf358	0.07663602
11	0x3d6248b7	0.055245128
12	0x3cdb60d7	0.026779575
13	0x3d210ae2	0.03931702
14	0xbd9d6c43	-0.07686665
15	0x3d546226	0.051851414
16	0x3d96382d	0.073349334
17	0x3d9e5085	0.07730202
18	0xbda3e732	-0.080030814
19	0x3d8ab32c	0.067724556
20	0xbc4d1089	-0.012516149
21	0xbd0bb44a	-0.034107484
22	0x3ddbc56e	0.10731016
23	0xbdee3616	-0.1163141
24	0xbb9874d7	-0.0046526003
25	0xbd9bee98	-0.076138675
26	0x3e0743d8	0.13209474
27	0xbc2c4a05	-0.0105156945
28	0x3dbeff9c	0.09326097
29	0x3d31f165	0.043443102
30	0x3e076800	0.13223267
31	0x3d22c23a	0.03973601

shared_output_layers.6.weight f4 [2, 32]
0	0x3af9c937	0.0019057159
1	0x3dc7b8ca	0.097520426
2	0x3cbb4692	0.022860799
3	0x3da692e0	0.08133483
4	0x3db649a6	0.08900766
5	0x3de792ef	0.11307322
6	0x3e2c0af3	0.16801052
7	0x3b95364d	0.0045535923
8	0x3afa5b10	0.0019100625
9	0x3d7331f5	0.059373815
10	0xbd4b1418	-0.04957971
11	0xbd909f41	-0.07061625
12	0xbde8a4d6	-0.11359565
13	0xbdbcfbfb	-0.09227749
14	0xbdf77ba1	-0.12084127
15	0xbc737c92	-0.014861243
16	0x3e09f912	0.13473919
17	0x3be363b9	0.006939378
18	0x3c1a5203	0.009418967
19	0x3aedde77	0.0018147965
20	0xbd2638b5	-0.040581424
21	0x3b2a55d6	0.0025991104
22	0x3ccb0a02	0.024785046
23	0xbdc368e8	-0.09541494
24	0x3c1e963e	0.009679375
25	0x3e45c3a8	0.19312918
26	0x3b509854	0.0031829076
27	0xbaa80131	-0.0012817738
28	0xbd19cbe1	-0.03754795
29	0x3e08d854	0.13363773
30	0x3b685e17	0.0035456473
31	0x3d99613f	0.07489251
32	0xbe2475c2	-0.16060546
33	0x3dc18c05	0.09450535
34	0x3dea0cb3	0.114282034
35	0x3de57e2a	0.112057045
36	0xbe13a30c	-0.14417666
37	0x3d419bff	0.04726791
38	0x3d5d281d	0.053993333
39	0xbe92554b	-0.28580698
40	0xbe5f2cfb	-0.21794502
41	0x3cf5a632	0.029986475
42	0x3e18675c	0.14883178
43	0x3c88da3f	0.01670563
44	0x3d791ac8	0.060816556
45	0xbb978393	-0.004623839
46	0x3d9498ea	0.072557285
47	0x3b0ef18b	0.0021811451
48	0x3d3adcd8	0.04562077
49	0xbe617356	-0.22016653
50	0xbe0d5762	-0.13802865
51	0xbe26728f	-0.16254638
52	0xbe2c49fc	-0.16825098
53	0xbe7deff1	-0.24798562
54	0xbe85675b	-0.26055416
55	0x3e0dc687	0.13845263
56	0x3d74111c	0.05958663
57	0x3d71660b	0.058935206
58	0xbe8ecc48	-0.2789023
59	0xbe69e801	-0.22842409
60	0xbe8fe919	-0.28107527
61	0x3d525663	0.051351916
62	0xbe3799bb	-0.17929737
63	0x3ddfb41b	0.10923024

shared_output_layers.6.bias f4 [2]
0	0xbd386569	-0.045018587
1	0xbe15b8ea	-0.1462132

exp_avg f4 [96, 15]
0	0xbac04f44	-0.001467206
1	0xbabe7bf7	-0.0014532794
2	0xbac2aa1a	-0.001485172
3	0xbac1976a	-0.0014769856
4	0x3b185d46	0.0023248955
5	0xba5e829b	-0.00084880897
6	0xb9e5edbd	-0.00043855413
7	0xb957f7e6	-0.00020596347
8	0x39b6887c	0.00034815434
9	0xbb61c512	-0.0034449738
10	0x3a8d1ba4	0.0010765684
11	0x39c360b3	0.00037265345
12	0x00000000	0.0
13	0x3a6c28e0	0.00090087764
14	0x3a1872d0	0.0005815448
15	0x38fe85eb	0.00012136608
16	0x38fc71bc	0.00012037481
17	0x38fa52ac	0.00011936328
18	0x38fd9628	0.00012091949
19	0x39ba153c	0.00035492505
20	0xba1479fe	-0.000566393
21	0xb9b44583	-0.00034384066
22	0xb9799ae6	-0.00023804195
23	0xb9bf3708	-0.0003647136
24	0xbac40cc6	-0.001495742
25	0x390adeae	0.0001324366
26	0xb90f4360	-0.00013662642
27	0x00000000	0.0
28	0xb8a07052	-7.650316e-05
29	0xb8b601a4	-8.678742e-05
30	0x3a35bd5e	0.000693282
31	0x3a34058f	0.00068672834
32	0x3a396094	0.0007071581
33	0x3a3748e4	0.00069917575
34	0xba079a53	-0.00051728374
35	0xb953ed43	-0.00020210915
36	0xb88742f2	-6.449771e-05
37	0x3782c61a	1.5589456e-05
38	0xb9e6273f	-0.0004389826
39	0x397bae37	0.00024002125
40	0xb930eb3b	-0.00016872298
41	0xb85d0d0a	-5.270265e-05
42	0x00000000	0.0
43	0xb9da1451	-0.00041595337
44	0xb92b123c	-0.00016314624
45	0xba2d5b53	-0.00066130346
46	0xba2c3fe7	-0.00065708015
47	0xba2ed596	-0.00066694
48	0xba2eb999	-0.00066652294
49	0xba03cf50	-0.00050281454
50	0xb8881b65	-6.490088e-05
51	0x3a4da521	0.00078447355
52	0x3a6758ca	0.0008825181
53	0x391cf652	0.00014969081
54	0x3b47d865	0.0030493971
55	0xba1730d7	-0.00057674706
56	0xb9fed087	-0.0004860202
57	0x00000000	0.0
58	0x395d37e1	0.00021097019
59	0xb9dc7177	-0.00042046208
60	0xb9c1ca45	-0.0003696253
61	0xb9ba20d9	-0.00035501158
62	0xb9c99d5e	-0.00038454955
63	0xb9c2b0bc	-0.0003713424
64	0x39f93196	0.00047529925
65	0xb94ba436	-0.00019420762
66	0xb9042940	-0.00012603868
67	0xb8848837	-6.3196225e-05
68	0x36d8b3f9	6.458253e-06
69	0xbaa06074	-0.0012235777
70	0xb9a22167	-0.00030923935
71	0xb9ac1041	-0.00032818507
72	0x00000000	0.0
73	0x3a011e2c	0.00049254554
74	0xb8125d92	-3.4896257e-05
75	0x390efc2f	0.00013636121
76	0x390efc30	0.00013636122
77	0x39111ab5	0.00013838227
78	0x390fbc7f	0.00013707763
79	0x38304e04	4.2034328e-05
80	0x38be7fca	9.0837086e-05
81	0xb921e13e	-0.00015438066
82	0xb94eac8e	-0.00019709973
83	0xb909eba1	-0.00013153117
84	0xba51af4b	-0.0007998838
85	0x37b8abce	2.2014512e-05
86	0xb877b85b	-5.9061083e-05
87	0x00000000	0.0
88	0x370f8cb7	8.556227e-06
89	0x3909760a	0.00013109311
90	0xb94bb456	-0.00019426769
91	0xb94f991a	-0.00019798093
92	0xb95cea44	-0.00021068106
93	0xb9522b1c	-0.0002004322
94	0x3a8e94c1	0.0010878072
95	0xb8b2af41	-8.520345e-05
96	0xb8c09b1d	-9.1841655e-05
97	0xb8572c01	-5.1300976e-05
98	0x39316890	0.00016918988
99	0xbaa83772	-0.0012833907
100	0x3a0d22ec	0.0005383927
101	0x35ad6b67	1.2920763e-06
102	0x00000000	0.0
103	0x3a057f70	0.0005092537
104	0xb9e066f7	-0.00042801324
105	0xb9c6d08c	-0.00037920882
106	0xb9c759cb	-0.0003802314
107	0xb9ccf9cb	-0.00039096022
108	0xb9cb7a10	-0.0003881012
109	0x3a169128	0.0005743676
110	0xb9768876	-0.00023511224
111	0xb9581743	-0.00020608031
112	0xb90fe0f5	-0.00013721346
113	0xb86aa477	-5.5943117e-05
114	0xba9a417c	-0.0011768783
115	0x393b9317	0.00017888505
116	0x36b1856e	5.2905443e-06
117	0x00000000	0.0
118	0x393e12f6	0.00018126876
119	0xb907375c	-0.00012895226
120	0xb9d6110f	-0.0004082997
121	0xb9d715f3	-0.0004102435
122	0xb9dddd38	-0.00042317226
123	0xb9de269f	-0.00042371915
124	0x38c8d9d5	9.5773175e-05
125	0xb9ef4ffa	-0.0004564522
126	0xb90d7c88	-0.000134932
127	0x36905e35	4.3025016e-06
128	0xb984182f	-0.0002519502
129	0x3a282210	0.0006413767
130	0xb8aa45bb	-8.11922e-05
131	0x3859b611	5.1906394e-05
132	0x00000000	0.0
133	0x3936e1fb	0.00017441057
134	0xb74f8ae0	-1.2370496e-05
135	0xba3a0820	-0.00070965476
136	0xba3acbe0	-0.00071257167
137	0xba3bbfc5	-0.000716206
138	0xba3b63bf	-0.0007148347
139	0xb910bff3	-0.00013804417
140	0xb9aa0989	-0.0003243203
141	0x37f2fc37	2.8966095e-05
142	0x39169d54	0.00014363724
143	0xb984ec9b	-0.00025353287
144	0x39c5b9a2	0.00037713075
145	0xb91ee51a	-0.00015153401
146	0xb80683fc	-3.207101e-05
147	0x00000000	0.0
148	0xb9813a03	-0.0002464802
149	0xb9763a03	-0.00023481999
150	0x3a5cf2ea	0.0008428531
151	0x3a5d11f6	0.00084331573
152	0x3a5a47bc	0.00083267293
153	0x3a5b77b7	0.0008372026
154	0x3a3b2d89	0.0007140269
155	0xb9b26b89	-0.00034030926
156	0xba1aa0e4	-0.00058986084
157	0xba0db157	-0.0005405149
158	0x39f84d74	0.00047359953
159	0xba3de57f	-0.00072439754
160	0x3a3c8fee	0.0007193078
161	0x3aa2ebb3	0.0012429863
162	0x00000000	0.0
163	0x3a2d972a	0.00066219515
164	0x3915e152	0.00014293686
165	0xb9a08b85	-0.00030621528
166	0xb9a40fdb	-0.0003129233
167	0xb99f17b9	-0.00030344518
168	0xb9a5fa6b	-0.00031657828
169	0x3a159632	0.000570628
170	0xb9f9df8b	-0.00047659533
171	0xb812e47b	-3.50219e-05
172	0x38c9c6d0	9.6214586e-05
173	0xb9cc6b7e	-0.0003899
174	0x3a2f35ba	0.0006683726
175	0x3a2d61b8	0.00066139875
176	0xb9ada13b	-0.00033117257
177	0x00000000	0.0
178	0xb9d3bf36	-0.0004038752
179	0xb87da7d8	-6.0476217e-05
180	0xba17334b	-0.0005767836
181	0xba13ee70	-0.0005643135
182	0xba18d4f2	-0.0005830071
183	0xba164998	-0.0005733012
184	0x397348f6	0.00023201466
185	0xba079dc0	-0.0005173348
186	0xb912f6ca	-0.00014015581
187	0x38327920	4.2551314e-05
188	0xb8850ccb	-6.344317e-05
189	0xb8887989	-6.507623e-05
190	0x38d10f56	9.968753e-05
191	0x381a4ddb	3.678897e-05
192	0x00000000	0.0
193	0xb70ce3a8	-8.397656e-06
194	0xb80fa4e4	-3.4247423e-05
195	0x3a322446	0.00067955663
196	0x3a3172f9	0.00067691464
197	0x3a2fa75e	0.000670066
198	0x3a32ee67	0.0006825686
199	0x3aa93ae5	0.0012911229
200	0x393df7b0	0.00018116715
201	0xb940fd1d	-0.00018404839
202	0xb998e295	-0.00029160516
203	0xb94e4c1d	-0.00019674045
204	0xbb52c876	-0.003216294
205	0xb8818c62	-6.177348e-05
206	0x399dd7a7	0.00030106047
207	0x00000000	0.0
208	0x38d16050	9.983836e-05
209	0xb9532df5	-0.00020139648
210	0xba653932	-0.00087441795
211	0xba64ab44	-0.00087230303
212	0xba668101	-0.0008793027
213	0xba665e7b	-0.00087878824
214	0xb9403fd9	-0.00018334332
215	0xb8f78048	-0.00011801772
216	0x38d18f17	9.992549e-05
217	0x389f3a9c	7.592628e-05
218	0xb84bb3f4	-4.8566566e-05
219	0x3a8daa49	0.0010808195
220	0xb9d99574	-0.00041500817
221	0xb9820677	-0.0002480035
222	0x00000000	0.0
223	0x362cdd7a	2.5758914e-06
224	0x37ba74a5	2.2227245e-05
225	0x382c7fbd	4.112696e-05
226	0x3847b941	4.761783e-05
227	0x3844e2ee	4.6941386e-05
228	0x3852b67f	5.0237864e-05
229	0xb916d7e4	-0.0001438554
230	0xb9e0fdef	-0.00042913805
231	0xb90603d3	-0.0001278066
232	0xb7fac179	-2.9892415e-05
233	0xb9e066ab	-0.00042801103
234	0x39991300	0.0002919659
235	0xb8f041ff	-0.000114563845
236	0xb891de07	-6.9554946e-05
237	0x00000000	0.0
238	0xb8a83e12	-8.022426e-05
239	0xb8714269	-5.7520727e-05
240	0xb9ff2f69	-0.00048672713
241	0xba00c591	-0.0004912252
242	0xb9f46198	-0.0004661202
243	0xba00e7ee	-0.0004917373
244	0x39934635	0.00028090333
245	0x3883ef63	6.291156e-05
246	0x39bd569a	0.00036113412
247	0x398eb064	0.00027215772
248	0xb9f3c581	-0.00046495724
249	0x3ac11563	0.0014731105
250	0xba439e17	-0.0007462217
251	0xb8d42aae	-0.000101168975
252	0x00000000	0.0
253	0xba188027	-0.0005817436
254	0x3853e2fb	5.0517712e-05
255	0xb8f066dd	-0.000114632516
