lightning_logs/version_81/checkpoints/epoch=49-step=150.ckpt (torch, 257337 bytes, 72 tensors)

shared_gru.weight_ih_l0 f4 [96, 15]
000000 13 d8 b1 3d 8c bd 7c bc 49 f4 8c 3b 2c 27 fa 3d
       0.08683791 -0.015426051 0.004301582 0.12214503
000010 48 f5 2a 3d c1 56 50 bc 62 64 50 3e 95 3e 36 3e
       0.041737825 -0.012715996 0.20350793 0.1779731
000020 d9 b9 14 be 6c d2 e5 bd 6d 25 3f 3e b3 9b 1f 3d
       -0.1452402 -0.112217754 0.1866662 0.038966846
000030 ab 9e c6 bd 39 dd 33 be 8a 57 10 3a ac 14 3c 3d
       -0.09698232 -0.17564858 0.00055062084 0.04591815
000040 65 3b 9f 3d dd b0 2d 3e 14 34 07 be 6b f1 46 3e
       0.077750005 0.16961999 -0.1320346 0.19428031
000050 01 48 53 3e fc 68 b5 3d 83 ce bf 3d 4a 99 e1 bc
       0.20632936 0.08857915 0.09365561 -0.027538914
000060 0f b7 6d 3d 9d e5 f7 3d 72 16 ab 3b 56 36 e1 3d
       0.058035906 0.12104342 0.0052211815 0.10996692
000070 07 74 2d 3d 67 79 15 be 8e f8 13 be 62 74 a9 bd
       0.04234698 -0.14597093 -0.14450285 -0.082741514
000080 dc 98 83 bc b8 42 19 3e 32 2f 84 3d 5d 8a 5b 3d
       -0.0160641 0.14966857 0.06454314 0.05359875
000090 c0 47 07 3e 2c e7 de 3c 41 2d b4 3b 4c 21 8f bd
       0.13210964 0.02720984 0.0054985587 -0.06988773
0000a0 59 04 a4 3d 51 0a 2f 3e c9 89 b9 bd 6b b9 52 be
       0.08008642 0.17093779 -0.090594836 -0.20578544
0000b0 8f 58 07 3e 98 2f bf bd 44 8f 06 3d f1 9a ab bd
       0.13217376 -0.0933525 0.032851472 -0.08379162
0000c0 94 d1 04 be 32 93 e0 bb da b4 c1 bc fd c1 97 3d
       -0.12970573 -0.0068534845 -0.023645807 0.07410047
0000d0 da 40 4b 3e c2 39 bb bd 92 10 ad 3d c0 f7 c8 3c
       0.19848958 -0.09141876 0.08450426 0.024532199
0000e0 2a 38 3e bd ea 2b 27 be 8f 00 cd 3c d7 17 d6 bc
       -0.04644028 -0.16325346 0.02502468 -0.026134415
0000f0 13 89 dd 3d 2a fe 15 3d dd 33 b6 3d 12 b9 8a 3c
       0.108171605 0.036619343 0.08896611 0.016933952
000100 5d 2f d2 bd 13 ee 20 3e 20 25 3f 3d a0 27 0e be
       -0.1026294 0.15715818 0.046666265 -0.13882303
000110 1f ea 73 3d 45 78 f8 3d c5 71 c6 bc 27 bc 07 be
       0.059549447 0.121323146 -0.024224171 -0.13255368
000120 21 4b 9e 3d 4f 6b 0a be 85 ad d2 3d c6 f1 d6 bd
       0.077291735 -0.13517497 0.102870025 -0.104953334
000130 c9 7f 8b bd 06 f6 0c 3e 68 05 6e bc ea 9e 19 be
       -0.068114825 0.13765725 -0.014527656 -0.15002027
000140 45 8d 3d 3e 82 d3 02 3e c5 38 ee bd 49 09 0e 3e
       0.18510921 0.12775996 -0.11631922 0.1387073
000150 84 fe b7 3d 12 b9 6e 3d 84 ab d5 bc 0f bc 0e be
       0.08984092 0.058281966 -0.026082762 -0.13938926
000160 e5 df 18 be be 7f ac bd 78 92 38 be 27 26 be bd
       -0.14929159 -0.084228024 -0.18024623 -0.09284621
000170 4b 03 3e be 3c 49 ba bd 63 d2 f2 bd 31 4c dc bd
       -0.18555944 -0.090959996 -0.11856534 -0.1075672
000180 0e 99 45 3d e8 49 fa 3d f5 bb 0c be e7 5c f7 bc
       0.048241667 0.12221128 -0.13743575 -0.030195666
000190 22 1b 42 bd 24 02 00 3e 63 c7 1e 3e e3 e2 d2 bd
       -0.047389157 0.12500817 0.15505747 -0.102971815
0001a0 5e f5 20 3d ad dc 49 be 06 5b 4f be 1f 20 bb bd
       0.0392965 -0.19713087 -0.20249566 -0.09136986
0001b0 b7 33 fc bc 94 e3 54 bd 7a 6b 3b 3d 23 92 b3 bb
       -0.030786378 -0.051974848 0.045756795 -0.0054800673
0001c0 b6 a4 e6 3d b3 12 b7 bd 62 7d 1a 3e 28 56 d6 3c
       0.11261885 -0.089391135 0.15086892 0.02616413
0001d0 2c f9 de 3d 37 d0 11 3e e2 a8 d4 3d a4 8c c4 bd
       0.108873695 0.14239584 0.10383774 -0.095971376
0001e0 e6 7d fa bd 78 85 47 3d 45 cd c9 bd 6c cd 97 3d
       -0.122310445 0.04871127 -0.09853605 0.07412228
0001f0 95 1c 07 3e e7 3c 0d be 72 45 18 3e 5f 97 65 3b
       0.13194497 -0.13792764 0.14870241 0.003503285
000200 c4 5e 84 3d 61 34 77 bd 9b da fd 3d 7e 13 1c bd
       0.064633876 -0.060352687 0.12395211 -0.038104527
000210 06 3e ba bd 61 d6 b6 bd e2 18 f3 bd 0d 94 6d bd
       -0.09093861 -0.08927608 -0.118699804 -0.05800252
000220 7d f0 24 be c8 8b e6 3c 1e b4 c4 bd ca 88 4b bd
       -0.16107364 0.028142825 -0.09604667 -0.049691
000230 88 e2 94 bd ea de 20 be 4a 0e 06 3e ad 24 0f 3e
       -0.0726977 -0.15710035 0.13091388 0.13978834
000240 f6 aa ae 3d 5f c9 7f bd ab b7 85 3e bf ec 0d 3e
       0.08528702 -0.0624479 0.2611669 0.13859843
000250 42 3a f5 3d 84 14 7b bd 8b 9a 09 be e1 cf f6 3d
       0.119740024 -0.061298862 -0.1343786 0.120513685
000260 3a ee 2f 3e f2 a0 6f bd 1c 78 a7 3d 4e ae bd bd
       0.1718072 -0.0585031 0.08177206 -0.092617616
000270 b1 c5 22 bd 1b 5a 47 be 47 20 c5 bc 1d 7f 22 be
       -0.039739314 -0.19467966 -0.024063243 -0.15868802
000280 ab b5 07 3e 3e f9 1a 3d d6 89 de 3d c3 4b c1 bc
       0.13252895 0.037835352 0.10866134 -0.023595696
000290 46 99 ae 3d ca a2 1d be 9d bd 12 be f4 6e 2d bd
       0.08525328 -0.1539413 -0.14330144 -0.04234214
0002a0 b7 46 ad 3b 36 0e 35 be c1 68 cf bd 3e 0d fa 3b
       0.005287971 -0.17681202 -0.10127402 0.007630973
0002b0 e3 29 87 bd 5d b2 b5 3d 1e 3f 65 be 25 ff 2d 3d
       -0.06599786 0.08871911 -0.22387359 0.042479653
0002c0 61 d7 d8 3d 61 40 9a ba 75 c5 32 bc 8c 60 9d bd
       0.10587955 -0.0011768454 -0.010911335 -0.076844305
0002d0 dd 3e 5c 3d 7f a4 1a be 6e c8 f0 bb 70 aa d2 39
       0.05377089 -0.15101813 -0.007348112 0.00040181307
0002e0 2d 7c eb bc b2 f6 fc 3d 36 48 d7 bb d3 c0 2b 3e
       -0.028745735 0.12351741 -0.0065698875 0.16772775
0002f0 5b 03 26 be c0 05 d2 3d 4e 95 5e 3e 44 ff 6b bd
       -0.16212218 0.10255003 0.21736643 -0.057616487
000300 19 9c ef 3d 93 09 9e 3c e8 7e f0 bc ba 96 eb 3d
       0.11699695 0.019291675 -0.029357389 0.11503358
000310 b8 cc 02 3e 9d d9 23 3c 09 09 27 be 55 45 d6 3c
       0.12773407 0.0100006135 -0.1631204 0.026156107
000320 2e d9 31 bd 53 8d db 3b f7 da ca bd 54 c6 27 3e
       -0.04342001 0.006700197 -0.099050455 0.1638425
000330 96 59 6d bd e2 df 2c 3e 06 69 cf bd a9 a8 19 3d
       -0.057946764 0.1688228 -0.101274535 0.037514362
000340 d2 f3 70 3d 5c 26 66 3c cc 82 2f bd 62 a5 33 bd
       0.058826275 0.0140472315 -0.042849347 -0.043858893
000350 6f 22 8b 3d 67 c8 91 bd 15 a2 2b 3d 14 47 7e 3d
       0.06793677 -0.07118302 0.04190262 0.062079504
000360 77 e5 5e bd c1 f5 d2 bc fe 28 cd 3d 3e a8 26 be
       -0.054418053 -0.02575195 0.10017584 -0.16275117
000370 0e 6d 5b bc ed e6 c5 3d e8 c2 72 3c e2 8f 3f bd
       -0.0133927 0.09663186 0.014816977 -0.046768077
000380 f8 26 09 be 39 9e 9b bd b9 2b 0b 3e 1d 3c 58 be
       -0.13393772 -0.07598538 0.13590898 -0.21116681
000390 3b fa 39 be 49 ab 03 3e 70 f8 0b be b8 fa 93 bd
       -0.18161862 0.12858309 -0.1366899 -0.07225555
0003a0 55 82 de 3d b4 68 03 3e 40 a2 33 be 76 fb 38 be
       0.108647026 0.1283291 -0.17542362 -0.18064675
0003b0 bd 62 c0 bc 66 94 d1 bd d9 21 68 3c 41 77 1a be
       -0.023484582 -0.10233383 0.014168226 -0.15084554
0003c0 97 4d 41 3e db 6e 18 3e bb 34 f5 3c 67 3a 22 3e
       0.18877254 0.14886038 0.02993237 0.15842591
0003d0 bc 0f b1 bd e9 6f 41 bd 8f 14 70 3d f4 e2 06 3e
       -0.08645579 -0.047225866 0.058613356 0.13172513
0003e0 a5 28 5d 3d 79 9d 68 bd b6 d8 a5 3d aa 30 32 be
       0.05399384 -0.056790803 0.08097975 -0.17401376
0003f0 fe b1 0f 3c 16 75 67 3d 9f c6 51 be 22 9b 9e bc
       0.008770464 0.056508146 -0.20485924 -0.019361082

shared_gru.weight_hh_l0 f4 [96, 32]
000000 d4 69 d5 3d 70 58 e9 bd 41 d0 83 3d 85 55 0b 3e
       0.10420576 -0.11393821 0.06436206 0.13606842
000010 19 37 ed 3c b7 bc 5a bd c5 34 00 3e d6 34 f5 bb
       0.028956937 -0.05340263 0.1252013 -0.007483105
000020 e2 04 4c be 43 9d 34 3e c1 5e 86 3c 66 33 3a bd
       -0.19923738 0.17638116 0.016402604 -0.045459174
000030 35 14 4f be 90 cb 12 3e 30 da 96 3d 0a 60 11 3e
       -0.20222552 0.14335465 0.07365835 0.14196792
000040 55 3f d0 3d d3 09 9a 3d 84 be 8f bd 37 fc 6d 3d
       0.101683296 0.07521405 -0.0701876 0.05810186
000050 d9 bb 06 3e 56 a5 dd 3d a6 7d 8b bd 78 f3 2c 3e
       0.13157596 0.10822551 -0.06811075 0.16889751
000060 a6 d8 0f 3e 21 9e 4c 3e 60 7d c8 3b 08 e7 52 bd
       0.14047489 0.19982196 0.0061184615 -0.05148986
000070 a0 9d a0 3c 5a 3c ac bd df 55 c3 3d 65 63 40 3c
       0.019606411 -0.08409949 0.09537863 0.0117424475
000080 b3 10 05 3e b6 f9 f9 bc e3 c6 78 3d 17 8a d3 bd
       0.12994651 -0.03051458 0.06073655 -0.10329073
000090 5c 04 4d be f6 81 be bd 24 45 c7 3d e4 f8 91 3d
       -0.20021194 -0.09302132 0.097299844 0.0712755
0000a0 da 88 f0 3b 88 8b 00 3e 0d a3 b1 bc d6 c4 33 be
       0.0073405327 0.12553227 -0.021684194 -0.17555556
0000b0 29 61 01 3e 01 a3 90 bd 95 41 d7 3d 77 9f 0c be
       0.1263472 -0.070623405 0.10510556 -0.13732706
0000c0 5e a0 0b be a1 16 9e bd 1e fc c7 bd 02 4a 8d bd
       -0.13635394 -0.0771916 -0.097648844 -0.068988815
0000d0 a1 7c ca 3d 0a 1d 1e 3d 5c 82 0f be a6 70 76 bc
       0.09887052 0.038601913 -0.14014572 -0.015041506
0000e0 5a 70 b0 bd 3f 39 4b 3e 8d 5a 92 bd fe 3d 32 be
       -0.08615179 0.19846056 -0.071461774 -0.1740646
0000f0 2f 1c ce bd 3e 7a 32 be 87 87 d6 bc ee 8b d1 bb
       -0.10063969 -0.17429444 -0.026187671 -0.0063948547
000100 68 2d f6 3d bd 9b da bd 55 fe c4 3d da 9a 65 3d
       0.12020379 -0.10674236 0.096188225 0.05605588
000110 6d f9 16 3e 64 d0 56 be 83 ba 02 3e 51 f2 e5 3d
       0.14743586 -0.20977932 0.12766461 0.11227859
000120 4d 27 d7 bc 2e 4b 56 3d 07 21 2e bb 57 3b 81 3c
       -0.026263857 0.05231779 -0.0026569979 0.015775366
000130 a8 97 05 be 38 42 12 bc 7e 2a a6 3d e1 65 08 be
       -0.13046134 -0.008926921 0.081135735 -0.13320114
000140 59 dc b2 bd 9f 17 eb bd d0 21 0a 3d 76 a6 e5 3d
       -0.08733434 -0.11479115 0.033723652 0.112133905
000150 64 03 db bc 9e ed 33 bd 15 0f 35 be 24 2b 77 bd
       -0.026735015 -0.04392778 -0.17681535 -0.060343876
000160 9d d1 ae 3d 79 7a 12 3e 4a 6d 35 3e 0c c1 ed 3d
       0.08536074 0.14304532 0.17717472 0.116090864
000170 86 7e d2 bc 61 54 0f be 04 f3 de 3c 85 18 3a 3e
       -0.025695097 -0.13997032 0.027215488 0.18173416
000180 59 05 cf 3d 48 45 69 bd cc 55 21 3e 35 4d f2 3d
       0.10108442 -0.056950837 0.15755385 0.11831132
000190 f6 d1 31 3e cf f0 25 be 9a 7d 25 3e 09 32 db bd
       0.1736525 -0.16205142 0.16161194 -0.10702903
0001a0 bd 6c 86 3d 7f 9d a2 bd 11 29 54 3c c1 c0 98 bd
       0.06563709 -0.07940196 0.012949244 -0.0745864
0001b0 1a 7f 6b bc f8 48 22 3e 70 bf 20 3e f2 ab a8 3d
       -0.014373565 0.15848148 0.15698028 0.08235921
0001c0 26 8f ab 3a d0 8c 22 bd 39 eb 9d bd bb 25 28 bd
       0.0013088926 -0.03968507 -0.07710881 -0.041051608
0001d0 89 23 46 3e 60 bf 50 bc 2b 6c 2a be d6 5a 0b bd
       0.19349493 -0.01274094 -0.16642825 -0.034022175
0001e0 2d 74 72 3d 30 c7 97 bd 6e 4a e1 3d cd 6b b9 3d
       0.059192825 -0.07411039 0.110005245 0.090537645
0001f0 40 6e 18 3d 19 da 10 bc c2 17 1b be f6 17 de bd
       0.037214518 -0.008841061 -0.15145782 -0.10844414
000200 5b 77 30 be d8 fe 95 3c c2 a3 f3 3c 84 e6 28 3c
       -0.1723303 0.018309996 0.029741172 0.010308865
000210 26 86 17 be b0 67 03 bd 25 28 d4 3b 44 60 05 bc
       -0.14797267 -0.032081306 0.006474512 -0.008140627
000220 ef 3d 0b bd 60 12 83 3d 3a 4e e1 3c d8 1b 55 3d
       -0.03399461 0.06399989 0.027503122 0.052028507
000230 c8 fe 96 3d 63 73 2a bc 54 21 ba 3c 0f 16 14 3d
       0.073728144 -0.010403487 0.02272097 0.03615385
000240 3b 57 83 bd 5c 74 0b be cd 2e 02 be eb e3 dd bd
       -0.06413122 -0.13618606 -0.12713166 -0.108344875
000250 d3 65 0f 3e b9 ee 14 3d de 9d e3 3d 75 8e 82 bd
       0.14003687 0.036360476 0.11114095 -0.06374828
000260 89 51 53 3e 6e e1 58 3d 57 b8 da bd ca 70 2e bd
       0.20636572 0.05294936 -0.10679691 -0.042588033
000270 a5 e7 d2 bd 20 b0 20 be ee 18 a2 bd a0 42 21 3e
       -0.10298089 -0.15692186 -0.07914911 0.15748072
000280 f7 16 f1 bd 41 03 d3 3d 93 54 81 bc f7 fc 5d 3e
       -0.11771958 0.10303355 -0.015787398 0.2167853
000290 4b bd 13 3e ea 04 30 3d 5e 8d 0c 3e a7 5b 0d be
       0.14427678 0.042973436 0.13725802 -0.13804494
0002a0 b5 2a ae bc 3f 5b b4 3d 7e a6 f1 3d a0 62 2c be
       -0.021260599 0.08806466 0.11799334 -0.16834497
0002b0 46 61 3b 3e 7d 2a 1f 3c a5 e4 10 3e 85 9a dc bc
       0.18298826 0.00971472 0.14149721 -0.02692915
0002c0 bc 90 4b 3d 76 e9 04 be 63 e2 23 3e c6 78 b0 3d
       0.049698576 -0.12979683 0.16004328 0.08616786
0002d0 62 9a d2 ba b5 90 a5 3d 2a e3 b9 3d 23 7a ab 3d
       -0.0016067738 0.08084241 0.09076531 0.08372905
0002e0 73 18 06 3c cf de 13 be 9c db 1e be 07 f8 58 bd
       0.00818454 -0.14440463 -0.15513462 -0.052970912
0002f0 1c de f6 3d 3f 06 8d bd 54 d9 0b be c7 2f fa 3d
       0.12054083 -0.06885957 -0.13657123 0.12216144
000300 9c 77 15 3e d1 7e 16 bd 0f b2 1c be ba 2e 19 3e
       0.14596409 -0.036742035 -0.15302299 0.14959231
000310 bd bc 5c bd 85 a5 b9 bc 0a d1 3f bd d2 48 e7 3c
       -0.053890932 -0.022661934 -0.046830215 0.028232966
000320 e7 88 13 3c 07 4e 7b 3e 8f ab e4 3d c3 44 14 be
       0.009004808 0.24541484 0.11165535 -0.14479356
000330 5c a7 ad bd a7 e1 a9 bc ce e3 0e be f5 60 c9 bd
       -0.08479187 -0.020737482 -0.13954088 -0.09832946
000340 7d 02 f8 ba 63 f9 3a be dd 6d ad bd 72 a1 1c be
       -0.001892164 -0.18259196 -0.084682204 -0.15295961
000350 00 c1 f8 3c d4 58 47 bd 74 ec b7 3d 40 8c 00 3e
       0.030365467 -0.048668697 0.08980647 0.12553501
000360 28 96 80 3d e1 58 df 3c ff 24 3f bd 2d 0e 97 bc
       0.0627864 0.02726406 -0.04666614 -0.018439377
000370 fd 4c 84 3e 7f 66 aa bd 1d 59 57 bd 1d 95 97 bd
       0.25839987 -0.08320331 -0.05257522 -0.07401488
000380 68 6e b3 bd f7 b2 07 be 73 37 83 3d 16 8e 0f 3e
       -0.08761293 -0.13251863 0.064070605 0.14019045
000390 9f 11 a0 3d 74 6a 2e be 95 3f 40 3b 75 25 70 bd
       0.07815861 -0.17032796 0.0029334773 -0.05862947
0003a0 b1 02 12 3e cb 11 6b bd 9b 83 00 3e 01 85 87 3c
       0.14258839 -0.057390016 0.12550204 0.016542913
0003b0 9a 18 1f 3e 2b 48 50 3e 89 13 fc 3d 8a 50 4a 3d
       0.15536729 0.2034003 0.123084135 0.049393214
0003c0 77 28 9d 3d 2d da e9 bd a4 4b 30 3e bf b6 16 be
       0.07673734 -0.11418567 0.17216355 -0.1471815
0003d0 c2 d6 3b 3c 1a c1 9b 3b b2 cf 9f 3c a2 20 a5 3b
       0.0114647765 0.004753244 0.019508217 0.0050392905
0003e0 5f 45 36 be 36 b1 37 3e d3 ad b9 bd 22 03 c9 3d
       -0.177999 0.17938694 -0.090663575 0.09815051
0003f0 14 38 44 3d 48 96 06 3d bb bf 19 be 3e 37 50 3e
       0.047905043 0.032858163 -0.15014546 0.20333573

shared_gru.bias_ih_l0 f4 [96]
000000 08 5d 67 bd 63 03 05 3b 04 c3 ca bd b4 da 25 3e
       -0.056485206 0.0020296208 -0.099004775 0.1619671
000010 f5 a4 2d 3e 99 f1 f4 3d 95 be d9 bc 41 83 85 3d
       0.16957457 0.119601436 -0.026580134 0.06519175
000020 1f e2 24 3e 1e 21 6b bd 86 30 02 bc 85 4b 09 3e
       0.16101883 -0.05740463 -0.007946139 0.13407715
000030 56 93 28 3e 21 19 53 3d 69 ca f4 bd e0 52 f9 bd
       0.16462454 0.051537637 -0.11952669 -0.1217401
000040 53 47 80 bd e8 87 7c 3d 67 69 d6 3c 85 ea c1 3d
       -0.06263604 0.061653048 0.026173307 0.09468559
000050 87 1f e2 bd 67 f3 c1 3c 37 e5 4f 3e 22 38 7c bd
       -0.110411696 0.023675634 0.20302282 -0.06157697
000060 1f 59 12 3e 70 f3 ba bd 52 6a b0 3d ae 64 80 3d
       0.1429181 -0.09128463 0.08614029 0.06269203
000070 80 6b 2e be 74 04 88 bc a7 59 0e 3e 6e cb 16 bd
       -0.17033195 -0.016603686 0.13901387 -0.0368151
000080 f9 87 e3 bc 3f d3 3c 3d e7 2e f4 3c 93 01 4b 3d
       -0.027774798 0.046099897 0.029807521 0.04956205
000090 8f ce 3d 3e dc 8d 5f 3d 54 15 32 3e 03 44 9f 3c
       0.18535827 0.054578647 0.17390949 0.01944161
0000a0 10 62 55 bd 8d 12 53 3e 9b d7 07 3e 5d d1 60 3d
       -0.052095473 0.20612545 0.1326584 0.054887164
0000b0 20 29 03 be 67 f7 f8 3d df e5 03 3e b1 be 37 3c
       -0.12808657 0.12156563 0.12880658 0.011214898
0000c0 20 9d 05 3e 4f a8 25 bd db c9 08 bc 4a 7a be 3d
       0.1304822 -0.040443715 -0.008348907 0.093006685
0000d0 d6 d6 d2 3d e4 4b e2 3d 85 c5 26 3d 51 71 9c bd
       0.10294883 0.11049631 0.040715713 -0.07638801
0000e0 85 32 25 bd 1f 68 8f bd 32 a4 76 3d 92 9f e4 3c
       -0.040331382 -0.070022814 0.060215183 0.02790812
0000f0 96 89 0e 3e 4e b3 d0 bb fd 51 36 bd bf 3b df bd
       0.13919672 -0.006369031 -0.044511784 -0.109000675
000100 3a dc af bd 72 40 5f 3c ab 7e 28 be a0 a3 db 3d
       -0.08586927 0.013626205 -0.1645457 0.10724568
000110 42 e5 1b be 7f da 7d 3d 41 2c b2 bd bc f8 57 be
       -0.15224174 0.061975952 -0.08699847 -0.21090978
000120 f0 e2 ed bd 93 d3 74 bd 02 7a 24 3e c4 99 14 be
       -0.116155505 -0.059772085 0.16062167 -0.14511782
000130 5c 2a 09 be 99 74 8f 3d 4d a3 a3 3c b1 94 ef 3d
       -0.13395065 0.07004661 0.019975329 0.116982825
000140 f6 4c 90 bd 39 ce 92 3d a2 25 36 be b5 67 01 3e
       -0.07045929 0.0716824 -0.17787793 0.12637217
000150 14 cc 0b bd 5a 3f da bc f8 c2 44 bd 92 48 53 3e
       -0.03413017 -0.026641537 -0.0480375 0.20633152
000160 fb f3 06 3e d6 f6 a4 bb 28 d4 e6 3d bd d5 27 be
       0.13179009 -0.005034308 0.11270934 -0.16390128
000170 39 a6 06 3e 1c 0e 28 be ed 14 58 3c a4 dc 02 3e
       0.13149346 -0.16411632 0.013188583 0.1277948

shared_gru.bias_hh_l0 f4 [96]
000000 de 44 aa bb 64 84 29 3e cb 03 02 be 3c 0d 92 3d
       -0.005196198 0.1655441 -0.1269676 0.071314305
000010 bc d3 0c be c1 1c c3 3d cc df 8a bb 92 4b 2b be
       -0.13752645 0.09526969 -0.0042381044 -0.16728047
000020 6d fe d6 bc bb 6a d1 bd 08 b0 03 be ad 12 df 3d
       -0.026244367 -0.10225435 -0.1286012 0.10892234
000030 0e e6 84 bb f7 4d 23 be 8a b8 1a 3e 0c de c6 3b
       -0.004055745 -0.1594771 0.15109459 0.0060689505
000040 24 dc 6e 3d ca f3 0c bd 57 af 8e 3d 56 23 2e 3d
       0.05831541 -0.034412183 0.06967037 0.042514168
000050 5e 7b 9a 3d c7 0b 2d 3e b7 2b 54 3c 69 e7 be 3d
       0.07543062 0.16899024 0.012949876 0.09321482
000060 d2 0d 17 be 46 d6 f9 3d b8 83 d4 3b ef a1 57 3e
       -0.14751366 0.121990725 0.0064854287 0.21057867
000070 17 f8 ba bd a2 92 06 3d 1e 92 b5 bd b1 a0 46 3e
       -0.09129351 0.032854684 -0.0886576 0.19397236
000080 2f 51 1f 3d 7c 4e ff ba fe 64 05 3e fe d7 9f bd
       0.038895782 -0.0019478346 0.13026807 -0.07804869
000090 7b e1 08 be a0 2f 2a be c2 02 7a bd 1f f5 27 be
       -0.13367264 -0.1661973 -0.061037786 -0.164021
0000a0 3a 7f cf bd 36 5b 24 bd 86 b4 de 3d 90 4a 37 3d
       -0.101316884 -0.040126048 0.10874276 0.044748843
0000b0 16 c6 df bd 81 a5 de 3d 7e c5 67 3d ce 25 88 bb
       -0.10926454 0.10871411 0.056584828 -0.0041548973
0000c0 bd 35 85 bd 84 0b 03 be 65 15 a1 3c de 73 03 3d
       -0.065043904 -0.12797362 0.019663522 0.03209292
0000d0 47 2f 5a 3e ed b9 90 3b fb 3a 1b 3e f5 06 57 3e
       0.21307097 0.0044166953 0.15159218 0.20998748
0000e0 df 4b 13 3e e9 bf bb 3d 8e 57 0b 3e 03 4c 4a 3e
       0.14384411 0.09167463 0.13607618 0.19755559
0000f0 a0 d3 83 3c e9 79 a0 bd 63 43 90 bd d2 4f ad bd
       0.016092122 -0.078357525 -0.07044103 -0.0846249
000100 b3 0c 28 be 91 54 26 3e d0 71 34 3c b0 a5 4a 3e
       -0.16411094 0.16243197 0.011013463 0.19789767
000110 99 ab b0 3c 02 f9 89 bd 50 13 10 be 0c d6 e6 3d
       0.0215662 -0.067369476 -0.14069867 0.11271295
000120 2a 8a 9d bb 1f c8 aa 3d f6 b6 9a bd 64 92 01 3e
       -0.00480773 0.08338951 -0.07554428 0.126535
000130 3e 55 19 be ca 3a 85 bb dc e1 45 bd db f5 cc 3d
       -0.14973924 -0.004065846 -0.0483111 0.10007831
000140 f3 6b bb bc 28 d2 d4 bd 1e 44 56 be 39 04 bf bc
       -0.022878623 -0.103916466 -0.20924422 -0.023317443
000150 e6 df af 3c 8a af 72 bd d7 cb 37 3e 7f 4c ac 3d
       0.021469068 -0.05924944 0.17948852 0.08413028
000160 6c 80 a2 bd a9 75 41 bd 5b e8 1d 3e ee 2f 1b be
       -0.07934651 -0.04723135 0.15420668 -0.15155002
000170 10 6a 04 be 7b 9f 07 bc ee bb 8c 3a 92 9d 23 3e
       -0.12931085 -0.008277769 0.001073716 0.15978077

stock_specific_layers.AVAV.0.weight f4 [64, 32]
000000 65 31 20 3e e4 ae 22 bc 64 75 e2 3d ca c0 8d bd
       0.15643843 -0.0099293925 0.11057547 -0.06921537
000010 9c 2c b1 bd f1 9b f7 3d d7 f9 1b 3e 25 48 3e be
       -0.08651087 0.1209029 0.15232025 -0.18582208
000020 13 d3 18 be 8f ef 1a bd 33 ae 57 3e 26 7f e8 3d
       -0.14924268 -0.037826117 0.21062545 0.11352377
000030 d5 df 85 3d 4b 40 66 bb ce ed 0e 3e d3 42 46 3d
       0.06536833 -0.0035133536 0.13957903 0.048403572
000040 ed 06 2e 3e aa 14 92 3d 86 35 77 bd 3f 00 03 be
       0.1699483 0.071328476 -0.06035378 -0.12793063
000050 cb ce fe 3d 3c 8a 8e bb b7 90 fe bc 87 83 95 3d
       0.124417864 -0.004349975 -0.031074865 0.073004775
000060 f2 cc 4a 3e be 55 57 be 96 96 7c bd ef 26 10 bd
       0.19804743 -0.21028802 -0.061667047 -0.03519338
000070 0c 5b f5 3d ba 20 2e 3d f6 17 ac bd b9 69 fa 3d
       0.119802564 0.04251168 -0.08403008 0.12227196
000080 0d 22 03 be 28 62 85 3d 63 40 64 be c3 6b b5 bc
       -0.12805958 0.065128624 -0.22290187 -0.022146111
000090 8f 6a 9d 3d 34 39 9e bd bc 78 35 be f4 83 00 be
       0.0768634 -0.077257544 -0.17721838 -0.12550336
0000a0 86 b5 21 be ce a8 2a 3e 36 ea 4b 3e 90 e4 60 3c
       -0.15791902 0.16665956 0.19913563 0.013726369
0000b0 58 5d ac 3d 0c dd 1c 3e 4d 6c 4e be a1 ab 97 3c
       0.084162414 0.15318698 -0.20158501 0.018514456
0000c0 d2 72 17 ba ab 16 2f 3e 40 2c 13 be 25 c6 b6 3d
       -0.00057773024 0.17098491 -0.14372349 0.08924512
0000d0 fb 60 10 3e 88 1c 05 be 3b 54 ca 3d ee 46 ee bc
       0.14099495 -0.12999165 0.09879347 -0.029086556
0000e0 47 0f e4 3b 69 6e 06 3d fd 1b 5c 3e d4 47 c6 bd
       0.006959829 0.03282014 0.21495052 -0.09681669
0000f0 95 02 f5 3d 7c 46 23 be 7f 14 92 bd 66 45 1e bd
       0.11963383 -0.15944856 -0.071328156 -0.038640402
000100 2d 9d 2f be 7b 38 0e 3e 0e f2 d1 3c f1 4f 2a 3e
       -0.17149802 0.13888733 0.025628116 0.16632058
000110 ec dd 92 bd 70 7e ca 3b 6c 78 3f bd 14 22 12 3d
       -0.071712345 0.0061796233 -0.046745703 0.03567703
000120 4e 41 0b be 4c 47 b1 3b 51 6d 7a bc c5 d8 d3 3c
       -0.1359913 0.0054101106 -0.015284852 0.0258602
000130 f2 00 43 3d 1a b7 00 3d 86 36 a8 3d 5b ef 0e 3e
       0.047608323 0.03142462 0.082135245 0.13958494
000140 b4 e8 63 bd 59 d1 89 3c 49 6a 43 3d c5 63 a0 bd
       -0.055641845 0.016823458 0.047708783 -0.078315295
000150 ec bb 61 bc 27 41 86 bd 43 b7 89 bd 11 d3 1d 3e
       -0.013777714 -0.065553956 -0.067244075 0.15412547
000160 3e 04 80 3d a3 cd 97 3d f1 64 18 be 0b b2 4c be
       0.06250809 0.07412269 -0.14882256 -0.19989793
000170 87 5c 1b bc 1d 17 b9 bd 45 ea 42 3e ad 0f 6d 3d
       -0.009482509 -0.09037612 0.19034679 0.057876278
000180 19 74 3c 3b e5 52 e8 3d b2 6c fa bd ca 1e 0a bd
       0.0028755723 0.11343936 -0.12227763 -0.03372077
000190 9b 9e 3a be 37 87 76 bd 88 4e 14 3e a8 9c 17 be
       -0.18224566 -0.060187545 0.14483082 -0.14805853
0001a0 68 fc bc 3d 7a 56 d2 bc e1 79 f6 3d d8 1e e5 bc
       0.0922783 -0.025676 0.12034965 -0.027968809
0001b0 e8 e9 04 3e e7 cd 84 bd e8 f0 fb bd 9f f2 0f be
       0.12979853 -0.06484585 -0.123018086 -0.14057396
0001c0 f5 8b 9b 3d d8 0c 99 bd 26 73 14 3e da 04 28 be
       0.07595054 -0.07473153 0.1449705 -0.164081
0001d0 70 93 c5 bd 73 f1 19 be b0 94 19 be 8b bb 82 3c
       -0.09647262 -0.15033512 -0.14998126 0.015958568
0001e0 e0 08 41 be 8f c8 cd bd 03 e4 2a 3d dc a0 bb 3d
       -0.18851042 -0.10048019 0.041721355 0.09161541
0001f0 b5 9b a4 3d 52 d5 2b be d0 00 77 bd c5 fe c1 3d
       0.08037511 -0.16780594 -0.06030351 0.094724216
000200 ba 77 0f be 85 ba f1 3d fa dd 74 bd 4a 44 d3 3d
       -0.14010516 0.11803154 -0.059782006 0.103157595
000210 32 2f 3c be 88 dd c1 3d f7 30 02 3e 27 2e 1c 3e
       -0.18377379 0.09466082 0.12713991 0.1525198
000220 32 1b 06 be 67 38 46 be a8 f1 a2 bc bf c2 bd bc
       -0.13096312 -0.19357453 -0.019890621 -0.023164151
000230 85 88 09 be e4 f6 01 3e 08 65 9b 3d aa e9 4a be
       -0.13430984 0.12691838 0.075876296 -0.19815698
000240 45 44 86 3d f7 be 2e be ef 59 03 3e 7b 52 05 bc
       0.0655599 -0.17065035 0.12827276 -0.008137341
000250 9a 4c 30 3e b3 5c 01 be 4b 3c 05 be 5e 02 a7 3d
       0.17216721 -0.12633018 -0.13011281 0.081547484
000260 99 39 a7 3d 65 8a f6 3d b0 d7 1e 3d d7 6e 29 3e
       0.08165283 0.120381154 0.038779914 0.16546188
000270 e5 86 89 bd 09 b9 3f 3d 85 9d 8e bd bd cc 3e bd
       -0.06715182 0.046807323 -0.06963638 -0.046581972
000280 14 62 ee bd 74 22 5c bc 6b 7d 82 3d 4b b9 02 3e
       -0.11639801 -0.013435949 0.06371578 0.12765996
000290 a8 da 6d 3c ce 39 f0 3d 0e d5 14 3d 55 ce 1a 3e
       0.014517464 0.11729775 0.036335997 0.15117772
0002a0 b3 35 ec bd b1 51 90 bc e2 b1 b3 3d cc 0b 0a 3b
       -0.1153368 -0.017617078 0.08774163 0.002106416
0002b0 b7 b7 30 3d 2d 99 bb 3d d7 68 20 3c 92 eb 12 3e
       0.043143954 0.09160075 0.009790621 0.14347675
0002c0 12 c5 0b be 5e 1a 01 3d 57 62 ba bb 07 f8 5b 3b
       -0.13649395 0.031519286 -0.0056879926 0.0033564584
0002d0 d6 9f 1c 3e 01 23 24 3d a4 2a a0 bc f4 c8 d6 3d
       0.15295348 0.040072445 -0.019551583 0.104875475
0002e0 f0 67 54 3d 97 c0 23 bd 0f a5 0d be 75 66 2e 3e
       0.051856935 -0.03997859 -0.13832496 0.17031272
0002f0 f3 ad be 3d 70 08 01 3e 0d 62 17 3e 5c 09 4f bd
       0.09310522 0.12600875 0.14783497 -0.050546035
000300 7d 1e 92 bb 31 8f 5f bd 4c a8 fb 3c a4 c8 2f 3e
       -0.004459201 -0.054579917 0.030719899 0.17166382
000310 ac c2 70 bd 8e 23 81 3d 7f 0a 3a be 76 16 1f bd
       -0.058779404 0.0630561 -0.18168066 -0.03883978
000320 94 1b 5e bd 6e 6b f3 bd 24 77 16 3c 44 56 72 3d
       -0.05422552 -0.11885725 0.009183679 0.0591643
000330 ef d9 51 be bf 50 40 bd 80 8d 14 3e d0 75 ea 3d
       -0.20493291 -0.046952005 0.14507103 0.11448252
000340 60 58 33 3e c8 61 bc bd f1 59 cc bd 6b e6 2a 3e
       0.17514181 -0.09198338 -0.099780925 0.1668946
000350 30 10 fa 3d f2 c6 51 be aa 3a 55 bd 0d 48 bc bd
       0.12210119 -0.20486048 -0.0520579 -0.0919343
000360 4d f4 d2 bd 3f 77 8b 3c dd 89 84 3d 2f e4 5e be
       -0.10300503 0.017024634 0.06471608 -0.21766733
000370 2d 4a 2c be fe 7f 51 be 16 5f 8e 3d f2 10 ee 3d
       -0.16825171 -0.20458981 0.0695173 0.11624326
000380 61 92 d4 3c f1 94 1a 3e 37 2c e3 3d 8c ab ca bd
       0.025948705 0.15095879 0.11092418 -0.09896001
000390 9e 4e 23 bd ec 1f e2 3d dd 7e 2b be 84 f5 37 3d
       -0.039869897 0.11041245 -0.16747613 0.044911876
0003a0 61 b3 68 3c 2a 8f 12 3e a6 cb 98 3d 2a e4 2f 3b
       0.0142029235 0.14312425 0.07460718 0.0026838877
0003b0 ff fd 26 3e 3d 4a e4 bd 50 e4 65 bc 05 01 89 bc
       0.1630783 -0.11146972 -0.014031485 -0.016724119
0003c0 17 ba a3 bd e0 da 0f be fd 80 c9 39 a9 3e 19 be
       -0.07994478 -0.14048338 0.0003843381 -0.14965309
0003d0 25 16 f9 3d 50 e5 a3 3c 67 7a 56 3d 33 b9 0f 3e
       0.12162427 0.020006806 0.052362826 0.14035492
0003e0 57 cf 11 be 9e 68 61 3d b6 db fc bc f7 aa 01 3e
       -0.1423925 0.05503141 -0.030866485 0.12662874
0003f0 63 24 bb bd 52 a8 11 3d 49 a0 e7 bd 9c 0c 88 3d
       -0.091377996 0.035560913 -0.11309869 0.0664303

stock_specific_layers.AVAV.0.bias f4 [64]
000000 25 8f bd 3d 35 58 2c bd b5 d2 8f 3c b0 11 3b be
       0.09255818 -0.04207631 0.017556528 -0.18268466
000010 62 6d 12 3e 02 ef 4b be 95 8c 4f bd 0f ae b8 bd
       0.14299539 -0.19915393 -0.05067118 -0.09017574
000020 07 73 2c be b5 5d 0a 3d 87 2e 1b be 18 80 30 bd
       -0.16840754 0.033780772 -0.15154468 -0.04309091
000030 ae 02 da 3d 5d 47 43 3b 97 4b 12 3e 73 a4 d6 3d
       0.10645042 0.0029797175 0.14286648 0.10480585
000040 cb f0 1f 3e 1a 99 00 3e c2 43 ea 3d 37 c4 46 3e
       0.15619199 0.12558404 0.11438705 0.19410788
000050 76 d3 97 3d 1c 3f a7 3c b7 20 1c be 0c 73 3f 3c
       0.0741338 0.020415835 -0.15246855 0.011685144
000060 60 6e 78 bd 24 ef 04 be 09 68 7a bd 48 98 49 3e
       -0.060652137 -0.1298185 -0.061134372 0.19686997
000070 22 9c 2d be 69 fc 19 be ee c2 42 3e 80 3f a1 bd
       -0.16954091 -0.15037693 0.19019672 -0.0787344
000080 45 b8 93 3d 69 8d 08 3d 64 20 39 3e f5 7f a0 3d
       0.07212881 0.033337984 0.18078762 0.07836906
000090 f5 28 81 3d 9b 56 6a bc 73 2c 33 3e be c0 24 bd
       0.0630664 -0.014302875 0.17497425 -0.040222876
0000a0 78 2c 1e 3c d8 ce e8 3d 6e 43 d4 bd 18 d0 26 3e
       0.009654157 0.11367577 -0.10364424 0.16290319
0000b0 4e 71 c0 bd 10 5f 18 be 1f d0 a8 bd e1 28 1b 3e
       -0.09396611 -0.14880013 -0.08242821 0.15152313
0000c0 ca 69 cb bc ec 3c 28 3e 2e 81 53 ba e8 04 98 bd
       -0.024830718 0.1642949 -0.00080682605 -0.07422811
0000d0 a9 f1 94 bc 78 57 31 3d 06 69 a4 3d 57 ef 20 be
       -0.018181639 0.043296307 0.08027844 -0.15716301
0000e0 a4 a5 9a 3d f4 ac a1 3d 44 64 e7 3c df 10 2e 3e
       0.07551125 0.07894316 0.028246053 0.16998623
0000f0 0d da 45 3d ea 19 5a 3d d7 75 7b bb 02 d0 b3 bd
       0.048303653 0.05324737 -0.0038369799 -0.08779909

stock_specific_layers.AVAV.3.weight f4 [32, 64]
000000 00 91 9b 3d 43 0e c8 3d 84 cb 6b 3d b0 7a 05 be
       0.07596016 0.09768345 0.057567134 -0.13035083
000010 c6 b2 15 bd 3b 3e 73 3d 01 e1 85 bd f4 16 80 bd
       -0.036547445 0.05938552 -0.06537057 -0.06254378
000020 35 4a 89 3d de 64 0b be 75 b5 ee 3d d1 53 02 be
       0.06703607 -0.13612697 0.11655704 -0.12727286
000030 68 77 0c 3d 2c 3e 95 bc 5f cc 57 3d 51 00 3f bc
       0.034293562 -0.018218122 0.052685138 -0.01165779
000040 f4 97 d9 3d e8 89 45 3d 3d a1 91 3d 85 12 3b bd
       0.10624686 0.04822722 0.07110832 -0.04567196
000050 4f f4 2f 3d e8 57 d9 3d fe 64 dd bd ae 2c f9 3c
       0.0429576 0.1061247 -0.10810278 0.030416813
000060 ac 56 aa bd 8a 2b c4 3d 42 f6 85 bd 17 ca 65 3d
       -0.083173126 0.09578617 -0.065411106 0.05610093
000070 8e 2e 7a 3d 59 ba 47 bd 5a 71 e1 bd d7 6b f0 bc
       0.061079554 -0.0487617 -0.11007948 -0.029348297
000080 5e 68 6f 3c 3b 78 15 be dc 1c f5 bc b2 9e ff bd
       0.014612285 -0.14596646 -0.029920988 -0.124814406
000090 ac 9a 02 3c 9e e9 b2 bd b4 cd d5 bd ba 2b 50 bd
       0.007971447 -0.08735965 -0.104396254 -0.05082295
0000a0 27 e9 7c bd 3c 24 60 3b 1c b2 a9 bd 6d 2d 08 3d
       -0.06174579 0.0034201285 -0.08285925 0.033246446
0000b0 e5 af a4 3d 0e b1 8a bd 0f c3 bb bd c3 d4 4b 3d
       0.08041362 -0.06772052 -0.09168064 0.049763452
0000c0 95 80 b9 3d 75 30 d8 3d 00 70 c1 bc 03 12 b1 b9
       0.09057728 0.105561174 -0.023612976 -0.0003377349
0000d0 8d c8 98 3d e8 07 e5 bd f6 0f cb 3b 10 42 70 bd
       0.07460127 -0.111831486 0.006196971 -0.058656752
0000e0 f7 53 12 3d 09 0c b9 bc 04 89 01 be 4d 56 e8 bd
       0.035724606 -0.022588747 -0.12649924 -0.113445856
0000f0 cb 3a 00 be ff 30 8c bd 52 4b 69 3d c3 60 5d bd
       -0.12522428 -0.06845283 0.056956597 -0.054047357
000100 cf ef d9 3d b4 08 5a bd df 4d d0 3d f6 49 76 bd
       0.10641443 -0.053230956 0.10171103 -0.06012913
000110 b1 b4 0b 3c 27 3c 15 3d c4 13 c5 bd cb db ca bd
       0.008526967 0.03643432 -0.096229106 -0.099052034
000120 8c d0 91 bd 87 3c ef 3d 25 a1 fb 3d 0f 2a c7 3d
       -0.07119855 0.116814665 0.12286595 0.09724819
000130 3f de 97 bd 8d c0 66 bd 6f bd 8a bc e3 a7 f7 3b
       -0.07415437 -0.056335974 -0.016936032 0.0075578555
000140 32 48 ae 3d 8c 1a 3d 3e 18 15 18 3d 60 f3 f0 3c
       0.08509864 0.18467158 0.03712949 0.029412925
000150 51 8e c5 bd 2e b3 c1 3d b8 20 ef 3c 35 e3 06 3e
       -0.09646285 0.09458004 0.029190406 0.1317261
000160 f4 f3 94 b9 38 17 ba 3c d1 ca 2a 3e bd 22 a7 bc
       -0.0002841052 0.02271615 0.16678931 -0.020402307
000170 b1 39 aa 3d d0 7a 41 bc 3c 03 36 3d f1 cc b6 bb
       0.08311785 -0.011809066 0.04443668 -0.00557863
000180 4a 21 23 3d c6 47 6b bc a7 b7 93 3b 38 15 92 bc
       0.03982667 -0.014360374 0.004507977 -0.017832384
000190 8c db 1d 3c 0c e1 b1 3d 32 fe 02 3e 9b 3e d9 3d
       0.009634864 0.086855024 0.1279228 0.10607644
0001a0 80 24 d2 3c 5d 69 97 3d 04 c4 fc 3c db 1c fb 3c
       0.02565217 0.07393143 0.030855186 0.030653408
0001b0 be 96 4c 3d 28 34 9b 3c fd 26 ba bb 49 14 da 3d
       0.049948446 0.018945768 -0.0056809173 0.106484
0001c0 a5 bf dd 3c eb dc 9f 3d 8a da 8c 3c 18 76 c3 bd
       0.027068922 0.07805809 0.017194051 -0.09544009
0001d0 67 27 a2 bd 12 26 76 bd ef fe a7 bd 60 57 88 3b
       -0.07917672 -0.0600949 -0.082029216 0.0041608065
0001e0 0e 2d 97 bd d3 c9 c7 bd e1 c6 d2 bc 10 40 e1 3d
       -0.073816404 -0.09755292 -0.025729598 0.10998547
0001f0 7d e1 aa bd d9 1e 72 bd 8b 3e 9c bc 72 3d e3 3c
       -0.0834379 -0.05911145 -0.019072792 0.02773926
000200 bc 73 0c 3e 62 a5 7c 3d 8b b0 cd 3d 03 97 97 bd
       0.13716024 0.06168116 0.100434385 -0.0740185
000210 ca 79 4b 3e 4a f0 af bc 0c 0f 24 3d 1a fb 1c bd
       0.19870678 -0.021476883 0.040053412 -0.038325407
000220 6c ba 9e 3d 1d aa 11 3e 0e 65 00 3d 12 b1 2f 3e
       0.07750401 0.1422505 0.031346373 0.1715739
000230 81 d0 ce 3d d2 89 1a 3e 1d e3 db 3d 3f 89 9e 3d
       0.10098363 0.15091637 0.10736678 0.07741021
000240 f4 5f bf bc 32 b3 a8 3d 54 e2 35 bb ef 8a 76 3d
       -0.023361184 0.08237304 -0.002775331 0.06019109
000250 f1 ea b4 3d 68 80 34 3e e2 e6 12 3e e1 3b f6 3c
       0.08833874 0.17627108 0.14345887 0.03005785
000260 8a e6 ba 3c c4 35 9b bb 4d 8d 1d bc fb 87 c5 3d
       0.022815008 -0.004736634 -0.009616208 0.09645077
000270 27 3c 0c 3e b4 5c 7e bd d5 33 1e 3e d2 e0 0b bd
       0.13694821 -0.062100127 0.1544946 -0.034149952
000280 e2 47 14 3e dd 7d 8c 3c 5b f6 4a 3e 25 e7 40 3e
       0.14480546 0.01714986 0.1982054 0.18838175
000290 fd 6c df 3d 70 7d c2 3c 09 73 e3 3d dc 5a 2f 3e
       0.1090946 0.023741454 0.111059256 0.17124504
0002a0 1f 43 b2 3d bb 22 79 3d a1 cf 35 bc ef f4 f0 3c
       0.087042086 0.060824137 -0.011096866 0.029413668
0002b0 a4 74 c3 3c 28 f2 c2 3c 97 a9 df 3d ee c4 34 3e
       0.02385933 0.02379711 0.109210186 0.17653248
0002c0 4d 2a 28 bd 23 f2 9e 3d 26 66 18 3e 19 9c 35 bd
       -0.041055966 0.07761028 0.14882717 -0.04433832
0002d0 66 68 e8 3d ab e8 f6 3c 36 c7 42 3d 00 f5 e4 3a
       0.113480374 0.030140242 0.047553264 0.0017468035
0002e0 6a b3 0b bd c7 a9 b6 3d 85 f2 06 3e 4d 53 f9 bc
       -0.03410665 0.08919101 0.13178451 -0.030435229
0002f0 2b 23 29 3e 1f fd 26 bd c6 46 55 3d da 1c ea 3d
       0.16517322 -0.04076874 0.052069448 0.11431284
000300 d2 93 f5 bd c0 aa 0c bc b8 d7 5c 3d 10 a6 42 bc
       -0.11991085 -0.008585632 0.053916663 -0.011880413
000310 a2 8c 85 bd 50 ee 7c 3d d0 48 1c 3c 34 7e d6 bd
       -0.06520964 0.06175071 0.009538844 -0.1047329
000320 9a da ed 3d 68 e2 ad 3d c8 b6 64 3d d8 87 c6 3c
       0.116139606 0.08490449 0.055838376 0.024234697
000330 a2 d2 a1 3d 14 d6 c6 bd 14 fe 4b 3d 90 20 1e 3c
       0.07901503 -0.09708801 0.049802855 0.009651318
000340 d2 9a 8e bd ac 0b f8 bd 32 89 a1 bd 0c d1 4f bd
       -0.069631234 -0.12111601 -0.07887496 -0.050736472
000350 da c8 87 bd 00 51 72 3a 80 a6 b3 bb b8 fb c7 bc
       -0.06630106 0.00092436373 -0.005482495 -0.024412021
000360 34 7b c9 3d e4 e4 3a bd 50 4c 29 bd 08 f0 aa bd
       0.09837952 -0.045628443 -0.041332543 -0.083465636
000370 28 af 1c bd b8 ff c8 3d 70 39 20 3c 60 37 b8 3b
       -0.03825298 0.098143995 0.009779319 0.0056218356
000380 b0 d3 44 bc 16 65 a5 3d 64 a5 61 bd 6e d0 b3 bd
       -0.012013361 0.08075921 -0.05508937 -0.08779989
000390 52 02 e5 3d 54 75 3e 3d 40 44 ce bb 04 d4 25 bd
       0.11182083 0.04649861 -0.006294757 -0.040485397
0003a0 a4 e7 e8 bd ae 80 e3 3d 90 c1 29 bc aa 0a ea bd
       -0.11372307 0.11108528 -0.01036109 -0.11427815
0003b0 14 05 a5 3d 5e 31 b9 3d e8 89 e7 bd 18 4d 49 bd
       0.08057609 0.09042619 -0.113056004 -0.049145788
0003c0 d0 ba 21 bc ac 03 6b bd 90 19 86 bd f4 dd 11 bd
       -0.0098712 -0.05737655 -0.065478444 -0.03561206
0003d0 38 00 99 3c a8 ab ae bd 1c b7 c5 bd 8c 27 17 bd
       0.018676862 -0.085288346 -0.09654066 -0.03690295
0003e0 a4 ae 45 3d 98 3e bb bd 5e 28 b4 bd ee 27 b7 bd
       0.048262253 -0.09142798 -0.08796762 -0.08943163
0003f0 10 3c 8b bc 18 a5 bc bc f8 2f 8c bc 20 af c9 3c
       -0.016996413 -0.023027942 -0.017112717 0.024619639

stock_specific_layers.AVAV.3.bias f4 [32]
000000 9b ce 8d 3d b9 ff 9b bc d7 1a 2b bc a4 38 bc bd
       0.069241725 -0.019042837 -0.010443411 -0.09190491
000010 e4 c6 be 3b 09 b0 fe 3d 57 59 28 3d 15 1a 0e be
       0.0058220495 0.1243592 0.041100826 -0.13877137
000020 72 c5 62 3d e9 89 1b 3e 91 74 db 3d 85 c9 1e 3e
       0.05536408 0.15189327 0.10715593 0.15506561
000030 6d f6 b2 3c 6f a1 ba bd 92 ae 53 bd 14 80 e3 3d
       0.02184602 -0.09112822 -0.051680155 0.11108413
000040 0a 7d 69 bd 42 4d 45 3b fa 2d 08 3e 6d 33 33 3d
       -0.057004012 0.0030105864 0.13298789 0.043750215
000050 e8 22 3a bc d1 4f f8 3c fc de 4d bd c5 c0 7c bd
       -0.011360861 0.030311497 -0.050261483 -0.061707277
000060 aa 77 20 bd a5 ac f6 b8 b3 f0 6e bc ad 13 76 3d
       -0.03917662 -0.00011762352 -0.014583754 0.060077358
000070 50 67 1a 3c 81 9d 0e bd ca 54 b4 3d fa 03 b5 bd
       0.009424046 -0.034818176 0.08805235 -0.08838649

stock_specific_layers.AVAV.6.weight f4 [2, 32]
000000 5b 4f 03 3e 28 27 b2 bd 7d 39 68 ba fc bf 9b bc
       0.1282324 -0.08698875 -0.0008858664 -0.019012444
000010 32 17 04 be 90 ba 49 3c 87 a0 78 bb 40 61 fc bd
       -0.12899473 0.012312546 -0.0037937479 -0.123232365
000020 4b 77 10 be 75 99 28 bc 8a d3 8e 3d 56 e3 24 b9
       -0.14108007 -0.010290493 0.069739416 -0.00015724948
000030 c9 f3 fe 3d da d9 e4 ba b3 92 fa 3d af 85 7a bd
       0.12448842 -0.0017459944 0.12235012 -0.061162647
000040 8e 5c 03 3e 02 a5 f4 bd 51 5d da 3b 40 e2 11 3e
       0.12828276 -0.11945535 0.006663956 0.14246464
000050 c3 cb 2e bc 18 66 88 3d a0 ea eb bd 07 6e 16 3e
       -0.010668698 0.06660098 -0.115193605 0.1469041
000060 e9 b6 29 bc 27 95 57 bd 9d b4 92 bc a1 79 a4 3d
       -0.010358551 -0.052632477 -0.017908389 0.080310114
000070 de 9e 4a 3c 7c 57 88 bc 3e 3a ec bd 9f a3 1e 3e
       0.012366978 -0.016643278 -0.11534546 0.15492104
000080 ae b7 2f bc c2 58 4f be ee 9a 19 be a3 7c 2c be
       -0.010724945 -0.20248702 -0.15000507 -0.1684442
000090 21 4d 0d 3e 77 78 7b be 97 75 60 be ee 64 ac 3d
       0.13798954 -0.24557672 -0.21919857 0.08417688
0000a0 43 2e 06 3e 8c 50 8d be e8 de 10 be 31 1b 8c be
       0.13103585 -0.27600515 -0.14147532 -0.27364495
0000b0 fc 4f 3b 3c 5c 72 fc 3c 39 9f e9 3d 14 e5 8a be
       0.011432644 0.03081625 0.114073224 -0.27127898
0000c0 38 5d 90 3d 1f 58 11 3e ee 73 6a be 9b 33 c4 bd
       0.0704903 0.14193772 -0.22895786 -0.095801555
0000d0 1f 1d 83 be 41 c6 0a be e7 c5 77 3d 77 b6 06 3e
       -0.25608155 -0.1355219 0.06049147 0.13155542
0000e0 69 49 93 be f0 88 81 3d cb ad a4 3d f2 b8 fa 3d
       -0.28766945 0.06324947 0.08040961 0.12242307
0000f0 be 1b 4e be 34 22 78 be 11 ed 9b bd 41 f5 08 3e
       -0.2012777 -0.24231797 -0.07613576 0.13374807

stock_specific_layers.AVAV.6.bias f4 [2]
000000 98 47 19 3e 7f e8 e6 bd
       0.14968717 -0.11274814

stock_specific_layers.GMAB.0.weight f4 [64, 32]
000000 42 a6 e7 ba 22 84 99 3d c3 60 58 3e 25 cd 18 3c
       -0.001767345 0.074959055 0.21130662 0.009326254
000010 20 bb 10 bd b7 bc 9f 3d 75 45 be bc b8 25 cd bc
       -0.035334706 0.077996664 -0.023226479 -0.0250424
000020 76 c5 26 3e a4 d0 cc 3b 5c 40 61 3d 25 11 28 3e
       0.16286263 0.006250458 0.05499302 0.1641279
000030 5e 70 35 bd 1f ea 58 3e 8c 69 9b 3b b9 57 3a 3e
       -0.044296615 0.2118306 0.004742807 0.18197526
000040 ff 08 03 be a3 82 39 3d ca aa 59 bd 7e e5 b0 3d
       -0.127964 0.0452906 -0.053141393 0.08637522
000050 de fe e9 3c 5b e8 a0 bd fc 24 c1 bd c6 e4 86 3d
       0.028563913 -0.07856818 -0.09430882 0.06586604
000060 fc 18 ae bd 92 af 4a ba b1 6d 6e bd 03 f5 9e 3d
       -0.08500859 -0.00077318505 -0.05821008 0.07761576
000070 d9 04 14 3e b0 c1 de 3d 1e 1a f6 bd eb f5 8d 3d
       0.14454974 0.10876787 -0.120167 0.06931671
000080 87 a3 10 3e c1 a6 5a 3d ac b0 30 3e fc 82 16 3b
       0.1412488 0.053381685 0.17254895 0.0022966256
000090 f0 90 92 3c 0b ce 12 bd 2f db 36 3e 05 05 08 3e
       0.017891377 -0.03584103 0.1785705 0.13283165
0000a0 af 96 94 3d df 28 36 3c 92 d5 e0 bd 05 be 7b 3d
       0.07255303 0.011118143 -0.10978235 0.061460514
0000b0 f4 d0 84 3d 38 c7 1a 3e 35 91 0c 3e b2 8e c6 bd
       0.06485167 0.15115058 0.13727267 -0.09695186
0000c0 b4 67 59 3c 21 4a 24 3e 99 05 0f be 45 06 99 bd
       0.013269354 0.16043903 -0.13966979 -0.07471899
0000d0 0a 41 0d 3e b1 bd 20 be 7a 5f 24 3c 82 e9 f0 3d
       0.13794342 -0.15697362 0.010032529 0.11763288
0000e0 82 6f 2f 3e 27 d8 65 3d 33 c5 57 bd 91 1e bc bd
       0.1713238 0.056114342 -0.0526783 -0.091855176
0000f0 72 d2 95 bd be 38 8f bc e4 34 fd 3d 11 64 36 be
       -0.0731553 -0.017483111 0.12363604 -0.1781161
000100 65 40 23 bd 5b 32 c2 3d 97 fa 9c ba 82 b0 aa 3d
       -0.039856333 0.09482261 -0.0011976537 0.083344474
000110 b5 a9 8f bd f9 3f 37 be f3 f6 f8 bc 40 af 08 3e
       -0.07014791 -0.17895497 -0.030391192 0.13348103
000120 59 a1 9d 3d 90 2f b2 bd 3a da cb 3d 1c 9e 11 3d
       0.0769679 -0.08700478 0.09953733 0.035551175
000130 02 ca 03 3e 14 b0 d2 bd d3 c6 1e be ee 08 ed 3d
       0.12870029 -0.102874905 -0.15505533 0.11573969
000140 b7 95 3e be db c5 05 bc d0 f6 5e bd de 78 b6 3d
       -0.18611799 -0.008164848 -0.054434597 0.08909772
000150 6c 47 a5 bc 0f 7e a6 3d 31 69 0f 3e 27 9c 08 3e
       -0.020175658 0.081295125 0.14004971 0.13340817
000160 35 e2 14 be 7f 34 ad 3d 16 76 08 be ca 02 d2 3d
       -0.14539416 0.084572785 -0.13326296 0.10254438
000170 70 97 10 3e 96 62 67 bc 2e af 1b be bd 07 0f 3e
       0.14120269 -0.014122626 -0.15203544 0.13967796
000180 c8 7c 15 3e 74 37 99 bd 31 d6 e8 bb 32 ab 4a bd
       0.14598382 -0.0748128 -0.0071056117 -0.04947967
000190 c1 76 90 3d 7e ba 1b 3c 0b 2c 97 bc b5 28 98 bd
       0.070539005 0.009504912 -0.018453619 -0.07429639
0001a0 31 f0 05 3c 17 2d 3c be 84 c9 9f bd 17 c2 29 3e
       0.008174942 -0.18376575 -0.07802108 0.16577946
0001b0 bc 4a 73 3c 4a 9c 20 be a5 c9 cf bd e1 63 12 3e
       0.014849361 -0.1568462 -0.101458825 0.14295913
0001c0 9a 02 0d bb f0 39 40 3d 76 4e 96 3c 87 71 30 3e
       -0.0021516443 0.046930254 0.01834796 0.17230807
0001d0 b0 81 8d bd 6a 65 fe 3d d5 01 d7 bd a4 99 ff bc
       -0.069095016 0.12421687 -0.10498396 -0.031201191
0001e0 b3 db 21 bc 56 a7 b7 3d 19 0f ee bd 55 0f 94 bd
       -0.0098790405 0.08967464 -0.116239734 -0.07229487
0001f0 1e 2c cd bc b2 5e db 3c 07 67 a1 bc c8 6f 22 3e
       -0.02504545 0.026778553 -0.019702448 0.15862954
000200 7b f8 17 3e ea 4a af bd f2 70 96 bd 5e af 1e be
       0.14840882 -0.085592106 -0.07345761 -0.15496585
000210 91 e1 af 3d 5f 5a 6f 3d 10 a3 9e 3d 2d 1a d9 3c
       0.08587945 0.058435794 0.077459455 0.02650174
000220 c0 25 59 3d e4 0f 24 3e 01 42 df bd ac 0b 23 bd
       0.053014517 0.16021687 -0.10901261 -0.039806053
000230 86 00 40 3e 99 74 29 3e 9d fb 84 3d 95 22 fd bd
       0.187502 0.16548385 0.06493304 -0.123601116
000240 cd 5f e0 bd 64 eb d3 3d 95 88 fb bd 2e 78 47 3e
       -0.109557725 0.103476316 -0.1228191 0.19479439
000250 26 44 06 be 2f ec 24 3c a7 16 e3 ba e8 5c b0 bd
       -0.13111934 0.010066076 -0.0017325477 -0.086114705
000260 24 ea 97 3d a4 1a 3b 3d f2 fd 9a 3b 85 4d 26 3d
       0.07417706 0.045679703 0.0047299797 0.040601272
000270 61 68 5b bd dc 0d 65 bd d5 53 fb 3d f8 40 09 3e
       -0.05356634 -0.05592142 0.12271849 0.1340369
000280 5f d4 f0 3d 71 3b 8b 3c 84 e2 0e 3e 44 e8 84 3d
       0.117592566 0.016996117 0.13953596 0.06489614
000290 3b 7e 13 bd 70 74 91 3c b3 e0 d0 3d 2b 36 00 be
       -0.036009055 0.017755717 0.10199108 -0.12520663
0002a0 f7 06 7d bd 3a 8f 04 be 1b c6 62 3d b5 19 01 3c
       -0.06177422 -0.12945262 0.05536471 0.007879664
0002b0 ff c3 24 3e 69 58 a1 bd 29 14 48 bd b8 2f 1f 3e
       0.16090392 -0.07878191 -0.04884735 0.15545547
0002c0 99 7a 28 be 86 35 29 3e f0 34 a2 bd 33 8f d8 bd
       -0.16453017 0.16524324 -0.07920253 -0.10574188
0002d0 de b2 2f 3e 3c 3b f6 3d f7 10 ae bd aa d3 f6 bd
       0.17158076 0.12023017 -0.084993295 -0.120520905
0002e0 c6 89 f6 3d 83 f5 2b 3e e3 4e be bc f1 83 da 3d
       0.12037997 0.16792874 -0.023230975 0.10669697
0002f0 37 78 61 3c f3 41 b9 bd 80 2b d4 bd 4c 47 0c be
       0.013761572 -0.09045782 -0.103598595 -0.13699073
000300 73 95 fe 3d 91 4d 50 bd 6a 40 41 bd d8 b6 fd 3d
       0.12430849 -0.050855223 -0.04718057 0.1238839
000310 65 df 15 be 01 4b bf bd 09 3f 0b be 16 d6 89 bd
       -0.14636 -0.09340478 -0.13598265 -0.06730287
000320 d2 51 1c bd 60 1d bc 3d f4 84 23 be 12 48 42 be
       -0.038163967 0.0918529 -0.15968686 -0.18972805
000330 43 31 17 be 56 4c 5c bd 67 8c df 3d 99 0a 9a 3d
       -0.14764886 -0.053783737 0.109154515 0.075215526
000340 37 45 81 3d db aa a2 bd f6 ba d2 bd b6 2b 8a bd
       0.0631203 -0.07942744 -0.10289566 -0.067466184
000350 e4 e7 db bd a4 bd dd 3d 38 09 09 3e 6b ff 92 bd
       -0.10737589 0.10827187 0.13382423 -0.07177623
000360 f3 93 d2 bd 2d f3 96 bd 8f f9 32 bd 7c 18 fa bd
       -0.10282125 -0.07370601 -0.04369503 -0.12211701
000370 bc 3a 26 be e7 bd d6 3d 8e 0d 65 3d ba ab 0c 3e
       -0.16233343 0.1048544 0.05592113 0.13737383
000380 98 2e 64 bb 7e 6a 94 bb 5a a7 1c 3d d2 60 13 3e
       -0.003481781 -0.0045292964 0.038245536 0.14392403
000390 f0 04 fa 3d b1 7c 3f be de 22 4b be d5 c9 07 bb
       0.12207973 -0.1869991 -0.1983752 -0.0020719666
0003a0 7d a3 2b 3d ea 5d e8 bd 92 d6 07 3e 54 38 b4 bc
       0.04190396 -0.11346038 0.13265446 -0.021999516
0003b0 45 81 0c bd 10 a1 d2 3d 85 f5 66 3e 9d a8 1e 3e
       -0.03430297 0.102846265 0.22554596 0.15494008
0003c0 b6 68 57 be e7 d3 91 bb 6b 0d fb 3d 82 3b 65 bd
       -0.21036038 -0.0044503096 0.12258419 -0.055964954
0003d0 28 b0 e5 3c 94 3b c3 bd b0 48 82 bc 2d 64 c2 bc
       0.0280381 -0.09532848 -0.0159038 -0.023729408
0003e0 ce 89 5c 3d 9b a9 4b 3e c0 32 01 3d 5e d8 7e 3c
       0.05384236 0.19888918 0.03154254 0.015554516
0003f0 5c 98 49 3e dc dc ba 3d 08 c4 5d be 73 ae 44 3d
       0.19687027 0.09124157 -0.21656811 0.04801793

stock_specific_layers.GMAB.0.bias f4 [64]
000000 01 3d 0f 3e 21 8c 32 be 3e 23 58 bd df 4a 88 3d
       0.13988115 -0.17436267 -0.052767985 0.066549055
000010 b9 8c c2 3d f0 d9 7e bd 1b ac a6 3d e6 28 05 3d
       0.09499497 -0.06221956 0.08138295 0.032509707
000020 55 71 a8 38 47 e4 0f 3e b9 50 02 be a0 34 f9 bc
       8.031974e-05 0.14051925 -0.12726106 -0.030420601
000030 e9 af fc 3d 18 1f 17 be 21 e1 19 3d 02 62 23 be
       0.1233824 -0.14757955 0.037568215 -0.15955356
000040 12 e4 ab 3d ec 6f a8 bd e9 14 5a bd 1c b5 9c ba
       0.0839311 -0.082244724 -0.053242598 -0.001195583
000050 42 6c fe bc 26 75 34 3d 32 d1 d0 bd 62 fa 02 bc
       -0.03105748 0.044057034 -0.10196151 -0.007994266
000060 1e c2 0d be b8 fe 1e 3b de 5d 85 bd a1 de 13 3d
       -0.13843581 0.002426071 -0.06512044 0.036100987
000070 f7 e7 a1 bd 5a fc 84 3d 3a fc 44 3e 70 fe b5 bd
       -0.07905572 0.06493445 0.19236842 -0.08886421
000080 f5 06 00 3e e1 93 08 bd ba b5 2e 3e 47 e1 1e 3d
       0.12502654 -0.033344153 0.1706151 0.03878906
000090 b3 a6 e9 3d fb 1e 29 3d 10 ee 05 be 64 d7 d8 bd
       0.114087485 0.04128931 -0.13079095 -0.105879575
0000a0 ab b1 d8 bc e5 9d db bd 97 89 a5 3d 2e a6 cd bd
       -0.026451906 -0.10723475 0.08082884 -0.10041462
0000b0 8d 42 21 3b 5e d7 66 3d 8c 52 20 ba f9 25 8a 3d
       0.0024606318 0.056357734 -0.0006115816 0.06745524
0000c0 48 0a 25 3e 45 97 2e bc 44 c8 ec 3c ff 96 58 3e
       0.16117203 -0.010656183 0.028904088 0.2115135
0000d0 03 ec eb 3d b4 6a 88 bc 5f ec 91 bd 37 32 32 3b
       0.11519625 -0.016652443 -0.07125162 0.0027190575
0000e0 22 16 22 be 11 41 d0 3d d4 da 78 39 9b dc 51 bd
       -0.15828755 0.101686604 0.00023732643 -0.051235776
0000f0 5c d1 b2 bd b0 10 cb 3d 4b 49 25 3e 0d a5 d3 3d
       -0.087313384 0.09915292 0.1614124 0.10334215
