lightning_logs/version_73/checkpoints/epoch=49-step=200.ckpt (torch, 121691 bytes, 30 tensors)

shared_gru.weight_ih_l0 f4 [96, 15]
0	0xbd73b0d3	-0.059494805
1	0xbd065d4a	-0.03280381
2	0xbddd1a8a	-0.107960775
3	0x3df8c430	0.12146795
4	0xbe4474cd	-0.19185181
5	0x3e0eda6f	0.13950513
6	0x3ddca0a0	0.10772824
7	0x3dede515	0.116159596
8	0x3d29dc5e	0.041469924
9	0x3e19ede3	0.15032153
10	0xbe3d15a0	-0.1846528
11	0xbcf3f960	-0.029781997
12	0xbe15d67d	-0.14632602
13	0xbd19beb0	-0.03753537
14	0x3e173f6e	0.1477029
15	0xbd130007	-0.035888698
16	0xbdc2f5ad	-0.09519515
17	0x3b018050	0.0019760318
18	0xbdbdb774	-0.092635065
19	0xbd4bf65d	-0.049795497
20	0xbd4f1412	-0.05055625
21	0xbb1ffa24	-0.002441057
22	0x3e184708	0.14870846
23	0xbddf65f5	-0.10908119
24	0x3aba8d3f	0.0014232768
25	0xbde5cf7e	-0.112212166
26	0x3d9c3f54	0.076292664
27	0xbe3143c4	-0.17311007
28	0xbe354880	-0.17703438
29	0xbc7b7109	-0.015346774
30	0xbd8283e2	-0.06372811
31	0x3cb344cf	0.021883396
32	0xbe37630b	-0.17908876
33	0xbe3a71f5	-0.18207534
34	0xbbf57159	-0.0074903187
35	0x3d5e3fbd	0.054260004
36	0xbc2689a6	-0.010164654
37	0xbdb50048	-0.08837944
38	0xb7afd700	-2.0961743e-05
39	0x3e1740bf	0.14770792
40	0xbe510554	-0.20412189
41	0x3cb11efd	0.021621222
42	0xbcb47b32	-0.0220314
43	0x3dbf846c	0.09351429
44	0x3e4527ca	0.1925346
45	0x3de53374	0.111914545
46	0xbd97070e	-0.073743924
47	0xbc6a2c7c	-0.014292832
48	0xbe323599	-0.17403258
49	0x3d933a92	0.07188906
50	0x3df008eb	0.11720451
51	0xbe598817	-0.2124332
52	0xbe4c75e5	-0.19966848
53	0xbe2b7f7f	-0.16747855
54	0x3e29dda2	0.16588452
55	0xbd41c9b9	-0.04731152
56	0x3c83d9e0	0.016095102
57	0xbd995831	-0.07487524
58	0xbce4c73a	-0.02792703
59	0xbe2f0563	-0.17091899
60	0x3e417e97	0.18895946
61	0x3d961e45	0.07329992
62	0x3e0af13b	0.13568585
63	0x3e403fe8	0.18774378
64	0x3d3acb07	0.04560378
65	0x3ddace7b	0.10683914
66	0xbd94f717	-0.07273691
67	0xbddaee31	-0.10689963
68	0xbc570495	-0.013123651
69	0xbd02fd96	-0.03198012
70	0x3e205be2	0.1566005
71	0xbdcadbb6	-0.09905188
72	0xbcc95e8f	-0.024581222
73	0x3b9a1924	0.004702704
74	0x3d6f812c	0.058472797
75	0x3e220f0a	0.1582605
76	0x3e1d567f	0.15365027
77	0x3e670f4e	0.22564432
78	0x3e432a44	0.19059092
79	0xbdadfc52	-0.08495392
80	0xbd95a927	-0.07307654
81	0x3d52c398	0.051456064
82	0x3e0d55ea	0.13802305
83	0x3e16712a	0.14691606
84	0x3c8fc796	0.017551225
85	0x3e102914	0.1407817
86	0xbd23692e	-0.03989523
87	0xbcc07e18	-0.023497626
88	0x3e063a3c	0.13108152
89	0x3d9bd620	0.076092005
90	0x3df49899	0.11943168
91	0x3e29346c	0.16523904
92	0x3e47a133	0.19495086
93	0x3d324c50	0.04352981
94	0xbd9dbd43	-0.077021144
95	0xbd5d950e	-0.054097228
96	0xbcf72aeb	-0.030171832
97	0x3df4d747	0.119551234
98	0xbe666cd1	-0.22502448
99	0x3dfd6cbb	0.12374254
100	0xbd86e8d6	-0.06587379
101	0x3d7bd8fb	0.061486226
102	0x3d4d0bd4	0.05006011
103	0xbc91f4b5	-0.01781688
104	0x3d4f25d5	0.05057319
105	0xbc8ec85a	-0.01742952
106	0xbdc69688	-0.0969668
107	0xbde10c46	-0.10988669
108	0xbda5fc2a	-0.08104737
109	0xbe12f0bc	-0.14349645
110	0x3e369afd	0.17832561
111	0x3e3e1cdf	0.18565701
112	0x3c27cf5a	0.010242308
113	0x3e1f1e2e	0.15538856
114	0xbca5a7f2	-0.020221684
115	0x3cd321c4	0.025772937
116	0xbd880333	-0.06641235
117	0xbdb1438a	-0.0865546
118	0x3d05702c	0.03257768
119	0x3d7dee4c	0.061994836
120	0xbe29bc85	-0.1657582
121	0x3d0cf032	0.034408756
122	0x3cb63e7f	0.022246597
123	0xbe528af1	-0.20560814
124	0x3dec8ede	0.11550687
125	0x3cde1dfa	0.027113903
126	0xbd7454e7	-0.05965128
127	0x3d860a02	0.065448776
128	0xbd9d1c1a	-0.076713756
129	0xbe1e38ab	-0.15451305
130	0xbe1dd5a7	-0.15413533
131	0xbaa24fed	-0.0012383439
132	0xbdecfefd	-0.11572073
133	0x3d5c5a6c	0.05379717
134	0x3e28373f	0.16427325
135	0x3d5c64b2	0.053806968
136	0xbc43b550	-0.011945084
137	0xbe6e4527	-0.23268567
138	0xbb8bd334	-0.0042671207
139	0x3b9a01b5	0.0046999105
140	0xbd310d44	-0.04322554
141	0x3e214f96	0.15753016
142	0xbd3ff60d	-0.04686551
143	0x3d9c93b5	0.076453604
144	0x3e1f3342	0.15546897
145	0xbdc8b843	-0.0980077
146	0x3cc9204e	0.024551537
147	0x3dba5923	0.09099033
148	0x3e5b05ef	0.21388982
149	0x3de46e7d	0.111538865
150	0x3d7db824	0.06194319
151	0xbdbccd51	-0.092188485
152	0x3b499598	0.003075933
153	0x3d364387	0.044497993
154	0x3da2e987	0.07954698
155	0xbc2a03ce	-0.010376884
156	0xbe555aca	-0.20835415
157	0xbd5e2062	-0.0542301
158	0xbe05b4db	-0.13057272
159	0xbe431f65	-0.19054945
160	0x3db77754	0.08958307
161	0x3dffa024	0.12481716
162	0xbd3d07c8	-0.04615
163	0xbd36f85d	-0.04467045
164	0xbb84b53f	-0.0040499265
165	0x3be0021d	0.0068361894
166	0x3e349857	0.17636238
167	0x3d238052	0.039917298
168	0x3e0f9979	0.14023389
169	0xbdba030b	-0.09082612
170	0x3d80ef0b	0.06295594
171	0xbd36a2ce	-0.044588856
172	0xbd3d50d6	-0.04621967
173	0xbd9bf94b	-0.07615908
174	0xbe336394	-0.17518455
175	0x3c77b209	0.0151181305
176	0x3e12d207	0.14337932
177	0x3d280e7f	0.04102945
178	0x3e141528	0.14461195
179	0x3da9e415	0.08295456
180	0x3e0ad974	0.13559514
181	0xbd6b8717	-0.05750188
182	0x3dee6ef9	0.1164226
183	0xbd083b6d	-0.033259798
184	0xbddde96d	-0.10835538
185	0xbdafa4af	-0.08576333
186	0x3d933be3	0.07189157
187	0xbe4410f9	-0.191471
188	0xbdacc7a3	-0.08436515
189	0xbde33fd7	-0.11096161
190	0x3d745e5b	0.059660297
191	0x3e51dba0	0.20493937
192	0x3e185831	0.14877392
193	0xbda7e3b5	-0.081977285
194	0x3e1992d8	0.14997423
195	0x3e3a9fb9	0.18224992
196	0x3e28bc58	0.16478097
197	0x3e3039d1	0.17209555
198	0x3d78b8ce	0.06072312
199	0xbdded954	-0.10881296
200	0x3e1057cb	0.1409599
201	0x3e4e0136	0.2011765
202	0x3e3e9427	0.18611203
203	0xbae0aae8	-0.0017140778
204	0x3d823e63	0.063595556
205	0x3db3cd38	0.08779377
206	0xbbe217f5	-0.0068998286
207	0xbd518c2b	-0.051159065
208	0xbe401743	-0.18758874
209	0x3c204843	0.009782854
210	0x3d0742f7	0.033022847
211	0x3debfa0b	0.11522301
212	0xbe15a52a	-0.14613786
213	0x3e109d17	0.14122425
214	0xbc6c91ec	-0.014439087
215	0xbcb8a07a	-0.022537459
216	0x3db99d45	0.090632
217	0xbe33df3b	-0.17565624
218	0x3d37b8e4	0.04485406
219	0x3d08ceee	0.03340047
220	0xbbfd157a	-0.0077235075
221	0xbdd1d41d	-0.102455355
222	0xbe2a5d1c	-0.16637081
223	0x3de4b422	0.1116717
224	0xbe7efb6a	-0.24900594
225	0xbce12d33	-0.027487373
226	0x3dd6473b	0.10462805
227	0x3e1dc2b7	0.15406309
228	0x3d9520f5	0.07281677
229	0xbe125465	-0.14290006
230	0xbe07c19e	-0.13257453
231	0xbd768302	-0.060183533
232	0xbe3ce7d5	-0.18447812
233	0xbcfc4792	-0.030795846
234	0xbdefafb9	-0.11703438
235	0x3d139d42	0.036038645
236	0x3ceb9723	0.028758591
237	0xbd8d85a7	-0.06910258
238	0x3dc40cf0	0.0957278
239	0x3d36922c	0.044572994
240	0xbdd32ff2	-0.10311879
241	0xbe155982	-0.14584926
242	0xbdbabade	-0.09117673
243	0x3d21e981	0.039529327
244	0x3d9862e7	0.07440739
245	0x3e017c65	0.12645109
246	0xbd110564	-0.03540553
247	0x3d3518a6	0.04421296
248	0xbe111489	-0.1416799
249	0x3da4ee49	0.08053262
250	0xbca71cdd	-0.020399505
251	0x3d8be30e	0.068304166
252	0xbe22cd23	-0.15898566
253	0x3db22ca8	0.08699924
254	0x3dba74a5	0.091042794
255	0xbe2ffd40	-0.17186451

shared_gru.weight_hh_l0 f4 [96, 32]
0	0xbd4ad7d7	-0.049522247
1	0xbdade6e9	-0.08491308
2	0x3dff554e	0.124674425
3	0xbdf03fc9	-0.11730916
4	0xbc79b4c4	-0.015240852
5	0x3d497818	0.049186796
6	0xbd95b840	-0.073105335
7	0xbd9844d2	-0.074350014
8	0xbdb1c93a	-0.08680959
9	0xbb74e3b8	-0.0037367176
10	0x3d9da946	0.07698302
11	0x3dd07acf	0.10179674
12	0xbdce86c6	-0.100843
13	0x3dc7821b	0.097416125
14	0xbce05e1c	-0.027388625
15	0x3b6b3dd3	0.0035895004
16	0xbdfde040	-0.12396288
17	0x3e216b68	0.15763628
18	0xbdafaaf8	-0.085775316
19	0x3e002371	0.1251352
20	0x3e530ede	0.2061114
21	0x3e0668d6	0.13125929
22	0x3d939f19	0.0720808
23	0xbdafe733	-0.085890196
24	0x3e4effb5	0.20214732
25	0x3e31a512	0.17348126
26	0xbdfd7b08	-0.12376982
27	0xbdbb5e93	-0.09148898
28	0x3e4a66b2	0.19765738
29	0xbda9b550	-0.08286536
30	0x3e55d08e	0.20880339
31	0x3dd39d83	0.10332777
32	0x3e44e8e0	0.1922946
33	0x3d3747c5	0.04474618
34	0x3d695897	0.05696925
35	0xbd338bfb	-0.043834668
36	0x3d94877b	0.07252403
37	0xbda2973e	-0.079390034
38	0x3e0db99e	0.13840339
39	0x3dc88a08	0.09791952
40	0xbe3572d9	-0.17719592
41	0xbd208008	-0.0391846
42	0x3dd0f114	0.10202232
43	0xbe102914	-0.1407817
44	0xbda0f703	-0.07859614
45	0x3dafde30	0.08587301
46	0x3c1140f4	0.008865584
47	0xbd229b7e	-0.03969907
48	0xbc1b7459	-0.009488189
49	0xbd290e33	-0.041273307
50	0xbd40b2e1	-0.047045592
51	0xbdb3b07b	-0.08773895
52	0xbdcc6251	-0.0997969
53	0x3d8325a1	0.064036615
54	0xbe326ec0	-0.1742506
55	0xb8dbee51	-0.00010487124
56	0x3dc79ac7	0.09746318
57	0xbd8abb04	-0.06773952
58	0x3ca6279d	0.020282561
59	0xbd49ae12	-0.049238272
60	0x3dd36f26	0.10323934
61	0x3dd0536a	0.1017216
62	0xbbf69fd8	-0.007526379
63	0x3e2ecd4a	0.17070499
64	0x3db7a0d0	0.089662194
65	0xbe184f87	-0.14874087
66	0xbc745a40	-0.014914095
67	0x3d7e9ed7	0.0621632
68	0x3d8a8194	0.06762996
69	0x3e75e458	0.24012887
70	0xbdffe3f2	-0.12494649
71	0xbd4c087f	-0.04981279
72	0xbbea4a38	-0.007149961
73	0x3d083534	0.033253863
74	0xbdc2d8eb	-0.0951403
75	0x3d70edb3	0.058820438
76	0x3c363994	0.011122126
77	0x3d83be38	0.06432766
78	0xbceb8a0e	-0.028752353
79	0xbe50671e	-0.20351836
80	0x3bac5d60	0.0052601546
81	0xbce5b85a	-0.028042007
82	0xbe534969	-0.20633473
83	0x3dc32cc0	0.0953002
84	0xbce2fa9a	-0.027707387
85	0xbd87eb89	-0.06636722
86	0xbdec2d4d	-0.11532078
87	0x3e6275a8	0.22115195
88	0x3d6e40a3	0.05816711
89	0xbc0b4c92	-0.0085021425
90	0x3d958428	0.073005974
91	0x3d5fda0c	0.054651305
92	0x3b93564c	0.0044963714
93	0x3e07e9ff	0.13272856
94	0x3d079777	0.033103433
95	0xbceb5392	-0.028726373
96	0x3dffe403	0.12494662
97	0xbdd03968	-0.101671994
98	0x3e3a382a	0.18185487
99	0xbe484d15	-0.19560654
100	0x3d41233f	0.047152754
101	0x3e4b6672	0.19863299
102	0x3d9795a0	0.074015856
103	0x3de9937d	0.11405084
104	0xbe62a4a6	-0.22133121
105	0x3cbaeaba	0.022817004
106	0xbc4072fd	-0.011746165
107	0xbe5dc45f	-0.21656941
108	0xbe426664	-0.18984371
109	0x3e14d2ba	0.14533511
110	0x3b97726f	0.004621796
111	0xbddbdb07	-0.107351355
112	0x3df6469f	0.12025189
113	0x3dceb752	0.10093559
114	0x3d530baf	0.051524814
115	0x3dbfae46	0.09359412
116	0x3d850dc4	0.06496766
117	0x3e161b28	0.14658797
118	0x3dff1044	0.12454274
119	0xbdef285f	-0.11677622
120	0x3dac2ee0	0.08407378
121	0xbd0696a5	-0.03285851
122	0xbd901d10	-0.07036793
123	0x3dc234a5	0.094826974
124	0x3c81ddb5	0.015852788
125	0xbcd96a18	-0.026539847
126	0x3e0dbdfe	0.13842008
127	0x3e433501	0.19063188
128	0x3d60323c	0.054735407
129	0x3e2d9b8f	0.16953872
130	0xbdf8ddee	-0.12151705
131	0xbddcb241	-0.10776187
132	0xbe81043f	-0.25198552
133	0xbe540e20	-0.20708513
134	0xbc8d3acd	-0.017239952
135	0xbe4a6d5b	-0.19768278
136	0x3de4551b	0.11149045
137	0x3d5495cb	0.051900666
138	0x3d22cdaa	0.039746918
139	0x3e1f82c8	0.15577233
140	0xbd0be08e	-0.0341497
141	0x3d6b7963	0.05748881
142	0x3dc2b9cc	0.09508094
143	0x3dbc9645	0.09208349
144	0x3d4a82f5	0.049441297
145	0xbe51e4b2	-0.20497397
146	0x3d927e2c	0.071529716
147	0x3e8dc6bc	0.27690685
148	0x3e2045b9	0.15651597
149	0x3c9a2ec9	0.018821137
150	0xbe21ca3a	-0.157998
151	0x3d8034c8	0.06260067
152	0xbe8cdf3e	-0.2751407
153	0xbe85056e	-0.25980705
154	0x3e872857	0.26397964
155	0x3e46c2cc	0.19410247
156	0xbe8b4128	-0.27198148
157	0xbe783d82	-0.24242213
158	0x3c8e6620	0.017382681
159	0xbe486337	-0.19569097
160	0x3d93fc0e	0.0722581
161	0xbdd4f7e1	-0.10398842
162	0x3d9b6f60	0.075896025
163	0x3d6f328e	0.058397822
164	0xbdb3aa1d	-0.08772681
165	0xbe51273d	-0.20425124
166	0xbd3b3f95	-0.045714933
167	0xbdd1dfca	-0.102477625
168	0xbd17219f	-0.036897298
169	0x3c206882	0.009790542
170	0x3da5a445	0.080879726
171	0x3e3126ba	0.1729993
172	0xbd74631b	-0.059664827
173	0x3e77340d	0.2414095
174	0x3de29a4e	0.110645875
175	0xbdf46220	-0.11932778
176	0x3e2b920f	0.16754936
177	0xbd7acfa7	-0.06123319
178	0xbce53e41	-0.027983787
179	0x3d63f6f7	0.055655446
180	0xbe322321	-0.17396213
181	0xbdf06940	-0.11738825
182	0xbd4d6c05	-0.050151844
183	0xbd645740	-0.05574727
184	0x3d008d15	0.031384546
185	0xbd9f515a	-0.077791885
186	0x3e252c36	0.16130146
187	0xbd3d2045	-0.046173353
188	0x3d15c147	0.036561277
189	0x3dbdcd19	0.09267635
190	0xbdc714ac	-0.0972074
191	0x3e0b10cf	0.1358063
192	0x3d6e221f	0.05813801
193	0x3e1c5554	0.15266925
194	0x3ce60582	0.028078798
195	0xbe0c8ab0	-0.1372478
196	0xbdef4a24	-0.11684063
197	0xbe0c6831	-0.13711621
198	0xbd060076	-0.032715283
199	0x3d6b01a3	0.057374608
200	0xbddb1c5e	-0.1069877
201	0x3d7e6de3	0.062116515
202	0x3e05070d	0.12990971
203	0xbe0df5be	-0.13863274
204	0x3c12d51f	0.008961945
205	0xbdaca73b	-0.08430334
206	0x3e021101	0.12701799
207	0x3c84bc3f	0.016203044
208	0x3e12bc8f	0.14329742
209	0x3db1cec0	0.086820126
210	0x3db176ed	0.086652614
211	0x3da53d18	0.08068293
212	0xbe1289f3	-0.14310436
213	0xbd7942d7	-0.06085476
214	0x3e0e8cf6	0.1392096
215	0xbc5a9cc3	-0.013343039
216	0xbd675d57	-0.0564855
217	0xbe5deaa2	-0.21671537
218	0x3d92e746	0.07173018
219	0xbdc62508	-0.09675032
220	0xbd92bfcb	-0.07165488
221	0xbe17cd2e	-0.14824364
222	0x3c9a45a7	0.018832041
223	0x3d110c1c	0.03541194
224	0xbd3d4c69	-0.04621545
225	0xbe266f45	-0.16253383
226	0x3e12d540	0.14339161
227	0xbc5ed4f0	-0.013600573
228	0xbc9ee1d5	-0.019394794
229	0xbd253d14	-0.04034145
230	0xbe0f12db	-0.13972037
231	0x3e031192	0.12799671
232	0x3e07e016	0.13269076
233	0x3ddf3ab9	0.10899872
234	0xbe03b6e7	-0.1286274
235	0x3dacd272	0.08438577
236	0x3d70531f	0.05867302
237	0xbe1a7963	-0.15085368
238	0xbd0d28f6	-0.03446289
239	0xbc1a53c9	-0.00941939
240	0x3cfb5d23	0.03068406
241	0xbd884d5b	-0.066553794
242	0x3d9677db	0.07347079
243	0xbe4f175d	-0.20223756
244	0xbda9bf3b	-0.082884274
245	0xbc26c3c8	-0.010178514
246	0xbdd2a6f4	-0.1028575
247	0x3d111a4b	0.035425466
248	0xbd9275b7	-0.071513586
249	0x3dfe081a	0.12403889
250	0xbd20a896	-0.039223276
251	0xbdb40152	-0.08789314
252	0xbd2e7a16	-0.0425969
253	0x3d80a1f7	0.06280892
254	0xbde79689	-0.11308009
255	0x3db41f30	0.08795011

shared_gru.bias_ih_l0 f4 [96]
0	0xbc64efc9	-0.013973185
1	0x3d864fef	0.06558215
2	0x3dabc2ea	0.08386786
3	0x3dfbabbb	0.12288614
4	0xbd381068	-0.04493752
5	0x3d02f354	0.031970337
6	0xbdbf1e83	-0.093319915
7	0x3d8fbe81	0.070187576
8	0x3cfadc24	0.03062255
9	0x3d53b58e	0.051686816
10	0xbd89fd2d	-0.067377426
11	0x3b79e1af	0.0038128903
12	0xbdffb678	-0.12485975
13	0x3e422518	0.18959463
14	0xbda4b960	-0.0804317
15	0x3e4320dd	0.19055505
16	0x3e0a224f	0.1348965
17	0xbd78320d	-0.060594607
18	0x3db9f832	0.090805426
19	0xbdaa9951	-0.08330024
20	0xbdb9b0f4	-0.09066954
21	0xbdcff9cd	-0.101550676
22	0xbdf14a49	-0.11781747
23	0x3d147aec	0.03625004
24	0xbdd8cf3d	-0.105864026
25	0x3d92c27b	0.071660005
26	0x3e0aa7ce	0.13540575
27	0xbde4183a	-0.11137433
28	0x3e1eebc2	0.15519622
29	0x3d68944c	0.056782052
30	0x3df393bf	0.11893415
31	0xbdf2b5f4	-0.11851111
32	0x3d731fd6	0.059356533
33	0xbe09fd42	-0.13475516
34	0xbd8240e5	-0.06360034
35	0xbe369c59	-0.1783308
36	0xbe2155b2	-0.15755346
37	0xbde5415c	-0.11194107
38	0xbdfc7915	-0.12327782
39	0x3cc2db12	0.023786101
40	0xbe5509b8	-0.20804489
41	0xbe1df584	-0.15425688
42	0x3e15f58d	0.14644451
43	0x3c2842d5	0.01026984
44	0x3d5ffc0d	0.054683734
45	0x3e06f85e	0.13180682
46	0xbe078f1d	-0.13238187
47	0xbe41b8f0	-0.18918204
48	0xbdec693c	-0.11543509
49	0xbe5939a6	-0.21213397
50	0xbd65d959	-0.056115482
51	0xbdfaf9d5	-0.12254683
52	0x3e10aec9	0.14129175
53	0x3d98c98c	0.07460317
54	0xbdd3c1be	-0.10339688
55	0xbe05a12e	-0.13049766
56	0x3d52595f	0.051354762
57	0x3dcfc001	0.10144044
58	0xbdc644ae	-0.09681068
59	0xbe5d8f38	-0.21636665
60	0xbdebb91f	-0.115099184
61	0x3cbddb56	0.023175877
62	0x3dcc48cf	0.09974825
63	0xbd3f111a	-0.04664717
64	0x3e739d87	0.2379056
65	0xbd59dfa5	-0.0531918
66	0x3e70f38a	0.23530403
67	0xbdd312cb	-0.10306319
68	0xbd53e3b7	-0.051730838
69	0x3d80e034	0.06292763
70	0xbdd8a4f2	-0.10578336
71	0x3e2237e7	0.15841638
72	0xbe263305	-0.162304
73	0x3e3a4446	0.18190107
74	0xbe40861e	-0.18801162
75	0xbe3f4cd8	-0.18681657
76	0xbe660466	-0.22462615
77	0x3df7472e	0.12074123
78	0x3e19629e	0.14979026
79	0xbe54fba8	-0.20799124
80	0x3e2706aa	0.16311136
81	0x3d6a4a2e	0.05719965
82	0xbe4cd185	-0.200018
83	0xbdedc53d	-0.11609886
84	0x3e0c931a	0.1372799
85	0xbcb6267e	-0.022235151
86	0x3e050e4e	0.12993738
87	0xbdcbafa6	-0.09945612
88	0x3dcffba1	0.10155416
89	0xbe044a10	-0.12918878
90	0xbe15b98a	-0.14621559
91	0xbe27e005	-0.1639405
92	0x3c994c08	0.018713012
93	0x3d393653	0.045217823
94	0xbc92bb1d	-0.017911488
95	0x3e1a6dbf	0.15080927

shared_gru.bias_hh_l0 f4 [96]
0	0x3d88d070	0.06680381
1	0x3e3c4c06	0.18388376
2	0x3e6d822d	0.2319419
3	0x3d22b243	0.039720785
4	0x3d04b0d6	0.032395206
5	0x3c98ce31	0.018653007
6	0x3dfcd555	0.12345377
7	0x3d875f8e	0.066100225
8	0x3db8801e	0.090088114
9	0x3c276b34	0.01021843
10	0xbe10da2c	-0.14145726
11	0x3e136c32	0.14396742
12	0xbe09dc81	-0.13463022
13	0xbdd4ab80	-0.103842735
14	0x3db41932	0.08793868
15	0x3d1dce3f	0.03852677
16	0x3e0c4f36	0.13702092
17	0x3e3e9288	0.18610585
18	0x3de28ade	0.11061643
19	0xbdde2c6a	-0.10848315
20	0xbd00068f	-0.031256255
21	0x3e3d0639	0.18459405
22	0x3df5808b	0.11987408
23	0x3cb665b4	0.022265293
24	0x3cc97557	0.024592085
25	0xbd9b2fe0	-0.07577491
26	0xbcfffa0a	-0.031247158
27	0x3d9c9f05	0.07647518
28	0x3cdbe260	0.026841342
29	0xbe1861a9	-0.14881004
30	0x3e008995	0.12552483
31	0x3e24fd26	0.16112193
32	0x3d950030	0.072754264
33	0x3ce0a6ca	0.027423281
34	0xbe38e7d4	-0.18057185
35	0xbe0850bf	-0.13312052
36	0x3d2d7c9a	0.042355157
37	0xbd47027c	-0.048586354
38	0x3e15c5a5	0.14626177
39	0x3dcb1006	0.099151656
40	0xbdeefc36	-0.11669199
41	0x3d75e91b	0.06003676
42	0xbd3c8fb6	-0.04603549
43	0xbddb0aad	-0.106953956
44	0xbe1504ce	-0.14552614
45	0xbd82110c	-0.06350908
46	0x3d82aebc	0.06380984
47	0xbd06bbc9	-0.03289393
48	0xbde1f195	-0.11032406
49	0xbdbd2ddf	-0.09237265
50	0xbc9de028	-0.019271925
51	0xbd526b28	-0.051371723
52	0xbd783fea	-0.06060783
53	0xbd7625dd	-0.060094703
54	0x3e11fb01	0.14255907
55	0xbd9d0fcb	-0.07669028
56	0x3bd6c3b8	0.006554093
57	0xbe368afa	-0.17826453
58	0xbd896596	-0.06708829
59	0xbcfd3d5e	-0.030913051
60	0x3d9e41ad	0.077273704
61	0x3d4ba1de	0.049714915
62	0x3d8d0945	0.06886534
63	0xbd8a7153	-0.06759896
64	0x3dc33f76	0.095335886
65	0x3cb8db25	0.022565434
66	0x3d572b20	0.05253136
67	0xbdcd9492	-0.10038103
68	0xbe4254e8	-0.18977702
69	0xbe2a6064	-0.16638333
70	0xbe273872	-0.16330126
71	0x3dae58f4	0.0851306
72	0x3cdc5cfe	0.02689981
73	0x3e23e3e2	0.16004899
74	0xbce120eb	-0.027481517
75	0xbda2f6f0	-0.07957256
76	0x3c686996	0.01418533
77	0x3e236028	0.1595465
78	0x3e0b635b	0.1361212
79	0xbe2376c6	-0.15963277
80	0x3c141cf3	0.009040105
81	0x3d644a03	0.055734646
82	0xbc89f97e	-0.0168426
83	0x3cf4a310	0.02986291
84	0x3e50ca48	0.20389664
85	0xbc8df48c	-0.017328523
86	0x3e09c53c	0.13454145
87	0xbe13e732	-0.14443663
88	0x3c5685c7	0.013093418
89	0xbd9a218b	-0.07525929
90	0xbd772a65	-0.060343165
91	0xbd95f0b1	-0.07321299
92	0xbdd20526	-0.10254888
93	0xbe0f9add	-0.1402392
94	0xbe4408e1	-0.19144012
95	0x3e483047	0.19549666

shared_output_layers.0.weight f4 [64, 32]
0	0xbe0b7c19	-0.13621558
1	0xbb838daa	-0.0040146904
2	0x3de6ef92	0.11276163
3	0xbdfa36c7	-0.12217479
4	0xbdce7db2	-0.10082568
5	0xbdffb801	-0.12486268
6	0xbe143321	-0.14472629
7	0x3d552a5c	0.05204235
8	0xbdc8bba6	-0.09801416
9	0x3e25fb37	0.16209112
10	0x3d009f07	0.03140166
11	0xbdd3db3e	-0.103445515
12	0xbe0c2276	-0.13685021
13	0xbdf7a108	-0.12091261
14	0x3cde7a26	0.027157854
15	0xbe0ad48d	-0.13557644
16	0xbd2bdf59	-0.041961048
17	0x3c07182b	0.008245508
18	0x3ce7abc3	0.028280145
19	0x3d70a5a3	0.058751713
20	0xbd41bf55	-0.04730161
21	0x3da20d40	0.079126835
22	0xbe071ad6	-0.13193831
23	0xbd06850e	-0.032841735
24	0x3c00de4d	0.007865501
25	0xbc61ed5a	-0.013789499
26	0xbdf0a1c4	-0.11749604
27	0xbd2eae42	-0.042646654
28	0xbda715c1	-0.08158446
29	0x3dbde8e2	0.092729345
30	0xbd90f12f	-0.07077252
31	0x3bd16760	0.006390497
32	0xbdac3660	-0.08408809
33	0xbdec2a0a	-0.11531456
34	0x3e2f290c	0.17105502
35	0xbdb84bdd	-0.08998845
36	0xbe07fe63	-0.13280635
37	0x3be46eaa	0.0069712
38	0xbd82ccb5	-0.06386701
39	0x3d67d04e	0.05659514
40	0xbdf05bc1	-0.11736251
41	0xbdcdbc27	-0.10045653
42	0x3dcb3115	0.09921471
43	0xbddef261	-0.10886074
44	0x3cdac7d9	0.026706623
45	0xbd0c9bb6	-0.034328185
46	0x3e0ffdc4	0.14061648
47	0xbe2dcc3f	-0.16972445
48	0x3e11d7e8	0.14242518
49	0x3e161d5e	0.1465964
50	0x3ddbcad2	0.10732044
51	0xbddbf459	-0.10739965
52	0x3de59856	0.112106964
53	0xbc82eea5	-0.015982935
54	0xbc5f16d6	-0.013616284
55	0x3d07d9a8	0.033166558
56	0x3cc750d2	0.02433053
57	0xbe331565	-0.1748863
58	0xbdefd760	-0.117110014
59	0x3d0b68e9	0.034035597
60	0xbe258085	-0.16162308
61	0x3d8561b0	0.06512773
62	0xbdac7630	-0.0842098
63	0x3b9e8fb4	0.004838908
64	0x3c9a1e83	0.018813377
65	0xbdcebe81	-0.100949295
66	0xbe045b30	-0.1292541
67	0xbe250f19	-0.1611904
68	0x3d328d1f	0.043591615
69	0x3dc3e3f0	0.0956496
70	0xbde80eb6	-0.11330931
71	0xbd6a362c	-0.05718057
72	0x3d874710	0.06605351
73	0xbdd46f36	-0.10372774
74	0x3d476e95	0.048689444
75	0xbe28033a	-0.16407481
76	0xbe00429f	-0.12525414
77	0x3cde7c70	0.027158946
78	0x3e267ce9	0.16258587
79	0x3ccf2b6f	0.025289265
80	0x3e20dd6a	0.15709463
81	0x3cc5da93	0.024152076
82	0x3d26a86b	0.04068796
83	0xbd5a27b3	-0.053260516
84	0xbdc24363	-0.09485509
85	0x3d45665a	0.048193313
86	0x3d4dbaf3	0.050227117
87	0xbe41a020	-0.18908739
88	0xbd172b24	-0.036906376
89	0xbe3a181f	-0.18173264
90	0xbd4f89ca	-0.050668515
91	0x3dcd156f	0.10013854
92	0xbe51cc5f	-0.20488118
93	0xbe245f4e	-0.16051981
94	0xbe452dda	-0.19255772
95	0xba57dc38	-0.0008234414
96	0xbe12e1e3	-0.14343981
97	0xbe100b73	-0.14066868
98	0x3d568a0f	0.052377757
99	0x3dc44656	0.09583728
100	0x3cd1d7db	0.025615623
101	0x3d2c5e6f	0.042082246
102	0xbe4dc7f1	-0.20095803
103	0xb9bcc3f4	-0.0003600415
104	0x3de8fcaf	0.113763206
105	0xbe249a12	-0.16074398
106	0x3cbfb878	0.023403391
107	0x3d8438d8	0.064561546
108	0xbe0f834c	-0.1401493
109	0xbbb42509	-0.005497579
110	0x3e06e9a4	0.13175064
111	0xbdaa59d2	-0.08317913
112	0x3dd95e14	0.10613647
113	0x3d1c0538	0.038090914
114	0x3dddbf73	0.10827532
115	0x3e02fc0a	0.12791458
116	0x3e337e5d	0.17528673
117	0x3d918bb6	0.07106726
118	0xbd90d05e	-0.07070993
119	0xbe25c3f3	-0.1618803
120	0xbd9e1b69	-0.07720072
121	0xbe14665a	-0.14492169
122	0xbd9074e0	-0.07053542
123	0xbe5e10b2	-0.21686056
124	0xbd026bb6	-0.031841002
125	0xbe060b7e	-0.13090321
126	0xbdea9ec1	-0.11456061
127	0x3de8c105	0.113649406
128	0x3dfd7362	0.12375523
129	0xbd1abdb6	-0.03777858
130	0xbd2398de	-0.039940707
131	0xbc1dfc19	-0.009642624
132	0xbe317f55	-0.1733373
133	0xbd2619f3	-0.04055209
134	0xbdc768f9	-0.09736819
135	0x3e29954b	0.16560857
136	0x3e081372	0.13288668
137	0x3d71265b	0.05887447
138	0x3d3e79fe	0.04650306
139	0x3dd582e8	0.10425359
140	0x3d45f41b	0.0483285
141	0x3da1acbc	0.078942746
142	0x3e3a6b29	0.18204941
143	0x3cad6b0e	0.021169212
144	0x3d7a378a	0.061088122
145	0xbe325609	-0.17415632
146	0x3e25616e	0.16150448
147	0xbda35889	-0.07975871
148	0x3da039bd	0.07823513
149	0x3db4666d	0.08808599
150	0x3db4f3eb	0.08835586
151	0x3c955446	0.018228661
152	0x3d48d637	0.049032416
153	0x3d35f0c2	0.044419058
154	0xbd956d4c	-0.07296237
155	0x3ce125b1	0.027483793
156	0x3d0fa2e9	0.035067473
157	0xbd45c18d	-0.048280288
158	0x3c341824	0.010992084
159	0x3dd256af	0.1027044
160	0x3dc18cee	0.09450708
161	0x3ae3daec	0.0017383969
162	0xbc887231	-0.016656013
163	0xbe139184	-0.14410979
164	0xbd1dc15d	-0.038514484
165	0x3e8e9d54	0.27854407
166	0xbe80f96b	-0.2519029
167	0x3d1430f6	0.036179505
168	0xbb2d756f	-0.00264677
169	0x3e331281	0.17487527
170	0xbd5fc9e5	-0.0546359
171	0x3c7d5dfa	0.0154643
172	0x3ddca7c0	0.10774183
173	0xbd0baf3a	-0.034102656
174	0xbd384eb5	-0.044996936
175	0xbdbbc972	-0.09169282
176	0xbe0e8f82	-0.13921931
177	0x3e596f0d	0.21233769
178	0xbcd9de4a	-0.026595253
179	0xbc8597cb	-0.016307732
180	0xbd328296	-0.043581568
181	0x3df570ee	0.1198443
182	0x3e529543	0.20564751
183	0x3e486fc0	0.19573879
184	0x3e2b3ce9	0.16722454
185	0x3e1019ce	0.14072344
186	0xbd64a627	-0.055822518
187	0x3d59f04c	0.05320768
188	0x3daf4253	0.08557572
189	0x3e207ad5	0.15671857
190	0x3e04d359	0.12971248
191	0xbdc54c92	-0.09633745
192	0x3e15b3eb	0.14619415
193	0xbded72f5	-0.11594192
194	0x3e018af6	0.12650666
195	0xbe1b4a77	-0.15165125
196	0x3dc7101c	0.097198695
197	0x3e4d0390	0.2002089
198	0x3e58c71e	0.21169707
199	0xbd80c9dc	-0.062885016
200	0xbc3e4394	-0.011612792
201	0x3e28f240	0.16498661
202	0xbda682f0	-0.08130443
203	0x3dc338f3	0.095323466
204	0xbc1a2775	-0.009408821
205	0xbc295f69	-0.010337689
206	0x3da0e82d	0.07856784
207	0x3db61110	0.08889973
208	0xbe5f2377	-0.21790873
209	0x3ce6c76d	0.028171265
210	0x3e1a47cc	0.15066451
211	0x3d39891b	0.04529677
212	0x3cc911f2	0.02454469
213	0xbd8a7a8c	-0.06761655
214	0x3dfc3777	0.123152666
215	0x3d353399	0.04423866
216	0xbc9f937a	-0.019479502
217	0x3e51f42e	0.20503303
218	0x3b80b480	0.0039277673
219	0x3da01abe	0.07817601
220	0x3d21dadf	0.039515372
221	0x3dad359d	0.084574915
222	0xbd9e638c	-0.07733831
223	0x3d844b77	0.06459706
224	0x3d53d462	0.051716216
225	0xbdae0b7b	-0.084982835
226	0x3da2b82e	0.07945286
227	0xbe056e04	-0.13030249
228	0xbd9569a6	-0.072955415
229	0x3d1029c2	0.035196073
230	0xbe037b6a	-0.12840047
231	0x3e2a709a	0.16644517
232	0x3d84d157	0.06485241
233	0x3d63e813	0.055641245
234	0x3d1d5ea9	0.038420353
235	0x3d219dc6	0.039457105
236	0xbc1daa1e	-0.009623079
237	0x3dd96c2a	0.10616334
238	0xbc85af60	-0.016318977
239	0xbd024074	-0.03179975
240	0x3db27048	0.08712822
241	0xb9feb1d8	-0.0004857916
242	0xbe14b92b	-0.14523761
243	0x3e00532e	0.1253173
244	0x3e151b2d	0.14561148
245	0xbd9a9732	-0.075483695
246	0x3d9779aa	0.073962525
247	0xbc67f2ff	-0.014157056
248	0x3dfb91f5	0.122836985
249	0xbe28fbb9	-0.16502275
250	0xbda339f8	-0.07970041
251	0xbcf42017	-0.029800458
252	0xbe0280a6	-0.12744388
253	0x3d24c1bd	0.040223826
254	0x3deee77c	0.11665246
255	0x3d866572	0.06562318

shared_output_layers.0.bias f4 [64]
0	0x3de97d87	0.114008956
1	0x3dceb7db	0.100936614
2	0xbdbae271	-0.091252215
3	0x3e370623	0.17873435
4	0xbd36d5d7	-0.044637527
5	0xbdf9f046	-0.12204032
6	0xbdc0d7f4	-0.0941619
7	0x3e02d431	0.12776257
8	0x3dbefb2a	0.093252495
9	0x3e4a43e9	0.19752468
10	0x3e170f25	0.14751871
11	0x3d85b37f	0.06528377
12	0x3bf550f8	0.007486459
13	0x3e1dc1d7	0.15405975
14	0x3dddb73b	0.10825964
15	0xba8c08da	-0.001068379
16	0x3db351e9	0.087558575
17	0xbd07ee66	-0.03318634
18	0x3e26949b	0.16267626
19	0x3da9e305	0.08295254
20	0xbdac6b79	-0.08418936
21	0xbd959c47	-0.07305198
22	0xbdb4c69e	-0.08826946
23	0x3d19b2e7	0.03752413
24	0xbcc4dcf1	-0.024031134
25	0x3dc70473	0.097176455
26	0x3be610c5	0.007021042
27	0x3c94da84	0.018170603
28	0xbe0e50c5	-0.13897999
29	0xbb5ac897	-0.003338372
30	0x3d569f7e	0.052398197
31	0xbd2b23c5	-0.04178216
32	0x3d7d7755	0.061881382
33	0xbe14ef21	-0.14544345
34	0x3e4725df	0.1944804
35	0xbe21fec8	-0.15819848
36	0xbde0613f	-0.10956048
37	0x3d9879f8	0.07445139
38	0xbd97c446	-0.07410483
39	0x3d9b1d7a	0.075739816
40	0xbe3ddb5d	-0.18540712
41	0xbda12884	-0.07869056
42	0x3d08cfcf	0.033401307
43	0xbd5e6467	-0.05429497
44	0x3dab01c6	0.08349948
45	0x3e5fcfb0	0.2185657
46	0xbbd92bc5	-0.006627532
47	0x3defb820	0.11705041
48	0xbdace27b	-0.08441635
49	0x3e1bbc63	0.15208583
50	0x3d80de94	0.062924534
51	0xbc0fe1a2	-0.008781822
52	0xbdb262c0	-0.08710241
53	0xbdd4f9f5	-0.10399238
54	0xbda4b561	-0.08042408
55	0x3e625210	0.22101617
56	0xbcd7154f	-0.026255278
57	0xbe3888d1	-0.18020941
58	0x3cded6ed	0.027202094
59	0xbc9ccdae	-0.019141044
60	0x3e50db02	0.20396045
61	0x3e022df5	0.12712844
62	0xbe15f278	-0.14643276
63	0x3e548b12	0.20756176

shared_output_layers.3.weight f4 [32, 64]
0	0xbd779871	-0.060448114
1	0x3c69abf8	0.014262192
2	0xbe05b4de	-0.13057277
3	0xbe0aeea7	-0.13567601
4	0xbdb296c0	-0.087201595
5	0x3db1cab2	0.08681239
6	0x3d531390	0.051532328
7	0xbdb99051	-0.09060729
8	0xbda018eb	-0.07817253
9	0x3cd596c1	0.026072862
10	0x3d4af36f	0.049548563
11	0xbdc82bc3	-0.09773972
12	0xbdf6b578	-0.12046331
13	0x3d6808e9	0.056649122
14	0x3d54eb79	0.051982377
15	0x3c9320bf	0.01795995
16	0xbdb6827f	-0.08911609
17	0xbd8953ce	-0.067054376
18	0xbe1626c8	-0.14663231
19	0xbd4f7f4f	-0.05065852
20	0x3cd4ff86	0.02600075
21	0x3d9e21a3	0.077212594
22	0xbdeeab1a	-0.11653729
23	0x3cf1820f	0.029480962
24	0x3daca08e	0.08429061
25	0x3d38e477	0.045139756
26	0x3d96f8d1	0.07371677
27	0x3d5a94ac	0.05336444
28	0x3db120f6	0.08648865
29	0x3cf3e619	0.029772805
30	0x3ce137bf	0.027492402
31	0xbe130a35	-0.14359362
32	0xbd8c6e5f	-0.06856989
33	0xbadbe5b6	-0.0016776833
34	0xbbc71db7	-0.0060765403
35	0xbda86990	-0.082232594
36	0x3d2df87e	0.04247331
37	0x3bed12c0	0.007234901
38	0x3d67571d	0.056479562
39	0xbdd7a167	-0.10528832
40	0x3dfc3128	0.12314063
41	0x3dccea69	0.10005648
42	0xbce42dbd	-0.027853841
43	0x3c723880	0.014783978
44	0xbd70bd4b	-0.058774274
45	0xbe2c480b	-0.16824357
46	0xbd4226c1	-0.04740024
47	0xbd5285cc	-0.05139713
48	0xbde0825c	-0.10962364
49	0x3c18ab32	0.00931816
50	0xbdef443f	-0.11682939
51	0xbdbde634	-0.092724234
52	0xbe09ad0c	-0.13444918
53	0xbdeb7c66	-0.114983365
54	0xbdf1c7a9	-0.1180566
55	0x3d125bca	0.035732068
56	0x3d642a3c	0.05570434
57	0xbde1e6c4	-0.11030343
58	0xbdc9909c	-0.09842035
59	0x3d5e0b68	0.054210097
60	0x3d4edf4b	0.050505918
61	0xbd9956e3	-0.074872755
62	0xbdf18b56	-0.11794154
63	0xbe0273f4	-0.12739545
64	0xbd7efa6a	-0.062250532
65	0xbd3d3f68	-0.046203047
66	0x3dc4d2a7	0.09610491
67	0x3da314a9	0.07962925
68	0x3d8a70ae	0.06759773
69	0xbd8d74c3	-0.06907036
70	0x3d831c65	0.064019
71	0x3e1de3ea	0.15418974
72	0xbd4674f7	-0.04845139
73	0x3dd18b36	0.102316305
74	0x3dbe46a0	0.092908144
75	0x3d6921f8	0.05691716
76	0x3ded3f64	0.115843564
77	0x3dc4f027	0.09616118
78	0xbd2bfbc1	-0.041988138
79	0x3de76934	0.11299363
80	0x3e0c2e15	0.13689454
81	0x3cb3685d	0.02190035
82	0x3d7a8745	0.06116416
83	0x3e178b41	0.14799215
84	0x3db8001e	0.08984397
85	0x3da7ce99	0.08193702
86	0x3cbfe86f	0.023426263
87	0xbd7b885c	-0.06140934
88	0xbd8d2dac	-0.06893477
89	0xbdd0fc81	-0.10204411
90	0x3d1f2dce	0.038862042
91	0xbda32f36	-0.07967989
92	0xbd80ae80	-0.06283283
93	0xbda4d8e6	-0.080491826
94	0x3cbedbeb	0.023298224
95	0x3d16e923	0.03684343
96	0xbd0939f5	-0.033502538
97	0x3d94d61a	0.07267399
98	0x3ddf6f2e	0.10909878
99	0x3d6bdecc	0.057585523
100	0x3dad4f04	0.08462337
101	0x3ab4bf9c	0.0013790014
102	0xbde2f14b	-0.11081179
103	0xbb123c89	-0.0022313914
104	0xbd584896	-0.0528036
105	0x3befa8b2	0.007313811
106	0x3dab8ae8	0.08376104
107	0x3e00d399	0.12580718
108	0xbd055d44	-0.03255965
109	0xbd204480	-0.039127827
110	0xbd76a8f0	-0.060219705
111	0x3d3f877b	0.046760064
112	0xbdb261b6	-0.08710043
113	0x3c98115a	0.018562961
114	0xbd93be35	-0.072140135
115	0xbd5490ab	-0.05189578
116	0xbc60e8fb	-0.013727422
117	0xbcde8850	-0.027164608
118	0x3cc6d470	0.02427122
119	0x3cb0534b	0.021524092
120	0xbda3506c	-0.07974324
121	0xbd8ddf55	-0.06927363
122	0xbbd520e4	-0.006504165
123	0x3d953dc4	0.072871715
124	0xbd9ba9e9	-0.07600767
125	0x3db426eb	0.087964855
126	0x3cd89156	0.02643649
127	0x3dc47b7f	0.095938675
128	0xbade2420	-0.0016948022
129	0x3de43455	0.11142794
130	0xbdb3f639	-0.087871976
131	0xbdff3ebe	-0.12463139
132	0xbe0e1317	-0.1387447
133	0x3b31c99f	0.0027128232
134	0x3d1f7e63	0.03893889
135	0xbdf51a8e	-0.119679555
136	0xbdb6e529	-0.089304276
137	0x3c189dc9	0.009314963
138	0xbd009772	-0.03139443
139	0xbd812a4b	-0.06306895
140	0x3db2fe16	0.08739869
141	0x3d990381	0.074713714
142	0xbd6a36dc	-0.057181224
143	0x3bce3102	0.0062924633
144	0xbe074cc3	-0.13212876
145	0x3d5f1826	0.05446639
146	0x3a71bd84	0.00092216604
147	0xbada13e4	-0.0016638008
148	0xbd5dd512	-0.054158278
149	0x3d8ade5e	0.067806944
150	0xbd4bed1e	-0.04978668
151	0x3a29bb6f	0.0006474768
152	0xbdcb6851	-0.09932006
153	0x3d23d7ee	0.04000085
154	0xbc7c4aca	-0.0153986905
155	0xbd88ad6d	-0.06673703
156	0xbd615ffd	-0.055023182
157	0xbd993e22	-0.07482554
158	0x3c18f584	0.009335879
159	0x3d6d9e94	0.05801256
160	0x3dad9a89	0.08476741
161	0xbddaecb8	-0.10689682
162	0xbd8f00e5	-0.069825925
163	0x3d869078	0.06570524
164	0x3de3e8e3	0.11128404
165	0xbe017dba	-0.12645617
166	0xbd9874d6	-0.0744416
167	0xbd8fe54e	-0.07026158
168	0x3d534330	0.051577747
169	0xbd906e2a	-0.07052262
170	0xbe0af086	-0.13568315
171	0xbc24969d	-0.010045675
172	0xbc802f08	-0.015647426
173	0xbd82d10b	-0.06387528
174	0xbd107217	-0.035265055
175	0xbb56d29e	-0.0032779346
176	0xbd8da5c2	-0.069163814
177	0xbdb41faf	-0.08795106
178	0x3db4d328	0.08829337
179	0x3da3761e	0.079815134
180	0x3db2151c	0.086954325
181	0x3d16fad4	0.036860302
182	0x3d8e724e	0.06955396
183	0x3bc7fa96	0.00610287
184	0x3d7ca94c	0.06168489
185	0xbdcadad9	-0.09905023
186	0xbddc77c6	-0.107650325
187	0x3ccb6910	0.024830371
188	0xbd87565f	-0.06608271
189	0xbd438a0c	-0.047739074
190	0x3db9ff14	0.090818554
191	0xbe1ce359	-0.15321101
192	0xbd9af3ad	-0.07566009
193	0x3d8715f6	0.065959856
194	0xbd2943ef	-0.041324552
195	0x3d4a44be	0.049381964
196	0xbdb9228c	-0.090397924
197	0x3df3e01e	0.11907981
198	0xbd9da1bc	-0.07696864
199	0xbcfdb74d	-0.030971194
200	0x3dad3354	0.08457056
201	0xbccff134	-0.02538357
202	0x3df592fb	0.11990925
203	0x3d8acb7a	0.06777091
204	0xbdab9ff1	-0.08380116
205	0x3d4883ac	0.048953697
206	0xbdde181f	-0.108444445
207	0x3dd0ed29	0.10201485
208	0x3dcc5f6d	0.099791385
209	0x3e139f99	0.1441635
210	0xbd1ffdb5	-0.039060313
211	0x3d9a35fa	0.075298265
212	0x3d8e2dc9	0.069423266
213	0x3dbc900e	0.09207164
214	0x3c7181b0	0.014740393
215	0x3e01fd38	0.12694252
216	0xbcf18666	-0.029483031
217	0xbd963a7f	-0.07335376
218	0x3cf425bd	0.029803151
219	0x3dd613c7	0.10452991
220	0xbd0c844f	-0.034305867
221	0xbdd8c7b2	-0.10584964
222	0x3dc5f387	0.0966559
223	0x3dbf58cc	0.093431085
224	0xbc43b433	-0.011944818
225	0x3dafa8d6	0.08577125
226	0x3d171856	0.036888443
227	0x3dcd61bd	0.10028408
228	0x3cdac38e	0.026704576
229	0xbdc7d210	-0.09756863
230	0x3d5e3d35	0.05425759
231	0xbdb3ea26	-0.08784895
232	0x3da64f8a	0.081206396
233	0x3c835a4e	0.016034272
234	0xbda1d5a2	-0.07902075
235	0xbd371359	-0.044696186
236	0x3db933a2	0.09043051
237	0x3d18f72b	0.037345093
238	0xbd852a05	-0.06502155
239	0x3de49192	0.11160578
240	0xbdab2a3e	-0.083576664
241	0x3d0697d1	0.032859627
242	0xbd32522c	-0.043535396
243	0xbd1e8216	-0.03869828
244	0x3de9ead4	0.11421743
245	0xbca69cbe	-0.020338412
246	0xbda6a8d8	-0.08137673
247	0xbd10436d	-0.035220552
248	0xbd6c964b	-0.057760518
249	0xbccf5640	-0.025309682
250	0xbcbb7fee	-0.02288815
251	0x3d5cf58f	0.05394512
252	0x3de5c72c	0.1121963
253	0x3d1803a9	0.037112866
254	0x3d5a8b5d	0.053355563
255	0x3d763eb1	0.06011838

shared_output_layers.3.bias f4 [32]
0	0x3cdb0311	0.02673486
1	0x3d5f78c1	0.05455852
2	0xbe059e9d	-0.13048787
3	0xbdd4ce7e	-0.10390948
4	0x3da4262c	0.08015093
5	0xbd9f0b86	-0.0776587
6	0x3e0c43f8	0.13697803
7	0xbcc2570b	-0.023723146
8	0x3dc0fda0	0.09423375
9	0xbce9b12b	-0.028526863
10	0x3d087d39	0.033322547
11	0x3c88681e	0.01665121
12	0xbda44694	-0.08021274
13	0x3d421912	0.04738719
14	0x3c82571d	0.01591068
15	0x3d26b0c2	0.040695913
16	0x3df7b76a	0.1209553
17	0xbd849850	-0.06474364
18	0xbd9ea773	-0.07746782
19	0xbd63badc	-0.055598125
20	0xbdb61fd6	-0.08892791
21	0x3c030b55	0.007998307
22	0xbdda4319	-0.10657329
23	0x3da0f02f	0.078583114
24	0xbe15e6c8	-0.14638817
25	0x3dee039e	0.11621784
26	0x39156624	0.00014247798
27	0xbe0d976a	-0.13827291
28	0x3dcb31af	0.09921586
29	0xbadf2961	-0.0017025882
30	0x3e468bf7	0.1938933
31	0x3e2c61a2	0.16834119

shared_output_layers.6.weight f4 [2, 32]
0	0xbd95e948	-0.073198855
1	0x3c6fe782	0.014642598
2	0x3d01446b	0.03155939
3	0xbd16a5d1	-0.03677923
4	0x3e1fb777	0.1559733
5	0x3d13ea84	0.036112323
6	0x3b3d119a	0.0028849603
7	0xbe1097a7	-0.14120351
8	0x3daca078	0.084290445
9	0x386b1c64	5.6054807e-05
10	0x3a21e0b1	0.0006175144
11	0x39d3cf09	0.0004039931
12	0x3c9ff8b6	0.019527774
13	0xbdf135d8	-0.11777848
14	0xbd63e5f7	-0.055639233
15	0xbdae0b8e	-0.08498298
16	0x3e1f9212	0.15583065
17	0xbd019cde	-0.03164374
18	0xbd69210b	-0.056916278
19	0xbda199f4	-0.07890692
20	0x3daa20f9	0.0830707
21	0x3dc63ee7	0.096799664
22	0xbc9cad7e	-0.019125696
23	0x3bd3fe8d	0.006469554
24	0x3d9d11ce	0.076694116
25	0x3aec4d53	0.0018028416
26	0x3d81e27e	0.06342028
27	0xbe021049	-0.12701525
28	0x3de5330b	0.11191376
29	0x3b93d05f	0.0045109238
30	0x3b3429f9	0.0027490838
31	0x3bfcd6ae	0.0077160215
32	0xbc6001bc	-0.0136722885
33	0xbe1e5b17	-0.15464436
34	0xbdc7e16f	-0.09759795
35	0xbe4e2fa0	-0.20135355
36	0x3e1a06d1	0.15041663
37	0xbc06d099	-0.0082284445
38	0xbe82e3ab	-0.25564322
39	0x3e1dcf19	0.15411033
40	0xbd9d8668	-0.076916516
41	0xbe8c0cbe	-0.27353472
42	0xbe70faf4	-0.23533231
43	0xbe370580	-0.17873192
44	0x3d5f43fa	0.054508187
45	0x3ca10192	0.01965407
46	0x3d77ed55	0.06052907
47	0x3ddf3a67	0.10899811
48	0x3d4105ad	0.047124553
49	0xbdaacbc7	-0.08339649
50	0xbe2a0e16	-0.16606936
51	0x3cd3ccb4	0.025854446
52	0x3d9a0e29	0.07522232
53	0xbe2de138	-0.16980445
54	0xbdf970db	-0.121797286
55	0xbe64a646	-0.22329053
56	0x3dd9d081	0.10635472
57	0xbe817da2	-0.25291163
58	0x3d8113c1	0.06302596
59	0x3e083713	0.13302259
60	0x3e0f6aca	0.1400558
61	0xbe52cd5d	-0.20586152
62	0xbe83dcbe	-0.2575435
63	0xbe805832	-0.25067288

shared_output_layers.6.bias f4 [2]
0	0xbd25a7c4	-0.040443197
1	0xbe388805	-0.18020637

exp_avg f4 [96, 15]
0	0xb9aa804e	-0.0003252052
1	0xb9a48f30	-0.000313872
2	0xb9ae1aab	-0.00033207735
3	0xb9a92b82	-0.00032266608
4	0x3a99fb4a	0.0011747864
5	0xba012d22	-0.0004927685
6	0x3848c321	4.7865444e-05
7	0x39887285	0.00026025265
8	0xb8470317	-4.7448175e-05
9	0xbabcb439	-0.0014396972
10	0x39a80750	0.00032048905
11	0xba68dada	-0.0008882709
12	0x00000000	0.0
13	0xb9a7c172	-0.0003199685
14	0xb9b6c4e2	-0.00034860434
15	0x3946df4d	0.00018965937
16	0x39438f83	0.00018650111
17	0x3940c8c3	0.00018385336
18	0x393b42d5	0.00017858607
19	0x39a06052	0.00030589342
20	0x3710bb85	8.626729e-06
21	0x37e9ad97	2.7856599e-05
22	0x388ba5d1	6.658922e-05
23	0x3905e1e7	0.00012768024
24	0x39b2583c	0.00034016545
25	0x392cb3cc	0.00016470178
26	0xb8870c5b	-6.439603e-05
27	0x00000000	0.0
28	0x394107a7	0.00018408765
29	0xb88e5993	-6.787772e-05
30	0xb8c56aa8	-9.413558e-05
31	0xb8b66a72	-8.698263e-05
32	0xb8c4affd	-9.378789e-05
33	0xb8c472b0	-9.3673705e-05
34	0x3a55d1de	0.0008156578
35	0x394ac779	0.0001933853
36	0xb7e7d55b	-2.7636697e-05
37	0xb7a2d392	-1.9410425e-05
38	0x398771b7	0.0002583393
39	0xba6f9c92	-0.0009140457
40	0x39b4ac42	0.00034460617
41	0xb8af0929	-8.3463565e-05
42	0x00000000	0.0
43	0x38f287b4	0.00011564736
44	0x3888e814	6.528213e-05
45	0xb9085ace	-0.00013003798
46	0xb8f3603f	-0.0001160507
47	0xb918ca1b	-0.0001457114
48	0xb9110043	-0.00013828375
49	0x3b1733fd	0.002307176
50	0xba436ea7	-0.0007455148
51	0x38e1fdd4	0.00010776115
52	0x3a20b8d5	0.0006131058
53	0x3800d019	3.0711384e-05
54	0xbad9ca04	-0.0016615991
55	0x3a1e63df	0.00060421036
56	0xb922ff98	-0.0001554474
57	0x00000000	0.0
58	0xb90e22e1	-0.00013555169
59	0xb8ba4989	-8.882868e-05
60	0xb967ffcc	-0.00022125168
61	0xb9554437	-0.00020338675
62	0xb97c5c75	-0.00024067036
63	0xb96f727b	-0.00022835463
64	0x3acc0287	0.0015564718
65	0xbac998a8	-0.0015380578
66	0xba09fb5f	-0.00052635925
67	0x3932b4b9	0.00017042727
68	0xb9d06472	-0.0003974769
69	0x398e4fa6	0.00027143693
70	0x3a334a5f	0.000683939
71	0xb93495c5	-0.00017221931
72	0x00000000	0.0
73	0xb9a24816	-0.00030952756
74	0xb7a48a6b	-1.961478e-05
75	0x38547567	5.065408e-05
76	0x386c731b	5.6373985e-05
77	0x384d1abb	4.8900703e-05
78	0x3859628a	5.1828603e-05
79	0x39d7cd5e	0.00041161006
80	0xb912252d	-0.00013937494
81	0xb86f603e	-5.7071673e-05
82	0x3888bae7	6.5197986e-05
83	0xb97c4102	-0.0002405681
84	0x3a3aa0d2	0.0007119301
85	0x37b2d771	2.1319576e-05
86	0xb8ab1aab	-8.158883e-05
87	0x00000000	0.0
88	0xb8dfe6a1	-0.000106764266
89	0xb8b9384a	-8.831972e-05
90	0xba28575a	-0.0006421708
91	0xba27e55f	-0.00064047234
92	0xba28bac7	-0.00064365234
93	0xba289e37	-0.0006432267
94	0xb941bf39	-0.0001847715
95	0xb9c04958	-0.0003667574
96	0xba1c0812	-0.00059521303
97	0xb9c7c026	-0.000380994
98	0xba2d6715	-0.00066147867
99	0x39ec4f79	0.0004507264
100	0xba440593	-0.0007477637
101	0xb86d6eef	-5.660852e-05
102	0x00000000	0.0
103	0xba7b8944	-0.00095953443
104	0xb9f1a740	-0.00046091713
105	0x38828b03	6.224776e-05
106	0x3882ec5f	6.2429106e-05
107	0x388011c5	6.1068255e-05
108	0x3874f0dd	5.8398455e-05
109	0x394557cc	0.00018820091
110	0xb9b3572c	-0.0003420649
111	0xb936dd24	-0.00017439254
112	0xb8c25048	-9.2655944e-05
113	0xb77c4943	-1.5037428e-05
114	0xb9f3f2e9	-0.00046529554
115	0x391df49f	0.00015063815
116	0x38f7f3cd	0.00011823289
117	0x00000000	0.0
118	0x3770fe51	1.4364327e-05
119	0xb7b92163	-2.2069265e-05
120	0xb9812526	-0.00024632475
121	0xb977f825	-0.00023648197
122	0xb97c87cb	-0.0002408318
123	0xb97253a0	-0.00023110071
124	0x39839736	0.00025098928
125	0xb8c2e8f4	-9.294032e-05
126	0x39bb035e	0.00035669928
127	0x39f86298	0.00047375704
128	0xb90e07ce	-0.00013545083
129	0xb9b45aa3	-0.00034399805
130	0x38fa6ea0	0.000119415345
131	0xba45690d	-0.00075306074
132	0x00000000	0.0
133	0xb9acb221	-0.00032939113
134	0xb8da31b6	-0.000104043094
135	0xb95729f2	-0.00020519624
136	0xb95b2b92	-0.00020901699
137	0xb9586d77	-0.00020640144
138	0xb95972be	-0.00020737477
139	0xb9ac5f71	-0.00032877506
140	0x38ab2fb7	8.162803e-05
141	0xb886181f	-6.394111e-05
142	0xb92024ca	-0.00015272494
143	0x38f55387	0.000116980686
144	0xba603c43	-0.00085539016
145	0xb95591ec	-0.00020367623
146	0x381c0866	3.720112e-05
147	0x00000000	0.0
148	0x37b1b243	2.1183054e-05
149	0x390b613d	0.00013292297
150	0xb98119bf	-0.0002462398
151	0xb9807c6d	-0.00024506767
152	0xb97ca3e7	-0.00024093651
153	0xb9848b1d	-0.0002528065
154	0xb8994b8f	-7.3096824e-05
155	0xba40429d	-0.0007334145
156	0xb94b256a	-0.00019373526
157	0x38f18288	0.00011516089
158	0xba09a36f	-0.0005250489
159	0x3ac3c3d8	0.0014935685
160	0xb9423cc2	-0.00018523916
161	0xb984aa4c	-0.00025303883
162	0x00000000	0.0
163	0xb9887386	-0.00026026013
164	0xb89604e4	-7.153468e-05
165	0xb9ac485e	-0.00032860314
166	0xb99e217a	-0.0003016105
167	0xb9a52381	-0.00031497705
168	0xb9a15e3a	-0.00030778517
169	0x3b04719f	0.0020209325
170	0xba281827	-0.00064122904
171	0x39065dbb	0.00012814153
172	0x3a28fa34	0.00064459746
173	0xb8ebd448	-0.00011245214
174	0xba986095	-0.0011625463
175	0x39726f69	0.00023120422
176	0xb9f499d2	-0.00046653912
177	0x00000000	0.0
178	0xb94151d5	-0.00018436399
179	0x392acec9	0.00016289497
180	0xb9627bf2	-0.00021599213
181	0xb959514f	-0.00020725022
182	0xb9592911	-0.00020710031
183	0xb95a031f	-0.00020791263
184	0x3a9295e0	0.0011183582
185	0xb92ff03f	-0.00016778799
186	0x39898784	0.00026231643
187	0x39dc558d	0.0004202541
188	0xb7a09c8d	-1.9146386e-05
189	0xba8888c0	-0.0010416731
190	0x390e8f24	0.000135955
191	0xb8bfb790	-9.141781e-05
192	0x00000000	0.0
193	0xb8d23496	-0.00010023375
194	0x3944acdf	0.00018756416
195	0xb81a166c	-3.6737343e-05
196	0xb7bc6589	-2.2458627e-05
197	0xb80eb8c5	-3.402752e-05
198	0xb8010849	-3.0763713e-05
199	0x3a6674f9	0.0008791234
200	0xba0aabce	-0.0005289883
201	0xb9b903d5	-0.00035288805
202	0xb7fa0927	-2.9806584e-05
203	0xb9cbdc18	-0.0003888316
204	0x3a907ae4	0.0011022952
205	0x384c83e4	4.8760223e-05
206	0xb9c5894c	-0.00037677062
207	0x00000000	0.0
208	0xb9c06a7f	-0.0003670044
209	0xb93cfbaa	-0.0001802283
210	0xba58e56b	-0.0008273932
211	0xba554b6a	-0.0008136543
212	0xba59228f	-0.00082830427
213	0xba55c483	-0.00081545877
214	0x3a1f523f	0.0006077624
215	0xb9d68f41	-0.00040923993
216	0xb8d8b90d	-0.00010334151
217	0x39486dfe	0.00019114462
218	0xb9ce2267	-0.00039317014
219	0x38e09354	0.00010708594
220	0xb8b82bc7	-8.781958e-05
221	0xb9c966e6	-0.00038414373
222	0x00000000	0.0
223	0xb9ac43cd	-0.00032856912
224	0xb8cb73e1	-9.7013784e-05
225	0xb97657e3	-0.00023493129
226	0xb969e3a1	-0.0002230541
227	0xb96c3e90	-0.0002253002
228	0xb9651abb	-0.000218491
229	0x3a98439d	0.001161683
230	0x39c3775f	0.00037282237
231	0x3963545e	0.00021679836
232	0x399ae092	0.00029540487
233	0x392efcec	0.00016688154
234	0xb9e3975a	-0.0004340958
235	0x3a40050f	0.00073249725
236	0x39139d44	0.00014077598
237	0x00000000	0.0
238	0xb7f339ba	-2.8994738e-05
239	0x38b70e35	8.728766e-05
240	0xba002ea9	-0.00048897654
241	0xb9fba9aa	-0.0004800086
242	0xba0030e7	-0.00048900995
243	0xb9fd7c1e	-0.00048348395
244	0x39a68e13	0.0003176784
245	0xb9b6f265	-0.00034894343
246	0xb8eec23a	-0.00011384902
247	0x384e1c4e	4.9140588e-05
248	0xb9467966	-0.00018927976
249	0xb9c413f9	-0.00037398914
250	0xb88cb0bd	-6.70864e-05
251	0xb906cc62	-0.00012855374
252	0x00000000	0.0
253	0x3687e140	4.049536e-06
254	0xb7681ec7	-1.38354435e-05
255	0xba98c38f	-0.0011654961
