logs/bandit_training/version_22/checkpoints/epoch=34-step=140.ckpt (torch, 121179 bytes, 30 tensors)

gru.weight_ih_l0 f4 [96, 15]
000000 be 29 41 3d f9 a1 79 3c ef 62 52 3d 60 60 0e be
       0.04715895 0.015236371 0.05136388 -0.13903952
000010 a5 54 86 be d0 d5 fd 3d df dd e4 3d b1 72 f2 3c
       -0.26236454 0.12394297 0.11175131 0.029595705
000020 76 ab 9d 3d e6 38 7a 3d 8e bd e1 bd 07 4d ee bc
       0.07698719 0.06108942 -0.11022483 -0.029089464
000030 3f 20 10 3e c4 7a 1e 3e 36 96 63 bd 99 a0 18 3e
       0.14074801 0.15476519 -0.055563174 0.14905013
000040 99 1e 72 bb 3e 24 1b 3e fa 69 8d bd d9 8b 19 3b
       -0.0036944507 0.15150544 -0.06904979 0.0023429303
000050 0a a4 00 bd 3f 27 01 3e e6 7e 5d bd 40 bb 71 bd
       -0.03140644 0.12612627 -0.054076098 -0.059016466
000060 f4 04 a5 3d 7a b7 74 3d b7 8d be 3d 69 f6 cb bd
       0.08057585 0.05974529 0.09304374 -0.099591084
000070 06 fe 46 3d 98 5f 13 3e 45 a0 ed 3d 1e 2f 64 3d
       0.0485821 0.14391935 0.116028346 0.055708997
000080 3f 65 c5 bd 4f 37 d2 bd 1a 43 f9 ba cd fc 34 bc
       -0.09638452 -0.102644555 -0.001901719 -0.0110466005
000090 ea 80 33 3e be d5 41 bd 39 b6 59 3e 8d 70 16 bd
       0.17529646 -0.04732298 0.21260919 -0.03672843
0000a0 9d f6 15 bd 9c e8 94 3d ed 68 c8 3d 43 de 61 bd
       -0.036612142 0.07270929 0.09785638 -0.055143606
0000b0 d9 bd 4b 3e 9a 42 9b 3d c4 17 0a be a1 ab 63 be
       0.1989664 0.075810626 -0.13485628 -0.2223344
0000c0 10 75 42 be 3a 99 8a bd b1 c3 1f be a9 dd 81 3d
       -0.18989968 -0.06767507 -0.15601994 0.063411064
0000d0 a3 95 c7 bd 76 db 04 3d 22 55 35 3d e1 46 ea 3d
       -0.09745338 0.032435857 0.044270642 0.114393
0000e0 c9 39 79 3d 78 f2 42 3d d4 fc f5 3d 99 8e fb 3c
       0.060846124 0.047594517 0.12011114 0.030707644
0000f0 27 59 d9 bd 62 26 f2 bd ab ab b5 3d 05 a2 df 3d
       -0.106127076 -0.11823727 0.08870634 0.10919575
000100 58 a3 ac bd 2d de a1 bd 88 8a bb 3d 3f 7a 22 3e
       -0.08429593 -0.07903705 0.09157282 0.15866946
000110 9d 59 9c bd d4 94 dc bd fd 92 3a be 36 ce 1c be
       -0.0763428 -0.10770574 -0.18220134 -0.15313038
000120 e2 5e 34 be e3 5b 8a 3c 05 d1 56 be cb a0 92 3d
       -0.1761432 0.016889518 -0.20978172 0.07159575
000130 b0 b9 63 3d b6 61 b7 3d eb 2a 1e 3e f9 ba f3 3d
       0.055597007 0.08954184 0.1544606 0.119008966
000140 c0 c0 64 3d 9d 46 96 3c 8b f5 20 3d 0a 5c 4a 3d
       0.055847883 0.018344218 0.039296668 0.04940418
000150 6e 59 44 be 22 ec ed bd 2c 88 ee 3d 78 2b ae bd
       -0.1917474 -0.116173044 0.116470665 -0.08504385
000160 ca 50 8a 3d fb c1 5e 3c fe 14 bc bd fa e9 ac 3d
       0.067536905 0.013596053 -0.091836914 0.08443065
000170 6e 3b a5 bd 19 58 e7 3c eb a9 dd 3c 85 91 43 be
       -0.08067976 0.02824025 0.027058562 -0.1909848
000180 91 8b 56 be fa 50 ee bd d6 94 43 bd 75 0d 40 bd
       -0.20951678 -0.11636539 -0.047749363 -0.046887834
000190 3b e0 e4 bd 2d 73 f7 3d 4f b0 06 be 92 3f d6 bd
       -0.11175581 0.12082515 -0.13153194 -0.10461344
0001a0 0e 9b 02 3e 1d d5 51 be 03 07 20 be 26 c7 57 be
       0.12754461 -0.20491453 -0.15627675 -0.21072063
0001b0 61 5b 4f be 57 35 40 be c1 88 a1 3c b4 40 14 3d
       -0.20249702 -0.18770348 0.01971853 0.03619452
0001c0 1f dc 87 bd 2e 41 4a bd 71 1e 21 bd e1 9b 09 3d
       -0.06633782 -0.049378566 -0.03933567 0.033595923
0001d0 00 b3 39 bd cf af 2c 3d f5 1c 98 bd 3e 21 9c 3d
       -0.045336723 0.04215985 -0.07427398 0.07623528
0001e0 df 18 e3 3d f3 6f 1b be 54 c0 0a 3e 26 97 97 3d
       0.11088728 -0.15179424 0.1354993 0.07401876
0001f0 bf b6 c9 3d 9a bb 74 be df 08 72 3d 5e b2 66 bd
       0.09849309 -0.2389969 0.05909049 -0.056322448
000200 b7 40 f0 bd c4 11 dc bc 73 75 07 be 79 bf 43 bd
       -0.117310934 -0.02686394 -0.13228397 -0.047790024
000210 cf 49 2d be 21 35 02 be 1e 4b 37 bd a1 18 2f be
       -0.16922687 -0.1271558 -0.04474937 -0.17099239
000220 74 52 20 be 24 81 8f 3c d4 bf 01 be ea 10 01 be
       -0.15656453 0.017517634 -0.12670833 -0.12604108
000230 3f 59 ad 3c 31 c2 48 be 5a 06 82 3d 67 05 9a 3d
       0.02116072 -0.19605328 0.06348868 0.07520562
000240 a5 1c f8 bd 70 f7 f0 bc 95 ac 93 bd cd 12 00 be
       -0.121148385 -0.029414862 -0.07210652 -0.12507172
000250 b9 9d 87 bd 0d 63 c5 3d 7c 7a d8 bd 49 69 00 be
       -0.0662188 0.09638033 -0.10570237 -0.12540163
000260 ed ca 8d bd 30 69 38 bd 0c f6 07 bd 8b 30 86 bd
       -0.06923471 -0.04502219 -0.033193633 -0.065522276
000270 10 74 94 3d 56 08 85 3d a6 eb 2d bc e2 b4 ab bd
       0.072487 0.064957306 -0.010615265 -0.0838411
000280 e2 ef c8 3c c0 52 89 bd 35 46 9d 3d 1d 17 91 3d
       0.024528448 -0.067052364 0.076794066 0.07084487
000290 9f 20 50 3d 68 4f 1f 3e 73 63 81 bc cb e4 06 bd
       0.05081236 0.15557635 -0.015794491 -0.032933038
0002a0 92 9c 05 3e c7 10 01 bd 32 55 0b be 52 f5 d6 3d
       0.13048008 -0.03151014 -0.13606718 0.1049601
0002b0 11 a4 4e bc 0c cc ca bd 3b a0 37 3e ae 93 70 3d
       -0.012612359 -0.099022 0.17932217 0.05873459
0002c0 0e 30 2c 3e 11 b7 16 3e b1 b2 8c 3d 8d e2 0f 3e
       0.16815206 0.14718272 0.0687002 0.14051266
0002d0 21 96 ba 3d ef 98 0b 3e a5 5d 98 bd 9e 29 06 be
       0.09110666 0.13632558 -0.07439736 -0.13101813
0002e0 33 35 74 3e 85 b2 f1 3d 28 c1 3b be 15 3b 09 3e
       0.23848419 0.11801628 -0.18335402 0.13401444
0002f0 01 26 43 be 58 90 07 be fd 84 cb bc a9 a2 54 3e
       -0.19057466 -0.13238657 -0.024843687 0.20765175
000300 64 f5 84 3d e2 cd 0f be b4 f6 2b 3e 8b 6c 52 3c
       0.06492117 -0.14043382 0.16793329 0.0128432615
000310 42 49 c1 bd 18 83 58 be e9 30 96 bd 2e a9 29 be
       -0.09437801 -0.21143758 -0.073335476 -0.16568443
000320 f1 ae 1d be f8 bb d8 bd 85 39 4a 3d b0 1a e6 bd
       -0.15398766 -0.10582727 0.04937126 -0.11235559
000330 e3 ac 05 be 67 ed a5 bc bc cf fc 3d e5 bb c9 bd
       -0.13054232 -0.020254804 0.1234431 -0.09850291
000340 53 28 3f bd 2f 1a 0b 3e 04 14 7a be 31 29 12 be
       -0.046669316 0.13584207 -0.24421698 -0.14273526
000350 ee 0f 68 be 27 76 ea bd 9c 51 c8 3d 82 56 11 3d
       -0.22662327 -0.11448317 0.09781191 0.03548289
000360 dc 5c 45 3e c0 ef ac bd 70 cb 7f 3d 2b a1 05 bd
       0.19273704 -0.08444166 0.062449872 -0.032624405
000370 49 ac 02 3e b2 4c 9c bd b5 ec 16 3e 69 c2 38 be
       0.12761034 -0.07631816 0.14738734 -0.18042912
000380 45 ee ac bd 37 91 c6 bd c5 f2 35 3e 2c 07 bc bc
       -0.08443884 -0.09695666 0.1776839 -0.022952639
000390 e6 a7 4a bd bb 22 eb 3d f0 12 c7 bd a7 d9 5e be
       -0.049476527 0.11481234 -0.09720409 -0.21762715
0003a0 36 31 e4 bd fc 2b 05 be 81 c1 1a 3e 71 8f 60 bd
       -0.11142199 -0.1300506 0.15112878 -0.054824296
0003b0 bd e6 33 be d9 36 da 3b 1a 36 74 be 62 9d 43 be
       -0.17568488 0.0066593704 -0.23848763 -0.19103006
0003c0 f8 19 41 3e 78 94 27 3e 96 5d 89 3d 93 7b 22 3e
       0.18857563 0.1636523 0.06707303 0.15867452
0003d0 dc da 1d 3e 77 7c d9 bd ee 9c ab bc 30 65 c9 3d
       0.1541552 -0.10619443 -0.020948853 0.09833753
0003e0 1d 8d 9b ba 1b 18 e6 bd 55 6b c4 3d 5c 81 2b be
       -0.0011867617 -0.112350665 0.095907845 -0.16748565
0003f0 0b 1a 2a 3e 92 6d 62 be 52 07 98 3d bf 8e b9 3d
       0.16611497 -0.2211211 0.07423271 0.0906043

gru.weight_hh_l0 f4 [96, 32]
000000 a9 f6 2a 3e 90 6c 25 3e 95 e7 cb bd 78 cc c7 bd
       0.16695656 0.16154695 -0.0995628 -0.09755796
000010 21 ef 19 be bc 89 f3 bc d7 22 1a bd ac 0b 11 bd
       -0.15032627 -0.029728763 -0.037630882 -0.03541152
000020 0d c5 88 3d 35 04 2b bd 38 a5 14 3d 63 4f 5d be
       0.066782095 -0.04175206 0.036290377 -0.21612315
000030 c4 4f c1 bc ec 30 30 3e 15 b9 c1 bc 51 65 00 be
       -0.023597606 0.17206162 -0.023647824 -0.12538649
000040 c5 f8 c6 3d 05 64 dd bd bd 63 9f bd c1 e8 62 bc
       0.09715418 -0.10810093 -0.077826954 -0.013849438
000050 1f 3d 79 bd 63 82 f3 bd c0 88 1e 3d 3e e1 b0 3d
       -0.060849305 -0.11890104 0.038704634 0.086367115
000060 ae 50 17 bd 5e 03 8a 3b 34 95 13 3e 93 4c a6 bd
       -0.036942177 0.004211827 0.14412385 -0.08120074
000070 94 f2 08 be 9d a1 1a bd 6d e0 2e 3e dd 82 4e 3e
       -0.13373786 -0.037751783 0.17077799 0.20167108
000080 c0 49 ba 3c 78 81 00 be 54 38 33 be 28 e2 e8 bc
       0.022740245 -0.12549388 -0.17501956 -0.028428152
000090 36 2f 44 bc c1 14 ff 3d f5 ff a0 bc 6c ad 18 be
       -0.011974147 0.1245513 -0.0196533 -0.14909905
0000a0 05 a4 aa bd ec 6d 55 bd 2b 5d 9e bd 50 0d 26 bb
       -0.083320655 -0.052106783 -0.07732614 -0.0025337525
0000b0 24 e2 b1 bd 1a f3 0b 3e da 92 58 bd b2 18 c5 bc
       -0.08685711 0.13666955 -0.052874424 -0.024059627
0000c0 7a 05 2d 3e 4c a7 3b 3e d6 d0 25 3e 51 dd bb bd
       0.1689662 0.18325537 0.16192946 -0.09173072
0000d0 a8 77 83 3e 64 80 ed 3d 16 38 1d 3d ef 1b ff 3c
       0.25677228 0.11596754 0.038383566 0.03114125
0000e0 bb a7 d9 bd 2a 63 60 bc 2f 5d a6 3c 5f 79 39 be
       -0.10627695 -0.013695518 0.020308105 -0.18112706
0000f0 65 22 09 3e 9a 42 ac 3d ba a6 f6 3d b7 ba 1e 3d
       0.13392027 0.08411141 0.12043519 0.038752284
000100 f5 32 c6 bd d8 89 96 3d ec 94 d8 3d a4 ef 02 3e
       -0.09677688 0.0735051 0.105752796 0.12786728
000110 49 18 d5 bd a3 d6 13 be ff 2c 94 bd d1 4b 91 bd
       -0.10405023 -0.14437346 -0.07235145 -0.07094539
000120 76 17 ae bd 57 2c 7a 3d 5e 88 d7 bd b1 f6 d6 bc
       -0.085005686 0.061077442 -0.10524057 -0.026240679
000130 2a 52 54 bd fa 4c 2d 3d 5e 52 56 3c 72 c9 fb bc
       -0.05183617 0.04230974 0.013081161 -0.030735705
000140 d7 e0 b8 bd c4 0a ee 3d f7 dc 3c be fc 09 42 3e
       -0.0902726 0.11623147 -0.18443666 0.18949121
000150 c8 3c b8 3c f4 18 a2 bd 15 a7 3b 3e 2d 9f 7f be
       0.02248992 -0.07914916 0.18325455 -0.24963064
000160 2e 56 00 be 74 b4 47 be a9 81 f6 bd dd 57 43 bd
       -0.12532875 -0.19502431 -0.120364495 -0.047691215
000170 7f e8 5b bc 9a 68 48 3e 5f ec f9 3d e2 31 3e bd
       -0.013422131 0.19571152 0.12203287 -0.04643429
000180 55 f7 5e 3e 06 8e 18 bd 4a 48 61 3d ab 58 cf 3c
       0.21774037 -0.03724482 0.05500058 0.025310835
000190 f0 8b 02 be 79 54 36 3e 0c a5 85 3c 63 e0 8b bd
       -0.12748694 0.17805661 0.016314052 -0.06829908
0001a0 e3 1a 31 3d ce 5c 74 bb 5d d0 09 3e 5e 09 a4 bb
       0.04323853 -0.0037286761 0.1345839 -0.0050059995
0001b0 5b ca ec 3d 7a 31 2c 3d 66 2e f3 bd fa a4 ce 3d
       0.11562034 0.042039372 -0.11874084 0.100900605
0001c0 1a d8 ff 3d ba ff 07 3e c0 67 83 3c fd 7f 15 be
       0.1249239 0.13281146 0.016040683 -0.14599605
0001d0 0d 2a 4f 3d c8 2b b3 3b f9 65 61 be 13 6e 59 3e
       0.050577212 0.0054678656 -0.22011556 0.21233396
0001e0 0f 61 3a 3e 14 69 34 3e 2c a4 14 3e 95 ab 0b be
       0.18201087 0.17618209 0.14515752 -0.13639672
0001f0 27 c8 d2 3b de 3f 3b bd 0c cb 20 bc 40 3e f3 bd
       0.0064325514 -0.045715205 -0.009814035 -0.118771076
000200 1d 60 12 3e e7 43 dd 3d ea d4 57 3d 77 63 0b 3e
       0.14294477 0.10803967 0.052693285 0.13612162
000210 cc a5 f4 3d ba 47 bb 3d 54 cd 1e be bb dd 9a 3a
       0.11945686 0.0914454 -0.15508014 0.0011815348
000220 c7 c5 a8 bc 0a 45 79 3c 81 e9 8a bd 7d 8b 94 bd
       -0.02060212 0.015214214 -0.067828186 -0.07253168
000230 24 b7 c2 3d d0 98 64 be 04 7e 7c 3d f8 7f fe bc
       0.095075876 -0.22323918 0.061643615 -0.03106688
000240 f7 da 4e 3e 57 6a 42 3e 78 af 36 be d6 b1 ef 3d
       0.20200716 0.18985878 -0.17840374 0.117038414
000250 96 85 4c 3e 00 f9 7d bc 80 bc 7a 3d 8f 0b 93 3e
       0.19972834 -0.015501261 0.061214924 0.28719756
000260 e0 27 76 3d 47 78 46 be 78 fe 68 3c d1 92 38 3e
       0.06009662 -0.1938182 0.014220826 0.18024756
000270 c5 db 92 bd f9 60 33 3e a2 4d 98 bd 08 34 b9 3d
       -0.07170824 0.17517461 -0.07436682 0.09043127
000280 18 66 40 bc 2a 72 12 3c a2 4e d6 bb 01 5d 21 bd
       -0.011743091 0.008938352 -0.0065401355 -0.039395336
000290 b8 26 97 bd 64 88 fa bd fe ad bf 3d 66 11 5c bc
       -0.07380432 -0.12233046 0.09359358 -0.0134318825
0002a0 70 8d 38 be f9 71 2b 3d 2f ed 01 3d c4 ae 8d 3c
       -0.18022704 0.04185674 0.031720337 0.017295249
0002b0 1f 3d f2 3d 1c ce cd 3d e6 c5 e6 bd 0c 81 d2 bd
       0.11828064 0.10049078 -0.11268215 -0.1027852
0002c0 a5 04 7a 3d 09 07 53 bd a8 a6 ce bd 2f 95 73 3d
       0.061039586 -0.05152038 -0.10090381 0.059468444
0002d0 c5 87 df bd b2 c1 99 bd 68 00 97 bc 82 d1 1e 3d
       -0.10914568 -0.075076476 -0.01843281 0.03877402
0002e0 85 d8 6a be d1 f8 12 be 3a 0b 7e 3b ad 0f 59 3e
       -0.22934158 -0.14352728 0.0038764016 0.21197386
0002f0 9f 0f 0a 3d cf b8 8c b9 05 6d d8 bd cd 45 a4 bc
       0.033706304 -0.00026840574 -0.10567669 -0.020052815
000300 65 be fb bd ed 5a 02 bd 12 a3 e1 bd 16 4b 2b be
       -0.12292174 -0.031824995 -0.11017431 -0.16727862
000310 e4 66 33 be cb 46 00 3c 83 12 d6 3d 42 4c 38 be
       -0.17519718 0.007829378 0.104527496 -0.1799784
000320 9c 94 16 3c 7d ae dd 3d 17 8e 22 3b d4 41 e6 3d
       0.009190705 0.108242966 0.002480393 0.112430245
000330 80 3a 17 bd 2e a7 d5 bd de bd 15 be ea a1 b5 3d
       -0.036921024 -0.104322776 -0.1462321 0.08868773
000340 69 07 3b be eb d1 a7 bd df 16 4e 3e 68 9b bb bd
       -0.18264546 -0.081943356 0.20125912 -0.09160501
000350 3a f9 ef 3d 4b f4 b2 bc e8 d1 e0 3d fc 55 f1 bd
       0.11717458 -0.021845004 0.109775364 -0.11783978
000360 cb e7 e2 3c e5 79 78 3d de 93 bb bd ea 18 8e 3b
       0.027698418 0.060663123 -0.09159063 0.004336466
000370 0e e9 0b bd d9 21 8f 3d 88 e0 bc bd f9 db 25 3e
       -0.034157805 0.06988878 -0.092225134 0.16197194
000380 9b e4 b1 bd 3d 4b 5a 3d 2c ee 53 bc 25 ee 3d be
       -0.08686181 0.05329441 -0.012935203 -0.18547876
000390 e5 2e 35 be 6c fb bc 3d a5 b4 25 3e fb 98 26 3d
       -0.1769367 0.092276424 0.16182192 0.040673237
0003a0 e2 e7 e7 3d 74 04 cc 3d 5f d9 80 3e d6 09 81 be
       0.11323525 0.09961787 0.2516584 -0.25202817
0003b0 b6 41 68 be ca 34 a5 3d ac 38 aa b9 8a 8f ea bd
       -0.22681317 0.08066709 -0.0003246715 -0.11453159
0003c0 56 96 10 be 2d 6a 7e 3d 41 9a c8 3d 77 c0 08 3c
       -0.14119849 0.062112976 0.097950466 0.008346668
0003d0 9a 86 36 3e 44 62 1e 3e 3d 86 66 be 08 cb ed bd
       0.17824784 0.15467173 -0.22512145 -0.11610991
0003e0 ff f8 6f bd 86 57 59 3e 81 a1 10 3d d0 22 7c be
       -0.05858707 0.21224794 0.035310272 -0.24622655
0003f0 38 26 31 be a6 c2 60 3d 91 9b 52 3e c7 95 98 3d
       -0.17299736 0.05487313 0.20567156 0.07450443

gru.bias_ih_l0 f4 [96]
000000 0e 17 90 bd 3e 83 85 3d f2 d0 f5 bd 2a 10 92 3c
       -0.07035647 0.06519173 -0.12002744 0.017829973
000010 37 39 c7 bd b0 2f d1 3d 6f aa a5 bc f7 36 2a be
       -0.0972771 0.10214174 -0.02022287 -0.1662253
000020 7e 27 fb 3d 0a 45 a4 3d be 98 5a 3e bd 99 9f 3d
       0.12263392 0.08020981 0.21347329 0.07792995
000030 f8 c8 15 3d ba f4 55 bc 38 11 1f 3e 7e 6e 0e bd
       0.03656861 -0.013058836 0.15533912 -0.034773342
000040 f4 d0 4e 3e 8d c3 13 3e ac c2 80 3d c6 93 0b 3e
       0.20196897 0.14430065 0.06287131 0.1363059
000050 b2 17 68 bd da cc d7 bd 88 1b c6 bc 7c af 0a bd
       -0.056663223 -0.10537119 -0.02418305 -0.03385876
000060 e4 72 35 3e 2e dd 0d bd c8 e4 ef 3d 5d f7 2c 3d
       0.17719609 -0.03463476 0.117135584 0.04222809
000070 9c ca 77 bb 9f d8 b8 bd 4e db 38 bb 04 8e 81 3c
       -0.0037809974 -0.09025692 -0.0028206888 0.015814789
000080 32 cd 5c 3e 57 37 52 bb 84 f9 c8 bd bc 47 9c bd
       0.21562651 -0.0032076442 -0.09813216 -0.0763087
000090 b9 dd 79 3b 86 6a 68 3d 54 5e 53 3d d8 38 90 bd
       0.0038126542 0.056742214 0.05160363 -0.07042092
0000a0 54 57 14 3c 06 8b 24 3d 33 15 29 3e 51 1a b0 3b
       0.009054024 0.040171646 0.16511993 0.005374231
0000b0 4c 1e df bd ff a2 de 3d 0b 6a 33 3d 79 fa 86 3d
       -0.108944505 0.10870933 0.043802302 0.065907426
0000c0 4a c5 e6 bc ec 9e 54 3d ef 06 cc bd db f5 02 be
       -0.028170247 0.051909372 -0.0996226 -0.12789099
0000d0 88 4e b3 3d a7 97 76 3e c3 79 b7 bd 0c e7 a2 3d
       0.08755213 0.24081288 -0.08958771 0.07954225
0000e0 52 83 e9 3d 27 5c a9 3d 4f 69 81 3e e2 76 a3 bd
       0.114020005 0.0826953 0.25275657 -0.079816595
0000f0 d5 83 39 3e 75 b8 1c 3e fd a4 61 3d 74 5b 85 3e
       0.18116696 0.1530474 0.055088986 0.26046336
000100 31 c7 4c 3e 19 fd 90 bb f4 76 0b 3e 79 79 90 3c
       0.1999786 -0.004424703 0.13619596 0.017636048
000110 93 49 9d bd 61 33 27 bd 4d 54 03 be 5a 23 b9 bd
       -0.07680049 -0.040820483 -0.12825127 -0.09039946
000120 08 46 38 be 21 a2 28 3e 68 4e 33 3c 33 b2 1a bd
       -0.17995465 0.16468097 0.0109439865 -0.0377676
000130 6b 5d 10 3e 7a b5 4c be 0a 03 12 be 3d 8b 38 3c
       0.14098136 -0.19991103 -0.14258972 0.011263666
000140 00 50 93 bd a5 79 48 3e 6e b2 80 bd c4 e6 37 3e
       -0.07192993 0.19577654 -0.06284033 0.17959124
000150 86 9f 7e 3d c2 c9 6e bd 24 8c d9 bd f7 3d 24 3e
       0.062163852 -0.05829788 -0.10622433 0.16039263
000160 f8 71 f3 3d d0 14 e3 3c e2 e3 d9 3d f9 c1 f7 3d
       0.11886972 0.027719885 0.10639168 0.12097544
000170 cb d6 23 bd 2e b1 48 3c c0 e6 04 3e d8 88 23 3e
       -0.039999764 0.012249274 0.12978649 0.1597017

gru.bias_hh_l0 f4 [96]
000000 29 06 e4 bd b5 15 69 bd 11 21 61 bd ea 7b 30 3e
       -0.111339875 -0.056905467 -0.054963175 0.1723477
000010 11 5b ac bd 20 a6 3b 3e 62 07 24 bd 44 a0 b8 bd
       -0.08415807 0.1832509 -0.040046103 -0.09014943
000020 91 d4 e7 bd 0f 2a 87 3e da a2 71 3e 58 c3 e7 bc
       -0.11319841 0.26399276 0.23597279 -0.02829139
000030 f5 48 59 bd f6 59 3b 3d 55 f3 70 ba 5d 67 7d 3d
       -0.053048093 0.04574009 -0.0009191533 0.061866153
000040 e0 74 3b 3d 4c ab 89 3e 4e fa 1b 3e 4a 7b 05 3e
       0.045765758 0.26888502 0.15232202 0.13035312
000050 77 1d 5e bc 1d 6e fc 3c fe 82 f3 3d 64 61 01 3e
       -0.01355683 0.030814225 0.11890219 0.12634808
000060 42 df e5 bd 58 30 4c 3e d3 36 85 bd 02 b6 ea 3d
       -0.11224224 0.19940317 -0.065045975 0.114604965
000070 2a c2 9a 3c 17 44 f9 3d 31 cd 05 be 68 5f 06 3e
       0.018891413 0.1217119 -0.13066556 0.13122332
000080 c0 2d 70 bd 72 40 f6 3d 89 4d 27 bd f4 04 45 3e
       -0.05863738 0.12024011 -0.040845428 0.1924017
000090 bc ad 96 3d d9 f7 0b 3d 6e 6d 96 bb 27 72 32 3d
       0.07357356 0.034171913 -0.0045906818 0.043565895
0000a0 a4 02 41 3e 28 07 43 bd af 3e 30 3e bd 23 c5 3d
       0.18848664 -0.047614247 0.17211412 0.09625957
0000b0 b5 5c 15 3d c0 7c a3 bd 31 fe 0b be b1 3d 3e 3d
       0.036465365 -0.079827785 -0.13671185 0.046445552
0000c0 89 f5 88 3e dc 79 55 3d af ea b5 bc 51 1a a5 bd
       0.26749828 0.052118167 -0.022206632 -0.0806166
0000d0 35 db ab 3c ec 4c 8f 3e 52 92 67 3d 85 5e b2 3d
       0.02097855 0.27988374 0.056536026 0.087094344
0000e0 fb 2a ec 3d a2 94 d4 3c c1 d6 70 bc 20 a2 46 3e
       0.115316354 0.02594978 -0.014699639 0.19397783
0000f0 26 02 1f bd e7 90 c1 3d ad b7 b4 bd 03 15 fc 3d
       -0.03882041 0.09451466 -0.08824096 0.12308695
000100 a9 5e 29 3d ac 74 a0 3d 03 65 e4 bd 74 fe a7 bd
       0.04135004 0.078347534 -0.11152079 -0.0820283
000110 bc 8b 49 be f1 b4 0d 3e 97 74 61 bd 1e 56 a9 3d
       -0.1968221 0.13838555 -0.05504283 0.08268379
000120 06 28 13 3c c6 de 6c 3e a4 62 c2 bd 64 5c 32 be
       0.00898171 0.23131856 -0.094914705 -0.17418057
000130 a5 8d f0 bc f2 45 f6 bd 4d ab 25 be 80 0d cc 3d
       -0.029364416 -0.1202506 -0.16178627 0.099635124
000140 79 f9 5c 3e f5 2e 3a 3e 3d 00 09 3e a0 2f 24 3e
       0.21579541 0.18181975 0.13378997 0.16033792
000150 99 ff 10 3e 4d 27 6f be d9 da 5d be d4 91 36 3e
       0.14160003 -0.23354836 -0.21665515 0.17829067
000160 8d ba 1e be 1b c0 c0 bd 72 c1 03 bd 59 a0 c9 3c
       -0.15500851 -0.09411641 -0.032166906 0.024612593
000170 7a 13 ed bd c0 b5 cc 3c 8c af fd bd 7d d4 15 be
       -0.115759805 0.024989009 -0.123869985 -0.14631839

output_layers.0.weight f4 [64, 32]
000000 bf 5e 5d 3e 29 05 b1 bd 1e af c4 bc 0c b4 cc 3d
       0.21618174 -0.08643562 -0.024009284 0.09995279
000010 bc 3a de bb 16 bb 33 3e 8e 0b 44 3c 75 a2 13 bd
       -0.006781904 0.17551836 0.0119656455 -0.036043603
000020 65 f1 86 3d 58 5e 09 bd a9 44 18 3e b0 39 89 3d
       0.06589011 -0.03353724 0.14869942 0.06700456
000030 d1 92 da 3c 8a 66 d1 3c 9b 46 27 bd b0 dc 62 be
       0.026681336 0.02556159 -0.04083882 -0.22154498
000040 1a dd 65 bd 7e b3 a7 3b dd 6b 04 3d 92 27 19 be
       -0.056119062 0.0051178327 0.03232943 -0.14956501
000050 00 8e 2b 3b c2 e3 f9 bd 52 b3 6b be be d3 3a 3e
       0.0026177168 -0.122016445 -0.23017624 0.18244836
000060 b4 64 a4 3d 12 6f 1e 3d 54 b2 d3 3c bd ea 4e bd
       0.0802702 0.038680144 0.02584187 -0.050516833
000070 ae 77 87 3d e7 12 5a bd 2c 68 5d 3e e3 e3 df 3d
       0.06614624 -0.053240683 0.2162177 0.10932138
000080 6c 61 a2 bd 47 aa bd bc 21 b0 94 bd e7 50 95 3d
       -0.07928738 -0.023152484 -0.072601564 0.072908215
000090 45 92 74 3d 2b 8f dc 3d 86 95 41 3d 2e 33 c0 3d
       0.059709806 0.107694946 0.047261737 0.09384762
0000a0 87 34 f6 bd 36 f4 15 be dd ab b9 bd 0a 27 a7 3d
       -0.120217375 -0.1464394 -0.090659834 0.08161743
0000b0 58 33 02 3e bb 47 8b 3d 1b c4 76 3d 89 d6 36 be
       0.12714899 0.06800791 0.060245614 -0.17855276
0000c0 cc 95 c7 bd 4f 5d b9 bd 9a af 02 be ce 53 ee bd
       -0.09745368 -0.09051 -0.12762299 -0.11637078
0000d0 d7 c3 18 3c dc d1 f5 bc 8c fd b8 3c 5a 6d 76 3d
       0.009324036 -0.030007295 0.022581838 0.06016288
0000e0 0b e4 aa 3d 7e 6b a1 3d 8c d6 e3 bc 2c e7 75 3d
       0.08344277 0.07881831 -0.027812265 0.060034916
0000f0 95 a5 2e 3d 87 4b 5b bc 8a 4b d5 bd 73 80 0c be
       0.04263838 -0.013384706 -0.104147986 -0.13720874
000100 de f6 ba bd 50 24 03 bb 60 15 ba 3d 4c fe 0b be
       -0.091291174 -0.0020010658 0.09086108 -0.13671225
000110 12 32 03 3e fa 74 96 bd ae 84 e0 bd 3c 19 c2 bd
       0.12812069 -0.0734653 -0.10962807 -0.09477469
000120 8e df 1d 3e 42 f1 53 bd 17 a6 a1 3d 58 9d 7f 3c
       0.1541731 -0.051743753 0.07893007 0.0156014785
000130 5f 11 10 be 91 ca e1 bd c6 49 39 3d 3e c2 07 3e
       -0.14069127 -0.110249646 0.04523637 0.13257691
000140 6a 6f a4 3d db 5b d7 3d 28 ac 12 3e a6 3f b6 bd
       0.08029063 0.10515567 0.14323485 -0.08898859
000150 8f f9 15 be f2 0a 8f 3d 43 19 db 3d 3c 62 c0 3d
       -0.1464598 0.069845095 0.10698178 0.09393737
000160 7d ae b3 3d 9e aa 07 3c d3 83 1b be 02 d9 cf 3d
       0.087735154 0.008280424 -0.15187006 0.10148813
000170 cc 48 a9 bd eb 42 cd bd 9a 80 c9 3c 2c 22 34 be
       -0.08265838 -0.10022529 0.024597455 -0.1759116
000180 b1 ac 72 bd 27 48 28 be f0 95 54 bd d1 21 1a 3c
       -0.059246723 -0.16433774 -0.051900804 0.0094074765
000190 7b 3f cf 3d 01 29 33 bd ee 9d 3c 3e 14 9b 2a 3e
       0.1011953 -0.043740276 0.1841962 0.1666072
0001a0 28 8a 17 be 24 f7 40 ba bd 94 4c 3d b0 aa ce 3d
       -0.14798796 -0.00073610456 0.049946535 0.1009115
0001b0 39 bf cf bd 2f 4f a6 bd 1d d8 25 3e 52 04 95 3d
       -0.10143895 -0.08120572 0.16195722 0.07276215
0001c0 d0 55 8a 3b 79 b9 ac bd 77 ad 79 3c 2b 5e a0 3d
       0.0042216554 -0.084338136 0.015239111 0.07830461
0001d0 0c b6 29 be 82 a2 c3 3d fb a9 cc 3d b3 49 43 3b
       -0.16573352 0.0955248 0.09993359 0.0029798567
0001e0 30 91 9f 3d 16 fe ff 3d d2 42 3a bd 72 df a0 bd
       0.07791364 0.12499635 -0.04547388 -0.07855119
0001f0 3c c5 f4 bd 6f 61 1d be 23 71 a2 bc c6 4a df bd
       -0.11951682 -0.15369199 -0.019829338 -0.10902934
000200 9e 85 09 be 5a 33 ee bd ef 87 1a 3d b4 32 ef bd
       -0.13429877 -0.11630888 0.037727293 -0.11679593
000210 11 dd 01 bd e8 91 01 be 7d 78 9b bd 3d 50 df 3c
       -0.031704966 -0.12653315 -0.07591341 0.02725994
000220 50 2b 21 3c ca f1 1a 3c c3 6c 21 3d 17 eb b8 3d
       0.009836987 0.009457061 0.039410364 0.09029215
000230 2b ae 0a 3e 32 35 a6 3c dc 61 37 3e fc 99 a3 3d
       0.13543002 0.020289037 0.17908424 0.079883546
000240 1a 91 05 3e a7 55 85 3d 28 e8 22 be 3f 77 cf 3c
       0.13043633 0.065104775 -0.15908873 0.025325416
000250 84 b2 ff 3a 80 2c f4 bb 50 a2 3d 3e b1 7c b0 bd
       0.0019508158 -0.007451594 0.18518949 -0.08617533
000260 9a 8f 81 3d be 46 c5 3d 64 5f 0c 3e ef 5c ec 3d
       0.06326218 0.096326336 0.13708264 0.11541163
000270 da 4f 32 3e ec f4 77 3b 5b 1a 1e be 24 7b ad bd
       0.17413273 0.0037835194 -0.15439741 -0.08470753
000280 4c 90 a1 bd d6 39 3d 3e 39 5f dd bd ee af b8 bc
       -0.078888506 0.18479094 -0.10809178 -0.022544827
000290 55 73 6d 3b bb e1 1a 3d 56 56 a5 bd 6f d7 2e be
       0.0036232073 0.03781293 -0.08073108 -0.17074369
0002a0 02 fe 0f be f2 56 2d 3e eb 3b a5 bd f4 46 7f bd
       -0.1406174 0.16927698 -0.08068069 -0.062323526
0002b0 9e 85 33 be e0 1e 95 ba 1d 7a 8b bd 20 90 a2 3d
       -0.1753144 -0.0011376999 -0.06810401 0.07937646
0002c0 c5 c9 07 be fc 57 fb 3d d5 4e 4b 3e fc 6f 2d be
       -0.13260563 0.12272641 0.19854291 -0.1693725
0002d0 35 fc 0f 3e ca be 20 3e 75 cc f0 bc 6f ef 35 3e
       0.14061053 0.1569778 -0.029394368 0.17767118
0002e0 b7 75 b1 3d a7 d6 5c 3e 6d 9b 46 3d 50 c9 20 bd
       0.086650304 0.21566258 0.04848807 -0.039254487
0002f0 df f9 89 bd f2 b8 71 bc 7a 07 23 3e 99 2c e5 bd
       -0.06737112 -0.014753567 0.15920821 -0.11190147
000300 35 79 8c 3d 39 e9 4f bd 3b 25 0e be fb d6 1f bd
       0.06859056 -0.050759528 -0.1388139 -0.03902338
000310 7b 71 4d be 74 ef 98 3d f3 91 5c be 7e c7 d9 3c
       -0.2006282 0.07467547 -0.2154005 0.026584383
000320 de e9 03 be 97 83 28 3e a7 c9 03 3e 69 4c a6 bd
       -0.12882182 0.16456448 0.12869893 -0.08120043
000330 56 85 d2 bd e2 64 1b be 57 47 9c 3d 90 7e 13 3c
       -0.10279338 -0.15175202 0.076307945 0.009002343
000340 c0 ca e5 bd c0 79 a6 bb 66 41 50 3d 29 49 01 bd
       -0.11220312 -0.0050804317 0.05084362 -0.03156391
000350 a9 2f c7 3d 09 c4 02 3e 01 90 49 be 4a a5 fa 3d
       0.09725887 0.12770094 -0.1968384 0.12238558
000360 10 b4 eb bd 0e 81 d8 3d 56 48 49 3d ba a4 f0 bd
       -0.115089536 0.1057149 0.04914125 -0.11750169
000370 7e 39 43 be 99 26 11 bc 72 38 4a 3d 55 42 0f 3e
       -0.190649 -0.0088593 0.049370237 0.13990147
000380 7e 35 30 3e 30 27 43 3e d0 55 bb bc ef 3a 08 3d
       0.17207906 0.19057918 -0.022868067 0.03325933
000390 a8 00 84 3d 9c 1a 30 be 07 78 18 be 08 c4 80 3d
       0.06445438 -0.1719765 -0.14889537 0.0628739
0003a0 8d 53 93 bd b1 08 8a 3d d6 a1 01 be 4f 7c 96 3d
       -0.071936704 0.06739939 -0.12659392 0.07347929
0003b0 8a 03 ae 3c a7 af 05 3c e8 96 ab bd 14 08 2f 3e
       0.021241922 0.008159555 -0.083783925 0.17092925
0003c0 ad c7 17 3e 24 84 55 3e 08 8a 11 be 9e c7 e9 3d
       0.14822264 0.20851189 -0.14212811 0.11415027
0003d0 18 65 b7 3d 0a bb c4 3c d2 82 e9 bd da 6f 58 3d
       0.08954829 0.024014968 -0.11401905 0.052841045
0003e0 52 3b af 3d da 5f f8 3d dd 6e 1b 3e 92 ec 41 3e
       0.08556236 0.12127657 0.1517901 0.189379
0003f0 dc 26 a9 bd 56 ba 1c bc e5 a1 aa bd ef 23 dc bd
       -0.08259365 -0.00956591 -0.0833166 -0.10749041

output_layers.0.bias f4 [64]
000000 df 0f 3b 3e 3b 71 0d be 25 2b 72 bd 89 cd 52 bd
       0.18267773 -0.13812725 -0.059123177 -0.051465545
000010 40 87 6e bd 9b cc cb bd 42 4c be bd ab b7 44 3e
       -0.058234453 -0.09951135 -0.09291889 0.19210689
000020 20 75 b4 3d 67 d4 57 bd cf 91 bf 3d fe c5 a9 bd
       0.08811402 -0.052692797 0.09353983 -0.08289717
000030 90 5c 92 bd 84 d5 70 bd 3b a7 1d 3e 0d 72 c2 bd
       -0.07146561 -0.058797374 0.15395825 -0.0949441
000040 71 62 14 bd 1b a0 38 3d 60 80 83 bd 54 66 19 be
       -0.036226694 0.045074563 -0.0642097 -0.14980441
000050 5d 3b b5 3c 81 b6 0a 3c 21 0b 63 3c e6 b8 25 3e
       0.022123033 0.008466364 0.013857634 0.16183814
000060 54 e8 24 be 4a 8a 0f be e7 fa e6 bd 87 1b dc 3d
       -0.16104251 -0.14017597 -0.112783246 0.10747438
000070 fd 99 1d 3e d1 a3 0b 3e 1d 9b 4d bd 8e 4e f5 3d
       0.15390773 0.1363671 -0.050196756 0.11977874
000080 e4 bd b6 3d 5a a1 b9 3d f8 42 4e 3c 30 19 14 3e
       0.089229375 0.090639785 0.012589209 0.14462733
000090 c1 8a f3 3c 13 ca 39 3c 14 42 e7 3b 2c fe 02 be
       0.029729249 0.011339682 0.0070574377 -0.12792271
0000a0 57 58 ed bc 04 d4 18 be d7 81 fd 3d b1 65 f3 3d
       -0.028972788 -0.14924628 0.123782806 0.118846305
0000b0 84 6a 17 3e 13 47 38 3e 97 9c e9 bd a7 8f 27 bd
       0.14786726 0.17995863 -0.1140682 -0.040908482
0000c0 38 5d 46 3e d5 19 c7 3d 40 23 29 be d2 85 ee 3d
       0.19371498 0.09721724 -0.16517353 0.11646618
0000d0 1c 2c 60 bc 0c 10 4e bd 9a e5 f8 3d b7 a0 63 bd
       -0.0136823915 -0.050308272 0.12153168 -0.05557319
0000e0 6e 22 c8 3d 11 44 2d 3e 1e d2 a6 bc 3a 3c f5 3b
       0.09772192 0.16920497 -0.020363864 0.007483986
0000f0 e5 8c ee 3c 16 f1 18 3e 9c 38 3e be c3 a9 74 3d
       0.029119918 0.14935717 -0.18576282 0.05973221

output_layers.3.weight f4 [32, 64]
000000 02 0e 57 3d e8 33 06 3d 0f 3a 5d 3d 0f 53 23 3d
       0.052503593 0.032764345 0.054010447 0.039874133
000010 2a 46 9e 3d 21 12 2f 3d c3 85 28 3a 4f 82 9d 3d
       0.077282265 0.0427419 0.00064286235 0.0769087
000020 1a f2 86 3d df fe b1 bd a7 8d 24 3a fa 5f f0 bc
       0.06589146 -0.08691191 0.00062772114 -0.02934264
000030 02 b0 a8 bd c9 05 88 3c 7b 95 3e 3d 02 e7 1d bd
       -0.08236696 0.016604321 0.046529274 -0.038550384
000040 c9 67 cc 3d c7 de 0e be c8 5f d8 3d 3e 1e 8f 3d
       0.09980733 -0.1395217 0.10565144 0.0698819
000050 9e 2e f1 bd 38 ce a5 bd ee 98 b2 3d 4e 32 40 3d
       -0.1177647 -0.08095974 0.08720575 0.046922974
000060 ee 6a 2e bb 64 bb 81 3c d9 a1 20 bd 5f 8f 1e 3c
       -0.0026614028 0.015836425 -0.03921685 0.009677737
000070 eb c6 fc 3c 6f af a2 bd ad 6c b7 3d 52 37 c2 3b
       0.03085657 -0.079436176 0.08956275 0.005927005
000080 21 36 dc bd ea a9 52 bd 37 27 f2 bd 55 4d 53 3d
       -0.10752512 -0.051431574 -0.11823886 0.05158742
000090 e5 55 ab 3c 23 5c 96 bd cb 67 a5 3d ff 06 1c bd
       0.020914981 -0.073417924 0.080764376 -0.03809261
0000a0 7d d2 a8 bd 63 c6 d6 3d ca c2 db 3d 72 a0 10 be
       -0.082432725 0.10487058 0.107305124 -0.14123705
0000b0 b3 ac 1d 3d 6b 2a eb bd 85 12 1d bd e6 2b d1 bd
       0.038494777 -0.114827 -0.03834774 -0.10213451
0000c0 46 72 92 bd 0d 14 f1 3c dd a0 bc 3d 2c be 25 bd
       -0.07150702 0.029428506 0.0921037 -0.040464565
0000d0 c3 fe ad bc f3 cd f2 bc 20 18 04 be cb 6d ac bd
       -0.021239644 -0.02963922 -0.12899828 -0.08419379
0000e0 ea e0 8e 3c 38 af 92 bd 66 ef 84 bd 26 17 84 bd
       0.017441232 -0.071623266 -0.06490974 -0.06449728
0000f0 b0 48 08 bd 7f 41 0a be 78 b6 8e bd ed 71 d9 bd
       -0.033272445 -0.13501547 -0.06968397 -0.10617433
000100 b6 7f cd bd e6 de 92 bd 62 5c 0b be 15 08 ff 3c
       -0.100341246 -0.07171421 -0.1360946 0.031131784
000110 fb f5 d4 3c ff de 7f bc 86 94 b3 bd b5 ab 29 3d
       0.025996199 -0.015617131 -0.08768563 0.04142352
000120 5d b0 a1 bd ce 39 89 bd 06 ae 89 bd 23 13 f3 bd
       -0.07894967 -0.067004785 -0.067226455 -0.118688844
000130 8d f7 f3 bd 69 2f 51 3d eb 59 c9 bc 88 6e 8b bb
       -0.11912451 0.051070604 -0.024579009 -0.0042551197
000140 cc fa 8a bd 76 56 88 3d b5 90 f1 bc 20 b1 91 bd
       -0.06786117 0.06657116 -0.029487947 -0.07113862
000150 f9 eb 86 3d c9 b4 9c bc ad 7a 6b bd 39 40 84 bd
       0.06587977 -0.019129174 -0.05749004 -0.06457562
000160 22 95 dd bc 96 7f 58 3d ad 7a c7 3d 8a 74 bc bd
       -0.027048651 0.05285605 0.097401954 -0.092019156
000170 1b 8b 4a 3d 56 f5 b3 3a 41 70 b1 3d b4 71 a2 3d
       0.049449068 0.0013729732 0.08663989 0.079318434
000180 bd 56 5d 3d 8c 94 4d 3d b4 83 53 bd 59 c9 0f bd
       0.0540378 0.050190493 -0.051639274 -0.03510413
000190 69 8d 0c bd 86 1a ae bd e5 53 09 bc d5 c3 6a bd
       -0.034314547 -0.08501153 -0.008381818 -0.057315666
0001a0 8e 63 0a bd 66 00 d5 bb 81 28 d7 3d 53 ea 4a bc
       -0.03378635 -0.0065002916 0.105057724 -0.012384969
0001b0 97 95 1d bb 9f a4 53 3c 00 16 8a bd aa d4 23 3a
       -0.0024045461 0.012917667 -0.067424774 0.0006249646
0001c0 1b dc c6 bd 01 6e 63 3c 84 94 f3 bd 62 40 e4 3c
       -0.097099505 0.013881207 -0.118935615 0.027862731
0001d0 57 dd c2 bd f1 ce 97 bd 54 09 94 bd 07 62 db bd
       -0.095148735 -0.07412518 -0.07228342 -0.107120566
0001e0 0b 6b 88 bc c0 b5 8d 3d b2 5e e6 bc 41 75 19 be
       -0.016652605 0.06919432 -0.028121326 -0.14986135
0001f0 d7 23 a6 3d 02 89 bc bd 1c 1d d8 bc cb bc 11 3d
       0.08112305 -0.0920582 -0.026381068 0.035580438
000200 00 6d 8c 3c 70 7e 55 3d a1 bd e4 bd 67 1b b7 3d
       0.017141819 0.052122533 -0.11168981 0.089407735
000210 79 77 9c bd dd a2 86 bd 4f 63 aa 3d e6 f9 ca bd
       -0.07639975 -0.065740325 0.08319723 -0.099109456
000220 9f ec 55 3d e2 af eb 3d 1d 4c fb bb 06 91 b8 bd
       0.052227613 0.11508156 -0.0076689855 -0.09012036
000230 cf 60 a4 3d 0a 1e 04 3e 87 74 e9 3d c4 aa 15 3d
       0.08026277 0.12902084 0.11399179 0.036539808
000240 05 03 0f 3e 17 51 3e 3d 5e 89 35 be 27 4f 9a 3d
       0.13965996 0.046464052 -0.17728183 0.07534628
000250 f7 8b f0 3c d3 62 2f 3d e6 15 0c be 40 b0 03 bd
       0.029363615 0.042818855 -0.13680229 -0.032150507
000260 c7 e1 4b be 6d 4e ed bd a8 93 04 bd 0b 94 94 bd
       -0.19910346 -0.11587224 -0.03236738 -0.072547995
000270 b6 d1 c8 3c c6 95 38 3d 36 5f 8a 3d 50 10 a6 3d
       0.02451406 0.04506471 0.06756441 0.0810858
000280 e3 f5 dc bc ec f8 00 3e d0 5e 98 bd 83 f5 36 bd
       -0.026972717 0.12594956 -0.07439959 -0.044667732
000290 6a 1d a3 3d d2 e7 15 3d 6d e7 80 bd 06 8c 38 bd
       0.07964595 0.036598034 -0.06294141 -0.04505541
0002a0 63 f0 3c bd 8b 6f e2 bd f5 b0 4d 3d d6 da c4 bd
       -0.04612769 -0.110564314 0.050217588 -0.09612052
0002b0 e8 92 83 bd 1b 33 8e bd fb 74 0e be 47 3d 84 bd
       -0.064245045 -0.06943341 -0.13911812 -0.06457
0002c0 6d 36 33 bd bd 24 79 3d 6d 8a 01 3e 71 a7 a5 bd
       -0.043753076 0.060826052 0.12650461 -0.080885775
0002d0 fb 75 24 be 8f 62 9d 3d d7 b0 ae bc c1 01 e1 3d
       -0.16060631 0.07684814 -0.021324558 0.10986663
0002e0 fa 9e a8 bd 11 50 99 3d de 7c 57 bc d9 74 76 bd
       -0.082334474 0.074859746 -0.013152329 -0.06017003
0002f0 19 e5 bb bd f1 31 00 3e d7 cd 4e bd 64 22 a1 3d
       -0.09174556 0.12519051 -0.050489273 0.078678876
000300 f9 99 0e be 38 8f b3 bc a2 c4 67 bd 00 52 cd bd
       -0.13925923 -0.021918878 -0.056584008 -0.10025406
000310 69 1f f8 bd 74 2d e5 bd a5 fe 14 be 66 96 9c 3c
       -0.12115366 -0.1119031 -0.14550264 0.019114684
000320 cb 67 bd 3d bb 30 0f bb b3 59 f9 bd c3 7c eb bd
       0.092483126 -0.0021849114 -0.12175312 -0.11498406
000330 ed f1 dc bd 04 47 04 3d e7 9d 10 be 79 ba fe bd
       -0.10788331 0.03229429 -0.14122735 -0.124379106
000340 32 1f 0c bd f9 be 62 bd 18 60 d7 3b c1 50 a1 3d
       -0.034209438 -0.055357907 0.0065727346 0.07876731
000350 ec 12 7a 3c 82 6d b2 bd 2c 4d b4 bc 9a 75 b3 bd
       0.0152633 -0.08712293 -0.022009455 -0.08762665
000360 66 f1 d3 3d bf c7 05 bd 71 0d 36 3c 34 ea f1 bc
       0.103487775 -0.032661196 0.011111603 -0.029530622
000370 8b 15 af 3c 8e 60 32 bd ef f7 c0 3d a6 0f 17 be
       0.021372577 -0.043549113 0.094222896 -0.14752063
000380 ef 97 7f bd 73 c3 9d 3d c8 53 05 bd ff 47 9e 3b
       -0.062400755 0.077032946 -0.032550603 0.00483036
000390 d9 97 81 3d 79 e9 c6 bd 5c 40 43 3d a3 22 03 be
       0.06327791 -0.097125 0.0476688 -0.12806182
0003a0 7b 11 1c bd 8b 7f cc bd ec 9c 3a bd 69 17 91 3d
       -0.03810261 -0.099852644 -0.04555981 0.07084543
0003b0 38 e4 8d 3d 17 00 b1 bd 78 4b bc 3d ce f9 1c 3d
       0.06928295 -0.08642595 0.09194082 0.03832417
0003c0 45 f9 8b 3c 4c e3 0a be 8c 04 9b bb cc a7 9a 3d
       0.017086634 -0.1356327 -0.0047307666 0.07551536
0003d0 aa 4f 15 bc 04 38 f4 bc 34 1a 2e bd e1 1c 2a 3d
       -0.009113232 -0.029811867 -0.042505458 0.041531447
0003e0 70 1c 1b 3d 3c 0e a5 bd aa 06 c8 bd 30 5a 51 3d
       0.037868917 -0.080593556 -0.09766896 0.0511114
0003f0 88 29 dc bd ae 2f 9c 3d 78 98 46 bd af e9 10 be
       -0.10750109 0.07626282 -0.04848525 -0.14151643

output_layers.3.bias f4 [32]
000000 ec 45 da 3c d9 92 77 3b ec 14 ee 3c b1 13 28 3b
       0.02664467 0.0037776737 0.02906271 0.0025646503
000010 68 47 da bd 56 e3 15 bc 78 46 b8 3b 48 f5 b2 3d
       -0.10658151 -0.009148439 0.005623635 0.0873819
000020 ba 32 49 bd 31 ad f2 bd db d9 1b 3e d4 5a 12 3d
       -0.049120642 -0.1184944 0.15219824 0.03573115
000030 f7 df 1e 3e 5e 86 6e 3d 7a 92 37 bd fe cd 8b bd
       0.15515123 0.05823361 -0.044817425 -0.06826399
000040 dc 42 8c bd 22 73 2b 3e fe 52 a3 3d 24 fd b4 3d
       -0.0684869 0.16743138 0.07974814 0.08837345
000050 5c 2d d3 bd 7d 72 12 be 2c b0 90 bd f6 10 2c 3e
       -0.10311386 -0.14301486 -0.07064852 0.16803345
000060 4b 3b af 3d 24 fa d5 bd 32 4f a3 bc 6b 71 d3 bd
       0.08556231 -0.10448101 -0.019935224 -0.10324367
000070 bc a7 b4 3d 2b 95 d9 bd bb 21 bc bc 73 b5 f1 bd
       0.08821055 -0.10624155 -0.022965303 -0.11802187

output_layers.6.weight f4 [2, 32]
000000 c3 ee d4 bb 0f c1 5d bd dc 2a d0 3d b0 9c 09 be
       -0.006498189 -0.054139193 0.10164425 -0.13438678
000010 a6 85 dd 3d d1 c1 8d bd 7e 00 d4 bb 39 f4 5c 3e
       0.10816507 -0.06921733 -0.0064697852 0.21577539
000020 fd 63 39 bb 36 3e e8 bc 5a 29 ef b9 82 db 09 3e
       -0.0028288357 -0.028349977 -0.00045616442 0.13462642
000030 61 77 4a 3b f5 73 45 3e 69 b9 18 3d 33 4f 52 bd
       0.003089391 0.19282515 0.037286196 -0.05134506
000040 bf 18 9e bc 80 dc 62 3b 27 bf ba bc fa a0 48 bd
       -0.01929891 0.0034616292 -0.022796227 -0.048981644
000050 a6 3f dd bb 3e 7f c6 bd 86 8c c1 bd e5 67 86 3b
       -0.0067519723 -0.09692238 -0.09450631 0.0041017407
000060 c5 90 06 3e bc 73 66 bd c3 37 67 3a 27 21 61 bc
       0.13141163 -0.056262717 0.000882026 -0.013740814
000070 d5 bb 98 3c 1c 33 8c bd 67 26 58 bd a5 88 34 3e
       0.018644253 -0.06845686 -0.052771 0.17630251
000080 e2 e2 dd 3d 83 9e 3e 3d 5a 43 bf bd 61 2b 05 3d
       0.1083429 0.046537887 -0.09339018 0.032512072
000090 fa 38 ac bd 9d 6c 39 bd a0 f3 3b be d4 97 ea 3c
       -0.08409305 -0.045269597 -0.18354654 0.02863685
0000a0 be fe ba bd c5 b6 a8 3d 9b 89 07 be 9f a2 94 3d
       -0.091306195 0.082379855 -0.13236086 0.0725758
0000b0 8e 17 61 be 59 b2 79 3d 64 a1 cc 3a 5a f1 13 3e
       -0.21981642 0.0609611 0.0015612063 0.14447537
0000c0 f0 f1 8e bd df c0 d9 bd df d8 d0 3d 6b f1 c8 3d
       -0.0697974 -0.1063249 0.10197615 0.09811672
0000d0 bd e8 1d 3d b9 84 14 bc 00 a5 06 3e 2e 9b 4e be
       0.038552035 -0.009064847 0.1314888 -0.20176384
0000e0 1b b7 a1 3d 56 37 00 3e ff 0c 33 be 44 ff b5 3d
       0.07896253 0.12521109 -0.17485426 0.08886579
0000f0 aa 71 57 be 6f 39 0e be 3c a3 0c be ac 3f 1d 3e
       -0.21039453 -0.13889097 -0.13734144 0.1535632

output_layers.6.bias f4 [2]
000000 52 93 53 bd ec 25 4d be
       -0.051654167 -0.20033997

exp_avg f4 [96, 15]
000000 32 9a 6a b9 06 ac 63 b9 fc e9 65 b9 b2 83 61 b9
       -0.00022373421 -0.0002171249 -0.00021926308 -0.00021506732
000010 7c a6 fd b7 e5 17 c8 b8 46 46 5c 38 55 1e a8 37
       -3.0237476e-05 -9.541194e-05 5.2517535e-05 2.0041285e-05
000020 ee 3b 8b 38 00 07 b0 b9 1e 53 01 36 af 48 96 b9
       6.639199e-05 -0.0003357455 1.9270879e-06 -0.00028664383
000030 00 00 00 00 a9 b7 b2 b8 9a 16 dc b8 cb 51 80 b9
       0.0 -8.521911e-05 -0.00010494627 -0.00024475003
000040 8f 5d 77 b9 b2 fd 87 b9 26 bf 82 b9 d5 b4 2e 39
       -0.00023590609 -0.00025938224 -0.0002493795 0.00016661298
000050 57 6b 0d ba 87 cd d8 b8 4d 66 16 b9 95 9a c9 39
       -0.0005394718 -0.00010337965 -0.00014343225 0.0003845288
000060 53 35 cf ba 5d 52 ff 37 85 34 1c 39 00 00 00 00
       -0.0015808739 3.0436722e-05 0.00014896884 0.0
000070 35 6a a1 38 0c 32 c0 38 13 30 c3 b8 e4 bc c8 b8
       7.696861e-05 9.1645954e-05 -9.307279e-05 -9.571927e-05
000080 ac 11 c1 b8 18 ee c3 b8 ba 4a 0c b9 dc 70 f2 38
       -9.206249e-05 -9.342673e-05 -0.00013379278 0.00011560481
000090 fd 90 52 37 7b 06 c4 36 f5 1f 2e b7 5d 5a 22 39
       1.2550733e-05 5.8420096e-06 -1.0378649e-05 0.00015483187
0000a0 7a db 91 36 81 81 1b 38 00 00 00 00 9c b0 ab 36
       4.346887e-06 3.707549e-05 0.0 5.116757e-06
0000b0 2d 92 72 36 de d5 80 39 3b 49 82 39 ae 47 71 39
       3.6145896e-06 0.00024573406 0.00024850093 0.00023010254
0000c0 be 48 77 39 04 e6 5b b9 40 20 f7 38 0e 25 42 b8
       0.00023582854 -0.00020971155 0.00011783885 -4.6287714e-05
0000d0 8e 87 e2 b8 72 73 9a 38 26 eb d7 b9 03 09 4c b7
       -0.00010801769 7.3647956e-05 -0.00041183195 -1.2161446e-05
0000e0 95 64 0d 39 00 00 00 00 37 1a 93 b7 92 9c 87 b8
       0.00013484278 0.0 -1.7535973e-05 -6.466465e-05
0000f0 7c 0b d4 3a bb 55 d5 3a fc c6 d1 3a a4 46 d2 3a
       0.0016177739 0.001627616 0.0016004737 0.0016042781
000100 f0 3a 62 3a 27 21 b6 b9 e8 12 02 b8 40 fa b5 b8
       0.0008629998 -0.00034738446 -3.1012023e-05 -8.677365e-05
000110 14 cb 99 39 3c 3c a7 39 94 57 dc 37 cc 8e f9 38
       0.0002933374 0.000318976 2.6266825e-05 0.00011899843
000120 00 00 00 00 e9 cf d6 38 34 10 10 37 4f 90 84 37
       0.0 0.000102430415 8.586841e-06 1.5802825e-05
000130 bf 87 87 37 04 cb 98 37 85 f1 86 37 ad 0b 33 b9
       1.6156466e-05 1.8214349e-05 1.6086511e-05 -0.0001707512
000140 15 72 f7 36 58 da d4 37 a3 f7 17 38 a5 42 2d b8
       7.3744545e-06 2.5374044e-05 3.6231835e-05 -4.130848e-05
000150 80 24 f0 39 1f 7a 0f b7 4d 6f e0 b8 00 00 00 00
       0.00045803562 -8.551898e-06 -0.00010701884 0.0
000160 3d 6e ad b7 63 f4 2a b8 66 d8 b6 39 e9 cc be 39
       -2.067454e-05 -4.075876e-05 0.00034874975 0.00036392294
000170 37 00 ad 39 6e 2e b4 39 c4 9c c4 39 22 af 46 39
       0.0003299729 0.00034366868 0.00037500833 0.00018947994
000180 05 48 1c 39 2d a1 bb b8 ea 13 0c 3a fa e4 a4 ba
       0.00014904149 -8.946876e-05 0.00053435436 -0.0012580447
000190 ee 6f 1d 38 54 21 04 b8 00 00 00 00 e8 b6 af 37
       3.753596e-05 -3.150229e-05 0.0 2.0946798e-05
0001a0 b2 98 b1 35 53 42 5d 3a f2 87 5e 3a f9 b2 5a 3a
       1.3231968e-06 0.0008440364 0.00084888854 0.0008342709
0001b0 51 53 5c 3a 89 a5 df 39 23 ed cb b9 b5 ba f4 b8
       0.0008404749 0.00042657208 -0.00038895858 -0.000116696036
0001c0 7c 09 09 b9 cc 58 7d 39 fe 30 3d ba f8 8c 29 38
       -0.00013068871 0.0002416104 -0.0007217078 4.0424027e-05
0001d0 33 69 a9 39 00 00 00 00 92 48 14 39 4f 96 e0 38
       0.0003231257 0.0 0.00014141414 0.000107091495
0001e0 60 55 41 3b e6 6a 41 3b ab ae 40 3b f1 ad 40 3b
       0.002950035 0.002951318 0.0029400985 0.0029400552
0001f0 c0 ad a7 3a 5f 6b 62 38 8c af 8e 36 fb b1 ab b8
       0.001279287 5.3982596e-05 4.252366e-06 -8.187067e-05
000200 f4 ba 66 39 7e 88 91 3a b3 06 43 38 48 f4 6d b7
       0.00022004155 0.00111033 4.6497862e-05 -1.4183177e-05
000210 00 00 00 00 20 32 24 38 d4 e7 c3 37 61 07 43 3a
       0.0 3.914733e-05 2.3353765e-05 0.0007439759
000220 ac 1f 43 3a 96 44 43 3a 05 9c 42 3a 82 b4 f4 b7
       0.0007443379 0.000744888 0.00074237614 -2.9171122e-05
000230 e0 8b 09 b9 3d af ad b6 a8 89 47 b7 0b ac e8 b8
       -0.00013117446 -5.176202e-06 -1.1893375e-05 -0.000110946676
000240 66 6d 6c 3a 3d 51 84 b7 7f df 68 b9 00 00 00 00
       0.0009018987 -1.5773456e-05 -0.00022208503 0.0
000250 4c 21 b2 b8 b5 36 f9 b8 2b e9 8f 38 fa ed 82 38
       -8.4939034e-05 -0.00011883435 6.862202e-05 6.24321e-05
000260 4b 09 9f 38 52 e5 93 38 bf 3c a8 b9 78 a4 b1 b8
       7.583442e-05 7.0522205e-05 -0.00032088716 -8.4706524e-05
000270 de 47 c1 b5 18 36 64 38 49 fc 6b b9 11 d8 33 3a
       -1.4400537e-06 5.4409815e-05 -0.0002250533 0.00068605045
000280 2f dd ed b7 ad bc ce b7 00 00 00 00 0c 82 96 b8
       -2.8355598e-05 -2.4644973e-05 0.0 -7.1767805e-05
000290 8d 8d db b8 e1 71 7a b7 c3 b7 ca b6 81 f2 ff b7
       -0.000104691 -1.4927676e-05 -6.041462e-06 -3.0511294e-05
0002a0 07 30 99 b7 8c ed 87 39 55 5f 2d b8 1f 48 e3 38
       -1.8261386e-05 0.00025926193 -4.13352e-05 0.00010837637
0002b0 27 12 c4 b8 85 eb d2 39 59 40 a5 ba 8d 63 85 37
       -9.3493894e-05 0.00040229797 -0.0012607678 1.5901192e-05
0002c0 0a 1e e4 b8 00 00 00 00 17 5b d0 b7 86 46 03 b8
       -0.000108774824 0.0 -2.483795e-05 -3.1298514e-05
0002d0 66 4c 47 38 0c 0f 40 38 19 d8 51 38 9e c1 23 38
       4.751645e-05 4.579038e-05 5.003074e-05 3.904255e-05
0002e0 31 a3 9b b9 b3 9c 90 b9 5e fe a4 b8 2f 6b 18 b7
       -0.0002968549 -0.0002758257 -7.867509e-05 -9.084862e-06
0002f0 b0 ac 1e b9 1e 62 9d 3a 7e 85 d8 b7 41 8a 52 b9
       -0.00015132385 0.0012007391 -2.5811369e-05 -0.00020078664
000300 00 00 00 00 e5 84 8d b8 45 3e bc b8 d2 68 cf 38
       0.0 -6.7481575e-05 -8.976137e-05 9.8900535e-05
000310 8b 31 cd 38 f2 a0 da 38 b1 e0 d3 38 5b 83 21 b9
       9.78439e-05 0.000104250284 0.00010103116 -0.0001540309
000320 c4 09 04 39 d1 89 5e 38 c4 f5 70 38 6a 4c 67 b8
       0.00012592139 5.3057276e-05 5.7449346e-05 -5.5145858e-05
000330 b9 a0 7b 3a d4 18 7d 34 33 fa 08 b9 00 00 00 00
       0.00095988397 2.3571494e-07 -0.00013063177 0.0
000340 2a 3b 9b 36 4d 9e ac b7 0e 24 b4 39 c8 04 b4 39
       4.6262476e-06 -2.0577712e-05 0.00034359138 0.00034335838
000350 b8 17 b3 39 3c f0 b2 39 b7 2f 96 b7 72 cf 0e b9
       0.00034159212 0.00034129794 -1.7903612e-05 -0.00013619455
000360 2e 46 c8 b7 e1 96 f4 b7 1f c3 5e b7 f3 97 97 39
       -2.3874538e-05 -2.9157325e-05 -1.3277661e-05 0.00028914175
000370 cf 0d 3b b7 3d 67 40 b8 00 00 00 00 1f 4c ef b7
       -1.1149284e-05 -4.5872515e-05 0.0 -2.8526467e-05
000380 5a ae d7 b7 6f 17 aa 3a 61 71 aa 3a e4 13 aa 3a
       -2.5711186e-05 0.0012976954 0.001300376 0.0012975899
000390 8a 51 aa 3a 1d b9 88 39 db 59 aa b9 b3 6b ed 37
       0.0012994271 0.00026077862 -0.00032491874 2.8302753e-05
0003a0 8d 43 6c 38 13 6a 73 38 ad 27 f0 39 7b 26 05 38
       5.6329696e-05 5.8034504e-05 0.00045805928 3.174551e-05
0003b0 ff b5 39 39 00 00 00 00 8d 96 f2 38 46 1b b7 38
       0.00017710774 0.0 0.000115675015 8.7312e-05
0003c0 06 53 ca b8 a1 26 d3 b8 67 13 b3 b8 3b 14 c1 b8
       -9.647575e-05 -0.00010068459 -8.538999e-05 -9.2067254e-05
0003d0 48 09 0d ba f0 c1 ef 39 59 86 45 39 95 c6 51 39
       -0.0005380106 0.00045730127 0.00018837432 0.00020005771
0003e0 fb 3e 9d b9 0e 82 dc 3a 54 25 18 b8 3a b2 6e b9
       -0.00029992298 0.0016823427 -3.627439e-05 -0.00022763843
0003f0 00 00 00 00 ce 39 79 b8 83 11 b4 b8 f6 ec 03 3b
       0.0 -5.942006e-05 -8.586331e-05 0.0020130253
