lightning_logs/version_52/checkpoints/epoch=99-step=500.ckpt (torch, 121499 bytes, 30 tensors)

gru.weight_ih_l0 f4 [96, 15]
00000000: b267 a03d 43c0 38be f39b a83d de72 45be
00000010: 745d debb 7fed 773d 110b 00be e534 073e
00000020: 5337 0cbd 6ce9 6abe 1cdb 323d 5658 ae3d
00000030: a4ee 343e 2cc1 db3c 4d12 173c 994b 8abd
00000040: 3845 923d 4a23 0b3e c343 77bd 0688 0d3e
00000050: 0d0d ce3d 4d32 febb 3c43 ccbc ef0f ccbc
00000060: 217d febd 4aa8 37bd cc09 f03c 1809 b93d
00000070: c59f 3bbe d490 d0bc e86d a23c c8f9 e4bc
00000080: 85d8 f9bd 6b8c fbbd b83a 39be e846 1d3e
00000090: e4e6 1bbe f957 003d 205a e7bd 885d 523c
000000a0: 46e8 123e 190e c2bd 4963 fa3d 7df8 17bd
000000b0: e1be 98bc 83de 8ebc 89bd 85bd 5a0b 8e3d
000000c0: a7fa b13d 57d7 37bc f5ad f9bd 79e2 ca3d
000000d0: b7c7 103d 8319 033e b1c7 18be 22d7 0b3e
000000e0: b0c3 063e 9640 1b3e a39a 1c3c d716 3cbe
000000f0: d2a4 923d 0542 6a3b 378b b03c 2d8e d3bb
00000100: d2ec 4c3b 225b aabd cfaa 95bd 9104 b9bd
00000110: 1b74 a2bd 708e 8dbd 33fa b23d fc58 933d
00000120: db10 143d a6f7 e739 877c babd e538 6ebd
00000130: e163 ddbd 0776 e53d d0e6 10be 5706 04bc
00000140: 6942 813b 641b 933d 031c 2ebd 51c3 98bc
00000150: 0283 ccbd 77fb d4bd 90c4 da3d e841 43bd
00000160: 57b5 87bc a48d 36be b5f0 1a3e b130 a33c
00000170: be59 52bd 696a 333e aaac 1abe 996d 65bd
00000180: e796 383d a67f 253e e130 29be d17e 75bd
00000190: 0ad0 1abd 06cb 1dbe 2b16 1cbe 8c4a 623d
000001a0: ab88 e23c 1dd1 593d 9de2 5ebe db63 cd3d
000001b0: 3614 1fbe 3f2a 6b3c 82b7 9b3b 557e 63bd
000001c0: e0e2 a8bd 48c0 e43d 3a13 e33d 52da 153e
000001d0: 9348 62bd e556 05bd eac2 543d 15a5 c2bb
000001e0: ba1c 483c 0e88 95bd 665a a93c 3a47 823d
000001f0: 2d4f 333e bec5 4f3d 4d2d b63d 4948 503d
00000200: 7564 f4bd 5038 bdbd d5a5 37be 835d 1abe
00000210: 23c6 1c3e ab01 a1bd 9715 c2bd da8b 05be
00000220: 82ed ee3d 5985 a83d 3631 86bd 7842 c8bd
00000230: 8ba6 fbbb ca3e d03b fe17 823c 96e0 5fbd
00000240: b24f 53bb a5f3 1c3e 1a5f 24bd 9a51 28be
00000250: f147 8bbc 68b8 4cbd 19b7 d23d 0505 673b
00000260: 3db9 06bd c902 103d a396 f03d a361 2f3d
00000270: 4a34 313e 8302 07bd 9e49 a43d 0263 073e
00000280: 6115 073e 9e68 99bd 8725 49bd 1cc9 233d
00000290: d28b f1bd 86df 0e3e 3d67 693d 9bce 453d
000002a0: 1c0e 1e3c 722d 46bd f2b1 2c3d 7248 983d
000002b0: 349d 2cbd fc11 8a3d 2e0c 233e 7728 e3bb
000002c0: c6fb 383d 182b 343e 29a6 29bd 2aba 0d3e
000002d0: dc63 92bd 0cb1 30be 328d fa3c 2e72 643c
000002e0: ae8d ffbc 1afe f5bd 8631 1a3e 9708 6fbd
000002f0: 770b 0abe 9cb9 0dbe 67ad 073e 1152 f93d
00000300: daf2 77bc 6a31 013e 2a44 553d 428f 0c3c
00000310: ed15 0a3e a6f2 e8bd 9219 0d3c 2c6a a9bd
00000320: 011b bf3d ee59 c63d 9519 6b3c 4532 0fbe
00000330: ce51 f2bd e17e 7a3c 049b 213e 11e5 9ebc
00000340: 1031 ce3d 4da7 4ebd b174 103c a0df 2bbe
00000350: a065 163e bb2e ad3d c969 063e b901 c9bd
00000360: 7912 eabc ff39 b53d b8a7 313d 9f6a 323e
00000370: f653 62bd ddc2 ac3c eebb c5bd 36ca 083e
00000380: a3b8 8f3d 5f8b 29be 7bba a43d 16fc b4bd
00000390: c844 233d 11f5 1cbe 1879 283d 3ca3 053d
000003a0: 85ed 6cbd f3fa b8bd c205 18be 0a0d ee3c
000003b0: 8f26 dc3d 61d7 24bd affe f2bd 7230 16be
000003c0: 9048 0e3e 3c84 babc 81eb 013e e7a7 ccbd
000003d0: 14f5 36bd 8891 c2bd f958 6c3c a467 f33d
000003e0: 6bb9 97bd 5449 333d 31d4 053d 621f 263d
000003f0: 1494 94bd 6c38 cf3c d31a 0a3e 99a5 5a3d
0.07832278 -0.18042092 0.0823287 -0.192821 -0.006786043 0.06052923 -0.12504221 0.13203771
-0.03423245 -0.22940606 0.04366599 0.085129425 0.17669159 0.02682551 0.009220672 -0.067527
0.07142109 0.1358768 -0.060367357 0.1382142 0.10061083 -0.007757461 -0.024934404 -0.024909941
-0.1242621 -0.044838227 0.029301547 0.090349376 -0.18322666 -0.025459684 0.019827798 -0.027951136
-0.12199501 -0.12282642 -0.18088806 0.1535908 -0.15224797 0.031333897 -0.11296487 0.012839682
0.14346418 -0.09475345 0.122259684 -0.03710221 -0.018645706 -0.017440086 -0.065302916 0.06935759
0.08690386 -0.011220775 -0.12191383 0.099064775 0.035346713 0.128027 -0.14919926 0.13656285
0.13160586 0.15161356 0.009558353 -0.18368088 0.07160343 0.0035744917 0.021550758 -0.0064561577
0.0031269086 -0.083181635 -0.0730797 -0.09034074 -0.079323016 -0.069119334 0.08739128 0.07194707
0.036148887 0.00044244266 -0.09105783 -0.058159728 -0.10810066 0.112041526 -0.14150548 -0.008058152
0.0039446843 0.07182959 -0.042507183 -0.018647822 -0.09985925 -0.103995256 0.106820226 -0.047670275
-0.016565962 -0.17827469 0.15130885 0.019920679 -0.051355116 0.17521061 -0.15104929 -0.056012724
0.045065787 0.16161975 -0.16522552 -0.059935395 -0.037796058 -0.15409479 -0.15242831 0.055246875
0.027653059 0.05317794 -0.21766134 0.100288115 -0.15535054 0.014353334 0.0047521004 -0.0555404
-0.08246398 0.11169487 0.110876516 0.14634064 -0.055244993 -0.032553572 0.051943697 -0.0059400895
0.01221388 -0.07301341 0.020672988 0.06361242 0.17510672 0.05072569 0.08895359 0.050850186
-0.11933223 -0.092392564 -0.17934354 -0.15074734 0.15309958 -0.07861646 -0.09476774 -0.1304163
0.11666395 0.08228559 -0.06552355 -0.09778303 -0.0076797656 0.0063551413 0.015880581 -0.05465754
-0.0032243547 0.15327318 -0.04012976 -0.16437379 -0.017002078 -0.04998055 0.10288829 0.0035250795
-0.0328915 0.035158906 0.11747482 0.042817723 0.17305103 -0.03296138 0.08021854 0.13221362
0.13191749 -0.07490657 -0.049108054 0.039986715 -0.11794247 0.13952455 0.05698322 0.048292737
0.009646919 -0.048383184 0.04216189 0.07435693 -0.042142108 0.067417115 0.15922615 -0.006932314
0.045161985 0.17594564 -0.04141823 0.13840547 -0.07147953 -0.17255038 0.030584905 0.013943238
-0.031195488 -0.12011357 0.15057954 -0.0583578 -0.13480936 -0.13840336 0.13249741 0.12173856
-0.015133584 0.12616506 0.05206696 0.008579077 0.13484927 -0.113744065 0.0086120535 -0.08272204
0.093313225 0.096851215 0.014349361 -0.1398402 -0.11832009 0.015289039 0.1578179 -0.019396337
0.10067952 -0.05045252 0.008816884 -0.16784525 0.14687204 0.08456179 0.13126291 -0.09814782
-0.028573262 0.088489525 0.04337284 0.17423485 -0.055255853 0.021089012 -0.09654985 0.13358387
0.070176385 -0.16557072 0.08043381 -0.08837144 0.039860517 -0.1532786 0.04113111 0.032626376
-0.057843704 -0.0903224 -0.14845946 0.029058952 0.10749542 -0.040244464 -0.11864983 -0.14666918
0.13894868 -0.022768132 0.12687494 -0.09992962 -0.04466732 -0.09500414 0.01442551 0.11885002
-0.074084125 0.043771103 0.032673065 0.040557273 -0.07254806 0.025295459 0.13486795 0.053380582

gru.weight_hh_l0 f4 [96, 32]
00000000: 3195 a23c 87fd 373e bbec 193e 0fc6 463e
00000010: b541 89bd 313e f0bd 2886 403e 0d9b 5abe
00000020: 0602 debd 8a57 ef3d ea8f 32be f5d0 03be
00000030: 6c69 9dbd e95f b6bd 5335 aabd 2f11 89bd
00000040: 730a 903d e482 7abd 9f98 d23b 56e0 563c
00000050: b259 473e 70d7 b03d a921 60bd 5090 b03d
00000060: 634b ae3d 75d7 cd3d 69e6 843d 4ca0 99bd
00000070: 5365 373e 9681 7d3d 6dc3 ccbd 4f48 a73c
00000080: 7ea4 663c 490b 193c 9421 88bd 7ef0 bdbc
00000090: 700b 163e dad3 b2bd 294e 0cbe 6963 583e
000000a0: ccab e8bd 813f 0bbe 3ef6 343e 777f fbbc
000000b0: a3b9 cabb ab38 bbbd 6f9d f03d dd18 893d
000000c0: aff9 92bd bb79 6dbd 7ddc a7bd f8c5 cebc
000000d0: 3e17 623d 5924 2b3e 204f 40be 40b1 c7bd
000000e0: 16e4 15bd e71c 79bd 6394 50bb 9da6 83bd
000000f0: 3e8a 61be 1689 fd3d 36a3 ac3c 9552 303e
00000100: 363e 583b ddbf c8bd 620c c93d 7743 a0bd
00000110: a29b 00bd ce57 9dbd f69c cb3d 5339 14be
00000120: d6d7 093e 078a e33c a8ea f0bd a2b7 0a3e
00000130: 16ab bc3d 57a1 ddbd f047 b93d 6783 173e
00000140: 3f9d 0dba 25a6 9c3d 48e1 8bbd c751 033e
00000150: e836 ebbd 168e 123e 474f ee3d 49ee acbd
00000160: e55c 2dbe a011 083e 982b 173e ffe3 6f3d
00000170: f011 a53d 529a 96bd c476 c5bc ae64 ec3d
00000180: 27c6 3abe c1fc e93d 7714 a8ba dd31 b43d
00000190: 1292 c03d 7ea4 dfbb 9339 cb3b 6527 0dbb
000001a0: d8c0 7d3d b0bc 36bd 9461 ae3c 38b9 4fbd
000001b0: b04a 5f3d 7f53 e1bd 1ab7 28be 06cc 303e
000001c0: 14d5 113e 2564 e13d c604 59bc 74a9 ac3d
000001d0: b41a cfbc bd47 01be 80ab 3bbe d1d6 9dbb
000001e0: 688a 09be a467 c5bd 5ab5 873c 3652 1b3e
000001f0: 57a6 a3bd b46b 14be 8698 e7bc 9f42 74bb
00000200: 3dae 303e 4bf6 023e b27b 1abe 910c cf3d
00000210: fb6d 373e 138d 55bc a73a ec3d 6695 d93d
00000220: ca6d 6abe ae89 aa3b fb7c dcbd 8947 b33d
00000230: faba dfbc f938 55be 5108 4e3e c17f 923c
00000240: 9b39 373d 8d4a 70bd 400a 82bd 2184 d53b
00000250: b8ac c13d b4d0 ecbd 5d70 b73d b1e4 07bc
00000260: 6129 ea3d 6e42 efbd 1ef6 d73d f0e3 53be
00000270: d1a2 73bd e0c6 093e 0dfd 80bd a1b2 06be
00000280: ae9d 7e3b f976 fc3c 8e80 d8bc d673 593d
00000290: 42b0 0e3e 614e 823d ad30 22be 88f3 f13d
000002a0: cebf 923b fa62 09be e2e0 18be 8792 153e
000002b0: af1c e0bd 6b15 f5bd 85b0 c0bd 7bc0 dfbd
000002c0: 9db3 5bbc 459e e9bc 008f 0ebe 6379 423d
000002d0: 49f0 c7bd 73fb 8b3c e735 063e c7fe bbbd
000002e0: 641d 27bd 1b38 b13d 5b7d 753c 46cd d93d
000002f0: fee8 8cbd 32d7 cd3d c7ca ebbd 32f2 0ebe
00000300: f20e 9a3c 83ea 72bd 8f91 443d ec9e 93bd
00000310: 17fd 273d a4a5 063e 6bab 093d 2d86 2e3e
00000320: 2fef 47bd dea3 f2bc f627 413d d979 05be
00000330: e367 64bb d4a2 143e ec74 183e 3689 3cbe
00000340: 7b3f 613d ab70 e03d 7b7b f43d 8659 bcbd
00000350: 5856 b6bd 1455 93bd 95da a23d 5dbd eabd
00000360: c9f8 8abd 4deb 423d 01ed dfbd c596 5e3d
00000370: fdc9 473c 9556 36be 046f 1b3e 42d3 12be
00000380: 8820 adbc e4f7 2c3e d7f0 cd3d 5e8c 99bd
00000390: 18a4 7f3a 281f 043e adcd 623d bb14 edbd
000003a0: a9dd 113e e59f 46be 5da6 243e 27df 0bbe
000003b0: 89eb 01bb 106f dcbd 098c a9bd e23a b4bc
000003c0: e896 12be e0a8 e73d 0ae1 0bbe 9882 04bd
000003d0: 0a86 01bd 050c 3e3e a304 edbd 080c 4dbe
000003e0: 4cd3 35bd b675 9ebd e607 ef3d 377a 0b3e
000003f0: ec5d 193e 45ba 6b3d 631e 2bbd 60bc 26bc
0.01984653 0.17967807 0.15031712 0.19411491 -0.06701986 -0.11730612 0.18801177 -0.2134821
-0.1084023 0.116866186 -0.17437711 -0.1287268 -0.07686123 -0.08905012 -0.08310952 -0.06692731
0.07033243 -0.061159983 0.0064268853 0.013115009 0.1946781 0.086348414 -0.0547196 0.086212754
0.085104726 0.10050861 0.0648926 -0.07501277 0.17909746 0.06189116 -0.09998212 0.020420222
0.014077304 0.0093410695 -0.066470295 -0.023185965 0.146528 -0.08731814 -0.1370169 0.21131672
-0.11360893 -0.13598444 0.17672059 -0.030700428 -0.0061866804 -0.09141668 0.11748778 0.066941954
-0.071765296 -0.05797742 -0.08196352 -0.025240883 0.055197947 0.16713084 -0.18780184 -0.09750605
-0.036594473 -0.06081858 -0.0031826727 -0.06428263 -0.22025391 0.12379663 0.021073919 0.17219003
0.0032996065 -0.0980222 0.09816815 -0.07825368 -0.031398423 -0.07682763 0.09942047 -0.14474992
0.13461241 0.027775778 -0.11763507 0.13546613 0.092123196 -0.10821789 0.09046924 0.1479622
-0.00054021546 0.07648877 -0.06830078 0.12824164 -0.11485082 0.14312014 0.11636215 -0.08443887
-0.16929968 0.13287973 0.14762723 0.058567043 0.08060062 -0.07353653 -0.024104483 0.115426406
-0.18239652 0.11425162 -0.0012823482 0.08798573 0.09402861 -0.006825029 0.0062019317 -0.0021538374
0.06195149 -0.04461354 0.021286763 -0.050713748 0.054514587 -0.11002254 -0.16476098 0.17265329
0.14241439 0.11005429 -0.013245767 0.08430758 -0.025281288 -0.12625022 -0.18327141 -0.004816868
-0.13431704 -0.096389085 0.016565967 0.1516808 -0.07990711 -0.1449421 -0.028270971 -0.0037271155
0.17253967 0.12789266 -0.15086249 0.10109819 0.17913048 -0.013034123 0.115346245 0.106241986
-0.22893444 0.005204401 -0.10766026 0.087538786 -0.027310837 -0.20822515 0.2012036 0.017883183
0.04473267 -0.058664847 -0.06349611 0.006515995 0.094567716 -0.115632445 0.089569785 -0.00829427
0.11433674 -0.11682592 0.1054499 -0.2069242 -0.059481446 0.13454771 -0.062982656 -0.13154079
0.0038851309 0.03081845 -0.026428487 0.053088985 0.13934425 0.06362606 -0.15838881 0.11814028
0.0044784313 -0.13416663 -0.14929536 0.14606677 -0.10942971 -0.11966976 -0.094086684 -0.109253846
-0.013409522 -0.028517852 -0.13921738 0.047479045 -0.09762628 0.017087674 0.131065 -0.09179454
-0.040799513 0.086532794 0.0149835 0.10634856 -0.06880377 0.10050811 -0.11513286 -0.13959578
0.018805955 -0.05930568 0.047990378 -0.07208046 0.04101285 0.13149124 0.033610743 0.17043371
-0.048812088 -0.029619154 0.04715725 -0.13034762 -0.003485196 0.14515239 0.14888352 -0.18411717
0.05499218 0.1095899 0.119376145 -0.09196763 -0.089031875 -0.07193962 0.079518475 -0.114618994
-0.06785733 0.04758768 -0.10933877 0.054343004 0.012194154 -0.17806466 0.15179068 -0.14338401
-0.021133676 0.16891438 0.10055702 -0.07497476 0.000975193 0.1290251 0.05537193 -0.1157622
0.14244713 -0.19396932 0.16079088 -0.13659345 -0.0019824228 -0.10763371 -0.08278663 -0.022000734
-0.14315379 0.11311507 -0.13660064 -0.032351106 -0.03162197 0.18559273 -0.1157315 -0.20024121
-0.04439096 -0.07737295 0.116714284 0.1362084 0.14977235 0.057550687 -0.041777026 -0.010176748

gru.bias_ih_l0 f4 [96]
00000000: 87ef 193d 920f aabd 78fc 033e 0da2 ca3c
00000010: be40 16be 757a df3d 224f 0dbe da67 11be
00000020: ea64 ff3d 5efc 163d 0bc9 08be 145a c0bc
00000030: 5ce7 243e 4500 d9bd 8277 05be c763 573d
00000040: d31e 98bd 01ba 9ebd e939 b33c 9db7 c4bd
00000050: 2db2 b93c 38f5 a3bd bc48 093e a49b c13d
00000060: 5582 30be 382c cbbd 00f5 9d3d b0cb 84bd
00000070: feab 51bd e3b0 383d 34ab 96bd 23eb 39bd
00000080: 5a9c 2b3e 622a 153c 3e7f efbd 3112 c13b
00000090: 9b71 623d e0b9 683b 703b 953d 5f24 9dbd
000000a0: 9e1c 6e3d a05e fdbd e701 153d 5a2c 1abe
000000b0: 5e7e 713d 1f39 923d c00a 06bd bebb 093e
000000c0: e3ea 3a3d 0047 19bd 4f72 05be 67fb 0f3e
000000d0: f8a4 7dbd a9e3 303d 8c61 433e ddf3 5ebd
000000e0: db2e 2b3d 55cf 88bd 5fba 92bd df00 c8bd
000000f0: 48cf 053e b1ef d7bd 5c31 2fbd e249 ab3d
00000100: 29a7 53bd b3ca 1ebd a066 05be 62dd 00bd
00000110: 6dcc bf3b c8d5 5b3c f49e 0abe 00b8 1a3e
00000120: 0027 ba3d deef 93bd 04a9 883d 4606 36be
00000130: ea35 4dbd 4436 93bd 6785 01be ce77 3b3e
00000140: d2be 613d dab0 0c3a b88a 183e 439c 8dbd
00000150: 3b2f edbb d77a 3f3d f6f6 063d 6466 023c
00000160: 5259 1dbe 3f34 acbc 225d e5bd c1e3 2ebe
00000170: 8c3d 40be 735d ff3c ddcb 853c 7073 473e
0.037581947 -0.08303751 0.12889278 0.024735475 -0.14673135 0.10912029 -0.13799718 -0.14199772
0.1247042 0.03686177 -0.13357942 -0.023480453 0.16103882 -0.105957545 -0.1303387 0.05258539
-0.07427754 -0.07750321 0.0218782 -0.09605334 0.022667969 -0.08005756 0.13406652 0.09453514
-0.17237218 -0.099205434 0.07712746 -0.06484163 -0.051189415 0.045090567 -0.07356873 -0.04539026
0.16758862 0.009104343 -0.116941914 0.005892061 0.055284124 0.003551118 0.072867274 -0.07672953
0.05813276 -0.12371564 0.036378767 -0.15055981 0.058958404 0.07139801 -0.032725096 0.13450524
0.04563416 -0.037421227 -0.13031887 0.14060746 -0.061924905 0.043185864 0.1908018 -0.054431785
0.04179273 -0.066801704 -0.07164454 -0.09765791 0.13067353 -0.105437644 -0.042771682 0.083637014
-0.05167309 -0.038767528 -0.1302743 -0.031461127 0.005853227 0.013417669 -0.13537198 0.15109253
0.0908947 -0.072234854 0.06672862 -0.1777583 -0.050100245 -0.07188085 -0.12648545 0.1830742
0.05511362 0.0005366929 0.14896667 -0.0691457 -0.0072382963 0.04674801 0.032950364 0.007958982
-0.15366104 -0.021021007 -0.11199404 -0.17079069 -0.18773478 0.03117249 0.016332561 0.1947763

gru.bias_hh_l0 f4 [96]
00000000: ee1a 0bbd 4c13 b83d adea 79bd 682d 463e
00000010: 0afa 02bd cecf 273e 2dfb fd3c c380 2a3d
00000020: b836 90bd b922 4e3c d5f2 a0bc dc3d 14be
00000030: 34d4 553d 34fe ff3d 3b11 47be 11af 05be
00000040: cd70 3d3e 2d89 4e3d d0da 93bd a88f 79bc
00000050: 38d8 1a3c 437d 01be 3c2d 20be aa45 263e
00000060: 1bb9 caba 881f 893d cc0f b3bd a2a8 58bd
00000070: 449e 14be fa69 2bbe 4117 1ebe b528 023e
00000080: 4adb 233e 33bd 10be 8656 e0bd e835 883d
00000090: f400 b73d 9f0e 1f3c 21a9 d33d d436 8a3d
000000a0: a16f babd 186c 1dbd 4345 103e 5ab1 8f3d
000000b0: 70e6 c63d 6f11 ed3a 8587 f63d ab6c fabd
000000c0: 2c68 21be 8bf6 35bd 8c15 13bd 3f38 6d3d
000000d0: 878a d4bc 3301 18be 874d 3c3d 40b8 2a3e
000000e0: ae59 533d b223 313e 5bcd 283e bf7a 393e
000000f0: abf4 e7bd e861 e8bd aa25 0dbc 1ec7 33be
00000100: 88a7 adbd 439f c93d 59ce 2e3e 49dd 09be
00000110: 0ea4 29bc ac32 c33d 5db4 c43d 9fa3 8f3b
00000120: 97e7 37bd 56d7 e7bd 86f1 a03d 0bac dabc
00000130: 1f46 08bc 514d 053e fd9d b23d e930 8c3d
00000140: 3171 0dbe 1940 063e 26ca 88bb 6957 6c3c
00000150: e929 15be e994 c43a 27bf 8abd db32 a1bd
00000160: d112 3c3b f78e 9fbc abd0 c73d d9e6 783d
00000170: 07ad 19be 6acc b9bd 8a5c 93bc 96a2 963c
-0.03396123 0.089880556 -0.06101482 0.19353259 -0.031976737 0.16387865 0.031003559 0.041626703
-0.07041687 0.012581521 -0.019647041 -0.14476722 0.052204326 0.12499657 -0.19440167 -0.13055064
0.18500061 0.05042379 -0.072194695 -0.015232004 0.009450965 -0.1264544 -0.15642256 0.16237512
-0.0015466543 0.06695467 -0.087432474 -0.052895196 -0.14513499 -0.16739646 -0.15438558 0.12710841
0.16001621 -0.14134674 -0.10954003 0.06650907 0.08935729 0.009708076 0.10334993 0.06748739
-0.09103323 -0.038433164 0.14088921 0.07016249 0.09711921 0.0018086861 0.12037567 -0.12227758
-0.15762395 -0.044424575 -0.03590922 0.05791497 -0.025944961 -0.14844207 0.045972373 0.16671848
0.051599197 0.17298773 0.16484587 0.1811323 -0.113259636 -0.11346799 -0.008614937 -0.17556426
-0.0847922 0.0984483 0.17070903 -0.1346332 -0.010354055 0.09531149 0.09604714 0.004383519
-0.044898596 -0.11320369 0.07858567 -0.026693365 -0.008317499 0.13017775 0.0872154 0.06845266
-0.1381271 0.13110389 -0.0041744886 0.014425137 -0.14566769 0.0014997992 -0.06774741 -0.07871028
0.002869774 -0.01947735 0.09756597 0.06076703 -0.15007411 -0.09072192 -0.017988462 0.018388074

output_layers.0.weight f4 [64, 32]
00000000: 26a3 05be 55a5 813d 8456 973d efe7 de3c
00000010: 7bfb cc3d 1121 133e 3471 6abd e755 b0bd
00000020: 4051 503d c6fc 923d 2608 44bb 1599 b4bc
00000030: 3d52 02bc a1a6 4bbd eabb b7bd fc31 fdbd
00000040: ff5a 4fbd 8d2b 91bd cf1e 353e 837b 253e
00000050: 453b 053e 9235 5f3d 0268 1bbe 5cfc a9bd
00000060: b60f 23bd 146a 373e e7bf cd3d 1601 1bbe
00000070: 47a6 de3d 5019 823d ffce 093d aa39 963c
00000080: b679 a4bd 0148 8abd 0681 91bd b55b a33d
00000090: dc7d 24bd 95cd 0d3e ec3b 323e 3f52 cf3a
000000a0: 1b37 283e 2250 0ebd 56cd 373d 29bf 383d
000000b0: 802a babd af35 333d 2c91 333e 2ef8 053d
000000c0: f960 173e 6ca3 99bb 32cf 5abd 16c2 d6bd
000000d0: 1772 713d 80b0 1ebe f18d 053b 7d05 c13d
000000e0: 0bab d03d c580 32bc 5604 babc 3715 1bbe
000000f0: d2f5 1cbe f137 b3bd 306e c7bd b915 43be
00000100: 4ef3 203e 0554 eebd e17f aabd ec7c 083e
00000110: 5023 093e f8f5 d9bc 74ed 193e 0a5f ce3d
00000120: 5dac 27bd 6e89 6dbd 90bf 0ebe 9082 833d
00000130: 4d2d 863d d4f3 9b3d bf0e 3e3e 4fc8 123e
00000140: 983d 0a3e 64aa f33c 9173 12bd 4ecd c9bd
00000150: 23c8 80bc 47a6 00be 600d 8abd 2daa 02bd
00000160: 509b ad3d ecdf 173c b648 103e 54d4 01be
00000170: cd5e 963d 5d0f 1f3e bb3f abbd fdfd b33b
00000180: 6226 c43d 8d52 2ebd 626c 80bd 5b5e 0ebe
00000190: 2e6c 4cba c87a 443d 1acf 88bc 5738 a63d
000001a0: 94e9 a43c 72e9 96bd f9ce 223e 88fc 903d
000001b0: c2e5 15bd a195 1a3e 20dc 41be 9527 0abd
000001c0: e793 f5bd 8959 d73d b9ae d83b 241f 383e
000001d0: 5924 43bd eb5f 28bd 1ded 0f3e e273 3cbd
000001e0: 89e0 2fbe 8539 123d 9afd 013e a230 36be
000001f0: 453b 2ebd 2082 833d 3059 5ebc 942e fcbd
00000200: af27 463e b5de d9bd d906 f63c bcae c8bd
00000210: 70c7 2a3e fcba 01bd 881c 203c a61e bc3d
00000220: a993 c53d 1f18 fe3d 9afc d1bd f081 fa3d
00000230: fca1 b4bc f625 a2bc fda0 70bd dce9 133e
00000240: e925 64bd c067 c7bd 4a22 01bd a039 8d3d
00000250: 7671 16bd 095a ae3d d36c e739 e0ee b83c
00000260: b277 623d ec65 a3bc 5d94 0bbe 1fe1 6a3a
00000270: 8928 2e3d fd66 04be ca4f df3d 5bd6 073d
00000280: 2bd7 88bd b52a ad3d ff06 093e 878d 8f3c
00000290: fdf2 aabd 78d4 733d a674 b6bc b0cd de3c
000002a0: fe89 163d 9497 453d 9e0d 2a3d 6f17 02be
000002b0: ea0a 343e 5ae9 e7bd 1167 5f3d ff6e b3bc
000002c0: 48d8 a73d bd1c bc3d 0ad5 d03d 99ed a2bd
000002d0: e877 c8bd 6036 1bbd dcb4 543e 5aa3 283e
000002e0: e02d fbbb 3ddb ed3d a470 993d 19f5 e13d
000002f0: 70b9 c73b 9951 ccbd a661 3b3d bb40 67bd
00000300: e662 193d 0038 52bd 8837 cdbd 5528 f73d
00000310: 2325 2abe d086 06be d8bc 41be 3692 e1bd
00000320: fba4 61bb e391 e23d b678 1e3d 8926 08be
00000330: b4c3 dfbd 334b d63d 1018 bdba 4062 c83d
00000340: adc2 a63d 49fa 25be 06d0 04be 925f f53d
00000350: 8fa1 a7bd 17b8 0fbb 97bf 23bc d715 0cbe
00000360: 8df7 26bd 5399 a73c ab3e 69bd 59c3 103e
00000370: 8415 853d e1d5 213e 04aa 283d 1f0f debb
00000380: e597 413d ce1a 1cbd df78 e33d 28bc 8e3d
00000390: 7b7f 493c 7270 d53c 4ad2 0fbd 9212 07be
000003a0: 7719 303b d7af d4ba b078 80bd eb13 d9bd
000003b0: 26bc d83d 97a2 383e febb 28be 43fb ee3d
000003c0: 98aa 253e e116 9abd f7e9 ae3d 8fcb 81bd
000003d0: 172a 00bd 5611 62bd d4c7 983c be9c a63d
000003e0: c9ca 243d b5ee e8bd add0 c83c 7f29 0cbe
000003f0: 8367 373e 79b5 0dbe dff4 2c3e e666 ea3d
-0.13050517 0.06330363 0.073895484 0.027210204 0.100089036 0.14368083 -0.057236865 -0.086101346
0.050858736 0.07177119 -0.0029912083 -0.022045651 -0.007954177 -0.049719457 -0.08971389 -0.123630494
-0.05062389 -0.07088385 0.17687534 0.16160397 0.13010891 0.054494448 -0.15176395 -0.08300087
-0.039809905 0.1791156 0.10046368 -0.15137133 0.10871559 0.06352484 0.033644672 0.018338043
-0.08031027 -0.06752015 -0.071046874 0.07976476 -0.04015909 0.13847955 0.17405671 0.0015817358
0.16427271 -0.03474439 0.044873558 0.04510418 -0.090901375 0.04375237 0.17535847 0.032707386
0.14783086 -0.004688671 -0.053420253 -0.10486238 0.058946695 -0.15497017 0.0020378793 0.09424875
0.10188874 -0.010894959 -0.022707146 -0.15144812 -0.15328148 -0.08750904 -0.097378135 -0.19051255
0.15717813 -0.11637119 -0.08325172 0.13328904 0.13392377 -0.026606545 0.15031987 0.10076721
-0.040935863 -0.05799239 -0.13940263 0.06421387 0.06551609 0.07614866 0.18560313 0.14334224
0.13500059 0.029744335 -0.035754744 -0.09853612 -0.015720433 -0.1256343 -0.06740832 -0.031900574
0.08476889 0.009269696 0.14090237 -0.12678653 0.073423006 0.15533204 -0.08361765 0.0054929242
0.095776334 -0.042559195 -0.062706724 -0.13903181 -0.00077981025 0.047968656 -0.016700316 0.08116215
0.02013091 -0.07368745 0.15899266 0.070794165 -0.036596067 0.15096141 -0.18931627 -0.033729155
-0.11991101 0.10515124 0.0066126254 0.17980629 -0.047642086 -0.0411071 0.14055295 -0.046008952
-0.17175497 0.035699386 0.12694398 -0.1779199 -0.042536993 0.06421304 -0.013571069 -0.123135716
0.19351076 -0.10638181 0.030032562 -0.09798953 0.16677642 -0.031672463 0.009772427 0.09185533
0.096473046 0.124069445 -0.10253258 0.12231815 -0.022049896 -0.019793492 -0.05874728 0.14444679
-0.055700216 -0.097365856 -0.03152684 0.06895757 -0.0367293 0.085132666 0.00044140834 0.022574842
0.05528993 -0.019946061 -0.13630815 0.0008959937 0.042519126 -0.12929912 0.109038904 0.03316341
-0.06681665 0.08455411 0.13381575 0.01752354 -0.083471276 0.059528798 -0.02227242 0.027197689
0.036752693 0.04824026 0.041516893 -0.12704252 0.17582288 -0.11323805 0.05454165 -0.021903513
0.08195549 0.09185169 0.10196884 -0.079554744 -0.09788495 -0.037893653 0.20772117 0.16468564
-0.007665381 0.11614082 0.074921876 0.11033077 0.006095104 -0.09976501 0.04574742 -0.056458216
0.037447833 -0.051322937 -0.10020357 0.120682396 -0.16615729 -0.13137364 -0.18919694 -0.11014216
-0.0034430611 0.11062982 0.038689338 -0.1329595 -0.10925999 0.10463562 -0.0014426727 0.09784365
0.081426 -0.16208757 -0.1296998 0.11981119 -0.08185112 -0.0021929794 -0.009994409 -0.13680206
-0.040763427 0.020458853 -0.05694453 0.14137019 0.064982444 0.15804245 0.041177765 -0.006776705
0.047264 -0.0381115 0.11107039 0.06969482 0.01229846 0.026054595 -0.035112657 -0.13190678
0.0026870647 -0.0016226721 -0.06273019 -0.10599502 0.105827615 0.18030773 -0.16477963 0.11669018
0.16178358 -0.07523895 0.08540719 -0.06337654 -0.03129014 -0.055192314 0.018649973 0.08135365
0.040232453 -0.11373655 0.024513567 -0.13687705 0.1791058 -0.13838758 0.16890286 0.114454076

output_layers.0.bias f4 [64]
00000000: deac be3d a038 c1bc 9e9d 833d b079 cebd
00000010: 34b8 87bd 00f4 693d 5c8c 0c3e 4d98 cf3d
00000020: 2ccc 33be 76ba 4ebd 015b 063e 9ca1 d4bd
00000030: 6677 453d f10f 0dbe 72bc 023e 262d 0abe
00000040: 2d8a 293e 38b1 ff3d 91cf 54bd 6640 34be
00000050: 8a6c 97bd 51c0 25bc 1066 fb3d 14dd 113d
00000060: f1f2 113e eacc 033e 8d9b 813b 48e5 eabd
00000070: 8c8f 9d3d 30d1 be3c 8906 053e 33ed eabd
00000080: 9b22 5a3b ac71 ba3d 5353 f2bc d19e c33d
00000090: ac90 34be b3e0 a53d 560b 24be 1398 7dbd
000000a0: 2669 00be 49fe 803d b662 dbbd 4ffa 11be
000000b0: 9281 b3bd 0492 10be cab0 5aba 72e9 a0bd
000000c0: 5a5f 01be d935 f1bd c596 9ebd bc0c 0cbd
000000d0: 18bb 253d 1d24 b4bd d36c bf3d 513c 0b3d
000000e0: aba1 9b3d ff27 22be 4e64 413c f3f6 17be
000000f0: 2ec4 20be 1b56 df3d 053b 8f3d 6165 40be
0.093103155 -0.023586571 0.064265475 -0.10081804 -0.06626931 0.057117462 0.13725418 0.10136471
-0.17558354 -0.05047079 0.13120653 -0.10382387 0.04820957 -0.13775612 0.12767199 -0.13493785
0.16556616 0.12484974 -0.051955763 -0.17602691 -0.07393749 -0.010116653 0.12275326 0.035611227
0.14252831 0.12871137 0.0039553107 -0.11469513 0.07693395 0.023293108 0.12990774 -0.114710234
0.0033284787 0.091037124 -0.029580748 0.09551776 -0.17633313 0.080994986 -0.1601995 -0.061912607
-0.12540111 0.06298501 -0.10712187 -0.14255641 -0.08764948 -0.141182 -0.00083423837 -0.07857026
-0.1263403 -0.11777849 -0.07743601 -0.034191832 0.04046163 -0.087959506 0.093469284 0.03399307
0.07599195 -0.1583557 0.0118037 -0.14840297 -0.15699837 0.10905095 0.06993679 -0.18788673

output_layers.3.weight f4 [32, 64]
00000000: 5e8d 3d3d 094f 04bd 63c8 5bbd 7912 cb3d
00000010: e66a 1e3c c24f 7fbd 5538 3cbd ceb4 7b3d
00000020: bca6 5ebd cd28 28bd 7ca7 adbc f381 00be
00000030: f1e6 94bc 8006 52bd dcef 8abd a540 9d3d
00000040: 10fc 5dbd 09b0 2fbd 6f09 b5bd 3617 abbc
00000050: 1880 42bd e84e 62bd 47b6 6f3b 9c56 bfbb
00000060: 50f2 eebc 55a5 82bc 7bc3 f63c cc74 c0bd
00000070: 296f 463d ad4a 3abd 04b1 e83d c145 903d
00000080: c116 803d 633f 943c 639c b8bd b18e ab3d
00000090: e8d6 cfbd 36da 0abd 95d1 82bd b65c cdbd
000000a0: d391 0c3e 0673 113d 0e82 4dbc e9ad b93c
000000b0: 19a1 983d 0d0b 003d 4ac0 a6bc 1344 98bb
000000c0: 7026 13bd 3ca7 7fbd e616 e03d 12a5 cc3d
000000d0: 757c dd3c 54cc c83c c4de df3c 9dff 4ebd
000000e0: 7795 8fbd ff39 23bd caec 83bd ddf7 0fbe
000000f0: 6cc1 10bb 031c ad3d 85fc 603d 712b 82bd
00000100: e3f2 c73d 3154 af3d cb0a b33c d578 223b
00000110: 3ffe b4bd c6fe b0bd 1574 103d 2fd6 c63b
00000120: 213e 0bbd 851c bb3d cb08 babd c27b acbd
00000130: 42ce b63d a2c7 523d ed18 fabc 87ec 603d
00000140: 1e2c 8dbb 1cef d9bd baa4 823d 4985 bd3d
00000150: a820 d53c 90fe 84bd 5d11 2dbd 25b2 f5bc
00000160: 3431 96bd a87d f23d ef91 79bd 2fad a83d
00000170: 5a57 06bd 45b3 bdbb 088a 833d afc2 eb3d
00000180: 2c46 3cbd e5e5 2e3c 033e 623c ee7c 00bd
00000190: c5ad d63d 830e f73d c6fe acbd a4db 13bd
000001a0: 934c 2d3d f180 43bd 1161 0b3e 1c68 8b3d
000001b0: cd8c 09bc 86fe 3a3c ea31 1d3c cf9f 8b3a
000001c0: d88b db3d e83f c63d a338 503d b875 aa3d
000001d0: 7475 ff3b d2c3 afbb 0a2b 513d 04a3 0b3d
000001e0: 80ef f0bc d071 e0bb 0249 e43d 02f9 3d3d
000001f0: 1b20 01bd 4a9a 023d 3f0b d5bd 5a50 28bd
00000200: 4787 473d 5147 c83d 2035 02be 162f 873d
00000210: 27ac 64bd 7e8d 9a3d 7c89 cd3d ffcf 373d
00000220: 3ae7 a0bd 708d 19be f543 32bc 0cc1 01bd
00000230: 0dc1 a4bd af16 983d d697 c93c 3720 98bd
00000240: afab 803d f1b8 fdbd fb80 95bd 70e7 2ebc
00000250: cdca 633b 18a9 13be 3166 85bd e86e 07bd
00000260: 3add a7bc b858 0bbe 52a4 e2bd 75d1 d1bd
00000270: 96b5 03be a45b 35bd a533 8b3d e2d2 09be
00000280: 40f9 903d b9ca 56bd e18a 28bd b7b5 383d
00000290: fe45 2dbd e8ba d03c d2e6 6ebc 6f72 373d
000002a0: aff2 63bd aa64 c3bd e231 f4bd 1635 7b3d
000002b0: d43f 13be b0ca e03d 11bd 7e3d 02ab 9ebd
000002c0: 7fb6 02be 08b1 9a3c bff1 83bc a3d3 cfbd
000002d0: 1082 e3bd 3122 43bc 1f09 ed3b 2017 613d
000002e0: 94d6 7b3d b8fa a1bd 0a90 463d a7f2 47bd
000002f0: ae6e a03c ff2c 3e3c 5340 debd fd03 4f3b
00000300: a203 edbd 5146 cfbd 9b49 173d 4bb8 b0bd
00000310: b371 383d 5b09 c6bd 5627 8b3d 7fbb 9cbd
00000320: 0af8 1b3d 8ff8 44bc 9c08 9d3d a9f0 443c
00000330: a980 8fbc 4c18 643d ae23 f5bc 96ef 51bd
00000340: 1f5b 1a3d 9487 a3bd 1e44 f7bd aa0b 50bc
00000350: ae3b a43d f801 a1bd 642c b1bd bdce 9dbd
00000360: 4bca a9bd 8a18 06bd c647 05be ed4f 03bb
00000370: 42bb d73d f87a 283c 1a1d 6f3d b50b 003d
00000380: 4ad2 dfbd c0ce 90bc 1b5e f0bc 12fc d2bc
00000390: 4817 1a3d b6e0 42bd 5001 92bd 8f67 79bd
000003a0: 7dcf 5e3c 2042 9dbd a96c 773d 4265 ff3b
000003b0: 4f15 f93d 6471 13bd 9585 cf3d f2f3 f0bd
000003c0: e96c 6c3d b94e 483c 0cb2 c23d 17ea 523d
000003d0: f4a0 963d a878 c5bd b26f 21bc f875 05be
000003e0: 4d37 ae3d b843 273b 0833 743d 4691 803d
000003f0: 8190 7dbd c753 4cbd cfb9 d63c 0992 a8bd
0.046277396 -0.032301936 -0.0536579 0.09915633 0.009669041 -0.062331922 -0.04595216 0.061451726
-0.05435823 -0.041054536 -0.021198027 -0.12549572 -0.018176528 -0.05127573 -0.06784031 0.076783456
-0.054195464 -0.04289249 -0.0883969 -0.020885091 -0.04748544 -0.055251032 0.0036577152 -0.005839182
-0.029168278 -0.015947977 0.03012251 -0.09397277 0.048445854 -0.045481373 0.11361888 0.070445545
0.0625434 0.018096631 -0.090142034 0.083768256 -0.10148412 -0.03389951 -0.06387631 -0.10027449
0.13727503 0.035510086 -0.0125432145 0.022665935 0.07452602 0.03126054 -0.020355362 -0.004646787
-0.03592533 -0.062415347 0.109418675 0.09992422 0.027036885 0.024511494 0.027327903 -0.05053674
-0.0701093 -0.03985023 -0.06441648 -0.14059396 -0.0022087945 0.084526084 0.05492832 -0.06355942
0.09763124 0.0856098 0.021855732 0.002479126 -0.08837556 -0.08642344 0.035266954 0.006068013
-0.033994798 0.09136299 -0.090837084 -0.084220424 0.08926059 0.051459916 -0.030529464 0.05491307
-0.0043082377 -0.106413096 0.06379075 0.09253938 0.026016548 -0.064938664 -0.042252887 -0.029992172
-0.073336035 0.11840373 -0.06093019 0.08236157 -0.03279815 -0.005789193 0.06422812 0.11511742
-0.04596536 0.010674928 0.01380873 -0.031369142 0.10482363 0.12063315 -0.08447032 -0.036098137
0.042309355 -0.04773039 0.13611247 0.06806967 -0.008395386 0.011413222 0.00959442 0.0010652485
0.107200325 0.09680158 0.050835263 0.08323234 0.007795984 -0.00536392 0.051066436 0.03409101
-0.029411077 -0.006849505 0.11146738 0.04638005 -0.03152476 0.031885423 -0.10402536 -0.041092254
0.048712995 0.097792275 -0.12715578 0.06600778 -0.05582824 0.07546519 0.10035989 0.044876095
-0.07856603 -0.1499536 -0.01088046 -0.031678244 -0.08044634 0.074262016 0.024608534 -0.074280195
0.06282746 -0.123887904 -0.07299992 -0.010675296 0.003475833 -0.14419973 -0.06513632 -0.033064753
-0.020491231 -0.13608062 -0.11066498 -0.10245029 -0.12862238 -0.04427685 0.0679696 -0.13459352
0.07078791 -0.052439425 -0.04114807 0.04509517 -0.042303078 0.025479749 -0.014581399 0.044786867
-0.055651363 -0.095406845 -0.11923577 0.061329924 -0.14379817 0.109761596 0.062192027 -0.07747461
-0.12764929 0.018883243 -0.016106484 -0.101477884 -0.11108792 -0.011910007 0.0072337533 0.054953694
0.061483935 -0.07909149 0.04847721 -0.048815396 0.019584026 0.011607408 -0.108521126 0.003158807
-0.115729585 -0.10120834 0.03693543 -0.08628901 0.045030307 -0.09669753 0.06794612 -0.076529495
0.038078345 -0.012022152 0.07667658 0.0120202685 -0.017517405 0.055687234 -0.02992424 -0.051253878
0.037684556 -0.07984844 -0.12073539 -0.012698093 0.080191955 -0.07861704 -0.08651045 -0.07705448
-0.082905374 -0.032738246 -0.1301566 -0.0020036653 0.105337635 0.010283224 0.058377363 0.031261165
-0.10928781 -0.017676711 -0.029341748 -0.025754962 0.03761986 -0.047577582 -0.071291566 -0.060889777
0.013599274 -0.07678628 0.06040636 0.0077940533 0.121622674 -0.03599681 0.101329006 -0.11765279
0.057721052 0.0122258 0.09506616 0.051492777 0.07354918 -0.09642154 -0.00985329 -0.13033283
0.085066415 0.0025522541 0.05961898 0.06277709 -0.061905388 -0.049884584 0.026211647 -0.08230979

output_layers.3.bias f4 [32]
00000000: 0a58 113e 8209 f13d 329c 56bd 9658 84bd
00000010: 0fcc 81bb 2a22 583d 3fef dd3d b93b 9dbc
00000020: d49e f33d 3240 07be 75c3 23bc b410 dd3d
00000030: 8b20 903d e829 e3bd 4db2 debd a2b8 0a3d
00000040: 7aec c9bd 5ff6 bdbb 7da0 793d 30f1 f7ba
00000050: 9e4f 24bc 60e8 223d d639 293e 33fc 8e3d
00000060: a873 093d 1fcb 943d df18 90bd 1083 a5bd
00000070: 72c7 b23d 1864 f0bd b3c3 c23c 5efa 0abd
0.1419374 0.117693916 -0.052395053 -0.06462209 -0.0039610933 0.052766956 0.10836648 -0.019193517
0.118955284 -0.13208082 -0.009995331 0.107942015 0.07037457 -0.11091977 -0.10873852 0.033867486
-0.098595574 -0.005797192 0.06094407 -0.0018916484 -0.010028748 0.03977239 0.16525969 0.06981697
0.033557564 0.07265305 -0.07035994 -0.08081639 0.087294474 -0.11737841 0.023774957 -0.033930175

output_layers.6.weight f4 [2, 32]
00000000: d466 203d 00fb c9bc 7bb6 f93d 24b2 b3bd
00000010: a6f6 0b3d 389f 1139 7d39 d6bb 4311 f53d
00000020: 0a7f 8abd 8abd af3d 8fc0 72bd c0bc 5c3b
00000030: 79b8 ee3d 1f82 a43c 7643 dc3d e49b 84bd
00000040: ffdc db3b d586 75bd da8c bcbd a7b9 f83d
00000050: fe5b 26be d740 22be 583b 1fbc 975b 4bbc
00000060: b87d 613c 084b 36bd 92be b2bc bec4 7d3d
00000070: 83ff c0bc ff94 ddb9 13ac e0bc 06b5 033e
00000080: 06c6 e63d f872 0b3d d8c3 4c3c 6313 08bd
00000090: 1899 1fbd daa5 ba3d 6d9e ae3d 3fe1 0fbd
000000a0: 14c3 133e 0e4d 49bd 82b5 f23d b9d2 b63d
000000b0: 6747 483b f248 d93d b753 20bd c4b1 b43d
000000c0: 39e0 85bd cedf 86bd 4d62 dbbd db5e 39bc
000000d0: 2363 9fbd 819c 64bd 1522 5b3d 1242 9a3d
000000e0: a1ec d1bd b93d e93d b57e 6bbd b782 1abc
000000f0: b098 1a3e 86c5 1cbe 0008 cebc f90a cbbd
0.039160565 -0.024655819 0.121930085 -0.08774212 0.03417077 0.00013887591 -0.006537615 0.11966183
-0.06762512 0.085810736 -0.05926567 0.003368184 0.11656279 0.020081578 0.10755055 -0.06475046
0.0067096944 -0.05994304 -0.09206553 0.121447854 -0.1624603 -0.15845047 -0.0097187385 -0.012411973
0.013762884 -0.04450515 -0.021819387 0.061955206 -0.023559337 -0.00042263416 -0.027425801 0.12862024
0.11268239 0.03404519 0.012497865 -0.033221614 -0.03896436 0.09113665 0.08526311 -0.03512692
0.14429885 -0.04914575 0.11851026 0.08926911 0.0030560137 0.10609616 -0.039142337 0.088229686
-0.06536908 -0.06585656 -0.10712109 -0.011314119 -0.07782581 -0.055813316 0.0534993 0.07532133
-0.102502115 0.11388726 -0.057493884 -0.009430579 0.15097308 -0.15309724 -0.0251503 -0.09914202

output_layers.6.bias f4 [2]
00000000: 696e b43c a2f7 ddbc
0.022025304 -0.02709562

exp_avg f4 [96, 15]
00000000: af61 2e36 2b57 2f36 2a00 3636 0f61 3536
00000010: 324e 4eb4 4400 1235 8654 3935 cacd e734
00000020: ea42 feb4 38f1 f535 84e0 40b4 f83b b8b3
00000030: 0000 0000 4580 c4b3 a233 81b3 8169 95b4
00000040: 6d04 a2b4 cea4 98b4 59f6 a3b4 f73a e9b4
00000050: cb9d bbb3 7ab2 96b4 8013 a7b4 c09e 1db4
00000060: 0375 9ab4 a542 9eb4 4ef9 8e32 0000 0000
00000070: af5e 2731 bc60 4b32 829e 39b5 23bf 3ab5
00000080: 9d71 3eb5 273a 3fb5 2312 29b4 7468 99b4
00000090: c3e1 7bb4 1361 3eb3 b5e5 6933 9b87 94b4
000000a0: b73d 39b3 3bf8 8032 0000 0000 e797 a4b3
000000b0: c3b2 99b2 9177 d033 e2ab a733 89dd c133
000000c0: bd02 a333 ac49 5fb4 fa93 c0b3 0f5e 07b4
000000d0: 014f beb3 a318 38b4 bac3 8733 839b 10b4
000000e0: 8097 e031 0000 0000 7b05 f130 2a3c a031
000000f0: dac0 6e34 4ee6 6734 bf79 7634 1335 6734
00000100: 32e7 09b4 e52e 29b4 5c5e f1b3 cefc 9eaf
00000110: 372b 07b4 e491 2034 1b2f a5b3 a9e7 d9b2
00000120: 0000 0000 134f 8eb2 06a4 03b3 013e 8b35
00000130: 5beb 8835 f6e8 8f35 5f16 8c35 a88c 87b4
00000140: 47f5 1fb3 5eee a3b3 7961 98b3 37ea bfb4
00000150: 71bf b634 0071 46b4 23a6 bdb2 0000 0000
00000160: 176f 74b2 9cdc 59b2 3f4f 0a35 2d52 0035
00000170: fbf6 0f35 6665 0235 67c2 22b5 d740 e0b3
00000180: d0ad 90b4 0437 95b4 1daf 0bb5 e7fa 6a33
00000190: c3ae dbb4 0ed1 b4b1 0000 0000 72c2 b1b1
000001a0: 01d8 7db1 17a0 e434 0a8f e434 c767 e334
000001b0: 2778 e034 a87c 0734 2818 4431 36c1 15b3
000001c0: 51bc 61b3 c3e8 ce32 719d 5f34 6b38 1a33
000001d0: 5039 2333 0000 0000 b99f 0a33 538e 3a32
000001e0: 7f49 12b4 d5ea 1bb4 0369 0eb4 f74e 12b4
000001f0: 7e0a 09b4 12ab f833 203f 3c33 ec44 6cb3
00000200: 2028 3f32 d4bf 2b33 478f 42b3 ce5b 44b2
00000210: 0000 0000 d8a4 88b2 1c68 03b2 af24 60b4
00000220: 9edf 7bb4 127a 73b4 ca4b 72b4 3c8e 9533
00000230: 3d03 46b2 0214 1c30 8ab9 5632 a5a0 ee33
00000240: 9116 a633 ab3c e333 f4e9 acb1 0000 0000
00000250: c526 01b3 3eae 6cb2 44fc 04b6 91e4 05b6
00000260: c3e6 0bb6 9bda 09b6 c612 bf34 989e 7db4
00000270: a06a b5b4 90ca 81b4 e68c 0d35 9b22 7bb5
00000280: b467 aa34 4755 3333 0000 0000 b339 8333
00000290: 0129 1f33 d251 f8b4 a265 f5b4 d7d0 06b5
000002a0: 08e8 05b5 a6a4 1c34 4174 11b4 1cc9 89b4
000002b0: e1fd 74b4 f0fd 9434 3a6b a1b4 31df 3834
000002c0: 5ac1 1633 0000 0000 3a93 8134 fb53 0733
000002d0: 886c 0634 f5bd 0034 c641 0a34 94cf 0134
000002e0: d876 f5b3 e03e 7e33 0c13 5133 e9c1 1f32
000002f0: c2f0 9cb3 cf32 5b34 1352 b6b3 5030 1f31
00000300: 0000 0000 5594 cab1 9ff5 ec2d 92ba 1c34
00000310: 3621 1934 bba4 2134 e329 1b34 e21a 81b3
00000320: 10e5 70b3 b2c0 2fb3 4fbd c0b0 c185 b6b3
00000330: e26b 1b34 b791 46b3 b422 17b0 0000 0000
00000340: bf3c b2b2 84af d5af 6191 1e34 efe6 1b34
00000350: eb04 2234 e7c1 1c34 15cf 96b3 f25e a4b2
00000360: dff7 52b3 8624 59b3 8cd6 a9b3 5cd6 c633
00000370: da13 a8b3 0219 c4b1 0000 0000 0720 57b3
00000380: de9a 7fb1 4851 9fb3 4422 a4b3 f596 c1b3
00000390: 398e b6b3 a55d 25b3 6a76 71b4 212a d9b3
000003a0: 9877 b433 58f1 f733 bcc6 b734 4c01 1233
000003b0: e075 f5b1 0000 0000 e569 50b2 5f0d 94b1
000003c0: 1ef8 e334 1a1d d334 d132 e734 e320 db34
000003d0: efb4 ceb4 6e90 e033 585e 1cb4 054d a8b4
000003e0: 37e0 c1b4 5ab4 3b35 c0a6 8cb4 7f41 8a33
000003f0: 0000 0000 78e2 80b1 4e40 ffb1 5e45 b9b3
2.598488e-06 2.612777e-06 2.712021e-06 2.7027597e-06 -1.9213692e-07 5.4389625e-07 6.904087e-07 4.3176834e-07
-4.7359873e-07 1.8324126e-06 -1.7963072e-07 -8.579076e-08 0.0 -9.150293e-08 -6.0164226e-08 -2.7830177e-07
-3.0178072e-07 -2.8432117e-07 -3.0540357e-07 -4.3442535e-07 -8.7365684e-08 -2.8069536e-07 -3.1120362e-07 -1.4679517e-07
-2.8769873e-07 -2.9478284e-07 1.6644346e-08 0.0 2.435552e-09 1.183815e-08 -6.914853e-07 -6.956854e-07
-7.0945845e-07 -7.123767e-07 -1.574595e-07 -2.857447e-07 -2.3458328e-07 -4.432611e-08 5.4458457e-08 -2.7665814e-07
-4.31298e-08 1.5014043e-08 0.0 -7.664476e-08 -1.7892836e-08 9.707504e-08 7.807809e-08 9.02756e-08
7.590777e-08 -2.0795295e-07 -8.9676135e-08 -1.2607073e-07 -8.861935e-08 -1.7145298e-07 6.32203e-08 -1.346762e-07
6.5364816e-09 0.0 1.7536615e-09 4.6634527e-09 2.2235636e-07 2.1597336e-07 2.2954826e-07 2.153286e-07
-1.2843228e-07 -1.5756412e-07 -1.1239601e-07 -2.891966e-10 -1.2588576e-07 1.4954236e-07 -7.69198e-08 -2.5367472e-08
0.0 -1.6566934e-08 -3.0649993e-08 1.0374353e-06 1.0201287e-06 1.0722131e-06 1.0437324e-06 -2.524805e-07
-3.724315e-08 -7.633638e-08 -7.095782e-08 -3.5746936e-07 3.4039434e-07 -1.8481296e-07 -2.2078046e-08 0.0
-1.4227928e-08 -1.2681223e-08 5.1524324e-07 4.78033e-07 5.3631055e-07 4.857633e-07 -6.0632595e-07 -1.0442607e-07
-2.6948555e-07 -2.7793442e-07 -5.203636e-07 5.4710565e-08 -4.0919085e-07 -5.2624562e-09 0.0 -5.173484e-09
-3.693913e-09 4.258479e-07 4.2572384e-07 4.2357553e-07 4.1810674e-07 1.2618204e-07 2.8535485e-09 -3.486749e-08
-5.2558168e-08 2.4087404e-08 2.082577e-07 3.590723e-08 3.800352e-08 0.0 3.2275896e-08 1.0858986e-08
-1.3624047e-07 -1.4520931e-07 -1.3262984e-07 -1.3626037e-07 -1.2762936e-07 1.15795174e-07 4.3829573e-08 -5.5010716e-08
1.1126787e-08 3.9988507e-08 -4.5299455e-08 -1.14295755e-08 0.0 -1.5907446e-08 -7.648875e-09 -2.0874971e-07
-2.3457548e-07 -2.2675547e-07 -2.2565578e-07 6.9642255e-08 -1.1525853e-08 5.67809e-10 1.2498626e-08 1.111196e-07
7.734082e-08 1.0581547e-07 -5.0324562e-09 0.0 -3.0070414e-08 -1.3776626e-08 -1.981637e-06 -1.9951588e-06
-2.0846935e-06 -2.0541836e-06 3.5590182e-07 -2.3620157e-07 -3.3791457e-07 -2.4175506e-07 5.273163e-07 -9.3555144e-07
3.1740421e-07 4.1754245e-08 0.0 6.110658e-08 3.7057365e-08 -4.6253132e-07 -4.5708754e-07 -5.022279e-07
-4.988401e-07 1.4588531e-07 -1.354647e-07 -2.5664565e-07 -2.2816631e-07 2.7751912e-07 -3.0066604e-07 1.7217532e-07
3.510045e-08 0.0 2.4135244e-07 3.1508517e-08 1.2519206e-07 1.1990035e-07 1.287618e-07 1.2089578e-07
-1.1430319e-07 5.9196168e-08 4.8678928e-08 9.299108e-09 -7.30811e-08 2.0414448e-07 -8.4899646e-08 2.3165008e-09
0.0 -5.895837e-09 2.6939171e-11 1.4596506e-07 1.4261317e-07 1.5054222e-07 1.4450738e-07 -6.0119206e-08
-5.6087686e-08 -4.0920618e-08 -1.4023643e-09 -8.499365e-08 1.4474747e-07 -4.6232994e-08 -5.4982796e-10 0.0
-2.0749551e-08 -3.8869186e-10 1.4767785e-07 1.4519513e-07 1.5089215e-07 1.4599173e-07 -7.022587e-08 -1.9135289e-08
-4.9119873e-08 -5.0557468e-08 -7.9087016e-08 9.259085e-08 -7.8267206e-08 -5.707194e-09 0.0 -5.0087717e-08
-3.7195416e-09 -7.4187994e-08 -7.643078e-08 -9.014722e-08 -8.5009056e-08 -3.8502225e-08 -2.2487953e-07 -1.0112513e-07
8.403657e-08 1.1545734e-07 3.4231005e-07 3.3994453e-08 -7.1438393e-09 0.0 -1.2131271e-08 -4.308887e-09
4.2462574e-07 3.9322987e-07 4.3064077e-07 4.0815857e-07 -3.8502137e-07 1.04570844e-07 -1.4562954e-07 -3.1348478e-07
-3.611219e-07 6.9925375e-07 -2.619836e-07 6.4380394e-08 0.0 -3.751037e-09 -7.4287874e-09 -8.6273516e-08

exp_avg_sq f4 [96, 15]
00000000: 08e3 262e dcad 262e 2ca5 2d2e 8ac4 2d2e
00000010: 3ee4 e02c a328 242d 7f92 e42c d84c 512c
00000020: eda6 bb2c 9758 142e 90fc fc2b d3df 1a2a
00000030: 0000 0000 d003 4c2a eab9 9829 b0ae 3d2d
00000040: 74ac 3c2d 27bc 332d 3394 382d ac49 6d2d
00000050: 075b 162d d105 752d 6c45 b02d bae0 922d
00000060: 3463 832d 9a84 012d e5fe da29 0000 0000
00000070: 50c4 0b2a cbd4 5729 e818 012f 954d fc2e
00000080: ddbb fc2e 7361 f72e 03dd 212e 95ae 442e
00000090: 1823 762e b283 0d2e db6f 092e b12a 7f2e
000000a0: 4668 632d bc0c 232b 0000 0000 e370 792b
000000b0: e28f 6d2a 8423 082f 5986 082f 5c1f 052f
000000c0: 916b 042f 92ac 9f2e ddff 022e 43c7 772e
000000d0: 8835 862e 0e5a 302e 6e88 162e d79d d22d
000000e0: aa5b 172b 0000 0000 833c 4a2b e305 922a
000000f0: 5922 b52e bb3f b42e aea0 b42e 314c b42e
00000100: af18 a72d 22ce 792d 1b79 902d 79fb 932d
00000110: f3d3 7e2d 54dd 282e abfc e12c fadf 8c2b
00000120: 0000 0000 015f af2a 52d5 b92b 122f 2f2e
00000130: 05a6 2b2e 3eed 322e 7014 302e c9e1 8a2d
00000140: 7976 872d b7bc 8f2d 0bed 432d 5558 902d
00000150: 8098 c62e 14f2 fd2c cc20 a92a 0000 0000
00000160: 4c9d c62a e8e5 6c2a feef 952e 1c91 932e
00000170: 2f0d 972e 352d 942e c05f 372e e8d1 5e2e
00000180: 3b89 242e ef1b e82d c656 c72d 3281 322f
00000190: 5b42 482d e46b 1c2b 0000 0000 2237 502b
000001a0: 051b 9a2a 526a b62d 4cf5 b92d 058b bd2d
000001b0: 09f0 bd2d 5fc3 ba2c d4d9 0e2d ef1d 862d
000001c0: 9862 8e2d 6d34 612d 5b9f 312d 704b 592c
000001d0: 8eb7 602a 0000 0000 1fe2 0d2a 71d4 4229
000001e0: 0cfa 102e 9dbe 112e 95c0 0b2e b1d6 0b2e
000001f0: fb65 cd2d 7654 d92d 683f b12d fe55 1e2e
00000200: 2830 e92d 7027 542e 217a 5b2d 2c1b 052b
00000210: 0000 0000 ff77 392b ce02 892a 2810 962f
00000220: 138a 902f 5048 912f a0cc 932f 47e4 e22e
00000230: 180a ae2e 4c1f 142e 59b5 072f 166d 172e
00000240: 6963 4a2f 5ee7 8a2d 7900 c22b 0000 0000
00000250: 9d87 fd2b ea6a 402b a27c a42e 5063 a22e
00000260: 4a0c a62e a678 a52e 1ea9 002e 6a77 a72e
00000270: 575c 112e 3c24 022e eaab c72d 143b cb2e
00000280: c0a9 392d b132 0d2b 0000 0000 db7d 3d2b
00000290: 5db4 8b2a 2386 dd2d 6d40 e02d afc2 e12d
000002a0: 1f48 df2d 2bcf 592d e5a8 952c ac69 dc2c
000002b0: faa7 f42c 9252 e72c b78d ec2d 3131 882c
000002c0: 4c63 e529 0000 0000 fee8 b02b cac2 8c29
000002d0: 7b91 432d 0ee9 412d f29e 3f2d 5dd7 372d
000002e0: 5ecb 9a2c 33a6 0a2d 6ea2 9c2c 651d 7d2c
000002f0: 35c0 be2c 4f91 da2c 7b71 e42b 5074 4729
00000300: 0000 0000 1b57 8829 8337 c628 584a d72b
00000310: 2dbc de2b 358e d62b 97a7 d12b c710 9a2b
00000320: 440a 322b 6162 9a2b c122 d12b 3d42 cb2b
00000330: 4b09 492b 9b46 122b 51c2 0828 0000 0000
00000340: 45ce 9b28 b20b 8627 cd4c ce2c 6da3 d12c
00000350: 8b68 d62c ac45 d12c dc03 c62c b385 162c
00000360: a8b1 3c2d 39bd 652d d77d 122d 4083 112d
00000370: 7a07 972c 2135 2b29 0000 0000 f2c9 9329
00000380: d094 9b28 0866 a42e dad2 a32e baf6 9e2e
00000390: 56be a12e d6b8 9e2d aa42 a82d 8b40 412d
000003a0: f07b 7a2d da52 2d2d 6277 5d2e 6933 9d2c
000003b0: eab5 eb2a 0000 0000 b062 0d2b a14f 522a
000003c0: 90db 972e b08c 8a2e b51c 772e 4ea5 802e
000003d0: 096d a72e 169e 742d 809f 582e 483e 222f
000003e0: 203a 7d2e ae39 832e d4d2 102e 9c54 932b
000003f0: 0000 0000 fde7 772b 2432 a42a 7d5a 712e
3.7945674e-11 3.789845e-11 3.9482348e-11 3.9510208e-11 6.391803e-12 9.331344e-12 6.496414e-12 2.9743343e-12
5.333392e-12 3.3729988e-11 1.7975777e-12 1.3755602e-13 0.0 1.8120162e-13 6.782407e-14 1.0782195e-11
1.0724855e-11 1.021675e-11 1.0492096e-11 1.3488249e-11 8.546725e-12 1.3927929e-11 2.0039713e-11 1.6698077e-11
1.493703e-11 7.3622445e-12 9.725362e-14 0.0 1.241379e-13 4.792416e-14 1.174133e-10 1.14734146e-10
1.14930045e-10 1.124957e-10 3.680346e-11 4.47203e-11 5.5965094e-11 3.2176657e-11 3.124954e-11 5.8018205e-11
1.29266094e-11 5.7926905e-13 0.0 8.861923e-13 2.1099748e-13 1.2381746e-10 1.2416858e-10 1.210742e-10
1.2043545e-10 7.2611375e-11 2.978583e-11 5.6338278e-11 6.1031236e-11 4.009775e-11 3.4227225e-11 2.3944331e-11
5.3773186e-13 0.0 7.1848793e-13 2.5938895e-13 8.2370284e-11 8.196773e-11 8.213995e-11 8.1989866e-11
1.8996664e-11 1.4199782e-11 1.6424686e-11 1.6823641e-11 1.4485291e-11 3.8395356e-11 6.4229364e-12 1.0009764e-12
0.0 3.1152167e-13 1.3204249e-12 3.98322e-11 3.9028353e-11 4.0683228e-11 4.003592e-11 1.5789052e-11
1.5400336e-11 1.6341024e-11 1.1137101e-11 1.6410132e-11 9.031087e-11 7.2175686e-12 3.0043188e-13 0.0
3.5281012e-13 2.1040775e-13 6.818367e-11 6.710563e-11 6.869027e-11 6.738291e-11 4.1694426e-11 5.066339e-11
3.7411168e-11 2.6387751e-11 2.2662216e-11 1.6234905e-10 1.1383418e-11 5.557206e-13 0.0 7.3972957e-13
2.7374644e-13 2.073822e-11 2.1140999e-11 2.154855e-11 2.159341e-11 5.3081285e-12 8.120133e-12 1.524733e-11
1.6187315e-11 1.280141e-11 1.0096669e-11 3.087943e-12 1.995888e-13 0.0 1.2601767e-13 4.3260917e-14
3.2963896e-11 3.313848e-11 3.1775988e-11 3.1795625e-11 2.335109e-11 2.4707552e-11 2.0150728e-11 3.6001417e-11
2.6510419e-11 4.8238247e-11 1.2475827e-11 4.72888e-13 0.0 6.589173e-13 2.4338035e-13 2.729632e-10
2.6291555e-10 2.6426727e-10 2.688454e-10 1.031784e-10 7.914397e-11 3.36791e-11 1.2342606e-10 3.4430313e-11
1.840711e-10 1.5791531e-11 1.378466e-12 0.0 1.8014371e-12 6.8360476e-13 7.479996e-11 7.3845485e-11
7.550989e-11 7.524763e-11 2.9254037e-11 7.615493e-11 3.3051197e-11 2.959076e-11 2.2700026e-11 9.2418656e-11
1.05537246e-11 5.016361e-13 0.0 6.732095e-13 2.4816512e-13 2.518436e-11 2.5494462e-11 2.5665995e-11
2.5384193e-11 1.2381022e-11 4.2535858e-12 6.264508e-12 6.9535462e-12 6.574582e-12 2.6893028e-11 3.870814e-12
1.0186868e-13 0.0 1.257022e-12 6.2510395e-14 1.111677e-11 1.1022528e-11 1.0892386e-11 1.0450166e-11
4.3995215e-12 7.8812954e-12 4.45182e-12 3.596978e-12 5.421464e-12 6.212065e-12 1.6231872e-12 4.428776e-14
0.0 6.0547236e-14 2.200649e-14 1.5297303e-12 1.5826278e-12 1.5245085e-12 1.4896859e-12 1.0947015e-12
6.325255e-13 1.0969664e-12 1.4859989e-12 1.4442402e-12 7.142244e-13 5.1967604e-13 7.591652e-15 0.0
1.7297912e-14 3.720515e-15 5.8633987e-12 5.958281e-12 6.0938524e-12 5.9478724e-12 5.627927e-12 2.13905e-12
1.072601e-11 1.3059159e-11 8.327081e-12 8.271439e-12 4.292508e-12 3.801571e-14 0.0 6.563143e-14
1.7272994e-14 7.475981e-11 7.4498366e-11 7.2288356e-11 7.355243e-11 1.8044604e-11 1.9128994e-11 1.0985111e-11
1.4238374e-11 9.852308e-12 5.0355616e-11 4.467916e-12 4.1870614e-13 0.0 5.023022e-13 1.8679374e-13
6.905687e-11 6.3005046e-11 5.6186795e-11 5.85013e-11 7.613649e-11 1.3904896e-11 4.925438e-11 1.4755941e-10
5.7577165e-11 5.967436e-11 3.2929062e-11 1.0468462e-12 0.0 8.8073976e-13 2.9167044e-13 5.4877426e-11
