lightning_logs/version_84/checkpoints/epoch=49-step=200.ckpt (torch, 47499 bytes, 18 tensors)

network.0.weight f4 [64, 15]
000000 42 ac bf bd b9 0e 7b 3e 05 0a f8 bd 46 fb 80 be
       -0.093590274 0.24517335 -0.12111286 -0.25191706
000010 db 3d 65 be 60 10 42 be c7 79 cf bd b9 29 29 3e
       -0.22386877 -0.18951559 -0.10130649 0.16519822
000020 f3 ba 3d bd 37 df 12 3c 48 85 c3 bd 63 bc 5d 3d
       -0.046320867 0.008964351 -0.09546906 0.054134738
000030 11 62 db 3d b0 df e6 3c 5a 7d c3 3c 0c d7 29 3e
       0.10712064 0.028182834 0.023863483 0.1658594
000040 b0 a7 00 3e 77 56 9f 3d 97 63 cb 3d 1a 44 6a be
       0.12563968 0.07780164 0.09931105 -0.22877541
000050 c6 dc 4e be b3 f3 25 3e 9f e2 c2 bd f6 98 d0 3c
       -0.20201406 0.16206245 -0.09515881 0.025463562
000060 90 57 9c be 59 5f c7 be 59 a5 10 be a0 70 63 3e
       -0.30535555 -0.38939932 -0.14125575 0.22210932
000070 b3 29 b4 be e2 b9 22 be 16 16 cd bc a6 16 96 be
       -0.35188064 -0.15891221 -0.025034945 -0.29314154
000080 9a 9d 69 be ca b1 22 3e 63 ee a3 bd 62 21 79 3e
       -0.22814026 0.15888134 -0.08004453 0.24329141
000090 db 77 db bd 3b f1 de 3d a0 35 88 3e b1 a6 f3 bd
       -0.1071622 0.10885855 0.26603413 -0.11897028
0000a0 a7 b8 2d be 7b 46 84 3d 31 9e fd 3d 53 0c 1c 3e
       -0.1696497 0.064587556 0.12383688 0.15239076
0000b0 fa ef 05 bd ae c0 51 be 37 a9 67 bd cf 47 43 be
       -0.032699563 -0.20483658 -0.05655786 -0.19070362
0000c0 9e a0 31 bb 2b 36 5a 3e 7b 3e 3d be e6 3e ca 3c
       -0.0027103792 0.21309726 -0.18480866 0.024688195
0000d0 74 4c e7 bd a4 e3 2b be 5c d9 9d 3e 87 b7 3d be
       -0.11293879 -0.16786057 0.30829895 -0.18527041
0000e0 68 c4 91 be 88 e6 70 be 98 a5 b4 bd 53 e6 86 be
       -0.2847016 -0.2352544 -0.08820647 -0.26347598
0000f0 39 0d 20 3e da 32 2f be 9e 17 80 be f3 f0 19 be
       0.15630044 -0.17109242 -0.25018018 -0.15033321
000100 9d e7 5f bd b9 32 79 3d 15 80 1c 3e 91 4b f5 3c
       -0.054664243 0.06083939 0.15283234 0.02994326
000110 30 bc 36 bd 9f 61 00 3d 7a 69 84 be c1 94 04 be
       -0.044613063 0.0313431 -0.25861722 -0.1294737
000120 cf f2 77 bd 15 8d d9 bd eb 9f be be 88 ec f2 bd
       -0.060534295 -0.106226124 -0.37231383 -0.11861521
000130 05 ad d8 bb da 4a 60 3e 83 6e 65 3e 32 4f af 3d
       -0.0066124224 0.21903554 0.22405438 0.08560027
000140 cb 7e ff bc e5 2e f1 3d 3b 8e d9 bd 32 c4 78 bc
       -0.03118839 0.117765225 -0.106228314 -0.015183495
000150 c9 76 b0 be ac 75 33 be 12 18 5b bd 1b d5 01 bd
       -0.34465626 -0.17525357 -0.053489752 -0.031697374
000160 92 1e 32 3e 6a 1b 83 be f4 84 97 bd 9b ee 74 3b
       0.17394474 -0.25606853 -0.07398406 0.0037373665
000170 d8 b9 ea bd ab 37 87 bd 78 00 44 be 2f 63 84 be
       -0.11461228 -0.06602415 -0.19140804 -0.2585692
000180 8e d1 8d be 16 c4 54 be a3 8b 80 3d 07 1c 86 bd
       -0.2769894 -0.20777926 0.062766336 -0.065483145
000190 a9 25 57 bd 34 1b 85 bd 8c 83 50 be 03 62 8b be
       -0.05252615 -0.06499329 -0.20362681 -0.27223215
0001a0 56 4d 2f 3e 7e 3f 98 bd da 8c a1 3d 10 5f 3a 3e
       0.17119345 -0.07433985 0.078881934 0.18200326
0001b0 74 c0 80 3d 3f c5 3d 3d 78 64 32 be dc 7b 5b be
       0.062867075 0.046330687 -0.17421138 -0.21433967
0001c0 2c ab 8d be b7 3c 83 be 8e f3 51 bc ac 04 0e 3e
       -0.27669656 -0.2563226 -0.012814416 0.1386897
0001d0 6e 58 1f be 90 ad 8f bd 32 5c 7b 3e c6 9a 30 be
       -0.15561077 -0.07015526 0.24546888 -0.17246541
0001e0 f4 cd 55 3e 29 bb 13 3e c4 84 1d 3c 8a 1a 4a 3e
       0.20879346 0.14426865 0.009614173 0.19736686
0001f0 e5 0f af bd 97 d7 62 bd 65 ce 15 bd 02 84 f0 bd
       -0.085479535 -0.055381384 -0.036573786 -0.117439285
000200 a5 ef 0e 3d 88 71 1b 3e 8c 1b 84 3e ab 4b 99 bd
       0.03489651 0.15180027 0.25802267 -0.07485136
000210 db d5 4e 3e 25 e0 12 3e f1 e1 37 be c9 04 78 bb
       0.20198767 0.14343317 -0.17957284 -0.003784465
000220 ef 75 9f 3c b9 47 7e 3e d8 8c d4 3d 59 8f 8a be
       0.019465415 0.24832048 0.10378426 -0.2706249
000230 01 ba 15 bd ad 9e d0 bd 5e 56 f9 bd 99 f2 10 bd
       -0.03655434 -0.10186515 -0.12174676 -0.03538761
000240 1f 79 14 be 3d 27 1e 3e 36 d7 82 be 8b 37 40 be
       -0.14499329 0.15444656 -0.25554818 -0.18771188
000250 10 4f c9 3d 51 86 3d be b7 62 e2 3d a9 97 a8 3d
       0.09829533 -0.18508269 0.110539846 0.08232052
000260 28 84 33 3e 74 2d 49 3e a4 58 7f 3e a2 dd 0f be
       0.17530882 0.19646245 0.24936157 -0.1404939
000270 fa d3 86 3d 81 be c1 3d eb fc 63 bd 01 14 42 3e
       0.065834 0.09460164 -0.055661123 0.18952943
000280 bf 43 bd 3d 3b 32 61 bd 77 9c f5 3c 57 14 70 3e
       0.09241437 -0.054979544 0.029981835 0.23445259
000290 4a bf a0 bc dd 60 06 3e 6c 9e ef 3d 38 02 7e be
       -0.019622464 0.13122888 0.117001384 -0.24805534
0002a0 ed b0 e2 3d cd c2 fa bd 21 d0 76 bd a7 58 36 3e
       0.11068902 -0.122441866 -0.06025708 0.17807256
0002b0 22 09 25 bc ca b6 15 3e b9 3a 3f be 7b 0d 07 3e
       -0.010072978 0.1462051 -0.18674745 0.13188736
0002c0 d6 f7 1a 3e 0f 95 2e be b0 c3 92 3d 76 c3 2b bd
       0.15133604 -0.17049049 0.07166231 -0.041934453
0002d0 d6 8f 12 3e 12 06 c3 3c c6 4d 31 3e bf c5 96 3c
       0.14312682 0.023806605 0.17314824 0.01840484
0002e0 af c0 69 be 5b 2a 15 3d eb 1f 29 bd c4 7e e8 bd
       -0.22827409 0.036417346 -0.041290205 -0.113523036
0002f0 f8 17 01 3d 5e f9 81 bd 39 b0 c7 3d ce 58 0e 3e
       0.031517 -0.06346391 0.09750409 0.13901064
000300 8a ee 32 be 80 24 86 be 3d d9 77 3c a9 d9 a0 bc
       -0.17473808 -0.26199722 0.015127477 -0.019635038
000310 c0 6f 59 3d 0c 72 2a 3e 5b ab 48 3e 1c 63 70 be
       0.05308509 0.16645068 0.19596617 -0.23475307
000320 02 9e b9 bc e4 45 62 be c2 9c 69 be e1 55 a1 be
       -0.022658352 -0.22096974 -0.22813705 -0.31510833
000330 c0 c3 95 be bf ef 8a be 1e 6f cf be a9 00 2d 3e
       -0.29250908 -0.27136037 -0.40514463 0.16894783
000340 71 aa 2d be 0c 35 2a be 97 55 1d 3e 7b a7 46 3e
       -0.1695955 -0.16621798 0.15364681 0.19399826
000350 a3 82 be 3d 2f f7 4a be ef 10 44 be ee bd 0b 3a
       0.09302261 -0.19820856 -0.19147085 0.0005330731
000360 49 13 49 3d c2 dc 8e 3e b3 6c dd bd a1 94 4e be
       0.049090657 0.279028 -0.10811748 -0.20173885
000370 71 9f 85 bc 07 ea 9a bd a4 b1 ee 3d 0e 1f c3 3d
       -0.01631138 -0.075641684 0.11654976 0.095274076
000380 18 dc 52 3e 25 92 41 3e 17 26 47 3e 54 8c 2c be
       0.20591772 0.18903406 0.19448124 -0.16850406
000390 d8 b8 c0 bd 49 2f b4 3d 51 a5 83 3e e5 bd 81 be
       -0.09410256 0.087980814 0.25712064 -0.2534019
0003a0 4c cd ef 3d d7 ad f0 bd e8 c1 ff bd 90 68 24 3e
       0.11709079 -0.11751907 -0.124881566 0.16055512
0003b0 fb 07 d3 be 64 84 81 be ac d3 5a be 80 6f 10 be
       -0.41217026 -0.2529632 -0.21369809 -0.14105034
0003c0 db ee 41 3e 0d 61 3a 3e 47 e0 a1 3d 7c 15 5c bc
       0.18938772 0.18201084 0.07904106 -0.013432857
0003d0 a3 9d f4 bd 12 7c 3a 3e c4 cd 0b be eb a7 2a be
       -0.11944129 0.18211392 -0.13652712 -0.16665618
0003e0 10 84 b2 be 09 94 77 bd 72 03 a8 be e5 ec 8d bd
       -0.3486638 -0.06044391 -0.3281513 -0.0692995
0003f0 ae 3c 00 3e c5 38 aa be 60 95 46 be 27 b3 4c be
       0.12523147 -0.33246437 -0.1939292 -0.19990216

network.0.bias f4 [64]
000000 7d d8 c3 bd bf 5d 37 3e ad 77 04 be 2c e2 96 3e
       -0.09562776 0.17906855 -0.12936278 0.2946943
000010 47 27 a5 3e e5 ff 78 3e c8 46 1f be 79 c7 9e 3e
       0.3225653 0.24316366 -0.15554345 0.3101156
000020 b9 cf b2 be 5f 4a 68 3d f9 28 d7 bd ff d5 2f be
       -0.34924105 0.05671155 -0.10505862 -0.17171477
000030 ab 15 50 3d 2d 7f 1a bd 27 31 68 3e 8a be bf 3e
       0.050801914 -0.03771894 0.22675 0.37450057
000040 1d ef 73 3e 26 6c 32 3e 86 a8 98 3d d0 ab 52 be
       0.23821683 0.17424068 0.07454018 -0.20573354
000050 13 dc 61 3e 16 f7 73 3e b0 41 00 3e d2 1f 4e bd
       0.22056608 0.23824725 0.12525058 -0.050323315
000060 07 79 10 3e 63 05 d2 3d f6 76 60 be 7e 37 28 bd
       0.14108668 0.10254934 -0.2192038 -0.041068546
000070 7e 84 0a 3e 11 bd f1 bd ba 97 78 3c ff 9d 0a 3d
       0.13527104 -0.1180364 0.015172893 0.033842083
000080 69 58 b4 3e 89 fb 8c 3e 83 16 67 3e 66 26 4e be
       0.35223702 0.27535656 0.22567181 -0.20131835
000090 65 f9 13 3e ca 1b 2f be 86 0c e4 3d 7f 1b c1 3d
       0.14450605 -0.17100444 0.11135201 0.094290726
0000a0 5a 34 a5 3d 0b c6 0b be 1f dc be 3e e9 d9 ab 3e
       0.08066626 -0.13649766 0.37277314 0.3356469
0000b0 09 02 7a be b7 64 57 bd bc 0f a2 3e bd e6 fa bd
       -0.24414839 -0.052586284 0.3165263 -0.12251041
0000c0 18 6b be 3e 27 7b 28 3e 0d 96 89 be 35 63 e9 bc
       0.3719108 0.16453229 -0.26872292 -0.028489688
0000d0 a0 96 29 3e e0 7d 96 3e c1 dd 2d 3e 79 b0 48 be
       0.16561365 0.2939291 0.16979124 -0.19598569
0000e0 fc 7d b1 3e 20 56 2a 3e 71 8b 40 3e e4 43 95 3e
       0.3466643 0.16634417 0.18803193 0.2915336
0000f0 6f 97 7a 3d 7c 44 71 3e 01 45 b8 3d 8f d3 3d bd
       0.061179575 0.23561281 0.089975365 -0.046344336

network.3.weight f4 [32, 64]
000000 d7 13 3b be 97 38 bf bd 60 3d ed bd aa 78 f1 bc
       -0.18269287 -0.093369655 -0.11583972 -0.029476482
000010 ee 2e 36 bd 33 c9 ef bd f7 8f 00 be ed 4d 90 3d
       -0.04447835 -0.117082976 -0.12554918 0.07046113
000020 89 5f 0f bd db 6a 7e bd 12 5d 9d bd 91 77 e7 3d
       -0.03500322 -0.062113624 -0.076837674 0.11302102
000030 9e 1a de bb 52 1c 53 bc 12 cb 79 bd 46 0f cf bd
       -0.0067780754 -0.01288517 -0.06098468 -0.10110335
000040 9a 7d 05 bd 57 b3 75 3d 53 6f 2b bd 0b 9b 8b 3d
       -0.032590486 0.059985485 -0.041854214 0.068166815
000050 73 a4 c1 ba 90 55 a1 3d b3 a8 af 3d 76 ad df bc
       -0.0014773741 0.07877648 0.08577099 -0.027304392
000060 50 21 9f 3d 8b f9 e4 3c 58 de 1c 3d 54 26 c9 bd
       0.07770026 0.027951023 0.03829798 -0.09821764
000070 b6 f1 ee bd 3c 8e c5 3d 01 9a 14 be 53 88 a7 bd
       -0.116671965 0.0964627 -0.14511873 -0.08180299
000080 4b 0b 18 3d 56 fa e3 bd 60 f9 cd bd d9 74 fa 3d
       0.037120145 -0.11131732 -0.1005733 0.12229318
000090 e0 4d 08 be 5f 10 37 be 10 89 0f bd fd cd c9 3d
       -0.13310957 -0.17877339 -0.035042822 0.09853742
0000a0 2c c5 41 3d 3d 01 38 3b 6f 53 ea 3c 08 51 a5 bd
       0.04730718 0.002807691 0.028604237 -0.08072096
0000b0 6d cb fd 3c 6a b9 e4 bc 92 77 17 bd b1 14 ac 3d
       0.03098079 -0.027920444 -0.036979266 0.08402384
0000c0 64 f6 1e 3d f0 31 b3 3d 0a 38 19 3d c0 75 ad bd
       0.038809195 0.08749759 0.03740696 -0.08469725
0000d0 94 ce 96 bd 9c 10 e1 3b cb ae 4d 3d 51 7d c2 bd
       -0.073636204 0.006868435 0.050215524 -0.094965585
0000e0 40 2a d6 3c 05 8f eb bd c0 8f 02 3d ec ab 91 bd
       0.026143193 -0.11501888 0.031875372 -0.071128696
0000f0 28 5f a4 3d f5 7e 1a be 6c 1d 98 3a d4 9d 92 bd
       0.08025962 -0.15087493 0.0011605448 -0.071590096
000100 a4 a2 5e bd 98 81 45 3d a8 d5 60 bd 10 c0 1d bd
       -0.054354325 0.048219293 -0.05489126 -0.038513243
000110 b0 36 5f 3d f1 2b 0e 3c 33 be 9c bd 49 5e 75 3d
       0.054495513 0.008677469 -0.07653465 0.05990437
000120 17 bd 9d 3d c4 16 a1 bd 90 68 97 3d 70 19 d5 3d
       0.07702082 -0.0786567 0.073929906 0.104052424
000130 9d 29 ca 3d 23 da 0d be db 1c cf 3b 44 d8 78 3d
       0.09871218 -0.13852744 0.0063205785 0.060753122
000140 8e 26 0c be a5 9f f3 bd f1 38 1b be 43 d5 bf bd
       -0.13686582 -0.11895684 -0.1515844 -0.09366848
000150 2f 0c 2d 3d b9 bc 81 3d b8 db 42 bd 4b a5 a9 3c
       0.042247947 0.06334824 -0.04757282 0.0207087
000160 63 9e ac bd bd 16 2e 3c d6 e2 04 be 08 9b f6 3c
       -0.08428647 0.010625538 -0.12977156 0.030103222
000170 eb f7 9a bd 2f 9a 33 3d 4b 22 30 bd 65 56 d1 3c
       -0.07566818 0.043848213 -0.043001454 0.025553891
000180 ba f3 07 be b8 62 fe 3c 4c 8f ed bd b1 d5 c3 bd
       -0.13276568 0.031052932 -0.11599597 -0.09562243
000190 aa ca a7 3d 5a 15 43 3d 20 fc c5 bc 62 b1 b4 bd
       0.08192952 0.047627784 -0.024168074 -0.088228956
0001a0 35 1f 44 bd bf e9 1b be 7a 07 e4 3d 14 b4 47 bd
       -0.047881324 -0.15225886 0.111342385 -0.04875572
0001b0 18 b3 1b bd d3 3b dc 3d fd eb a3 bd bd b1 ce 3d
       -0.038012594 0.10753598 -0.080039956 0.10092495
0001c0 32 2b d5 3d c1 17 a8 bd 01 42 36 bd b9 35 69 3d
       0.104086295 -0.08207656 -0.04449654 0.056936
0001d0 75 da f1 bb a6 8c 3b bd 1f f2 49 3b 57 e5 52 3c
       -0.0073807784 -0.04578843 0.0030814481 0.012872062
0001e0 d4 cd 9a bd 56 85 d5 3d fe 17 a5 bd b3 cb b1 bd
       -0.0755879 0.104258224 -0.08061217 -0.08681431
0001f0 10 24 04 3d 99 a2 4f 3d f2 f6 17 be c4 ed a0 3d
       0.032260954 0.050692175 -0.14840296 0.0785785
000200 f2 0c d3 3d 0e f7 41 3e bd 4d b4 3d 7c 04 c3 3d
       0.103052035 0.189419 0.0880389 0.0952234
000210 14 4c b4 3d 91 e0 93 3e 3f 2a fa 3d b5 de 20 bc
       0.08803573 0.28882268 0.12215089 -0.0098187225
000220 1e 0b b4 3c 01 e1 3a 3d 76 1a e5 3c f6 2a fb bd
       0.021977957 0.045624737 0.02796672 -0.122640535
000230 2e 66 da 3b e9 a5 0f 3e 90 72 cb 3d 2a bc 82 3d
       0.006665013 0.14028133 0.099339604 0.06383546
000240 97 5e 24 3e 4f 37 d1 3b c1 52 a7 bc 72 34 0d bd
       0.16051708 0.006384767 -0.020425202 -0.034473844
000250 05 55 ad 3d e1 95 89 bb 00 bf 0e be 29 81 76 3e
       0.08463482 -0.004198775 -0.13940048 0.24072708
000260 b2 0d a2 38 72 ec fe 3c 9a 43 8d 3d 9f ab f3 3c
       7.727313e-05 0.031118605 0.068976596 0.029744921
000270 4c ba 2d 3e 17 20 42 3d 9b d6 76 bd 64 82 1b 3e
       0.16965598 0.047393885 -0.060263257 0.15186459
000280 cd 59 82 3e fd 16 d8 3d 25 5c ce 3b 03 e3 04 3e
       0.25459138 0.1055126 0.0062976056 0.12977223
000290 4f 20 10 3e b5 d2 06 be 8f fb 48 3d 09 3b c8 3c
       0.14074825 -0.13166316 0.04906803 0.024442213
0002a0 47 f3 b9 3d 2b 42 75 bc 62 e9 08 3e 36 04 d3 3d
       0.090796046 -0.014969389 0.13370278 0.103035375
0002b0 92 83 1d be 83 5c 42 3c 04 f9 18 3e a9 89 ad 3d
       -0.15382221 0.011862877 0.14938742 0.08473522
0002c0 71 db 8a 3e b1 92 d2 3d b7 9e e7 bc a6 b2 b7 bd
       0.27120546 0.102818854 -0.028273923 -0.08969621
0002d0 46 75 9e 3d 3f 18 5c 3e 24 dc 06 3e 15 03 da bd
       0.07737212 0.21493624 0.13169914 -0.10645119
0002e0 a1 aa 97 3c b8 4d 02 bd 37 75 41 3e 3b 32 de 3d
       0.01851398 -0.0318124 0.1889237 0.108494245
0002f0 34 4d 38 3e 56 72 12 3e e1 57 62 bd 37 0f fb bd
       0.179982 0.14301428 -0.05525959 -0.122587614
000300 9f 02 fd 3c f0 15 ba bd 71 80 d0 bd 24 0e 69 3d
       0.030885039 -0.090862155 -0.10180748 0.05689825
000310 d0 37 32 3d 14 5c db bd ab 02 a4 3c 22 6b be 3b
       0.04351026 -0.10710922 0.020020803 0.005811111
000320 00 14 f8 3d ae 25 0f 3c 04 65 bb bd 7a 27 9b 3c
       0.1211319 0.008737011 -0.091501266 0.018939722
000330 e1 dc 49 3d a2 70 08 bd ff 16 a5 bd a8 bb cc 3d
       0.049282912 -0.03331054 -0.08061027 0.0999673
000340 41 f2 d4 bb 8e 53 48 3e 93 23 62 3e f6 24 d6 bd
       -0.0064986055 0.19563124 0.22083883 -0.104562685
000350 7b 60 c0 bc b7 f6 06 3e ad 61 68 bc cb 40 81 3d
       -0.023483505 0.13180052 -0.014183444 0.063111864
000360 37 f7 0b 3c 76 ea 0d bc 2b 03 88 3d 89 fe dc bc
       0.008542827 -0.008661857 0.06641229 -0.02697684
000370 a8 1e e1 bc cc 3f 88 bc 5e b6 b3 bd c7 63 6d bd
       -0.027480438 -0.016631983 -0.08775018 -0.057956483
000380 10 52 69 bd c2 15 80 3d fe 09 63 3e 30 c1 c5 bd
       -0.056963027 0.0625415 0.2217178 -0.09655988
000390 96 c4 9b 3d 61 46 81 3d bd 44 0b 3e 91 3f 7b 3d
       0.07605855 0.06312252 0.1360044 0.06133992
0003a0 58 8a 45 be 42 41 b8 3c 47 c2 2f bd f7 7c 5b bd
       -0.19291055 0.022492055 -0.042909887 -0.053585973
0003b0 6c c7 d5 bd 82 b4 44 3d 9a c9 b2 3d dc f5 38 be
       -0.10438427 0.04802371 0.08729859 -0.18062538
0003c0 be 7a 10 be 4a fd 13 bd b8 52 ca bd cc 3e 21 3e
       -0.14109322 -0.036130227 -0.098790586 0.15746611
0003d0 92 a6 8a bd 63 e5 2f be 74 66 1b be f3 52 20 bd
       -0.06770052 -0.17177348 -0.15175802 -0.039141607
0003e0 8e 20 c0 bd 05 e4 7d bd d3 76 5d bc d5 a0 1d bd
       -0.09381209 -0.061985034 -0.013517099 -0.03848346
0003f0 b7 dc 17 be f0 ec 5b bb 8d 81 88 bc 9d f2 b6 bd
       -0.1483029 -0.0033557974 -0.016663337 -0.089329936

network.3.bias f4 [32]
000000 ce 3d 88 3d 00 31 0f be 46 36 fb 3c 9f fb 09 3e
       0.06652413 -0.13983536 0.030665528 0.13474892
000010 d8 3b ef bd ab b9 38 3e e2 ca bd 3d 2b 3a ed bd
       -0.11681336 0.18039577 0.092672125 -0.1158336
000020 23 e4 19 3e 4d 6e 28 3e d9 85 89 3c 2f 9c fb bc
       0.15028434 0.16448326 0.016787456 -0.030714123
000030 5a 79 10 3d a2 18 d9 3d 4e bc ac bd b3 2f b5 bd
       0.03527198 0.106004015 -0.08434354 -0.088469885
000040 7f f5 d0 bd 54 35 3b 3d 3a d2 a7 3b 00 6b 81 bd
       -0.10203075 0.045705155 0.0051214965 -0.06319237
000050 57 6e 74 bc a2 5e 7a 3e 43 72 69 bd 59 92 07 bd
       -0.014918885 0.24450162 -0.056993734 -0.033098552
000060 a7 10 1d 3d 1e 70 c8 3d b1 d5 6b 3d 5a a3 27 be
       0.03834596 0.0978701 0.05757684 -0.16370907
000070 b7 1e 10 3e ed ed 3c 3d 3b 0c 04 3d 61 69 70 3e
       0.14074217 0.04612534 0.032238226 0.23477699

network.6.weight f4 [2, 32]
000000 07 47 ed bd 85 1d d2 bd d1 5b 0d bc a6 e4 0b 3e
       -0.11585813 -0.10259537 -0.008627848 0.13661441
000010 e4 4a b7 bd 7d 9d a6 3d cf 75 e6 3b fe c8 9b 39
       -0.08949831 0.08135507 0.007033087 0.00029713655
000020 8c 7d 02 3c 08 b4 28 3c a2 f2 cb bd 45 1f 99 bd
       0.007964503 0.010296829 -0.09958388 -0.07476667
000030 2f e7 cd bc c5 be 87 bd fd 48 d8 bd e7 77 5a 3e
       -0.025134651 -0.06628183 -0.105607964 0.21334802
000040 76 a8 28 bc 69 23 34 3d ac 18 7b bb 82 b9 e8 bd
       -0.0102940705 0.043979082 -0.0038314266 -0.11363508
000050 0e 33 e1 3d 27 e7 f4 3c ca ae a4 bd 22 3f e0 bd
       0.10996066 0.029895378 -0.08041151 -0.10949542
000060 17 a9 0b 3d 17 91 5c 3e 4b 35 42 3c 11 2e af bd
       0.034096804 0.21539722 0.011853526 -0.08553708
000070 04 b3 bd 3e 8a cd 45 3d 93 76 51 3e bd b6 dd 3c
       0.3705064 0.04829172 0.20455389 0.027064675
000080 71 fb 5f 3d 72 17 1b 3e 4f 18 67 be 38 56 df 3d
       0.054683153 0.15145662 -0.22567867 0.10905117
000090 bc 72 b0 bd 6c 74 24 be 70 da 8c be 03 a6 ab 3d
       -0.08615634 -0.16060036 -0.27510405 0.083812736
0000a0 8e b9 3a be 3d be 38 be fa 1b de 3d a5 be 16 be
       -0.18234846 -0.1804132 0.1084518 -0.14721163
0000b0 24 28 44 3b ba ac 67 be 93 72 34 be 4f 87 ba 3d
       0.0029931152 -0.22624484 -0.17621832 0.09107839
0000c0 bd cc 13 3e f4 e1 dd bd f6 94 c3 3d ce a7 29 be
       0.1443357 -0.10834113 0.095498964 -0.16567919
0000d0 11 07 42 3e fb 22 d5 bd c3 20 85 3b c0 25 0b be
       0.18948008 -0.104070626 0.0040627434 -0.13588619
0000e0 f1 a4 8d be a6 cd 5f 3e 75 a2 33 be 71 12 3c 3c
       -0.27664903 0.21855792 -0.17542441 0.011479006
0000f0 49 c2 8e 3e a9 30 cf 3c 6c 0a 52 3e ae 4d 88 be
       0.27882603 0.025291758 0.20511788 -0.26621765

network.6.bias f4 [2]
000000 3a 8f 9e 3c c9 4f 4b be
       0.019355405 -0.19854654

exp_avg f4 [64, 15]
000000 20 e2 5b b9 9f 9d 0b b9 df d4 85 b9 94 c3 3c b9
       -0.00020969706 -0.00013314791 -0.00025526338 -0.00018001936
000010 b2 fc 10 3a 72 03 0f b9 15 44 02 39 04 74 2d 39
       0.00055308186 -0.00013638826 0.00012423129 0.00016541785
000020 40 6a 9f 3a 2e ba 26 b9 23 76 3c 39 72 79 e5 37
       0.0012162402 -0.00015900351 0.00017973087 2.735548e-05
000030 00 00 00 00 71 ef ac 38 b7 97 17 38 36 cf 4e bb
       0.0 8.2461986e-05 3.61425e-05 -0.0031556613
000040 ca 45 75 bb 6f 43 a4 bb 9b 05 9a bb de bf 06 bb
       -0.003742563 -0.0050129215 -0.0047003753 -0.002056114
000050 29 75 e1 bb 96 f7 9f ba 66 71 10 3a 77 84 b3 bb
       -0.0068804217 -0.0012204524 0.0005510062 -0.0054784375
000060 ac 19 d2 3c 92 53 ab 39 7a 49 0b 3a 00 00 00 00
       0.025647007 0.00032677926 0.0005313378 0.0
000070 e6 09 cf 3a 1a 5a 36 3a d2 5d da b9 a1 9b e2 b9
       0.0015795797 0.0006956175 -0.00041650102 -0.00043222032
000080 d5 08 d9 b9 3f e7 c8 b9 6e aa c6 ba 2d 91 e8 3a
       -0.00041396046 -0.00038319264 -0.0015156993 0.0017743461
000090 f1 74 a5 ba 7c bd ea ba c2 ab b1 ba 66 b8 34 3a
       -0.0012623352 -0.0017909254 -0.0013555216 0.00068939326
0000a0 98 76 79 ba 29 85 01 ba 00 00 00 00 2e 88 13 bb
       -0.0009516268 -0.0004940802 0.0 -0.002251159
0000b0 15 4d 10 ba 52 6b c5 ba 08 38 98 ba 5f 63 99 ba
       -0.000550465 -0.0015061891 -0.0011613378 -0.0011702589
0000c0 29 8e 55 ba 18 11 7d bb 59 8b 19 bc 6e 24 34 bb
       -0.00081464887 -0.0038614925 -0.009371602 -0.0027487534
0000d0 79 36 cd b9 47 1e 12 bc fc 10 27 bc b7 5b 8d ba
       -0.00039141232 -0.0089183515 -0.0101969205 -0.001078478
0000e0 7d 25 ad b9 00 00 00 00 04 7e 82 ba 8d c4 e4 b9
       -0.00033025062 0.0 -0.0009955768 -0.0004363399
0000f0 76 72 c4 bb ae 67 b9 bb 8b 4c e4 bb 89 25 cb bb
       -0.00599509 -0.0056581115 -0.0069671324 -0.006199543
000100 52 3b b3 ba f9 1b ed ba cf 8f d0 ba bf b4 9b ba
       -0.0013674295 -0.0018090002 -0.0015911999 -0.0011879428
000110 c5 36 c9 ba 3e 32 a5 3a be d2 82 39 45 1a 42 39
       -0.0015351406 0.0012603474 0.00024952547 0.00018511068
000120 00 00 00 00 32 49 12 3a 59 3a 80 39 3d 79 f4 bb
       0.0 0.0005580365 0.00024457535 -0.007460742
000130 a2 40 0f bc c8 f0 1d bc 50 08 24 bc c0 e1 12 ba
       -0.008743437 -0.009639926 -0.0100117475 -0.00056030974
000140 d4 61 86 bb 15 33 11 bc c9 08 06 bc f0 a2 3c bb
       -0.0041010175 -0.008862277 -0.0081808055 -0.0028783642
000150 a5 17 fc 3c 41 92 51 3a 37 e4 01 3a 00 00 00 00
       0.030772993 0.0007994511 0.0004954966 0.0
000160 a2 34 6c 3b a3 8f 7f 39 a7 63 ad bb 07 46 9f bb
       0.0036042114 0.00024372204 -0.0052914205 -0.004860643
000170 ab e3 b8 bb 49 f3 aa bb 3b f4 47 38 9e ac da ba
       -0.0056423745 -0.00521699 4.7672755e-05 -0.0016683524
000180 8b 93 c8 ba cc 14 98 ba 1f 77 da b9 1e 60 8b 3a
       -0.001530276 -0.0011602878 -0.00041668952 0.0010633504
000190 30 6a 84 b9 2a d4 1f ba 00 00 00 00 a9 12 da b9
       -0.00025256118 -0.00060969836 0.0 -0.00041594103
0001a0 85 df 1b ba 51 70 65 b9 3e 31 36 39 14 b8 86 ba
       -0.0005946088 -0.00021880983 0.00017375217 -0.0010278248
0001b0 26 84 53 b9 ec d4 20 3a 94 a6 c4 bb e1 a3 93 3a
       -0.00020171757 0.00061352435 -0.006001303 0.001126405
0001c0 10 75 35 3b 1b c0 9d 3a 4f da 4a 3c b1 41 ab 3a
       0.0027688183 0.0012035401 0.01238115 0.0013065842
0001d0 6c 9c 5c 39 00 00 00 00 eb 7f 8a 39 13 58 8d 39
       0.00021039107 0.0 0.00026416717 0.00026959236
0001e0 1b bf 07 3b 2e c2 ea 3a 4d 33 09 3b b8 a9 ec 3a
       0.0020713273 0.0017910653 0.0020935119 0.0018055951
0001f0 61 7e 83 ba ce fe c5 b9 0c 2a d2 ba 04 b0 ce ba
       -0.0010032171 -0.00037764612 -0.001603426 -0.001576901
000200 da 63 85 38 a6 6c 26 3b 36 a0 e4 b9 da 96 9c 39
       6.360533e-05 0.002539435 -0.00043606915 0.00029867032
000210 00 00 00 00 de d2 94 ba ea 08 e6 38 62 e3 5f ba
       0.0 -0.0011354347 0.00010968915 -0.00085406576
000220 67 a2 91 ba a3 ac e5 ba 4f e5 e3 ba e8 98 b7 3a
       -0.0011111022 -0.0017522763 -0.0017387065 0.0014007362
000230 a4 9c 77 ba 3a bc a2 ba e9 56 89 ba b4 5b 7e 3a
       -0.00094456435 -0.0012415715 -0.0010478172 0.0009702996
000240 e5 9d 11 3c 93 84 ac 39 f8 eb 60 39 00 00 00 00
       0.008887743 0.00032905172 0.0002145021 0.0
000250 64 68 8d 39 fe 15 8c 39 cf ea a2 ba ef 17 84 ba
       0.00026971393 0.00026719266 -0.0012429598 -0.0010077934
000260 20 eb 67 ba 7b d8 6e ba e2 a0 49 ba b9 87 1c 3a
       -0.0008846987 -0.00091112376 -0.0007691515 0.0005971152
000270 02 d0 e6 3a 8c a3 dc 3a fb b7 bc 39 1e f2 45 bb
       0.0017609599 0.0016833409 0.0003599523 -0.0030204128
000280 7f 86 27 ba 06 34 ac b8 00 00 00 00 ac a8 65 38
       -0.0006390586 -8.211289e-05 0.0 5.4754943e-05
000290 37 8f 38 b8 a7 62 c4 3a 76 77 da 3a c0 d1 ca 3a
       -4.4002398e-05 0.0014983014 0.0016667682 0.0015473887
0002a0 c2 b6 e5 3a c1 d7 10 3b bf 2b a1 39 87 0b 0d 3b
       0.001752578 0.0022101256 0.00030740906 0.0021521763
0002b0 f9 2b 0e 3b 20 01 e8 3a 8f ee 0e 3a b8 b2 8b 3a
       0.002169369 0.0017700531 0.0005452418 0.0010658121
0002c0 16 7a 7a 39 00 00 00 00 fb e3 cf 3a ad a4 17 39
       0.00023887338 0.0 0.001586079 0.00014461829
0002d0 ff b0 48 ba a1 59 42 ba 43 5e c0 ba 3b a3 8f ba
       -0.0007655769 -0.00074138684 -0.001467653 -0.0010958681
0002e0 b6 9e 7f 3a 16 fd c2 3b 63 fc f6 3a fb e8 cd 39
       0.0009751128 0.0059505804 0.0018843528 0.0003927423
0002f0 1d 69 ca 3a 86 4c ef 3b 0b 30 2f 3a e5 a3 45 3a
       0.0015442703 0.0073028235 0.0006682879 0.0007539376
000300 00 00 00 00 e1 11 87 3a 1e 4b 54 3a 0c 3b 19 bc
       0.0 0.0010305011 0.00080983515 -0.009352457
000310 ec 30 0b bc 4c 19 4a bc c7 6b 27 bc be 85 b1 3b
       -0.008495551 -0.012335133 -0.010218567 0.0054175546
000320 e5 d9 79 bb 69 ea 5f 3b 28 34 96 3b a6 c0 c5 3b
       -0.003812426 0.003416682 0.004583854 0.0060349284
000330 a0 ab b6 3c 30 91 12 3b e0 59 74 3a 00 00 00 00
       0.022298634 0.002236437 0.0009321254 0.0
000340 d1 27 38 3b 4a 6c a1 3a 2b db 93 bb 54 81 94 bb
       0.0028099904 0.0012315598 -0.004512211 -0.0045320187
000350 ac af bb bb cb cc a4 bb 9a 7e 28 bb 4d 79 0f 3c
       -0.005727729 -0.005029296 -0.0025710226 0.008756948
000360 ff cc 89 ba 1f 70 60 bb e8 f0 45 bb fd 95 5a 3c
       -0.0010513364 -0.0034246517 -0.0030203406 0.013341424
000370 e6 8c cc b8 57 f5 c4 b7 00 00 00 00 90 f2 9d 39
       -9.7537224e-05 -2.3479266e-05 0.0 0.00030126097
000380 e7 1a f0 38 45 88 69 bb 85 90 5e bb 6b bd a0 bb
       0.00011449103 -0.0035634201 -0.0033960652 -0.004905393
000390 68 a2 88 bb a0 6e 5a 38 ed e1 6a 3a 65 57 0a bb
       -0.004169751 5.2078278e-05 0.0008960057 -0.002110922
0003a0 2e 67 20 bb a1 10 29 bb d5 e7 3e 3c 26 8e 87 3a
       -0.0024475562 -0.0025797265 0.011651953 0.0010342046
0003b0 0f b2 d4 39 00 00 00 00 43 b1 ac 3a 29 d5 07 3a
       0.00040568455 0.0 0.0013175387 0.00051816046
0003c0 89 a4 5b bb 70 6c 44 bb 9b 24 8e bb d5 0a 66 bb
       -0.0033514819 -0.002997186 -0.00433786 -0.0035101671
0003d0 94 5b a0 b9 56 23 b0 3b 50 98 cc 3a 7e bd 56 39
       -0.0003058581 0.005375306 0.0015609358 0.00020479222
0003e0 96 ee d4 ba 48 8a 38 3c ca 16 e5 38 39 f6 0f 39
       -0.001624542 0.011263438 0.00010923816 0.00013729268
0003f0 00 00 00 00 ef c1 cc 39 de 24 37 39 e6 35 8a 3b
       0.0 0.00039054404 0.00017465974 0.004217851

exp_avg_sq f4 [64, 15]
000000 ae 20 05 37 be 75 eb 36 fa 83 8e 36 b5 b8 80 36
       7.935027e-06 7.0172528e-06 4.247294e-06 3.8362e-06
000010 0c e1 b6 36 b9 79 aa 36 3f 03 d5 36 68 5d d9 36
       5.4502216e-06 5.080565e-06 6.3482726e-06 6.477978e-06
000020 e7 ce 21 37 60 f0 12 36 55 6f d2 36 92 de 84 38
       9.644521e-06 2.1895612e-06 6.2714485e-06 6.3357074e-05
000030 00 00 00 00 2e 5d a1 37 d7 b7 72 38 03 a3 9f 39
       0.0 1.9236086e-05 5.786851e-05 0.00030448296
000040 24 75 94 39 68 e1 a6 39 ed 46 a4 39 8d 69 95 37
       0.00028316036 0.00031829928 0.0003133336 1.7811335e-05
000050 b3 8e e4 38 e3 4a 03 38 16 18 e6 37 a8 59 52 38
       0.00010898467 3.1302578e-05 2.7429352e-05 5.01514e-05
000060 97 5e c8 39 d0 55 ce 35 0e cc 2d 34 00 00 00 00
       0.00038217448 1.5373171e-06 1.6186115e-07 0.0
000070 87 93 c4 35 37 18 97 34 24 6c 2c 38 8e 3d 10 38
       1.4646074e-06 2.814356e-07 4.110871e-05 3.4389603e-05
000080 28 70 ae 36 15 36 99 36 32 10 2b 38 0d 9e 2f 37
       5.198661e-06 4.5660513e-06 4.078466e-05 1.0467612e-05
000090 00 a6 5c 38 62 d2 68 38 40 79 93 38 fe 80 9b 36
       5.2606687e-05 5.5509045e-05 7.032091e-05 4.6343766e-06
0000a0 6c 4b 6f 38 38 a5 1c 3a 00 00 00 00 a2 b4 3d 39
       5.7052283e-05 0.0005975547 0.0 0.00018091736
0000b0 42 cb 0e 3a 8d 7b 40 38 a0 65 36 38 f4 4a 4a 38
       0.0005447158 4.5891433e-05 4.3486827e-05 4.823036e-05
0000c0 a5 ba 39 38 b0 02 52 37 aa da b7 38 44 05 ac 37
       4.4281263e-05 1.2517601e-05 8.766849e-05 2.050645e-05
0000d0 68 53 a7 37 11 7f b0 37 9c 21 32 38 8c df 5f 35
       1.994679e-05 2.1040005e-05 4.246981e-05 8.339928e-07
0000e0 3b 8b df 33 00 00 00 00 bb 31 80 35 f4 1d 43 34
       1.04095726e-07 0.0 9.551217e-07 1.8171687e-07
0000f0 90 8a 96 37 72 10 8d 37 73 d3 ac 37 bd b3 99 37
       1.7945917e-05 1.6816168e-05 2.0602462e-05 1.8322718e-05
000100 97 9d 67 36 1a 1d 20 38 c5 be 3a 37 58 36 2a 37
       3.4513412e-06 3.8174076e-05 1.1130881e-05 1.01454425e-05
000110 45 8b 25 37 85 e8 97 37 2f bb c8 34 1b 44 5f 33
       9.867193e-06 1.8108878e-05 3.7389097e-07 5.1983175e-08
000120 00 00 00 00 9f 7b 09 35 e1 df c2 33 7a 5c c4 39
       0.0 5.121637e-07 9.074552e-08 0.00037452934
000130 fb 1b b4 39 ff e4 ca 39 05 4b c9 39 bc 6d 26 38
       0.00034353122 0.00038699058 0.000383936 3.9679682e-05
000140 48 b9 44 39 7a 7c 66 38 6c a3 55 38 e2 c3 3b 38
       0.00018761039 5.49522e-05 5.0935356e-05 4.4766704e-05
000150 b4 bf e1 39 09 94 db 37 3d 85 3a 34 00 00 00 00
       0.00043058174 2.6175769e-05 1.7371072e-07 0.0
000160 68 a8 d9 37 57 b6 8a 35 1a 6a 13 39 34 c7 f9 38
       2.5946836e-05 1.0334869e-06 0.00014058538 0.0001191035
000170 fc 5b dd 37 75 62 c4 37 6e 90 0f 39 c6 45 c3 37
       2.6388087e-05 2.3410868e-05 0.00013691347 2.3278302e-05
000180 4c fc 1f 39 a3 c7 2c 39 17 c4 7b 39 5b ce c3 37
       0.0001525741 0.00016477569 0.00024010275 2.3341903e-05
000190 57 f6 45 39 dc 39 ff 3a 00 00 00 00 ce de 19 3a
       0.00018879153 0.00194722 0.0 0.00058696873
0001a0 56 02 e9 3a 50 66 af 38 c8 79 a6 38 6e ab b8 38
       0.0017777185 8.3637075e-05 7.93818e-05 8.805735e-05
0001b0 95 0f b3 38 ac 80 1d 37 cb bb bb 37 1a c0 09 37
       8.5382875e-05 9.387888e-06 2.2379585e-05 8.2105635e-06
0001c0 a1 04 01 37 d7 9d 62 37 08 1e 08 39 7c 08 d8 36
       7.690077e-06 1.35074e-05 0.00012981158 6.4382893e-06
0001d0 60 0b 80 37 00 00 00 00 2d 5c d4 36 75 0f 6b 37
       1.5264086e-05 0.0 6.328823e-06 1.401069e-05
0001e0 60 f9 ba 37 6e 7b b3 37 ed c6 c3 37 af 93 cb 37
       2.2289052e-05 2.139594e-05 2.3338443e-05 2.4268256e-05
0001f0 e7 a6 99 36 c1 92 bb 35 38 83 ae 36 cd b9 c4 36
       4.5791853e-06 1.3975297e-06 5.20088e-06 5.8628852e-06
000200 63 60 96 36 87 ab e1 37 27 8f a2 36 0d d6 f4 35
       4.4815692e-06 2.6901964e-05 4.8446414e-06 1.8241714e-06
000210 00 00 00 00 83 ce 9c 36 3c f0 ec 35 e1 be 09 38
       0.0 4.6732034e-06 1.7653288e-06 3.2841115e-05
000220 5f df 00 38 1e 5b 0f 38 79 72 12 38 6b 0d e6 35
       3.072561e-05 3.4178716e-05 3.4915724e-05 1.714024e-06
000230 2c 2b 8a 37 12 cf d1 36 74 ae b5 36 c4 6e ad 36
       1.6470985e-05 6.2527915e-06 5.4145294e-06 5.1686966e-06
000240 7c 27 41 38 e0 d5 29 35 fc 66 82 32 00 00 00 00
       4.605156e-05 6.3268635e-07 1.5180824e-08 0.0
000250 67 ec c3 34 45 5e df 32 7f c9 10 38 d6 77 ff 37
       3.6493586e-07 2.6003486e-08 3.4519933e-05 3.0454172e-05
000260 39 3e 88 37 a6 65 85 37 e5 e0 f4 37 16 71 ad 35
       1.6241438e-05 1.590217e-05 2.9191791e-05 1.2922417e-06
000270 6a 0c f0 37 f0 c7 00 38 6c 41 32 38 a9 3e 92 37
       2.861601e-05 3.0703784e-05 4.2499436e-05 1.7433735e-05
000280 bd 58 2b 38 80 4f ac 39 00 00 00 00 32 29 d4 38
       4.085222e-05 0.0003286563 0.0 0.00010116621
000290 24 4e 9d 39 44 01 a5 36 90 75 ad 36 d9 7a 88 36
       0.00030003593 4.9175305e-06 5.169488e-06 4.067417e-06
0002a0 09 ae 9b 36 70 c7 36 37 34 da a3 35 87 12 00 37
       4.6396203e-06 1.08944805e-05 1.2207952e-06 7.633708e-06
0002b0 dc ef 0b 37 d8 df 10 37 72 70 98 36 f1 c1 7c 37
       8.340892e-06 8.6351865e-06 4.5430434e-06 1.5065526e-05
0002c0 de 59 d4 37 00 00 00 00 69 38 85 37 4f 9a c2 37
       2.5314217e-05 0.0 1.5881104e-05 2.3198458e-05
0002d0 34 76 87 38 26 67 70 38 79 67 32 38 79 60 2d 38
       6.459319e-05 5.7316523e-05 4.2534874e-05 4.133626e-05
0002e0 2e aa 07 38 5a c8 8b 38 d9 b3 23 38 7a 7d 35 38
       3.2345e-05 6.665355e-05 3.9029725e-05 4.3270622e-05
0002f0 35 3a 70 38 29 4d 95 38 1b a4 34 38 38 d6 e8 39
       5.727467e-05 7.119246e-05 4.306818e-05 0.00044410094
000300 00 00 00 00 d5 c6 0c 39 a4 95 d4 39 c0 79 d2 39
       0.0 0.00013425511 0.00040547282 0.00040145032
000310 36 0e c0 39 95 fa d7 39 28 b6 d9 39 e6 6e b3 37
       0.00036631682 0.00041194694 0.00041525182 2.1390104e-05
000320 27 fb 83 38 20 5d 61 38 ec a2 5b 38 66 97 98 38
       6.2933475e-05 5.373091e-05 5.23654e-05 7.276125e-05
000330 e3 86 1c 3a 2b 6b ed 35 40 a9 34 34 00 00 00 00
       0.00059710274 1.7689066e-06 1.6825379e-07 0.0
000340 56 15 ce 35 fb af 9d 34 2f fc 49 38 c0 9d 41 38
       1.5354406e-06 2.9371571e-07 4.8157e-05 4.6161702e-05
000350 7f 50 4f 38 0e 3c 51 38 3c a6 f2 36 d9 a6 a0 38
       4.9427614e-05 4.9885413e-05 7.2315142e-06 7.660472e-05
000360 f3 f7 5a 37 36 b2 34 37 7c ac 91 37 e9 32 87 38
       1.3051543e-05 1.0770329e-05 1.7365666e-05 6.4467844e-05
000370 a9 8e a8 36 56 86 1f 38 00 00 00 00 5c e6 a8 37
       5.023398e-06 3.8033664e-05 0.0 2.013443e-05
000380 d0 0d 11 38 92 1d a9 38 21 53 b6 38 2a f8 ba 38
       3.4583558e-05 8.064056e-05 8.69392e-05 8.915395e-05
000390 9a 0c ca 38 4f f3 32 38 ef ab b1 38 2b a7 88 37
       9.634458e-05 4.2665106e-05 8.472043e-05 1.6290307e-05
0003a0 db ad 67 37 6d 93 ac 37 61 84 fb 38 3f 17 76 38
       1.3809152e-05 2.0572648e-05 0.0001199327 5.867262e-05
0003b0 1a cb 80 33 00 00 00 00 9f f6 8d 37 0c c6 df 33
       5.9974084e-08 0.0 1.6923352e-05 1.0420271e-07
0003c0 6b 02 35 39 81 41 3c 39 fd c2 43 39 f4 51 56 39
       0.00017262406 0.00017953479 0.00018669288 0.0002043916
0003d0 45 7f 96 36 3c ec 45 38 5e 21 20 37 b0 97 61 37
       4.4851645e-06 4.718847e-05 9.544512e-06 1.3446363e-05
0003e0 fc c2 7f 37 ed fd 78 39 8f ba cb 34 28 24 3a 33
       1.5244583e-05 0.00023745718 3.7947436e-07 4.3339384e-08
0003f0 00 00 00 00 a3 8f c9 34 da 30 9f 33 e5 6c 3a 37
       0.0 3.7543677e-07 7.4129005e-08 1.1111818e-05

exp_avg f4 [64]
000000 cb ac 5a ba 76 bd 84 bc 18 d3 57 3a 0c 02 25 3c
       -0.0008341788 -0.016203623 0.00082330545 0.010071289
000010 ac fa b8 bb 7e 92 77 bc 8b 58 82 3a 1f 3d d2 bb
       -0.005645117 -0.01511061 0.0009944601 -0.0064159776
000020 0f 1e d7 3a 86 59 d6 bb 76 e9 02 3b 50 d0 c9 3a
       0.0016412156 -0.0065414337 0.001997558 0.0015397165
000030 79 6b ff bb a7 dd e8 bc 6e 26 1d bc be b2 4a bc
       -0.007794794 -0.028426005 -0.009591682 -0.012371717
000040 f6 31 89 bb 61 49 25 bb 57 c3 58 3c 93 83 ed 3a
       -0.004186864 -0.002522074 0.013230166 0.0018120877
000050 1d 92 c2 bc 35 7d 55 bb bb 3f 38 3a 37 60 43 bc
       -0.023751313 -0.003257585 0.00070285395 -0.011924795
000060 21 04 89 bb 54 16 ae bb 58 36 3e b8 66 3e a0 bb
       -0.0041814004 -0.0053127203 -4.535014e-05 -0.004890251
000070 d6 8d 40 bc b8 b4 01 b9 25 32 27 3b a3 69 ce bb
       -0.011752566 -0.00012369722 0.0025512066 -0.006299214
000080 33 63 4f bc 38 ca 84 36 0d e9 32 3a 32 3b 87 ba
       -0.012657928 3.957448e-06 0.00068248884 -0.0010317324
000090 6d ae 83 3a 4c d1 b3 bb 68 ea fd 3b 2c 9a 39 3b
       0.001004649 -0.0054875966 0.0077488907 0.0028320653
0000a0 92 51 44 bc ff 81 71 bb 55 f2 ec bb d5 67 28 bb
       -0.0119823385 -0.0036851165 -0.0072310367 -0.0025696654
0000b0 db 68 92 b9 e8 98 a2 ba 07 7b 4b 3a 27 9e ee ba
       -0.00027925413 -0.0012405189 0.0007762168 -0.0018205092
0000c0 d7 cf 35 bc cc 5d 13 bb 2d 1a ef 3a 06 fc ef 3a
       -0.011096916 -0.0022486327 0.0018242054 0.0018309362
0000d0 5c ed 1f b9 ab d8 22 bc c8 db ee bb dd bd 92 3a
       -0.00015251845 -0.009939353 -0.0072893836 0.00111955
0000e0 cd 0a 80 bb 68 60 bb 3b 68 5b 82 3a eb 5a ba bb
       -0.0039075376 0.0057182796 0.0009945454 -0.005687108
0000f0 7e 37 d0 bb 8d 73 8d bc 2d fb 56 3b 79 2e 95 ba
       -0.0063542714 -0.017267013 0.003280352 -0.0011381648

exp_avg_sq f4 [64]
000000 0e ef dd 36 d7 d7 1d 39 48 1d 5e 36 f1 05 cb 38
       6.614143e-06 0.00015053093 3.3097622e-06 9.680901e-05
000010 5b c5 4a 38 00 66 29 39 5c 8e e0 37 4f e0 1f 38
       4.8344355e-05 0.00016155094 2.6769172e-05 3.8117458e-05
000020 09 e6 6d 36 13 dd 6c 37 cd 57 2f 36 03 51 0d 36
       3.544965e-06 1.4118169e-05 2.612814e-06 2.1057792e-06
000030 bf f3 99 37 b2 13 24 39 14 23 08 38 e3 f0 69 38
       1.8352524e-05 0.00015647596 3.2457596e-05 5.5775872e-05
000040 da 0d 29 38 55 05 cb 37 a1 ff a1 38 6d 63 43 36
       4.030564e-05 2.4201969e-05 7.724693e-05 2.9115138e-06
000050 7a 4a 04 39 2c 45 70 37 fe 2d bc 37 9c 29 a8 38
       0.00012616246 1.432122e-05 2.2432763e-05 8.0186146e-05
000060 f9 48 93 37 10 7c 23 37 8f d0 99 35 d2 8c f4 36
       1.7557746e-05 9.744443e-06 1.1460087e-06 7.2881603e-06
000070 bc b2 e7 37 24 e0 fc 36 3d ff 64 37 06 3f 64 38
       2.7620576e-05 7.5362786e-06 1.3649286e-05 5.441813e-05
000080 94 cd 84 39 59 31 46 38 b1 76 5b 38 f5 c7 1b 37
       0.0002533017 4.7252837e-05 5.232421e-05 9.285276e-06
000090 a6 0f 4b 37 48 f8 0b 38 30 f7 c1 37 41 41 ff 36
       1.2103386e-05 3.3371412e-05 2.3122499e-05 7.6071888e-06
0000a0 71 7c 25 38 9e 0a 26 37 bc aa b9 38 d1 67 99 37
       3.945496e-05 9.896843e-06 8.853289e-05 1.8287365e-05
0000b0 9d 8f 38 36 89 1d ee 36 51 3e d4 37 f7 50 f1 36
       2.750173e-06 7.096391e-06 2.5301388e-05 7.1917852e-06
0000c0 46 be 9d 38 1e 78 85 37 eb 53 11 36 28 61 a1 37
       7.5217846e-05 1.591077e-05 2.165553e-06 1.9237938e-05
0000d0 6d 80 66 37 c0 23 d7 37 a6 74 26 38 ee 79 8f 36
       1.373897e-05 2.5646645e-05 3.968612e-05 4.2759266e-06
0000e0 6d a5 00 38 2d 34 3d 37 fd ad b0 38 15 52 7a 38
       3.0671643e-05 1.1277426e-05 8.424742e-05 5.968109e-05
0000f0 a3 2f a9 38 6c 58 00 39 9a ab c5 36 1d 89 4b 36
       8.067421e-05 0.00012239971 5.8910346e-06 3.0329168e-06

exp_avg f4 [32, 64]
000000 03 8f a1 37 01 f8 81 b8 e0 0e b0 3a 86 bb 9a 39
       1.925929e-05 -6.197394e-05 0.0013432167 0.00029512885
000010 02 10 a9 b8 a8 fd a7 3a 86 36 a3 36 46 4c 0c 3a
       -8.06153e-05 0.0012816684 4.864126e-06 0.0005351942
000020 b5 80 93 39 ca fb bb 37 81 f5 92 3b d0 68 09 3b
       0.0002813392 2.2409386e-05 0.0044848328 0.0020967014
000030 be 4d 50 39 49 30 03 38 bf 33 1d 3a 18 6b 31 39
       0.00019865387 3.1277803e-05 0.00059967855 0.00016919931
000040 d2 3f 34 b8 a2 86 52 3a 41 f8 7b 38 fe 2d 94 39
       -4.297478e-05 0.0008030926 6.0074268e-05 0.00028263027
000050 3f 60 1d 38 cb 3c 99 3b b5 47 9d 3a 9a be 62 39
       3.7521353e-05 0.0046764365 0.001199952 0.00021624044
000060 7c f9 3a 3a d2 89 55 3b 24 ae 12 3b 40 cb 07 3b
       0.0007132513 0.0032583368 0.0022381628 0.0020720512
000070 d5 72 50 39 cd 3e 3d 3b 75 2f bf 3a a7 95 38 37
       0.00019879204 0.0028876544 0.0014586287 1.1002098e-05
000080 ea 0d f5 39 55 61 1c 38 5a 29 d0 39 1e 5a ec 3a
       0.00046740408 3.7283946e-05 0.0003970366 0.0018032228
000090 0b a5 8b 39 76 bb 29 39 43 7a f7 3a d3 a0 37 3b
       0.00026635113 0.0001618693 0.0018881041 0.0028019443
0000a0 a7 ae cf 3a b6 49 54 b7 a5 59 9d 38 2d 4d 92 38
       0.0015844897 -1.2653347e-05 7.503041e-05 6.9761976e-05
0000b0 e5 d5 51 3b 78 8a 21 b8 8b be 75 38 2b e0 dc 3a
       0.003201836 -3.851435e-05 5.859001e-05 0.0016851475
0000c0 d1 be 4e 38 e2 33 17 3b 0b 1a 11 3b 30 56 f2 3a
       4.929194e-05 0.0023071696 0.0022140767 0.0018488821
0000d0 6a 83 96 39 e3 a3 6b 3a f7 a9 02 3a 01 dd 51 3a
       0.0002870814 0.00089889596 0.0004984433 0.00080056494
0000e0 6d a7 00 b7 e9 af ba 3a 68 ef 21 3a f1 76 d0 38
       -7.668376e-06 0.0014243099 0.0006177337 9.9403675e-05
0000f0 44 52 fd 37 fa 10 b3 b7 18 19 26 3a 40 7d d8 39
       3.0198258e-05 -2.1346368e-05 0.0006336137 0.0004129205
000100 d8 ba db 36 93 ef 92 38 af 8c 2a 3a 49 15 15 b9
       6.54846e-06 7.006447e-05 0.0006505949 -0.00014217677
000110 cd 06 9d 39 1f 65 0a 3a 9c 82 08 39 bd 5c 18 3a
       0.0002995044 0.00052793504 0.00013018626 0.0005812159
000120 e9 73 a0 3a 31 68 c4 35 29 41 02 3b fd 3d ce 39
       0.0012241575 1.4633462e-06 0.0019875264 0.00039337567
000130 cd 9b af 39 a7 33 4e 39 88 d7 bb 39 db 95 8f 39
       0.00033494682 0.00019664933 0.00035828003 0.00027386736
000140 bc 26 e8 39 ad 2c f9 b8 be 40 15 b8 d6 0e 08 3a
       0.00044279348 -0.00011881567 -3.5584664e-05 0.0005190199
000150 e7 96 76 3a 49 f4 82 3a b4 04 8f 39 70 15 05 38
       0.00094066415 0.0009991016 0.0002727859 3.1729636e-05
000160 7a fc 8a 3a f7 45 7a 39 5f 84 b7 39 3c 85 32 3a
       0.0010603808 0.00023867922 0.00035003104 0.00068100146
000170 8b 00 ac 38 33 66 e0 39 19 ce ba 3a 58 47 29 39
       8.2017e-05 0.00042800754 0.0014252096 0.00016143674
000180 ce 2f f7 39 1c 1d f9 b8 6a 5a b9 39 0e 57 a1 39
       0.00047147128 -0.00011878667 0.00035353313 0.00030773174
000190 b4 44 35 3a c5 11 79 38 17 d5 c0 39 fc 74 bc 39
       0.00069148396 5.9382775e-05 0.00036779858 0.00035945314
0001a0 86 6d 26 3a 39 21 5f 39 c2 52 16 39 85 15 2e 3a
       0.0006348718 0.00021279314 0.00014335944 0.000664078
0001b0 33 fe 86 3a 30 df b1 39 63 40 27 39 e5 dc 31 3a
       0.0010299146 0.00033926358 0.00015950347 0.000678493
0001c0 e3 23 b2 39 d5 63 b9 39 08 f8 61 3a a4 f8 22 3a
       0.00033977543 0.0003536033 0.00086200284 0.000621686
0001d0 8d 9a 81 39 b2 18 00 39 43 0d a0 39 f3 6a 82 3a
       0.00024719947 0.00012216231 0.0003052746 0.0009950086
0001e0 b5 de 11 ba 18 22 ec 39 9c 6b 53 39 a5 a3 a0 39
       -0.0005564497 0.0004503883 0.00020162616 0.00030639503
0001f0 e0 7b bd 37 0b 6e 38 3a 46 70 98 39 3c 72 44 3a
       2.258824e-05 0.00070354406 0.0002907535 0.0007493829
000200 ae 8d 49 3b 01 41 10 bc d1 c8 8c 39 f5 84 5d 3b
       0.0030754614 -0.008804561 0.000268525 0.0033801172
000210 6c 36 ee b9 bf 1d 2d bc 1e 05 26 3b e5 04 a2 bb
       -0.00045435445 -0.010566174 0.002533264 -0.004944431
000220 cd 46 2c 3b 95 bd 90 bb be 77 23 3b ef 1b 38 b9
       0.0026287318 -0.004417131 0.0024943198 -0.00017558013
000230 87 5f 2b bb 9e ff eb bb 0a ea df bb 2a bd df bb
       -0.0026149468 -0.007202103 -0.0068333196 -0.00682797
000240 5f 8c be bb 11 b8 26 3a c9 26 0f 3b 4b 2a b0 b9
       -0.0058150734 0.00063598255 0.0021843186 -0.00033600847
000250 df 00 e3 bb 75 6f e2 3a b3 88 1f 3b b1 0c 6a bb
       -0.006927594 0.0017275648 0.0024342954 -0.003571313
000260 0d 97 31 bb ca 62 39 bb 51 7b fc b9 ec 45 24 ba
       -0.002709809 -0.0028287643 -0.00048157063 -0.00062665227
000270 6d 6e c6 bb e9 04 f4 ba 2a 90 eb 39 5e 5b 29 bb
       -0.0060556442 -0.0018617186 0.00044930103 -0.0025841813
000280 ef 49 3d bc ad 2d d0 ba f0 a5 08 3b 0f cd 97 ba
       -0.011553272 -0.0015882753 0.002085086 -0.0011581498
000290 e6 1f 88 b9 ab 4d d5 3a f0 db 0c ba 62 6b 27 ba
       -0.00025963708 0.0016273757 -0.00053733494 -0.0006386546
0002a0 64 a9 24 bb b7 ce 14 ba 22 43 bf ba a2 21 96 bb
       -0.0025125379 -0.0005676555 -0.0014592151 -0.004581646
0002b0 77 79 5a 3a e7 7b 8b 3a b0 e8 29 3a d8 60 ce ba
       0.000833414 0.0010641784 0.00064815115 -0.0015745414
0002c0 06 85 3d bc cb 5e 70 3b 96 62 fb b9 75 6f b3 3a
       -0.01156736 0.0036677595 -0.00047947903 0.0013689833
0002d0 65 82 07 bb 3a e8 a2 bb df df b5 bb 89 95 51 3a
       -0.0020677086 -0.004971531 -0.005550369 0.0007995
0002e0 69 55 11 bb 22 c9 fd 39 b9 f8 06 bb 80 f7 a6 bb
       -0.0022176153 0.00048405776 -0.0020595028 -0.0050954223
0002f0 ba 7c 2c bb 60 4d 17 bc f0 6d 2d ba f9 56 da 3a
       -0.002631946 -0.009234756 -0.0006615808 0.0016658
000300 f1 72 a7 b9 c4 94 4c 3b c8 1c 9d 39 91 a1 c3 bb
       -0.0003193836 0.00312166 0.00029966817 -0.005970188
000310 63 2a 10 bb 63 de 57 3b f8 3f 5e 3a bf 57 dd 3a
       -0.002199792 0.003293895 0.000847816 0.0016887112
000320 4b 78 cc 3b 5c a1 2a 3b 89 8a 84 3b 1e a5 20 3a
       0.006239926 0.002603612 0.004044835 0.000612812
000330 7c e6 40 3b bf 52 76 3b 83 a3 e8 39 85 1c b4 ba
       0.0029434254 0.0037585942 0.00044372314 -0.001374141
000340 c5 19 ac 38 41 55 4e bb ac a1 09 bb 50 9d d3 3a
       8.206399e-05 -0.003148392 -0.0021000905 0.0016144905
000350 94 a9 06 39 5f e2 91 ba 44 08 b5 38 08 a4 88 3a
       0.00012842409 -0.0011130086 8.632292e-05 0.0010424862
000360 10 11 c4 3a 71 f2 cc 3a 5d d1 97 3a db 94 dd 3a
       0.0014958698 0.0015636218 0.0011582781 0.0016905324
000370 9c 72 00 3b 12 33 aa 39 61 b9 6d b9 83 a9 2e 3a
       0.0019599563 0.00032462977 -0.0002267114 0.00066628325
000380 07 0b 0e 3b 9e ab f7 ba e0 13 78 bb 2e 12 61 3a
       0.0021674053 -0.001889575 -0.0037853643 0.0008585778
000390 41 51 13 ba de 30 e2 ba 40 88 a6 b9 19 1f be 39
       -0.0005619713 -0.0017256995 -0.00031763501 0.00036262794
0003a0 51 de 54 39 19 06 73 3b d8 21 84 bb 55 73 13 38
       0.00020300715 0.0037082492 -0.004032355 3.5154942e-05
0003b0 b6 6d c1 3a f6 90 31 38 12 b2 63 bb a1 74 e8 3a
       0.0014757428 4.2335094e-05 -0.003474359 0.0017734953
0003c0 8a 4a b0 3a 55 e6 5d bb e8 43 27 3b 57 0a 79 ba
       0.0013449949 -0.0033859212 0.0025522653 -0.0009500137
0003d0 1d 5f f3 ba 6d a2 44 b7 20 7d f2 3a c7 95 49 3b
       -0.0018567775 -1.1720328e-05 0.0018500425 0.003075944
0003e0 63 bf 1d bb 81 e8 4a 39 89 bf ac 38 1e 06 12 bb
       -0.0024070374 0.00019350836 8.237275e-05 -0.0022281478
0003f0 75 a9 53 ba 62 50 ae 39 e8 5d 73 3b 11 00 b6 3b
       -0.00080742623 0.00033247756 0.003713483 0.005554207
