lightning_logs/version_117/checkpoints/epoch=49-step=250.ckpt (torch, 121307 bytes, 30 tensors)

gru.weight_ih_l0 f4 [96, 15]
000000 3a da 40 3e 4b ac 14 bd 2f e0 7d 3d b2 0d 8d bd
       0.18833247 -0.036297124 0.061981376 -0.06887378
000010 54 6a 8a 3d f0 4c ba bd b3 ff 31 be 70 00 06 bd
       0.06758562 -0.09096706 -0.17382698 -0.03271526
000020 f2 e2 b8 bd 8c 2f 15 be 43 ea 18 3d 40 ea da bd
       -0.090276614 -0.14568919 0.037332784 -0.10689211
000030 9d 4d d5 ba 17 cb 64 be 69 1f 9d 3d 87 1a 73 be
       -0.0016273741 -0.22343098 0.07672007 -0.23740588
000040 3a 98 30 be 76 8b 55 bd aa 65 c4 bd b6 2a 42 3d
       -0.1724557 -0.052134953 -0.095897034 0.047404014
000050 0b a6 84 be 10 99 1e be 1d f5 c8 3d cf 19 82 3d
       -0.2590793 -0.15488076 0.09812377 0.06352579
000060 53 50 99 be 8b 86 12 be b3 9c 99 3d 3d aa 84 3d
       -0.29944095 -0.14309137 0.07500591 0.06477783
000070 b5 4c 98 bd 96 9c 2f 3d 8a 29 4c 3d 0d 6f fa 3d
       -0.07436506 0.04287394 0.049844302 0.122282125
000080 9c 66 1f be 08 9d fb 3c 9f bb 57 3d 9d d7 39 bb
       -0.15566486 0.030714527 0.052669164 -0.0028357275
000090 81 c8 a1 3c 49 5e c6 bd 75 da b3 bd c6 ca 38 be
       0.019748928 -0.09685952 -0.08781902 -0.18046102
0000a0 5b 4e 67 be 15 f3 54 3c c3 0a 7c bd b3 35 4d be
       -0.22588484 0.012997408 -0.0615337 -0.20040016
0000b0 6c af 24 3d 7a a9 b7 3c 96 94 18 be ab 42 10 be
       0.040206358 0.02241968 -0.14900431 -0.14087932
0000c0 a2 f9 4e be 22 c8 41 3e f0 bb 0c bc 46 ad a2 3d
       -0.20212415 0.18924001 -0.00858973 0.079432055
0000d0 b7 b3 25 bd 54 d9 64 3d 30 bf d2 bd 3c 66 87 3d
       -0.040454593 0.055871323 -0.10290372 0.066112965
0000e0 9d 31 2e be 73 15 1c 3e 32 03 11 bd 71 74 ea bd
       -0.17011113 0.15242557 -0.035403438 -0.11447991
0000f0 8c 33 4b 3e e3 ed 9c 3d 05 d0 06 3e 6f 9a 09 bd
       0.19843882 0.07662561 0.1316529 -0.033594545
000100 00 3e 41 3e b5 0c a9 3d 09 10 10 3e 5f 26 17 3d
       0.18871307 0.08254377 0.14068617 0.036901828
000110 f4 de 92 bd 15 90 28 be b4 74 39 3e d6 8b e6 3c
       -0.07171431 -0.16461213 0.18110925 0.02814285
000120 d8 62 5e 3c 18 ca 0e bd 10 f9 6d be a5 8e 39 bd
       0.013573371 -0.0348607 -0.23239541 -0.045302052
000130 9d 14 0d bd 9b bb d8 bd 7b 1d 04 3d b8 02 07 bc
       -0.034443486 -0.10582658 0.032254677 -0.008240394
000140 39 74 be bd ee 02 71 bd 40 de 05 be 21 8b a4 bb
       -0.092995115 -0.058840685 -0.13073063 -0.0050214683
000150 6d d8 3c be 61 27 ed 3d a2 56 ad bd 2e db f2 3d
       -0.18441935 0.115797766 -0.084637895 0.118582115
000160 1e 83 3a be 96 c7 c2 3d 61 2c 49 be 8e 03 2a be
       -0.1821408 0.09510724 -0.19645835 -0.16602919
000170 9d ea 0c be ce df 88 3d ed 50 14 be 78 aa 4d 3d
       -0.13761373 0.06683312 -0.14483996 0.0502114
000180 70 d3 33 3e e4 8c 50 bc 1c cf b9 3d 67 d9 88 be
       0.17561126 -0.012728903 0.09072706 -0.26728365
000190 ad fe 82 be 55 99 f3 bd 7a 9b 2c be c7 45 04 be
       -0.25584927 -0.1189448 -0.16856185 -0.12917243
0001a0 8c 24 45 3e 9a 46 07 3e ca fb 2c be ee 2c ed bd
       0.19252223 0.13210526 -0.16892925 -0.11580835
0001b0 4b 0d f6 bc c7 7e f8 bd 3d 0c 5a 3e ff d6 ee bc
       -0.030035635 -0.12133556 0.21293731 -0.029155253
0001c0 8f 8a b9 3d c7 24 fa bd 55 35 dc bd 6d c9 7d be
       0.09059631 -0.12214046 -0.1075236 -0.24783869
0001d0 e5 a3 39 3d 6c be 7a bd 78 00 1e be 00 83 92 bc
       0.045322318 -0.061216757 -0.15429866 -0.017884731
0001e0 a1 f8 9a 3d 83 e3 10 be 5c 68 e2 3d 69 51 86 3d
       0.075669535 -0.14149289 0.11055061 0.065584965
0001f0 1c b6 02 3e 4d d4 d4 3d 2c 5b 12 3d 1c f2 ad 3d
       0.12764782 0.10392056 0.03573148 0.08493444
000200 22 36 30 3d f8 6e 5f 3d 7d 66 72 3d e4 15 0d bd
       0.043020375 0.054549187 0.05917977 -0.034444705
000210 e9 3d 79 bd 0a 9e b4 3d 0c 3a d0 bc ed 44 e1 bd
       -0.060850058 0.08819206 -0.025418304 -0.10999475
000220 80 54 39 3e 4a ba a0 3c e1 d4 ae bd bb 61 86 bd
       0.1809864 0.01962008 -0.08536697 -0.06561609
000230 d7 df e0 3d aa e7 d5 3d 74 8b 0a 3e ba dc a8 bd
       0.10980194 0.10444577 0.1352976 -0.08245225
000240 04 7a fa 3c f6 b8 ca bb 30 17 73 be 12 19 37 bd
       0.03057576 -0.0061866 -0.23739314 -0.044701643
000250 b2 d4 25 bd 55 e7 98 3c 27 f5 50 3e 00 70 4f 3d
       -0.040486045 0.018664995 0.20406018 0.05064392
000260 10 9d 8e bd 2d db f9 3d 68 ad 0e 3e 12 9b fd bd
       -0.06963551 0.122000076 0.13933337 -0.12383093
000270 8c 02 7d 3d aa 16 80 3d b2 f3 2e be de 24 15 be
       0.061770007 0.06254323 -0.1708515 -0.14564845
000280 21 50 0a 3d 2e 4b 01 bd fa 5e 49 3d d5 5e 0e 3d
       0.033767823 -0.031565838 0.049162842 0.034758408
000290 c0 46 8c bd 6e 28 e2 3d d2 21 a7 bd 31 73 0f 3d
       -0.06849432 0.110428676 -0.081607476 0.035021964
0002a0 5a 33 2e 3d cc 06 7f 3d f1 25 72 3d c6 bc f7 bd
       0.04252944 0.06226234 0.059118215 -0.120965526
0002b0 3f ed ee bb 96 6a 94 be ec 8c 17 3e 6a 9f 2c be
       -0.0072914655 -0.2898757 0.14799851 -0.16857687
0002c0 da a9 41 be 11 35 d2 bd 19 e5 5f be 63 1b 5f be
       -0.1891245 -0.10264028 -0.21864738 -0.21787791
0002d0 4f d1 8f ba e5 3c 02 3e 81 02 89 3d e2 f5 2f 3d
       -0.0010972413 0.12718542 0.06689931 0.0429591
0002e0 7a e5 61 3a 8f 01 3d be cb b7 92 3d c2 71 4f 3b
       0.00086172635 -0.18457626 0.07163962 0.0031653498
0002f0 43 3c 82 bd 05 39 ae 3d 7d 60 fe 3c bc bd 17 bd
       -0.0635915 0.08506969 0.031051869 -0.03704618
000300 c2 65 74 3d 77 d6 08 be e1 f2 43 3d 3c c5 fa bd
       0.059667356 -0.13363062 0.04783905 -0.12244651
000310 80 d4 d4 bc 4e e7 f1 3d 8e 73 01 3e d0 e0 40 3e
       -0.025980234 0.11811696 0.12641737 0.18835759
000320 78 1d 03 bd 9b fc a9 3d b0 c6 06 bd 65 7d 85 3d
       -0.032010525 0.08300134 -0.032904327 0.06518058
000330 12 ee 01 be d7 99 62 3c f9 ba c1 bd cb e9 23 be
       -0.12688473 0.013830624 -0.0945949 -0.16007154
000340 e4 02 4f 3c 40 b4 35 bc b5 6b 20 3e a1 31 d3 bd
       0.0126349665 -0.011090338 0.15666087 -0.103122
000350 1e c1 e8 3d 40 da d4 bd d1 89 cf 3c 24 1d 13 be
       0.11364959 -0.103931904 0.02533427 -0.14366585
000360 e1 29 24 be 8d 8b de bb 71 8e 35 be f1 59 00 3c
       -0.160316 -0.006791538 -0.17730118 0.007833944
000370 2d 31 42 bd 87 02 09 3d 40 b2 99 b9 13 df 17 bd
       -0.04741018 0.033449676 -0.0002931524 -0.037077975
000380 ff 33 57 be f8 d6 a6 3d b3 24 cf bd 3b bc 06 3e
       -0.21015929 0.08146471 -0.10114422 0.13157742
000390 ce 61 15 be 67 96 0b bd 79 2c 49 3e 36 97 4f 3e
       -0.14588091 -0.03407898 0.19645871 0.20272526
0003a0 8d c1 44 bd a3 d8 eb bd 97 16 1c be 55 c3 5f be
       -0.048036147 -0.115159295 -0.15242992 -0.21851857
0003b0 80 40 7a be 5e 50 2a 3e 03 d4 76 bd 41 88 1d be
       -0.24438667 0.1663222 -0.060260784 -0.15384008
0003c0 16 54 ee bc 69 d1 77 3d 4b da 20 bd b6 2a d9 bc
       -0.02909283 0.060502443 -0.03927068 -0.026509624
0003d0 ce 4f c5 bd f6 82 d1 bd e2 ee e3 3d a8 9a ea 3b
       -0.09634362 -0.10230057 0.11129548 0.0071595497
0003e0 c7 f1 6d bc 42 85 29 3d 54 f8 19 be 31 04 84 be
       -0.014522976 0.04138685 -0.15036136 -0.25784448
0003f0 20 6b a0 bc ff 26 1f 3d 8f 5c 91 bd b6 ea 00 be
       -0.019582331 0.03885555 -0.07097732 -0.12589535

gru.weight_hh_l0 f4 [96, 32]
000000 d8 55 34 bd 2a 8f eb 3b ce 63 0c 3c 82 8a 49 be
       -0.04402718 0.0071886973 0.008568717 -0.19681743
000010 0d 7c 36 3e c9 18 69 bd 6f c2 26 be b7 e0 3e bd
       0.17820759 -0.056908403 -0.16285108 -0.046601024
000020 a1 95 36 be 72 5a 6e bd de d0 02 3e ea 3b 34 3b
       -0.17830516 -0.058191724 0.12774989 0.0027501532
000030 ef c5 89 3d ac 08 77 3e e7 59 53 3e 08 00 f6 bd
       0.06727206 0.24124402 0.20639764 -0.12011725
000040 a1 21 d1 3d 13 72 b9 bd 4c ce e3 bd ce e8 22 3d
       0.10211492 -0.09054961 -0.111233324 0.0397728
000050 e4 65 cb 3d 5e 50 2e 3d cf 12 ee bd 35 fc 6d 3e
       0.099315435 0.042557113 -0.11624681 0.2324074
000060 67 c9 2c 3c 8f 91 71 be b6 f2 04 bd 19 c7 09 3e
       0.010546065 -0.23590682 -0.03245803 0.13454856
000070 ad 5b b9 3d 85 22 80 bd f1 f3 1d be 53 80 25 3d
       0.09050689 -0.06256584 -0.15425088 0.040405583
000080 9f 9f 9a 3d b2 48 1d be ad 04 09 be 43 73 13 be
       0.075499766 -0.15359762 -0.1338069 -0.14399438
000090 75 ec 75 3e 87 66 3f 3e 8c 61 cb bd 3c e1 41 bd
       0.24015982 0.18691455 -0.09930715 -0.04733394
0000a0 c0 7a 6c 3d 44 4a c0 3d 3b 58 10 3e a2 07 04 bd
       0.05773425 0.09389165 0.14096157 -0.03223384
0000b0 55 40 c9 3b 19 f9 3c bd b7 78 1d 3c 31 de 03 3d
       0.006141702 -0.046135996 0.0096113 0.03219432
0000c0 4b 1f 90 3d e1 a0 1b 3e 79 fc 9b 3d 66 ff d9 3d
       0.07037219 0.15198089 0.07616515 0.106444165
0000d0 55 63 a0 bd 90 78 44 3d 20 98 d8 3d f2 00 3c bd
       -0.07831446 0.04796654 0.105758905 -0.04589934
0000e0 44 14 b2 bd 7e 43 46 3e a5 26 2a 3d 7d d2 17 3e
       -0.086952716 0.19361684 0.04154076 0.14826389
0000f0 23 6c ae 3d 8b 99 1a 3e 21 08 0f be 9d 60 11 be
       0.08516719 0.15097634 -0.13967945 -0.14197011
000100 7c 7d e6 bd 88 18 14 bd 2f d4 9e 3d d7 a6 25 3c
       -0.11254403 -0.036156207 0.077553146 0.0101105785
000110 1e 7e 65 3e 5d c6 d1 bd 1c 57 d7 3b 09 88 c8 3c
       0.22411391 -0.10242913 0.0065716635 0.02447893
000120 ef a5 83 bd e5 36 8c bd ed de 81 3c 35 ee da bd
       -0.06428134 -0.06846408 0.01585337 -0.10689966
000130 4d e4 0e 3e c8 7f 7a bd f4 2a 5b 3e 48 cc af bd
       0.13954277 -0.061157018 0.21403104 -0.085838854
000140 8c 12 12 3e 9f 86 3d 3d 9c 9e 8c bd 45 ae 0f 3d
       0.14264888 0.046270963 -0.0686619 0.035078306
000150 b8 9d b5 bd 3d f1 00 bd 3b 63 49 3e 91 8d 28 3e
       -0.08867973 -0.031480063 0.1966676 0.16460253
000160 6a ea ae 3d b6 7f 68 be e0 2b 9c bc 43 ec 07 3e
       0.08540805 -0.22704968 -0.01906389 0.1327372
000170 d4 70 24 bc b7 5c 56 3e f4 92 a1 3d fa 3e e8 bc
       -0.010036666 0.20933805 0.07889357 -0.028350342
000180 f2 ce ef 3d ba f8 0f bc 03 36 0c 3e ef 0c 6e 3c
       0.117093936 -0.008787328 0.13692479 0.014529451
000190 41 69 66 3e 56 72 84 3d 30 c5 99 3d f3 37 38 be
       0.22501089 0.0646712 0.07508314 -0.17990093
0001a0 e6 dc a5 bd ed 68 ae 3d fd 79 ac 3c 22 4d 1b be
       -0.08098774 0.08516107 0.021054262 -0.15166143
0001b0 1b 52 e0 3d 74 5e 27 bd fb 00 77 3c 02 bb 78 bd
       0.109531604 -0.040861562 0.015075917 -0.06072522
0001c0 06 97 04 be df d5 43 3e e9 1f f0 bc a0 40 f4 3d
       -0.12948236 0.19124554 -0.029312091 0.11926389
0001d0 68 d0 96 bd 3b 44 11 be 48 a6 87 3e b1 f1 0e 3e
       -0.07363969 -0.14186184 0.2649405 0.13959385
0001e0 58 37 26 3e 1e 89 a9 bd b4 b2 f9 3d d1 21 f0 bd
       0.1623205 -0.08278106 0.12192288 -0.117252
0001f0 9d d9 24 3e 90 3b 0e be 08 ce ae bd 7e ce 42 be
       0.16098638 -0.13889909 -0.08535391 -0.19024083
000200 a8 30 c6 bd fa 06 10 be f9 5b ff 3d e6 5a 24 be
       -0.09677249 -0.14065161 0.12468714 -0.160503
000210 c3 27 49 3d f8 b8 14 3d 2d 86 4a 3d cd ac 13 be
       0.049110185 0.036309212 0.049444366 -0.14421387
000220 fd 0f 9e 3d ee 2e 8d bd f5 7c 88 3d 6a 52 45 3e
       0.07717893 -0.06893717 0.06664459 0.1926972
000230 8b 0b 01 be 3e 46 2a bd 58 82 e1 bd a2 e6 df 3d
       -0.1260206 -0.041570894 -0.11011189 0.109326616
000240 f0 f3 77 bc 8c 9c 32 bc 74 7f b2 3b 5b 75 2e be
       -0.015133843 -0.0109015815 0.0054473225 -0.17036955
000250 a9 b4 f6 bd 7d 41 bd 3d f4 9a 02 3e 54 fd 87 3e
       -0.12046177 0.092410065 0.12754422 0.26560462
000260 bb 53 31 bd bc 49 1c 3e 8a 35 4f 3e 66 f6 43 be
       -0.043292742 0.15262502 0.20235267 -0.19136962
000270 ce 57 e1 ba 17 68 bf 3d ad 84 69 be b2 e9 12 be
       -0.0017192306 0.093460254 -0.22804518 -0.1434696
000280 8f 57 50 3e 2b b4 cd bd b8 0c 34 3e 39 15 83 bc
       0.20345901 -0.1004413 0.17582977 -0.01600133
000290 0b cc db 3d ed 16 87 3d 89 00 99 3d 04 00 20 be
       0.107322775 0.065961696 0.07470805 -0.15625006
0002a0 67 31 f2 bd cc 8a 0a be 8d 64 b5 3c 6d ba e1 3d
       -0.11825829 -0.1352951 0.022142673 0.11021886
0002b0 db da be 3d 01 ea 47 3c 55 61 c4 3b 25 65 ed 3d
       0.09319087 0.012201787 0.005993048 0.115915574
0002c0 c9 b8 a1 bc 8f ec bb 3d 4a 12 f5 3d cd ee 01 3e
       -0.019741433 0.09175979 0.11966379 0.12688752
0002d0 fe f8 39 be 7c 3e 48 3a ff c5 e1 3d 04 df f0 3d
       -0.18161389 0.00076387054 0.11024093 0.11761287
0002e0 34 4c 20 be 2e 7a 1f bd 86 b2 3e be 11 e6 41 3e
       -0.15654069 -0.03893488 -0.18622789 0.1893542
0002f0 59 f6 ad 3d a6 ff 98 bd 4c 89 a3 bd df d1 1e bd
       0.08494253 -0.07470636 -0.07985172 -0.038774367
000300 d9 f0 28 be 42 af 98 bc 55 01 30 bb 9b ea 03 be
       -0.16498126 -0.018638257 -0.0026856263 -0.12882464
000310 26 a3 01 3e 0b bf d9 bc 8c 06 8b bd ae 1c 3c be
       0.12659892 -0.026580354 -0.06788358 -0.18370315
000320 ef de 9b bd 06 c1 54 be ec 11 05 3e de 49 24 3e
       -0.076108806 -0.20776758 0.12995118 0.16043803
000330 42 8b 7d 3e 6e 55 24 3e 4e 4e 1b 3d 5d 56 30 be
       0.24760154 0.16048214 0.037916474 -0.17220445
000340 12 bc f5 bd 91 95 ef bd 15 e6 8e bd f7 0b 64 3d
       -0.11998762 -0.116984494 -0.069774784 0.055675473
000350 82 8a 1f bd 72 14 8a bc bd e6 5e 3d 3d 6d fa 3d
       -0.03895045 -0.016855452 0.054419268 0.12227867
000360 54 6c 77 3d 3e 46 b3 bd 36 73 03 3e 06 5a 85 bd
       0.060406044 -0.08753632 0.12836918 -0.06511311
000370 fb 2f c5 3d 22 46 b6 3d 43 59 6e bd e7 62 50 bd
       0.09628292 0.089000955 -0.058190595 -0.05087557
000380 a6 ee 43 bd 96 f8 12 3e 40 b8 28 3c 33 9b d1 bd
       -0.047835015 0.1435264 0.010297835 -0.1023468
000390 2e d2 7d 3d b6 0f d0 bb e6 89 da 3d 90 f0 d4 bc
       0.06196802 -0.006349529 0.10670833 -0.025993615
0003a0 f2 db 83 bc 11 f3 81 bc 35 52 95 bd f5 80 1b 3e
       -0.016096089 -0.015862973 -0.0729107 0.15185912
0003b0 b8 3b a7 bd df ef 53 3e 8e c2 39 bd c7 b4 7d 3d
       -0.08165687 0.20696972 -0.045351557 0.06193998
0003c0 2e b1 f9 3d ec 31 1d be 4d 43 08 3e ca d0 bb bc
       0.121919975 -0.15351075 0.13306923 -0.022926707
0003d0 cf 0a 41 be cd 9e 02 be 67 b8 b5 3d bb bc e6 3d
       -0.1885178 -0.1275589 0.088730626 0.11266466
0003e0 6e da f8 3d 4b bd 4c be c0 3c 83 ba f8 9b 06 be
       0.12151037 -0.19994085 -0.0010012612 -0.13145435
0003f0 fa 36 32 be 81 38 1e 3e 27 ae 23 3e e7 a2 2f be
       -0.17403784 0.15451242 0.15984403 -0.17151986

gru.bias_ih_l0 f4 [96]
000000 fc 9e 69 3c 58 5f b1 bd ca 4e e8 bc 90 6e 03 3e
       0.014259096 -0.086607635 -0.028357882 0.12835145
000010 1f dd ed bd e7 03 55 3d d6 8c 9b bc ba 4d 79 3d
       -0.11614441 0.052005675 -0.018988054 0.06086514
000020 fc 16 e8 bb 15 b5 2a 3d 72 ca b4 bd 80 1c a1 bd
       -0.007082818 0.0416766 -0.08827676 -0.07866764
000030 8e 3f fa 3d f2 a4 0d be 65 1c c9 bd 16 7d 96 3c
       0.12219153 -0.13832453 -0.09819869 0.018370192
000040 ea 53 f2 bc 33 64 1c be 9f 10 8f bd 08 bf 2f 3e
       -0.029581029 -0.15272598 -0.06985592 0.17162716
000050 6e 90 db 3c 0b be 2f 3d 8c 2e d2 bd 54 aa b4 bd
       0.026802268 0.04290585 -0.10262784 -0.0882155
000060 b0 6c b9 3d ea 5a 0c 3e 21 12 08 bc ed da 1c 3e
       0.090539336 0.13706556 -0.0083051035 0.15317889
000070 7b 43 e1 3d cd 9e f3 3d 51 05 70 3e 0e e5 fe 3c
       0.10999199 0.11895523 0.23439528 0.031115081
000080 66 6b 1b 3e 18 d7 16 be c0 2f b8 3c 31 28 d8 bc
       0.15177688 -0.14730489 0.022483706 -0.026386352
000090 9a 11 54 be d5 d5 22 bc 04 49 a8 3d 78 8c 29 be
       -0.2070984 -0.009938677 0.082170516 -0.16557491
0000a0 77 46 42 be 78 24 12 3d 48 14 f9 3d 0c 90 cf 3d
       -0.18972193 0.03567931 0.121620715 0.10134897
0000b0 8f d5 ce bb 52 23 18 3e c2 d3 1d 3e 1e 8e 05 3d
       -0.0063120793 0.14857224 0.1541281 0.032606237
0000c0 e0 e8 61 3d d2 62 6a 3e 8b 0e 75 3d 19 e6 de bb
       0.055153728 0.2288926 0.059828322 -0.006802332
0000d0 20 d9 b1 3d ad 0c 44 3d 33 58 1b 3d 44 b3 4d bd
       0.086839914 0.04786365 0.03792591 -0.05021979
0000e0 b1 b0 0e 3e be ab bb bd d2 c6 29 bb cc 12 d9 bc
       0.1393459 -0.091636166 -0.002590586 -0.02649822
0000f0 de 21 7a 3d 1c 2d b0 3e 6f 5e 04 3e 7c 9a 37 bd
       0.061067455 0.34409416 0.12926649 -0.044825062
000100 95 77 c6 bd 71 da cf 3c eb 76 4c 3e 81 d1 94 bd
       -0.09690777 0.025372716 0.19967239 -0.07266522
000110 89 2c 25 3e 0f cf 60 be 02 86 3e 3d e8 3f fb 3c
       0.1613027 -0.21953987 0.04651452 0.030670121
000120 d3 38 76 be 13 67 d0 3d 9d d7 f2 3d 76 8d 5d 3e
       -0.24045114 0.1017591 0.11857531 0.21635994
000130 37 d0 83 3d 7a 6f 54 3e 81 19 5d bd 42 29 25 3e
       0.06436198 0.2074565 -0.0539794 0.1612902
000140 57 e2 be 3c e6 f6 6d 3e 32 53 3d bd 39 18 c5 3c
       0.023301287 0.23238716 -0.04622192 0.024059402
000150 9d 48 16 3e c5 34 22 be 29 fb 1b 3e 89 cc 71 3d
       0.14676137 -0.15840442 0.15232529 0.05903295
000160 b2 85 20 be fe e5 62 be c5 02 1b 3e 18 61 9d bd
       -0.15676 -0.22158048 0.15137775 -0.07684535
000170 33 a4 85 3d 27 8f c8 bb 40 cf a4 3c 9b 4a fe bd
       0.06525459 -0.0061205807 0.020118356 -0.124165736

gru.bias_hh_l0 f4 [96]
000000 00 67 63 3e e9 5c 12 3e e4 46 c7 3d b8 12 8d bc
       0.2220726 0.14293255 0.09730318 -0.01722084
000010 69 ae ac 3d f4 f5 a5 bd 9d d1 a8 3b e9 73 37 bd
       0.084317036 -0.081035525 0.005151941 -0.044788275
000020 33 57 c0 3d b3 7b 3f 3d fe 9c 48 bd 04 cf 3c bc
       0.09391632 0.04674883 -0.048977844 -0.011523966
000030 69 0a 25 3e 39 c0 1e 3d ca 0b 60 3d 16 6d 91 3d
       0.16117252 0.038757537 0.054698743 0.071008846
000040 64 5f 20 3e 03 c3 8d bd ad 27 96 bd f8 76 07 3d
       0.15661389 -0.06921961 -0.07331786 0.03307244
000050 d8 40 09 bb c2 85 c6 3d 36 d0 bc 3d 2b 2d 52 3d
       -0.002094319 0.09693481 0.092194006 0.051312607
000060 65 df 52 3d 5d 86 de 3d 2f 90 0f 3e 2a 78 53 3b
       0.051482577 0.108654715 0.14019845 0.0032267668
000070 5c d6 2d bd 15 2b bc bd 0c 3f d3 3d 77 52 8d bd
       -0.042440757 -0.09187905 0.103147596 -0.069004945
000080 80 53 7d 3e 69 15 d1 bd 90 28 33 bd cf 57 60 3d
       0.24738884 -0.10209162 -0.043739855 0.05477124
000090 c0 2a 54 be 0a bf a0 3e c8 8e 8e bc 7e ad 59 be
       -0.20719433 0.3139575 -0.017402068 -0.21257588
0000a0 ee 0d 8e bd ab c2 ea bd f6 d3 be bc ea d6 27 3d
       -0.069362506 -0.11462911 -0.02329443 0.040976442
0000b0 13 f4 37 3e 5e 8a 51 3b 3c 97 23 3e 3d b8 10 bd
       0.179642 0.0031973342 0.1597566 -0.035331953
0000c0 29 c6 7a 3e 4f 66 67 3e 59 1f 53 3e aa f0 44 bd
       0.24489655 0.22597621 0.20617427 -0.048081078
0000d0 a8 37 c2 3d a3 97 29 3e b1 0c 92 3d d6 30 c6 3b
       0.09483272 0.16561751 0.07131327 0.006048302
0000e0 9a c1 10 be 7a fa c9 bd 71 7a 32 3e ea 22 97 3d
       -0.14136353 -0.09862228 0.1742952 0.07379706
0000f0 60 a9 d3 3d f0 62 99 3e 14 d6 f4 3d 16 05 1f 3e
       0.1033504 0.29958296 0.11954895 0.15529284
000100 29 88 15 bd e2 f9 2a be 81 fb a2 3d b6 63 05 3e
       -0.036506806 -0.16696885 0.07958127 0.13026318
000110 7f a3 7d bd f3 8e c2 bc 62 70 c5 3b b1 4c c6 3d
       -0.0619235 -0.023749804 0.00602536 0.096825965
000120 ac e3 d2 bd d8 7e d7 bd 16 a9 5b 3e a5 ac 1b 3e
       -0.10297331 -0.105222404 0.2145122 0.15202577
000130 58 c9 1b bd c9 bf 21 3e 08 25 21 3d 32 4f 00 3e
       -0.038033813 0.15795816 0.039341956 0.1253021
000140 0b 46 2d 3e ed ee d3 bd 00 49 0d be 2c 2b 61 3d
       0.1692125 -0.10348306 -0.13797379 0.054972813
000150 d7 48 25 3e 6c ec f6 3c 0d 66 93 bd 9e a3 ca bd
       0.16141067 0.030142032 -0.07197199 -0.09894489
000160 1e 49 67 be bb a1 50 be 12 7a 70 3e be f8 57 bd
       -0.22586486 -0.20374195 0.23484066 -0.052727453
000170 9b 9b 80 3d d3 eb 26 3e a3 ee 2f be cd e5 94 bd
       0.062796794 0.16300897 -0.17180876 -0.072703935

output_layers.0.weight f4 [64, 32]
000000 1b 92 00 be 50 74 5b be 7a 4f 13 3e 00 b5 b7 bd
       -0.12555735 -0.21431088 0.14385787 -0.0897007
000010 ed 06 44 3e f4 fd 11 3d e3 1b a2 bd 03 77 c9 3c
       0.19143267 0.03564258 -0.07915475 0.024592882
000020 02 96 de bd a1 a5 1d 3e ae 9b 3c 3e 08 51 01 3e
       -0.108684555 0.15395214 0.18418762 0.12628567
000030 a9 1b ab bd 29 e5 6b 3e ee 6d d1 bd 50 91 5e bd
       -0.08354885 0.23036636 -0.102260455 -0.0543378
000040 8d 4f f8 bd bc 9d 97 3d 00 40 3e 3d 43 66 1b bd
       -0.12124548 0.07403132 0.046447754 -0.03793932
000050 5b e2 00 be 7a 84 b3 bd 96 df 02 3e 3c b0 8a 3d
       -0.12586348 -0.08765502 0.12780604 0.06771895
000060 38 81 16 be ee d1 64 3d bb b5 76 3d a6 05 1a 3d
       -0.1469773 0.055864267 0.060231905 0.037603043
000070 3b eb f1 3d b8 60 2e 3e b4 85 fd bd fc 64 c5 bd
       0.11812445 0.17029083 -0.123790175 -0.09638402
000080 9b 7e 11 bd c8 64 3a bd e0 8b 33 3d 35 ba ca bc
       -0.03552113 -0.04550627 0.043834567 -0.024746994
000090 73 e5 66 3d 8a 8c 9c bd dd 82 10 3d ed 94 ac 3d
       0.056371164 -0.07643993 0.03528105 0.08426843
0000a0 be 4c 8c bd 64 fd ac bc b4 ac 8b 3b e1 db 13 3e
       -0.06850575 -0.02111692 0.004262531 0.14439346
0000b0 46 e5 b9 bd 88 62 0b 3d 09 10 d7 bd aa 94 ac bb
       -0.090769336 0.034029514 -0.10501105 -0.0052667456
0000c0 3d 8d 62 3d f3 86 5f 3e 50 9d 1d bd c0 cf 54 3d
       0.055310477 0.21828823 -0.038480103 0.05195594
0000d0 e8 44 35 3e b8 10 e8 bc d5 b5 e3 bd 75 10 f4 bd
       0.17702067 -0.028328285 -0.11118666 -0.119172014
0000e0 0b c7 0d 3e 05 2f 1e be 7a 69 11 3e 5d 57 25 bd
       0.1384546 -0.15447624 0.14200392 -0.04036652
0000f0 f2 99 a3 bd ca df 52 3e dd 9f 48 be 25 16 02 3e
       -0.07988347 0.20593181 -0.19592233 0.1270376
000100 99 42 31 3e 4e 5d 88 bd 38 42 7e be d4 95 e7 bd
       0.17310561 -0.066584215 -0.24829948 -0.11307874
000110 83 87 a3 3d 6e 2b 06 3d 87 c4 a9 bd 11 82 3b bd
       0.07984831 0.03275626 -0.08289438 -0.045778338
000120 be 36 bc 3d cb 09 47 be 56 62 68 bd 0d 1a 6b be
       0.09190129 -0.1943733 -0.056734405 -0.22959156
000130 69 aa 23 be 6f c0 db 3a f0 7f 68 3e 52 f3 0e 3c
       -0.15982975 0.0016765724 0.22705054 0.008725004
000140 c9 3b d0 bd 03 72 83 bd c8 f1 2a 3e bd 40 c5 3d
       -0.10167653 -0.064182304 0.16693795 0.096314885
000150 d5 db 95 bd 83 56 73 3d 52 82 2e be 51 0d 6a 3d
       -0.0731732 0.059408676 -0.17041901 0.057141606
000160 ba bf f0 bb a1 91 40 3e df 8a cd bb 7e eb 81 3c
       -0.0073470743 0.18805553 -0.0062726582 0.015859362
000170 f4 81 22 be e1 a0 c7 bd 9a 27 d2 bc 0a 4b b3 bd
       -0.15869886 -0.09747482 -0.02565365 -0.08754547
000180 6e 0a 43 be 77 e7 03 be 3a a4 9f 3d cc dc 87 bc
       -0.19046947 -0.12881266 0.077949956 -0.016584776
000190 e6 83 2f bd f8 41 d2 bd b4 53 2d bc 7d e5 d3 3d
       -0.042850398 -0.10266489 -0.010579038 0.10346506
0001a0 b1 19 a7 3d 30 84 30 3e 21 4f 48 3e e9 0f f5 bd
       0.08159197 0.17237926 0.19561435 -0.11965925
0001b0 9c c8 00 3e 8a b1 1c bd d8 b6 b0 3d d3 95 cb 3d
       0.12576526 -0.038255252 0.08628625 0.09940686
0001c0 dd 0f 45 3c 45 4e fe 3c 5f 7f 44 3d 74 3c 06 be
       0.012027708 0.031043181 0.047973033 -0.13108999
0001d0 59 f8 f8 bd 86 2a d4 3c 8b 24 04 3e 95 f2 ba bd
       -0.121567436 0.025899183 0.12904565 -0.091283
0001e0 f1 9f f4 bd 24 ca 64 bc 94 bb 21 3e 7a 1d 30 be
       -0.11944569 -0.01396421 0.15794212 -0.17198744
0001f0 d6 72 34 3e d2 be 97 3d fc 2d ba bd c3 13 28 be
       0.17621931 0.07409443 -0.09090802 -0.16413788
000200 8d b1 30 3e 82 44 a5 3d 77 ae 33 3e dc 06 d3 bd
       0.1725523 0.080697075 0.17547022 -0.10304043
000210 79 72 36 ba a3 65 85 be 61 34 bd bd bb e4 55 3c
       -0.0006959807 -0.26054105 -0.09238506 0.013055022
000220 47 24 11 3e bc 3a 20 3e 76 76 63 be de c1 ad bd
       0.14173995 0.15647405 -0.22213158 -0.08484243
000230 6e 35 c5 3d ab e6 5f 3e 27 82 a1 3d 72 24 01 be
       0.096293315 0.21865337 0.07886153 -0.12611559
000240 08 73 0a bc 58 df ed 3d 7d b5 97 3c a4 f9 ab bc
       -0.008450277 0.11614865 0.018519158 -0.020993061
000250 d5 e3 ba 3d 0c ff 19 be 04 91 76 3e d1 77 18 3d
       0.09125487 -0.15038699 0.24078757 0.03722364
000260 b5 8e 0b be bd f9 73 be 98 0e 83 3d 8b 89 08 be
       -0.13628657 -0.23825736 0.06399268 -0.13333718
000270 bb 63 24 bd 8a a5 4d be 0c 72 76 3d de 01 e6 bc
       -0.040134173 -0.2008268 0.060167357 -0.028077062
000280 de 15 0f 3e ae 49 6b bd 6e b0 41 bd 01 99 d5 3d
       0.13973185 -0.057443313 -0.047287397 0.10429574
000290 d2 b2 9a bc 74 a4 f8 3c 9f 5d 2c 3e 7d bc 2e be
       -0.018884096 0.030351855 0.16832589 -0.1706409
0002a0 9c 67 2e 3e 44 14 4b bc b3 76 a6 3d 59 ca 29 3d
       0.17031711 -0.012394968 0.08128109 0.04145274
0002b0 4c 67 7e 3c fc 25 71 bd b1 af 0f 3e f3 db c1 3d
       0.015527558 -0.058874115 0.14031865 0.0946578
0002c0 e7 37 0a be e3 fd 42 be ad 8a c2 3d 1a 4f 36 3d
       -0.13497888 -0.19042163 0.094991066 0.04450903
0002d0 75 cb d8 3d bf 98 2c 3d f8 7f 83 be 97 a3 ba 3d
       0.10585681 0.042137858 -0.2568357 0.091132335
0002e0 84 a4 94 3d 79 85 c1 3d cc 1a ad 3d 00 79 d8 bc
       0.07257941 0.09449286 0.08452377 -0.026424885
0002f0 b9 c4 16 be 9f df d1 3c 25 c4 0d 3d 6c 5e 96 39
       -0.14723481 0.025619326 0.034610886 0.0002868058
000300 27 1c 2c 3e b7 09 3e be 03 c3 de 3d bb 43 0f 3e
       0.16807614 -0.18558393 0.10877039 0.13990681
000310 51 05 fa 3d 1d b2 fe bc f5 98 57 3e d9 e9 bc 3c
       0.12208045 -0.03109079 0.21054442 0.023060726
000320 a9 4a e8 bd f7 bd 1b 3e 5e 24 b2 bd 94 fa 56 bd
       -0.11342365 0.15209185 -0.08698343 -0.052485064
000330 9e 77 60 3d 8c 1f cd 3c 38 03 37 3d 87 7d 4d be
       0.054801576 0.025039457 0.044680804 -0.20067416
000340 c7 53 1b be 54 a8 8f bd 89 bb 64 3e 06 12 84 3e
       -0.15168677 -0.07014528 0.22337164 0.25795
000350 37 bf c5 bb 5b 62 31 3c b5 d7 1f be 14 5c 14 bc
       -0.0060347575 0.010826672 -0.1560963 -0.009055156
000360 b4 0b 39 3e d0 b2 57 3d ac b7 ea bd 8b c0 09 3e
       0.1807087 0.052660763 -0.11460814 0.13452356
000370 9f 5b 86 be 6d 06 1d 3e 04 80 6e 3e 48 f9 53 bd
       -0.26241776 0.15334482 0.23291022 -0.051751405
000380 ee 4f 15 3e 1e 49 da bc 56 a0 16 3d 14 04 0e be
       0.14581272 -0.026646193 0.036774002 -0.13868743
000390 7c f1 5d 3e c4 0c 25 be d1 37 95 bc 15 5d 07 3d
       0.2167415 -0.16118151 -0.018215092 0.033047754
0003a0 60 9b eb 3c 7e 0a b5 bc 27 d0 e9 bd 66 62 71 3d
       0.028760612 -0.02209973 -0.11416655 0.05893173
0003b0 e2 16 22 3e 55 1b 8c 3d 7b 0a 00 3e 01 03 04 3e
       0.15829042 0.06841151 0.12503998 0.12891771
0003c0 46 ce 3c bd e0 7b 8d 3d 86 4f b5 bd f2 e2 83 3d
       -0.046095155 0.06908393 -0.088530585 0.06439771
0003d0 f2 f5 5b bc 77 3d ea bd de 0a 6e bc f3 63 d3 3c
       -0.013425337 -0.11437505 -0.014528958 0.025804495
0003e0 13 24 a1 bd 13 40 57 bd e5 65 0d 3e b5 c3 d8 3d
       -0.07868209 -0.05255134 0.13808401 0.10584203
0003f0 b6 8e 50 3e 2b c4 9d bd 25 dd e6 3c aa d3 17 be
       0.2036694 -0.07703432 0.028181622 -0.14826837

output_layers.0.bias f4 [64]
000000 39 4f 36 3e ea 26 e2 bd 6d 01 29 bd ca 98 ac 3d
       0.17803659 -0.110425785 -0.041261125 0.0842758
000010 a7 99 c3 3b 70 0f 86 bc d4 c9 cf bc da 05 83 bd
       0.0059692445 -0.016364783 -0.025364794 -0.063976005
000020 e1 8d a5 3d e0 d7 01 3c 09 e8 5c bd 70 d4 89 3d
       0.08083702 0.007925004 -0.053932223 0.06729972
000030 12 15 b1 3d 04 52 ec 3b 67 8a d4 bd de c6 04 be
       0.08646597 0.0072119255 -0.10377961 -0.12966487
000040 6d 6b 24 3e bb ce 3d 3d 17 48 db 3c 6b 4f 76 bd
       0.16056605 0.04633973 0.026767774 -0.060134333
000050 39 76 16 3e 6d c1 ff bc 7d 4a 85 3d 8e 28 aa bd
       0.14693536 -0.031220162 0.06508348 -0.083085164
000060 9b ac 7e 3d a5 68 95 3b 18 a4 b1 bd 41 fe 89 bd
       0.06217633 0.0045595937 -0.086738765 -0.06737948
000070 38 3e 9b 3d 3f e0 8e 3d 0c 17 63 3e e6 87 d7 3c
       0.07580227 0.06976365 0.2217676 0.026309919
000080 b8 97 36 3d cb a5 19 3d 34 0d 58 3e 38 f1 46 ba
       0.044578284 0.037511628 0.21098787 -0.0007589045
000090 69 6f 57 3e db 64 49 bd 17 a1 28 3e a8 40 35 3e
       0.21038593 -0.04916845 0.16467701 0.17700446
0000a0 29 90 70 3d 3d 5e c8 3d 23 49 03 be b1 83 81 bd
       0.05873123 0.097835995 -0.12820868 -0.06323946
0000b0 9b 77 1f be f4 08 cc 3c ba 19 1e be ab 65 24 bd
       -0.1557297 0.024906613 -0.15439501 -0.04013602
0000c0 a5 c7 15 3e 53 1a 6e 3d 30 25 1a 3e 54 cc 8e 3c
       0.1462694 0.058130573 0.15053248 0.017431416
0000d0 0f 91 cb 3d 59 ee ac bd 22 2b 5a bd 8d 74 bf 3d
       0.09939777 -0.08443899 -0.05326379 0.09348402
0000e0 ad c8 b1 bd 44 ee ab 3d 47 df 08 be 57 6f ab bc
       -0.08680854 0.08395055 -0.13366424 -0.020927114
0000f0 e0 88 4f 3e 8e c4 47 be 7e db 16 3d aa 31 11 bd
       0.20267057 -0.19508573 0.036830418 -0.035447754

output_layers.3.weight f4 [32, 64]
000000 7d c5 bd bd e1 73 7a bc e3 ca c7 bc 01 f9 89 bc
       -0.092661835 -0.015286417 -0.024388736 -0.016842367
000010 d0 24 a4 3b d4 e1 ff bd 83 bf a3 3c e5 53 b0 bd
       0.005009271 -0.12494245 0.01998878 -0.086097516
000020 54 18 91 3c 4b 2a c6 bc df f5 9d bd a8 b2 5c 3d
       0.017711796 -0.024190089 -0.07712912 0.053881317
000030 29 11 5d 3d 89 27 aa bc 11 42 08 be 49 f7 80 3d
       0.053971443 -0.020770805 -0.13306452 0.06297166
000040 30 7d b0 bc d8 e0 45 bd 32 6b 34 bd c5 4d 34 3d
       -0.021544069 -0.04831013 -0.044047542 0.04401948
000050 e7 0a e3 bc e6 ef 6d bd c2 f1 d3 bd a3 10 89 bc
       -0.02771516 -0.058090113 -0.10348846 -0.016731566
000060 6c 9f 85 bd f4 94 66 bd 9d 74 2d 3d 9b 7d 09 be
       -0.06524548 -0.056294397 0.04234754 -0.13426821
000070 b1 26 a5 3d a4 65 97 3d 77 b6 35 3c e0 67 d6 bd
       0.080640204 0.07392433 0.011090866 -0.10469031
000080 24 35 d4 bd f3 bd 7b bd 9f 79 14 3d 14 f4 ad bd
       -0.10361698 -0.061460447 0.0362488 -0.0849382
000090 47 a0 5f 3d 87 83 50 bd 92 8a 49 3d 1d bf 3b 3d
       0.05459621 -0.050906684 0.049204417 0.045836557
0000a0 5c a5 59 bd e3 76 d3 bd c3 32 74 bb 6e e4 c5 bd
       -0.053136215 -0.1032541 -0.0037261702 -0.0966271
0000b0 df be 0b 3d b9 ea 95 3d 51 e6 6a bc 21 d5 cf bd
       0.034117576 0.073201604 -0.014337138 -0.10148073
0000c0 f2 60 cc bd 8c 24 1c be e6 18 3a bd 2b 09 3c bb
       -0.09979428 -0.15248317 -0.0454339 -0.0028691988
0000d0 d6 89 9a 3c ec 8a 15 3d 1d 8f 1d 3d 8a 2e 00 bc
       0.018864553 0.03650944 0.03846656 -0.007823596
0000e0 c4 e7 a1 bc 39 d4 cc 3b 10 00 0c 3d 8f ee c1 bd
       -0.019763835 0.006250885 0.034179747 -0.094693296
0000f0 fc eb b5 bd d7 5c ab bd 1c 79 04 be 6e 77 53 3d
       -0.08882901 -0.08367317 -0.12936825 0.05162757
000100 01 f6 d1 bd 6b 52 3d 3d 37 27 f0 3d 96 36 bb bd
       -0.10252 0.046221178 0.1172623 -0.09141271
000110 2d 8d 94 bc db ea 49 bd b3 9b 0b be 86 34 05 3e
       -0.018133724 -0.04929624 -0.13633613 0.13008317
000120 d8 21 4c bd c7 3b cc bd bb e5 18 3e 51 ab f3 bd
       -0.049836963 -0.09972339 0.14931385 -0.118979104
000130 65 e7 d3 bc ee 1f 2b 3d ba ec a1 3c 4f 85 bf bd
       -0.025867173 0.041778497 0.0197662 -0.093515985
000140 64 b2 87 3d 0e ac e6 bd c1 4d 62 3b 52 bf 11 3c
       0.06625822 -0.112632856 0.0034531208 0.008895712
000150 92 f3 aa bd 66 bf 21 bd d8 f1 f2 bd f0 66 09 be
       -0.083472386 -0.039489172 -0.11862534 -0.13418174
000160 30 dd 2d 3e 0c b1 dc bb 03 fb 8f 3d 1d 9b 19 3e
       0.16978908 -0.006734973 0.070302986 0.15000577
000170 1a f5 c6 3b b1 01 ab bc d8 6c 18 3c e0 18 3e 3e
       0.006071699 -0.02087483 0.009303294 0.18564177
000180 d9 29 97 3d a0 db 36 3b 99 e0 84 3d 07 62 82 bd
       0.07381029 0.0027901903 0.06488151 -0.063663535
000190 b1 c5 51 bd 1f 21 2a 3d 14 66 46 bc 5d 10 f3 3d
       -0.051213924 0.041535493 -0.012109298 0.118683554
0001a0 b6 13 8a bd ae e8 dd b9 e2 ea 87 bd 82 60 9d bb
       -0.06742041 -0.00042325765 -0.06636597 -0.0048027644
0001b0 42 c8 0a bd 57 ad f8 3d df 5d 15 3d 55 d7 02 3e
       -0.033882387 0.12142437 0.036466476 0.12777455
0001c0 df c8 4c bd af cb c3 bb 73 95 ec bd fe ff 1c 3d
       -0.049996253 -0.0059752087 -0.11551943 0.03833007
0001d0 bf 18 a4 bd 36 c7 6e bd 23 c8 e0 3d 4c e4 74 bc
       -0.080125324 -0.05829545 0.10975673 -0.014947008
0001e0 3f 22 e7 3c dd e5 22 bd f1 fa f8 3d 2f e4 ff bd
       0.028214572 -0.039769996 0.12157238 -0.124946944
0001f0 e1 53 93 3d 92 45 6e 3d a0 8e d5 bc e7 07 2c 3c
       0.07193733 0.058171816 -0.026068985 0.010499931
000200 7c 56 a1 3d 4f 6a 8c bd 9c 29 28 3e 38 5a 4b bd
       0.07877824 -0.06856214 0.16422123 -0.049646586
000210 7f ad d8 bd 02 31 2b 3e 53 aa 18 3c 98 4e f4 bd
       -0.10579967 0.16717914 0.009317952 -0.11929053
000220 fa 48 5a be 06 1b 06 be 8e d9 96 bd 52 27 34 be
       -0.21316901 -0.13096246 -0.07365714 -0.17593125
000230 6f b5 b7 3d 78 a2 90 39 15 6a 26 be 31 a6 0d 3e
       0.089701526 0.0002758687 -0.16251405 0.13832928
000240 53 6d e2 bc 66 2b 87 bd 61 69 e7 bd e0 f1 2a bd
       -0.02764002 -0.066000745 -0.11299396 -0.041734576
000250 d4 16 67 bd 50 a2 65 be e0 cb d2 3d f2 53 9c bb
       -0.056418255 -0.22425199 0.10292792 -0.0047707492
000260 b7 1d 74 3d e2 aa 87 bd 57 87 23 bc f3 3e 08 be
       0.05959865 -0.0662439 -0.009980998 -0.13305263
000270 e8 94 0e be 89 a0 9b 3d 7d f0 5a be 25 a0 43 bb
       -0.1392399 0.07598979 -0.21380801 -0.0029850092
000280 7b 6b 42 3b fe 5f fe 3c ee fe e6 3d 91 5b c5 3d
       0.0029666114 0.031051632 0.11279093 0.096366055
000290 ba c2 89 bc 58 de cd 3d 39 32 ee 3d 56 15 6c 3d
       -0.016816486 0.10052174 0.11630673 0.057637535
0002a0 1d 89 33 be 4a 0a af bc 59 51 d6 bc 83 01 11 bb
       -0.17532773 -0.02136721 -0.026161836 -0.0022126145
0002b0 d4 df 16 3d fe 8e 14 be 81 02 f9 bd c6 9c 18 3e
       0.036834553 -0.14507672 -0.12158681 0.14903554
0002c0 cc 1f 7d 3d ed 76 88 bc 1c d6 f5 bb 29 eb ef bd
       0.061797902 -0.01665827 -0.0075023305 -0.11714775
0002d0 f7 0c 36 3c e0 42 3c be c6 8e f3 bd a5 0f 09 3d
       0.0111114895 -0.18384886 -0.11892466 0.033462185
0002e0 9e 07 1e 3e 42 cd 60 3d 7d e8 0f 3d da c3 f0 3d
       0.15432593 0.05488325 0.035133827 0.11756106
0002f0 35 33 2a be 4b d1 55 bc df 8a d2 3d 4b 28 6d 3b
       -0.16621096 -0.013050388 0.10280394 0.0036187347
000300 f3 c0 3a bd 1e d2 3e bd 71 01 a7 bd 67 8c 70 bd
       -0.045594167 -0.046587102 -0.08154572 -0.058727648
000310 58 5a 96 bd f8 7f bd 3d 12 28 21 3d 94 dc 68 bd
       -0.073414505 0.09252924 0.039344855 -0.056850985
000320 2d bd 96 3d 84 a6 60 3d ac a6 7f 3d 40 4d 13 be
       0.07360301 0.0548463 0.06241481 -0.14384937
000330 0a fe f2 bb 24 ff af 3c 14 1a a0 bd 0e a3 f7 bd
       -0.0074155377 0.021483965 -0.07817474 -0.12091647
000340 dc 8b 50 bd 58 c8 68 bd 87 0f 59 bd 24 05 9b bc
       -0.05091463 -0.056831688 -0.052993324 -0.01892335
000350 35 fe 19 bd cf 8f df 3b 81 31 f9 bc 8c 18 18 3d
       -0.037595946 0.0068225632 -0.030419113 0.037132785
000360 25 12 87 3d 43 a9 67 bd 4f 77 09 be 42 6d a0 bc
       0.06595258 -0.056557905 -0.13424419 -0.019583348
000370 11 87 a3 bd 63 53 eb bd 95 9e 0d be 34 6d 0c 3e
       -0.07984746 -0.11490514 -0.13830025 0.13713533
000380 8a 17 b1 3d b6 07 1c bd a8 34 07 be e1 c8 d6 bc
       0.08647068 -0.03809329 -0.1320368 -0.026218833
000390 d4 23 d3 bd e7 6e 97 3d 87 05 f3 bd 34 70 db bd
       -0.10309568 0.073942 -0.11866289 -0.107147604
0003a0 5b 1f 34 bd 37 84 f0 bd 77 1b 85 bc 97 43 bc 3c
       -0.043975215 -0.11743968 -0.016248448 0.022981448
0003b0 6d 1f f7 3c 26 17 e4 3d ba d7 77 bd 13 85 3c 3d
       0.030166352 0.11137228 -0.060508467 0.046025347
0003c0 c5 6f 9a 3d a9 e3 fb bd d8 58 d1 bc a6 36 61 bb
       0.075408496 -0.12299282 -0.02555506 -0.0034364848
0003d0 5d 07 b2 3c fb a8 76 bc db 6d a2 3d 24 ba 01 be
       0.021732027 -0.0150549365 0.079311095 -0.12668663
0003e0 10 4c de 3c f0 d6 31 3d 92 29 61 bc 66 56 4b bd
       0.027135879 0.04341787 -0.013742821 -0.049642943
0003f0 94 2b c7 3d 87 d2 6c bc 5a 3e e2 3b 20 8c c7 3d
       0.09725109 -0.0144544905 0.0069044055 0.097435236

output_layers.3.bias f4 [32]
000000 d6 57 af 3c 60 eb c5 3c de 3b e6 bd de b1 51 bc
       0.021404188 0.024160087 -0.112418875 -0.0127987545
000010 9a e9 8a 3d d4 34 86 3d 0d af 89 bd 9b 5c 20 bd
       0.06782837 0.06553045 -0.067228414 -0.039150815
000020 85 3c 1e bd 2b 37 52 3d a5 ca 80 3d 28 9a a5 bb
       -0.038631935 0.051322144 0.062886514 -0.0050537772
000030 66 d6 f8 bd da 92 99 3c d6 a4 aa bd dd 18 3d 3d
       -0.12150268 0.018746782 -0.08332221 0.04616629
000040 dc 84 ae 3d d9 af b7 bd 54 a7 61 bd 81 88 e5 bc
       0.08521435 -0.08969087 -0.055091217 -0.028019192
000050 1c 6f 07 3e e5 bd 2f 3e dd 23 27 bd c8 99 f1 3d
       0.13225979 0.17162283 -0.040805686 0.117969096
000060 a5 cb 3c 3d e0 52 9a 3c cc 7a 06 3b 11 a9 0d bb
       0.046092648 0.018838346 0.002051997 -0.0021615664
000070 f9 44 f3 3d b1 f5 05 3e 17 4a 31 3e b3 0d d4 3b
       0.1187839 0.13082005 0.1731342 0.0064713596

output_layers.6.weight f4 [2, 32]
000000 b4 31 e0 bd 06 9d 26 be 4c a0 ac bc 26 e2 09 be
       -0.1094698 -0.16270837 -0.02107253 -0.13465175
000010 11 29 5e 3e 90 08 5b 3e 7a 39 9a bc 50 6e c1 bd
       0.21695353 0.21389985 -0.018826235 -0.094448686
000020 39 92 d7 3c 1a aa 7e bd 0a 1a 76 3e 00 a2 b0 3a
       0.026314842 -0.06217394 0.2403337 0.0013476014
000030 9d af 03 3e eb 52 5e bd b3 08 e0 3d a4 2a 0a be
       0.1285996 -0.054278295 0.10939159 -0.13492829
000040 35 7b b0 3d f8 38 20 3d a7 76 15 bc 69 22 cc bd
       0.0861725 0.03911683 -0.009122527 -0.09967501
000050 8a c2 ce ba 06 0e 61 3a f6 56 8c bd 67 de 9d 3c
       -0.001577453 0.00085851585 -0.06852524 0.019271089
000060 27 3c 20 be 27 7e 0e bb 2c b2 08 3e ea fc 38 3d
       -0.15647946 -0.0021742673 0.13349217 0.045163073
000070 74 ad 2c bc 23 eb be 3a 64 c8 c8 3a 6f ad 23 3d
       -0.010539401 0.0014565926 0.001531851 0.03996032
000080 23 c3 1d 3d c0 6e d2 bd 01 ef 72 3e a7 85 73 bc
       0.038516175 -0.1027503 0.23723985 -0.014863408
000090 b4 3b d3 3d 0e 75 17 3e b1 fb 65 be 17 5f 62 3e
       0.10314122 0.14790747 -0.22459294 0.22106586
0000a0 37 0d 58 be c7 80 92 be d0 51 2e 3e e4 f9 75 be
       -0.21098791 -0.28613874 0.17023396 -0.24021107
0000b0 13 d6 88 bc bb 40 c2 3d c5 45 b8 bc 3b d4 b3 3d
       -0.016703641 0.094850026 -0.022494206 0.08780714
0000c0 06 07 34 3e ce 24 5c 3e 4b ce 54 3e d0 4c 13 be
       0.17580804 0.21498415 0.2078182 -0.1438477
0000d0 8c 2d 64 be 59 fd 3f be de 25 1c 3e e4 2d 81 be
       -0.22283 -0.18748988 0.1524882 -0.25230324
0000e0 52 b9 2b 3e 19 86 92 be a6 7a 1f be 27 a8 79 3d
       0.16769913 -0.28617933 -0.1557413 0.06095138
0000f0 d6 ca 66 be 83 1b 63 be 6a 23 7a be f0 09 16 be
       -0.22538313 -0.22178464 -0.24427572 -0.14652228

output_layers.6.bias f4 [2]
000000 a9 38 7c bd 4f cf 01 be
       -0.061577473 -0.12676738

exp_avg f4 [96, 15]
000000 ee 1a 86 ba 26 b5 85 ba 2c 8d 86 ba cc 34 86 ba
       -0.0010231414 -0.0010201081 -0.0010265461 -0.0010239123
000010 e0 18 02 b9 e3 43 d3 39 35 85 58 38 98 b5 e5 b6
       -0.00012407033 0.00040295636 5.162247e-05 -6.845872e-06
000020 f2 9a ca b8 df 18 85 36 f6 cb 0a b8 1e 8e 40 38
       -9.6609714e-05 3.9666043e-06 -3.3091717e-05 4.5908724e-05
000030 00 00 00 00 39 fd ce b8 7c 0f 10 b9 3b 1c 6b b9
       0.0 -9.870012e-05 -0.00013738679 -0.00022421863
000040 19 58 78 b9 a1 76 63 b9 81 b4 6c b9 22 95 d1 b9
       -0.00023683942 -0.000216926 -0.00022573957 -0.000399747
000050 67 da d0 39 2c 9d e3 b5 b8 53 d7 b7 c9 30 d7 b6
       0.00039835574 -1.6958561e-06 -2.5668982e-05 -6.4131787e-06
000060 1d f3 96 3a f8 10 2e b7 e0 52 0f b9 00 00 00 00
       0.0011516545 -1.0375159e-05 -0.00013668416 0.0
000070 48 39 b7 b8 38 61 da b8 cb 08 88 bb 15 41 88 bb
       -8.7367895e-05 -0.000104131585 -0.004151439 -0.004158149
000080 be db 87 bb fa 24 88 bb 01 90 ef ba 05 d9 a5 3a
       -0.0041460684 -0.0041547986 -0.001827717 0.0012653178
000090 84 e6 c2 38 8b 40 c9 b8 7a d5 c7 b9 8e 80 1e 3a
       9.293578e-05 -9.596449e-05 -0.0003811529 0.0006046378
0000a0 68 31 5f b9 ee d9 e5 b8 00 00 00 00 cf ce 0d ba
       -0.00021285343 -0.000109601635 0.0 -0.000540954
0000b0 34 e0 d9 b9 6c cb 7e 3a 2e e0 7f 3a 78 c1 7e 3a
       -0.0004155651 0.0009719643 0.00097608834 0.000971816
0000c0 48 29 7f 3a c2 5d 3d 39 6b de 39 b9 eb 6b 82 38
       0.00097336294 0.00018059372 -0.00017725832 6.218984e-05
0000d0 16 68 b3 38 e4 64 74 38 fb 5a 35 3a c3 28 80 38
       8.554773e-05 5.8268095e-05 0.0006918159 6.111108e-05
0000e0 5a 2a 91 b9 00 00 00 00 67 8d 6e 38 7c 66 c1 37
       -0.0002768811 0.0 5.6875313e-05 2.3055116e-05
0000f0 8b 2f 89 bb 63 c2 88 bb e7 c7 89 bb f2 66 89 bb
       -0.0041865758 -0.0041735633 -0.0042047384 -0.0041931802
000100 d1 60 c3 ba e2 39 53 ba 5a 74 d8 b9 1f e9 a7 b9
       -0.0014906173 -0.00080576364 -0.0004128542 -0.0003202641
000110 3e 1d bb b8 7e 65 d1 39 eb 2a dd b8 33 14 c4 b8
       -8.922302e-05 0.00039939204 -0.00010546095 -9.349771e-05
000120 00 00 00 00 82 5c 6e b9 27 0b 7d b8 aa d3 28 bb
       0.0 -0.0002273191 -6.0330287e-05 -0.0025760927
000130 7d 3d 29 bb ce f8 26 bb 10 f7 27 bb b4 a8 24 bb
       -0.0025824003 -0.002547789 -0.0025629438 -0.002512497
000140 20 cb aa b8 55 04 17 39 ed 65 0f 39 87 67 8a b9
       -8.144067e-05 0.00014402096 0.00013675513 -0.00026398545
000150 94 9b 28 3a 4a 2f 8b b9 81 31 47 b9 00 00 00 00
       0.00064318744 -0.0002654738 -0.0001899656 0.0
000160 c3 dc 49 b9 8e 29 47 b9 b9 f7 f6 39 93 b4 f9 39
       -0.00019251094 -0.00018993599 0.00047105344 0.0004762752
000170 e4 af f6 39 32 d5 f7 39 27 7e 25 3a 41 c6 33 b9
       0.00047051825 0.00047270354 0.00063130487 -0.00017144626
000180 1e e2 78 38 36 aa 0e 39 c1 c0 f1 b8 f3 ab 86 3a
       5.9338396e-05 0.00013605584 -0.00011527679 0.0010274634
000190 a8 c6 88 38 56 1d f6 39 00 00 00 00 92 65 34 39
       6.521988e-05 0.00046942633 0.0 0.00017203976
0001a0 f8 7a cc b7 07 8c 37 b9 d1 2a 40 b9 38 b3 2d b9
       -2.4375957e-05 -0.00017504404 -0.00018326497 -0.0001656533
0001b0 0b 0d 3b b9 1c 94 57 b8 f8 c2 ec 38 26 bf 2c b9
       -0.00017838569 -5.1397932e-05 0.00011289673 -0.00016474407
0001c0 ab c1 31 b9 b6 f9 b6 b9 e2 a4 95 b9 96 69 14 b8
       -0.00016952182 -0.00034899794 -0.00028542342 -3.5384284e-05
0001d0 b8 06 49 39 00 00 00 00 ac ed 5d b8 e6 8c 14 b9
       0.00019171357 0.0 -5.2911855e-05 -0.00014166869
0001e0 b6 35 0f 39 13 8c 06 39 de 5c 0c 39 db 9b 06 39
       0.00013657552 0.00012831418 0.00013386036 0.00012837297
0001f0 22 d1 69 b9 7b 48 5c ba 09 c4 34 ba f4 02 09 ba
       -0.0002229852 -0.00084031344 -0.00068956666 -0.00052265753
000200 c5 a2 8d b9 06 2e 7d b9 24 c4 07 b8 ee 04 69 b9
       -0.00027014888 -0.00024145105 -3.236918e-05 -0.00022222448
000210 00 00 00 00 a1 75 68 b9 9c 19 24 b9 95 83 2c b9
       0.0 -0.00022169064 -0.00015649799 -0.00016452216
000220 7c 2a 33 b9 5d 5d 2c b9 0b 06 2e b9 9c 4e d9 b9
       -0.00017086597 -0.00016437979 -0.00016596184 -0.00041448034
000230 1c 0a 2a b8 73 92 db b9 1b 46 bd b9 29 1e 38 b9
       -4.0540574e-05 -0.00041880048 -0.00036101122 -0.00017558843
000240 e9 b5 aa 39 ea 20 f1 b8 4c 44 4d b7 00 00 00 00
       0.0003256046 -0.00011497906 -1.2234854e-05 0.0
000250 ae ad 71 b9 fa cd 78 b9 a1 61 07 bb 2a b5 06 bb
       -0.00023048252 -0.00023727855 -0.0020657557 -0.002055476
000260 b3 6f 08 bb f2 7b 07 bb 9b e8 b9 b9 1a e1 d5 b9
       -0.002081853 -0.0020673242 -0.00035459254 -0.0004079424
000270 d7 62 16 b9 50 af 36 b9 fe 78 b1 39 d4 c3 ee b8
       -0.00014341935 -0.00017422182 0.00033850217 -0.000113852
000280 56 d1 33 39 fb 26 84 3a 00 00 00 00 a5 26 00 39
       0.00017148754 0.0010082418 0.0 0.00012221427
000290 68 37 4a 39 8b dc c0 bb e0 b0 c0 bb f0 95 c1 bb
       0.00019284862 -0.005885666 -0.00588046 -0.0059077665
0002a0 a5 44 c1 bb fa bd 2b bb 4d 9a a0 ba 2d e7 8a ba
       -0.0058980756 -0.0026205764 -0.0012253016 -0.001059746
0002b0 34 94 74 ba cd 00 84 39 b3 79 76 ba c9 1f 8d b9
       -0.00093299453 0.000251776 -0.000940229 -0.00026917298
0002c0 2a c5 4a 3a 00 00 00 00 9c 31 d7 b9 37 00 6c b9
       0.0007735068 0.0 -0.00041044957 -0.00022506794
0002d0 5a 4c 8c ba 40 e9 8b ba b1 8f 8c ba 6f 6d 8c ba
       -0.0010703907 -0.0010674372 -0.0010723976 -0.0010713766
0002e0 8f 3f f2 b9 0b 7a ec 39 2e 62 59 b7 3a 53 73 b8
       -0.00046205192 0.00045104357 -1.2957067e-05 -5.8013225e-05
0002f0 b3 e2 b7 b8 05 1e be 39 7e 9f 8d 37 8e 26 1b b9
       -8.768346e-05 0.0003626199 1.688278e-05 -0.00014796315
000300 00 00 00 00 9e 20 1a b9 62 20 4d 37 bd 5d fd b9
       0.0 -0.00014698735 1.2226492e-05 -0.0004832576
000310 a9 b0 00 ba 7e e6 f8 b9 5f 85 fd b9 9b c1 42 ba
       -0.0004909137 -0.00047473976 -0.0004835529 -0.0007429362
000320 06 21 e3 39 18 04 ab b6 2d 57 7b b8 ae e5 29 b9
       0.00043321418 -5.0966737e-06 -5.9924252e-05 -0.00016202658
000330 d3 e0 5f 3a 89 4d c5 b7 28 71 5e b9 00 00 00 00
       0.00085402763 -2.3520335e-05 -0.00021213724 0.0
000340 e0 13 d6 b8 52 17 d3 b8 81 07 f2 39 4a e8 f6 39
       -0.00010208017 -0.00010065608 0.00046163428 0.00047093845
000350 05 fd ec 39 29 18 f3 39 a0 8c 34 3a ce 23 38 3a
       0.00045201942 0.00046366572 0.000688741 0.0007024378
000360 f3 39 a1 39 bf e6 6b 39 e2 fe 61 37 66 60 52 b9
       0.00030751489 0.00022497306 1.347039e-05 -0.00020063072
000370 49 01 9c 37 a7 f0 1f ba 00 00 00 00 65 8d 0e b9
       1.8597248e-05 -0.00061012286 0.0 -0.00013594849
000380 02 81 45 39 3f fe 5b bb e2 8f 5c bb b5 a1 5c bb
       0.00018835443 -0.003356829 -0.0033655097 -0.003366572
000390 c9 eb 5c bb d9 63 b6 ba 9a 47 6b ba a7 f8 59 ba
       -0.0033709875 -0.0013915255 -0.0008975208 -0.0008314945
0003a0 bf 16 47 ba fb 24 a8 b9 72 fd 39 bb d9 1a 30 b9
       -0.0007594637 -0.0003207101 -0.0028379825 -0.0001679467
0003b0 8f 8f 8c 37 00 00 00 00 71 0f d3 b9 fc 91 ae b9
       1.675615e-05 0.0 -0.0004025656 -0.00033296633
0003c0 6a a5 09 bc a5 d3 09 bc a0 df 09 bc 61 fa 09 bc
       -0.008401254 -0.008412276 -0.008415133 -0.008421511
0003d0 44 17 6d bb 65 17 12 3b 09 71 aa b9 25 18 36 ba
       -0.0036177197 0.0022291776 -0.00032509145 -0.0006946347
0003e0 e4 e8 98 b9 6d f3 9d ba 1f e6 d8 b9 84 76 01 3a
       -0.00029165216 -0.0012050696 -0.00041370184 0.00049386197
0003f0 00 00 00 00 12 80 74 ba 9c 7e 02 ba 73 6d dc ba
       0.0 -0.00093269453 -0.0004977973 -0.0016817286
