models/dqn_agent_AAPL.pth (torch, 24654 bytes, 6 tensors)

fc1.weight f4 [64, 17]
00000000: 33d2 573e 0dff 2ebe 847b 573d b78c 43be
00000010: 4360 d63d 4485 28be 804a 29be 6299 933d
00000020: 3d22 c8bd 5fed 443e 55be 53be 5745 983d
00000030: 45dd 913d 75d0 5bbe 693b a13d e843 c8bd
00000040: f363 2e3e f01f 82bd 96a3 133d f0c5 c93d
00000050: df9f 65be e9e8 84be 5aaf ce3e 42c6 be3d
00000060: 7e0a 34bf 28af 283f 87bb 47bf 5865 84be
00000070: 3254 f03e cfee b73e 3baf a73f bb00 46bf
00000080: 982a 573e d994 c23d 1f5d 72be c5dd 0dbc
00000090: 3176 d43c eae4 f33c be8b 1d3e 34d4 54bd
000000a0: 8050 64be 3767 c3bc 3977 663e 5250 00be
000000b0: 6288 aabd a1b8 ed3d 7661 4bbe 3726 113d
000000c0: 3065 103e 1cfe 24be 7a74 69bd 7b47 02be
000000d0: 5da9 a4bd 2618 003f b491 47be 3b0f 81be
000000e0: 3188 863e 56e5 80bd fc55 1abf 1824 64be
000000f0: 69a7 cc3c af68 493d b57f d43e 2811 593e
00000100: 525d 143f 4046 30be 9e17 74bd b784 ec3d
00000110: 803a ca3d 750c 77ba 3fa8 543e 2aa2 00be
00000120: 7766 71be fd80 833e e622 03be 5c40 56bf
00000130: 6dd6 413f f8fb 2abf d74f aebe 053f ae3d
00000140: bac1 723e b384 a33f c79d 00bf 9138 4fbe
00000150: b3df 9f3d e84d 033e e685 10be c512 593e
00000160: 8705 36be f876 bebd 9fe2 cfbc 03bb 303e
00000170: e4b3 1abe 34f5 01be 89d9 bc3d aaf0 56bc
00000180: 7de6 02be 50a3 42be 556a 5d3d 614b 92ba
00000190: a9a7 efbd 2fab 093d 6f2f a43d dd5a 8e3d
000001a0: 76cc cc3d 9275 b2bc ad94 b63d 4824 7d3e
000001b0: 80cc 4cbd 18bc 40bf 2983 233f d367 38bf
000001c0: fd8f 11be 51ff 403e a492 9d3e 32c9 773f
000001d0: 4770 84bf a305 963b eee2 813d e75e 7c3e
000001e0: 5806 c93d d4b0 243a 3e6b 4b3d 8ce2 a8bd
000001f0: 39af df3d faae d13d ccf9 e0be f30a 7b3f
00000200: aba8 7bbf 2c4a 933c c31c bcbd 9329 083f
00000210: 6f34 543f 0978 90bf daae 843e 6d97 593e
00000220: 4c75 88be 318d 623e 0204 b53d 1f8d b13d
00000230: 6e1a fa3a cfe3 5e3e d172 bfbd c389 12bf
00000240: c85a 3d3f fce5 75bf c95e 043d 913a 123e
00000250: 12a0 ed3e 0913 603f 2c12 64bf 99cf 313d
00000260: 3c5d 823e 73a9 09be ae57 6f3d 0a0f 2fbc
00000270: 9f61 f83d 99a4 143e 6c86 c23e c3e3 fd3c
00000280: e710 69bf 22c3 6d3f deab 4ebf c5ee bfbc
00000290: 3744 dc3e 0ae1 f13e c1e8 7f3f 7e5f 2dbf
000002a0: 7f5b 323e 0212 943e c4c4 4abe 2b2e 06bd
000002b0: 2748 d93d 9bdb 05be b273 8dbd 708b 523e
000002c0: 4694 493c a891 59bf 8d5d d93e b361 0dbf
000002d0: 0335 6dbe ee0e 393e 5050 883e 48a6 8d3f
000002e0: 3e89 04bf ba88 37bb 76b0 7e3e c521 973e
000002f0: 35c0 bf3d d808 eebd 91ba 063e c4a6 933e
00000300: 8982 c7bd 37fa 353e d03e 2e3f 5bcf 80be
00000310: 847e 043e 7af8 933d dc10 bdbe 646e 8f3d
00000320: be32 57bf 582d 23be 855a 4a3e 0fb1 babe
00000330: 36fa 243c 56e4 8e3e f462 79be b1e4 4ebc
00000340: 845d c93b 047a d1bd 4956 e8bc 841e a73c
00000350: 1dd5 0b3f dff7 efbe 3fb4 7e3e eaa9 4bbe
00000360: c19a e4bc 948c 943e db7f 05bf 9024 b23d
00000370: db61 62bd 3f1d 53bd f893 92bc ea7f df3d
00000380: 7a23 77be 8a93 913d a10a e93d 6efd 9bbe
00000390: 370b abbe c819 9abd 0c7f 6fbe 84a1 78be
000003a0: 0755 db3e c89d e23d 8943 823e 76db a0be
000003b0: bbca 60be 7089 b93d ad9e b5bd 8ca6 ed3b
000003c0: fdb8 273d 8e41 27be 7c31 a83d 0c36 d73e
000003d0: 1c65 a03d bb99 55bf 45df 163f 4ec1 66bf
000003e0: 6b3e 1fbe 7034 aa3e e5ec 003f 4df2 873f
000003f0: 2e5b 5abf ddc2 dbbd bd70 5b3e 06d7 023e
0.21076278 -0.17089482 0.052608028 -0.19096647 0.10467579 -0.16457087 -0.16532326 0.0720699
-0.097721554 0.19231175 -0.20678075 0.074351005 0.07122282 -0.21466239 0.0787266 -0.09778577
0.17030315 -0.06353748 0.03604468 0.09852207 -0.22424267 -0.25958946 0.40368158 0.093151584
-0.7032851 0.6589227 -0.7802052 -0.2585857 0.46939236 0.35924384 1.3100351 -0.77344865
0.21012342 0.09501047 -0.23668335 -0.008658831 0.025935264 0.02977224 0.15385339 -0.051960185
-0.22296333 -0.023852928 0.22506417 -0.1253064 -0.08326794 0.11607481 -0.19861397 0.035436835
0.141011 -0.1611256 -0.056995846 -0.1272258 -0.08040116 0.5003685 -0.19489175 -0.25206932
0.2627578 -0.06293742 -0.6028745 -0.22279394 0.024982171 0.0491721 0.41503683 0.21197951
0.57954895 -0.17214298 -0.059592836 0.11548751 0.09874439 -0.00094241585 0.20767306 -0.1256186
-0.23574243 0.25684348 -0.12806281 -0.83691955 0.7571781 -0.66790724 -0.34045288 0.08508114
0.23706713 1.2774872 -0.5024075 -0.20236422 0.07806339 0.12822688 -0.14113578 0.21198566
-0.17775546 -0.09300035 -0.025376616 0.1725884 -0.15107685 -0.12691194 0.09221179 -0.013118902
-0.12783237 -0.19007611 0.054056484 -0.0011161381 -0.117019005 0.03361052 0.0801686 0.069509245
0.09999935 -0.021784578 0.089150764 0.24720871 -0.049999714 -0.7528701 0.6387201 -0.72033423
-0.14215083 0.18847395 0.3077594 0.96791375 -1.0346764 0.0045783087 0.063421115 0.24645577
0.09815663 0.0006282453 0.04966282 -0.082463354 0.10922093 0.10238452 -0.4394058 0.9806358
-0.9830424 0.017979704 -0.09185173 0.5318844 0.8289251 -1.1286632 0.2591465 0.2124917
-0.2665199 0.22124173 0.08838655 0.08669495 0.0019081363 0.2176659 -0.09348071 -0.5724146
0.73966646 -0.96054053 0.032316957 0.14280154 0.46411186 0.87529045 -0.8909023 0.04341087
0.25461757 -0.13443546 0.058433227 -0.010684738 0.12127995 0.14515914 0.3799318 0.030992394
-0.91041416 0.92875874 -0.80731 -0.023429284 0.43020794 0.47242004 0.9996453 -0.67723835
0.17417715 0.2891999 -0.19801623 -0.032758873 0.10609465 -0.13072054 -0.06906833 0.20561004
0.012303418 -0.8498788 0.42454186 -0.552272 -0.23164754 0.18072101 0.26623774 1.106637
-0.51771915 -0.002800508 0.24872002 0.29517952 0.093628325 -0.116227806 0.13157107 0.2883817
-0.097416945 0.1777123 0.68064594 -0.251582 0.12938887 0.072251275 -0.36926925 0.07003477
-0.840618 -0.15935266 0.19761093 -0.3646321 0.010069421 0.27908581 -0.24354154 -0.0126277665
0.006145181 -0.10228351 -0.028361456 0.020400293 0.5462206 -0.46868798 0.24873446 -0.19889036
-0.027905824 0.29013503 -0.52148217 0.0869838 -0.055269103 -0.051541563 -0.017892823 0.109130695
-0.24134627 0.07108219 0.113789804 -0.3046679 -0.33406994 -0.07524449 -0.23388308 -0.24280363
0.42838308 0.11065251 0.2544215 -0.31417435 -0.21952336 0.09059417 -0.08868156 0.00725252
0.040947903 -0.16333601 0.082125634 0.42033422 0.07831785 -0.834377 0.5893443 -0.9013871
-0.15551154 0.33243132 0.5036147 1.0620819 -0.8529538 -0.107305266 0.21429725 0.12777337

fc1.bias f4 [64]
00000000: c11a 49be a247 54be 6e58 2c3e b7d3 8fbc
00000010: 29f3 333d ab16 37be 4f46 8e3e a169 583c
00000020: e342 3ebd 4f65 4bbe 15e8 6abe d108 933d
00000030: adf7 90bd 7065 88be a950 863e 5a6a 903d
00000040: c564 75bd 885e 6fbe 6f8c 033c 1044 60bb
00000050: bd4e 593e 0822 42bd 5891 b5bc 448a 44be
00000060: 605a bf3d 847b d5bd 4749 a9bb 5ce1 a5bc
00000070: 5eda 6e3e 1166 3abd 7900 c7bd 9e8c 39be
00000080: fd7d b5bd 174b f93d 3ebe 113e a326 d7bc
00000090: e2f7 2b3e 87fb 21bd 1380 143e e46a fb3d
000000a0: 82a3 c8bd 4be7 e93d 907f f43d dfb4 483d
000000b0: b8c3 273e 3a3d 41bd 2700 f43d 60d9 1dbe
000000c0: bade 27be 2f7a b5bd 896b 273d 6d05 3dbe
000000d0: 135f 643e 2c73 92bd 89c1 433e 1bd7 233e
000000e0: 4849 903c 49f7 4f3e e802 323e fd72 a63d
000000f0: 428e 24bd e0d5 9c3c 7ada 6d3e a6c9 73bd
-0.19639112 -0.20730451 0.16830608 -0.017557008 0.043933067 -0.17879741 0.27788016 0.013208778
-0.046450507 -0.19862865 -0.22940095 0.07179416 -0.070784904 -0.2663989 0.26233414 0.07051535
-0.059910554 -0.23375905 0.008029087 -0.0034220256 0.21221443 -0.047395736 -0.022164032 -0.19193369
0.093434095 -0.10423949 -0.005166206 -0.020249061 0.23325488 -0.045507494 -0.09716887 -0.18120047
-0.08861921 0.121725254 0.14232728 -0.02626354 0.16793779 -0.039546516 0.14501981 0.12276247
-0.09796812 0.11421069 0.11938393 0.049000617 0.16383255 -0.04717753 0.119140916 -0.15414953
-0.16393557 -0.08861195 0.040874038 -0.18459101 0.22301893 -0.071508735 0.19116797 0.16000025
0.017613068 0.20309176 0.17383921 0.08127401 -0.04017473 0.019144952 0.23227873 -0.05951848

fc2.weight f4 [64, 64]
00000000: fa85 93bd 7ef4 6e3e c4ce c9bd 5a56 f53c
00000010: 07ce e53d 7460 63bd 0814 003e 0685 313e
00000020: 251d 2a3e e762 833e e3b7 673e 7577 903d
00000030: cb58 173e 1994 783d e102 1d3e 34f0 cbbd
00000040: e957 063e 01de 233e 88ae 8d3d e86a f2bc
00000050: 86e5 da3d 231f 5fbd 24f8 033d 43ed 593e
00000060: 800f 01bd fd8a 2b3c 8e4c a83d 43c8 d83d
00000070: 0087 913d 487c 4c3d 0098 9b3d 1132 3dbc
00000080: da94 183e 80a4 3f3e 8e58 4d3e 6b15 dc3d
00000090: 00b4 5fbc 587e c5bc 59af 313e 70f9 203c
000000a0: 7406 883e dc6d 103d 4813 e5bc 276e 823d
000000b0: 1bf0 623c 7e1b c23d f0e9 3bbd d01a 1e3e
000000c0: 1947 e03d 9bb2 433e 8875 353e 06e3 c9bd
000000d0: e089 45bc e09e 413d 6dad c53d 726f fc3d
000000e0: a2e1 4f3e 6e98 ce3c f890 443d 724f a5b9
000000f0: 81b0 ec3c f7f0 a1bd f03d afbc 238f 113e
00000100: b0a5 5a3c 994b 733d ca98 87bd c088 4f3c
00000110: c1d3 6f3e 7432 b4bd a7f3 6e3e 8dd0 293e
00000120: e3b0 1b3e 1ed6 603e 6723 383e 7934 553d
00000130: 6fa2 283e 5d69 0c3d 03ca 553e c09d b2bc
00000140: b931 a53d 745e 103e 00d8 d83a 800f 9dba
00000150: 82fa cdbd 58e3 d53d 78c0 e13d 9c3a 503e
00000160: 3e90 eb3d b179 133e 6c6f 0a3d 02a8 813e
00000170: 3c5e adbd f823 323d 7a52 ba3d f769 8e3d
00000180: de7a 0e3d 60a4 243e ec28 313c 142d 3c3d
00000190: 3034 0d3d be02 f03d 0f40 3f3e 405e b1bd
000001a0: 4053 7d3e 3dce 023e 4e49 cf3d 0187 793e
000001b0: 0c83 4a3e 5de5 9b3d 61a7 dcbd 002c ae3d
000001c0: 3912 043d 85a4 133e 212f 053e 9829 b23c
000001d0: 4039 c7bc dcf0 33bd 7171 2d3d 4649 f73c
000001e0: 82e3 a43b 8900 acbc 807e efbb f643 40bd
000001f0: 7a54 c63d b055 463b 7657 cdbd 7b6d 493e
00000200: d018 b5bc 38b5 87bd fc50 f1bd e0e8 fc3c
00000210: 83c0 503d 20ae 61bd 9a10 9f3c a1ea 923d
00000220: 3496 043d 2e2e 29bd f8be 8b3d bf69 f6bd
00000230: 0f24 c33c f7fc 343d 9482 36bd 2ef7 cabd
00000240: 2ba5 eebd 4094 d8bd e439 13bd 200f 453c
00000250: 5ac6 be3d c458 583d 5eca 8fbd d840 d03c
00000260: 3ca9 b5bd 61c6 8dbd b149 41bc 54cb b13d
00000270: c062 35bc d0b7 7c3d 00d0 7138 2adc ed3a
00000280: 2c16 82bd e0fa e1bc 9a7d ffbd 5f6e a73d
00000290: 24f1 0bbd 5e9d a53d 376e 733d c0c3 d2bd
000002a0: 371b fbbc b1b6 25bd 6073 b9bc 26d1 adbd
000002b0: e237 d6bd fbf2 44bd ff13 cd3d 7392 93bd
000002c0: 2858 99bd 2025 693c 80b3 823d e08c 2bbd
000002d0: 80b7 a63c 701a 1abd 418a 43bd 0cdc ddbd
000002e0: e733 02be 5127 bebd 5cba 633d 50a0 34bc
000002f0: b985 9e3d 664d 913d a027 493c ee7a d8bd
00000300: 801f 973a ce9f 7e3d c055 e4bb cc9e ef3d
00000310: 61ce b3bc 9401 c23d 0dbf 13be 4e1f f0bb
00000320: 5133 bd3d 13d8 093d 5306 13bd 6ca9 d53c
00000330: 3e21 9abd 65fc 34bd 7ae9 0abe 868b c43d
00000340: 12c6 ba3c 5e36 2cbd b0f0 433d e849 e33c
00000350: 9a5d efbd ea02 313d 103f 843c 0472 07be
00000360: e03c dabc cad5 303d b1ac 80bd d15b 203b
00000370: 0c25 cbbd bc94 4cbd f821 d03d 65ac 653c
00000380: 5348 13be cfb4 18be 22ff 71bd eb37 b33d
00000390: 04df 913d 16df c63d 389f 8cbd b86b f83c
000003a0: 6766 f4bd 589c 3a3d 1065 cdbd 2d3a e0bc
000003b0: 635b ba3d 5541 7d3d a550 12be b066 dcbd
000003c0: f346 b73d 3b0f 97bd 1c88 dcbd 18d3 1e3d
000003d0: 5c75 0d3d 40f3 4bbd 9c23 0ebe ff30 13be
000003e0: ce26 993d cb42 493d 04e5 f13d 7d4e bf3c
000003f0: 78dd 4a3d e43f c63d 508c ea3c 5e9d 47bd
-0.072032884 0.23335454 -0.098538905 0.029948402 0.11220937 -0.055511907 0.12507641 0.173359
0.1661268 0.25661394 0.22628741 0.070540346 0.14779966 0.060688112 0.1533313 -0.099579245
0.13119473 0.16002657 0.06918055 -0.029591992 0.10688309 -0.054473054 0.032219067 0.21281914
-0.031508923 0.010470149 0.08217727 0.10585072 0.07105827 0.04992321 0.07597351 -0.011547581
0.14900532 0.18715096 0.20053312 0.10746273 -0.013653755 -0.024108097 0.17352046 0.0098250955
0.26567423 0.03526102 -0.027963296 0.06368666 0.013851191 0.094779 -0.045877397 0.15439916
0.10951061 0.19111101 0.17720616 -0.098577544 -0.012056798 0.047270656 0.09652219 0.12325944
0.20300916 0.025219169 0.047989815 -0.00031530444 0.028892757 -0.079072885 -0.021391839 0.14214759
0.013345167 0.059398267 -0.06620939 0.012666881 0.23420621 -0.08798686 0.23335133 0.16583462
0.15204196 0.21956679 0.17982255 0.052051995 0.16468213 0.03428017 0.20877843 -0.021803737
0.080661245 0.14098531 0.0016543865 -0.0011982769 -0.10057546 0.10443753 0.110230386 0.20334858
0.115021214 0.1440189 0.033797666 0.25323492 -0.084652394 0.043491334 0.090977624 0.06953805
0.034785144 0.16078329 0.010812979 0.045941427 0.034473598 0.11719273 0.1867678 -0.08660555
0.24738789 0.12773986 0.10121404 0.24367906 0.19776553 0.07612107 -0.107741125 0.08504486
0.03224394 0.14418228 0.1300626 0.02174835 -0.024319291 -0.043930873 0.042344514 0.030186307
0.005032004 -0.020996349 -0.007308781 -0.046939813 0.096840814 0.0030263476 -0.100264475 0.1967067
-0.022106558 -0.066263616 -0.11783025 0.030872762 0.050964843 -0.0550977 0.019417096 0.07173658
0.032369807 -0.041303806 0.06823534 -0.12031888 0.023820905 0.04418656 -0.044558123 -0.09910427
-0.11652597 -0.105751514 -0.03594388 0.012027532 0.09315176 0.05281903 -0.0702102 0.025421545
-0.088701695 -0.069226034 -0.011797355 0.0868136 -0.011070907 0.061698735 5.7652593e-05 0.0018147279
-0.06351885 -0.027585447 -0.124751285 0.081753485 -0.034165516 0.08086656 0.05943128 -0.102912426
-0.030652625 -0.04045743 -0.022638023 -0.084871575 -0.104598776 -0.048083287 0.100135796 -0.07205667
-0.074875176 0.014230043 0.06381893 -0.041882396 0.020351171 -0.03762287 -0.04773927 -0.10832986
-0.12715112 -0.09284843 0.055597648 -0.01102455 0.07740349 0.07094841 0.012277514 -0.10570322
0.0011529773 0.06216412 -0.00696823 0.1170021 -0.021948995 0.09472957 -0.14428349 -0.0073279506
0.092383035 0.03365333 -0.035894703 0.026081763 -0.07525872 -0.044186015 -0.13565627 0.095969245
0.022799525 -0.042044036 0.04783696 0.027745202 -0.11687775 0.04321567 0.016143352 -0.13227087
-0.026640356 0.043172635 -0.06282938 0.002446879 -0.099191755 -0.04994653 0.10162729 0.014018153
-0.14383058 -0.14912723 -0.059081204 0.087509 0.07122615 0.09710519 -0.06866306 0.030324802
-0.11933594 0.045559257 -0.10029042 -0.02737149 0.09099462 0.061829884 -0.14288576 -0.107617736
0.08949079 -0.07375952 -0.10768148 0.038775533 0.03453575 -0.04979253 -0.13880771 -0.1437416
0.074781045 0.049135964 0.118112594 0.023352856 0.049527615 0.09680155 0.02863136 -0.04873406

fc2.bias f4 [64]
00000000: c41d 633e 5f8c d63d f901 89bd fdd6 f6bd
00000010: 3b02 143e f85d ecbd dfb0 57bc ac54 c8bd
00000020: 6762 f0bd 22be 9e3d 76da babd 71e7 7c3d
00000030: 6221 093e 6c43 08be 96ff c0bd fb2b 03bd
00000040: d1f2 0e3d 1099 35bd 2625 213b 9ff0 75bc
00000050: 1a37 ce3d e06b 03bd 5756 18be 448b 943d
00000060: b4da 363d fa7c b73d ab9b e7bd c17c bd3d
00000070: 9742 50bd f2b9 bf3d 3e68 9a3d b40b d1bc
00000080: 9fb8 5d3c 6601 113e fea4 afbd 1487 4abd
00000090: 24e3 bcbd 2998 bcbd a2bb f23d a822 05bd
000000a0: 7ac4 203e 925f 70bd 4925 38bc 35f1 1e3d
000000b0: 96ad 123e 46dc 693d 0beb a5bd 7e7f c53d
000000c0: b77c 9a3d 4cb3 b63d ce85 c8bc f089 dd3d
000000d0: 10c0 a5bc 32e4 c33d 2821 8f3d 19a5 a53d
000000e0: 8f70 023e 6a32 8fbd 4401 1f3d c877 41bd
000000f0: 440a 75bd d04a d5bc 2e2b 8abd 384e 07bd
0.22179323 0.104759924 -0.066898294 -0.120527245 0.14453976 -0.115413606 -0.013164728 -0.09781775
-0.11737519 0.07751109 -0.09123699 0.061744157 0.13391641 -0.1330697 -0.09423749 -0.032024365
0.034899537 -0.044335425 0.0024588793 -0.015010982 0.100691035 -0.0320853 -0.14876686 0.07253125
0.044642165 0.08959384 -0.11308988 0.092523105 -0.050844755 0.09361638 0.07539414 -0.025518276
0.013532787 0.1416069 -0.08576392 -0.049445227 -0.09223011 -0.0920871 0.11852194 -0.032503754
0.1569995 -0.058684893 -0.011239358 0.03880425 0.1432403 0.057094835 -0.081014715 0.09643458
0.07543319 0.08920917 -0.024477866 0.10817325 -0.020233184 0.09565009 0.06988746 0.080881305
0.1273825 -0.069920376 0.038819566 -0.047233373 -0.059824243 -0.02603665 -0.06746517 -0.03303358

fc3.weight f4 [3, 64]
00000000: fc9e 3b3e 70dc eb3d 0d52 5abd 0df4 643c
00000010: 4bd6 8f3d 30a6 99bb ca15 edbc 856a f1bd
00000020: a6c6 593e d68f 6b3e e099 c1bd 8923 3b3e
00000030: 15ff de3d a74e e33c 35ee a7bd 3a51 c2bd
00000040: 2f29 23be 8830 ea3c cc08 d1bd 57bc 8c3c
00000050: 6643 eabd d8cb e2bd 43e2 ebbd de08 dd3d
00000060: be31 d0bd 50a7 63bd cebc dabd 32af 463d
00000070: f34c 893b b860 8e3e 108c f5bc 0be5 883e
00000080: 84d1 633e 3571 343e 48e2 d13d 67b8 f9bc
00000090: e853 2d3d 464c e13c 0ef2 dabd 28dc a4bd
000000a0: 65f2 9f3e 537f 2c3e 95b7 163e 8a5b 353e
000000b0: 749b 6abd fd07 43bd efe1 e83d 8061 f43d
000000c0: 9d3a 253d e013 1ebc a266 943e 9027 c03d
000000d0: 585b 8dbd 4013 d8bd 80c0 313e 3fbc 7ebd
000000e0: 39fe 053e 74f3 6c3d 0c0c ef3c 2034 b63c
000000f0: bf97 aabd 3c61 c0bd 2441 323d 744d 0fbd
00000100: 1e25 393e d703 353e 7921 063d bd29 4e3d
00000110: ae57 853e c79c 393d 86fe 22bd c0a4 b6bb
00000120: 4798 48be dc83 fcbd 9089 f5bc 8e33 b93d
00000130: 0db4 5f3e 9d44 cebd 9c40 bb3d b375 fdbd
00000140: c1b0 683e 18a3 a1bc b4d0 a13b 3bc0 d63d
00000150: 40a5 4d3b 14ea b23d 565d 00bc 68c5 ee3d
00000160: fcf4 8cbd c05d f8bd 4a49 c8bd f657 8abc
00000170: 7adf 213d 208b b63c 40f8 363d ed1c f1bd
00000180: 33ed b7bd 5d7e 82bb c076 b93c eec4 fe3c
00000190: d039 393c 1491 b9bd e4c7 33bd 3807 e83c
000001a0: b305 543c e109 3bbe 7dc0 edbd 877e 553e
000001b0: 1a4d 8e3e c846 b8be b576 6b3d 60ad c1bd
000001c0: c9bb 01bf e01f ecbb 81ba 7ebd b0d7 e4bd
000001d0: 8499 bc3d a0bb 5abc 582f 0d3e fddf 5b3e
000001e0: 60c8 233e 0e13 87bd dfbd 163e 7ae6 c03d
000001f0: 747a b83d 74a7 d8bd 423e a5bd 001f db3a
00000200: 1c47 9b3d 511f 0f3e 16c7 5abc c8b9 9abd
00000210: de2d b93d d9f6 93bd 7f6b 89bd b67b 213d
00000220: b7fa ce3d c6db 943d 00a8 50bb aaa4 213e
00000230: 9fff 353e c8d9 49bc d0be 673d 7cbb ab3d
00000240: 9a55 f8bc 527f c73d d27d d2bd e92a 90bd
00000250: e842 293d 84a1 9e3d 3f12 d3bb 7453 e6bd
00000260: 3812 8b3d 8e48 a2bd 67f1 6d3d e162 a0bb
00000270: 0bf2 6d3c 6308 133e 885b 943d 6a9b 5e3d
00000280: 2ef3 5fbd eac6 303e f8a9 bfbd c5bc ed3d
00000290: 5254 fe3d ac4e 23bd 56fd e4bd 5c6a 9d3d
000002a0: a98c 063e 5465 a13d 49f2 a13c 2f68 9a3d
000002b0: 82b8 4fbc 1c18 09be 8caf 093e 5e04 a4bd
000002c0: 05c4 9a3b 9c6c d6bd bf49 7f3d 1caf c0bd
000002d0: 1016 ef3c 3056 363c f062 b73d 8fd8 1d3e
000002e0: 1dc6 d33c 5829 1d3d 32bb 023e 2088 60bd
000002f0: 2c53 493d bee9 923d 6011 5cbd 760e 87bd
0.18322366 0.115166545 -0.053300906 0.013974202 0.07023295 -0.0046890005 -0.028941054 -0.11787895
0.21267185 0.23004088 -0.094531775 0.18275274 0.10888497 0.027747465 -0.08199731 -0.09488149
-0.15933679 0.028587595 -0.10206756 0.017179651 -0.114386365 -0.11074036 -0.115177654 0.10792707
-0.101657376 -0.055579484 -0.10680543 0.048506923 0.0041900813 0.27808166 -0.029974014 0.26737246
0.22247893 0.1762131 0.10248238 -0.030483438 0.042316347 0.02750219 -0.106906995 -0.08049804
0.3123962 0.16845445 0.14718468 0.177107 -0.057277158 -0.04761504 0.113712184 0.11932659
0.0403391 -0.009648293 0.28984553 0.09382546 -0.06902188 -0.10550547 0.17358589 -0.062191244
0.1308526 0.057849362 0.02918055 0.022241652 -0.083297245 -0.09393546 0.043519154 -0.034985974
0.18080565 0.17677246 0.032746766 0.050332773 0.26043457 0.04531553 -0.039793514 -0.005573839
-0.19589339 -0.12329838 -0.029972821 0.090430364 0.21846028 -0.10071681 0.09143183 -0.12375965
0.22723676 -0.01973109 0.0049382094 0.10485884 0.0031379014 0.08736053 -0.007834753 0.11658746
-0.068826646 -0.121272564 -0.09779604 -0.016887646 0.039519764 0.022283137 0.044670343 -0.11773095
-0.08980789 -0.003982349 0.022639632 0.031099763 0.0113052875 -0.090608746 -0.043891802 0.028323755
0.012940812 -0.18265487 -0.1160898 0.20849048 0.277932 -0.35991502 0.057486255 -0.09456897
-0.5067716 -0.0072059482 -0.062189583 -0.111739516 0.09208968 -0.013350397 0.13787591 0.21472163
0.15994406 -0.06595431 0.14720868 0.0941896 0.09007731 -0.10578814 -0.08068515 0.0016717613
0.075819224 0.1397679 -0.01335313 -0.07554966 0.090419516 -0.07224817 -0.067099564 0.03942462
0.10106414 0.07268481 -0.0031838417 0.1578547 0.17773293 -0.0123199895 0.056578457 0.08385369
-0.030314256 0.09741081 -0.102779046 -0.070394345 0.041323572 0.077456504 -0.006441384 -0.11246386
0.06790584 -0.07923995 0.058091547 -0.0048946 0.01452304 0.14358668 0.07244021 0.054347433
-0.054675274 0.1726338 -0.09358591 0.116082706 0.124184266 -0.03986995 -0.111811325 0.07686302
0.13139595 0.07880655 0.01976885 0.07539403 -0.012678267 -0.13388103 0.13445872 -0.080086455
0.0047230744 -0.10469934 0.06232619 -0.094083995 0.029185325 0.011128947 0.08954418 0.15414642
0.025851304 0.038369507 0.12766722 -0.05481732 0.049151585 0.07173489 -0.053727508 -0.06594555

fc3.bias f4 [3]
00000000: 73fe 543e a7f9 363e 3166 2b3e
0.2080019 0.17868672 0.16738202
